pythorch saved models/AE_encoder.pt (torch, 737254 bytes, 6 tensors)

encoder.0.weight f4 [512, 69]
000000 93 7a cb bc 10 c2 13 bc 9c eb 32 be 15 ea 34 3d
       -0.024838721 -0.009018436 -0.1747269 0.04416855
000010 a6 ae dd bd 65 6c d9 bd 2d 5b 67 3d 24 76 0e be
       -0.10824327 -0.10616378 0.056483436 -0.13912255
000020 a6 a3 49 be 31 4a 89 bc 90 d6 8c 3d 4e 97 23 bd
       -0.19691333 -0.01675901 0.06876862 -0.039939217
000030 a5 87 e5 3d 27 3c 43 be 79 dc 77 3c 66 17 14 be
       0.11207513 -0.19065915 0.015128248 -0.14462051
000040 63 cf c3 3d a6 31 e7 3d 99 bb 84 3d e2 ac c4 3d
       0.0956104 0.112887666 0.06481094 0.09603287
000050 f7 30 c6 3d 62 d8 9f bd b2 12 3e 3e 87 a8 8a 3d
       0.09677308 -0.078049436 0.18561819 0.06770425
000060 44 dc 96 3d 46 fc 96 bd 51 0b 83 bb 5d bd 1a 3e
       0.07366231 -0.07372336 -0.0039991518 0.15111299
000070 a3 d6 25 3d 86 f8 e7 bb 3f f8 3e 3e 16 cb f1 3c
       0.040487897 -0.007079187 0.18649386 0.029515784
000080 7b f5 9a 3c 7f 31 1d bc 17 4c e4 3d d6 65 1a bd
       0.018915882 -0.00959432 0.111473255 -0.037694775
000090 f4 49 c3 bd a8 7e 65 bd 81 34 af be 4f 26 82 be
       -0.0953559 -0.056028992 -0.34219745 -0.25419852
0000a0 94 52 83 3d 81 99 90 3d 46 15 ba bd e4 3d 28 bd
       0.06412235 0.070605285 -0.09086089 -0.04107465
0000b0 08 48 cc bc 48 27 8c 3e d9 1d c7 3c bc d0 4a 3e
       -0.02493669 0.2737372 0.024306225 0.19806188
0000c0 a4 bd 45 be 61 4e f8 bd 11 fa 5c bd 96 e4 38 3d
       -0.19310623 -0.121243246 -0.05394942 0.04513987
0000d0 52 d8 ec bc fe 0b c9 3c 5e 9d a9 3d 37 13 e3 3c
       -0.028911743 0.024541851 0.082819685 0.027719123
0000e0 72 3f c7 bd 83 02 b7 3d df 9b 00 be 32 bf 59 3d
       -0.09728898 0.08936026 -0.1255946 0.053160854
0000f0 93 71 3a be 0c 30 01 3c b6 72 65 bd be 6b e4 bb
       -0.18207388 0.00788499 -0.0560176 -0.0069708517
000100 5d c9 2a be bf 68 2a 3e b8 c2 84 bd 7e e9 9a bd
       -0.16678376 0.1664152 -0.06482452 -0.07564066
000110 55 f1 3f bd 19 2d ff 3d 73 fb 00 3e 8a f6 68 bd
       -0.04686101 0.124597736 0.1259592 -0.056875743
000120 4f 37 89 3c 63 a7 48 bd 2a 27 a8 3c 0b 84 03 be
       0.016750006 -0.048987757 0.020526487 -0.12843339
000130 bf 8e 70 3c 3e e0 13 3e 50 71 38 3e 34 00 96 bc
       0.014682471 0.1444101 0.18011975 -0.018310644
000140 04 4e 9f bd d9 37 aa 3d fb 8f 82 3e c3 41 d4 bd
       -0.07778552 0.08311433 0.25500473 -0.103641056
000150 a6 ee 3b be b2 c7 bd bd 57 42 2e bd ea 0e b0 be
       -0.18352756 -0.092666045 -0.042543735 -0.3438638
000160 c2 19 02 be a0 68 a1 3d 35 7c c1 3c 6d cd 3f bb
       -0.12705138 0.07881284 0.023618797 -0.002926673
000170 f0 46 55 be 95 0c 2b 3d fd 89 ea 3d 27 38 81 3d
       -0.20827842 0.041760046 0.114521004 0.06309538
000180 ed 98 1a 3e f3 c8 08 be 55 bc 81 be 81 6d fa bd
       0.15097399 -0.13357906 -0.25338998 -0.122279175
000190 5c f9 80 bd 34 b9 d2 3c dd d3 d6 bd 05 5c 76 3e
       -0.062975615 0.025723077 -0.104896285 0.2405854
0001a0 63 74 3d ba ff 56 d5 bc e9 c7 08 3d 52 7c 19 3e
       -0.0007227121 -0.02604246 0.033393774 0.1498883
0001b0 73 d0 a8 3d c7 26 fa 3d 86 ea 7e be 96 70 ee bd
       0.082428835 0.122144274 -0.24894151 -0.11642568
0001c0 c0 03 20 3e 94 90 8e 3d d5 9c a7 bd 5b e1 4b bd
       0.1562643 0.0696117 -0.0818421 -0.049775463
0001d0 4e b5 44 be 0a 95 53 ba a1 5e 6b 3d c8 cb 30 3b
       -0.19209787 -0.000807122 0.057463292 0.0026976932
0001e0 6d cf e5 bd 4a ca 54 bd 14 58 a3 bc ac 50 66 bc
       -0.11221204 -0.05195073 -0.01993946 -0.01405732
0001f0 c1 e6 8a bb f9 d9 a1 3d db cb df 3d 4a 36 2f bd
       -0.004238934 0.07902903 0.10927554 -0.042776383
000200 3d cb 93 3d a5 2b d5 3c 1f 0d 18 3d 09 a2 13 3e
       0.07216499 0.026021788 0.03712189 0.1441728
000210 99 d0 01 3e 51 ee 5f be d5 2c 28 be 19 71 01 bd
       0.1267723 -0.21868254 -0.16423352 -0.031602
000220 84 cd d5 bd 39 69 38 bd ca 8b 46 3c 96 43 94 bd
       -0.104395896 -0.045022223 0.012118289 -0.072394535
000230 65 91 ab bd be d0 c4 3d 47 14 df bd c9 e1 d1 3c
       -0.08377341 0.09610127 -0.108925395 0.025620358
000240 b4 27 81 be af e7 27 3d 16 b7 ec bd 51 46 87 be
       -0.25225604 0.040992435 -0.11558358 -0.26420835
000250 0f b4 cf 3c 34 dc ae 3e 23 b9 cc bc 5e e5 d7 bd
       0.025354413 0.34152377 -0.024990624 -0.10541795
000260 bc bf c6 bd b2 9f 8e bc 99 64 5f 3e e2 67 37 bc
       -0.09704539 -0.017410133 0.21815719 -0.011194201
000270 43 87 0e be 54 25 cf 3d 78 36 c3 3c d3 6f a2 3c
       -0.13918786 0.10114542 0.023829684 0.019828713
000280 03 a6 d9 bd 9e 88 bc bb ee a6 dc 3d 47 04 dc 3d
       -0.10627367 -0.0057535907 0.10774027 0.10743003
000290 38 b8 85 3e 8f 29 96 bd ef 26 f7 bb d2 de 70 3e
       0.2611711 -0.073321454 -0.007542483 0.23522499
0002a0 bb 0d d7 3d 44 cc b2 3d 4d d1 ab bd e2 23 77 bd
       0.10500666 0.08730367 -0.0838953 -0.060336955
0002b0 62 d2 f2 bd 39 c3 96 bd 58 31 9a be dc a1 5e be
       -0.118565336 -0.073614545 -0.3011577 -0.21741432
0002c0 ee 22 69 be 7f a2 6e be 39 4f a3 3d 76 2f 93 3d
       -0.22767231 -0.23304175 0.07974095 0.07186787
0002d0 e1 9c 5e bc cc e8 02 bf ce f7 00 3f 3a 1f 6b 3e
       -0.0135872075 -0.5113647 0.5037812 0.2296113
0002e0 d2 3b 1f be 01 df 90 3d 30 94 5c be 61 d8 42 be
       -0.15550163 0.070737846 -0.21540904 -0.19027855
0002f0 b4 fd 4a bd 1c e4 18 3d ea c4 09 3d ea 4f 5f bd
       -0.049558356 0.037326917 0.033635058 -0.05451957
000300 53 c6 ac bb bc 52 23 3d f1 eb 84 3e 4e b8 53 3c
       -0.0052726655 0.039873824 0.2596126 0.01292236
000310 f9 82 a8 3d e9 55 f6 3d 47 ac 7c bc 16 83 bf bd
       0.08228106 0.12028105 -0.0154219335 -0.093511745
000320 20 fa 27 bc 9a e3 61 3e 47 51 c9 3c 36 9f 1a bc
       -0.010252506 0.2205948 0.024574889 -0.009437373
000330 b7 d9 f4 3d 95 b0 93 3d 4a 0c 14 3d 66 28 70 3e
       0.11955588 0.07211415 0.036144532 0.23452911
000340 6d 53 69 be f6 22 89 bc 80 84 53 bd 6e 4b 14 bd
       -0.2278573 -0.016740303 -0.051640034 -0.036204748
000350 0e fd 8d bc 64 ec 73 3d 70 8b a7 bd f8 12 37 3c
       -0.01733258 0.05955161 -0.081808925 0.011173956
000360 16 af 7f 3e 4e 4f 72 3d 4c 86 13 bd 62 4d db 3d
       0.24969134 0.059157662 -0.036016747 0.10708119
000370 9d 62 8a 3d 0f 87 80 3c 86 67 8e 3e ae 11 da 3d
       0.0675709 0.015689401 0.27813357 0.106479034
000380 74 5d dd bb 3b 19 f5 bd f6 2e 07 3e cc 3b 22 be
       -0.0067555252 -0.11967703 0.13201508 -0.15843123
000390 b3 d6 c8 3c 50 d7 52 3e aa 93 8f bd 8f 8d 5d 3b
       0.024516439 0.20589948 -0.070105866 0.00338063
0003a0 fb 81 5e be 68 38 1e 3e fc 60 80 3e 3a 2e b1 bd
       -0.21729271 0.15451205 0.25073993 -0.08651395
0003b0 d5 f5 97 3d 38 f8 29 3e fd 67 82 3b 44 c6 35 3d
       0.074199356 0.16598594 0.0039796815 0.044378534
0003c0 73 4d 13 3e 24 b2 0a bf b7 81 7c 3d f7 ab a6 bc
       0.14385013 -0.5417807 0.061647143 -0.020345671
0003d0 43 8a 45 bd 06 33 07 bd f1 a7 32 3e 50 5c 31 bd
       -0.04822756 -0.033007644 0.17446877 -0.043300927
0003e0 31 19 65 3e d8 eb 10 bd 15 84 b2 bd f3 61 d0 3d
       0.22372891 -0.035381168 -0.08716599 0.10174932
0003f0 fd 3f 9c 3d c0 11 e9 3c 23 66 f4 3d e1 0b 61 3d
       0.07629392 0.028450847 0.119335435 0.05494297

encoder.0.bias f4 [512]
000000 ae 75 1d bf 40 95 11 be 5f 79 9c be 16 30 a7 be
       -0.6150769 -0.1421709 -0.3056135 -0.32653874
000010 e5 cf 34 be 9a 2a a1 be 62 ff 03 bf 23 6c 1f bf
       -0.1765743 -0.31477815 -0.5156156 -0.6227438
000020 ad 44 dc be 4a 16 85 be 20 e0 2f bd 4c 22 4b bf
       -0.43021145 -0.25993568 -0.04293835 -0.7934921
000030 a0 76 cc be 90 48 7e be 69 fe b4 be d5 97 98 be
       -0.39934254 -0.24832368 -0.3535035 -0.2980334
000040 21 1b e6 be 5f 50 7d be 16 61 01 be dc 63 1d bf
       -0.44942573 -0.2473769 -0.12634692 -0.614805
000050 e4 47 2d bf 76 f2 8c be f0 fa 98 be bf 2c 4d be
       -0.6768782 -0.27528733 -0.2987895 -0.200366
000060 79 c4 bf be ce bf b8 be e3 3e 4d be 93 15 ba be
       -0.37454584 -0.36083835 -0.2004352 -0.36344585
000070 5e 7b 19 bf 29 eb 08 bf 3b f4 04 bf 90 b0 bd bd
       -0.5995387 -0.53483826 -0.51935166 -0.09262192
000080 dd 79 f1 be 59 c5 8a be 5b ad ce be d3 ff 84 3d
       -0.47163287 -0.2710369 -0.40366635 0.06494107
000090 82 d9 a4 be 94 54 6c be 32 9d 97 be 41 b9 f6 be
       -0.32197195 -0.23079139 -0.29612118 -0.48188213
0000a0 2c 2e 23 bf 2c 95 f9 be 15 e1 c8 be 7f 91 de be
       -0.6374233 -0.48746622 -0.39234224 -0.4347038
0000b0 12 6c e1 be 1d 6a 80 be 1c f8 43 bf 9f 13 80 bd
       -0.44027764 -0.25080958 -0.7655046 -0.062537424
0000c0 85 95 89 be bf 69 b9 be 29 c5 72 be 77 2e 81 be
       -0.26871887 -0.3621349 -0.23708023 -0.25230762
0000d0 90 18 0f bf 4a d2 91 be 3b 8c 8b 3e 0b 74 97 be
       -0.55896854 -0.2848075 0.27255425 -0.2958072
0000e0 97 ad c2 be 56 fd 33 bf bd 11 1e be e2 f2 3d be
       -0.38023064 -0.70308435 -0.15436454 -0.18549684
0000f0 6a d4 b0 be 42 14 34 bf 0c 01 0c bf f5 02 54 be
       -0.3453706 -0.7034341 -0.546891 -0.20704253
000100 2f 58 1d be a7 16 aa be 35 67 24 bf 98 5d fa be
       -0.1536567 -0.33220407 -0.6421998 -0.4889953
000110 ef b9 94 be 70 7c 94 be 1a f9 89 3b dd 4e be be
       -0.29048106 -0.29001188 0.0042106034 -0.37169543
000120 1e f4 bc be 11 4c 1a bf 84 ef a7 be 81 7c 3f bf
       -0.36904997 -0.6027232 -0.32799923 -0.7479935
000130 45 32 00 bf e3 74 d7 be 41 81 12 bf e2 b4 10 bf
       -0.50076705 -0.42081365 -0.57228476 -0.56526005
000140 ff b6 02 be 4d b9 53 be 53 c7 0a bf 8f 71 f5 be
       -0.1276512 -0.20676155 -0.54210395 -0.479382
000150 af b9 d8 be 46 79 b0 be 64 4d be be 39 aa 49 be
       -0.42329165 -0.34467524 -0.3716842 -0.19693841
000160 53 f1 bd be 39 9d d4 be c5 b1 85 be 54 bc e3 be
       -0.37098178 -0.415262 -0.2611219 -0.4447962
000170 98 7a 31 bf 18 7f d0 be 53 bf 0d bf 64 ad 8b be
       -0.6932769 -0.40721965 -0.5537006 -0.27280724
000180 e2 53 2e be ec b6 21 bf 3c 73 2f bf 53 66 b4 be
       -0.17024186 -0.6316974 -0.6853521 -0.35234317
000190 a5 d4 91 be 89 07 d9 be 1b d7 83 be fd 49 91 be
       -0.28482547 -0.4238856 -0.2575005 -0.2837676
0001a0 a1 64 47 bf a6 a8 dd be 5a ba 39 be 5a c3 ce be
       -0.7788792 -0.4329273 -0.18137494 -0.40383416
0001b0 bb 38 97 be a5 ee ea be 5b f7 cb be 11 07 b5 be
       -0.2953547 -0.45885196 -0.39837155 -0.35356954
0001c0 73 3b ef be e0 12 ae be 62 ee 1d be a4 32 af be
       -0.46725044 -0.33998775 -0.15422967 -0.34218323
0001d0 13 39 dd be 41 2a 1a bf 10 6b 0b bf d0 12 d2 be
       -0.43207607 -0.60220724 -0.5446024 -0.41029978
0001e0 1f 7b 95 be ee e2 14 bf b6 79 04 bf cf 82 fb be
       -0.29195496 -0.5815877 -0.51748216 -0.49123237
0001f0 6c 5b ed be 00 3f 04 bf b1 10 ec be 43 60 cc be
       -0.46358812 -0.5165863 -0.46106485 -0.39917192
000200 ee 6d 88 be 8b 91 be be 6c d7 b7 bd 82 07 01 bf
       -0.2664637 -0.37220415 -0.08976635 -0.5040208
000210 be ca ee be 76 81 13 bf 87 51 eb 3d f3 76 c3 be
       -0.46639055 -0.57619417 0.114901595 -0.3817669
000220 b2 2a f3 be da 11 fe bd 18 0a 80 be 32 65 13 bf
       -0.4749351 -0.12405749 -0.250077 -0.57576287
000230 83 ad df be b7 be ac be 64 45 fd be dd 3c c6 be
       -0.43687066 -0.33739254 -0.49467003 -0.3871831
000240 9e f6 d3 be 5a 30 10 bf 3f c5 2f bf 41 c9 14 bf
       -0.4139909 -0.5632378 -0.6866035 -0.5811959
000250 b0 f4 54 bf ee c7 3e be e9 75 f0 be 1e ff f9 be
       -0.83185863 -0.18630955 -0.46964958 -0.4882745
000260 04 78 d2 be 61 fb fc be 4f 71 87 be 9a 7a 9a 3d
       -0.4110719 -0.49410537 -0.26453635 0.07542916
000270 7a 31 62 be c3 63 e6 be bc fa df bd 24 c9 31 bf
       -0.22089186 -0.44997987 -0.10936496 -0.6944754
000280 9e 19 ea be e6 0e 8b be b2 b0 0d bf 09 c0 74 be
       -0.4572267 -0.27159804 -0.5534774 -0.2390138
000290 70 62 1f be b9 a3 82 be 5a c9 e5 be 3e a3 17 be
       -0.15564895 -0.25515535 -0.44880182 -0.14808366
0002a0 34 44 70 be d6 43 0a bf 0b ee 08 bf e5 fd ab bd
       -0.23463517 -0.5400976 -0.53488225 -0.08398036
0002b0 5b 6f 21 3e ee c8 e0 bd 41 3a 19 be 96 35 ca be
       0.15765135 -0.10975824 -0.14963628 -0.39494008
0002c0 fa b9 97 be 75 3a 9a be e4 20 d9 be b1 2d d5 be
       -0.29634076 -0.30122724 -0.42407906 -0.41636422
0002d0 73 2b a0 be df 58 80 be 27 66 ff be 80 80 29 bf
       -0.3128315 -0.25067803 -0.49882624 -0.662117
0002e0 1a 8f 64 be 1e de cc be 23 3f 2d be 2d a9 0d bf
       -0.22320214 -0.40013212 -0.16918616 -0.55336267
0002f0 ec 01 83 be 3f 18 70 3d 64 64 2d bf 5a 35 f5 be
       -0.25587404 0.058616873 -0.6773131 -0.47892267
000300 b1 24 7b bd 1b 8a 04 bf 40 ca 2f bd 0e cf e3 be
       -0.06131429 -0.5177323 -0.04291749 -0.44493908
000310 f9 8e b3 be b7 e3 ac be 8b c9 dc be 70 2b 12 bf
       -0.35070017 -0.33767483 -0.43122515 -0.5709753
000320 98 1c f1 bd 1c c9 99 be 02 4f 51 be 84 e5 eb be
       -0.11773032 -0.30036247 -0.20440295 -0.46073544
000330 98 e7 d6 be bb 57 9f be fe 48 3d bf 7c e6 b9 be
       -0.41973567 -0.3112162 -0.739395 -0.36308658
000340 b5 57 eb be 00 06 d6 be 31 20 99 be fe 6b df be
       -0.45965353 -0.41801453 -0.29907373 -0.4363708
000350 c7 84 b0 be 76 58 a7 be 78 c4 f7 be dc 41 d4 be
       -0.344763 -0.32684678 -0.4839208 -0.41456497
000360 5c 04 34 bd e0 ba ff be 84 ec a5 be 14 40 ce be
       -0.04394947 -0.49947262 -0.3240701 -0.40283263
000370 8c 5c 3b bf 92 07 a0 bd eb bc 0e bf 30 15 25 bf
       -0.7318809 -0.07813944 -0.55757016 -0.64485455
000380 db 70 9a 3c d3 41 92 be 22 53 b2 bd d2 72 ee be
       0.018852642 -0.28565845 -0.087072626 -0.46571976
000390 8a 16 86 bc e1 b6 03 bf 4a 34 a0 bd 94 83 f7 be
       -0.01636817 -0.51450926 -0.07822473 -0.48342574
0003a0 61 a4 d8 be 8f 9b be bd aa c3 f4 be 06 ee 09 bf
       -0.4231291 -0.09307014 -0.4780553 -0.5387882
0003b0 7f 93 9c be 01 a7 39 be 5e c2 22 be 9f f2 dd be
       -0.3058128 -0.18130113 -0.15894458 -0.43349168
0003c0 9b d6 c4 be 40 22 f4 be 7e 31 20 be 9b d9 c1 be
       -0.3844498 -0.4768238 -0.1564388 -0.37861332
0003d0 31 81 c1 bb fb 0c 14 bf 92 a4 23 bf b8 0a 84 be
       -0.0059052934 -0.57832307 -0.6392299 -0.25789428
0003e0 b2 d9 06 bf 7b 2a 8e be a5 90 72 be ed 0b af be
       -0.52675927 -0.27766785 -0.2368799 -0.34188786
0003f0 fa 5e 5f be ec 25 66 be 34 da dc be 92 0b 5a be
       -0.21813574 -0.22475404 -0.43135226 -0.21293476

encoder.2.weight f4 [256, 512]
000000 f1 13 10 bd 33 da 73 3a 4e e4 d3 bc e5 e2 f0 bc
       -0.035175268 0.00093022286 -0.0258657 -0.029405067
000010 5b 56 41 3d ec 9f 1a bd 3f 5e 7c 3c d2 48 ad 3c
       0.047201496 -0.03775017 0.015403329 0.021152887
000020 74 a9 96 bd aa 5f 0f bc 1d 17 01 3d 06 0a 07 bb
       -0.07356539 -0.008750835 0.031516183 -0.002060534
000030 0c c2 32 3d 2c ff 22 3c c6 3b a3 bd 30 69 fc bc
       0.04364209 0.009948533 -0.07970385 -0.030811876
000040 21 52 ee bd 80 4d 45 bc 6a 5c e6 bd 73 72 43 3c
       -0.116367586 -0.012042403 -0.11248095 0.011929142
000050 c0 6f 5e 3d df 7b 15 bd 3a 89 43 3d b9 48 15 be
       0.05430579 -0.036495086 0.04773829 -0.14578523
000060 ca e5 d2 bc 93 5e 85 bd 0c d6 48 bc a3 fb 29 be
       -0.025744338 -0.06512179 -0.012258064 -0.16599898
000070 62 dd b2 3c 5e 16 e4 bc 2a d7 76 bd 00 8a 5b bd
       0.02183408 -0.027842697 -0.06026379 -0.053598404
000080 f4 71 35 ba 4b ff 45 bd bb ed 6d bd 17 50 c1 bd
       -0.00069215824 -0.04833917 -0.058088046 -0.09439104
000090 7b eb 94 3c e9 a7 1d bd ff df 9f bd 9e 16 c8 3c
       0.018178692 -0.03849021 -0.07806396 0.024424847
0000a0 07 e5 55 3d c0 f5 d9 3c 3c 4a b6 bd 6d 74 e1 bd
       0.05222037 0.02660644 -0.08900878 -0.110085346
0000b0 d1 9c b7 bc b9 da 84 bd e4 a9 0f bd 8a 17 ab bc
       -0.022413643 -0.064870305 -0.03507413 -0.020885248
0000c0 e3 c8 49 3c 17 f9 92 bd 72 4d 01 bd 7a 28 6f 3d
       0.0123159615 -0.07176416 -0.031568 0.05838821
0000d0 27 1f ac 3c 51 e6 f1 3c e5 36 1d be 09 16 96 3d
       0.021010948 0.029528769 -0.15352972 0.073284216
0000e0 3a d8 2b bc 2e f7 3c bd 78 ed 19 bc 61 d0 14 bd
       -0.010488564 -0.046134166 -0.009394996 -0.036331538
0000f0 62 21 44 be bc c2 ae 3c 43 6d 47 bd 5c 45 b3 3d
       -0.1915336 0.021333091 -0.048688184 0.087534636
000100 7a 6e 54 3c 5e 89 18 bd 58 6f 84 3c 13 1a 6b bd
       0.012965793 -0.03724038 0.016166374 -0.057397913
000110 46 8e 0d 3c fc 22 81 bc 96 47 76 bd 7d 78 85 bb
       0.008639878 -0.015763752 -0.060126863 -0.004073201
000120 23 4a ca bc ed 6e c1 3c 60 1d bf bd e8 28 80 3d
       -0.024693554 0.023612464 -0.09331775 0.06257802
000130 ab 3b 96 bc 4c b3 07 be 1f 05 25 3d 29 7f 25 bd
       -0.018338999 -0.1325199 0.040288087 -0.040404473
000140 6d ee 47 3c e5 31 5d bc d6 ae 1a bd 27 ab 4f 3c
       0.012202841 -0.013500665 -0.037764393 0.012675083
000150 00 a9 0a 3c db 53 31 bd f0 29 22 bd 05 0c 8a 3b
       0.008463144 -0.04329286 -0.039590776 0.0042128586
000160 4e 05 6d 3d dd f1 e4 bc 18 8f 3a bc 81 d5 c5 bd
       0.057866387 -0.02794736 -0.011386655 -0.09659863
000170 52 46 bc bd 2b cc 6e bc ff ad e5 3c 5a c7 9a bd
       -0.091931 -0.014575045 0.02803707 -0.075575545
000180 c6 38 34 3c 47 e4 73 bd 51 b3 de 3c 3c 8b 28 3d
       0.010999864 -0.059543874 0.027185114 0.04114841
000190 b8 42 5a bd c0 f5 a5 bd 5e 1e 89 bc 33 9c c0 bc
       -0.053286284 -0.08103514 -0.016738113 -0.023511982
0001a0 a8 ca e0 bd 60 95 a4 3b de 08 9b 3c 0a 3a 53 bd
       -0.109761536 0.0050226897 0.018925127 -0.051569022
0001b0 ac 94 e9 bc ae 33 33 bd 49 c3 b3 bd fb 58 1a bc
       -0.028513275 -0.043750457 -0.08777482 -0.009420629
0001c0 d5 c5 55 3d ef c4 65 bd 6c 60 48 bd 90 81 dc bd
       0.05219062 -0.056096014 -0.04892008 -0.107668996
0001d0 95 30 8c bc f8 a1 4f bd c4 9e 5d bd 97 4d 84 bd
       -0.01711301 -0.050691575 -0.05410649 -0.064601116
0001e0 d4 41 62 3d 8e e6 54 bd 7d 04 8c bd 1c 30 8e bb
       0.05523856 -0.051977687 -0.068367936 -0.004339231
0001f0 42 37 92 bd 40 7d 56 bd a7 2e 31 bd 91 a0 20 bd
       -0.07139446 -0.05236554 -0.04325738 -0.039215628
000200 be 98 ac bd a8 aa 2c 3c 0d 65 ab 3c b5 fc 23 bd
       -0.08427571 0.0105387345 0.020922208 -0.040035922
000210 2d ea 0c 3b db f3 e3 bc a3 99 04 bd a3 ae ea bc
       0.0021501884 -0.02782624 -0.032373082 -0.028647726
000220 f9 6e c0 3c da 45 3b bd eb 57 3c 3b a9 2e 09 bd
       0.023490416 -0.045720913 0.0028738927 -0.033491764
000230 04 35 fa 3c 5b 89 06 bd 84 f4 8c bd 99 4f 35 bd
       0.030542858 -0.032845836 -0.06882575 -0.044265363
000240 67 a3 2a bd a2 27 0b bd 4b 57 95 bd 90 1d 15 3b
       -0.04165974 -0.033973344 -0.072920404 0.0022753216
000250 b2 85 17 3e 1e 41 7e bd 16 fa 95 bc d4 d3 79 3c
       0.14797094 -0.06207382 -0.018307727 0.015248258
000260 77 14 6b bb e3 be dc bc 9a 48 f7 bc 67 59 19 bc
       -0.0035870352 -0.02694649 -0.030185986 -0.009359694
000270 1b b3 4e bd 77 a4 ca bb 26 17 fe bd a0 34 47 3d
       -0.050463777 -0.0061841565 -0.12406759 0.04863417
000280 27 aa 57 3b a2 c0 d9 bc fb 25 d3 3b 41 cc 1e 3d
       0.0032907815 -0.026581112 0.0064437366 0.03876901
000290 67 8f 1e 3c fb 9c a8 bc 8f 64 40 bd bb d1 4d bd
       0.0096777445 -0.020582667 -0.0469709 -0.050248843
0002a0 4e 47 d8 3c 1e 92 84 bd b2 42 cb bc ff a4 bb bc
       0.026401188 -0.06473182 -0.024812076 -0.022905825
0002b0 a1 03 5c 3d 8a ea c4 bc 07 19 83 bd 65 37 1e bd
       0.0537144 -0.024037618 -0.06401258 -0.038627047
0002c0 4c 10 ad bb 2e 93 59 bc 40 66 4b bd f0 3c a7 bd
       -0.0052814838 -0.013279719 -0.04965806 -0.0816592
0002d0 ef d6 1a bb 46 7c f1 3c 51 f3 05 be 1a a5 e2 bc
       -0.0023626646 0.029478204 -0.13081099 -0.027666617
0002e0 d8 c9 63 3c 51 fa 26 3d 1e 8b c7 bd 2f b3 39 3c
       0.013903104 0.040766064 -0.097433314 0.011334225
0002f0 04 bf eb bd f2 4e 63 bd 58 38 8f 3c 92 95 b1 3d
       -0.11511043 -0.05549521 0.017482921 0.086711064
000300 0c 3f dd bd 75 45 1d bd b2 6a 3c bd cf e1 1d be
       -0.10803041 -0.038396318 -0.04600019 -0.1541817
000310 93 51 ea bd 9d aa 73 bc 53 b1 ae 3c aa ba 44 3c
       -0.1144134 -0.01487222 0.02132479 0.012007395
000320 ad 6f dc bd d6 75 38 bd 27 b5 d9 bc 52 9e 2a bd
       -0.10763488 -0.045034252 -0.026575638 -0.041654892
000330 f5 50 40 3d d3 82 b3 bc 3c bf 74 bd 20 3c 2a 3b
       0.046952207 -0.021912968 -0.059752688 0.0025975779
000340 be 6b bf bd 4f 98 0f bb db 85 81 bc f5 29 b0 bd
       -0.09346722 -0.0021910851 -0.015810898 -0.08601753
000350 9d d8 b4 bc 12 d2 4a 3d 46 f9 b0 3c be f5 88 bd
       -0.022075946 0.049516745 0.021603238 -0.066874966
000360 f4 65 be 3c 7f 9b 2e 3c 4c 80 ae bd 7a 87 9e 3c
       0.023241974 0.01065719 -0.085205644 0.01935171
000370 1a 78 6a bd b8 77 24 bc a3 3b 8b bd 75 69 b7 bc
       -0.057243444 -0.010038309 -0.06798484 -0.022389153
000380 85 92 fe bc 0b 2c 44 bc 9b 37 3f 3d d7 a2 09 3c
       -0.031075725 -0.011973391 0.04668389 0.00840064
000390 34 79 77 bd c6 01 a9 3c 51 68 93 3d 4b e5 01 bc
       -0.060418323 0.020630728 0.07197631 -0.007928203
0003a0 22 0a 0e bc be cf be bd fd 08 88 bd f4 fd a2 bc
       -0.008669408 -0.093169674 -0.066423394 -0.019896485
0003b0 07 15 cd 3b 4a 6f 37 3d 1f a5 69 3b cf ae a3 bc
       0.00625861 0.044783868 0.0035651398 -0.019980816
0003c0 74 dd 22 bd e8 8d 5c 3c c2 ad d3 39 73 8e 42 ba
       -0.039761975 0.013461567 0.00040374516 -0.0007421739
0003d0 61 17 0e be ca 2c 57 bd f6 ee aa bd 69 b0 ad 3c
       -0.13876106 -0.05253295 -0.083463594 0.021202283
0003e0 a1 3d 12 bb b4 6f fc bc 06 37 77 ba 96 99 9a bd
       -0.0022314566 -0.030814983 -0.00094305014 -0.075488254
0003f0 3f 23 8f bd 84 a4 a9 bd 19 1d 32 be 55 82 50 bd
       -0.069891445 -0.08283332 -0.17393912 -0.050905544

encoder.2.bias f4 [256]
000000 ea 0e 7a bd 51 68 30 3e 89 a4 11 be 77 f1 2c be
       -0.06104938 0.17227294 -0.14222921 -0.16888987
000010 e0 c5 03 3e ef cd f4 3d 53 bc 06 3c 74 cf 86 bd
       0.12868452 0.11953341 0.008223611 -0.06582537
000020 11 8f 5f be d2 2a 82 3e 8a 0f 19 be 61 0a 83 bd
       -0.21831919 0.25423294 -0.14947334 -0.06398464
000030 7a 93 03 be be 22 3d be 64 91 b3 bd fc ff 46 bd
       -0.12849227 -0.18470284 -0.087679654 -0.04858397
000040 81 b7 e2 bd 6e 57 07 bd 34 c3 9e bc b5 12 18 be
       -0.11070157 -0.033042364 -0.01938019 -0.14850886
000050 9a 9c 52 bd c9 be f5 bd 06 c4 85 be 72 41 49 bd
       -0.05141888 -0.1199928 -0.26126117 -0.04913468
000060 9a 5d 5e bc 30 23 a4 be 28 8e 50 be 3f 9f a8 bd
       -0.013572121 -0.32058096 -0.20366728 -0.08233499
000070 42 6e 01 39 94 14 40 bd b3 46 39 be 2f 85 30 be
       0.00012343473 -0.046894625 -0.18093376 -0.17238306
000080 7e 61 a5 bd 70 0b 7e be 2f 49 a7 bd 18 e9 12 be
       -0.08075236 -0.2480905 -0.081682555 -0.1434673
000090 54 3a 46 be 4e 64 ef bc 3e ff 53 3d d6 89 9c bd
       -0.19358188 -0.029222634 0.05175709 -0.076434776
0000a0 51 f9 77 bd 95 3b 34 be da a9 26 be 34 f1 f2 3c
       -0.0605405 -0.17600854 -0.1627573 0.02965603
0000b0 10 af ab bd 12 b7 dc bd 66 43 04 bb a4 6b c2 bd
       -0.08383 -0.107771054 -0.0020181774 -0.09493187
0000c0 64 a4 42 bd 77 d8 48 be 05 99 2c be 30 be 3c be
       -0.047520056 -0.19613825 -0.16855247 -0.18431926
0000d0 e9 46 03 be 42 ad 32 be 7f 57 e4 bd b8 ce 46 be
       -0.12820019 -0.17448905 -0.11149501 -0.19414794
0000e0 50 58 63 3d c4 e2 9f be 6d f1 8e 3d 8f ef 8d bd
       0.055504143 -0.31227696 0.06979642 -0.06930458
0000f0 b5 83 1e 3d 59 85 23 be 85 76 19 be fd ed a2 bd
       0.038699824 -0.15968837 -0.14986618 -0.07955549
000100 7e 94 dc bd 3e 3c e6 bd b9 3e f2 bd 61 ef 2a bc
       -0.1077051 -0.11241959 -0.1182837 -0.010433049
000110 ef 34 f0 bd 1f a8 a1 bc 10 c3 88 3d a7 f4 40 be
       -0.11728846 -0.019733487 0.0667783 -0.18843327
000120 98 66 41 bd ee 77 1f be 8e b2 c1 bd 6a 37 39 bd
       -0.04721698 -0.15573093 -0.09457885 -0.045218863
000130 a0 95 29 bd 33 71 be bd 41 be 94 3c 6e 87 e3 bd
       -0.04140246 -0.09298935 0.018157126 -0.111098155
000140 54 63 19 bd 93 7a 34 be 3d f6 06 be 4e 84 17 be
       -0.037448242 -0.17624883 -0.1317987 -0.14796564
000150 01 49 23 be 7a ea b2 bd ba e6 81 be b4 9c 07 bd
       -0.15945818 -0.08736129 -0.25371343 -0.033108428
000160 2a 78 a2 3d 6a fd f4 bd 28 73 60 bd ec e3 1a bd
       0.07933076 -0.119623974 -0.05479732 -0.03781502
000170 26 03 b0 bc 45 0d 84 3d 1a fc b4 bc f6 11 a0 bd
       -0.021485876 0.064478435 -0.022092868 -0.07815926
000180 e0 dd 0c bd 33 59 f5 bc 8b c0 7e bd c0 a7 f6 bd
       -0.034391284 -0.02994976 -0.062195342 -0.120437145
000190 49 b2 7d bd e5 8e 1d be 19 3d 60 bc f9 ec 63 bc
       -0.061937604 -0.15386541 -0.013686442 -0.013911479
0001a0 94 5f 0c be cb dc 71 bd 5d 31 71 3d fe fd b6 3c
       -0.13708335 -0.059048455 0.058884967 0.02233791
0001b0 7d 87 8d bd 95 fa 04 be c6 a1 38 bd 70 2e 19 be
       -0.06910608 -0.12986214 -0.045076154 -0.14959121
0001c0 c8 9c 18 be 15 77 6e be db 36 d2 bd 9e 1b 90 3c
       -0.14903557 -0.23287614 -0.10264369 0.017591294
0001d0 ae 89 f3 bc cc 67 ee bd 9d 35 30 3d 4d 90 c4 bd
       -0.029728737 -0.116408914 0.04301988 -0.09597836
0001e0 4f de c0 3d 99 c2 81 be b2 63 b7 bc b1 a5 05 be
       0.09417402 -0.2534378 -0.022386406 -0.13051488
0001f0 77 51 a3 bd 53 4e 81 bd fc 72 e4 bd be 5c b9 bd
       -0.079745226 -0.06313767 -0.11154744 -0.09050892
000200 5e 31 b8 bd 8d fd 82 bd 5a 2b 13 3e 15 0b 86 bd
       -0.08993791 -0.06396017 0.14372006 -0.065450825
000210 bf 6e 1b bd 09 1a 57 bd a8 c5 9a bd 6f 11 f1 bd
       -0.037947413 -0.052515063 -0.07557231 -0.11770903
000220 01 f5 fa bd c5 8c 41 be 08 81 49 3c a7 5d 3b be
       -0.12253762 -0.18901356 0.01229883 -0.18297444
000230 ad 9c 33 be 08 54 23 be 25 f6 7d be b8 2e c1 bd
       -0.17540236 -0.15950024 -0.24800928 -0.09432739
000240 b8 98 4c be e0 b8 1f 3d 04 60 ef bc e0 b1 74 be
       -0.19980133 0.03899467 -0.029220589 -0.23895979
000250 02 7c a7 3e 4f fe 20 3e 4e 2d 2f be 66 8b 44 be
       0.32711798 0.15722011 -0.17107126 -0.19193801
000260 3d 65 27 be d9 00 96 bb fa 43 1d 3c d9 05 c0 bd
       -0.16347213 -0.004577738 0.009598726 -0.09376115
000270 bc df 4a be 75 6f a4 3d 06 98 ba bd 80 35 ff bd
       -0.1981191 0.08029071 -0.091110274 -0.12461376
000280 7d eb ba bc 4f 80 c8 bd 8a 9e e6 bd ec f0 3b be
       -0.022817368 -0.09790098 -0.11260708 -0.18353623
000290 81 77 54 3c a9 b9 d5 bd 25 f1 8a bd 26 53 34 3d
       0.012967945 -0.104358025 -0.06784276 0.04402461
0002a0 60 c4 ed bd f1 63 32 bd 20 60 00 bd c8 6d fd bd
       -0.11609721 -0.043552343 -0.031341672 -0.12374455
0002b0 c0 8d 90 3c 97 fe 2d be 59 88 21 be db 7f 3e be
       0.017645717 -0.1699165 -0.15774669 -0.1860346
0002c0 48 a8 1d be 60 ae e0 bd 1b 18 10 3e 29 61 77 bd
       -0.15396225 -0.109707594 0.14071696 -0.060395394
0002d0 a6 b9 7a 3c ce 38 dd bc 27 89 cb bd 50 28 bc be
       0.015303051 -0.027004626 -0.09938269 -0.36749506
0002e0 a0 7f 8a 3c 66 37 63 be ea 06 18 bd fc 6f 0d be
       0.01690656 -0.22189102 -0.03711597 -0.1381225
0002f0 70 46 62 be dc d4 d8 bd b6 f5 8a bc 0d 20 0c bd
       -0.22097182 -0.10587475 -0.016962867 -0.034210254
000300 ae e1 52 bd db 28 0f 3e 3f c2 91 bd 01 0d 64 bd
       -0.051484756 0.13980429 -0.071171276 -0.055676464
000310 63 ec 92 3d 84 f8 de bd 74 14 23 be 51 45 87 bd
       0.071739934 -0.10887244 -0.15925771 -0.06605018
000320 da 1c af bd 27 0e f1 bd 68 cf 1a bd 53 fb b7 bd
       -0.08550425 -0.117702775 -0.037795454 -0.08983483
000330 7d f0 d2 bd 5b ce 10 bd 27 fd 5b bd 99 5e 4f be
       -0.10299776 -0.035353046 -0.05370822 -0.2025093
000340 7a 19 dd bd 35 df 64 be cd 7e b3 bd a6 f0 5c bd
       -0.10795875 -0.22350772 -0.0876442 -0.053940438
000350 d3 e1 13 be 19 8f 50 be 55 e0 bf bc ab 3e 44 bd
       -0.14441614 -0.20367087 -0.0234224 -0.047911327
000360 17 66 19 bc dc d3 7c bd 3e 52 10 be 0e 10 d5 bd
       -0.009362719 -0.061725482 -0.14093873 -0.10403453
000370 cf 82 b8 3d 87 23 18 be ab c7 5e be 93 7e 90 be
       0.09009325 -0.14857303 -0.21755855 -0.28221568
000380 57 d2 d0 bd fe 6c d5 bd 42 2a 1b 3e 98 e8 4c bd
       -0.10196369 -0.10421179 0.15152839 -0.050026506
000390 f0 35 68 3d 41 d5 71 bd 89 0e 22 bb 01 e3 7a bd
       0.056692064 -0.059041265 -0.0024727902 -0.061251644
0003a0 ba 1a 71 bd 70 0e 73 be 42 31 3f 3c 59 64 98 bb
       -0.05886338 -0.23735976 0.011669459 -0.0046506342
0003b0 f7 fb 90 bc 20 e2 aa 3e dd 86 60 bd ed 83 18 be
       -0.017698271 0.33375645 -0.054816116 -0.14894076
0003c0 36 ed d9 bd 0b 53 87 3c ec ee ab bd fb 76 33 be
       -0.106409475 0.01651909 -0.0839518 -0.17525856
0003d0 60 82 30 be e1 b5 8e bd 59 36 35 3b ab ea 10 be
       -0.17237234 -0.069682844 0.0027650802 -0.14152019
0003e0 28 4c 04 be 1f f4 bb bc ed 04 dd bd 60 00 0a bc
       -0.12919676 -0.022943554 -0.10791955 -0.008422941
0003f0 36 5a 25 be 02 55 15 be 9e 20 13 bc f2 63 41 be
       -0.16147694 -0.14583209 -0.0089799445 -0.18885782

encoder.4.weight f4 [64, 256]
000000 eb 85 39 3c 4a 71 17 bd 28 cf 28 3e 14 01 53 bc
       0.011323432 -0.036973275 0.16485274 -0.012878675
000010 13 bc d5 3d e0 29 fd 3d b7 a3 90 bc 0d 48 bb bc
       0.10436263 0.12361503 -0.01765619 -0.022861505
000020 f0 34 cc 3c 43 35 96 bc ff 7a f6 3c d9 54 15 bd
       0.024927586 -0.018335944 0.030087946 -0.03645787
000030 37 12 53 bd 09 68 92 3d 67 6e 64 3d cd d4 2b 3d
       -0.051531043 0.071487494 0.05576935 0.04195099
000040 5d 04 af 3b 3b 5e 91 3c 4a 46 03 3d 57 0a 14 bc
       0.0053410963 0.017745128 0.032049455 -0.009035668
000050 97 51 d3 3d 43 e2 9a 3b f6 3e 69 bc 60 bb 80 bc
       0.103182964 0.0047266795 -0.014236202 -0.015714347
000060 6c 37 24 bd ec c1 63 bd 4c 89 43 3d 57 91 20 bd
       -0.040091917 -0.05560486 0.04773836 -0.039201107
000070 66 c9 97 3c 52 23 b3 bc b2 a0 9a bd 43 0f 5d 3c
       0.018528651 -0.021867428 -0.075501814 0.013492408
000080 a1 1c 3e bd 14 bd d0 ba ef b0 a2 3d 82 c2 5b 3d
       -0.04641402 -0.001592549 0.07943904 0.053652294
000090 04 e4 32 3e 15 8e 87 3d f7 ce 39 3e 07 07 75 3d
       0.17469794 0.06618897 0.18145357 0.059821155
0000a0 37 e9 1f 3d 04 48 3f 3c e6 94 14 bd 71 59 2e 3d
       0.03904077 0.011674885 -0.036274813 0.042565767
0000b0 db 6d 8a bd 00 f6 2b bd 77 17 82 3d 79 15 7b 3d
       -0.067592345 -0.04198265 0.06352132 0.061299775
0000c0 9f 92 60 bd cb 2c 44 3c 38 29 e8 bd bf 4f fe bc
       -0.05482733 0.01197357 -0.11335987 -0.031043885
0000d0 af 32 a0 3c 28 4c 0b bd 62 2a c8 bd d3 da 58 3d
       0.019555418 -0.034008175 -0.09773709 0.052943062
0000e0 30 46 0b 3e 85 a6 23 be 4b a4 43 3d d2 2f 93 bc
       0.13600993 -0.15981491 0.047764104 -0.017967138
0000f0 7d f5 f5 3d 58 de 82 bc 5b a1 b6 3d 10 d8 6d 3d
       0.12009714 -0.015975162 0.08917495 0.05806738
000100 90 12 1e bd 59 96 da bd cf b3 5f bc ff be fb bd
       -0.03859192 -0.10673208 -0.01365371 -0.12292289
000110 a8 07 23 3c e8 ae f3 3d 2b 9d 69 bd 1a ff 4e 3d
       0.009950556 0.11898595 -0.057034653 0.050536253
000120 6a 81 a0 bd 70 01 16 bd b7 00 a7 bd 7f 41 2b 3c
       -0.07837184 -0.036622465 -0.08154433 0.010452627
000130 ab cb ea 3c ce 73 95 3d 91 48 32 3d c8 f7 aa bc
       0.02866157 0.072974786 0.043526236 -0.020870104
000140 4f eb aa bc 67 c4 0b bd d3 a7 92 3d 9a ec 2b bd
       -0.020864157 -0.03412285 0.07160916 -0.041973688
000150 8c 81 66 3c 49 66 c3 3d 3e 1e 3d 3d 61 33 42 3d
       0.014068972 0.09540994 0.04617142 0.04741228
000160 f3 e7 52 3d 5f c1 31 3c 0c 7e 03 3d 7e a9 76 bd
       0.051490735 0.010849326 0.03210263 -0.060220234
000170 41 b7 0b bd e2 b7 1f bc 21 77 ac 3c 24 94 a5 bc
       -0.03411031 -0.009748431 0.021052899 -0.02021224
000180 33 83 91 bd 12 23 f6 3c 19 62 b4 bc 1c 34 56 3d
       -0.071051024 0.03004602 -0.022019433 0.05229579
000190 74 b2 a8 3d 5d 4f cf bc 3f f6 a1 3c 7e 49 74 3d
       0.08237162 -0.025306398 0.01977074 0.0596404
0001a0 16 c2 6b 3d be dd 21 3c 87 f6 11 be 84 09 e8 bd
       0.05755814 0.009879528 -0.14254199 -0.1132994
0001b0 48 b2 1e 3d 79 30 e3 bb b5 a2 00 bd 04 a7 37 3d
       0.03874424 -0.0069332686 -0.03140517 0.044837013
0001c0 50 17 0e 3e 19 1e c2 bd 02 8a 30 3c af 3d cc 3c
       0.1387608 -0.09478397 0.010775091 0.024931757
0001d0 ef 0f 62 bc 69 a7 93 3d a4 fd ed bc b4 27 d2 3d
       -0.013797744 0.07209665 -0.02905161 0.10261479
0001e0 df 28 0e 3e c2 88 11 3d a5 84 99 3d 3d b6 30 bd
       0.13882779 0.035530813 0.07496003 -0.043142546
0001f0 73 22 b0 3c a0 70 82 3c b0 a7 bf bc ef 6a 44 3d
       0.021500802 0.015922844 -0.02339539 0.047953542
000200 0e 35 5c 3a 76 35 bb bc cf a6 22 3d f4 aa 14 3d
       0.000840024 -0.02285264 0.039709862 0.036295846
000210 7d 82 05 be ce 45 19 be 26 a6 a9 3c 91 66 cb 3c
       -0.13038059 -0.14968035 0.020709109 0.02482918
000220 85 8a f1 3b 15 3e be 3b a4 13 1e bd 5f 1f 31 3d
       0.007371249 0.0058057406 -0.03859295 0.04324281
000230 fb 34 7f bc b2 df 1b 3d 50 7e cf bd 7a af b7 3d
       -0.015576596 0.03805513 -0.10131514 0.089690164
000240 dd 86 89 bd 3a df 07 bd 2e e1 ea 3c b2 1f bf bd
       -0.06715176 -0.03317187 0.028671827 -0.09332217
000250 57 3f fd 3d bb df 47 3d 58 96 8d bd b5 a0 f6 bd
       0.12365597 0.04879735 -0.069134414 -0.12042371
000260 11 de fe bc 39 14 02 be d2 44 58 3d 07 59 25 3d
       -0.031111749 -0.12703027 0.052800007 0.040368106
000270 3d d9 d7 bd d2 dc 3a 3d 7e ee 55 bd 9e a1 b6 3c
       -0.10539482 0.045620747 -0.052229397 0.022293862
000280 a2 cc 63 bd cf 45 ac bd 9a d0 77 ba cd 69 87 bd
       -0.055615075 -0.084117524 -0.00094533863 -0.06611977
000290 47 40 8a bc d3 1d 04 3d fb a0 2f bc 50 ab 10 3d
       -0.016876353 0.032255005 -0.010719533 0.035319626
0002a0 2f 2e 18 bd 81 8f 38 bd 9d 60 d1 3d 81 e1 a1 bb
       -0.03715342 -0.04505873 0.10223506 -0.0049402122
0002b0 34 e0 78 3d 92 b9 55 3c 9c 7a 19 bd 3b d8 24 bd
       0.06076069 0.013044732 -0.037470445 -0.040245276
0002c0 be 3e 57 3c 6f a3 27 3d 90 09 09 be 6c bf 0f 3d
       0.0131375175 0.040927347 -0.13382554 0.035094664
0002d0 6d 53 df 3c 15 f2 01 3d 0b 33 7b bd 34 b4 00 bd
       0.02726146 0.031725008 -0.061327975 -0.031421855
0002e0 68 54 1f bd c7 51 1f 39 96 5b a2 3d 35 5e 88 3d
       -0.038898855 0.00015193886 0.07927625 0.066585936
0002f0 66 d2 48 3d c9 94 7f 3c 9e fa 3a bc 84 04 d8 3d
       0.049028777 0.015599438 -0.011412291 0.10547736
000300 e1 c5 3b bc 8f 2c 0e bb e4 dc 2f be 15 13 70 bc
       -0.011460752 -0.002169404 -0.17174107 -0.014652987
000310 84 1c f3 bc 38 fd a6 3d e0 fd da 3b 85 6a 70 bc
       -0.029676683 0.081537664 0.0066830963 -0.014673834
000320 99 94 4c 3d 03 6f 0f bd 20 3f 85 3d fd f8 1e 3d
       0.0499464 -0.03501798 0.06506181 0.038811672
000330 33 43 56 3c 06 8d c2 bc f6 5e 4f 3d 84 ad 14 bd
       0.013077545 -0.023748886 0.05062767 -0.03629829
000340 05 70 59 bb 15 d2 73 bc 2d 72 cc 3d 1d dd ed 3d
       -0.003317834 -0.01488163 0.09982715 0.1161444
000350 f3 8e e4 bd 1c 0e 9c bc ac 4b b5 bb 43 96 49 3b
       -0.11160078 -0.019049697 -0.0055327024 0.003075973
000360 26 2d 41 bd da 2e 8d 3c 98 a2 a7 bd a5 c3 95 3c
       -0.047162198 0.017234255 -0.08185309 0.018281767
000370 99 f0 76 3c 05 ae 98 3c 54 b4 dd 3d 7d c0 b1 bd
       0.015072011 0.018637666 0.108254105 -0.08679292
000380 cc 59 ca bc 51 2f 7f bc 86 5b e5 3d b0 f9 09 be
       -0.024701022 -0.015575246 0.11199097 -0.13474154
000390 fc 94 7b 3d eb a3 49 bd b6 6f 1d 3d 43 ed 98 bd
       0.06142138 -0.04922859 0.038436614 -0.07467129
0003a0 a1 a1 95 bd d9 82 5e bd 23 c6 a2 3c ac 0e 9a bd
       -0.07306219 -0.054324005 0.01986987 -0.0752233
0003b0 77 88 e5 bc 48 86 c8 3b 1b 64 45 bd 59 97 44 bd
       -0.028019173 0.006119523 -0.04819117 -0.0479959
0003c0 3c 6b 81 3c 47 e1 84 3d b2 c6 c8 3d 36 ee 83 3b
       0.015798204 0.06488281 0.09803523 0.0040261997
0003d0 2a 92 80 bc 7f fb 08 3b 84 ad 49 bd 56 36 f9 3d
       -0.015694696 0.0020901856 -0.049237743 0.12168567
0003e0 3b 95 9c 3c ea 75 1a 3c da 0c b4 3d a6 8c af 3d
       0.019114127 0.009427527 0.08791514 0.085717484
0003f0 d0 23 87 3d 50 01 96 bc ad 57 ed 3d e8 5d 87 3d
       0.065986276 -0.018311173 0.115889885 0.06609708

encoder.4.bias f4 [64]
000000 92 15 2b be 59 9e 4e be 46 7b 7a be a0 94 b2 3d
       -0.16707447 -0.20177592 -0.24461088 0.08719754
000010 3e 69 94 3e 7d 69 f3 bd fe 1b 26 bc d4 37 3f 3e
       0.28986543 -0.11885355 -0.01013851 0.1867364
000020 dc 15 3c 3e c8 69 6b be 98 21 2d bd 49 b2 d3 3d
       0.18367714 -0.22989571 -0.042268366 0.103367396
000030 2b 9a 5f 3d b4 63 61 3d c3 97 a3 3e 89 b6 ed 3e
       0.054590385 0.055026725 0.31951723 0.46428326
000040 43 3b f0 3d c5 ec e1 bd da 02 df 3b 78 13 97 3e
       0.11730053 -0.11031488 0.00680576 0.2950704
000050 cc 9a 82 bd 7e 00 fc bd ae b1 25 3e da d7 24 be
       -0.063771814 -0.123047814 0.1618106 -0.16097966
000060 71 37 81 be a1 da 47 3d 43 af 62 be d7 8d aa be
       -0.2523761 0.048792485 -0.2213717 -0.3331134
000070 5c 62 81 be 33 18 37 3e d2 fa b7 bd 79 48 20 3d
       -0.25270355 0.17880325 -0.08983387 0.039131615
000080 9a 29 d7 3e 23 4c 3f be 71 01 1d 3e 83 a4 4f 3e
       0.42023927 -0.18681388 0.15332581 0.202776
000090 05 b9 cb 3c 03 3a 8d be 66 cf 2f 3e b2 3c 66 3e
       0.024868498 -0.27583322 0.1716896 0.22484091
0000a0 ea 09 af be 19 2c 88 3e f4 73 90 3e 42 77 4a 3d
       -0.3418725 0.26596144 0.28213465 0.04943014
0000b0 55 ae 51 3e 40 72 8f 3d 19 04 09 bd 95 26 8e 3e
       0.20476659 0.07004213 -0.033451173 0.2776381
0000c0 05 8c 80 be 2c 4f a4 bd c2 6d 75 bd ca 77 d9 be
       -0.25106826 -0.08022913 -0.059919126 -0.42474204
0000d0 a2 48 b0 be 2d 5f e6 be e4 1e 7c 3e 93 47 c8 bb
       -0.34430414 -0.44994488 0.24621159 -0.006112048
0000e0 98 fa 28 3e 1c 0c 43 3e 60 ef 65 3e 6d ac 00 3d
       0.16501844 0.19047588 0.22454596 0.031414438
0000f0 3c be d1 3d f5 87 d5 3e 1c 20 fc bd 2a 80 5c bd
       0.102413625 0.4170529 -0.12310812 -0.053833164
