pythorch saved models/ANN_model.pt (torch, 223758 bytes, 14 tensors)

net.0.weight f4 [256, 69]
00000000: f17b 633d 7bc9 f63d 6c10 7e3d 24ef 23bd
00000010: bda1 40be 1644 433d f619 cd3d c4ab 1a3c
00000020: b0c4 f73d a09a d5bd 251b d43c 0d70 e23d
00000030: ec4b 4e3a b3fb 92bd 72a3 5f3d b4a8 8fbd
00000040: e2fb 063d 4a22 303b dcc7 89bd 308b a4bd
00000050: e4ca 8dbd a984 d1ba f8bf ebbc ea74 67bb
00000060: 0bc8 cfbd 41e3 a3bd 2fff 30bd 4cbf 05bd
00000070: e0bc 1e3c 7a11 493c 20e4 b63d 364f 53bd
00000080: ecd4 ecbd 052e 5939 6167 35bd 6c38 dabc
00000090: 20b2 27bd 0b9a ce3c a346 943c 2fc2 f4bc
000000a0: 10a2 d0bd 7d42 55bd 8137 9abc 5996 273e
000000b0: f1f6 153c 7952 043d 8fa4 8b36 ab2f dbbb
000000c0: 295d 2dbd 1cb3 6fbd 744d 54be d069 883b
000000d0: 1321 0abb b3f0 80bd 996f edbd 6a01 963d
000000e0: 00b8 0f3a 1b3a 11be c08f 543e 045e 39bf
000000f0: 7894 273d 2992 f03c c21a f6bc a87e e4bb
00000100: b503 5f3d c284 323b 744b 923d 0cb0 83bd
00000110: 3676 a6bf 0599 debb 500a 773d 987a 8a3d
00000120: 30cf 0f3e f570 8dbd a734 15be ae9d 50bc
00000130: 8554 af3c 67d0 583d 54ff 143c 5079 893c
00000140: 1565 5d3d 8328 17bc 85f1 f4bb b4c7 c63b
00000150: 5291 633d 4527 793c bb85 8a3c ac4d 84bd
00000160: 42c5 8e3c d8f1 14bd 063f df3b 4bd1 acbc
00000170: 82d9 433d f132 f4b8 e752 cebc ef18 33bd
00000180: ed78 083d 4a27 133c e356 853c f9cd e7bd
00000190: 8508 84bd 1667 043d 070f 0abd b3c9 e8bb
000001a0: e2c1 0bbd 79be 76bc e3b3 153b 5264 cd3b
000001b0: f74d 8c3c 38ef d5bc f135 fd3d c4ac 82be
000001c0: 833d eabb 7044 89bb dd49 573b 7ed5 a2be
000001d0: db49 10bc 2508 223c f85f 43bd f838 4a3a
000001e0: 027a 9d3b 11b5 8dbc 43c8 b33c 6162 69bd
000001f0: 1c18 dfbd abda cdbb 214d 833b 6542 4bbd
00000200: b325 073c ad9d 98bb f6dc 083d 9c8b 8dbb
00000210: 2f08 2dbc 58c1 a33d 5eee f1bb 9b7b ebbc
00000220: 625e 3cbd 7dc7 aac0 4f27 aa3a 905d fcbb
00000230: 30c1 fa3c 66cd c6bd e13e be3d 01de d9bd
00000240: 7800 1d3d 68d3 6dbb cb51 303d 9eac 15bc
00000250: b651 9d3d d18d a2be d01f 9d3b e847 253b
00000260: 4007 8f3c 2393 83bd 4280 883d 7485 d0bd
00000270: 23ca 5c3d f62c c6bc 7d40 1abc 6e03 49bd
00000280: 2a01 803d 2082 84bd 54ec 343d b214 943c
00000290: d13d d1bc 46f9 b33c ac78 36bd 4d93 10bc
000002a0: d148 843d a8a2 4f3b 1c77 e4bb 69b1 ac3d
000002b0: 4020 c43c 2f68 ac3b f0be 90bd 2cc2 8ebd
000002c0: d955 febc 979c a73c 71df 373c abcb 9abd
000002d0: a85e bebe 9c19 0d3d 2fa9 4c3d 1aaf 0fba
000002e0: 6d83 acbe 47aa cabc 7c53 ff3c 76e4 24bd
000002f0: 4d07 6bbd 6146 a93d 5ab5 19bd cf8b 04bd
00000300: 0a21 a13d f1ff ae3d 6d84 7e3c 30c5 ad3b
00000310: 8f78 863c 2210 fcbc 96e8 3e3d e449 233d
00000320: 19df c0bd ac82 6d3a 055c c63d 7481 1cbc
00000330: ab46 e9bc 3832 79bd 2c33 55c0 e98c a4bc
00000340: adf0 3cbe cb6c d0bc 8451 03be d09d dfbd
00000350: 7e47 be3d fc55 96be eb4a 05bf 30f8 483e
00000360: 8d6f 6b3e a0f0 cebf 6154 5fbe a1f2 713e
00000370: 9652 fc3b 0e6a 95bd 8b2e 02be 6dee 47be
00000380: 651b 95be 8cf8 393c f96e 483e 508a a63d
00000390: 102d a53d 8ef2 6b3e 07a3 ae3d c6c3 15bd
000003a0: d6b1 cb3d 5f49 f0bc 0f8e 623d 9245 1a3d
000003b0: 4d57 b3bd 46bc 89bc 9b2d e1bd 882d 82be
000003c0: b392 51bc 90e1 0d3c 9dd5 8f3d 6489 cdbe
000003d0: 7e1f 3dbd cc04 51be a60d c7bd 91f4 c8bd
000003e0: 5a97 1f3d 5907 0d3d 98c0 d1bc 2d48 38be
000003f0: e5ae 23bd b334 c9bd 98f9 02bd 4897 9ebd
0.05553812 0.12050148 0.06202738 -0.040022984 -0.18811698 0.047672354 0.10014717 0.009440366
0.12098062 -0.10429883 0.02589185 0.11056528 0.00078695896 -0.07176914 0.054599233 -0.070145994
0.032955058 0.0026875907 -0.06727573 -0.080343604 -0.06923464 -0.001598497 -0.028778061 -0.003531749
-0.10145577 -0.080023296 -0.043212112 -0.032653138 0.009688586 0.012272233 0.0893023 -0.051589213
-0.11564049 0.00020711876 -0.044288043 -0.026638232 -0.040941358 0.025219938 0.018100088 -0.02987775
-0.10187161 -0.05206536 -0.018825294 0.16365947 0.009153114 0.032305215 4.16168e-06 -0.006689032
-0.042325173 -0.05852042 -0.20732671 0.0041630045 -0.0021076843 -0.0629591 -0.11593551 0.073244885
0.0005482435 -0.14182322 0.20757961 -0.7240908 0.040913075 0.02936657 -0.030042056 -0.0069731064
0.054446895 0.0027239774 0.07143298 -0.06430063 -1.3004825 -0.0067931437 0.06031257 0.06761664
0.1404388 -0.069063105 -0.14570867 -0.012732906 0.021402607 0.052933123 0.009094078 0.01678148
0.054051477 -0.009225967 -0.0074750804 0.006066287 0.05555851 0.0152071165 0.01690947 -0.06460127
0.017428044 -0.036363453 0.006812933 -0.021095892 0.047814853 -0.00011644315 -0.025186015 -0.04372495
0.03331845 0.008981535 0.016276782 -0.11318583 -0.064469375 0.032324873 -0.033705737 -0.0071041225
-0.034120448 -0.015060061 0.0022842817 0.0062680626 0.01712702 -0.026115045 0.12363804 -0.25522435
-0.007148446 -0.0041890666 0.0032850422 -0.31803507 -0.008806671 0.009889637 -0.047698945 0.00077141775
0.004805804 -0.017298253 0.021946078 -0.056978587 -0.108932704 -0.006282171 0.004006997 -0.049623866
0.008248734 -0.0046574683 0.03341385 -0.0043196213 -0.010561033 0.07995862 -0.007383152 -0.028745463
-0.045988448 -5.3368516 0.0012981686 -0.007701583 0.030609697 -0.097071454 0.09289337 -0.10638047
0.038330525 -0.0036289338 0.043046754 -0.009135393 0.07681601 -0.31748822 0.004795052 0.0025219861
0.017459512 -0.064245485 0.06665088 -0.10181704 0.05390371 -0.02419136 -0.009414789 -0.049075536
0.06250222 -0.06470132 0.044170693 0.018076275 -0.025542172 0.021969449 -0.044548675 -0.008824182
0.06459201 0.0031682644 -0.0069722068 0.08432276 0.02394116 0.005261443 -0.070676684 -0.06970629
-0.031046795 0.02046041 0.011222706 -0.07558378 -0.37181592 0.03444825 0.049966034 -0.0005481109
-0.3369402 -0.024739398 0.031167738 -0.04025694 -0.05738001 0.08265377 -0.037526466 -0.032359894
0.0786763 0.08544911 0.015534502 0.0053030476 0.016414909 -0.030769411 0.04660853 0.03986539
-0.094175525 0.0009060304 0.0968552 -0.009552348 -0.02847608 -0.060838908 -3.3312483 -0.020086722
-0.18451186 -0.025442502 -0.12824064 -0.10918772 0.0929098 -0.29362476 -0.5206744 0.19625926
0.22991772 -1.6167183 -0.21809532 0.23627712 0.0077002747 -0.07295619 -0.12713067 -0.19524546
-0.29122463 0.011350762 0.19573583 0.0813185 0.080652356 0.23041746 0.08527189 -0.036563657
0.09946029 -0.029331861 0.05531126 0.037664004 -0.08756886 -0.016813409 -0.10995027 -0.25425363
-0.0127913235 0.008659735 0.070231654 -0.40143883 -0.04617261 -0.20411986 -0.097194 -0.09812272
0.0389627 0.034430835 -0.025604531 -0.17996283 -0.039961714 -0.09824505 -0.031976312 -0.07743698

net.0.bias f4 [256]
00000000: 7f57 dabe 51f1 3d3e e6a7 e03e 9081 1ebf
00000010: 36f6 83bf 70d6 25bf 9f3f ccbe e6f9 1d3e
00000020: 2864 b93d d2f8 2ebd 7617 8cbf 19bc 8bbe
00000030: b19d 92be 02a2 8fbf 9667 e5be f656 723d
00000040: 73d9 cebe 1f00 1abf 2d16 f5be ebc5 28bf
00000050: f71d 003f 65b3 7dbe 5daa 23bf 6197 56bf
00000060: 1a98 9f3d 872a 73bf 570e 103d d942 303d
00000070: b183 6ebe 76fe 36bf 78e1 19be 85fb 73be
00000080: a5c0 86bf cb04 ccbe 4f2b 4e3e 0ae3 cebe
00000090: 70e2 37bf e695 6bbf 25dc 1bbf 7d50 3ebf
000000a0: d26b 8c3d 6c8f 72bf ad8c 10bf 7f9b f3be
000000b0: ba5d c1bf 28ba f73e 14fb 79be 9458 e03d
000000c0: da8d 46bf 2735 313e c82a afbe 2b5a 3dbc
000000d0: c15c b3be 8104 81bf 597b 56bf a751 ccbe
000000e0: d2e9 e9be 1d6e 8fbf 23b1 3abf c036 4f3e
000000f0: 8eeb 493e 18f1 dcbe 0285 83bf be8c c83e
00000100: a58f 37bf 3fe1 2ebf d410 38bd 3d2b 32bf
00000110: 031c 40bf 99af d1be 3df2 1cbf 5d21 36bf
00000120: f22b 01bf ecd9 fbbe 3dcb bd3e e5ab 0cbf
00000130: 921d c9be 88ab c4be 2bfd 63bf 0b00 0abf
00000140: e45c 1dbf 22d1 87bf 1ec4 a0be 6f63 03bf
00000150: 7387 f43e 87c7 96bf a01d b7be e2ae 71bf
00000160: 2a4e 50bf 4589 05bf 8667 fcbe efbe 09bf
00000170: 8913 aabe a68a bebf ecaf 96be dc2f 1abf
00000180: da8e b4be 9c6d febd 7743 0cbf 4bfe 1b3c
00000190: c11e f9be cdc9 d1be fbdb 22bf cbec b6be
000001a0: 9857 bb3e 4ebe 91be 4d6d 82bd 1b07 c83e
000001b0: 9d0d a2be 9077 c63e 5e41 4ebf 1d41 07bf
000001c0: ac78 4b3e 2e96 39bf d13e 37bf b591 4fbf
000001d0: 3182 393e 576f 68bf 9299 2dbf e21d f83d
000001e0: 7079 89bf 8417 cf3c 1fcc 18bf 78a9 a3be
000001f0: 748b febd 4f63 9abe 56f4 7e3e d156 bc3e
00000200: 35c8 e4be 2e9c 40bf 1abe a8bf a091 15bd
00000210: b7c7 5c3d 5952 ac3d b8a9 09bf b08b 2bbe
00000220: 76d1 5cbf abdb f73d 8dc5 75bf 2543 0ebf
00000230: a1c7 103e 0689 3bbf c0f2 99bf 0615 81bf
00000240: 99bb e3be 264f 8dbf 650b 2cbf 0067 d8be
00000250: 9b32 04bf c7d1 0f3e d000 af3e f769 15bf
00000260: 3951 30bf f072 45bf 1cb9 d73e e138 cebe
00000270: 1bed 8abe 09eb 4fbf ee64 20bf c416 cabf
00000280: 6a10 e2be d133 1abe 3910 d4be e954 01be
00000290: c064 d7be ff29 2d3e 2c95 dcbe a4f8 26be
000002a0: dfcb 16bf 5deb 0bbf 5251 52bf df1a 073a
000002b0: c34c 2dbf 574d 3abe 8e93 b3be 17cf 1dbf
000002c0: 9ea7 563e cf31 f1be 724c 9b3e 4aa2 23bf
000002d0: 5571 8abf 325c 24bf 1752 df3e cffa 0dbf
000002e0: befd 80bf 0f31 273e cc6d 3fbf 0e51 9dbe
000002f0: c0ac 0dbe d47d 4c3d 0557 c1be 049c 95be
00000300: 2ab3 893c 2819 10bf 853c 49bf 385e d0ba
00000310: f2f4 ec3e e504 8abe 9b81 52bf d77d 08bf
00000320: 28d3 81be 3aed 89bf 98f5 05bf a8c3 adbd
00000330: fcdb afbe 0212 473e 1f27 e13e 461e 30bf
00000340: b9bc 4cbf 4ff5 35bf 92e4 88be 05fd 11bf
00000350: a568 c33e f736 fc3d 8685 44bf 5860 70bf
00000360: 3d0c 08bf 68e8 5ebd 0112 ae3e 9db9 60bf
00000370: 2514 55bf 5111 3c3e e5a5 54bf 88fd 6fbf
00000380: 9378 d7be d4d6 50be e539 a2bf 0f80 2cbf
00000390: 4f9d 07bf 20ac 1cbf ac5e 74bf 246a c2be
000003a0: 7303 4ebf d9ab 1cbf 004d a5be f0b0 ddbe
000003b0: 52cd 2dbf 8869 42bf e9fd 56be e7d1 63bf
000003c0: fb21 d5be 0578 8bbf 417b 20bf f7a1 28bf
000003d0: b48f b33e 873c 7cbe 4c5e 7e3c 4887 24be
000003e0: c387 95bf 9924 2b3e 87e0 55be 9aff d8be
000003f0: a980 40bf 6f39 35bf 9c07 80bf a642 ee3c
-0.4264488 0.18549086 0.43878096 -0.61916447 -1.0309513 -0.6478033 -0.3989229 0.1542736
0.090523064 -0.042717762 -1.094466 -0.27291945 -0.28635934 -1.1221316 -0.44805592 0.059164964
-0.40400276 -0.60156435 -0.4786848 -0.65927 0.5004572 -0.24775465 -0.6393183 -0.83824736
0.07792683 -0.94986767 0.035169926 0.0430325 -0.23292424 -0.71482027 -0.15027416 -0.23826416
-1.052754 -0.39847407 0.20133708 -0.40407592 -0.7182989 -0.920256 -0.6088279 -0.74341565
0.068565026 -0.94750094 -0.56464654 -0.47579572 -1.5106728 0.48384213 -0.24412185 0.10954395
-0.775602 0.17305432 -0.34212327 -0.011557142 -0.35031703 -1.00795 -0.83781964 -0.39906046
-0.45686203 -1.1205479 -0.7292654 0.20235729 0.19718763 -0.4315269 -1.0274966 0.39169878
-0.7170356 -0.6831245 -0.044937924 -0.69597226 -0.7504274 -0.40954283 -0.61307126 -0.7114466
-0.5045768 -0.491897 0.3706912 -0.5494979 -0.39280373 -0.38412118 -0.8905818 -0.53906316
-0.61469865 -1.0610697 -0.31399626 -0.513236 0.4775959 -1.1779641 -0.3576479 -0.94407475
-0.8136927 -0.5216258 -0.49297732 -0.53806967 -0.3321803 -1.4886062 -0.29431093 -0.6022928
-0.35265237 -0.1242325 -0.54790443 0.009521077 -0.48656276 -0.40974274 -0.63616914 -0.35727534
0.36590266 -0.28465503 -0.06368504 0.3906792 -0.3165101 0.38763094 -0.8056849 -0.5283373
0.19870251 -0.7249478 -0.71580225 -0.81081706 0.1811607 -0.9079489 -0.67812455 0.12115075
-1.0740185 0.025279768 -0.59686464 -0.31965232 -0.12428942 -0.3015389 0.24897894 0.36784986
-0.44683996 -0.7523831 -1.3183014 -0.036515832 0.0539014 0.08414144 -0.53774595 -0.16752505
-0.8625711 0.12102445 -0.96004564 -0.55571204 0.14138652 -0.73255956 -1.2027206 -1.0084541
-0.44479063 -1.1039779 -0.67204887 -0.42266083 -0.5163972 0.14044867 0.34180307 -0.58364815
-0.68873936 -0.77128506 0.42133415 -0.4027777 -0.27134022 -0.8121801 -0.62654006 -1.5788198
-0.44153148 -0.15058829 -0.41418627 -0.12630047 -0.42069054 0.16910551 -0.4308256 -0.16305786
-0.5890483 -0.5465601 -0.82155335 0.00051538454 -0.67695254 -0.18193565 -0.35073513 -0.6164412
0.20962378 -0.47108313 0.3033176 -0.6391951 -1.0815836 -0.6420318 0.43617317 -0.5546083
-1.0077436 0.16327308 -0.7477691 -0.30725902 -0.1383543 0.049924687 -0.37761703 -0.29220593
0.016809065 -0.56288385 -0.7860797 -0.001589722 0.46280628 -0.2695686 -0.8222901 -0.53317016
-0.25356412 -1.0775521 -0.5232787 -0.08484584 -0.34347522 0.19440463 0.4397516 -0.68796194
-0.7997547 -0.71077436 -0.26736885 -0.570267 0.38165775 0.12315171 -0.7676624 -0.9389701
-0.53143674 -0.05442086 0.3399811 -0.87783223 -0.83233863 0.1836598 -0.83065635 -0.93746233
-0.42084178 -0.2039445 -1.2673918 -0.673829 -0.5297441 -0.6120014 -0.9545696 -0.37971604
-0.80474013 -0.6119972 -0.3228531 -0.43299055 -0.6789142 -0.7594228 -0.20995297 -0.8899216
-0.41627488 -1.0896002 -0.6268807 -0.6587214 0.35070574 -0.24632464 0.015525412 -0.1606723
-1.1682056 0.1671318 -0.20886432 -0.4238251 -0.7519632 -0.7079076 -1.0002322 0.029084515

net.2.weight f4 [256]
00000000: 0e28 513f ae98 a33f 0fc5 8f3f bf42 033f
00000010: 7ebf 8a3f 4f69 d83e bf87 3a3f 012b ad3e
00000020: 704a cf3e 1d0b d03e 9880 c93f c7f7 113f
00000030: 5a55 bd3e b09f c23e c2bc 073f 74c5 b43f
00000040: f2be c13e 60e5 043f 8841 d73e 3e06 dd3e
00000050: 1ba3 a03f 1fe9 b03e a285 023f 4d50 2a3f
00000060: ff55 183f 6d2d bc3e d158 9c3f ca7d d43e
00000070: 63fa d63e eb69 033f 15ff 663e 30f2 913f
00000080: b59d 8e3f 58f8 b43e ae2c aa3f 6bdc 9c3e
00000090: 6c96 af3e b18f 383f 9b8f d43e 519c 0d3f
000000a0: b3b4 a53f 0bc1 863f 5696 c73e 68e7 a13e
000000b0: 7378 2e3f 4ece a93f 5092 b73e b72e aa3f
000000c0: 8b3c b13e 3fe2 a63f bb85 ba3e 3166 0c3f
000000d0: 9148 153f 0a1b 3c3f 6fc6 563f fe7a 153f
000000e0: 8bfa 953e 77f9 3b3f f57a e13e 8052 a43f
000000f0: c777 a03f 05c0 573f 92f0 c03f 3118 b43f
00000100: cc06 bf3e e5cd c43e 6cc9 f33e 9f3a ba3e
00000110: a320 1b3f dd1b 833f cebf c93e 7bab bb3e
00000120: 58b3 c93e d647 b13e e7f3 973f f395 8f3e
00000130: d981 f23e eedb 6c3f 36d8 173f 5c00 e73e
00000140: 4cf4 973e d7f7 393f f9ba b43e 560b b73e
00000150: f225 9a3f 099f dd3e 4afb cc3e 7ea8 8f3f
00000160: 0e0b 543f b610 2a3f 63a5 c13e 05bb f73e
00000170: 0699 9c3e 970e 063f 4a61 c63e 517f ae3e
00000180: 83a3 e83e 88aa d73e a565 ee3e 4235 9c3f
00000190: 4e61 293f cb45 953e e287 373f 241b bd3e
000001a0: d123 a93f 7268 e63e c4b1 813e 4ea9 9d3f
000001b0: 19ff f83e 6506 9f3f 2dc4 d43e e028 133f
000001c0: c2ba 1c3f a4fa 363f a095 a43e 97cc 453f
000001d0: 4a66 b03f 326b 143f ce91 143f d41d bc3e
000001e0: c33f f13e 5d43 a73f eced cd3e 1e6b d03e
000001f0: db37 be3e e40c d73e dc2a 743e 29fd a13f
00000200: 86b5 ee3e b990 d33e a187 143f e277 9a3f
00000210: 7d92 b33f 595c 8c3e 2fb9 db3e aaee b43f
00000220: 5d5e a93e 5338 a03f 8b1a 783f 75fa f03e
00000230: 86da 9a3f 4e9c e23e 7da0 e43e 10d9 b53f
00000240: 8350 f43e 183c bb3e 7816 0a3f 857b de3e
00000250: d625 dc3e de67 bb3e 17cb b73e 1179 e13e
00000260: 0e9f c63e ba77 9f3e d051 ab3f 6233 923e
00000270: 1d6b c13e eecf c33e 68b4 b43e aa59 df3e
00000280: f41a 773e e093 ad3f f80a 9e3e 1488 953e
00000290: 093b a63e d0cf b23f 7571 073f 7d66 bc3e
000002a0: f829 d43e 35d8 0f3f d269 cc3e 120e df3e
000002b0: 1daa 2a3f 3b3e d03e d4ee 363e 016e 0e3f
000002c0: 9817 ae3f d002 c23e d2ba a13f f7d7 3e3f
000002d0: 7887 6b3f 9da9 063f 51d6 993f 829c d83e
000002e0: b08b 7d3f 33ad a13f 52d2 293f acd1 ce3e
000002f0: 3d86 ce3e 6ac9 bc3e 3e20 fb3e 8f7d 913e
00000300: 8756 a93e 0be7 fb3e 9ea2 043f a5d2 de3e
00000310: 5410 a63f dc90 043f 8e29 da3e df86 ea3e
00000320: 6594 c63e b645 c13f aaf9 d93e 517d da3e
00000330: 7c0d 9f3e fba8 b93f 7b39 a13f 759a df3e
00000340: 56b6 d13e a929 e63e c91c 963f e3a7 d83e
00000350: 5629 aa3f e976 133f 6f23 4f3f a52f 4c3f
00000360: e900 e23e 3905 d53e 7c7f e13e 413e e03e
00000370: 01d4 d93e 4416 b13f 3939 fe3e ca8a 183f
00000380: 5850 283e 477b b33e 5f2c bf3e dd5c 3c3f
00000390: 343a bd3e 8ba2 ea3e c538 793f c642 913f
000003a0: 5624 be3e a949 053f a9fd f13e 9625 093f
000003b0: b825 ab3e 769d d13e 1fc0 073f 1992 6b3f
000003c0: ed8a 043f 7972 b93f 14f5 033f c89f bb3e
000003d0: 2259 943f 34de fb3e 36f1 923e b508 953f
000003e0: 5c41 fa3e 9c16 a33e a8f3 023f 69d3 213f
000003f0: 449e ed3e 4c2f ac3e 18b0 aa3f a2e6 9d3f
0.81701744 1.2780969 1.1232013 0.5127372 1.0839689 0.42267844 0.7286338 0.33821872
0.4048648 0.4063348 1.5742369 0.57018703 0.3697918 0.38012457 0.53022397 1.4122758
0.37840992 0.519125 0.42042184 0.43168825 1.2549776 0.34552857 0.5098516 0.6652878
0.5950622 0.36753407 1.2214605 0.4150222 0.41987905 0.51333493 0.22558244 1.1402035
1.1141878 0.3534572 1.3294885 0.30636916 0.3429445 0.72094256 0.41515812 0.55316645
1.294577 1.0527662 0.38981885 0.3162186 0.6815254 1.3266084 0.35853815 1.3295506
0.34616503 1.3037795 0.36430153 0.5484343 0.5831385 0.7347876 0.83896536 0.58390796
0.29292712 0.7342753 0.4403912 1.2837677 1.2536553 0.84277374 1.5073416 1.4069883
0.37309873 0.38438335 0.4761461 0.3637285 0.60596675 1.0242878 0.39404148 0.36654267
0.3939464 0.3462512 1.1871308 0.2804409 0.4736469 0.92523086 0.59314287 0.45117462
0.2967857 0.726438 0.352989 0.35750836 1.204283 0.43285397 0.40035468 1.1223295
0.8282937 0.6643175 0.37821493 0.48384872 0.30585498 0.5236601 0.387461 0.3408151
0.4543725 0.42122293 0.46561924 1.2203753 0.661641 0.2915481 0.71691716 0.3693477
1.3214055 0.4500156 0.25330937 1.2317293 0.48632124 1.2423826 0.4155592 0.57484245
0.6122247 0.714762 0.32145405 0.77265304 1.3781216 0.5797607 0.5803498 0.36741507
0.4711896 1.3067433 0.40220582 0.40706724 0.3715199 0.42002022 0.23844475 1.2655383
0.46622866 0.41321352 0.58019453 1.2067835 1.402908 0.27414206 0.4291472 1.4135334
0.33079806 1.2517189 0.969155 0.47066084 1.2097938 0.44259876 0.44653693 1.4206867
0.47717676 0.36569285 0.53940535 0.43453613 0.42997617 0.36602682 0.35897133 0.4403768
0.38793224 0.31146032 1.3384342 0.28554827 0.37777033 0.38244575 0.3529389 0.43623096
0.24131376 1.3560753 0.30867743 0.29205382 0.32466915 1.3969669 0.52907497 0.36796942
0.4143827 0.5618928 0.39924484 0.43565422 0.6666582 0.40672478 0.17864543 0.556366
1.360095 0.3789277 1.2635138 0.74548286 0.92003584 0.5260256 1.2018529 0.42306906
0.9904127 1.2630981 0.6633655 0.40394342 0.4033679 0.36872417 0.49048036 0.28416106
0.33073828 0.4919971 0.51810634 0.43520084 1.2973733 0.5178354 0.4260983 0.45806023
0.3878509 1.5099399 0.4257329 0.42673734 0.31064975 1.4504694 1.2595667 0.4367253
0.40959424 0.4495366 1.1727535 0.42315587 1.3293865 0.5760332 0.8091344 0.797602
0.4414132 0.41605547 0.44042575 0.43797496 0.4254456 1.383492 0.49653032 0.59586775
0.16436899 0.3505499 0.3733854 0.735792 0.36958468 0.45827135 0.9735225 1.1348503
0.37137097 0.5206552 0.4726384 0.53572977 0.33427215 0.40940446 0.5302753 0.920198
0.51774484 1.4488059 0.51545835 0.3664534 1.1589701 0.49192965 0.28699654 1.1643282
0.4887799 0.31853187 0.5115304 0.6321321 0.4640981 0.33629835 1.333499 1.2336009

net.2.bias f4 [256]
00000000: 8844 583e 9187 223f a209 173f 5545 a33c
00000010: 8cdc 683d 54ad dbbd f857 c93d 628d 123e
00000020: 0507 913d aeac 483d bf45 673e 080f 2c3e
00000030: b080 363e 77c6 75bc 7e74 033d 2ccc 1c3f
00000040: f244 913d 7072 093e 5acc af3d ae5a 343e
00000050: 9f55 313f c379 203e 4f8e 5b3e dea7 0d3e
00000060: aa8b 4f3b b066 4cbd cca0 0b3f 8f7a 753d
00000070: b6da ce3d 364b 5f3d 6739 473c c9ab ce3e
00000080: d78c 423b 628c 023e 350e 293f b084 4a3e
00000090: 95e9 cebd b7f4 283e 16b7 a5bd d403 303e
000000a0: 3398 163f 5d92 743d fea6 47bd 7951 fb3d
000000b0: 2670 a8be 5c95 363f e867 acbd d998 2d3f
000000c0: 47f6 10be 7e78 213f 4e95 b7bd 8b3e 1c3e
000000d0: b1ee d63d 66bf 9b3d a329 823e 007a 33bd
000000e0: 80eb ab3c 41d1 cb3d 6fd2 973d 7d47 223f
000000f0: 26a7 1d3f 27bd 1a3e bcb1 913e 4cc7 493f
00000100: 3e2b 913d 61b8 953d 2d5f 4f3e 65fb c1bc
00000110: 8504 8fbd c996 3f3e 583f bd3d 1b96 f03b
00000120: 8c0f 213e 5666 e93c 98e6 1f3f 1378 773d
00000130: 2105 463e 38ce 803e f5b9 2e3e 116e 13bd
00000140: 9b45 c13d a577 693d 18aa 1f3e 3cd9 153e
00000150: e355 263f a159 4ebe d170 d33d ed3a 35bb
00000160: 3199 2d3e 2b31 8e3e 24fd a43d 17d8 803e
00000170: 4a65 ab3b 3962 a8be 58f1 c43d 631f 853d
00000180: 2706 1a3e 1569 633d 8907 953c 8d01 fc3e
00000190: f864 5e3e 9489 9b3d 147a 3f3d 1a9e 8e3d
000001a0: fde5 373f f4bd 033e 57e4 e13d 1e3a 273f
000001b0: 89f7 653e 0e75 283f 165d 3c3c 4a23 9cba
000001c0: ed94 de3d 302f 4a3e 4b11 bd3d cf48 a83c
000001d0: 7ba0 2f3f 725e 343e 7833 0ebe f7b8 893d
000001e0: 2d8a 59bd 4873 0c3f 8f04 893e 289d b63d
000001f0: 5baa 8abb 201b e13d d16d 99bd b003 333f
00000200: 39ea 103e 95e9 a23d bdd3 f5bd d8f9 ee3e
00000210: c6a6 1f3f aa40 253e cb26 4a3d 105a 0a3f
00000220: 70f8 903d d793 183f dc96 3e3e 3136 2dbd
00000230: 4a38 123f 3b77 33bb c1f0 11be 02a6 7f3e
00000240: 1828 313e 0279 b13c 5a95 803e e21b 073d
00000250: e333 133e 5ebb ba3d 3fe0 563d 28bb 233d
00000260: 1ce0 96bc 549c b93d f0db 373f 10ec 15bd
00000270: dd58 b93d cf23 523e 61f4 6bbd 8291 0ebd
00000280: c96f d73d cf5c 093f 149b ad3c 996d e93d
00000290: 8352 f7bc bff2 2e3f 21d0 a63d b7b8 b33d
000002a0: 29bb c63c 3e9c 113c 78e5 123e 1c9c 793d
000002b0: 0b9e 2abe 69e9 393e feae 463e 33d9 4a3d
000002c0: 965a 263f 942a 4e3d 3ffc 2e3f 001c 993d
000002d0: 9b98 73bd cd77 333e 9b3f 243f 5115 653d
000002e0: e23b af3e a6eb 1b3f 5a83 cd3d 48e7 f43d
000002f0: 1482 583d 6b57 f63d 5498 4a3e 78cc 8a3d
00000300: 9a23 923c 75ae 2c3e be0b 5a3d ae41 2cbd
00000310: f2ba 3a3f 4e00 523e 14f1 653c 81d6 963d
00000320: 93d3 9a3d b761 943e e3d8 7d3d 0522 143e
00000330: eb65 0a3e da79 313f 6e7b 2c3f 5e04 5abc
00000340: 1953 b13d bf2b 9b3d 19d1 973e 7b67 473e
00000350: 379d 363f e694 1abd 7b98 573e 8279 bc3d
00000360: 702b 173e 917b 0e3e 2900 cd3d fb02 cb3d
00000370: 1f9f 8e3d 5b03 333f 5442 263d 75f8 523e
00000380: 51df 733d 5d3b 523d 75d5 c9bd 293c 903e
00000390: 67b5 9ebd a90c 143e 151e 363e a1ad 4f3e
000003a0: 5559 623e 7d73 5bbc be9d e73d 15ff 4c3e
000003b0: 6749 413e 0340 0c3e a0c4 103e 912b 273e
000003c0: f245 51bc bb7b 113e 16ab 253e 7a59 653e
000003d0: 9716 1c3f 7b3a 303e 665c 3a3d c656 e13e
000003e0: 6ea1 57be b812 70be fcf9 c33d d05c e6bd
000003f0: e101 b6bc 5996 56bb b55e c93d e555 073f
0.21119893 0.6348811 0.58999074 0.019930521 0.056850955 -0.10726419 0.09831232 0.14311746
0.07081417 0.048992805 0.225852 0.16802609 0.17822528 -0.015000931 0.032093517 0.6124904
0.070932284 0.1342256 0.08583899 0.17612717 0.6927127 0.15671448 0.21441005 0.13833568
0.003166894 -0.049902618 0.5454223 0.059931334 0.101003096 0.054515086 0.012159682 0.40365437
0.0029685998 0.12748864 0.66037303 0.19777179 -0.10103146 0.16499601 -0.080915615 0.1718896
0.5882599 0.059709895 -0.04874324 0.12271399 -0.32898062 0.71321654 -0.08418256 0.6781135
-0.14156447 0.6307448 -0.089640245 0.15258233 0.104947455 0.07604866 0.2542239 -0.04381752
0.020986319 0.099520214 0.07413184 0.6339033 0.61583173 0.15111218 0.28455913 0.7881973
0.07088326 0.07310558 0.2025115 -0.023679445 -0.06983284 0.18709864 0.092405975 0.0073421127
0.15728587 0.02849118 0.62461233 0.060417246 0.19337894 0.25157332 0.17063124 -0.03599364
0.09437104 0.056998868 0.1559223 0.1463365 0.649748 -0.20151378 0.103242524 -0.002765353
0.16952969 0.27771887 0.08056095 0.25164863 0.0052305805 -0.32887438 0.09616345 0.06500127
0.1504141 0.055520136 0.01819207 0.49219933 0.21718204 0.075946 0.046747282 0.06963749
0.7183531 0.1286543 0.110298805 0.65323055 0.22457708 0.6580361 0.011496803 -0.0011912372
0.10868249 0.19744563 0.09231814 0.02054253 0.6860425 0.17614153 -0.13886821 0.06724732
-0.05311029 0.54863405 0.2676129 0.08916694 -0.0042317337 0.10991502 -0.07491649 0.699275
0.14151849 0.079547085 -0.120032765 0.4667499 0.6236385 0.16137949 0.049353402 0.54043674
0.07078636 0.59600586 0.18612236 -0.04228801 0.5711714 -0.00273843 -0.14251997 0.2496567
0.17300451 0.021664146 0.25113946 0.032985575 0.14375262 0.09117769 0.05245995 0.039973408
-0.01841741 0.0906302 0.71819973 -0.03660208 0.090501525 0.20521472 -0.057606105 -0.034806736
0.10519368 0.5365724 0.021192111 0.11397857 -0.030190712 0.6833915 0.08145166 0.08775466
0.024259167 0.008887349 0.14345348 0.060939893 -0.16661851 0.18155445 0.19402692 0.049523544
0.64981973 0.050333574 0.68353647 0.07476044 -0.059471708 0.17526169 0.64159554 0.055928532
0.34225374 0.60906446 0.10034819 0.11958176 0.052858427 0.120283924 0.19784671 0.067772806
0.017839242 0.16863425 0.053233854 -0.042054825 0.72941506 0.20507929 0.014034528 0.07365132
0.07559886 0.289808 0.061974417 0.14466102 0.13515441 0.69326556 0.6737584 -0.013306705
0.08658428 0.07576703 0.29651716 0.19473068 0.7133364 -0.037739657 0.2105426 0.09202863
0.14762664 0.13914324 0.10009796 0.09912678 0.06963944 0.69926995 0.0405906 0.20602591
0.059539143 0.051326144 -0.09855167 0.281709 -0.077494435 0.14457954 0.17784913 0.20281078
0.2210439 -0.013394234 0.11309384 0.20019181 0.18875657 0.13696294 0.14137506 0.16325213
-0.012773024 0.14207356 0.16178545 0.22397414 0.6097197 0.17209809 0.045498274 0.44011515
-0.21057674 -0.2344464 0.09569165 -0.11248171 -0.022217693 -0.0032743423 0.09832517 0.5286544

net.2.running_mean f4 [256]
00000000: 9c41 d53e 5393 f13f 67da b63f 00f3 8f3e
00000010: c34b e53d 5d16 8c3e 0c4e 3a3e 8bea 0e3f
00000020: 7202 5c3f b197 593f 85d3 b43d 7f97 d23e
00000030: 88eb 1e3f 531c b33e 3d4d 203e c47e 1540
00000040: 8e22 f93e fc6f 813e ef21 c53e d5a6 cb3e
00000050: edc2 c13f b77c 243f 0f7f 4a3e 0988 433e
00000060: 8ff0 253f 101c 943e 9a62 ff3f 0fde 763f
00000070: ee02 2c3f 31a5 a43e 5d97 df3e c971 bc3f
00000080: f770 023e 4abc a93e 6f0a f43f ac4e b03e
00000090: 4b17 643e 0190 ca3d 9353 353e e3ef 923e
000000a0: 567e e43f ade9 a83e e30a 693e 4dbb c23e
000000b0: c93d ad3b f667 bc3f 5faa f53e 64c0 cb3f
000000c0: 8dec 813e 67b3 f43f d752 d13e 6780 163f
000000d0: 0baf db3e abcb 263d a0c9 0f3e 6210 133f
000000e0: 7ca3 9f3e 0735 853d a79f 723e 882e eb3f
000000f0: d789 f23f 39aa e63e bd6e db3d 54d6 b63f
00000100: bdba c83e fbe3 e03d 78cd 3d3f 8fef ff3d
00000110: 497b b63e 04d1 393f 4c80 853e 1f58 d53d
00000120: b6a0 8e3e 57a4 813e e076 d03f faa0 d23e
00000130: 7991 d43e eb22 7e3f 2239 283e 5b23 f83d
00000140: 654d 183f 3b32 b03d d2f5 173f 55b4 d33e
00000150: 7aa4 b33f 0fa0 8f3c e643 c33e de56 aa3e
00000160: 8b0c 323d 652d a73e 9156 c23e a9c2 493f
00000170: a317 a83e c2dd 7b3c 1d95 da3e 9311 193e
00000180: e673 b73e 84ce fb3e 37a5 b03e 6ab5 fe3f
00000190: befb d13e 3ef4 b33e 5e46 e03d d2fd f43e
000001a0: 8617 cb3f 9339 e43e fcc1 dd3e 319d cd3f
000001b0: 2e80 233f 622b cb3f 5892 e23e 7342 ab3c
000001c0: dd59 353f fd64 683e bcd3 413e 7d34 863d
000001d0: 4def ee3f 8e2e 4b3e ca05 0c3e 3e9b 113f
000001e0: ad5c 083d d6e1 0440 294f 013f 0a52 cc3e
000001f0: 7122 093f 65ff ab3e 7eee 493f 9f3d c63f
00000200: efa0 2b3f 6587 3f3e a23d 163c e63f cd3f
00000210: 39e4 0c40 2b9e 423f ae12 3e3e e7db ce3f
00000220: 9f37 4a3e 28f4 bd3f 7a98 783d a341 5f3e
00000230: e9d7 d53f 88e7 4a3e 9dcb 553d c901 ae3d
00000240: cc7e bb3e 2053 933d 0c51 653e 9995 b83e
00000250: 402d 833e ed96 3e3f 6bb5 5f3f 2d50 343e
00000260: edba fe3d 7597 043e a4a7 d43f 79db 163f
00000270: d0de 213f 78fb a53e d94c b43e 645c 7d3b
00000280: 7674 183f 399e d43f dc9f b43e b90e 143f
00000290: 7b2f 693e d2a3 dc3f 59c6 643d a0c4 d13e
000002a0: b05b 8a3e 8c4b e13e 8c8d 3a3e 16be 403f
000002b0: c724 cc3e 46f8 773f 0200 293f 00f8 c43e
000002c0: d957 eb3f 94d9 8f3e a7de c33f cb06 173e
000002d0: e62f ae3d 2d16 7f3e 28cc d83f bbbc 853e
000002e0: ff5f 853d a690 d53f 8937 073e 2c5c bc3e
000002f0: 9281 193f 3b70 193f b29c ad3e 9e5c 063f
00000300: 1c86 1e3f 16bc 993e 31a3 2a3e 290a 0f3f
00000310: ebc6 b73f 631c 353f efd9 463e 022a a23e
00000320: e6b6 183f b800 d63d 11d9 c13e 7fa0 fe3e
00000330: 61c4 2b3f fb70 d53f 2b47 d83f 8ef2 9f3c
00000340: dcb3 8b3e 127a 0d3e 4a82 9b3f 7c05 d63e
00000350: af28 c73f 764c 4c3f 0e6a fb3d 61fb d13d
00000360: f004 033f e365 0b3f 59be 533f 6f4e d33e
00000370: 3adc b03d 5cb1 dc3f 8343 603e fc37 783e
00000380: f716 b23e aead 363f 7ba4 0c3d 5af6 413e
00000390: 3d8b 253d d5f9 883e 0cc0 f33d b7c2 573f
000003a0: 80f1 a33e d4af 843d 82a4 c23e 2e0f cb3e
000003b0: d9d4 b63e 7e0b 0e3e 67c3 b33e dc01 593d
000003c0: 9981 ab3e fbd3 b33d 0c7e 963e dc19 763e
000003d0: a7fe c13f 2ae6 fd3e 5893 e23e 563c b33f
000003e0: 4106 6d3c 6f35 603f 96db d43e 827d 4a3e
000003f0: 57bb 853e 832a cb3e 9274 b23e 171b ed3f
0.41651618 1.8873085 1.4285401 0.28115082 0.11196091 0.27360812 0.18193835 0.55826634
0.8594123 0.8499709 0.08829407 0.41131207 0.6207814 0.34982547 0.15654464 2.3358622
0.48659176 0.2528075 0.38502452 0.3977572 1.5137612 0.642528 0.19775032 0.19094862
0.6482019 0.2892766 1.9951966 0.96432585 0.6719197 0.3215728 0.4367017 1.4722224
0.12738405 0.33151466 1.9065684 0.34435022 0.2227451 0.09890748 0.17707662 0.28698644
1.7851055 0.3299078 0.22758059 0.38033524 0.0052869064 1.4719226 0.47981545 1.5918088
0.25375786 1.9117249 0.40883514 0.58789676 0.42906985 0.040721577 0.14041758 0.57446873
0.31179416 0.06504255 0.23693715 1.8373575 1.8948315 0.45051745 0.10714481 1.4284158
0.3920497 0.10980984 0.74141645 0.12496864 0.35640934 0.7258456 0.26074445 0.104171984
0.27856988 0.25320694 1.6286278 0.4113844 0.41517237 0.9927203 0.16428044 0.121161185
0.59493095 0.08603331 0.5935947 0.4134852 1.4034569 0.017532377 0.3813774 0.332694
0.043468993 0.3265182 0.3795667 0.7881265 0.32830533 0.015372695 0.4269189 0.1494811
0.3583061 0.49180996 0.3450105 1.9899113 0.41012377 0.3514728 0.109509215 0.478499
1.5866554 0.44575176 0.4331206 1.6063596 0.6386746 1.5872614 0.44252276 0.020905709
0.70840245 0.22694774 0.18928427 0.0655298 1.8666779 0.19841978 0.13674083 0.56877506
0.033291508 2.076284 0.50511414 0.3990634 0.5356818 0.33593288 0.78879535 1.5487555
0.6704244 0.18703993 0.009169968 1.6035125 2.2014296 0.76022595 0.18561813 1.6160859
0.1974778 1.4840136 0.060692288 0.21802382 1.6706516 0.19814885 0.052196134 0.08496434
0.36620176 0.07193589 0.22394198 0.36051634 0.2562046 0.74449044 0.87386197 0.1760871
0.12437997 0.12948401 1.661366 0.5892864 0.6323061 0.32418418 0.3521488 0.0038659805
0.59552705 1.6610786 0.35278213 0.57834965 0.22772019 1.7237494 0.05585322 0.40970325
0.27023077 0.4400295 0.18218058 0.7529005 0.3987181 0.9686321 0.66015637 0.3847046
1.8386184 0.28095686 1.5302323 0.14748685 0.0850523 0.24910803 1.6937304 0.26120552
0.065124504 1.6684768 0.13204779 0.36789072 0.59963334 0.59936875 0.33908612 0.5248507
0.61923385 0.3002631 0.16663815 0.5587488 1.435758 0.7074644 0.19419073 0.31672674
0.5965408 0.10449356 0.3786092 0.49731824 0.67096525 1.6675104 1.6896719 0.019524839
0.2728566 0.13816097 1.2149136 0.4180106 1.5559291 0.7980417 0.12276088 0.10253025
0.5117941 0.5445234 0.8271232 0.41270778 0.08635755 1.7241626 0.21900754 0.24240106
0.34783146 0.71358764 0.03433655 0.18941632 0.04041599 0.26753107 0.119018644 0.84281486
0.32020187 0.06478849 0.38016135 0.3966002 0.35709265 0.13871571 0.35110018 0.05298029
0.33497313 0.087806664 0.2939304 0.24033302 1.5155839 0.49589664 0.4425304 1.4002788
0.014466823 0.87581533 0.4157378 0.1977444 0.2611949 0.3968087 0.3485456 1.8523892

net.2.running_var f4 [256]
00000000: 0ef8 2c3f 6178 3f41 9eb8 a440 9fa2 ef3d
00000010: 0b41 083e 0479 de3e 7864 dc3d 254d 1c3f
00000020: 1777 2c3f 5cf9 123f 07b4 d13d 72ae 0f3f
00000030: 6a7f 0640 677e 363e 1109 b03d bac8 9141
00000040: a62e 213f 350e ab3e ebe7 bc3e 6763 bd3e
00000050: 3bf1 b540 38fc 513f 9f45 d23d 2d67 243e
00000060: 551d 803f 896d 6c3e 9d1a 5641 8906 953f
00000070: 0dd4 3740 e797 c33e 3606 c23e 4a53 fa40
00000080: f22a 253e 9577 073f 3321 4441 daeb 653e
00000090: 68b9 843e ac24 d03d a1a4 283e 6713 d03e
000000a0: a8dc 2641 9c8e 113f 2ce3 473e e156 833e
000000b0: d11a eb3b 318f ab40 daa5 cf3e 47cd 0741
000000c0: 359c a23e 13c1 4841 b17c 8e3e ddb0 a53e
000000d0: b11d 0e3f 6a0c da3c 52a2 173e 8da3 8f3f
000000e0: 433f 6a3f 8f3f 0e3d c42d 0b3f 60e8 3241
000000f0: c5e6 4141 a060 293f ac21 f53d f1cf a840
00000100: 032d b73e d675 803d d560 1c3f 31fa 173e
00000110: 5768 d23e d7d5 1540 481d 853e d0cc 3a3d
00000120: 0f09 c63e 480b 7b3e df0e e140 014f 0a3f
00000130: b93d a43e 057b 6940 aa57 1d3e db66 cc3c
00000140: b441 0440 6361 1d3e c21b 083f e1b7 f63e
00000150: e442 9740 0d89 353c f3fc a43e d2ff 093f
00000160: 68f4 ef3c fe38 003f a793 0d3f ad5f 393f
00000170: 39c4 a33e 2b9c 853b 8599 9b3e 09e6 3e3e
00000180: b1d2 3f3e 5926 c63e 3e64 bb3e 0fe0 5741
00000190: 42b1 9e3e 357b 253f 73e7 9a3c 4b93 be3e
000001a0: 8c30 d240 cfa0 213f dbc9 f83e 89d7 d640
000001b0: 22cc 8e3f 3d87 d440 5b2f 913e 8bc5 8a3b
000001c0: 647f c93e 7e95 943e 4ab2 153e 1d4d 1e3d
000001d0: 887b 3c41 3d21 553e 2a6c 013e d545 a73e
000001e0: 54cf 483c 3cb5 6841 a32c cc3e d1da 0d40
000001f0: a45b 963e d6da 873e b620 233f 6acf c740
00000200: bafc 4d3f a2dc 613e a3e3 573b 3037 0e41
00000210: 7201 8241 2b5c 1b40 489b 273e 068b 2541
00000220: 63f2 a43e 871f f340 5946 573d 04dd 043e
00000230: b947 1a41 301e 153e 33a7 8a3d 73bf be3d
00000240: 213d e43e 051f 403e bbd7 bd3d b0f5 bd3e
00000250: bafb 053f 44bd 803f abcd 333f b18d d63d
00000260: a216 a43d 1813 a13d 2045 e940 6edb 713e
00000270: f41c 073f 0e81 b83e f362 e23e 3ccc fd3a
00000280: b4c0 353f 9b11 2c41 f3e5 843e 5777 c33f
00000290: 0384 4c3e a413 2041 3b29 b63c 4065 093f
000002a0: 3588 cd3e 892e 5b3f bc0c 803e c6be bc3e
000002b0: d382 3a3f a9df ae3f 97e6 0f40 d0ba 573f
000002c0: 2cb4 3541 ad7e 1b3e 9812 c640 6579 323d
000002d0: 1f02 983d 81ef 1a3e 7f19 eb40 2c1e 733e
000002e0: 9455 593d a9f5 1741 20ba a03d a20d 043f
000002f0: 4a1d 363f 833f 0c3f dcae ec3e 4587 0740
00000300: 3bf8 2d3f 5d46 4c3f 763c 913d f218 3f3f
00000310: f27e a540 91ce 523f 0cbc 833e 16af 8c3f
00000320: 0fac ca3e 9567 f53d 50ae e83e d376 ae3f
00000330: 4f4b 743f 4f1c 1341 194a ea40 8c4d c03b
00000340: 8bbf 323e 9e73 df3d 2a14 be40 f7c1 e93e
00000350: d3c2 c940 ac79 2c3f f650 aa3d ccb7 ca3d
00000360: d413 8f3f bfb7 7b3f c8bd 5c3f b1b4 103f
00000370: e918 0f3d 63f6 1e41 743e c93d 2df5 d33e
00000380: 3fa2 c03e 7194 0d3f aec8 c23c 3fe3 393e
00000390: afe4 2a3c 0317 de3e 4eda 0b3e 5984 3f40
000003a0: 46b8 e93e add2 763c 0927 cc3e 263c 003f
000003b0: 22db d63e 3a4d 193e 8951 d03e 6e33 523d
000003c0: 3d97 303e c7cb cd3d 4629 f13e ba62 f33e
000003d0: f520 be40 965e 103f 7373 7b3f eb25 f640
000003e0: 9ffc 403b f72d 283f b977 0f3f 98d3 ce3d
000003f0: 4422 dc3e e679 d43e d84b 1b3f 14fe 3741
0.67566 11.966889 5.1475363 0.117009394 0.13306062 0.43451703 0.107613504 0.61055213
0.67369217 0.5741174 0.102394156 0.5612556 2.1015267 0.17821656 0.08595479 18.223011
0.62961805 0.33409277 0.3689569 0.369899 5.685697 0.8202548 0.102671854 0.16054983
1.0008951 0.2308866 13.381497 1.1642619 2.8723176 0.3820183 0.37895364 7.822667
0.16129664 0.5291684 12.258105 0.22453251 0.25922704 0.101632446 0.16469051 0.40639803
10.428871 0.5685823 0.19520253 0.2565222 0.0071748276 5.3612294 0.40556222 8.487617
0.31759802 12.547137 0.27829507 0.32361498 0.55514055 0.026617248 0.14808014 1.1221787
0.9150278 0.034728583 0.5436671 11.181732 12.11884 0.66163063 0.11969313 5.2753835
0.3577653 0.062724754 0.61085254 0.14841534 0.4109523 2.3411767 0.25998902 0.04560548
0.38678786 0.24516022 7.0330653 0.540268 0.3207834 3.6481335 0.15365472 0.024951389
2.0665102 0.15369181 0.53167355 0.48187163 4.7269154 0.011080039 0.32224235 0.53905976
0.029291347 0.50086963 0.55303425 0.72411615 0.31985644 0.0040774546 0.30390564 0.18642439
0.18732716 0.38701132 0.36599916 13.492202 0.30994612 0.64641124 0.018909192 0.3722175
6.568426 0.63136 0.48591504 6.7138104 1.1156046 6.6415086 0.28356442 0.0042349747
0.39355004 0.29020303 0.14618793 0.03864776 11.780159 0.2081346 0.12638918 0.32670465
0.012256462 14.544247 0.39877805 2.2164805 0.2936679 0.26534146 0.6372179 6.244069
0.80463755 0.22056821 0.0032942079 8.8884735 16.250706 2.4275005 0.16367829 10.346441
0.32216176 7.5975986 0.052557323 0.12974936 9.64251 0.14562297 0.06770172 0.0931386
0.44577888 0.18761833 0.09269663 0.37101507 0.5233723 1.0057759 0.702357 0.10476244
0.08012129 0.0786497 7.289688 0.23618862 0.52778554 0.3603596 0.44216117 0.0019363235
0.70997167 10.754298 0.25956687 1.5270795 0.19972233 10.004795 0.022236457 0.5367012
0.4014298 0.8561788 0.25009716 0.368643 0.7285587 1.3662006 2.248449 0.8426943
11.356487 0.15185042 6.1897697 0.043572802 0.074222796 0.15130426 7.3468623 0.23741978
0.05306013 9.497476 0.078480005 0.515833 0.7113844 0.5478441 0.46227157 2.1176312
0.67956895 0.79794866 0.0709161 0.7464744 5.1717463 0.82346445 0.25729406 1.0990932
0.39584395 0.11982647 0.4544549 1.3630012 0.9542741 9.194411 7.321545 0.0058686193
0.1745588 0.10910724 5.9399614 0.45655796 6.3050323 0.67373157 0.08316223 0.09898338
1.1177926 0.9832725 0.86227083 0.56525713 0.034935866 9.935153 0.09826365 0.41397992
0.37623784 0.5530463 0.023777332 0.18153094 0.010430499 0.43376932 0.13657495 2.9924529
0.45648402 0.015064877 0.3987353 0.5009178 0.4196406 0.14970866 0.40687206 0.05131858
0.17245193 0.10048633 0.47101802 0.4753626 5.941523 0.56394327 0.98223037 7.6921287
0.002944745 0.65695137 0.5604206 0.10098952 0.42994893 0.4149925 0.60662603 11.499531

net.4.weight f4 [128, 256]
00000000: 29eb e9bc d2c6 6cbe d79e 22bc 3070 d63d
00000010: d584 723d ae2a 56be 395a e73d 8148 5e3b
00000020: 39bc 543e a48b 433e 29b3 db3d 3870 f83d
00000030: b854 ebbb 02b9 28be bf3b 373d bf5d e4be
00000040: b075 463d 8e45 d73d 0242 32be bfac a9bb
00000050: 85ac 71bd 5787 f8bd 4a5d e4bd d129 213d
00000060: 4334 e93c 813b 92bd c9b3 d6be 23bc 803c
00000070: 2caf 98bc b2c3 883d a4d7 ccbb 8e0d 9cbf
00000080: 5f51 d63d d19c e5bd 043c b9be 13f9 94bd
00000090: eb85 06be dbe4 033e 8dcf 07be 683e ef3d
000000a0: 3610 53be 1a0a c4be 23c3 233e ff46 e83c
000000b0: b045 59bd 87f8 73bd f732 58be 6837 edbe
000000c0: 8692 7abe 7b6b a2be 8f4b 553d 9e10 483e
000000d0: b62c cdbc d90f 923d 22ba 1abd 77d9 bebe
000000e0: f6ab 8bbd c61d b4bd 9906 3abd 541c 9fbe
000000f0: 2b55 91be a8fd 413e d7e7 893d 57f4 70be
00000100: 19c7 273d 7626 dcbd d158 39be 39ee 9f3b
00000110: 806b e6bd 5fe2 cabe a565 9d3c 017b f23c
00000120: 93a6 333e 3184 62bc a47e b93c 6441 4a3d
00000130: 29ec 233e 7969 86bf 90a6 4ebe 5cbb 3c3b
00000140: b758 233d 38ce 03be 772f 06be 7844 9e3c
00000150: 8c25 84bd 69d1 aabe da56 20be c81b 84be
00000160: 6b30 a2be 1330 fc3d 15fb 453d 13fe 463e
00000170: 689c 743e 4244 4ebe 2a83 c13d f5c3 623d
00000180: 1ca5 9f3b b16c e53c 137f c8bd b6f0 71bf
00000190: 94cb 22be c160 a9bb 83d1 63bd bb50 8bbd
000001a0: f4dc be3c ef04 363d 2a3c 933b dea3 ee3b
000001b0: 9015 32be 21e7 f0bc ef99 a7bc fd11 41bc
000001c0: b56f 823d 2062 533d cde4 8cbd 0e2c d6bc
000001d0: 3ce0 74be 786e 1cbb 2759 5fbe 9e86 37bd
000001e0: 2c96 91be 64e2 4ebf ff0d c93d 30d9 30be
000001f0: 66b5 2abe e12c 223e 54ee f8bb 37d3 433b
00000200: 5221 12be 1db4 2b3d 0970 8cbe c91b 7fbf
00000210: b3c3 aabe ec17 013e c0ae 6f3d 5a3b 77be
00000220: 2d23 bc3c 941d e9be 2c7a 17bc f799 cbbc
00000230: d11d 04bf ad80 0c3d 9e58 8fbb fe1f e93d
00000240: 6744 88bd 109e 87be c977 823c 9a73 603e
00000250: 9729 04bc f022 77be 7835 053e aeb1 f03d
00000260: 9e53 35be a012 de3d 69bf 833d 3992 2b39
00000270: 9a71 8fbe f820 1b3e ca84 26be 533b dfbd
00000280: f85c 02be a997 dcbe 98be b0bc a401 a73d
00000290: f8a6 3fbe 4305 e4be 4b32 19bd 9b48 0c3e
000002a0: 2e52 023c 0fce 5c3d 0580 83bc e4a3 dd3d
000002b0: 008d 7dbe 0026 a03d 02d0 7fba 0d4e 32be
000002c0: b3c5 f1be ad06 66bd bae6 0d3d 047c 34be
000002d0: 5964 19be cbb5 6dbb 7af0 d9bc 21fd a6bd
000002e0: 1940 403e 35ab 01bf cbfa c63d 8581 edbd
000002f0: b0b4 33be 8b5e 1abd 9651 20bc 2ed2 0a3e
00000300: 8bce 38bc 468c 3a3d fb21 9d3c 1ee1 073e
00000310: 363b 23bd 68d5 1c3e 5a33 0ebe e6b2 223d
00000320: bea9 a3bd 32fc ed3d cb67 223d 6606 183d
00000330: 08c1 b63d ca02 d0be 8fc7 aa3d 9657 8c3d
00000340: b9a6 00be e3d5 723d 31ac 2cbe 77d7 f33d
00000350: db3a 6b3d 4b58 0a3e 3349 acbb 9352 293c
00000360: 3dce f73d 4093 d53d 9d6a 8f3d 36b7 d3bd
00000370: 10cb 413c 9784 bebe ede5 24bb e1ec 0e3d
00000380: 1ce5 813c a8fc f23c b64b 65be 9a46 f93d
00000390: 0473 943c 167f d1bd fc64 103e 1620 b7be
000003a0: 09c7 263d 9057 d5bc 2a16 8cbd 8b8d 833d
000003b0: 1036 1abe 3b1b b93d 621c 533d 55da 2fbe
000003c0: caa4 d53c 8d0d ad3d 6cd9 d53d 86f2 b63d
000003d0: c589 913d 8209 23be bcbf 55bd 6649 a6be
000003e0: 2c69 59be 520e e1bd dd62 5dbd edc7 793d
000003f0: ce80 063c 5272 24bc 78f5 7ebe 45b0 18bf
-0.028554516 -0.23122719 -0.009925566 0.10470617 0.05920871 -0.20914719 0.112965055 0.0033917727
0.20774926 0.19096237 0.107275315 0.12130779 -0.00718173 -0.16476825 0.044734713 -0.44602773
0.04845208 0.105113134 -0.17407992 -0.0051780636 -0.059002418 -0.12135189 -0.11150606 0.03934652
0.028467303 -0.07140256 -0.4193404 0.01571471 -0.018638216 0.06677951 -0.0062512923 -1.2191637
0.10464739 -0.11211551 -0.361786 -0.0727407 -0.13137023 0.1288027 -0.13262768 0.11681825
-0.20611653 -0.38288957 0.15992408 0.028354166 -0.053044975 -0.059563186 -0.21113192 -0.46331334
-0.24469957 -0.31722626 0.05207401 0.19537589 -0.025045734 0.07131929 -0.037775166 -0.37275288
-0.06819908 -0.08794741 -0.04541645 -0.310763 -0.2838529 0.18944418 0.06733673 -0.23530708
0.04096136 -0.10749523 -0.18100287 0.0048806933 -0.11250973 -0.39625832 0.019213507 0.029599668
0.17544012 -0.013825462 0.022643395 0.049378768 0.16008057 -1.0500938 -0.20180726 0.0028798198
0.039879527 -0.12871635 -0.13104044 0.019319758 -0.06452474 -0.33362892 -0.15658131 -0.25802445
-0.31677565 0.12313857 0.048335154 0.19432859 0.23887789 -0.20143226 0.09448846 0.05536266
0.0048719775 0.02800593 -0.097898625 -0.9450792 -0.15897971 -0.0051690047 -0.055619728 -0.068025075
0.023298718 0.0444383 0.004493256 0.007282718 -0.17391038 -0.029407086 -0.020459143 -0.011784074
0.06368963 0.05160725 -0.06879578 -0.026144054 -0.23913664 -0.0023869555 -0.21811353 -0.044806115
-0.28434885 -0.80814195 0.09817123 -0.1727035 -0.1667076 0.15837432 -0.0075967703 0.0029880533
-0.14270523 0.041919816 -0.27429226 -0.9965177 -0.33352432 0.12606782 0.058516264 -0.24143735
0.022965992 -0.4553038 -0.009245437 -0.02485369 -0.51607996 0.034302402 -0.0043745777 0.11383055
-0.06653672 -0.2648778 0.015926259 0.21919098 -0.008066556 -0.24134421 0.13008678 0.1175264
-0.17707679 0.10843396 0.06432993 0.00016362303 -0.2801636 0.15149295 -0.16261593 -0.10899987
-0.12730777 -0.43084458 -0.021575257 0.0815461 -0.18716037 -0.44535264 -0.03740148 0.13699572
0.0079541635 0.05390745 -0.016052255 0.10822275 -0.24760818 0.07819748 -0.00097584736 -0.17412587
-0.47221145 -0.05615871 0.034643866 -0.17625433 -0.14979686 -0.0036271687 -0.026603926 -0.08153749
0.18774451 -0.50651866 0.09715804 -0.115969695 -0.17549396 -0.03768782 -0.009785077 0.1355674
-0.011279712 0.04554393 0.019181242 0.13269469 -0.03985139 0.15315783 -0.13886777 0.039721392
-0.0799136 0.11620368 0.039649766 0.037115477 0.089235365 -0.40627128 0.08338844 0.06852643
-0.125636 0.05928601 -0.16862561 0.11906331 0.057429176 0.13510244 -0.0052577495 0.010334629
0.12099884 0.10428476 0.07002757 -0.10337679 0.011828199 -0.37210533 -0.002516146 0.034893874
0.015856318 0.029661492 -0.22392163 0.12171669 0.01812125 -0.10229318 0.14101022 -0.35766667
0.04071716 -0.02604273 -0.06840165 0.064234816 -0.15059686 0.09038397 0.05154074 -0.17173131
0.026079554 0.0844985 0.104418606 0.089329764 0.071063556 -0.15921596 -0.052184805 -0.32477874
-0.21231526 -0.109890595 -0.05404936 0.06098168 0.00820942 -0.010037022 -0.24898326 -0.59643966

net.4.bias f4 [128]
00000000: 8fc9 7e3f 6071 383e fd14 ecbc d9d0 c2bd
00000010: aebe 553f 408d 27bf 7729 f4bf 43cf 73bd
00000020: ded3 29bc 9966 f2bd bd49 23be 89c9 a8be
00000030: ad2d 40be 26f6 3cbe b5a3 003c 7661 28bf
00000040: 382e b93d 4dfc 48be 7f13 94bc 30e9 003f
00000050: 9c3a 0f3f de85 55be b61a 1bbf 0c88 ed3f
00000060: 7ca2 723f 28dd b1be 7ade 143f 62c2 37bd
00000070: 42be b0be 705a 253f e127 cebe 19b4 913d
00000080: 58b6 57bf 1f15 55be 3936 63be 89c7 29bf
00000090: 9867 f3be a85c 11bf 2221 6dbe 259a a5be
000000a0: 27ac e03f 1bee 2d3f 91ab 833f 7d0d 113e
000000b0: da67 cabe 343a 80be 7ed2 86bd 66f4 833f
000000c0: 8c7f 24be 45c2 86be 96e8 b4be 24af dcbe
000000d0: a444 40be 7a6b cc3f 70e1 c3bd a4a8 28bd
000000e0: ef44 6dbe cc71 34bd 48db 9c3e d92e e8be
000000f0: 85dc 9fbe 017b 3ebe 6dee c33d 5acb a23f
00000100: 3e5c b1bd baee 563f 9ed2 2cbe f062 f0be
00000110: 98fa 0abf 52af 483f 8397 80be ff5a 82be
00000120: cff1 84be 7dc8 f9be 12b9 593f 101c a1bd
00000130: f76d 01be bab0 603d 793f f53c cafe 96be
00000140: 543e 583f f871 e4be 15e0 aebf b043 9a3f
00000150: 7007 57be 7ea2 f5be 22bd 9dbe 07ef 82bc
00000160: a6f4 5e3d 639b cc3c de1a e8be fbf6 473f
00000170: eb62 cbbe 9c5c b3be 283b b93f 52ba 373d
00000180: 2bb4 a0bd b592 653d 2428 ebbe c464 ae3c
00000190: 590d 883e cc4e 26be b570 c3bd 0e42 ccbf
000001a0: c13b 51be da2f 90be 56e5 c3bd 53d1 973e
000001b0: fff9 18bd 7ea0 81bb fc9c 1e3f 293e 8a3e
000001c0: 7846 2abe 3b12 00bf cb35 0f3f f2b8 3dbf
000001d0: 0b29 fb3d 0e66 f13e 87ed d5be b1ae bdbe
000001e0: 3b23 44be 4459 033f 8177 dabc 840a 01bf
000001f0: 4e8f 91be 6ed2 a2bc 343e 96bd 9efb 98bf
0.99526304 0.18011999 -0.028818602 -0.09512491 0.8349408 -0.65449905 -1.9075154 -0.059523832
-0.0103654545 -0.11835975 -0.15946098 -0.3296626 -0.18767424 -0.18453273 0.007851531 -0.65773714
0.09042019 -0.19627495 -0.018075703 0.50355816 0.55948806 -0.20851848 -0.6058763 1.8557143
0.9477918 -0.3473904 0.5815197 -0.044863112 -0.34520155 0.6459112 -0.402648 0.07114429
-0.8426261 -0.20808838 -0.22188653 -0.6632009 -0.47539973 -0.5678201 -0.2315717 -0.32344165
1.7552537 0.67941445 1.0286733 0.14165302 -0.39532357 -0.25044405 -0.06583117 1.030896
-0.1606428 -0.2632009 -0.353337 -0.43102372 -0.18776184 1.5970299 -0.09564483 -0.041176453
-0.23170827 -0.044053838 0.30636048 -0.45348242 -0.3122293 -0.1860161 0.095669605 1.2718308
-0.08660172 0.8395802 -0.16877219 -0.46950483 -0.54288626 0.7839252 -0.25115594 -0.2546005
-0.25965735 -0.48785773 0.8504802 -0.078666806 -0.12639605 0.05485604 0.029937493 -0.29491264
0.84470105 -0.446182 -1.3662134 1.2051907 -0.20998931 -0.47975534 -0.3080836 -0.015983118
0.054432534 0.024976438 -0.45332998 0.7811124 -0.39723906 -0.35031593 1.4471178 0.044855423
-0.07846864 0.056048114 -0.45929062 0.021288283 0.26572683 -0.16240996 -0.095429815 -1.5957658
-0.2043295 -0.28161508 -0.09565227 0.2965189 -0.03734779 -0.0039558997 0.6195829 0.2700055
-0.16628444 -0.5002782 0.55941457 -0.7411033 0.12263688 0.47148174 -0.4178278 -0.3704734
-0.19154064 0.51308084 -0.026668312 -0.5040667 -0.28429645 -0.019875731 -0.07336083 -1.1951787

net.6.weight f4 [128]
00000000: e666 1540 34f9 a13f 03b3 853f 907d 9b3f
00000010: fef5 1640 beb7 4f40 f873 e23f 3154 bf3f
00000020: 85eb 1e40 131d 1740 e01e 0240 346c 783f
00000030: 85b4 d83f d1b1 993f 2090 923f fd89 d73f
00000040: 3970 af3f 4590 783f 2b30 b33f e026 d13f
00000050: ccaa 1240 9b1f 923f 9e6e f43f 76af 1a40
00000060: a61c 0440 09cb 993f dc97 8e3f 6f07 0340
00000070: bcd7 0940 3f78 0140 b4f9 0b40 6bf5 9d3f
00000080: 7f02 0740 0e4f ae3f 6071 cd3f 9ac5 9e3f
00000090: be12 cf3f 99e0 e63f ce00 a23f a5af 2440
000000a0: c5d8 0640 45bc f03f fdd7 1840 5bb9 b63f
000000b0: 6cdc 1440 6379 0340 2638 fa3f 3ce4 1e40
000000c0: 90e8 8f3f a568 903f cf8a 9c3f ac78 b93f
000000d0: 804e c23f 966e 1a40 50a2 753f 0fd1 8f3f
000000e0: f477 fd3f 0d8d ea3f 0f15 0440 4ac5 ab3f
000000f0: 30c9 c93f 2583 9a3f 3550 1940 03b6 1b40
00000100: a275 0a40 fae8 ef3f c6fd 6540 debf 0440
00000110: 7798 ea3f ed87 0e40 2909 a43f 5a59 0040
00000120: a3bd 9d3f 7bd0 5940 5b53 1c40 eee5 ee3f
00000130: 7a93 883f 7668 0b40 c726 8f3f ca56 d33f
00000140: d7b2 c13f a5f4 c53f d238 fc3f 508b 2540
00000150: fac0 ff3f b3a8 ca3f c6be 843f a861 b43f
00000160: 97f7 583f 7300 1a40 4567 8f3f cf33 fb3f
00000170: a833 c23f 77ef be3f 6985 0f40 f1d7 1b40
00000180: 4105 9b3f 35bd cb3f 9544 9e3f f802 1a40
00000190: f66b 2240 ac90 853f b303 763f da4d d83f
000001a0: 3620 0640 6305 a53f 9563 733f 2cd5 8b3f
000001b0: 6383 913f fd3d 913f 3d9f 0240 d697 dc3f
000001c0: db24 da3f b1ff 893f 8ab4 f93f 15f9 6a40
000001d0: c820 2d40 24b1 ca3f 9dc3 953f 5ef8 e93f
000001e0: 297f 1c40 7c44 2640 addb 903f 8457 dc3f
000001f0: 68ae 983f 49b7 e43f 7bcd d03f 9f3e 0540
2.3344054 1.2654176 1.0445255 1.2147694 2.3587642 3.2455897 1.7691641 1.4947568
2.483125 2.3611495 2.0331345 0.97040105 1.693009 1.200739 1.1450233 1.6838986
1.3706123 0.9709514 1.3999075 1.6339989 2.2916746 1.1415895 1.9096258 2.4169593
2.0642486 1.2015086 1.1140094 2.0473287 2.1537924 2.0229642 2.1871157 1.2340521
2.1095273 1.3617876 1.6050224 1.2404053 1.6177595 1.8037292 1.2656496 2.5732205
2.1069806 1.8807455 2.3881829 1.4275316 2.3259535 2.0542839 1.9548385 2.4826803
1.1242847 1.1281935 1.2229861 1.4489951 1.5180206 2.4129996 0.95950794 1.1235675
1.9802232 1.8324295 2.0637853 1.3419583 1.5764523 1.2071272 2.3955204 2.432984
2.1634297 1.8742974 3.593614 2.0742106 1.8327779 2.2270463 1.2815295 2.0054536
1.2323498 3.4033496 2.4425876 1.8663919 1.0670006 2.1782508 1.1183709 1.6510861
1.5132703 1.5465285 1.970484 2.586628 1.9980767 1.5832733 1.037072 1.4092302
0.8475279 2.4062774 1.120339 1.9625186 1.5172014 1.4916829 2.2425177 2.435055
1.2110978 1.5917116 1.236468 2.4064312 2.5378394 1.0434775 0.96099395 1.6898758
2.095716 1.2892269 0.95073825 1.092443 1.1368221 1.1347042 2.0409691 1.7233837
1.7042497 1.0781156 1.9508221 3.6714528 2.7051258 1.5835309 1.1700321 1.8278921
2.4452612 2.59793 1.131704 1.7214208 1.1928225 1.7868434 1.6312708 2.081947
