pythorch saved models/Autoencoder_model.pt (torch, 141240 bytes, 8 tensors)

encoder.0.weight f4 [128, 69]
000000 d0 61 3e 3a 71 c0 31 3d e2 83 53 3c 38 8c d2 3b
       0.00072625 0.043396417 0.012909861 0.006425407
000010 60 35 65 bd 51 3b 61 3d ad 31 80 3c d2 0e 0c 3e
       -0.055959105 0.05498821 0.015648687 0.13677529
000020 d2 3d a2 3c 0a 53 a4 bd 2a e4 59 3c 62 c4 11 3e
       0.019804869 -0.08023651 0.013299027 0.1423507
000030 15 ba 47 3c 0d b6 c9 bc e8 36 59 bd 6d f9 0d be
       0.0121903615 -0.024622941 -0.05303088 -0.1386468
000040 06 57 cc 3e dc 3c 9a 3e 9f 88 48 bd cd 36 55 bd
       0.39910144 0.30124557 -0.048958417 -0.052054215
000050 47 aa 2c bc af 5a 43 bc 0a 0e 0c be 91 ec bd 3c
       -0.010538644 -0.011923476 -0.1367723 0.023184093
000060 27 2a 06 be 10 e2 87 3d 09 98 59 bd 48 74 0f bd
       -0.13102017 0.06634915 -0.053123508 -0.035023004
000070 ef ae 2f be 82 c4 bf bd 9f 7b c4 bd 8e db 6b bd
       -0.17156576 -0.09363653 -0.09593891 -0.05758243
000080 09 9a ca 3c f1 67 ae 3d 72 17 66 bd 75 39 9e 3b
       0.024731653 0.08515919 -0.056174703 0.0048286268
000090 b0 3b 98 bc 84 da c4 bd 05 90 e1 bc 2e 11 34 3d
       -0.018583149 -0.09611991 -0.027534494 0.043961696
0000a0 09 4f cb bc ae 38 ca 3c 1c a0 4a 3d b5 af 7c bd
       -0.02481796 0.02468523 0.0494691 -0.061691005
0000b0 6c bd ca bd ca 5e 23 3f d8 5b 69 3b 46 df 8d 3d
       -0.098994106 0.6381651 0.0035607722 0.06927352
0000c0 99 72 36 be b6 1a fa 3c 2a 3f f3 bc a7 ca 0d be
       -0.17817153 0.030530315 -0.029693205 -0.13846837
0000d0 99 39 f0 bb 6c 14 b5 bd fe 87 15 3d 05 88 1a be
       -0.007331085 -0.08841786 0.036506645 -0.1509095
0000e0 23 f4 e6 bc f6 25 c6 3b 73 1a 3f be 02 e3 15 3d
       -0.028192585 0.0060470058 -0.18662433 0.036593445
0000f0 bd 1c bc 3c 15 b5 ea 3d 04 d0 1f 3d 1d e5 3b be
       0.022962922 0.1146032 0.03901674 -0.18349119
000100 ae a5 d3 bb bd e3 50 bd 13 6a 33 bd 2e be 3f 3d
       -0.0064589595 -0.05099844 -0.043802332 0.04681223
000110 55 1d a5 3b bc a1 9c bb 0c 25 c0 bd 8a b5 a7 bd
       0.005038897 -0.0047800224 -0.09382066 -0.08188923
000120 b3 6e f3 bd 09 8c 28 bd 00 96 8f 3d 53 8c b6 3e
       -0.118863486 -0.041149173 0.07011032 0.35653934
000130 aa 86 0d bc 70 60 09 3d 14 3b 69 be 72 41 6c ba
       -0.008638063 0.033539236 -0.22776443 -0.00090124377
000140 06 f1 cb bd 66 bc 5a bc 6b 5e 80 be 6c fc 28 3e
       -0.09958081 -0.013350582 -0.25072035 0.16502541
000150 e6 d7 e2 3c 50 15 c2 bd 16 bf 88 3d b8 a9 26 3d
       0.027690839 -0.09476721 0.06677072 0.0406892
000160 f5 d6 35 bd 52 7a d7 bd 12 f7 64 3e 5e 44 c0 3d
       -0.044394452 -0.105213776 0.22359875 0.0938804
000170 f0 e3 16 3a e2 bb 78 3e 59 90 df bb 80 44 09 bd
       0.0005756011 0.24290422 -0.0068226275 -0.033512592
000180 1d ed 63 3c ed 4f 37 b9 a7 68 06 3d 7c e7 5a 3c
       0.013911513 -0.00017482015 0.032814648 0.013360854
000190 87 99 81 3c e2 7c 02 bd 92 55 ae bc c8 f2 c7 bc
       0.015820278 -0.03185738 -0.021281037 -0.02440776
0001a0 1b 5d 9d bd ad c1 2e 3e fb e2 61 3e 26 a1 af bc
       -0.07683774 0.17066069 0.22059242 -0.021439146
0001b0 18 c4 89 3d 4a c9 99 3e bd 62 1b 3e 57 d6 26 bf
       0.06726855 0.30036384 0.15174384 -0.65170807
0001c0 98 c1 28 bd 73 03 dd bc d6 35 83 3b 12 5b 0d bf
       -0.04120025 -0.026979184 0.0040042205 -0.5521709
0001d0 2a ad 8e bd e8 fc b7 3d e8 ec 82 3d d7 66 98 3d
       -0.06966622 0.08983785 0.063928425 0.0744149
0001e0 d0 af ca bd 1f 9e 5d 3d 88 2a 2b 3d 63 3f 90 bd
       -0.09896815 0.054105874 0.041788608 -0.0704334
0001f0 e8 5a c2 3d 88 19 77 bb f0 37 7a bb 02 8d c4 3c
       0.09489995 -0.0037704427 -0.0038180314 0.023993019
000200 ba 26 4f bd ae fd cc 3c e7 2c 8d bc ce 83 79 3d
       -0.050574042 0.025023308 -0.017233325 0.060916714
000210 16 14 2c 3e ec 24 58 3e 78 93 85 bd 66 04 05 3e
       0.16804537 0.21107835 -0.06522268 0.12989959
000220 07 e3 65 3e a9 f8 1d bd de e0 7e 3d 70 3e 00 3d
       0.22449885 -0.03856722 0.06222617 0.031309545
000230 80 ec 44 3e 14 96 0a be 7c 0b 04 3d a3 04 f7 bd
       0.19230843 -0.13533813 0.032237515 -0.12061431
000240 a9 c0 b9 3e a0 44 a2 3c 1a d8 83 bd 34 90 b0 bd
       0.362798 0.019808114 -0.064377025 -0.086212546
000250 4c 60 a7 bd 91 28 69 bd fe 9e 41 bd d2 4c 06 be
       -0.08172664 -0.056923453 -0.047270767 -0.13115242
000260 68 49 29 bd d4 31 3f 3d 3a d7 91 3d 8a c5 bc 3d
       -0.04132977 0.04667838 0.07121129 0.09217365
000270 b2 1b 6a bd 8d 25 c6 3d 30 5c ab bb 7c d5 3a be
       -0.05715532 0.09675131 -0.0052294955 -0.182455
000280 56 14 a5 3d e8 26 ab bd ba f8 b0 bd 79 04 db 3d
       0.080605194 -0.0835703 -0.08641191 0.106942125
000290 dd 7a 1d bd 03 2b 7f 3d 26 36 0c be aa e8 42 3d
       -0.03844725 0.06229688 -0.13692531 0.047585167
0002a0 d6 dd 9b bd 23 c7 3f 3e 2e 34 43 3c 71 31 3f 3e
       -0.07610671 0.18728308 0.011914296 0.18671204
0002b0 c8 a6 bb 3d 5a df 5e 3d f4 64 8e 3e 8b a9 89 3c
       0.091626704 0.054412223 0.27811396 0.016804477
0002c0 d2 d4 4c bc b1 9f 39 3e 2e 9e 8d 3d 12 40 38 bd
       -0.012501912 0.18127324 0.06914936 -0.044982977
0002d0 a5 53 1a bd 1c d7 12 bd af 0a 5f bd b5 92 97 3c
       -0.037677426 -0.035849676 -0.054453548 0.018502573
0002e0 20 56 31 3d 82 78 6f 3e 5d c9 b5 3d 66 84 14 be
       0.043295026 0.23385814 0.088762976 -0.14503631
0002f0 2d 80 9e bd b6 38 ca 3d 80 f0 57 bb 6f f1 8c bb
       -0.07739291 0.09874098 -0.0032949746 -0.004301242
000300 f9 c8 29 be 6b 00 2e 3d e9 68 5e 3d 9f 21 37 bd
       -0.16580571 0.042480867 0.05429927 -0.044709798
000310 84 fa 80 3d cb cb ff 3b e0 fe 47 3d 8b 74 c8 bc
       0.06297782 0.0078062764 0.048827052 -0.024469635
000320 70 40 20 3c 12 1d 8a 3d 38 c8 8e bd 36 70 94 3d
       0.009780988 0.06743826 -0.069717824 0.07247965
000330 af 10 96 bc 90 f5 ea 3d e1 9b 6a 3d 1b fb 60 3d
       -0.018318502 0.114726186 0.057277564 0.054926973
000340 bf 0c b3 bd 77 9c 07 be 0a d1 ae bc 08 0b a1 3d
       -0.087426655 -0.1324328 -0.021339912 0.07863432
000350 9a ed 8e bd 83 1c 39 3d 5a e9 2a 3e aa c7 34 be
       -0.06978913 0.045193207 0.16690579 -0.17654291
000360 5b b2 87 bd 74 de df bd ea f1 91 3e 16 cd 0a 3c
       -0.066258155 -0.109311014 0.28504878 0.008471748
000370 9a ff e9 3d 3e 93 64 3d ea 31 a8 3d d4 7c 30 be
       0.11425705 0.055804484 0.08212645 -0.17235118
000380 8e 89 a3 3d 4f d2 ad 3d e8 2a 00 bc 4b d8 27 be
       0.07985221 0.08487379 -0.00782273 -0.16391103
000390 33 ac 53 3d c4 d9 de 3d b8 60 e1 3c c4 c2 49 3d
       0.051677894 0.10881379 0.02751194 0.04925801
0003a0 a1 be cb bd dc df 8e bd c1 82 96 3d 32 cc 1a 3e
       -0.09948469 -0.069762915 0.07349158 0.15116957
0003b0 d0 e0 11 3c b4 df f8 bd 92 96 99 bd 99 3d 71 3d
       0.008903697 -0.12152043 -0.07499422 0.058896635
0003c0 c4 b8 91 3d b1 b7 a5 3d 2b a6 61 be 6b 3a d7 bc
       0.07115319 0.08091677 -0.22036044 -0.026272973
0003d0 92 d1 b5 be 0e 5c 2a be ba 00 cd bd f9 f0 03 3f
       -0.35511452 -0.16636679 -0.10009904 0.5153957
0003e0 3b 01 ef bb b9 38 ad 3d 11 9b e1 bc f0 43 0c be
       -0.007293848 0.084580846 -0.027539762 -0.13697791
0003f0 1a ee 42 3e 0f 25 ca bd f6 ca 5c 39 55 71 80 be
       0.19036141 -0.098703496 0.00021056444 -0.25086465

encoder.0.bias f4 [128]
000000 de 3d eb bd 30 25 19 3f cb 6b e3 3e d8 e0 c9 bd
       -0.114864096 0.5982237 0.44418177 -0.09857339
000010 3e 2c 11 3f 3c 97 48 3d f6 2b 97 3c 67 e5 1b 3f
       0.56708133 0.048972353 0.01845358 0.60896915
000020 aa d7 0c 3f 83 2d 60 3c a3 3e 19 3e a4 ff a7 3e
       0.5501658 0.013682726 0.149653 0.32812226
000030 06 47 3e 3e 1b 5f de 3e cc c7 2f 3e f3 33 0c 3f
       0.18581781 0.43431935 0.1716606 0.5476677
000040 14 ec 2d 3f 65 a8 81 3d 2d f8 05 3f 17 99 40 be
       0.6793835 0.06330947 0.5233181 -0.18808399
000050 10 b9 18 3f 06 3e 4d bf 06 a6 f5 3e 0e dc 71 3e
       0.5965738 -0.80172765 0.47978228 0.236191
000060 dd 96 39 3f bc 0a 96 3e d1 73 0f bf 26 98 ed 3d
       0.72495824 0.29305065 -0.56036097 0.11601286
000070 da 77 dc 3e 6e 11 15 3e 49 66 3a be c5 20 d8 be
       0.4306019 0.1455743 -0.18203081 -0.422125
000080 e9 87 8e 3e f8 db 8c bd cb a8 a0 3e 26 5c 7f 3f
       0.27838066 -0.06877893 0.3137878 0.9974998
000090 62 78 75 3b 5f 7f 05 3e 24 af 6f 3f cb 5e 43 3f
       0.0037455787 0.1303687 0.9362662 0.7631652
0000a0 2c 2f 03 bf 94 58 79 be f7 19 87 3f b0 dd 61 3f
       -0.51243854 -0.24350196 1.0554799 0.88228893
0000b0 dc 63 80 bf fa 94 b2 bd c7 5a 45 3f a2 39 af be
       -1.0030475 -0.08719821 0.7709164 -0.34223658
0000c0 e4 63 e4 be f5 89 a4 3e a9 2c 0c bf e2 4c 84 3e
       -0.4460746 0.32136503 -0.54755646 0.25839907
0000d0 03 85 2e bf af 50 1c 3f 5d ea fb be 24 a8 bb be
       -0.6817171 0.61060613 -0.49202242 -0.3665172
0000e0 1c 37 69 3e 8d 4d a0 bc 13 2c 0c bd 64 0a 2b 3f
       0.22774929 -0.01956823 -0.03422172 0.6681273
0000f0 21 3a 08 bf 6e 06 33 3f 3c 27 e8 be 3b d5 b6 be
       -0.532137 0.69931686 -0.45342433 -0.35709557
000100 ba 2d ca bd b4 2a 89 3f aa 02 f8 3e fa 42 1a 3f
       -0.09872003 1.0716157 0.48439533 0.6025845
000110 52 72 d2 bd 1f a6 5b be fc 65 36 be 0f cb a4 3d
       -0.10275711 -0.21450089 -0.17812341 0.08046543
000120 af a4 ae 3e c3 7e be be ad 66 1e bd 87 78 a8 3b
       0.3411002 -0.37206087 -0.038672138 0.005141321
000130 80 c1 4d bf 11 fa b9 3d 09 39 49 3e d8 5a 6a be
       -0.8037338 0.090808995 0.19650663 -0.22886217
000140 c1 e6 cc be 22 8f dd be 64 81 02 bf 1c 10 89 3e
       -0.400198 -0.43273264 -0.50978684 0.26770103
000150 e7 f9 d5 3e 3d ef 6c 3f 94 66 ba 3e 1f ed 83 bd
       0.41792223 0.9255255 0.36406386 -0.06441712
000160 bb b2 bf bc a1 90 5a 3f d0 14 0b bf ab b7 16 be
       -0.023400655 0.85376936 -0.5432863 -0.14718501
000170 8e 85 c3 3e 3c 5b 73 be f7 28 ca 3e 77 70 3c 3f
       0.38187832 -0.23765272 0.3948438 0.7360911
000180 89 41 a4 3e ad ee 0a bf c1 66 9d 3e 53 8a 03 be
       0.3208125 -0.5427044 0.30742458 -0.12845735
000190 87 eb b2 bd 65 67 df 3e 66 a0 07 3f 6c 78 53 3b
       -0.087363295 0.4363357 0.52979124 0.0032267822
0001a0 24 7f 3f 3e 26 6f 24 3f f6 70 a4 3e cd c2 40 be
       0.18700844 0.642321 0.32117432 -0.1882431
0001b0 7b e3 5c bd 93 0d 25 3f fd a6 33 bf 9c 30 04 3f
       -0.05392788 0.6447384 -0.7017668 0.5163667
0001c0 2e bf 4a 3e 55 74 1f bf 1a e8 49 bd 7b 26 dd be
       0.19799492 -0.62286884 -0.049293615 -0.4319342
0001d0 ca c3 29 bb f6 1a b1 3e db d8 25 be 50 54 87 be
       -0.0025904053 0.34590882 -0.16196005 -0.26431513
0001e0 d3 4b a9 3e 75 3d be 3c dd 3c 9e be 4e 27 b0 3e
       0.33065662 0.023222664 -0.3090581 0.34404987
0001f0 23 10 ca bd 1d dd 05 3f a5 41 68 3d 6f f1 35 3f
       -0.09866359 0.5229052 0.05670323 0.71071523

encoder.2.weight f4 [64, 128]
000000 b5 77 14 3c 9d 99 ec bd 1a 2c 61 3d 1c aa c2 3d
       0.0090617435 -0.11552737 0.0549737 0.09505102
000010 61 86 c7 3d 60 6c ab bc 1c f7 03 3e da bb b7 bd
       0.097424276 -0.0209257 0.12887233 -0.08971377
000020 46 d9 f9 3d 04 95 19 bc b2 0f 06 be cc ea 2b be
       0.12199645 -0.009373907 -0.13091925 -0.16788787
000030 5b 3b 2c 3d 64 45 0d be 7f fe 98 bc 87 27 d3 bc
       0.042048793 -0.13796002 -0.01867604 -0.025775684
000040 29 39 8a bd e9 5c 14 bc 06 e5 5c bb 14 33 0f 3e
       -0.06749184 -0.009055355 -0.0033705845 0.13984329
000050 90 1c 96 bc a5 ef e9 3b d4 98 bd bd cc ba 1b 3d
       -0.018324167 0.0071391636 -0.09257665 0.03801994
000060 d7 1f 32 be 98 73 04 3d 31 40 e0 3d 27 88 af 3e
       -0.17394958 0.0323368 0.109497435 0.34283563
000070 1a 19 51 3b 7a 6c e7 bd 1f 76 01 3d 33 7c 18 3d
       0.003190583 -0.11299987 0.03160679 0.03722782
000080 53 71 10 bd 43 80 32 3e 11 f3 41 3d d1 df ca 3d
       -0.035264324 0.1743174 0.047350947 0.09905971
000090 d3 d1 f5 bc 7c 54 27 3c fd f2 ea bd 04 8d 7a 3c
       -0.030007279 0.010213014 -0.114721276 0.01529241
0000a0 ca 3c 5e bd fe 3f 02 ba e1 ab dd bd 71 4c b4 bd
       -0.05425719 -0.0004968642 -0.10823799 -0.088036425
0000b0 82 55 69 3d b2 ea cd 3d 45 9c 16 be 38 bd 0b 3d
       0.056966312 0.1005453 -0.1470805 0.034116
0000c0 02 95 a7 bd 5f 95 6d bd 0c c6 f3 3d 9d f8 1f 3e
       -0.08182718 -0.05800378 0.11903009 0.15622182
0000d0 d4 2c ab 3c 0c 73 d7 bb 4a 00 d4 3d f9 c1 a6 bc
       0.0208954 -0.006574994 0.10351618 -0.020356165
0000e0 29 9b be 3d 90 ef e1 3d e1 7f 21 be de c6 7a 3d
       0.09306938 0.11032021 -0.15771438 0.06122481
0000f0 4b 64 49 bd 98 70 f0 3d 2f b8 95 bd 3a 31 a3 bd
       -0.049167912 0.117402256 -0.07310521 -0.079683736
000100 c0 65 56 bb 63 a9 31 3d 1e 99 01 3d 86 9f 8a bd
       -0.0032714456 0.04337443 0.031640165 -0.06768708
000110 75 5c 83 bd 07 5f fe bd 12 60 20 bd 87 7a 48 3d
       -0.06414119 -0.12420469 -0.03915412 0.048944976
000120 0f 01 d9 bd 4d 09 b7 3d a5 2e 82 bd 14 59 e6 bd
       -0.10595905 0.08937321 -0.06356553 -0.11247459
000130 fb 25 53 bd 86 13 a0 3d b2 38 8f bd fb e6 d3 3d
       -0.051549893 0.07816224 -0.06993236 0.103467904
000140 14 03 aa bc 50 42 b4 bd 43 9c a7 3d 9b fe 83 3d
       -0.02075342 -0.088017106 0.081841014 0.064450465
000150 93 ac d6 bd 9b f1 64 3d 00 c3 f1 bd 5c 47 14 3e
       -0.10482135 0.055894475 -0.118047714 0.14480346
000160 46 31 3b 3d d0 4d a5 bd a9 32 f1 3d b4 40 bc 3d
       0.045701288 -0.08071482 0.11777241 0.09192029
000170 18 f0 1a be 08 d6 a1 bd 1e 7c 2b 3e f6 b7 74 3d
       -0.15130651 -0.07902151 0.16746566 0.05974575
000180 8c 91 cf bc 92 d2 35 bd d9 ab 37 be bc 9a e2 3c
       -0.025337957 -0.04439027 -0.17936648 0.027661674
000190 9b d7 83 be ec b6 30 bd 60 6b b4 bc b1 da 92 bd
       -0.2575043 -0.043143198 -0.022023857 -0.07170618
0001a0 f0 67 61 bd 38 ad 68 3d 3e 3c ca 3d 7c e5 30 be
       -0.055030763 0.05680582 0.098747715 -0.17275041
0001b0 ee 60 3e 3d b8 b3 e7 bb 5d 4a eb bd a6 5f a4 bd
       0.046479158 -0.0070709847 -0.11488793 -0.08026056
0001c0 31 cc 65 3e 46 12 85 bd d0 e3 08 be 60 c7 35 bd
       0.22441174 -0.06497626 -0.13368154 -0.044379592
0001d0 63 c4 35 3d b8 93 03 3e 39 27 88 bc b6 1c 1b bb
       0.044376742 0.12849319 -0.016620265 -0.0023668236
0001e0 20 3d b0 bc 95 b6 4e 3e f1 5f 38 be ec eb 56 3d
       -0.021513522 0.20186837 -0.18005349 0.052471086
0001f0 3e 57 39 3e a1 3c 5e bc 39 90 41 be 86 c6 44 be
       0.18099687 -0.01356426 -0.18902673 -0.19216356
000200 a1 0b fc bc d9 35 c6 3d df 59 cb b8 d0 3b f8 3c
       -0.030767264 0.096782394 -9.696534e-05 0.030301958
000210 de 9c 87 3c a4 b4 f8 bd b8 9a 20 3e 09 3e 6e bd
       0.016554292 -0.121438295 0.1568402 -0.05816463
000220 2f ef 0c 3d 11 be 91 3d c2 35 56 bd a5 9c c5 3d
       0.03440779 0.071163304 -0.05229736 0.09649018
000230 bc 75 4c bd d2 2e 17 be b3 af 2f bd 99 21 3e be
       -0.049916968 -0.14763954 -0.04289217 -0.18567504
000240 3a 91 b9 bd 55 b9 e4 bd 85 4d 41 bd ff bb 67 3d
       -0.09060903 -0.11168162 -0.04719307 0.05657577
000250 14 71 b9 bd f9 60 c7 bd f7 e4 d4 bd 82 c7 0a bd
       -0.09054771 -0.09735293 -0.10395234 -0.03388167
000260 27 42 66 3e a8 01 02 bd 2c 8c f8 bc 2e 34 37 3d
       0.22486173 -0.03173986 -0.030340277 0.044727497
000270 ef 47 a9 bd b1 ae a3 3d b6 a7 85 bc ab 61 3a 3e
       -0.08265673 0.07992304 -0.016315322 0.1820132
000280 76 4c 16 be 3c b6 34 3d b7 22 bf bc 21 66 07 be
       -0.14677605 0.044119105 -0.023331983 -0.13222553
000290 c7 ea 33 3d 74 ab 14 3e 03 ab 82 3e a9 fd 25 3e
       0.043925073 0.14518529 0.25521097 0.16210045
0002a0 8d 2a 69 3d bb 51 8c 3d 38 aa 34 bd 54 d4 bc 3b
       0.056925345 0.06851526 -0.044107646 0.005762616
0002b0 37 5b 0f 3e ce 79 a1 be a8 c0 ec 3d d3 9f 47 bc
       0.1399964 -0.31538242 0.11560184 -0.012184101
0002c0 1c e2 4d bd 9d 46 c9 bd 27 05 7a 3c 8e ce 45 be
       -0.050264463 -0.098279215 0.0152600175 -0.19317076
0002d0 1e d9 27 3e 84 5d 25 bd 32 9a b5 3c b0 c3 e9 3c
       0.16391417 -0.040372387 0.022168253 0.028535694
0002e0 61 f8 b6 3c 95 b7 db bc 8f 6d e2 bd d2 9a ec bd
       0.022335233 -0.026820937 -0.11056053 -0.11552967
0002f0 36 a5 c9 3c a7 ac bb 3d 0e ee 89 bd a7 10 01 3e
       0.024614912 0.0916379 -0.067348585 0.12604009
000300 7f 35 f7 bd 6d f0 73 3d a9 0c c5 bd 21 97 15 be
       -0.120707504 0.05955546 -0.09621555 -0.14608432
000310 51 7a 80 bc 02 6a 9b 3d ef ef 35 bd c4 9a cd 3d
       -0.015683325 0.07588579 -0.04441827 0.10039285
000320 5b da 0c 3e 7c 21 ab bc 92 da 70 3d 40 da 67 bd
       0.13755171 -0.02088999 0.058802195 -0.056604624
000330 f5 8c 0f bd a9 69 50 bc cc 79 b4 bd 52 cb d4 3d
       -0.035046536 -0.012720504 -0.088122934 0.10390343
000340 cc 00 cc 3c e3 13 91 3d 34 b4 b5 3d 38 90 45 bd
       0.024902724 0.07083871 0.08872262 -0.04823324
000350 e0 ff 3a 3e 69 65 bf 3d a3 45 2a 3d 69 6a 52 bd
       0.18261671 0.09345514 0.041570317 -0.051371012
000360 43 9e 00 bd f1 7d b0 bc e2 1f 04 be b5 b3 80 bd
       -0.03140093 -0.021544429 -0.12902787 -0.062842764
000370 f3 57 af 3c e1 3b 68 3d 5c a0 f6 bd e5 f7 01 3d
       0.021404242 0.05669773 -0.12042305 0.03173055
000380 22 2c 1c 3e 93 bf 0b 3d ed 74 1f 3e f0 49 a0 bd
       0.1525121 0.034118246 0.15571947 -0.078266025
000390 09 fd 82 bc 55 d1 a9 bd ab 7c 01 be 1d 2d 27 3e
       -0.015989797 -0.0829188 -0.12645213 0.16325803
0003a0 03 7c 1a be c8 09 c3 3d f9 ba 34 3d 47 f7 00 3e
       -0.15086369 0.0952335 0.044123624 0.12594329
0003b0 fb 29 c2 3d 59 37 d9 bd 2b 31 a3 bd 6e 3c 8e 3d
       0.094806634 -0.1060626 -0.079683624 0.0694512
0003c0 0f c3 f8 3d b7 d6 59 3d 57 d0 26 3e e1 58 5e bd
       0.121465795 0.053183284 0.16290413 -0.05428398
0003d0 45 64 1b 3c 10 45 1e be bb 46 5b bd 10 9a ba 3d
       0.009484355 -0.15456033 -0.05353425 0.09111416
0003e0 7e 44 82 be d2 48 5c bc 2a e8 b5 bd 84 dc 7e 3e
       -0.2544288 -0.013445096 -0.088821724 0.24888808
0003f0 a6 10 85 3c bc 9d 4f 3d 06 a1 d6 3c aa 2b c9 bd
       0.01624329 0.050687537 0.026199829 -0.098227814

encoder.2.bias f4 [64]
000000 f3 45 ed 3d ef 5d 08 bd 2a 5a cf 3c 8a 9d 11 3d
       0.115856074 -0.033292707 0.025311548 0.03555063
000010 f7 40 6c 3e e4 f5 8c 3e 5c 6a 2e bd 7d b3 30 3e
       0.23071657 0.2753135 -0.0425819 0.1725597
000020 73 14 07 3e 24 a7 94 bd 39 0d 1e 3e 0e b5 7f bd
       0.13191395 -0.07258442 0.15434732 -0.062428527
000030 f2 0b 1b 3e e1 7a 26 3e d3 73 ef 3d be 74 ae be
       0.15141276 0.16257812 0.116920136 -0.34073442
000040 8c f9 0f bf aa 89 a8 be aa 96 02 be 65 d6 50 be
       -0.56240153 -0.3291753 -0.12752786 -0.20394285
000050 7c 15 3e be a3 29 c2 3d c6 e9 2a be 83 84 48 3e
       -0.18562883 0.09480598 -0.1669074 0.19581799
000060 11 77 8f bd 14 e4 39 3d 25 f4 c1 3c af 22 18 be
       -0.07005132 0.045383528 0.023675987 -0.1485698
000070 0a 3e 4d 3d 81 a8 1d 3e 53 30 93 3d d7 e5 15 be
       0.050107993 0.1539631 0.071869515 -0.14638458
000080 fc dc 25 3a 18 6c a0 bb e2 11 2e be c3 5a 1a 3e
       0.000632718 -0.0048956983 -0.16999009 0.15073685
000090 05 0b d5 bd 82 4b 24 3e 4f 8d 57 bd f7 b5 f4 3c
       -0.104024924 0.16044429 -0.052624997 0.029871924
0000a0 29 26 07 be 50 92 e6 3c 7c 47 8d bd 8d d8 89 3c
       -0.1319815 0.02814594 -0.068984 0.016826892
0000b0 a0 06 30 3d 6a ff f8 3d 68 10 bb 3e 01 b2 48 bd
       0.042975068 0.12158091 0.36535954 -0.048997883
0000c0 70 b4 32 3c 6c a7 02 3d bd e4 ab 3e de 38 5f 3d
       0.010907277 0.031897947 0.3357295 0.054497592
0000d0 66 66 ca bb ef b4 85 3d 5b ec a5 be c9 44 bc 3c
       -0.0061767576 0.06528651 -0.32406887 0.022982018
0000e0 27 d3 13 3c 11 5e da bd 06 0b b0 bd 63 27 41 3d
       0.009022511 -0.10662473 -0.085958526 0.047156703
0000f0 74 cd ba 3d d6 91 19 3d 82 65 2c 3e e9 5e b5 3d
       0.09121218 0.037492596 0.16835597 0.08855993

decoder.0.weight f4 [128, 64]
000000 9a a1 61 bb d7 c8 5e bc 5d 25 e7 3c 57 59 dc 3b
       -0.0034428597 -0.013597689 0.028216058 0.0067245173
000010 ee 28 d7 bd 40 07 9f 3e 91 67 a1 bd 1d 2d 60 be
       -0.105058536 0.3106022 -0.07881082 -0.2189221
000020 f1 b5 95 3d a5 21 16 be e8 e5 67 bc eb b7 82 3d
       0.07310093 -0.14661272 -0.014153935 0.06382736
000030 e1 56 0a bd fb 13 90 3b 37 e8 c7 3c ec 4c 06 3e
       -0.03377426 0.004396913 0.02440272 0.13115281
000040 41 71 80 3c e5 ec 8d 3b c9 7a 32 3c 7f 3d 5a bc
       0.015679004 0.0043312185 0.010893532 -0.013320326
000050 72 e4 10 bd f6 be 26 be 1f 69 36 ba 3d 8b d5 bd
       -0.035374112 -0.16283783 -0.0006958413 -0.10426948
000060 44 dc 88 3d 03 c0 2e 3e d1 0d 86 bd 49 6a c6 bd
       0.06682637 0.17065434 -0.06545604 -0.09688241
000070 38 9f 8a bd 15 34 8f 3d 6e ec b8 3c 46 75 93 3c
       -0.0676865 0.06992356 0.022573676 0.018000256
000080 f1 8d 51 3d de 6f 72 bc c2 e3 89 3c 09 8e f9 3d
       0.051160756 -0.014797179 0.016832236 0.12185294
000090 d2 87 8e 3d 64 7f 04 bd 68 df 0a bd 51 f6 e6 3c
       0.069594994 -0.03234805 -0.033904463 0.028193625
0000a0 6c d5 fe 3d 0d c7 0c bd cb 36 03 3e 30 6c 7a 3d
       0.12443051 -0.034369517 0.1281387 0.061138332
0000b0 01 46 d6 3d a2 6e 29 3e 00 ed a9 3d ed 36 07 3e
       0.10462571 0.1654611 0.08297157 0.13204546
0000c0 3b e3 46 3d 18 21 f8 3d 0c 90 5f bd 7b 48 a6 3c
       0.048556548 0.12115687 -0.054580733 0.020298233
0000d0 57 23 11 3d 53 e8 9e bc ac 62 85 bd fa d5 b5 bd
       0.035434093 -0.01939789 -0.06512961 -0.088787034
0000e0 7d 04 ac 3d ca 5c 1f be 28 20 1d 3c ed 4a 32 be
       0.083992936 -0.1556274 0.009590186 -0.17411394
0000f0 e6 a2 f2 bb 5c 59 39 3d 30 fd 47 be e7 16 ff 3d
       -0.007404673 0.045251235 -0.19530177 0.1245554
000100 23 38 c7 3c f3 32 db bd 90 8d 00 bd 4a 56 9e bc
       0.02431876 -0.10703077 -0.031385005 -0.019328255
000110 02 4e 22 ba 55 10 2e 3e 46 80 74 3d ab 8d 98 bd
       -0.00061914336 0.16998418 0.059692644 -0.07448896
000120 1d 10 d5 3d 64 1c 22 3b 8a a0 ce 37 66 55 4c bd
       0.10403464 0.002473616 2.463187e-05 -0.04988613
000130 aa b1 39 be 72 cd 96 3c d9 b5 1e 3d 90 33 5b 3c
       -0.1813418 0.01840851 0.038747642 0.013378993
000140 13 6d 9a 3d 5c df ea 3d f4 c5 8a bc ec 6d 23 be
       0.075403355 0.11468384 -0.016940095 -0.159599
000150 23 59 07 be 10 0d 1d 3d 82 e6 7e bd 95 8c 1a bd
       -0.13217597 0.038342535 -0.062231548 -0.037731726
000160 6a 4d 22 3d 73 2b 06 3e 6b d2 4b be 37 d4 02 3e
       0.03962461 0.13102512 -0.19904487 0.12776266
000170 17 89 0f 3e 8e 6e ce bd e6 53 d5 3d 12 6d fa 3c
       0.1401714 -0.100796804 0.10416393 0.030569587
000180 50 e3 3d 3e ab 8e 12 be 6b 3a e1 3d 38 12 70 be
       0.18543744 -0.14312236 0.109974705 -0.2344445
000190 78 92 11 3d ec 05 72 3c 8f fa 1a 3c ce ea 4e 3d
       0.035540074 0.01477192 0.009459152 0.050516896
0001a0 8b 71 da bd 12 02 e6 bc f8 3a cb 3d 5a 53 e5 3d
       -0.10666188 -0.02807716 0.09923357 0.11197539
0001b0 30 26 dd bc 34 40 0e bd 92 a8 a7 3d 9c ab 2c bd
       -0.026995748 -0.034729198 0.08186449 -0.042155847
0001c0 1d f5 fe bd e0 af b9 bd b4 98 15 3d 6f e6 4c bd
       -0.124490954 -0.090667486 0.036522582 -0.050024446
0001d0 b4 9d d3 bd 62 d6 ef bd 50 54 af bd 52 1a ba 3b
       -0.10332814 -0.11710812 -0.08561003 0.005679407
0001e0 9f 4b 46 bd 30 d2 02 be 39 b7 39 3d de 02 2d be
       -0.04841196 -0.12775493 0.04534075 -0.16895625
0001f0 ce 11 8b bc 3d 5b 40 bd 73 39 a0 3c 53 ef ce 3d
       -0.016976263 -0.04696201 0.019558644 0.10104241
000200 9f a3 54 bd 2d e6 f9 bd 08 6a aa 3d 6c 69 46 be
       -0.051913854 -0.12202106 0.08321005 -0.19376153
000210 e4 dc 41 3d 43 49 24 be da 9f ab bd 48 17 1a 3d
       0.0473298 -0.16043572 -0.08380099 0.03761986
000220 6f 6c 1b 3e f9 a1 6a 3c 71 85 a9 bd 86 65 2d bd
       0.15178083 0.014320844 -0.08277405 -0.04233315
000230 cf 6f 0c be 11 42 3d 3d b3 15 50 3e 38 29 e6 bd
       -0.13714527 0.046205584 0.20320778 -0.112383306
000240 20 37 f8 3b 88 f4 15 be 5e 7e b3 3d 1a 0c 00 be
       0.007574931 -0.14644063 0.08764337 -0.12504616
000250 8c e7 26 3e 49 80 78 bc da d9 26 be 93 71 0d 3e
       0.16299266 -0.015167304 -0.16294041 0.13812856
000260 cf 38 36 bc 55 ea 22 be e5 cd d0 bd 08 18 da 3c
       -0.011121943 -0.15909703 -0.10195521 0.026622787
000270 85 29 48 3e 27 95 e4 3d 4f 36 1c 3e d3 ff c7 3c
       0.19547088 0.11161261 0.15255092 0.024413979
000280 e1 50 81 3d ef ce 88 3e 68 d3 64 be 93 f8 79 bd
       0.063142546 0.26720378 -0.2234627 -0.061028074
000290 69 17 57 3b 20 a5 7f bd ca ee 63 3e d4 74 74 bc
       0.003282035 -0.062413335 0.2225906 -0.014920432
0002a0 27 58 c2 3d 24 9d a9 3d 38 5f 74 bd 2a b8 96 3d
       0.0948947 0.08281925 -0.05966112 0.07359345
0002b0 46 53 35 3d 4d c0 5d 3b db 3f 91 bd bf 8e dc 3b
       0.04426887 0.0033836544 -0.070922576 0.006730884
0002c0 f6 01 85 bd 8e 06 0a 3d 95 de 15 bd 55 10 1f 3e
       -0.06494515 0.033697657 -0.036589224 0.15533574
0002d0 24 d5 92 3c e4 61 04 bd a5 12 d2 3d 8b d5 1e 3e
       0.017923899 -0.03231992 0.102574624 0.15511148
0002e0 a4 c2 08 be 59 17 5c 3e e0 4e dc bd 37 8b f5 bd
       -0.133555 0.21493281 -0.10757232 -0.11989444
0002f0 43 25 d6 3d 34 d9 9d 3d dc 6e 8b bc 70 aa 47 be
       0.10456326 0.07707444 -0.017020635 -0.1949861
000300 8b eb de bd 4b f7 3e 3d ed 8d 4a 3d 0d 38 0c bd
       -0.1088477 0.046622556 0.049451757 -0.03423314
000310 49 70 7f 3c b6 0e 8a 3d 95 24 c3 3d f5 f8 7e bc
       0.015590736 0.06741087 0.09528462 -0.015562286
000320 eb 57 8e bc c6 0d 22 3e 62 42 f8 bc 8d 62 dd bd
       -0.017375907 0.15825567 -0.030305091 -0.10809813
000330 88 bb 88 3d aa 0b 07 bd d9 2b db 3d d2 f4 00 bd
       0.06676394 -0.032970108 0.10701723 -0.03148348
000340 79 09 70 bd 9b a8 20 be 7b 81 80 bc 34 4b 49 3d
       -0.058602784 -0.15689318 -0.015686741 0.049143985
000350 92 c0 84 3b d2 e7 99 3c 7f 0c 6c bd 92 b7 17 3e
       0.0040512765 0.018787298 -0.057629105 0.1481612
000360 92 23 84 3b c1 94 4d 3c 5e 13 20 3e ae 40 0e bd
       0.0040325606 0.012547673 0.15632388 -0.034729652
000370 fb 92 13 be ea cb d6 3c f5 17 1c 3e 38 4c 80 3d
       -0.14411537 0.02622028 0.15243514 0.062645376
000380 27 f5 a9 3a 2c 66 d5 bd d2 28 1a be 8e b6 d6 bc
       0.0012966738 -0.10419878 -0.15054634 -0.026210096
000390 81 ea 30 3a da 42 13 be 6f a7 9d 3d 2e 34 39 3d
       0.0006748811 -0.1438097 0.07697951 0.045215778
0003a0 56 9d 30 3d 57 cd 2f 3e f9 3a da 3d 9c 08 b3 bc
       0.043118797 0.17168175 0.106557794 -0.021854691
0003b0 d0 4a 68 be 76 44 ba bd 59 50 b7 bd 14 4d 40 bd
       -0.22684789 -0.09095089 -0.08950872 -0.046948507
0003c0 38 b5 b2 bd 4b 35 b1 3d ed a4 b2 3a 8f 41 3e be
       -0.08725971 0.08652743 0.0013629474 -0.18579696
0003d0 7a 76 b6 3d e5 4c 03 be 99 89 a3 39 9a c5 08 be
       0.08909316 -0.12822302 0.000311923 -0.13356629
0003e0 7c 1a d7 bc 5b 17 cd b9 bb c3 4b 3e d9 07 50 bc
       -0.026257746 -0.00039118048 0.19898884 -0.0126971835
0003f0 96 aa a6 3d 99 3f 92 3d 95 0c 0d 3d 86 f0 76 3e
       0.081380054 0.071410365 0.034435827 0.2411519

decoder.0.bias f4 [128]
000000 8d 30 3b 3e 6b 11 13 3f 57 ec 0a bf 45 f0 f5 be
       0.1828024 0.5744845 -0.54266876 -0.48034874
000010 c5 d0 4a bd 9e 9b 0c bf 01 38 39 bf 09 96 09 3f
       -0.049515504 -0.54924953 -0.7235108 0.5374456
000020 80 97 5c 3e 60 4f f5 3e 23 65 c7 be 0f cd 2d bf
       0.21542168 0.4791212 -0.3894435 -0.6789102
000030 e0 ce a2 bd d7 fc 14 3e 65 c1 85 bc 70 41 de 3d
       -0.079496145 0.14549576 -0.01632757 0.10852325
000040 6e dd bc be e3 14 a6 3e ed ff 1f 3f ed c5 3b 3e
       -0.36887687 0.3243781 0.62499887 0.18337221
000050 8d 99 64 be f5 88 c8 bd 93 28 47 bf 81 2c 6d 3e
       -0.223242 -0.097917475 -0.77796286 0.23161508
000060 05 21 ae be 6a b8 4d 3d 2b 30 dc 3d d9 34 8d be
       -0.34009567 0.0502247 0.10751375 -0.27579382
000070 0f 60 af 3e b1 7b c0 3e 0f bd f2 bc d0 c0 21 bf
       0.34252974 0.3759437 -0.029631166 -0.63184834
000080 98 03 cd 3c 4a a1 66 3e 35 8b 45 be 87 53 a6 3d
       0.025026128 0.22522464 -0.19291385 0.081214
000090 45 31 96 bd 86 b7 06 bf ac 49 fc bd e7 87 f1 be
       -0.07333616 -0.52623785 -0.12318739 -0.47173998
0000a0 5f d6 01 3e 3c a7 97 bf 5e e7 49 bf 89 9e e8 bb
       0.12679432 -1.1847911 -0.78868663 -0.007098977
0000b0 47 c4 ba be 46 32 a3 3e 9b ee b4 3e b2 05 e9 3c
       -0.36477873 0.31874293 0.35338292 0.028445099
0000c0 74 a3 30 bf 8e 98 8a be 9a 14 c6 be 30 3e bd 3e
       -0.6899941 -0.27069515 -0.38687593 0.36961508
0000d0 80 a8 89 bd a4 76 09 bf 5a 56 fd be b4 4b a9 be
       -0.06721592 -0.53696656 -0.49479944 -0.3306557
0000e0 fc 93 11 3e 27 f2 88 3e 6a 6b 97 3e a2 6e e9 3e
       0.14216608 0.26747248 0.29574138 0.4559222
0000f0 01 f8 11 3f 7f 83 25 3e 0f 27 41 3d e5 c3 5a bf
       0.5701905 0.16163443 0.04715639 -0.8545516
000100 f2 5a 0c 3f 43 d1 f5 3e e2 da 9b 3e 66 cb df be
       0.5482627 0.48011217 0.30440432 -0.43709868
000110 47 62 9c bd c0 5a dd be 4e 1b c9 3e 1c a5 2d bf
       -0.076359324 -0.432333 0.39278644 -0.6783006
000120 a8 89 bc 3e d8 38 1f bd 0e f7 48 bf 29 08 a8 3e
       0.36823773 -0.03887257 -0.78501976 0.32818726
000130 30 60 7a 3e 87 a0 46 3e c0 10 73 3e 16 dd 00 bf
       0.24450755 0.19397174 0.23736858 -0.5033735
000140 b1 aa e2 3e d9 a5 81 be d2 b9 a7 3e d9 d7 c8 be
       0.44270852 -0.25321844 0.32758957 -0.3922718
000150 9c b2 cb be 6f 3a c4 3d ea d1 0b bf 9c 34 88 be
       -0.39784706 0.09581458 -0.5461718 -0.26602638
000160 be 09 61 bf 96 fb 3c bf 76 52 ea be cf 86 1b 3e
       -0.8790549 -0.7382139 -0.45766038 0.15188144
000170 53 69 f1 be 04 01 ad bd 46 4a d7 be 3a fd 00 3c
       -0.47150669 -0.08447459 -0.42048854 0.007872874
000180 c7 b7 aa 3d ee 63 36 be 15 25 34 3e 2e 40 e0 be
       0.08335834 -0.17811558 0.1759227 -0.43798965
000190 dc b8 9c 3e b2 f0 d7 3d 69 5f 20 3e 67 ef 9b be
       0.30609787 0.10543956 0.15661396 -0.30456087
0001a0 b1 a1 69 3e 54 01 03 bf c6 85 7f 3e c2 d1 0e 3e
       0.22815587 -0.511739 0.24953374 0.13947204
0001b0 61 d3 be be bd d4 18 3e 80 76 56 be 92 aa 68 bf
       -0.37270644 0.14924903 -0.20943642 -0.9088527
0001c0 00 87 05 bf e6 99 41 3e 84 95 89 3e 34 d0 40 3e
       -0.5215912 0.18906364 0.26871884 0.18829423
0001d0 9c 22 b8 3c 77 40 a5 3e 79 31 e6 3d 61 1b b4 3d
       0.02247744 0.32275745 0.11239905 0.087942846
0001e0 ed 47 71 3e 20 a8 1e 3e ec e4 91 bd 4a 27 30 be
       0.23562594 0.15493822 -0.071237415 -0.17202488
0001f0 45 ae 68 3e 71 58 be be f6 87 02 be 51 77 d0 bc
       0.22722729 -0.3717685 -0.12747177 -0.02544752

decoder.2.weight f4 [69, 128]
000000 5a 39 f5 bd 20 73 3a be 2e 67 55 3d db 45 ea 3c
       -0.119738296 -0.18207979 0.052100353 0.028597763
000010 54 9b c9 bd 3b d5 0e 3d 27 ed 01 bd 33 63 6d be
       -0.098440796 0.03487132 -0.031720307 -0.23182373
000020 80 90 2f 3e 6c 48 9f be 51 ed d7 3c 28 23 54 3c
       0.17144966 -0.3110994 0.026358278 0.012947835
000030 79 59 f9 3c 50 88 05 3d e9 d2 60 bc a9 c1 29 be
       0.030438172 0.0326007 -0.01372216 -0.16577782
000040 a5 f2 35 3d 5d e9 f1 3d 18 f6 06 3e 6c ef aa 3d
       0.044420857 0.11812089 0.13179815 0.08346447
000050 99 b6 8d bd a3 9c 38 bd ae e5 f4 bc d1 d1 58 3d
       -0.06919593 -0.045071255 -0.029894676 0.05293447
000060 34 3a 10 3e 68 87 c0 bb e6 d3 a9 3d 0f df a4 3d
       0.14084703 -0.0058755167 0.082923695 0.080503576
000070 83 5a 42 3e 63 35 c1 3e b8 dd 47 bc 68 8d 35 bc
       0.1897984 0.37736043 -0.012198858 -0.011081077
000080 55 d0 d4 3c ab e9 ae 37 78 9e 9e 3d 2b 7f 1d bd
       0.025978247 2.0851227e-05 0.07745069 -0.038451355
000090 9d 8b 70 3d 7a 89 09 bd 80 8f 49 bc 21 86 84 bd
       0.058726896 -0.033578373 -0.0123022795 -0.064708956
0000a0 f4 d3 28 3c a8 85 8d 3c b3 e1 d8 3d 4c 25 83 be
       0.01030444 0.017275646 0.10589924 -0.25614393
0000b0 ca ef d4 bd 2f b5 14 3d 1c 39 09 3d 80 6c 24 3d
       -0.10397299 0.036305603 0.03350173 0.040142536
0000c0 bc 91 51 3b 2b 35 0f bd 1d 5a 04 bb 3e f5 83 3d
       0.0031977734 -0.034962814 -0.0020195313 0.064432606
0000d0 bf 85 c0 3c cd 9f 53 3d b9 c6 7a bc a0 e7 25 3e
       0.023501275 0.05166607 -0.015306168 0.16201639
0000e0 7d 7b 5e be 3d c4 3e 3b fb c1 19 3e cb f9 63 be
       -0.21726795 0.0029108666 0.15015404 -0.22263257
0000f0 af 4d 94 3e 2c f0 11 bd c8 4b 63 3c 41 f6 99 3d
       0.28965518 -0.035629436 0.013873048 0.07517672
000100 c0 9e bf be cb fa 7d 3d c9 1d 99 3c 40 80 e6 bc
       -0.37425804 0.062006753 0.01869096 -0.028137326
000110 f4 d7 d8 3d 4a 98 87 3d 26 7c 5a bd f2 09 62 bd
       0.10588065 0.06620844 -0.053341053 -0.055185266
000120 22 54 fd bd d8 42 43 be 68 69 ee 3d 21 85 20 3e
       -0.12369563 -0.19068468 0.116411984 0.15675785
000130 95 9f 38 bd e8 3f a5 bd 98 2a c6 bc 11 9f 8b 3d
       -0.045074064 -0.0806883 -0.024190232 0.06817449
000140 ee cb cf bc 06 be 3d 3d 7f bc ba 3d 8e f1 22 3d
       -0.025365796 0.0463238 0.09117984 0.039781146
000150 be 48 9e 3d 63 94 83 3d 4d ff 59 3d 2d 1c 8c bb
       0.07728718 0.06424787 0.05322199 -0.0042758198
000160 6d dd df 3d 02 33 4f bc 96 4c d7 bd 9b 56 81 3e
       0.109309055 -0.012646439 -0.105126545 0.25261387
000170 d8 69 9b bd 9e 6f e7 bc 15 f2 8c bd cb d6 13 3d
       -0.075885475 -0.028251465 -0.06882111 0.036093514
000180 81 5f ad 3c be 89 09 3b 9c 9f 37 bd d1 73 82 bd
       0.021163704 0.0020986642 -0.04482995 -0.063697465
000190 b4 8c 00 bd 22 85 52 3e ae f1 87 3d 2e 8a 7d 3d
       -0.031384185 0.20558599 0.066378936 0.061899357
0001a0 fe 20 23 be 51 ca 5c 3d cd 62 13 bd 67 81 bf ba
       -0.15930554 0.05390388 -0.035982896 -0.0014610708
0001b0 aa 20 09 bc ab c3 31 bd a6 23 79 bd 14 47 81 3c
       -0.008369604 -0.043399494 -0.060825013 0.015780963
0001c0 4e 37 9d 3d d5 6f 99 3e f5 1f 3a 3e bc 6d d9 be
       0.07676564 0.29968134 0.18176253 -0.42466533
0001d0 8d 95 7f 3d 7d fd 01 be a6 7e 00 bd 05 10 2a be
       0.062398482 -0.12694354 -0.03137078 -0.16607673
0001e0 e3 8b d2 3c 1a 99 26 bc 4c 8c ce bc c3 09 97 3d
       0.025701469 -0.010168338 -0.025213383 0.07374909
0001f0 02 f1 52 bd 76 41 fa bc 9e 87 87 3c 00 18 27 bd
       -0.051499374 -0.030548792 0.01654416 -0.040794373
000200 7f 65 9b bc c9 d1 9b 3d 3a bf 6f 3d 83 32 9d bd
       -0.018969296 0.07608373 0.058531977 -0.0767565
000210 ea 94 56 3e 86 8c 36 bd d4 1f 91 3c 70 d3 e4 3d
       0.20955244 -0.044567607 0.017715372 0.11173141
000220 cf 99 50 3d fc 12 5b bd d5 aa 02 bd cf 78 19 bd
       0.050927933 -0.0534849 -0.0319012 -0.037468728
000230 ea 28 1d be 68 e1 8e bc 81 f1 a6 3d 96 59 e8 bc
       -0.15347639 -0.017441466 0.08151532 -0.02836303
000240 76 25 93 3c 57 1f de 3c fd 93 f8 bc 86 09 be 3c
       0.017962199 0.027114553 -0.030344004 0.0231979
000250 e7 37 af bd d6 f7 a7 bd a8 e7 a7 3a 38 03 36 3d
       -0.085555844 -0.08201568 0.0012810128 0.044436663
000260 aa 18 62 bc df a5 c1 bc 7f 8b fd bb 5a 3c bd 3c
       -0.013799826 -0.023638664 -0.0077375765 0.023100067
000270 cd 65 31 bd 7d 8e 05 be aa 94 b7 bd 76 ed 72 b9
       -0.043309975 -0.13042636 -0.08963902 -0.0002316738
000280 69 01 31 bb f4 25 4f 3e a0 65 0a bd e2 aa 69 bd
       -0.0027008897 0.20229322 -0.033788323 -0.057047732
000290 3f 1b bb bd 7f 42 74 3d af d5 0b 3b 30 af be 3d
       -0.09136056 0.059633728 0.0021337082 0.09310758
0002a0 44 80 56 bd 40 7d 28 3d 62 03 49 3c b4 0e 0c 3c
       -0.052368417 0.041135073 0.012268873 0.008548427
0002b0 40 3f ff 3c db 7d 8f 3b 2c 4a cc bd 9a 30 1c 3a
       0.03115809 0.004379017 -0.09975085 0.000595817
0002c0 a3 19 5d bd 4c 42 fb 3b 71 a7 c9 3c e0 f5 e2 bd
       -0.053979527 0.0076678153 0.024615975 -0.11082053
0002d0 2c 6a 0e 3d 64 cd 8b bc 69 b5 aa 3d 33 25 d3 3d
       0.034769222 -0.017065711 0.083353825 0.103098296
0002e0 64 19 ce bd 16 6e 99 3b 4f b5 90 bd 2d d4 06 3e
       -0.100634366 0.0046823127 -0.07065832 0.13166876
0002f0 8e f0 34 3d 6a b7 b0 3c e7 88 63 3c 6f a8 3b bc
       0.044174723 0.021571834 0.0138876205 -0.011453732
000300 6d 9c 1a 3c 18 f5 80 3c 69 09 c7 38 51 c6 0f bd
       0.009436709 0.01574187 9.490812e-05 -0.03510124
000310 13 02 17 bc f8 0b 82 3c 41 fa 88 bc 2c c7 61 3d
       -0.009216803 0.015874848 -0.016720893 0.055121586
000320 1d 5f 50 3d 83 f2 9c bd db 2d 46 bc 53 e8 11 be
       0.050871957 -0.07663443 -0.012095894 -0.14248781
000330 ef 10 92 ba cb 71 12 3d 4f b0 4a bd ad 14 68 bc
       -0.0011143963 0.035753053 -0.049484547 -0.014165086
000340 e2 de 71 3c 8e 63 8c 3b 02 cf 1d be 94 62 66 3c
       0.014762612 0.004284329 -0.15410998 0.014061589
000350 3f fb a4 3c 1d 8e 65 3e 9b 16 e1 3c 34 e1 88 3c
       0.020139335 0.22417493 0.0274766 0.016708948
000360 63 6a 0f 3d ff 3c 26 bc 79 c5 be bd 51 1e 46 bc
       0.035013568 -0.010146379 -0.09315009 -0.012092189
000370 19 8c fe bc 24 db c7 bc 3a db b3 bd a3 10 59 3b
       -0.031072663 -0.024396487 -0.087820485 0.0033121489
000380 40 76 cf bc fa ae 3e 3c 9a a3 52 3d a9 ac ca bb
       -0.02532494 0.011638397 0.051425554 -0.0061851335
000390 e9 4a 21 be aa d1 31 3e d9 43 72 3d 85 27 36 3c
       -0.15751232 0.17365137 0.059146736 0.011117821
0003a0 34 60 b5 bd c3 91 fa 3c 1d 3a a1 3d 37 e9 9c 3d
       -0.0885624 0.030587083 0.07872412 0.0766167
0003b0 f0 5b 73 bc 13 15 36 3e 53 cc 14 bd 86 6d 09 3d
       -0.014853463 0.17781477 -0.03632767 0.033551715
0003c0 b1 2b 4e 3b f8 d6 4f 3e 05 97 84 bd 61 54 8b 3d
       0.0031459148 0.20296848 -0.06474117 0.068032034
0003d0 d5 77 98 bd 06 c2 bc bd da fb 1f be 37 85 c4 3c
       -0.07444731 -0.092166945 -0.15623417 0.023989303
0003e0 3d c9 80 3c ce 2b 29 3e 3b 0c 77 3d 6b 55 f4 bd
       0.015720958 0.16520616 0.0603144 -0.11930355
0003f0 65 53 1e bd ab cf 42 bc 15 35 63 bd 22 c9 bc bd
       -0.03865375 -0.011890332 -0.055470545 -0.092180505

decoder.2.bias f4 [69]
000000 48 d1 eb 3d 64 cb 59 be 51 47 ea be ab 64 02 bf
       0.115145266 -0.21268994 -0.45757535 -0.5093486
000010 dd be 05 bf d7 2f 88 be bc 0a 84 be 6b e6 ef be
       -0.5224436 -0.26599 -0.2578944 -0.46855482
000020 7c e8 51 be d2 b3 b1 bd 0a 08 cf bc c5 77 4f be
       -0.20498842 -0.08676876 -0.025272388 -0.20260532
000030 6e 9c 93 3e 21 e2 b5 3e 5d 53 da be 77 e3 3d be
       0.28830284 0.35524085 -0.42641726 -0.18543802
000040 e6 76 5b be a7 3f f8 be 24 da 05 bf a6 b4 9e 3d
       -0.21432075 -0.48486063 -0.5228598 0.077493
000050 a9 40 15 be 14 b1 bc be eb b7 d5 be 40 8b e9 be
       -0.14575447 -0.3685385 -0.4174188 -0.45614052
000060 c4 37 09 be d2 e1 9a bd 4e fe b1 bd 72 0c b8 be
       -0.13400179 -0.07562603 -0.08691083 -0.35946995
000070 93 c4 e9 be 32 e1 bb bd 5c 70 73 3e 03 dc d9 be
       -0.45657787 -0.09173812 0.2377333 -0.42550668
000080 aa ef da be 6e 97 bf bd 5c e9 60 be 67 29 95 be
       -0.42760974 -0.09355055 -0.2196402 -0.2913315
000090 e1 35 0d be 72 76 6d 3e 3b be 73 3e 46 34 11 bf
       -0.13790084 0.23189715 0.23803036 -0.5672039
0000a0 d1 25 61 3d 89 8c 80 3e 8b d7 2a be fb 0a fc 3c
       0.054967705 0.2510722 -0.16683786 0.030766955
0000b0 4b 50 05 3e 6f bc bc 3d 97 e1 27 be 2e 2f 5b bf
       0.1301891 0.09215628 -0.1639465 -0.85618865
0000c0 7a 21 95 3e 26 d0 28 be cb 21 96 3e 34 2d d3 be
       0.29127103 -0.16485652 0.29322657 -0.41245425
0000d0 95 d4 f2 be 12 6e 0b bf a9 1d f5 be aa a7 a8 be
       -0.47427812 -0.5446483 -0.4787419 -0.32940418
0000e0 34 25 09 be 4a da f4 be ec eb af be ff 7c ec 3d
       -0.13393098 -0.4782279 -0.34359682 0.115472786
0000f0 73 43 2c be 5e 56 32 be 99 e7 f1 bd f1 92 b6 bd
       -0.16822605 -0.17415759 -0.11811752 -0.089147456
000100 d0 f2 f8 bd 93 e8 75 bd 1b e6 1d be 17 26 10 be
       -0.12155688 -0.060036253 -0.1541981 -0.1407703
000110 6e 5e 32 ba
       -0.0006804232
