pythorch saved models/classifier_cgan2.pth (torch, 831172 bytes, 20 tensors)

net.0.weight f4 [512, 69]
0	0xbd0581d3	-0.032594513
1	0x3d65ee5e	0.056135528
2	0xbe3d9bdd	-0.18516488
3	0xbd353673	-0.04424138
4	0xbc968a5b	-0.01837652
5	0x3dc13b99	0.094351955
6	0xbf12c26c	-0.57327914
7	0x3e083bfa	0.13304129
8	0xbe43035e	-0.19044253
9	0xbed6d865	-0.4196197
10	0xbea2c08b	-0.31787524
11	0x3e181437	0.14851461
12	0xbcf2e765	-0.029651353
13	0x3d99f390	0.07517159
14	0xbe072f7c	-0.13201708
15	0x3e09e72e	0.13467094
16	0x3dbf1a11	0.09331144
17	0x3d8dbdc0	0.069209576
18	0xbe1e12c9	-0.15436853
19	0xbd49dffc	-0.049285874
20	0x3e556a29	0.20841278
21	0x3dfadfb8	0.12249702
22	0x3dd6e751	0.10493339
23	0xbe09856c	-0.13429803
24	0x3b03ceac	0.00201122
25	0x3e161c47	0.14659224
26	0xbd963b5c	-0.07335541
27	0x3e144140	0.14478016
28	0xbce451a8	-0.027870968
29	0x3d628378	0.05530116
30	0x3db1b8f7	0.08677857
31	0x3cf670fd	0.030083174
32	0xbbeca2c0	-0.0072215497
33	0xbdba33f0	-0.090919375
34	0xbcf66384	-0.03007675
35	0xbd2b6c4b	-0.041851323
36	0xbe748215	-0.23877747
37	0x3a9ecb93	0.0012115113
38	0x3df3c52a	0.119028404
39	0x3e4fc788	0.20290959
40	0x3d21d698	0.039511293
41	0x3e151bab	0.14561336
42	0xbdbdd871	-0.092697985
43	0x3e6286bd	0.22121711
44	0xbe4c1b85	-0.19932373
45	0x3dd38c2c	0.1032947
46	0x3d8d1805	0.06889347
47	0xbba33f45	-0.0049819076
48	0x3da444f5	0.08020965
49	0xbe395871	-0.18100144
50	0xbdcf3df3	-0.10119238
51	0x3da5cfe8	0.080962956
52	0x3d5a8a3f	0.053354498
53	0x3ece3292	0.40272957
54	0xbdc7b023	-0.09750392
55	0xbc3fed56	-0.0117143
56	0xb9d4d134	-0.0004059166
57	0x3ca0a283	0.019608742
58	0xbdf835ce	-0.121196374
59	0xbd8e13ec	-0.069373935
60	0x3e202fd1	0.1564324
61	0xbc099e94	-0.008399624
62	0xbcf1526e	-0.02945825
63	0xbdb4a9ea	-0.08821471
64	0xbe9a19fc	-0.3009795
65	0x3dc11f15	0.094297566
66	0xbe25f8c1	-0.16208173
67	0xbe5245cb	-0.20534436
68	0xbec94222	-0.39308268
69	0xbb967a16	-0.0045921905
70	0xbe6628e2	-0.22476533
71	0xbddad1fe	-0.10684584
72	0xbda77438	-0.08176464
73	0x3db0deec	0.08636269
74	0x3dd4e030	0.10394323
75	0xbee6b9c5	-0.45063606
76	0x3ca8f412	0.020624194
77	0xbd165282	-0.03669978
78	0x3eaf042b	0.34182867
79	0xbe92334a	-0.28554755
80	0x3e25214c	0.16125983
81	0xbde58888	-0.11207682
82	0x3ec90939	0.3926485
83	0xbc9b55c6	-0.018961798
84	0xbd085c57	-0.033291187
85	0x3d2a2089	0.041534934
86	0x3d7b45ec	0.06134598
87	0xbe2ee112	-0.17078045
88	0x3c98e804	0.018665321
89	0xbdbd1503	-0.09232523
90	0x3ba8fc6d	0.0051570446
91	0x3e87d584	0.26530087
92	0xbc4a66f4	-0.0123536475
93	0x3db2b9dc	0.08726856
94	0xbd976967	-0.07393151
95	0xbd9be12e	-0.07611309
96	0xbcb54069	-0.02212544
97	0xbe138632	-0.1440666
98	0xbbd44248	-0.006477628
99	0x3def9b74	0.11699572
100	0x3d45669d	0.048193563
101	0xbd9003ad	-0.07031951
102	0xbcb2d689	-0.021830814
103	0xbe0b4e90	-0.13604188
104	0x3b50600a	0.0031795525
105	0xbe3e731a	-0.18598595
106	0xbde33ce5	-0.11095599
107	0x3e1351dc	0.14386696
108	0xbe681b6d	-0.22666712
109	0xbe4e84a7	-0.2016779
110	0x3db2722d	0.087131836
111	0x3d8db0e5	0.069185056
112	0x3e6da9d2	0.23209313
113	0xbe07777f	-0.13229178
114	0x3ea6c2b7	0.3257043
115	0xbd82cab2	-0.06386317
116	0x3c3138c0	0.010816753
117	0x3e142bbf	0.14469813
118	0xbd5f4f80	-0.054519176
119	0xbe47b262	-0.19501641
120	0x3d17a17b	0.037019234
121	0xbdc01033	-0.0937809
122	0x3e24c8e6	0.16092262
123	0x3d9d9d14	0.07695976
124	0x3d35af16	0.044356428
125	0xbafddbc2	-0.0019367861
126	0xbc157caf	-0.009123965
127	0x3c12e78b	0.008966337
128	0x3c3a9502	0.011388065
129	0x3d79f4ae	0.06102436
130	0x3cd40e2a	0.02588566
131	0x3d8ea719	0.06965465
132	0xbd92884e	-0.07154904
133	0xbdf03ccc	-0.11730346
134	0x3e14ac48	0.14518845
135	0xbc9593e7	-0.018259002
136	0xb8cc60f4	-9.745537e-05
137	0x3be12942	0.0068713734
138	0x3cad7403	0.021173483
139	0xbe051e8d	-0.12999935
140	0xbcbf063e	-0.023318406
141	0xbd40b55d	-0.04704796
142	0x3e4cd333	0.20002441
143	0x3dec2fd3	0.11532559
144	0xbe8cc5e0	-0.27494717
145	0xbc6d380f	-0.014478697
146	0x3e13c004	0.14428717
147	0x3e24d267	0.16095887
148	0xbe678a5f	-0.22611378
149	0xbdb1ecac	-0.0868772
150	0x3dadcd87	0.08486467
151	0x3c0e593e	0.008688269
152	0xbd93248c	-0.07184705
153	0xbda68160	-0.08130145
154	0x3debbcca	0.11510618
155	0x3dc4aad1	0.09602893
156	0xbc8dde32	-0.017317865
157	0x3de2d518	0.11075801
158	0xbd08d3c4	-0.03340508
159	0xbdba39ea	-0.090930775
160	0x3d872ff5	0.06600944
161	0xbdd81712	-0.10551275
162	0xbe801bd5	-0.25021234
163	0xbe21a613	-0.15786009
164	0xbe19c3c6	-0.15016088
165	0x3db1efeb	0.08688339
166	0x3bbb75ee	0.0057208454
167	0x3c674756	0.014116129
168	0xbd5d61d2	-0.054048367
169	0xbd7075fe	-0.058706276
170	0x3e50e7c1	0.20400907
171	0x3d8179b3	0.063220404
172	0xbdde3f59	-0.10851926
173	0xbddead00	-0.10872841
174	0xbe428bcd	-0.18998642
175	0x3d3e99ca	0.046533383
176	0xbe257752	-0.16158798
177	0x3d9b9bc8	0.07598072
178	0xbd165a61	-0.036707286
179	0xbdc39b8d	-0.09551153
180	0x3c148817	0.0090656495
181	0x3dda2131	0.10650862
182	0xbdbe0f2d	-0.09280238
183	0x3db880d0	0.09008944
184	0x3da2d12e	0.07950054
185	0xbf59e257	-0.8511099
186	0xbbd10add	-0.006379469
187	0x3ba1415a	0.0049211206
188	0x3e089102	0.13336566
189	0xbd87d1fb	-0.066318475
190	0xbd8e6c65	-0.06954268
191	0xbdd319ee	-0.1030768
192	0xbddb25ab	-0.10700544
193	0xbcbb3db6	-0.022856575
194	0xbee895b5	-0.45426717
195	0x3e5271f3	0.2055128
196	0x3d694815	0.05695351
197	0xbdde5c27	-0.108574204
198	0xbd164687	-0.036688354
199	0xbc701af2	-0.014654862
200	0x3e334751	0.17507674
201	0xbd1335cb	-0.035939973
202	0x3df18705	0.11793331
203	0xbe2b99e6	-0.16757926
204	0xbd125d78	-0.03573367
205	0x3c91e7c7	0.017810715
206	0xbd37627e	-0.044771664
207	0x3c9a53e7	0.018838836
208	0xbdeaa155	-0.11456553
209	0x3b48a6b3	0.0030616939
210	0xbda757fa	-0.08171077
211	0xbcd0c380	-0.025483847
212	0x3c31010b	0.010803471
213	0x3e5c139c	0.21491855
214	0xbd5a8fcc	-0.05335979
215	0xbd4d8336	-0.05017396
216	0xbe819c3a	-0.25314504
217	0xbd96da31	-0.073658355
218	0x3cdd2a2c	0.026997648
219	0x3e2abca1	0.16673519
220	0xbcf71114	-0.03015951
221	0x3d844919	0.06459255
222	0xbeb6039b	-0.35549626
223	0x3e349aac	0.17637128
224	0xbdf453bf	-0.11930036
225	0xbe18a148	-0.14905274
226	0xbdcea2b3	-0.10089626
227	0x3d28c0d6	0.041199528
228	0xbd014074	-0.031555608
229	0x3df2fa12	0.118641034
230	0x3e91599f	0.28388688
231	0xbd5f5a2b	-0.05452935
232	0xbf293fff	-0.66113275
233	0xbdbe29c4	-0.0928531
234	0xbea88fab	-0.3292211
235	0xbf6054e3	-0.87629527
236	0x3e219e08	0.1578294
237	0xbd67885a	-0.05652652
238	0x3ddb0a8d	0.10695372
239	0xbe193dab	-0.1496493
240	0xba644448	-0.00087076845
241	0xbea94465	-0.33059993
242	0xbdbb2797	-0.091384105
243	0x3d9b0888	0.075699866
244	0x3dbb615b	0.091494285
245	0xbdaae5f8	-0.08344644
246	0xbc712679	-0.014718645
247	0x3d68627b	0.056734543
248	0x3d583d81	0.05279303
249	0xbd0241ec	-0.03180115
250	0x3d922419	0.07135791
251	0xbce653a3	-0.028116053
252	0x3e1f0387	0.1552869
253	0x3e13999e	0.14414069
254	0xbe1dbf94	-0.15405113
255	0xbd883421	-0.06650568

net.0.bias f4 [512]
0	0xbd9ed1cb	-0.077548586
1	0x3d55640d	0.05209737
2	0x3da28640	0.079357624
3	0xbd5fca56	-0.054636322
4	0xbdb7c483	-0.089730285
5	0xbd054556	-0.032536827
6	0xbd030c61	-0.031994227
7	0xbdce6d97	-0.10079496
8	0x3db245ea	0.08704741
9	0x3d27f93f	0.041009184
10	0xbd218791	-0.039435927
11	0xbda6a81b	-0.08137532
12	0xbd95afa0	-0.073088884
13	0xbd34c41f	-0.04413235
14	0x3da1f98e	0.07908927
15	0x3dbb39a9	0.09141857
16	0xba97528e	-0.0011544989
17	0x3dbecee8	0.09316808
18	0x3d92dadb	0.071706496
19	0x3da10f0a	0.078641966
20	0x3c9a0847	0.018802775
21	0xbd8be352	-0.06830467
22	0x3db2c4c8	0.08728939
23	0x3c4b538b	0.012410055
24	0x3dde143f	0.108437054
25	0xbd7fe5d7	-0.06247505
26	0x3c9a2c4e	0.018819954
27	0xbdf7f9a3	-0.12108161
28	0xbda1272b	-0.07868799
29	0xbd832183	-0.06402876
30	0x3c300cd5	0.010745247
31	0xbd374089	-0.04473928
32	0xbdea98dc	-0.11454937
33	0xbd66408c	-0.0562139
34	0xbd4d0c87	-0.050060775
35	0x3d0e4f1c	0.034743413
36	0x3de0c245	0.10974554
37	0xbda6d852	-0.081467286
38	0xbd8bd837	-0.06828349
39	0x3d950a35	0.072773375
40	0x3d99420e	0.07483302
41	0xbd99fb78	-0.07518667
42	0xbd34241c	-0.04397975
43	0xbd9e7c34	-0.077385336
44	0xbdc1c29d	-0.09460948
45	0xbc905ed7	-0.017623348
46	0xbdb1f7b5	-0.086898245
47	0xbdbe9e98	-0.09307593
48	0x3ddb3fcf	0.1070553
49	0xbd9f3b3c	-0.0777497
50	0x3de4c813	0.11170974
51	0xbd81fd8a	-0.06347187
52	0xbaf84e47	-0.0018944227
53	0xbd4fa01f	-0.050689813
54	0xbd96c3df	-0.07361578
55	0x3db0b4d3	0.086282395
56	0xbc0e418f	-0.008682623
57	0xbcd9c0ae	-0.026581135
58	0x3c738255	0.014862617
59	0x3d0e4cce	0.034741215
60	0xbde13bd8	-0.109977424
61	0xbd9b43cb	-0.0758129
62	0x3d9613b6	0.07327978
63	0xbd3016ec	-0.04299061
64	0x3dc44d00	0.09584999
65	0x3d811b26	0.06304006
66	0xbd777a2b	-0.060419243
67	0xbda27484	-0.0793238
68	0xbd8d548d	-0.069008924
69	0x3dcdc925	0.10048131
70	0x3d9d0539	0.07667012
71	0x3d8b69c3	0.06807282
72	0xbdad83e7	-0.08472424
73	0xbe035760	-0.128263
74	0xbcd66555	-0.026171366
75	0x3de32d88	0.11092669
76	0x3de3d548	0.111246645
77	0xbddfea8c	-0.10933408
78	0x3da7cfde	0.081939444
79	0x3c63cf94	0.013904471
80	0x3d271325	0.040789742
81	0xbdc4321c	-0.0957987
82	0xbd96536c	-0.0734013
83	0x3d1e5ee1	0.038664702
84	0xbd2f1cb6	-0.04275199
85	0xbd1fb753	-0.03899319
86	0x3dbaf809	0.0912934
87	0x3d8b3cc7	0.06798702
88	0xb99fa899	-0.00030452458
89	0xbc59ed4c	-0.013301205
90	0xbdcdbc76	-0.10045712
91	0x3d98df26	0.07464437
92	0xbd1a370e	-0.03765016
93	0xbd5f8122	-0.05456651
94	0x3d6f2829	0.05838791
95	0x3d24f5cd	0.040273476
96	0xbdbad9d9	-0.091235824
97	0xbdb6cf01	-0.089262016
98	0x3cb08794	0.021549024
99	0xbd5a5900	-0.053307533
100	0x3be46e96	0.0069711907
101	0x3de0e81b	0.109817706
102	0x3d332977	0.043740716
103	0x3dc8ba84	0.098012
104	0x3d9d3396	0.07675855
105	0xbda398fb	-0.07988163
106	0xbd5d98ef	-0.054100927
107	0xbc854abf	-0.016270993
108	0x3dd6063b	0.10450407
109	0xbd901aeb	-0.07036384
110	0x3d89c4bd	0.06726978
111	0x3c270b66	0.010195589
112	0x3c8e81b1	0.017395826
113	0x3dbd46e9	0.09242041
114	0xbb73a8b4	-0.0037179412
115	0x3dd2c086	0.10290627
116	0x3baf117a	0.0053426595
117	0x3cdecdca	0.027197737
118	0xbdf6216b	-0.12018093
119	0x3dcbc390	0.0994941
120	0x3d3fa9c6	0.046792768
121	0xbddecfa7	-0.1087945
122	0xbdc35e06	-0.09539418
123	0xbd6f9328	-0.05848995
124	0x3cd09f93	0.025466716
125	0xbcc2cb93	-0.023778712
126	0xbc2f4ad3	-0.010698992
127	0x3d1e34ae	0.038624458
128	0x3deac863	0.11464002
129	0xbd836599	-0.064158626
130	0x3dc61dba	0.09673639
131	0x3d1fd741	0.03902364
132	0x3cb11ffa	0.021621693
133	0x3d961bad	0.073294975
134	0xbd76c9be	-0.06025099
135	0x3db4d4d3	0.088296555
136	0x3c28c648	0.01030118
137	0x3c7e66ff	0.015527486
138	0x3d1e647d	0.03867005
139	0xbdabbb28	-0.083853066
140	0xbdb1847e	-0.08667849
141	0xbdf6f8aa	-0.12059148
142	0x3d839abd	0.06425998
143	0x3de34098	0.11096305
144	0x3c32fe57	0.010924897
145	0xbd47b809	-0.048759494
146	0xbd9c1040	-0.07620287
147	0xbda0c2aa	-0.07849629
148	0xbb250721	-0.002518125
149	0xbd8d1346	-0.06888442
150	0x3da6be5c	0.08141777
151	0x3d685aa1	0.056727055
152	0x3daf21d0	0.08551371
153	0xbce8c6cc	-0.028415106
154	0x3ddc7609	0.10764701
155	0xbd626e93	-0.055281233
156	0x3d2ff35f	0.042956706
157	0xbe00ce2b	-0.12578647
158	0x3db3c9c4	0.08778718
159	0xbcfaf04f	-0.030632166
160	0x3db30968	0.087420285
161	0xbdd9de4c	-0.10638103
162	0x3d135c13	0.03597648
163	0x3dea4943	0.11439755
164	0x3d561aae	0.052271537
165	0x3cf162f9	0.02946614
166	0xbd20c581	-0.039250854
167	0xbda62c49	-0.081139155
168	0xbbd247fa	-0.0064172717
169	0x3c73e773	0.014886725
170	0x3dce7045	0.100800075
171	0x3dab982a	0.08378632
172	0xbdeedfe7	-0.116638
173	0x3d7f88e8	0.062386423
174	0x3de90e61	0.11379696
175	0x3dcf0078	0.10107511
176	0x3cc11227	0.023568226
177	0xbde5f309	-0.11227996
178	0xbc76ec85	-0.015071039
179	0x3dbd3e5c	0.0924041
180	0xbd9aad61	-0.07552601
181	0xbd6c59fc	-0.057703003
182	0xbcdf6b98	-0.027272984
183	0x3c27263c	0.010201987
184	0x3df39cbb	0.11895128
185	0x3d1e64a1	0.038670186
186	0xbd2a67e0	-0.04160297
187	0x3c247665	0.010037993
188	0x3ca64f59	0.020301508
189	0xb9819127	-0.00024712944
190	0x3d729533	0.05922432
191	0x3dfaa96c	0.12239346
192	0xbdf2fef9	-0.118650384
193	0xbce8a420	-0.028398573
194	0xbc58a113	-0.013221997
195	0x3bab0757	0.005219381
196	0xbd345572	-0.0440268
197	0x3dd82db3	0.105555914
198	0x3dc48e64	0.09597471
199	0xbdd87c98	-0.10570639
200	0x3cf618be	0.030041095
201	0x3bc8a78f	0.00612349
202	0x3d239b75	0.039943177
203	0xbdbc490e	-0.091936216
204	0x3bbd17d8	0.0057706647
205	0xbdba41b8	-0.09094566
206	0x3d244438	0.04010412
207	0xbdd7dda4	-0.105403215
208	0xbd87267e	-0.06599139
209	0x3da354d4	0.07975164
210	0x3d03a0b7	0.03213569
211	0x3cc408b0	0.023929924
212	0x3d15b37d	0.036548126
213	0xbd20adb5	-0.03922816
214	0x3d99c613	0.07508483
215	0x3cd94405	0.026521692
216	0x3dbff1b2	0.093722716
217	0xbd80a9fe	-0.062824234
218	0x3dbb39bf	0.091418736
219	0xbc3d008c	-0.011535775
220	0xbd9bdf82	-0.0761099
221	0xbdd935bc	-0.10605952
222	0xbdfebe7f	-0.12438678
223	0xbd95648f	-0.07294571
224	0xbd584696	-0.05280169
225	0x3deb7c3d	0.11498306
226	0x3d15de71	0.03658909
227	0x3dea06f6	0.11427109
228	0xbd2ad2d1	-0.041704956
229	0xbd8073c1	-0.06272078
230	0xbd4ffc29	-0.050777588
231	0x3d506ad8	0.050883144
232	0xbdb7a527	-0.08967047
233	0xbd910e50	-0.07082808
234	0xbdaac383	-0.08338072
235	0xbddd6a50	-0.10811293
236	0x3d99b521	0.07505251
237	0xbc4d0e90	-0.012515679
238	0x3c705f0a	0.014671097
239	0x3d3a0367	0.0454134
240	0x3cc0ae51	0.02352062
241	0xbdafb906	-0.08580212
242	0xbd8be983	-0.06831648
243	0xbc9ced99	-0.019156264
244	0x3d1d9f7b	0.03848217
245	0x3d0fd36d	0.03511374
246	0xbc20f98b	-0.009825121
247	0x3d733fe2	0.059387095
248	0xbd530ee2	-0.051527865
249	0x3d0e25ac	0.034703895
250	0xbda0bd6c	-0.07848629
251	0xbdf4fd8a	-0.11962421
252	0xbd1c6baf	-0.038188633
253	0xbdc0f0bf	-0.09420919
254	0xbc93cb4b	-0.018041274
255	0xbd12771f	-0.035758134

net.1.weight f4 [512]
0	0x3f725c42	0.94672024
1	0x3f84388f	1.032976
2	0x3f53a10f	0.8266763
3	0x3f6272ed	0.8845661
4	0x3f8052f3	1.0025314
5	0x3f5da8fb	0.8658597
6	0x3f53e69d	0.8277376
7	0x3f3bdcdf	0.733839
8	0x3f6e472d	0.93077356
9	0x3f6dd2ff	0.9290008
10	0x3f7d1165	0.98854667
11	0x3f415318	0.75517416
12	0x3f8ad8ba	1.084739
13	0x3f69e85a	0.91370165
14	0x3f6f3ef6	0.93455446
15	0x3faff590	1.3746815
16	0x3fae6ec6	1.3627555
17	0x3f518e4c	0.8185775
18	0x3f3c396c	0.7352512
19	0x3f1ed924	0.6205008
20	0x3f5732e2	0.84062016
21	0x3f82423a	1.0176461
22	0x3f80cc4d	1.0062348
23	0x3f4fe10e	0.8120278
24	0x3f6da5cf	0.9283113
25	0x3f113fb0	0.56737804
26	0x3f63d935	0.89003307
27	0x3f523a18	0.82119894
28	0x3f81d4d7	1.0143079
29	0x3f7c9da4	0.9867804
30	0x3f35ac90	0.70966434
31	0x3f741b59	0.9535423
32	0x3f9f54c8	1.2447748
33	0x3f172365	0.5903838
34	0x3f409969	0.75234085
35	0x3f904555	1.1271158
36	0x3f590f2c	0.84788775
37	0x3f3e65a0	0.7437382
38	0x3f825caf	1.0184535
39	0x3f700ec5	0.93772537
40	0x3f5b3c21	0.85638624
41	0x3f5b209f	0.8559665
42	0x3f320664	0.69541
43	0x3f6ebb70	0.93254757
44	0x3f45b1bd	0.7722433
45	0x3f3fd8b7	0.74940056
46	0x3f836453	1.0264992
47	0x3f3a12c4	0.72684884
48	0x3f2d7baa	0.6776682
49	0x3f842c2e	1.0325983
50	0x3f5ef381	0.8709031
51	0x3f3d4d34	0.7394593
52	0x3f946cbb	1.1595682
53	0x3f527986	0.8221668
54	0x3f513157	0.8171591
55	0x3f64da35	0.8939546
56	0x3fa5efa8	1.2963762
57	0x3f83bf50	1.0292759
58	0x3f655aff	0.89591974
59	0x3fbac5c7	1.4591607
60	0x3f9fdb87	1.248887
61	0x3f65a9bc	0.8971212
62	0x3f814a58	1.0100813
63	0x3f70353d	0.93831235
64	0x3f5916ab	0.84800214
65	0x3f191f10	0.5981302
66	0x3f560331	0.8359862
67	0x3f6c5eef	0.9233236
68	0x3f28ff3b	0.6601445
69	0x3f5f3bce	0.8720063
70	0x3f299962	0.6624967
71	0x3f528557	0.8223471
72	0x3f45b87f	0.77234644
73	0x3f71a432	0.9439117
74	0x3f561047	0.8361859
75	0x3f4b1e81	0.7934342
76	0x3f885f24	1.0654035
77	0x3f4bf83e	0.7967566
78	0x3f76e099	0.9643646
79	0x3f500eee	0.8127278
80	0x3f6e2428	0.9302392
81	0x3f25a0b3	0.6469833
82	0x3f3e1924	0.7425711
83	0x3f8256eb	1.0182775
84	0x3f83ebfd	1.0306393
85	0x3f9bf231	1.2183286
86	0x3f61c44e	0.8819016
87	0x3f1e7e32	0.6191131
88	0x3f6bb0ef	0.92066854
89	0x3f5f855e	0.8731288
90	0x3f4d59cc	0.80215144
91	0x3f9a731f	1.2066382
92	0x3f4a4966	0.7901825
93	0x3f82d062	1.0219843
94	0x3f71fe02	0.9452821
95	0x3f841f16	1.0321987
96	0x3f6f084d	0.9337204
97	0x3f32863e	0.6973609
98	0x3f3cbf9a	0.7372986
99	0x3f4bc4ee	0.79597366
100	0x3f3f98aa	0.7484232
101	0x3f823b43	1.0174335
102	0x3f420a2f	0.7579679
103	0x3f406e7a	0.75168574
104	0x3f455d7b	0.77095765
105	0x3f3e3a98	0.74308157
106	0x3f6ac36c	0.9170444
107	0x3f5e965b	0.86948174
108	0x3f73d2dc	0.9524362
109	0x3f0ed19b	0.5578858
110	0x3f366622	0.7124959
111	0x3f520b87	0.8204884
112	0x3f807f55	1.0038859
113	0x3f43c91f	0.7647876
114	0x3f5ea4ae	0.8697003
115	0x3f3cebee	0.737975
116	0x3f67075f	0.9024562
117	0x3f5f9ae6	0.8734573
118	0x3f4a93a1	0.79131514
119	0x3f8a460c	1.0802627
120	0x3f443f0b	0.76658696
121	0x3f748fa6	0.9553169
122	0x3f840927	1.0315293
123	0x3f536fdf	0.82592577
124	0x3f8db14c	1.1069732
125	0x3f1c83bb	0.61138505
126	0x3f352452	0.70758545
127	0x3f2949ed	0.66128427
128	0x3fa624de	1.2980001
129	0x3f65b29e	0.89725673
130	0x3f289cea	0.6586443
131	0x3f6caa0b	0.92446965
132	0x3f674c61	0.9035092
133	0x3f1e13de	0.61749065
134	0x3f5162ad	0.8179119
135	0x3f4e257e	0.8052596
136	0x3f4e2c36	0.8053621
137	0x3f1ffeb7	0.6249804
138	0x3f57c385	0.84282714
139	0x3f6e98d1	0.9320193
140	0x3f81c1a7	1.0137223
141	0x3f78330e	0.96952903
142	0x3f855349	1.0416042
143	0x3f698b02	0.91227734
144	0x3f5f35cd	0.8719147
145	0x3f9ea266	1.239331
146	0x3f7163e9	0.94293076
147	0x3f23aa7a	0.63932
148	0x3f7ada68	0.9798951
149	0x3f76d42e	0.9641751
150	0x3f671e8b	0.9028098
151	0x3f705bf8	0.93890333
152	0x3f9f559a	1.2447999
153	0x3f00112b	0.50026196
154	0x3f630ffb	0.8869626
155	0x3f793145	0.97340804
156	0x3f873190	1.0562
157	0x3fa98f6b	1.3246893
158	0x3f444ba6	0.7667793
159	0x3f3e77f6	0.74401796
160	0x3f58279e	0.8443545
161	0x3f8fb209	1.1226207
162	0x3f5faef9	0.8737636
163	0x3f845bb4	1.0340486
164	0x3f4cf140	0.8005562
165	0x3fa1a443	1.2628254
166	0x3f614c5d	0.88007146
167	0x3f5bdf37	0.85887474
168	0x3f36cb1b	0.71403664
169	0x3f4f0890	0.8087244
170	0x3f562f2e	0.8366574
171	0x3f2dbf2a	0.6786982
172	0x3f54327a	0.8288952
173	0x3f67fa3c	0.906162
174	0x3f874b7d	1.0569912
175	0x3f2b0b4e	0.66814125
176	0x3f63e424	0.8901999
177	0x3f6e2e8f	0.9303979
178	0x3f9db255	1.2320048
179	0x3f42b05b	0.7605035
180	0x3f66f082	0.90210736
181	0x3f439ec0	0.7641411
182	0x3f3df1a0	0.74196815
183	0x3f872bb2	1.056021
184	0x3f9f735e	1.2457082
185	0x3f7992d5	0.9748967
186	0x3f6d6636	0.92734087
187	0x3f5fe0e5	0.87452537
188	0x3f68f818	0.9100356
189	0x3f8b33e6	1.0875213
190	0x3f61629e	0.880411
191	0x3f4cff0a	0.8007666
192	0x3f4c36b5	0.79770976
193	0x3f564bfd	0.837097
194	0x3f3f3955	0.74696857
195	0x3f643aa9	0.8915201
196	0x3f336963	0.7008268
197	0x3f148c6c	0.58026767
198	0x3f59c4f4	0.8506615
199	0x3f39a659	0.7251945
200	0x3f618739	0.8809696
201	0x3f62b101	0.88551337
202	0x3f81b7ec	1.0134254
203	0x3f564578	0.8369975
204	0x3f6f72e7	0.935347
205	0x3f3a0ddf	0.72677416
206	0x3f825042	1.0180743
207	0x3f77e1ac	0.9682872
208	0x3f88d17b	1.0688928
209	0x3f2e2afd	0.68034345
210	0x3f48ddd6	0.78463495
211	0x3f8238df	1.0173606
212	0x3f05d1d8	0.5227332
213	0x3f5fa3bc	0.87359214
214	0x3f2cb93d	0.6747015
215	0x3f2e4592	0.68074906
216	0x3f3e7d92	0.74410355
217	0x3f50aa65	0.8151
218	0x3f5aea5f	0.8551387
219	0x3f9402e7	1.1563386
220	0x3fab6455	1.3389994
221	0x3f4d5be3	0.80218333
222	0x3f825e3e	1.018501
223	0x3f37f3ff	0.71856683
224	0x3f537c48	0.82611513
225	0x3f53353f	0.8250312
226	0x3f68f754	0.9100239
227	0x3f4929c7	0.7857937
228	0x3f6ed0aa	0.93287146
229	0x3f6c35dd	0.9226969
230	0x3f184188	0.5947499
231	0x3f54f3a8	0.8318429
232	0x3f8fd8f7	1.1238087
233	0x3f4f9db3	0.81100005
234	0x3f8b2cb5	1.0873019
235	0x3f591c20	0.8480854
236	0x3f4c9cbb	0.7992665
237	0x3f380813	0.7188732
238	0x3f8612dd	1.0474507
239	0x3f7232a8	0.94608545
240	0x3f677a42	0.90420926
241	0x3f58e2bd	0.84720975
242	0x3f5da2b4	0.8657639
243	0x3f3ab5a7	0.7293343
244	0x3f0a6f41	0.5407601
245	0x3f59628f	0.84916013
246	0x3f738862	0.9512998
247	0x3f5cbb2a	0.8622309
248	0x3f4497e1	0.7679425
249	0x3f5985b8	0.84969664
250	0x3fa0991a	1.2546723
251	0x3f4f4758	0.80968237
252	0x3f63c0b7	0.88965935
253	0x3f3c1447	0.7346844
254	0x3f005357	0.50127167
255	0x3f325850	0.69666004

net.1.bias f4 [512]
0	0xbf0f2974	-0.5592263
1	0xbf0dc79b	-0.553827
2	0xbee8b5bf	-0.4545116
3	0xbf117d44	-0.56831765
4	0xbf1b8dec	-0.6076343
5	0xbec7007e	-0.38867563
6	0xbeba0864	-0.36334527
7	0xbef2ae93	-0.47398815
8	0xbd9df444	-0.077126056
9	0xbeda94c9	-0.4269164
10	0x3d66dab7	0.056360926
11	0xbf38556d	-0.7200535
12	0xbe82aae5	-0.25521007
13	0xbeca2943	-0.39484605
14	0xbef399b1	-0.47578195
15	0x3ea1da56	0.3161189
16	0xbeea83f1	-0.45803788
17	0xbdd846d8	-0.105603874
18	0xbebc1265	-0.36732784
19	0xbd9cc879	-0.076554246
20	0xbd5039e9	-0.050836477
21	0xbef4b688	-0.4779551
22	0xbec49e91	-0.38402227
23	0xbf10a613	-0.5650341
24	0x3e67b4c5	0.22627552
25	0xbe67c77e	-0.22634694
26	0xbeaf1fe8	-0.3420403
27	0xbee2972e	-0.44255966
28	0xbeb81b05	-0.35958114
29	0xbea9e6d2	-0.33183914
30	0xbee58bd2	-0.44833237
31	0xbee3bf13	-0.44481716
32	0x3e03a90b	0.12857454
33	0xbf2e0925	-0.67982703
34	0xbec7d38e	-0.3902859
35	0xbe9f64bd	-0.31131545
36	0xbf1d4273	-0.6142952
37	0xbeb572de	-0.354392
38	0xbcc74944	-0.024326928
39	0xbee5d898	-0.4489181
40	0xbe609fa5	-0.219359
41	0xbef90c6a	-0.48642284
42	0xbf163d8d	-0.5868767
43	0xbf070048	-0.52734804
44	0xbeaf2456	-0.3420741
45	0xbe295ab8	-0.16538513
46	0xbf30f636	-0.6912569
47	0xbf47e285	-0.78080016
48	0xbea8d792	-0.32976967
49	0xbeccd54b	-0.4000648
50	0xbe91d9d2	-0.28486496
51	0xbf13a714	-0.57676816
52	0x3e630801	0.22171022
53	0xbedaddb2	-0.42747265
54	0xbeb73c1b	-0.35788044
55	0xbd52d6db	-0.051474433
56	0x3e96b0dd	0.2943181
57	0xbec9185f	-0.39276406
58	0xbe1ea0cb	-0.15491025
59	0x3e83779b	0.2567719
60	0x3e82e771	0.255672
61	0xbefb77c7	-0.4911482
62	0xbe9abe42	-0.3022328
63	0xbdd99324	-0.10623768
64	0xbf01a345	-0.50639755
65	0xbdf3b0c1	-0.118989475
66	0xbeb52801	-0.35382083
67	0xbccf2dbe	-0.025290366
68	0xbece6362	-0.40310198
69	0xbf02a0a3	-0.5102636
70	0xbecd13b8	-0.40054107
71	0xbefca30b	-0.49343142
72	0xbefd0f4c	-0.49425733
73	0xbe897e3e	-0.26854128
74	0xbe0b817d	-0.13623615
75	0xbe8f30e9	-0.27967003
76	0xbeac90e0	-0.3370428
77	0xbf2054e0	-0.6262951
78	0xbf078f12	-0.5295268
79	0xbf19d994	-0.6009762
80	0xbec47476	-0.38370103
81	0xbe7f2abb	-0.24918644
82	0xbe9643c1	-0.29348567
83	0x3e7373a9	0.2377459
84	0xbecd06d3	-0.4004427
85	0x3e981374	0.29702342
86	0xbe7b2fbb	-0.24529926
87	0xbf393d01	-0.7235871
88	0xbed99ed1	-0.4250398
89	0xbef36f64	-0.47545922
90	0xbe890d87	-0.26768133
91	0x3e94408c	0.28955495
92	0xbe8eee39	-0.27916124
93	0x3d889907	0.06669813
94	0xbea19f57	-0.3156688
95	0x3d593dc6	0.053037427
96	0xbf15cae1	-0.58512694
97	0xbe8b0625	-0.27153125
98	0xbd91f946	-0.07127623
99	0xbeaebe81	-0.34129718
100	0xbf5b6832	-0.85705864
101	0x3e7ffcd1	0.24998786
102	0xbeafe94a	-0.34357673
103	0xbea6b85b	-0.32562527
104	0xbeafe493	-0.34354076
105	0xbe76d33c	-0.24104017
106	0x3a1975be	0.0005854032
107	0xbeb30382	-0.34963614
108	0xbe5187f9	-0.20462026
109	0x3d1a3be9	0.03765479
110	0xbec62ee7	-0.3870766
111	0xbed80c65	-0.42196956
112	0xbf01a73f	-0.5064582
113	0xbefb6b86	-0.4910547
114	0xbf0b0bd7	-0.5431494
115	0xbeeb05db	-0.45902905
116	0xbdb56b00	-0.08858299
117	0xbd84db25	-0.06487111
118	0xbef193da	-0.47183114
119	0xbef8d06c	-0.48596513
120	0xbf090f72	-0.5353919
121	0xbecb5b85	-0.3971826
122	0xbe9bb5fc	-0.3041228
123	0xbec498c1	-0.38397792
124	0xbc80a7a9	-0.015704947
125	0xbf0ef18b	-0.55837315
126	0xbf150336	-0.58208025
127	0xbf132c97	-0.57489914
128	0x3e9623cf	0.29324195
129	0xbecfc36f	-0.40578791
130	0xbf1c199c	-0.60976577
131	0xbed8d454	-0.42349494
132	0xbec7bc74	-0.39010966
133	0xbed11d1c	-0.4084252
134	0xbea1959c	-0.31559455
135	0xbeb3ea06	-0.35139483
136	0xbf06cf1c	-0.52659774
137	0xbf206563	-0.62654704
138	0xbec820c9	-0.39087513
139	0xbece8122	-0.40332896
140	0x3e41f20a	0.18939987
141	0xbeff4baa	-0.49862415
142	0xbebabf2b	-0.36473975
143	0xbf44159e	-0.76595485
144	0xbf09975e	-0.53746593
145	0x3dba84a3	0.0910733
146	0xbf1ab932	-0.60438836
147	0xbf389c87	-0.7211384
148	0xbf00116b	-0.5002658
149	0x3e5b2f6c	0.21404809
150	0xbe9e4185	-0.30909362
151	0xbe951cef	-0.29123637
152	0x3e5d3b15	0.2160457
153	0xbcff0b90	-0.031133443
154	0xbea42a2c	-0.32063425
155	0xbe5637a4	-0.20919663
156	0xbea18091	-0.315434
157	0x3e9bc6bf	0.3042507
158	0xbebb39e5	-0.36567608
159	0xbf15db96	-0.58538187
160	0xbefbe2ab	-0.4919637
161	0xbecc188f	-0.39862487
162	0xbeba1415	-0.36343446
163	0xbeaf98a8	-0.34296155
164	0x3e04fb1d	0.12986417
165	0x3e147ccb	0.1450073
166	0xbf0901a3	-0.5351812
167	0xbeaca70b	-0.33721194
168	0xbf0ae9e4	-0.5426314
169	0xbeebfbd6	-0.46090573
170	0xbf2732fa	-0.6531216
171	0xbdcf357d	-0.10117624
172	0xbeb09ea6	-0.3449604
173	0xbeb94d2d	-0.36191693
174	0xbda2a657	-0.07941883
175	0xbed0ad6a	-0.40757304
176	0xbef8c13a	-0.4858492
177	0xbef2d70c	-0.47429693
178	0x3e9f4e4a	0.31114417
179	0xbe9860b0	-0.29761267
180	0xbeb17874	-0.3466221
181	0xbe49e134	-0.19714814
182	0xbec75f04	-0.3893968
183	0xbf068cd1	-0.5255862
184	0x3da6dcd8	0.08147591
185	0xbe8307ba	-0.25591832
186	0x3ccdd56e	0.025126185
187	0x3e03fc6a	0.12889257
188	0xbe8ebc8e	-0.2787823
189	0xbe0331a0	-0.12811899
190	0xbf1a16b7	-0.6019091
191	0xbec54c31	-0.38534692
192	0xbe8761a4	-0.2644168
193	0xbf49e05d	-0.78857976
194	0xbeb08672	-0.34477574
195	0xbf1d2d82	-0.61397564
196	0xbea21162	-0.31653887
197	0xbeef91c5	-0.467909
198	0xbef09249	-0.46986607
199	0xbf018b1f	-0.50602907
200	0xbeb4a60e	-0.3528294
201	0xbe92771c	-0.28606498
202	0x3e18acae	0.14909622
203	0xbedfc8f4	-0.43708003
204	0xbf0d30b3	-0.55152434
205	0xbee27fd4	-0.4423815
206	0xbed977bb	-0.4247416
207	0xbe384320	-0.17994356
208	0xbf17cc98	-0.5929656
209	0xbe54c839	-0.20779504
210	0xbe5f642d	-0.21815558
211	0xbed702ed	-0.4199442
212	0xbf1278fe	-0.5721587
213	0xbe224b56	-0.15849051
214	0xbd356c6b	-0.04429285
215	0xbf2a540b	-0.6653449
216	0xbee57660	-0.44816875
217	0x3dbc2ae7	0.091878705
218	0xbec78ad9	-0.3897312
219	0x3e8e1347	0.27749082
220	0xbe80d84e	-0.25165027
221	0xbee37e99	-0.44432524
222	0xbe8bc849	-0.27301243
223	0xbf03a356	-0.51421106
224	0xbf0f4921	-0.5597096
225	0xbe9d3d43	-0.307108
226	0xbf1e1c23	-0.61761683
227	0xbece9aa0	-0.40352345
228	0xbf05c5bb	-0.5225484
229	0xbe9878e2	-0.29779726
230	0xbe9c5746	-0.30535334
231	0xbe2b99c8	-0.16757882
232	0xbb3d9b47	-0.0028931664
233	0xbeb6e64e	-0.35722584
234	0xbecb50a1	-0.39709952
235	0xbf1ee541	-0.62068564
236	0xbef2e36f	-0.47439143
237	0xbef1bfe6	-0.4721672
238	0xbe98de97	-0.29857323
239	0xbec9d88f	-0.39423034
240	0xbed250a3	-0.41077146
241	0xbf049f2e	-0.5180539
242	0xbecd05a5	-0.4004337
243	0xbe9ce5b0	-0.30643988
244	0xbf37ec49	-0.7184492
245	0xbedc29cd	-0.4300064
246	0xbebd120b	-0.36927828
247	0xbe8b4a50	-0.27205133
248	0xbe318b09	-0.17338194
249	0xbeb8cc85	-0.36093536
250	0x3e1917c7	0.14950477
251	0xbf09d087	-0.5383381
252	0xbef972d9	-0.48720434
253	0xbf080696	-0.5313505
254	0xbf10b50b	-0.5652625
255	0xbe6706b2	-0.22561148

net.1.running_mean f4 [512]
0	0xbdc63e7f	-0.09679889
1	0x3dfa0391	0.122077115
2	0x3e2921dc	0.16516823
3	0x3e4c5f19	0.19958152
4	0x3dd3ce9a	0.103421405
5	0x3e061417	0.13093601
6	0x3aae37e8	0.0013291808
7	0xbd9ce9c1	-0.076617725
8	0x3e6875a3	0.22701125
9	0x3e636947	0.22208129
10	0x3bff9a34	0.007800365
11	0xbd148e60	-0.036268592
12	0x3e220173	0.15820865
13	0x3d063d10	0.032773077
14	0x3e39589a	0.18100205
15	0x3d9f1452	0.07767548
16	0x3cc2dcbc	0.023786895
17	0x3dde308d	0.10849104
18	0x3e45ca15	0.1931537
19	0x3d339549	0.04384354
20	0x3d08d9c9	0.03341082
21	0xbcfa64b1	-0.030565592
22	0x3eb79c06	0.35861224
23	0xbc663b05	-0.014052157
24	0x3de425cd	0.111400224
25	0xbcd63b2d	-0.026151264
26	0x3da19af2	0.078908816
27	0xbca192d4	-0.019723333
28	0xbd043ba4	-0.03228344
29	0x3e948b11	0.2901235
30	0xbcd4afeb	-0.02596279
31	0x3cf6bfdc	0.030120783
32	0xbde3f292	-0.11130251
33	0xbe2875e6	-0.16451225
34	0x3dc34418	0.09534472
35	0x3e8f3617	0.27970955
36	0x3d89578a	0.0670615
37	0xbdd1144e	-0.10208951
38	0xbceb5df4	-0.028731324
39	0x3e8ab7b9	0.27093294
40	0x3e41e6ad	0.18935652
41	0xbd4dfafa	-0.050288178
42	0xbba7f382	-0.005125464
43	0xbcbda57e	-0.023150202
44	0xbc19dbde	-0.009390799
45	0x3cab8d37	0.02094136
46	0xbd7c00c3	-0.061524164
47	0xbe261ac7	-0.16221152
48	0x3c7eb86e	0.015546901
49	0x3e57ed4d	0.21086617
50	0x3ea56a68	0.32307744
51	0x3b9718d3	0.0046111136
52	0xbce03f91	-0.02737406
53	0x3d930620	0.071789026
54	0xbc4ec89c	-0.012621071
55	0x3e21580f	0.15756248
56	0x3c4148a4	0.011797104
57	0x3e0b0f41	0.13580038
58	0x3de82cb9	0.11336655
59	0x3c5a8d2b	0.013339321
60	0xbdd190ac	-0.10232672
61	0x3bab441e	0.005226626
62	0x3e9ccc02	0.30624396
63	0x3cd8c02b	0.02645882
64	0x3e0ae95f	0.13565587
65	0x3e8f14a1	0.27945426
66	0xbd89c10c	-0.06726274
67	0xbdadb627	-0.084820084
68	0xbdfd02b5	-0.12354032
69	0x3dc97191	0.09836114
70	0xbe0c1770	-0.13680816
71	0x3e36f859	0.17868175
72	0xbd57a671	-0.052648965
73	0x3dfda36d	0.123846866
74	0x3db30d16	0.0874273
75	0x3ea3862a	0.31938297
76	0x3f09383a	0.5360142
77	0xbe1655af	-0.14681123
78	0x3c4cc92c	0.012499135
79	0xbcca6aca	-0.024709124
80	0x3d0853d2	0.033283062
81	0xbe40087f	-0.18753241
82	0xbd850c13	-0.064964436
83	0x3dcc05f0	0.0996207
84	0x3e461ae0	0.1934619
85	0xbd330036	-0.043701373
86	0x3ea736bf	0.32658955
87	0xbda75cb3	-0.08171978
88	0x3ddbb0fc	0.107271165
89	0x3d3577c4	0.04430367
90	0xbd3b7507	-0.045765903
91	0x3de487ea	0.11158736
92	0x3b125c7e	0.0022332962
93	0xbd744460	-0.05963552
94	0x3d9c3437	0.07627147
95	0x3cd1ed8d	0.025625968
96	0xbdd25338	-0.10269779
97	0x3dcccef7	0.10000413
98	0x3d04847f	0.03235292
99	0x3c94df29	0.018172817
100	0xbdabb521	-0.08384157
101	0x3dd9141a	0.10599537
102	0xbb50b299	-0.0031844734
103	0x3e1c1e2b	0.15245883
104	0x3e2aa33a	0.16663828
105	0x3befc995	0.0073177316
106	0x3d2f1850	0.042747796
107	0xbd19fbcb	-0.037593644
108	0x3dec77d5	0.11546294
109	0xbd98ea68	-0.074665844
110	0x3d0b97f6	0.034080468
111	0x3de7275c	0.11286804
112	0x3e8c6005	0.27417007
113	0x3de67da8	0.11254436
114	0x3b8e722d	0.004347107
115	0x3d7bc3c8	0.06146601
116	0x3e1bdcee	0.15220997
117	0x3d38faac	0.045160934
118	0xbea0717f	-0.3133659
119	0x3e8eb1a4	0.27869904
120	0x3d5c2aa3	0.0537516
121	0xbdf5989a	-0.11991997
122	0x3d9df941	0.07713557
123	0xbc019bb8	-0.007910661
124	0x3d97b2cc	0.0740715
125	0xbe036ad2	-0.12833717
126	0x3ddd0611	0.10792173
127	0xbd44f6e8	-0.04808703
128	0x3dd267f6	0.10273735
129	0xbd88f4b2	-0.06687297
130	0x3dfbecaa	0.123009995
131	0xbd088c7e	-0.03333711
132	0x3ec813d2	0.39077622
133	0x3e0a2ee3	0.13494448
134	0xbcf74c3a	-0.030187715
135	0x3e1f0864	0.15530545
136	0x3d57756b	0.052602213
137	0x3de00d4e	0.10940038
138	0x3ce1d276	0.027566176
139	0xbd709f7e	-0.058745854
140	0xbd733724	-0.059378758
141	0x3db98e59	0.09060354
142	0x3e788497	0.24269329
143	0x3df7b970	0.12095916
144	0xbd055633	-0.03255291
145	0xbd49d6e4	-0.0492772
146	0x3d8a81cd	0.06763039
147	0xbe347322	-0.17622045
148	0x3d02b780	0.03191328
149	0xbc18905a	-0.00931176
150	0x3e35d933	0.17758636
151	0x3dbd4698	0.0924198
152	0x3dd0d784	0.10197356
153	0xbd7f7081	-0.06236315
154	0x3e03b780	0.12862968
155	0xbd53e819	-0.051735017
156	0x3e486095	0.19568093
157	0xbe0ce5ad	-0.1375949
158	0x3d126975	0.035745103
159	0xbd8b143b	-0.06790968
160	0x3edc7786	0.4305994
161	0x3e275e8b	0.16344659
162	0x3e702ec5	0.23455341
163	0x3ea3bc6e	0.31979698
164	0x3d924367	0.07141762
165	0x3c83bf37	0.01608239
166	0xbd47773a	-0.048697688
167	0xbdab748d	-0.0837184
168	0x3d79220f	0.060823496
169	0x3d702a6c	0.058634207
170	0x3def8198	0.1169464
171	0x3e9b5019	0.30334547
172	0xbda4cf18	-0.080473125
173	0x3e5d57f1	0.21615578
174	0x3e17ffb3	0.14843635
175	0x3e5480df	0.20752285
176	0x3e02b659	0.12764873
177	0x3e1a6adb	0.15079825
178	0x3bddb12f	0.0067655067
179	0x3dfff9b4	0.12498799
180	0x3da0196a	0.07817347
181	0xbdddd524	-0.10831669
182	0xbd0c4301	-0.034243587
183	0x3e0c35bc	0.13692373
184	0x3e1a68aa	0.15078989
185	0x3dd35251	0.10318435
186	0xbca7cc2a	-0.020483095
187	0x3c467746	0.012113398
188	0x3cf4e244	0.029893048
189	0x3d008acd	0.03138237
190	0xbdcf5219	-0.10123081
191	0x3e17fdd0	0.14842916
192	0x3db6bcf4	0.08922759
193	0x3b9034e9	0.0044008386
194	0x3db0d4e6	0.08634357
195	0x3c9713d0	0.018442065
196	0xbd25ecba	-0.040508963
197	0x3e51821c	0.20459789
198	0x3e4173eb	0.18891875
199	0x3dcd9196	0.10037534
200	0x3e1f002b	0.15527408
201	0x3e494733	0.19656067
202	0x3d3834b5	0.04497214
203	0xbd5be161	-0.053681735
204	0x3debb8af	0.11509835
205	0x3dfa717b	0.12228676
206	0x3d2078d4	0.03917773
207	0xbda5e441	-0.081001766
208	0xbd14d8ab	-0.036339443
209	0x3ebd5295	0.36977068
210	0x3e9909a0	0.29890156
211	0x3e92b508	0.2865374
212	0x3d709abd	0.05874132
213	0x3d4a51f8	0.049394578
214	0x3da95025	0.082672395
215	0x3de3caac	0.11122641
216	0x3ea677fe	0.32513422
217	0xbd7463ae	-0.059665374
218	0x3e7c1087	0.2461568
219	0xbc9ca21e	-0.019120272
220	0xbc58dbb0	-0.013235971
221	0xbe3d49b8	-0.18485153
222	0xbdd989ef	-0.10622012
223	0xbe8c7226	-0.27430838
224	0x3d2643a8	0.040591866
225	0x3e78d830	0.24301219
226	0x3e15fb38	0.14646614
227	0x3e161e33	0.14659958
228	0x3dd94562	0.10608937
229	0xbcb262ca	-0.021775622
230	0xbdf3ca2f	-0.11903798
231	0x3dd47f53	0.10375848
232	0xbce71da8	-0.028212383
233	0x3dd26496	0.102730915
234	0xbd34cdee	-0.044141702
235	0xbdfc6954	-0.12324777
236	0xbd2193f8	-0.039447755
237	0xbd813a5b	-0.063099585
238	0x3dcf7495	0.10129658
239	0x3ea7fb21	0.32808784
240	0x3e3a3404	0.18183905
241	0xbcfb24d3	-0.030657208
242	0x3e2c869b	0.16848223
243	0xbd45b9ba	-0.048272826
244	0xbe1058ca	-0.1409637
245	0xbcd10d71	-0.025519105
246	0x3f090b18	0.5353255
247	0x3ece6590	0.4031186
248	0x3e7c026e	0.24610302
249	0x3d6be2ee	0.057589464
250	0xbdc64db1	-0.09682787
251	0xbdc8e3f9	-0.09809107
252	0xbdefa851	-0.11702026
253	0xbcf6b8ad	-0.030117357
254	0x3cb5f077	0.02220939
255	0xbd8b6ff6	-0.06808464

net.1.running_var f4 [512]
0	0x3fe6a6ac	1.8019614
1	0x3f4cd49e	0.8001193
2	0x3fb0ee1e	1.3822668
3	0x406c007e	3.68753
4	0x3ffeda23	1.991032
5	0x4049ca5f	3.1529768
6	0x3f2258c8	0.6341672
7	0x3f47ecc3	0.78095645
8	0x404415aa	3.0638223
9	0x40261f11	2.5956461
10	0x4093685c	4.606489
11	0x3f7fef22	0.9997426
12	0x4086af8f	4.2089305
13	0x3fb2d819	1.3972198
14	0x3f506a7b	0.81412476
15	0x416c7602	14.7788105
16	0x3ed73fd2	0.4204088
17	0x3f4f9f00	0.8110199
18	0x3f87af72	1.0600417
19	0x3feb0ff0	1.8364239
20	0x3ff36fa9	1.9018451
21	0x3faab995	1.3337885
22	0x3f929a8a	1.1453412
23	0x400584f1	2.086239
24	0x4137849a	11.469873
25	0x401db1be	2.4639735
26	0x408686ab	4.203939
27	0x3f8d0e48	1.1019983
28	0x3f998d1c	1.1996188
29	0x409fbf45	4.9920983
30	0x3fdc0f1c	1.7192111
31	0x3f80eeff	1.0072936
32	0x411ce91e	9.806913
33	0x3fa56d34	1.2923951
34	0x3ffb422f	1.9629573
35	0x40619345	3.5246136
36	0x3fd25a79	1.643386
37	0x3fb55ba4	1.4168591
38	0x406dfc2d	3.7185166
39	0x403ce977	2.9517496
40	0x40d4d431	6.6509023
41	0x400530ee	2.0811114
42	0x3f9c1610	1.2194233
43	0x3f974f1d	1.1821018
44	0x411c94ee	9.78636
45	0x3fa52333	1.2901367
46	0x40d6ce95	6.7127175
47	0x3f9ffdfe	1.2499387
48	0x3f8ed514	1.1158776
49	0x40cfd4cf	6.4947276
50	0x3fab9571	1.3404981
51	0x3fcb8a46	1.5901573
52	0x4163bc46	14.233465
53	0x3fbde15c	1.4834399
54	0x4023daa3	2.5602195
55	0x41327498	11.153465
56	0x4138a114	11.539326
57	0x40c0239c	6.004347
58	0x3fd9868f	1.6994189
59	0x4170e249	15.055245
60	0x41412117	12.070579
61	0x3fa0d37f	1.2564543
62	0x4065cb86	3.590547
63	0x40156929	2.3345435
64	0x402cc8fa	2.6997666
65	0x40be17ea	5.940419
66	0x3f4cbab0	0.7997236
67	0x4013ef02	2.3114629
68	0x3fa5d4e6	1.2955596
69	0x3f867c36	1.0506656
70	0x4082dd94	4.089548
71	0x3f56754f	0.8377275
72	0x3f811a16	1.0086086
73	0x40908fbe	4.5175467
74	0x403e7bc2	2.9763036
75	0x3fd74887	1.6819009
76	0x409bb032	4.865258
77	0x3f6a28e4	0.91468644
78	0x40ad9d04	5.425417
79	0x40a5f366	5.1859617
80	0x3fa8f045	1.3198324
81	0x3fa8a1c2	1.3174365
82	0x40015281	2.0206606
83	0x41057825	8.341832
84	0x3fbfe743	1.499245
85	0x416c8298	14.781883
86	0x404b4331	3.175976
87	0x3f84f635	1.0387636
88	0x3f93365d	1.1500965
89	0x3fdf356f	1.7438182
90	0x3ff9317b	1.9468225
91	0x4119d7f1	9.61522
92	0x3f9e224f	1.235422
93	0x40c28428	6.0786324
94	0x404dae4d	3.2137635
95	0x40ad0ec9	5.408055
96	0x4007d84f	2.1225774
97	0x3fece9d7	1.8508862
98	0x3ff9d40d	1.9517838
99	0x3f8e339c	1.11095
100	0x3f8e78ce	1.1130617
101	0x410f85b7	8.970145
102	0x3fa4b446	1.2867515
103	0x3fa9eac8	1.3274775
104	0x3fda4983	1.7053684
105	0x4002a063	2.0410392
106	0x40408105	3.0078747
107	0x401c20b7	2.4394968
108	0x40370651	2.8597605
109	0x4072a2a2	3.7911763
110	0x3fe760f0	1.8076458
111	0x3f8a865d	1.0822254
112	0x4028edc2	2.6395116
113	0x3f4d9754	0.80309033
114	0x40140626	2.3128753
115	0x3f9ad76b	1.209699
116	0x40933abc	4.6009197
117	0x3fd39dd7	1.6532544
118	0x409bcf9b	4.8690925
119	0x401c9a1c	2.446906
120	0x3fa5eebd	1.2963482
121	0x3fef2408	1.8682871
122	0x4020d119	2.5127623
123	0x3fc32ccc	1.5248046
124	0x4084beb1	4.1482778
125	0x3fa633cb	1.2984556
126	0x3facf7a3	1.3513073
127	0x4004bcc5	2.0740216
128	0x414d4986	12.83045
129	0x4067b941	3.620682
130	0x3fdb0b4b	1.7112821
131	0x4034fa32	2.8277707
132	0x40be04b0	5.938072
133	0x3ffe8b74	1.9886308
134	0x3f618e02	0.8810731
135	0x3fbc0669	1.4689456
136	0x3fd268ba	1.643821
137	0x3fa63986	1.2986305
138	0x3fa50f92	1.2895377
139	0x3fd02cfc	1.6263728
140	0x40b1dd1a	5.55824
141	0x3fa10ded	1.2582375
142	0x401a00a9	2.4062903
143	0x3f5d032c	0.86332965
144	0x3fd74094	1.6816583
145	0x411a357d	9.638059
146	0x3f9d21ac	1.2275901
147	0x3fa26118	1.2685881
148	0x40450404	3.07837
149	0x40f4decf	7.6521983
150	0x3f6d2f0b	0.92649907
151	0x3f85ef46	1.0463645
152	0x41511835	13.06841
153	0x3fe49979	1.7859336
154	0x3fbd094a	1.476846
155	0x3fe23bf8	1.7674551
156	0x40202ff0	2.5029259
157	0x4159d5c4	13.614689
158	0x3f8d8d8f	1.1058825
159	0x3f8e5ccf	1.1122073
160	0x4037396e	2.8628802
161	0x40776488	3.865511
162	0x3fd4eb0d	1.6634232
163	0x408696d2	4.2059107
164	0x4097a4dc	4.7388744
165	0x411f2d34	9.948536
166	0x3f8db16f	1.1069773
167	0x40a7b120	5.2403717
168	0x3fb8d95b	1.4441332
169	0x3fedfd3b	1.8592905
170	0x3f9f0f7a	1.2426598
171	0x40333b37	2.8004892
172	0x3fefd8e2	1.8738062
173	0x3fbe4a1c	1.4866366
174	0x402012ce	2.5011477
175	0x3fe687eb	1.8010229
176	0x3f97a7be	1.1848066
177	0x40628182	3.5391545
178	0x412890d2	10.5353565
179	0x3f793175	0.9734109
180	0x400287a9	2.03953
181	0x3fbf7400	1.4957275
182	0x3f93ae80	1.1537628
183	0x3fd47e48	1.6601038
184	0x411e52de	9.895231
185	0x4003e038	2.0605602
186	0x40abf30c	5.373419
187	0x40797242	3.8975987
188	0x4080ae0e	4.021247
189	0x3fc6a62f	1.5519465
190	0x412b7d7a	10.718134
191	0x400e1168	2.2198124
192	0x40711f72	3.7675443
193	0x40120c9b	2.2820194
194	0x3fada8bc	1.3567119
195	0x408abab5	4.3352914
196	0x4027f8a0	2.6245499
197	0x3faca64f	1.3488253
198	0x3fe1434c	1.7598662
199	0x40079fd8	2.119131
200	0x3fc317d9	1.5241653
201	0x3fac7c63	1.347546
202	0x40ff4afb	7.977903
203	0x401b9b2b	2.4313457
204	0x3fe57e27	1.7929124
205	0x408ce9a3	4.40352
206	0x3fef392a	1.868932
207	0x400693b9	2.1027663
208	0x3fa511c1	1.2896043
209	0x4025948d	2.5871918
210	0x40824f34	4.0721684
211	0x4035e6bd	2.8422081
212	0x3fe516f0	1.7897625
213	0x3fd6930d	1.6763626
214	0x4094a340	4.644928
215	0x3f5ec41d	0.87017995
216	0x3fc47955	1.5349528
217	0x4090684e	4.5127325
218	0x3fe5628f	1.7920703
219	0x417c5e35	15.773
220	0x40611f43	3.517533
221	0x3f884cd7	1.064845
222	0x40490e82	3.1415105
223	0x4074170c	3.8139067
224	0x3fc83e34	1.5643983
225	0x3fb2f7a0	1.3981819
226	0x3f342e7a	0.7038342
227	0x3fd76207	1.682679
228	0x404591d1	3.087025
229	0x3f551273	0.83231276
230	0x3fb3497c	1.4006801
231	0x3fcb3a72	1.5877211
232	0x4028f79d	2.640113
233	0x3f7be5f8	0.9839778
234	0x3f1ee3f6	0.6206659
235	0x3fb9c006	1.4511726
236	0x4052a36e	3.291225
237	0x3fb329a5	1.3997084
238	0x4010ec3e	2.264419
239	0x4040875a	3.0082612
240	0x3fc6fb18	1.5545378
241	0x3fe72899	1.8059264
242	0x400e3f5e	2.2226176
243	0x3fa632a0	1.29842
244	0x408d40ae	4.4141455
245	0x40d6b830	6.709984
246	0x4104e770	8.306503
247	0x404bd0ef	3.1846273
248	0x4064a6ac	3.5726728
249	0x3fdd2c49	1.727914
250	0x4124aede	10.292692
251	0x3fccb417	1.5992459
252	0x40aac832	5.336938
253	0x3f88b3f6	1.067992
254	0x3fd22765	1.6418272
255	0x3fe5eec1	1.7963487

net.4.weight f4 [256, 512]
0	0xbf0c745c	-0.5486505
1	0xbe75b376	-0.2399424
2	0x3d0978dc	0.033562526
3	0x3dd883ba	0.10572
4	0x3dceb358	0.10092801
5	0xbc6898fc	-0.014196631
6	0xbd36a50f	-0.044591006
7	0xbe1d53b7	-0.15363966
8	0xbbb2b722	-0.00545396
9	0xbbe0ba71	-0.006858163
10	0x3c939876	0.018017035
11	0x3dd58ad7	0.10426872
12	0xbd19f812	-0.037590094
13	0x3cacfe81	0.02111745
14	0xbe49f10e	-0.19720861
15	0xba567c1e	-0.0008181947
16	0xbf567691	-0.8377467
17	0x3d687d52	0.05676014
18	0x3dc1e026	0.09466581
19	0xbf32ec98	-0.69892263
20	0xbde9d538	-0.114176214
21	0xbca29976	-0.019848567
22	0xbcc166f4	-0.023608662
23	0xbe3083e6	-0.17237815
24	0xbc0147cc	-0.007890653
25	0xbdf4f6af	-0.11961114
26	0x3c7d26a9	0.015451112
27	0xbebc0f6c	-0.36730516
28	0xbd839217	-0.06424349
29	0x3d64e89a	0.05588589
30	0xbe15062d	-0.14553137
31	0x3de1639e	0.110053286
32	0x3c37c4fc	0.011216398
33	0xbae04f89	-0.0017113547
34	0x3d981c65	0.07427291
35	0x3e412636	0.18862233
36	0x3dc3fe69	0.09570009
37	0xbda452f4	-0.080236346
38	0xbc95a37d	-0.018266434
39	0x3dee4331	0.116339095
40	0x3ddc10bb	0.107453786
41	0xbdbf1482	-0.093300834
42	0x3d8fa5c1	0.07014037
43	0xbb32608e	-0.0027218196
44	0xbb43b284	-0.0029861042
45	0x3d534a7d	0.05158471
46	0xbdce8da5	-0.1008561
47	0xbdb6729a	-0.08908577
48	0x3dc341d1	0.09534038
49	0x3e3ac619	0.18239631
50	0xbcf7632b	-0.030198654
51	0xbafc348f	-0.0019241738
52	0xbc87889f	-0.016544638
53	0xbe859220	-0.26088047
54	0xbd17f569	-0.037099276
55	0x3c1cdec3	0.009574595
56	0x3b811625	0.0039394074
57	0xbd3df770	-0.046378553
58	0x3d048ff5	0.03236385
59	0x3b967ee4	0.0045927633
60	0xbcf34b20	-0.029698908
61	0xbdf79e6a	-0.12090762
62	0xbd82011a	-0.06347866
63	0x3d441403	0.047870647
64	0x3dc049fb	0.09389111
65	0x3d4dc1f4	0.050233796
66	0x3c8c7687	0.017146362
67	0xbd35ddf7	-0.044401135
68	0xbe11e12f	-0.14246057
69	0xbe91ba1f	-0.28462312
70	0x3d7986c1	0.060919527
71	0x3e10596f	0.14096616
72	0x3de519c9	0.11186559
73	0x3dc0e247	0.09418159
74	0x3d2c5b78	0.04207942
75	0x3c71bdfa	0.014754767
76	0x3dcc6a63	0.09981229
77	0xbe7e9506	-0.24861535
78	0xbd9ad34c	-0.07559833
79	0xbdd3cc56	-0.10341708
80	0xbe081e1b	-0.13292734
81	0xbcee02fb	-0.029054156
82	0xbc22dcc2	-0.009940328
83	0x3dab5856	0.08366458
84	0xbd8bfe95	-0.06835667
85	0xbc47937c	-0.012181159
86	0xbba32808	-0.0049791373
87	0xbe188c97	-0.14897381
88	0xbe3a605e	-0.18200824
89	0xbcea2f3e	-0.02858698
90	0xbdc0458f	-0.09388267
91	0x3bc005c4	0.0058600623
92	0xbe120afb	-0.14262001
93	0x3c76edbf	0.0150713315
94	0xbec56cd7	-0.385596
95	0xbc73604a	-0.0148545
96	0xbbab1541	-0.0052210395
97	0x3dfd20de	0.123597845
98	0xbd8a7e4a	-0.06762369
99	0xbe8fce73	-0.28087196
100	0xbe8804b8	-0.265661
101	0x3c75dc12	0.015006082
102	0xbdf016f4	-0.11723128
103	0x3d96149d	0.073281504
104	0xbe14c3b5	-0.14527781
105	0xbe0cdc57	-0.13755928
106	0xbd12dd67	-0.035855677
107	0x3e1f2f64	0.15545422
108	0xbea01bed	-0.31271306
109	0x3ddf1277	0.10892194
110	0x3de82645	0.11335424
111	0xbb552957	-0.0032525861
112	0xbb8dec62	-0.0043311575
113	0xbe60f57b	-0.21968643
114	0xbe2f58be	-0.17123696
115	0xbe6c855f	-0.23097752
116	0x3c14613c	0.009056386
117	0x3d28ffb5	0.041259486
118	0xbe406894	-0.18789893
119	0x3ede51f9	0.43421915
120	0x3de28332	0.1106018
121	0xbdcd8274	-0.100346476
122	0x3bfc5b1a	0.00770129
123	0xbe6756b0	-0.22591662
124	0x3b5b2962	0.0033441414
125	0xbe165cb7	-0.14683805
126	0xbdaeeaae	-0.08540855
127	0x3e3ebae0	0.18625975
128	0xbc93875e	-0.018008884
129	0x3d04dda9	0.032437954
130	0x3da06d93	0.078333996
131	0xbcf32c0a	-0.029684085
132	0x3e86c635	0.26323095
133	0x3d85b590	0.06528771
134	0x3c2213e8	0.009892441
135	0x3dc39411	0.09549726
136	0xbdcd8520	-0.10035157
137	0xbd6540b3	-0.055969905
138	0x3e3a559f	0.18196724
139	0x3cd2cbaf	0.02573189
140	0xbcd08b4c	-0.025457047
141	0x3bd4d10a	0.006494646
142	0x3dc15e55	0.094418205
143	0xbf0cdc1b	-0.55023354
144	0xbd307c0c	-0.04308705
145	0xbd6a580c	-0.057212874
146	0xbe34074a	-0.17580906
147	0x3c1e151d	0.0096485885
148	0x3c81a882	0.015827421
149	0x3d30d298	0.043169588
150	0x3c4a7049	0.012355872
151	0xbe36b6c3	-0.17843156
152	0x3d639256	0.05555948
153	0xbea047a1	-0.3130465
154	0x3d08eaf5	0.033427197
155	0x3d4ddc4d	0.050258923
156	0xbd296c86	-0.04136326
157	0x3be2b5b3	0.006918633
158	0xbd15858c	-0.036504313
159	0xbeac5117	-0.33655617
160	0x3db5ee94	0.08883396
161	0x3ea6f0cb	0.32605585
162	0xbeca2fea	-0.3948968
163	0xbc29c828	-0.010362662
164	0x3ce8585c	0.028362446
165	0x3c33b3cd	0.010968161
166	0xbd28ddbb	-0.041227084
167	0x3dfed1ad	0.12442336
168	0xbb2bd0fd	-0.0026217096
169	0xbddbfa91	-0.10741151
170	0x3c85a3e6	0.016313504
171	0x3dd90193	0.105960034
172	0xbd970447	-0.07373863
173	0x3d03fdb7	0.032224383
174	0xbc437c9b	-0.011931564
175	0x3e4cb4b6	0.19990811
176	0xbca8c045	-0.020599494
177	0x3c1e70ff	0.009670495
178	0xbc21486c	-0.009843927
179	0xbd056110	-0.03256327
180	0xbe0cd64b	-0.13753621
181	0xbe69eb2b	-0.22843616
182	0x3e65191e	0.22372863
183	0x3da13e5c	0.07873222
184	0xbabce885	-0.0014412558
185	0xbe17e28c	-0.14832515
186	0xba5248f1	-0.00080217334
187	0xbd7eb7ec	-0.06218712
188	0x3cb15115	0.021645108
189	0xbd31605a	-0.04330478
190	0xbe95285c	-0.29132354
191	0xbdfd7966	-0.123766705
192	0xbd6ca546	-0.057774805
193	0x3b3ebe88	0.0029105265
194	0xbd1dc2a9	-0.03851572
195	0xbd2626fe	-0.04056453
196	0x3d6c9557	0.05775961
197	0xbd47188d	-0.048607398
198	0x3dc53c9e	0.096307024
199	0x3db3807b	0.0876474
200	0x3c094c72	0.008380042
201	0x3d644e01	0.055738453
202	0x3cbb712d	0.022881115
203	0xbdaf7367	-0.08566933
204	0xbd946568	-0.07245904
205	0xbd404c2a	-0.046947636
206	0xbc175628	-0.00923685
207	0xbd7f3866	-0.062309645
208	0x3d28732d	0.041125465
209	0xbc4296b8	-0.011876754
210	0x3e222ae9	0.15836681
211	0x3ecd29a9	0.40070847
212	0x3e7a3d9a	0.24437562
213	0x3c81d2e3	0.015847629
214	0xbc8d2d84	-0.017233618
215	0xbcb656f2	-0.022258256
216	0xbd8aed34	-0.06783524
217	0x3cf8726e	0.030328002
218	0xbe004a1b	-0.12528269
219	0xbc40e316	-0.0117728915
220	0x3e07c62f	0.13259195
221	0xbd923601	-0.07139207
222	0x3b901d63	0.0043980344
223	0x3d599a46	0.053125642
224	0x3e96afd7	0.2943103
225	0x3cfacbf5	0.030614832
226	0x3e563e65	0.20922239
227	0x3bb09481	0.005388797
228	0xbe801fc0	-0.25024223
229	0xbe09312f	-0.13397668
230	0xbe806628	-0.2507794
231	0xbdffc767	-0.12489205
232	0x3d7cfa48	0.061762124
233	0x3e72a0bc	0.23694128
234	0xbec62ba4	-0.3870517
235	0xbe2f1dbd	-0.17101188
236	0x3e568eef	0.20952962
237	0xbe2d878b	-0.16946237
238	0x3cb9e1ea	0.022690732
239	0xbc204ec4	-0.009784404
240	0xbe12da84	-0.1434117
241	0x3ce12118	0.0274816
242	0x3e0d5614	0.13802367
243	0xbe7916c7	-0.24325095
244	0xbe045d69	-0.12926258
245	0xbda6176d	-0.08109937
246	0x3e736ceb	0.23772018
247	0x3df204f2	0.118173495
248	0x3a912ba6	0.001107563
249	0x3cb38137	0.0219122
250	0x3bf6051a	0.0075079324
251	0xbd235a47	-0.039881017
252	0xbe5201cb	-0.20508496
253	0x3d0d41a7	0.03448644
254	0x3dfcd311	0.12344945
255	0x3b3d113d	0.0028849386
