pythorch saved models/classifier_cgan.pth (torch, 223878 bytes, 14 tensors)

net.0.weight f4 [256, 69]
0.07962609 0.14827348 0.08839284 -0.084361754 -0.083252035 0.027685229 0.002380889 0.09080547
0.05234712 0.00458259 -0.101246834 -0.020263584 -0.14428759 0.15490702 0.04333696 -0.01723529
0.01882672 0.17729796 -0.00053066073 -0.008031916 0.24014452 -0.20834489 -0.032927614 -0.061441794
0.082284525 0.20818266 0.034712434 0.015401581 0.051431675 0.03601618 0.1349199 -0.026369864
-0.10267147 -0.0070585934 -0.028784014 -0.075515226 0.0026279285 0.060769614 -0.00053039694 0.05889679
-0.017848333 0.18702112 0.0039177802 -0.18887278 0.039011076 -0.15705487 -0.014251017 -0.020849232
-0.015301179 -0.07022106 -0.07495904 -0.13531697 -0.017245155 0.049210425 0.05925077 0.023456817
-0.020519687 0.1865572 0.032066107 0.06857767 -0.018572323 -0.061367705 0.065634765 -0.15541933
0.0748998 -0.37662023 -0.119736 -0.084417336 1.2189574 0.0018997731 -0.076698855 0.047225796
-0.07689682 0.06092762 0.021623315 -0.69017005 0.11488895 -0.11169042 0.6246519 -0.25308096
0.23767132 -0.086740464 0.6008392 -0.068624884 -0.17258216 -0.088626385 0.0028639624 -0.09957971
0.11081862 -0.062379315 0.004896716 0.18133816 -0.08902817 0.08862032 -0.043451555 -0.0058764094
-0.03667318 0.030544452 -0.013423572 0.06821773 -0.09984313 -0.07438544 -0.4045384 0.13909106
-0.08118911 -0.48252758 -0.25058028 0.35638112 -0.377375 -0.38839042 0.09628466 0.09003683
0.18766281 -0.08444605 0.10985989 -0.10369287 0.045235965 -0.06130595 -0.11157754 -0.23646864
0.016837183 -0.008632065 0.09018758 -0.084529705 0.17175446 -0.025177596 -0.016369335 -0.00024672694
-0.05208427 -0.01972317 0.075952515 -0.0009896922 0.044041228 -0.04124139 0.04165126 0.07142801
0.061999496 0.06683404 -0.0024489777 -0.09651117 -0.038027413 0.079266615 -0.042224146 -0.0261294
0.5126715 0.022952253 0.044252753 -0.45551398 0.21648958 -0.048193246 -0.07550987 0.16774476
-0.06868771 -0.099707216 -0.23810734 -0.04586258 0.07416251 -0.45036387 0.053834435 -0.3026902
-0.075420395 0.16735269 -0.16641347 -0.06377157 0.19428127 -0.042846616 -0.26889262 0.0055069476
0.002190686 -0.08803287 0.049017925 -0.023883522 -0.4428809 0.09419191 0.10665447 -0.013921749
-0.037679043 -0.15695919 -0.05031777 0.026430314 -0.053629145 0.1109839 0.14444375 -0.16013122
-0.0013501338 -0.033181466 -0.19915605 0.09317855 0.020335736 -0.12219333 -0.17021675 -0.13529883
0.059154857 -0.08562981 -0.026882315 0.03226278 -0.058058422 -0.081435636 0.00979099 -0.012472865
0.16071755 0.0102639375 -0.45464528 0.2717615 -0.28923857 -0.4658347 0.15641941 0.037201
0.046195216 0.011284402 0.03795695 -0.088803 -0.08776994 0.105257176 -0.0039929627 0.04085333
0.010304053 0.080668546 0.078278944 -0.07652088 0.054356545 -0.0014411426 -0.058217805 0.01821002
-0.060181238 -0.046452317 -0.0049916697 0.019205397 -0.04115529 0.019252364 -0.05396151 0.028612403
-0.061601616 -0.020568198 0.052267477 0.038957935 0.019519905 -0.04929343 0.024379808 -0.052500855
0.07607718 0.024079429 -0.021818843 -0.0802606 0.067355976 0.034825303 0.05924684 -0.0013266607
0.10448319 -0.029867504 0.047391016 0.013711401 -0.053660665 0.079868734 0.008740317 -0.06315371
00000000: 0113 a33d 01d5 173e 4e07 b53d dbc5 acbd
00000010: 0b80 aabd 22cc e23c b008 1c3b 38f8 b93d
00000020: ef69 563d 8d29 963b 805a cfbd d1ff a5bc
00000030: 20c0 13be f29f 1e3e 1982 313d 0631 8dbc
00000040: 7e3a 9a3c 998d 353e 0a1c 0bba 4c98 03bc
00000050: 72e8 753e 5d58 55be 1bdf 06bd 64aa 7bbd
00000060: ca84 a83d d62d 553e a02e 0e3d ea56 7c3c
00000070: 05aa 523d b485 133d 7128 0a3e 9d05 d8bc
00000080: 6b45 d2bd c64b e7bb 74cc ebbc baa7 9abd
00000090: 5339 2c3b 8fe9 783d 560a 0bba c33d 713d
000000a0: ab36 92bc 7782 3f3e b960 803b de67 41be
000000b0: 14ca 1f3d fed2 20be 197d 69bc 02cc aabc
000000c0: ccb1 7abc 0fd0 8fbd 2084 99bd 8890 0abe
000000d0: b645 8dbc df90 493d efb0 723d 8328 c03c
000000e0: e718 a8bc da08 3f3e c057 033d 7372 8c3d
000000f0: fc24 98bc b45c 7bbd 856b 863d 3f26 1fbe
00000100: 1165 993d 5ed4 c0be 2638 f5bd ffe2 acbd
00000110: cc06 9c3f cf01 f93a 4a14 9dbd d66f 413d
00000120: 147c 9dbd 3d8f 793d 6123 b13c fcae 30bf
00000130: e64a eb3d f2bd e4bd 30e9 1f3f d493 81be
00000140: 1c60 733e fca4 b1bd 99d0 193f 348b 8cbd
00000150: 61b9 30be c081 b5bd 51b1 3b3b 72f0 cbbd
00000160: dff4 e23d 7481 7fbd a274 a03b b6b0 393e
00000170: 6754 b6bd 927e b53d 42fa 31bd e58e c0bb
00000180: 9e36 16bd 5c38 fa3c 8bee 5bbc bdb5 8b3d
00000190: 8e7a ccbd 6557 98bd a81f cfbe e36d 0e3e
000001a0: 7a46 a6bd db0d f7be 0f4c 80be 9677 b63e
000001b0: 4c37 c1be 1cdb c6be e430 c53d 3b65 b83d
000001c0: ae2a 403e 0df2 acbd 39fe e03d ed5c d4bd
000001d0: 5949 393d f31b 7bbd c482 e4bd d624 72be
000001e0: 22ee 893c 816d 0dbc 44b4 b83d e91d adbd
000001f0: 67e0 2f3e 3f41 cebc fc18 86bc 215b 81b9
00000200: 5156 55bd 7c92 a1bc fe8c 9b3d 8fb8 81ba
00000210: 9364 343d bbec 28bd 839a 2a3d d948 923d
00000220: 2ff3 7d3d 49e0 883d 077f 20bb a6a7 c5bd
00000230: a2c2 1bbd 8956 a23d 3af3 2cbd 530d d6bc
00000240: 703e 033f 5d06 bc3c 6042 353d 2139 e9be
00000250: 72af 5d3e 4866 45bd eba4 9abd 48c5 2b3e
00000260: 24ac 8cbd 4c33 ccbd 69d2 73be 67da 3bbd
00000270: 84e2 973d 1896 e6be 7f81 5c3d 36fa 9abe
00000280: 0276 9abd 815e 2b3e 4b68 2abe ab9a 82bd
00000290: abf1 463e ef7f 2fbd 4bac 89be a073 b43b
000002a0: 9d91 0f3b 944a b4bd 05c7 483d 60a7 c3bc
000002b0: 49c1 e2be b0e7 c03d a96d da3d 0c18 64bc
000002c0: 5755 1abd e9b9 20be 021a 4ebd 6384 d83c
000002d0: 3caa 5bbd 874b e33d 10e9 133e 70f9 23be
000002e0: f9f6 b0ba 4ae9 07bd 90ef 4bbe 65d4 be3d
000002f0: 2197 a63c 7f40 fabd 4d4d 2ebe c78b 0abe
00000300: 5d4c 723d af5e afbd 4d38 dcbc fa25 043d
00000310: abce 6dbd bac7 a6bd 636a 203c fd5a 4cbc
00000320: 2493 243e 132a 283c 44c7 e8be 5324 8b3e
00000330: 1417 94be e381 eebe 692c 203e 1360 183d
00000340: 3237 3d3d 36e2 383c bf78 1b3d 59de b5bd
00000350: bac0 b3bd 1391 d73d 66d7 82bb d255 273d
00000360: 55d2 283c 8d35 a53d b650 a03d fbb6 9cbd
00000370: f8a4 5e3d b9e4 bcba cb75 6ebd 2e2d 953c
00000380: 9a80 76bd c944 3ebd 2991 a3bb a354 9d3c
00000390: 7392 28bd 22b7 9d3c bf06 5dbd 8f64 ea3c
000003a0: fa51 7cbd a37e a8bc 6c16 563d 5b92 1f3d
000003b0: 35e8 9f3c e8e7 49bd 2ab8 c73c 230b 57bd
000003c0: 5ace 9b3d 3942 c53c 6ebd b2bc ab5f a4bd
000003d0: eef1 893d faa4 0e3d d1ac 723d 59e3 adba
000003e0: 48fb d53d b2ac f4bc 151d 423d c9a5 603c
000003f0: 49cb 5bbd 3892 a33d 8c33 0f3c bb56 81bd

net.0.bias f4 [256]
0.014775396 -0.10687856 0.06668397 0.0063968813 0.055614594 -0.05757833 0.08372657 -0.09608009
-0.035128653 -0.09830077 -0.06754043 -0.012205524 -0.05068167 -0.02227849 -0.030725403 -0.052518893
0.042972833 0.07056902 0.076267846 0.10712252 0.08911044 0.09621438 0.111520454 -0.05341865
-0.07111228 -0.027558604 -0.01759864 0.08784251 -0.032408413 -0.045049746 0.07072281 0.039134298
0.096029446 -0.08163714 0.00012347447 -0.04049135 -0.08759534 -0.08796298 -0.05473649 0.041255966
0.00095341366 -0.028408924 0.047332935 -0.05743224 -0.07167834 0.084550925 0.06526309 -0.120335296
-0.037157666 -0.028272921 -0.10991602 -0.11070924 -0.0037176264 -0.0986951 -0.097295254 -0.10012804
-0.013237259 0.12582974 -0.094507135 -0.06139983 0.038836613 0.087445885 -0.084637724 -0.10973787
-0.0026225704 -0.037155498 -0.003535396 -0.010860747 -0.07094165 -0.01998028 -0.10900043 -0.0827655
-0.010292732 -0.081281535 0.04648261 -0.09002042 0.029296651 -0.039926942 -0.018943207 0.11050767
-0.07089622 0.022978174 0.09105342 -0.060255274 -0.040512867 0.11659265 0.052279267 -0.08508779
0.12621091 0.0891718 -0.06557765 -0.11256859 0.051164914 -0.051184315 0.035944425 -0.060987916
-0.047532372 -0.012692035 0.03335371 -0.07816909 0.08729883 -0.07646068 0.11427458 0.055102848
-0.09800936 -0.10167372 -0.04475029 -0.022464097 -0.0409151 0.10515381 0.04244205 -0.071304716
-0.116339095 -0.08609821 0.07254444 -0.018122504 -0.038935345 -0.077557646 0.018694302 -0.005220663
0.11370739 0.046130978 0.047985636 0.023924049 -0.08184698 -0.01518357 0.02992192 0.00644914
-0.12717979 -0.03897689 -0.02382821 -0.045459073 -0.11181168 0.0043064565 -0.073704354 0.08536924
-0.06414807 -0.111799315 -0.005147222 -0.0413217 -0.026330294 0.0204152 -0.10754015 0.023742339
0.051045977 0.040036205 -0.10533646 -0.09515392 -0.06873261 -0.08612029 0.10211172 -0.09883684
-0.13194723 -0.044925936 0.12077802 0.0780889 -0.0025243831 -0.00057543843 0.003499511 -0.11335378
-0.008471266 -0.11751564 -0.112074964 0.026279226 -0.07262686 0.06640415 -0.0727943 -0.06270125
0.08767909 -0.08040759 -0.0028317512 -0.075723104 -0.047055043 -0.0032142838 0.015708141 -0.12080178
-0.07977459 0.052523885 -0.07915836 -0.056763206 -0.045345083 -0.08764909 0.11801693 0.08796864
-0.11056774 0.09236212 -0.101019666 0.098721385 0.04000202 0.079842106 0.08125887 -0.13687629
0.00013789143 -0.10443684 -0.0844655 -0.0013647564 -0.07919933 -0.029063785 0.00091346854 0.014201831
-0.016597224 0.117855325 -0.056315575 -0.06378899 -0.11794723 0.013017019 -0.08814235 -0.030404853
-0.06878053 -0.05956184 0.11624843 -0.059256118 0.024567237 -0.10605067 0.02806741 0.043690685
0.062353726 0.0793706 -0.082046315 0.10192928 -0.043369956 0.08412938 0.09881571 0.061000988
-0.0013904923 -0.04385086 -0.0037334762 0.013827818 0.1389702 0.03822232 -0.11404955 0.04619139
0.026606511 0.07945965 -0.031875465 -0.10142505 -0.019794285 -0.11864785 0.03770902 0.087574475
-0.027584827 -0.066571675 -0.04354955 -0.003835293 -0.051278017 -0.001979291 0.0015802971 -0.03508964
0.03051072 0.051212166 -0.099038936 0.007388726 0.11587424 -0.07263224 0.053353645 -0.048889298
00000000: 8114 723c 25e3 dabd 9b91 883d ee9c d13b
00000010: 21cc 633d 41d7 6bbd d678 ab3d a3c5 c4bd
00000020: 10e3 0fbd ea51 c9bd a352 8abd aef9 47bc
00000030: 9597 4fbd 6181 b6bc d7b3 fbbc 0d1e 57bd
00000040: 4804 303d 7e86 903d 5132 9c3d 0d63 db3d
00000050: 897f b63d 0b0c c53d d664 e43d 84cd 5abd
00000060: 51a3 91bd 95c2 e1bc 062b 90bc c6e6 b33d
00000070: afbe 04bd 1586 38bd 1fd7 903d 494b 203d
00000080: 16ab c43d 5f31 a7bd ed78 0139 42da 25bd
00000090: 3065 b3bd ef25 b4bd 5f33 60bd 04fc 283d
000000a0: 82ee 793a d5b9 e8bc 2ee0 413d 123e 6bbd
000000b0: 18cc 92bd 0929 ad3d a8a8 853d 5a72 f6bd
000000c0: a332 18bd 9d9c e7bc a61b e1bd 87bb e2bd
000000d0: 6ca3 73bb a820 cabd bc42 c7bd ee0f cdbd
000000e0: 17e1 58bc 83d9 003e f58c c1bd 637e 7bbd
000000f0: 2413 1f3d d416 b33d 8b56 adbd 40be e0bd
00000100: 6edf 2bbb 5d30 18bd 1ab2 67bb 46f1 31bc
00000110: db49 91bd afad a3bc 9e3b dfbd f580 a9bd
00000120: d9a2 28bc ef76 a6bd 8d64 3e3d a05c b8bd
00000130: 88ff ef3c 6f8a 23bd c92e 9bbc d851 e23d
00000140: 0a32 91bd b93c bc3c 377a ba3d 3cce 76bd
00000150: d2f0 25bd 21c8 ee3d c922 563d 8242 aebd
00000160: 6f3d 013e b49f b63d 934d 86bd 5c8a e6bd
00000170: 4d92 513d a5a6 51bd 763a 133d 77ce 79bd
00000180: 4eb1 42bd 41f2 4fbc e69d 083d 1e17 a0bd
00000190: bbc9 b23d 6b97 9cbd ca08 ea3d 86b3 613d
000001a0: 22b9 c8bd 503a d0bd 154c 37bd a006 b8bc
000001b0: 9896 27bd e15a d73d b7d7 2d3d 3508 92bd
000001c0: 3143 eebd 4254 b0bd 2e92 943d a575 94bc
000001d0: ab7a 1fbd 8bd6 9ebd cb24 993c 1812 abbb
000001e0: 6cdf e83d d6f3 3c3d 968c 443d 5efc c33c
000001f0: 649f a7bd 82c4 78bc d01e f53c 4f53 d33b
00000200: 6b3b 02be 3ba6 1fbd 6133 c3bc 4b33 3abd
00000210: 86fd e4bd 2d1d 8d3b 4ff2 96bd 11d6 ae3d
00000220: 1060 83bd 0af7 e4bd 07aa a8bb f140 29bd
00000230: a1b2 d7bc c73d a73c 033e dcbd 4b7f c23c
00000240: 9615 513d 01fd 233d a4ba d7bd 0fe0 c2bd
00000250: afc3 8cbd d65f b0bd f31f d13d f86a cabd
00000260: 2d1d 07be 4204 38bd 775a f73d 13ed 9f3d
00000270: 1f70 25bb 05d9 16ba 0d58 653b 0726 e8bd
00000280: 11cb 0abc 0aac f0bd 8f87 e5bd 8847 d73c
00000290: 64bd 94bd e6fe 873d 2e15 95bd 8369 80bd
000002a0: 1891 b33d bcac a4bd e794 39bb b714 9bbd
000002b0: cabc 40bd bca6 52bb 5cae 803c ec66 f7bd
000002c0: dc60 a3bd 4923 573d c71d a2bd 8980 68bd
000002d0: c4bb 39bd 5e81 b3bd dcb2 f13d e728 b43d
000002e0: 5771 e2bd 5a28 bd3d 66e3 cebd 702e ca3d
000002f0: 28d9 233d 4284 a33d 0d6b a63d 4c29 0cbe
00000300: f396 1039 fbe2 d5bd 40fc acbd a0e1 b2ba
00000310: 4233 a2bd 2d17 eebc d675 6f3a ccae 683c
00000320: e7f6 87bc 225e f13d 29ab 66bd cda3 82bd
00000330: 518e f1bd 5645 553c fa83 b4bd 9913 f9bc
00000340: cedc 8cbd 1ef7 73bd a813 ee3d 8bb6 72bd
00000350: 3b41 c93c 1831 d9bd a0ed e53c 01f5 323d
00000360: 9f66 7f3d 0e8d a23d e607 a8bd 4cc0 d03d
00000370: b2a4 31bd 064c ac3d e45f ca3d 2cdc 793d
00000380: 2e41 b6ba f69c 33bd 56ad 74bb 138e 623c
00000390: 344e 0e3e 028f 1c3d cf92 e9bd 2f33 3d3d
000003a0: e6f5 d93c bebb a23d d98f 02bd f0b7 cfbd
000003b0: a027 a2bc a5fd f2bd c674 1a3d 3f5a b33d
000003c0: 93f9 e1bc bb56 88bd 0361 32bd 8a59 7bbb
000003d0: e608 52bd feb6 01bb f921 cf3a 28ba 0fbd
000003e0: 9ef1 f93c d9c3 513d edd4 cabd 201d f23b
000003f0: 794f ed3d 36c0 94bd 5a89 5a3d 2540 48bd

net.1.weight f4 [256]
0.82672566 1.0373007 0.94198525 0.8469699 0.9084113 0.98675585 0.7333539 0.8055568
0.8944898 0.67154014 0.8091424 0.68507105 0.7729446 0.8372757 0.71418035 0.5939807
0.7026506 0.8515833 0.812573 0.7887225 0.90341324 0.8674977 0.77213305 1.1903254
0.89905125 0.84658474 1.0122004 0.8126171 1.006569 0.71327907 0.5901758 0.725911
0.8256831 1.0131727 0.7591915 0.87466186 0.85097694 0.7275871 0.69619447 0.55526286
0.8576869 1.0839666 0.9007068 0.8481616 0.9112168 0.8466698 0.7363476 1.0277988
0.9413899 1.2216464 0.87924236 0.8723541 0.67303944 0.7920306 0.8470784 0.96376747
1.025204 1.0002594 1.0182014 1.1568794 0.8865003 0.9130304 0.8290929 1.1292967
0.52797645 0.7729445 1.0370665 0.8272985 0.62231857 0.94644874 0.828947 0.82449853
0.7671694 0.84289277 0.89552146 0.4650994 0.7653067 0.7483673 0.86017895 0.8391235
0.8676706 0.819449 1.2314118 1.1109266 0.57701004 0.84874916 0.79578406 0.92687017
0.9983347 0.5382163 0.87415785 0.7091828 0.6800101 0.83231765 0.8039441 0.91820806
0.80536705 0.78899294 0.8415145 1.0682309 0.75273013 0.8759577 0.86622596 0.76146054
1.0198865 0.80546236 0.8626529 0.9729207 0.57725626 0.68974125 0.7829634 0.849943
0.8276657 0.83370453 1.199562 0.67861557 0.8050518 0.99300545 1.2285331 0.94231033
0.7910299 0.8420207 0.92415494 1.1655462 0.8349034 0.8250303 0.53758967 1.2020533
0.77611005 0.7191591 0.8733504 0.9874975 0.7303315 0.9566727 0.72238374 0.8422506
0.8156951 0.88026196 1.2268993 0.73056597 0.78376544 0.74527895 0.81110436 1.2811117
1.0342476 0.88776106 1.1286252 0.98632485 0.68266386 1.1801062 0.99544674 0.8680071
0.9142145 0.8649901 0.9041095 0.70996314 0.8541764 0.88953763 0.8216206 0.65881944
0.91328514 0.6715713 0.92333907 1.2544272 0.8690917 0.6172636 0.7369178 0.9425225
1.0230768 0.79821265 0.71114457 0.96458775 0.84211695 0.63888776 0.8164472 0.6838324
0.78913474 0.8428435 0.6806202 0.9545287 0.9271271 0.7889639 0.7040917 0.7054038
0.7031289 0.70106566 0.66956407 0.9083124 0.6928404 0.53520286 0.73841774 0.8232618
0.7891078 0.7561842 1.0154313 1.077886 0.87622696 1.1853276 0.9710068 0.8748552
0.77953464 1.0153215 1.1833044 0.7798425 0.6851068 0.6527721 0.64737475 0.75968057
0.626525 1.096485 0.79837424 0.88422024 0.7608496 0.6674737 0.7435487 0.7615351
0.8117343 1.0810109 0.92659926 0.7708294 0.67275804 0.733296 0.7409561 1.172142
0.7525499 0.8527478 0.4614429 0.60127777 1.1050005 1.0419546 1.1551358 1.0159268
0.8236308 1.0121889 0.87917006 1.0342729 0.8790324 0.87749934 1.0097845 0.9770255
0.8205537 0.75460845 0.9551335 0.9094525 0.841465 0.71598643 0.96891725 1.0481663
0.83229107 0.83022404 0.6337564 0.9434306 0.8391168 0.9945952 0.8943287 0.8556546
00000000: 4ba4 533f 45c6 843f f225 713f 05d3 583f
00000010: a58d 683f 089c 7c3f 15bd 3b3f f838 4e3f
00000020: 49fd 643f 0eea 2b3f f523 4f3f d160 2f3f
00000030: b3df 453f b357 563f 86d4 363f 1f0f 183f
00000040: e9e0 333f 5d01 5a3f c904 503f b8e9 493f
00000050: 1746 673f 5414 5e3f 83aa 453f 955c 983f
00000060: 3928 663f c7b9 583f c88f 813f ad07 503f
00000070: 41d7 803f 7599 363f c315 173f 4ed5 393f
00000080: f85f 533f a5af 813f 605a 423f d7e9 5f3f
00000090: a0d9 593f 2643 3a3f cd39 323f b525 0e3f
000000a0: 5e91 5b3f 6bbf 8a3f b994 663f 1e21 593f
000000b0: 8145 693f 5abf 583f 4781 3c3f e98e 833f
000000c0: eefe 703f e95e 9c3f 0716 613f 9952 5f3f
000000d0: 504c 2c3f 84c2 4a3f 21da 583f 77b9 763f
000000e0: e239 833f 8008 803f 6c54 823f a014 943f
000000f0: aff1 623f 5cbc 693f 6f3f 543f cb8c 903f
00000100: 7729 073f b1df 453f 98be 843f d6c9 533f
00000110: 4550 1f3f 774a 723f df35 543f 5612 533f
00000120: 3765 443f d2c7 573f e540 653f 8221 ee3e
00000130: 24eb 433f 0095 3f3f b034 5c3f ccd0 563f
00000140: a91f 5e3f 69c7 513f e79e 9d3f d832 8e3f
00000150: eeb6 133f a047 593f 81b8 4b3f 5d47 6d3f
00000160: dd92 7f3f 8bc8 093f cfc8 5f3f 018d 353f
00000170: 2415 2e3f c512 553f 48cf 4d3f af0f 6b3f
00000180: 892c 4e3f 71fb 493f 7f6d 573f cabb 883f
00000190: ecb2 403f c43e 603f fcc0 5d3f 14ef 423f
000001a0: a48b 823f c832 4e3f d2d6 5c3f 5511 793f
000001b0: 11c7 133f e292 303f 4a70 483f dd95 593f
000001c0: e6e1 533f a96d 553f 3f8b 993f c0b9 2d3f
000001d0: e017 4e3f 9b35 7e3f 9340 9d3f 403b 713f
000001e0: ef80 4a3f ab8e 573f 6b95 6c3f 9e30 953f
000001f0: 3bbc 553f 3035 533f 7a9f 093f e2dc 993f
00000200: 26af 463f d01a 383f e493 5f3f a3cc 7c3f
00000210: 01f7 3a3f 81e8 743f 24ee 383f bc9d 573f
00000220: 65d1 503f d958 613f 090b 9d3f 5f06 3b3f
00000230: daa4 483f 9aca 3e3f 89a4 4f3f 78fb a33f
00000240: 3a62 843f 4f44 633f ca76 903f c97f 7c3f
00000250: 0fc3 2e3f b80d 973f 99d5 7e3f b735 5e3f
00000260: f609 6a3f fe6f 5d3f b873 673f 25c0 353f
00000270: 4eab 5a3f bdb8 633f ba55 523f 64a8 283f
00000280: 0ecd 693f 19ec 2b3f f35f 6c3f 1291 a03f
00000290: cb7c 5e3f fd04 1e3f a5a6 3c3f 2849 713f
000002a0: 2ef4 823f aa57 4c3f 920d 363f 39ef 763f
000002b0: fa94 573f 268e 233f af02 513f a40f 2f3f
000002c0: bc04 4a3f 97c4 573f 203d 2e3f fe5b 743f
000002d0: 3458 6d3f 8af9 493f 5b3f 343f 5895 343f
000002e0: 4100 343f 0a79 333f 8d68 2b3f 2987 683f
000002f0: fd5d 313f 0e03 093f f208 3d3f 49c1 523f
00000300: f802 4a3f 4a95 413f a7f9 813f 2bf8 893f
00000310: 6950 603f d1b8 973f e793 783f 83f6 5f3f
00000320: 958f 473f 0ef6 813f 8576 973f c2a3 473f
00000330: 2963 2f3f 131c 273f 5aba 253f 6d7a 423f
00000340: f163 203f 9f59 8c3f 4162 4c3f 425c 623f
00000350: 0ac7 423f 8edf 2a3f 3559 3e3f f7f3 423f
00000360: d2cd 4f3f 915e 8a3f 9c35 6d3f 1355 453f
00000370: df39 2c3f 49b9 3b3f 4daf 3d3f c008 963f
00000380: 1ca7 403f ae4d 5a3f 3e42 ec3e 57ed 193f
00000390: a870 8d3f c55e 853f 7ddb 933f e409 823f
000003a0: 78d9 523f 688f 813f 4a11 613f 0e63 843f
000003b0: 4408 613f cca3 603f 9e40 813f 581e 7a3f
000003c0: cf0f 523f 052e 413f a183 743f e1d1 683f
000003d0: 406a 573f e34a 373f f60a 783f 502a 863f
000003e0: 0711 553f 9089 543f dc3d 223f ab84 713f
000003f0: 5cd0 563f cb9d 7e3f baf2 643f 2e0c 5b3f

net.1.bias f4 [256]
-0.77053505 -0.44476345 -0.3011673 0.10324919 0.1407426 -0.4710906 -0.24971029 -0.74277896
-0.36175698 -0.30801085 -0.47607413 -0.36689305 -0.24341601 0.11963981 -0.41272807 -0.18138249
-0.30258688 -0.3659654 -0.41646218 -0.60685295 0.011401116 -0.49133736 -0.23795363 -0.30729094
-0.5419618 -0.45853236 -0.553224 -0.060639337 0.13952355 -0.33502352 -0.42177948 -0.29459712
-0.41756707 -0.26459906 0.119260624 -0.46875873 -0.38333908 -0.36085647 -0.3942163 -0.17314717
-0.3787929 -0.27066845 -0.50697684 -0.46358305 -0.4362856 0.12561311 -0.3159636 -0.92408085
-0.4823052 -0.34571937 0.122251384 -0.6359082 -0.28993297 0.12762302 0.0006633138 0.124054305
-0.36914924 -0.45942584 -0.64803815 -0.38072398 0.12652013 -0.50351435 0.113825925 -0.48475403
-0.19658862 -0.48362342 -0.37960622 0.10841476 -0.070850715 -0.5931262 -0.078627154 -0.64677745
0.034228094 0.093530044 -0.4950095 -0.24215631 -0.33886582 0.0972498 -0.49353167 -0.39448214
-0.5221907 0.026876831 -0.31983808 -0.3230991 -0.22579741 -0.3487875 -0.082605116 0.113905855
-0.5014461 -0.15219367 -0.55908704 -0.3457698 -0.36435094 -0.3410707 -0.5204138 -0.19735803
-0.23944987 -0.48459387 -0.3524162 -0.43958285 -0.29520085 -0.40814754 0.14966322 0.1297508
0.05426649 -0.33475572 0.1099537 -0.14423838 -0.10722452 -0.37727705 -0.2566749 -0.31909558
-0.23397408 -0.40106037 -0.5486814 -0.36087874 -0.29750305 -0.20885287 -0.31849587 -0.33143008
-0.25943142 -0.3246212 -0.17560355 -0.48771763 0.12619376 -0.6111001 -0.265121 -0.6003739
-0.09665313 -0.2920934 -0.5258404 0.035209533 -0.18448901 -0.41467422 -0.43886882 -0.5707201
-0.10460685 -0.52659273 -0.5793723 -0.3469295 -0.34694394 0.09161057 -0.24932685 -0.7031727
-0.5874437 -0.23882909 -0.3324388 -0.25726953 -0.29279158 -0.36609617 -0.7089929 -0.44450608
0.1321699 -0.32874376 0.12686439 -0.31677333 -0.5459012 -0.42727512 -0.40965024 -0.10887907
-0.38023508 -0.29450974 -0.5322217 -0.67770314 -0.66503996 -0.43210736 -0.22297874 -0.45832753
-0.46665263 -0.33654377 -0.2318092 0.117980786 0.08519599 -0.19401237 -0.5119686 -0.40125847
-0.46374175 -0.41149002 -0.046427317 -0.35229522 -0.42371368 -0.36210203 -0.3060338 -0.22596379
-0.17351617 -0.31884065 -0.40306953 -0.44294807 0.06530952 -0.4189025 0.1100324 0.11757108
-0.3624572 -0.30524614 -0.010334725 -0.4771196 -0.68962914 -0.59831446 -0.34620994 -0.16185266
-0.40777776 -0.27222282 -0.41435957 -0.52244276 -0.045766395 -0.18136519 -0.36022186 -0.23601286
-0.2905307 -0.4453775 -0.15157849 -0.6195199 -0.45012736 -0.21465357 -0.40185228 -0.43432027
-0.46678793 -0.6213488 0.12668017 -0.33606613 -0.18510649 -0.28377366 -0.27413058 -0.33143532
-0.3080026 0.10899433 -0.12098422 -0.23591982 -0.3659677 -0.44844145 -0.38090917 -0.4968823
0.12003435 -0.59996235 -0.2727685 -0.35204253 0.011877529 -0.5161703 -0.4097911 0.14513665
-0.43807775 0.13872507 -0.70412934 -0.4389618 0.12482411 -0.40125176 -0.49867913 -0.44479877
-0.52066225 -0.41396526 -0.47884414 -0.556808 -0.76881623 0.022164902 -0.57004267 -0.016008584
00000000: c941 45bf 09b8 e3be 9a32 9abe 5074 d33d
00000010: d41e 103e ca32 f1be 0eb4 7fbe c326 3ebf
00000020: 3638 b9be 99b3 9dbe fdbf f3be 68d9 bbbe
00000030: 0c42 79be b705 f53d 1851 d3be 55bc 39be
00000040: abec 9abe d15f bbbe 883a d5be b75a 1bbf
00000050: bfcb 3a3c 9290 fbbe 1eaa 73be 3d55 9dbe
00000060: 02be 0abf c1c4 eabe 17a0 0dbf f460 78bd
00000070: 43df 0e3e 3488 abbe 7bf3 d7be 6fd5 96be
00000080: 5acb d5be 8779 87be ea3e f43d 2501 f0be
00000090: 0545 c4be 2ec2 b8be b8d6 c9be 7e4d 31be
000000a0: 25f1 c1be 0e95 8abe 3cc9 01bf c25a edbe
000000b0: d360 dfbe b9a0 003e fbc5 a1be 9090 6cbf
000000c0: b5f0 f6be 2102 b1be ef5e fa3d e1ca 22bf
000000d0: 1872 94be 9caf 023e 3ce2 2d3a 2f10 fe3d
000000e0: 2101 bdbe dd39 ebbe d4e5 25bf 41ee c2be
000000f0: 7e8e 013e 51e6 00bf 911d e93d ae31 f8be
00000100: 874e 49be 7d9d f7be bf5b c2be 8f08 de3d
00000110: 2e1a 91bd 1ed7 17bf 4607 a1bd 3593 25bf
00000120: c232 0c3d ae8c bf3d e371 fdbe d3f7 77be
00000130: d27f adbe e72a c73d 2fb0 fcbe 90f9 c9be
00000140: 4aae 05bf cd2c dc3c d1c1 a3be 3f6d a5be
00000150: 7037 67be 4694 b2be df2c a9bd 7947 e93d
00000160: c65e 00bf a8d8 1bbe 5420 0fbf bd08 b1be
00000170: 358c babe d2a0 aebe d739 05bf 3918 4abe
00000180: 5932 75be b01c f8be e56f b4be 0111 e1be
00000190: 9124 97be b7f8 d0be 5141 193e 65dd 043e
000001a0: 8a46 5e3d 1a65 abbe 682f e13d 3ab3 13be
000001b0: 8798 dbbd 752a c1be e46a 83be 7f60 a3be
000001c0: e796 6fbe c957 cdbe 6276 0cbf 19c5 b8be
000001d0: 5252 98be 87dd 55be e411 a3be 34b1 a9be
000001e0: 32d4 84be c034 a6be 6bd1 33be 20b6 f9be
000001f0: f038 013e 0e71 1cbf f1bd 87be 1bb2 19bf
00000200: 14f2 c5bd 448d 95be 7a9d 06bf df37 103d
00000210: b0ea 3cbe 2e50 d4be 6ab3 e0be b61a 12bf
00000220: 1e3c d6bd c8ce 06bf be51 14bf bea0 b1be
00000230: a3a2 b1be 539e bb3d 8a4f 7fbe 2003 34bf
00000240: b662 16bf 9d8f 74be 6b35 aabe d5b8 83be
00000250: c7e8 95be f570 bbbe 8f80 35bf 4d96 e3be
00000260: 8c57 073e 1a51 a8be bde8 013e 1d30 a2be
00000270: 2ec0 0bbf cec3 dabe adbd d1be fdfb debd
00000280: 2cae c2be fbc9 96be ae3f 08bf f47d 2dbf
00000290: 0f40 2abf 2d3d ddbe 8a54 64be e8a9 eabe
000002a0: 18ed eebe 774f acbe 645f 6dbe e99f f13d
000002b0: 3c7b ae3d 2eab 46be 6010 03bf c071 cdbe
000002c0: 8f6f edbe d2ae d2be 922a 3ebd 0a60 b4be
000002d0: 00f1 d8be 7065 b9be 76b0 9cbe 0d63 67be
000002e0: 39ae 31be 153f a3be 215f cebe 17ca e2be
000002f0: ffc0 853d 637a d6be ab58 e13d 1bc9 f03d
00000300: fd93 b9be 3949 9cbe fa52 29bc 0549 f4be
00000310: 898b 30bf 232b 19bf 6e42 b1be b4bc 25be
00000320: 3fc8 d0be ca60 8bbe f026 d4be cfbe 05bf
00000330: 8b75 3bbd ccb7 39be 006f b8be 5bad 71be
00000340: 71c0 94be 8508 e4be 6437 1bbe db98 1ebf
00000350: 1877 e6be 25ce 5bbe 95bf cdbe 3a5f debe
00000360: d4fe eebe b710 1fbf 72b8 013e dc10 acbe
00000370: 8e8c 3dbe c84a 91be d85a 8cbe e4b1 a9be
00000380: 84b2 9dbe 6b38 df3d 93c6 f7bd f794 71be
00000390: 1e60 bbbe 1e9a e5be 8706 c3be 5b67 febe
000003a0: 92d4 f53d 2297 19bf 50a8 8bbe eb3e b4be
000003b0: f899 423c bd23 04bf 24d0 d1be b49e 143e
000003c0: ba4b e0be f20d 0e3e d241 34bf 9abf e0be
000003d0: c8a3 ff3d df70 cdbe df52 ffbe aabc e3be
000003e0: 1f4a 05bf 41f3 d3be 0f2b f5be f88a 0ebf
000003f0: 24d1 44bf 2b93 b53c 51ee 11bf 6f24 83bc

net.1.running_mean f4 [256]
-0.0076736715 -0.06685107 0.061163284 0.01294189 0.06611332 -0.06272953 0.103585556 -0.098443344
-0.023767723 -0.07327776 -0.04000491 -0.0056500514 -0.024467157 -0.035041258 -0.03146532 -0.039375298
0.06273925 0.072523765 0.09898442 0.09207553 0.07839677 0.11713393 0.12334502 -0.04392756
-0.05051032 -0.008291749 -0.0015192513 0.08421 -0.044490915 -0.079451114 0.109948315 0.037860315
0.091288865 -0.046013214 -0.004770465 -0.015832003 -0.0881584 -0.05934685 -0.046078272 0.075761616
0.025202075 0.026185209 0.03554361 -0.01023063 -0.044087317 0.07750909 0.10751479 -0.10375177
0.005454769 -0.0019492434 -0.13009354 -0.08699379 -0.008124278 -0.08844771 -0.095478356 -0.10835906
0.010087631 0.16089989 -0.09477216 -0.03460811 0.047221214 0.09055517 -0.07439811 -0.11995797
0.054179978 -0.03690823 0.032603778 -0.02416251 -0.04346186 -0.007917591 -0.11547494 -0.08676263
-0.0043068975 -0.050040998 0.062048636 -0.07935875 0.024299512 -0.044879194 0.0056168665 0.1073666
-0.06666857 0.055601113 0.09648039 0.050867476 0.007736444 0.13776949 0.038123567 -0.08334198
0.13539399 0.051558543 -0.05178071 -0.089699656 0.064914905 -0.030131228 0.05951277 -0.044954915
-0.048485324 -0.005670403 0.033178773 -0.038039032 0.10118992 -0.07280077 0.12642847 0.06260443
-0.0985728 -0.13966459 -0.05761099 0.039483663 0.018001445 0.12472812 0.044875775 -0.054292087
-0.07892722 -0.09077125 0.061095055 -0.03139957 -0.009580749 -0.060632914 0.030316485 0.013501906
0.10045981 0.08733411 0.060317695 0.07535353 -0.095218636 -0.00894278 7.9216494e-05 -0.0029513866
-0.10608604 -0.029974809 -0.0071083377 -0.05676969 -0.07806425 0.01630242 -0.07103039 0.09510483
-0.08118792 -0.13062485 -0.017477315 -0.042135563 -0.012554751 0.012206332 -0.087551 0.015297098
0.094843276 0.055082235 -0.07816693 -0.020273091 -0.06382931 -0.080802776 0.1114079 -0.10402028
-0.14413343 -0.03138023 0.124513716 0.06785936 0.0051808422 -0.018197535 -0.018400142 -0.10785594
0.01780234 -0.104004994 -0.050779946 0.012921685 -0.06496199 0.07164142 -0.054417346 -0.05330883
0.116500005 -0.076389275 0.021982512 -0.07393789 -0.021253817 0.046512052 0.03482113 -0.09778329
-0.092941575 0.10278695 -0.07313369 -0.07104367 -0.04591324 -0.08294229 0.12307715 0.07174184
-0.090220295 0.11899036 -0.08622281 0.078612365 0.031530548 0.047201637 0.09214636 -0.12622859
0.0020131702 -0.07329196 -0.090096146 0.03392075 -0.062059034 -0.04519315 0.052342102 -0.0003552209
-0.05182468 0.13342115 -0.042467516 -0.031628165 -0.11317716 0.016822154 -0.092063524 -0.004886564
-0.026709363 -0.05093151 0.14932586 -0.057326645 0.05443742 -0.108442485 0.0068141366 0.09336087
0.07701162 0.09716976 -0.09508365 0.07248583 -0.048817955 0.10160468 0.12136107 0.07833316
0.005351719 -0.05103774 0.0017416924 0.012149788 0.16073547 0.035580117 -0.09610505 0.031642135
0.046720285 0.09198591 -0.014143975 -0.047619216 -0.028722972 -0.110484235 0.0833035 0.077972956
-0.0050115846 -0.059125353 -0.039319016 0.06020621 -0.06149097 0.031065919 -0.031911496 -0.058176022
0.043823235 0.0750526 -0.10397334 0.045103062 0.10916692 -0.06792977 0.05970952 -0.017382534
00000000: 6c73 fbbb 37e9 88bd 5a86 7a3d 390a 543c
00000010: 6c66 873d 5778 80bd aa24 d43d aa9c c9bd
00000020: 87b4 c2bc a612 96bd 30dc 23bd 1124 b9bb
00000030: 596f c8bc 6c87 0fbd c8e1 00bd fe47 21bd
00000040: 707d 803d 5787 943d 58b8 ca3d 1892 bc3d
00000050: 7c8e a03d eae3 ef3d 509c fc3d 63ed 33bd
00000060: e9e3 4ebd 1eda 07bc 9d21 c7ba 4b76 ac3d
00000070: 1b3c 36bd 44b7 a2bd 952c e13d 6b13 1b3d
00000080: a8f5 ba3d 5a78 3cbd 9051 9cbb 1eb2 81bc
00000090: 648c b4bd af15 73bd 92bc 3cbd e828 9b3d
000000a0: 9574 ce3c 5d82 d63c 2d96 113d 5f9e 27bc
000000b0: e794 34bd 16bd 9e3d b730 dc3d cf7b d4bd
000000c0: ebbd b23b c17d ffba 3e37 05be cd29 b2bd
000000d0: b11b 05bc 1324 b5bd 288a c3bd 5beb ddbd
000000e0: 9746 253c f1c2 243e e817 c2bd 3cc1 0dbd
000000f0: 086b 413d fd74 b93d 095e 98bd 86ac f5bd
00000100: d3eb 5d3d 162d 17bd 8a8b 053d 75f0 c5bc
00000110: 1005 32bd c9b8 01bc 207e ecbd 9bb0 b1bd
00000120: e020 8dbb caf7 4cbd b626 7e3d d786 a2bd
00000130: c50f c73c 3fd3 37bd b10d b83b 05e3 db3d
00000140: 8889 88bd febd 633d 8397 c53d 6a5a 503d
00000150: ff81 fd3b 7213 0d3e 7527 1c3d 33af aabd
00000160: b9a4 0a3e 0d2f 533d 0318 54bd 74b4 b7bd
00000170: 1bf2 843d c4d5 f6bc aac3 733d a522 38bd
00000180: 8c98 46bd cace b9bb 77e6 073d d1ce 1bbd
00000190: a93c cf3d 9218 95bd 7776 013e c036 803d
000001a0: 89e0 c9bd 3c04 0fbe 80f9 6bbd 9fb9 213d
000001b0: c477 933c 7571 ff3d a9cf 373d 6161 5ebd
000001c0: 98a4 a1bd 47e6 b9bd cf3e 7a3d d69c 00bd
000001d0: 93f8 1cbc 385a 78bd 475a f83c 1937 5d3c
000001e0: dfbd cd3d 3adc b23d b00f 773d f452 9a3d
000001f0: fd01 c3bd bd84 12bc 0821 a638 0d6c 41bb
00000200: a343 d9bd bb8d f5bc 0fed e8bb 5687 68bd
00000210: 26e0 9fbd a78c 853c 6278 91bd 52c6 c23d
00000220: da45 a6bd 85c2 05be 962c 8fbc 5796 2cbd
00000230: 71b2 4dbc 11fd 473c f04d b3bd aea0 7a3c
00000240: 313d c23d e99d 613d fc15 a0bd c113 a6bc
00000250: f1b8 82bd ed7b a5bd d329 e43d 9608 d5bd
00000260: b797 13be 8e88 00bd 0c01 ff3d d9f9 8a3d
00000270: 0ec4 a93b ff12 95bc e5bb 96bc 93e3 dcbd
00000280: 37d6 913c 9200 d5bd a2fe 4fbd 7ab5 533c
00000290: cb0a 85bd bdb8 923d b9e4 5ebd 5c5a 5abd
000002a0: 8e97 ee3d fb71 9cbd ab14 b43c c06c 97bd
000002b0: 7c1c aebc 6c83 3e3d 9aa0 0e3d 9b42 c8bd
000002c0: 2758 bebd f781 d23d 1ec7 95bd 587f 91bd
000002d0: 860f 3cbd a6dd a9bd df0f fc3d 63ed 923d
000002e0: 6bc5 b8bd 38b1 f33d 9695 b0bd 85ff a03d
000002f0: 2d26 013d 8156 413d 3bb7 bc3d 1142 01be
00000300: 64ef 033b 181a 96bd 5484 b8bd 7cf0 0a3d
00000310: 9d31 7ebd 741c 39bd ac64 563d f13c bab9
00000320: 1e46 54bd 8e9f 083e 6bf2 2dbd 898c 01bd
00000330: 6dc9 e7bd 9dce 893c cd8b bcbd 781f a0bb
00000340: 98cd dabc 8f9d 50bd e1e8 183e 58cf 6abd
00000350: c6f9 5e3d 1817 debd 1f49 df3b fc33 bf3d
00000360: 45b8 9d3d f000 c73d 37bb c2bd 7373 943d
00000370: 56f5 47bd 1d16 d03d 278c f83d 236d a03d
00000380: 795d af3b f30c 51bd 8049 e43a e80f 473c
00000390: d797 243e 75bc 113d b9d2 c4bd 2f9b 013d
000003a0: c55d 3f3d 1c63 bc3d 22bc 67bc 5e0c 43bd
000003b0: 704c ebbc 8f45 e2bd 079b aa3d 49b0 9f3d
000003c0: 3838 a4bb 6d2d 72bd fa0c 21bd c99a 763d
000003d0: f5dd 7bbd f47d fe3c a1b5 02bd fb49 6ebd
000003e0: fe7f 333d 2db5 993d f9ef d4bd fdbd 383d
000003f0: e892 df3d c31e 8bbd f891 743d d165 8ebc

net.1.running_var f4 [256]
2.119498 1.5623535 3.5114503 12.873793 16.60143 2.4114926 2.3059096 2.6124175
2.5364077 2.1626093 1.9785627 1.6786237 5.4539466 13.359271 3.091431 1.1555996
2.3921425 2.6887078 1.2351805 1.7943839 10.488281 1.5525992 3.5429337 8.11209
1.3507735 1.9793139 3.3391635 3.4334743 20.574387 2.4689786 2.297449 3.6329658
3.1735559 2.0254722 12.726908 1.705916 2.2008328 1.7906138 2.0922303 3.7555342
3.0097516 8.883704 3.0451179 11.389702 1.7911226 14.865202 1.0434345 3.1686313
2.859849 6.5702343 15.708417 2.9556994 1.7605174 14.091453 10.579672 18.097855
2.7491388 1.7353876 1.4239111 4.3410974 15.824594 1.560566 8.142196 5.239333
2.0089219 3.2118242 1.4025809 13.052472 4.1523895 2.8043213 3.2905788 1.5951233
7.339707 9.449315 1.8184204 1.7557107 1.7753887 13.049405 1.6223123 2.7838628
1.8408937 4.2662277 7.559662 6.5361257 2.1007998 1.8894213 3.563491 16.730797
4.0249534 4.557756 1.5009817 1.1124905 2.7031887 2.8626587 1.8247458 1.9583837
1.0238136 1.5940554 3.5781212 1.9738791 1.5564202 1.6927387 14.606473 10.896002
12.172724 3.9988341 16.46235 3.6893075 1.5825962 1.5671141 0.9820724 7.2235165
2.0040028 4.304908 5.4593434 2.1032703 2.3723829 6.227004 6.907391 3.819704
9.217813 5.0756593 1.2092996 0.9668492 18.258007 1.8080192 1.9473007 4.848509
1.3029908 2.3564103 2.206553 16.423738 1.9978309 2.2514763 2.3277142 2.9768636
3.1915119 6.4758935 6.1141496 2.0337486 1.3942299 12.181654 6.195367 6.9615426
1.5382819 1.8191215 2.7879128 4.510321 1.8863951 4.4501443 1.3811523 2.3959932
17.972666 4.1377234 14.684926 3.0290184 8.761683 5.7799034 1.7761916 2.7001555
3.574028 1.8571566 3.6180618 6.4371676 2.5315337 1.9479709 1.9713763 1.1060562
2.6307137 4.9333773 1.9158266 16.846605 7.328937 2.3955336 2.1630583 1.3225743
1.8819956 1.73304 1.5635036 2.8630238 1.7004294 1.9624813 2.328197 3.0956037
1.2192117 1.8804566 2.1757972 8.0269165 5.2644114 4.796305 7.1620264 15.900542
0.9929513 1.862603 10.229656 1.9455259 3.514944 5.5483446 3.5287142 4.2160745
5.5499015 6.0019665 3.3594775 1.372866 3.808171 2.4210064 1.3372302 2.621749
2.3637586 1.4338577 1.5940672 9.6984 1.6210121 2.4303758 1.633742 2.0514083
2.3054538 4.92098 17.581434 3.7935095 3.8243115 1.3691782 3.4850335 6.2301593
1.7656149 17.967352 2.0229015 4.62401 4.737575 10.828616 0.82297003 5.846443
10.537486 3.868166 3.6132252 1.482033 8.7466345 1.6180098 2.2826097 18.04745
2.2643647 7.023392 3.0058572 4.0464835 18.478336 2.4524946 10.025489 3.5225987
2.999179 1.4852436 3.5904756 2.8374698 1.962264 15.598694 1.5123322 4.7327976
00000000: dba5 0740 33fb c73f 9abb 6040 0efb 4d41
00000010: bbcf 8441 e555 1a40 0694 1340 d931 2740
00000020: 8154 2240 3168 0a40 8b41 fd3f 24dd d63f
00000030: bb86 ae40 93bf 5541 01da 4540 b0ea 933f
00000040: dd18 1940 ca13 2c40 651a 9e3f 5fae e53f
00000050: 00d0 2741 92bb c63f 6dbf 6240 1fcb 0141
00000060: 25e6 ac3f 285a fd3f dbb4 5540 0bbe 5b40
00000070: 5898 a441 bf03 1e40 6809 1340 8382 6840
00000080: 8a1b 4b40 56a1 0140 6aa1 4b41 755b da3f
00000090: 72da 0c40 d532 e53f 1ae7 0540 ac5a 7040
000000a0: c59f 4040 a723 0e41 36e3 4240 383c 3641
000000b0: 8143 e53f ded7 6d41 438f 853f dbca 4a40
000000c0: c407 3740 5c3f d240 ad55 7b41 2e2a 3d40
000000d0: a258 e13f 9776 6141 5646 2941 68c8 9041
000000e0: e4f1 2f40 2e21 de3f b842 b63f 45ea 8a40
000000f0: 8931 7d41 a0c0 c73f 6f46 0241 9ea8 a740
00000100: 2d92 0040 878e 4d40 c587 b33f edd6 5041
00000110: 60e0 8440 007a 3340 d898 5240 002d cc3f
00000120: e1de ea40 6530 1741 00c2 e83f 21bb e03f
00000130: f03f e33f 5dca 5041 eea7 cf3f cf2a 3240
00000140: 68a2 eb3f f084 8840 c0e8 f140 f127 d140
00000150: 8173 0640 8fd8 f13f 3d10 6440 acd8 8541
00000160: 6bcc 8040 23d9 9140 2b20 c03f 1766 8e3f
00000170: 0b01 2d40 cd35 3740 4591 e93f 51ac fa3f
00000180: 530c 833f 020a cc3f f0ff 6440 12a8 fc3f
00000190: c738 c73f a9ab d83f 1db4 6941 0656 2e41
000001a0: 7ac3 4241 e6ec 7f40 e5b2 8341 9d1d 6c40
000001b0: 8392 ca3f 3297 c83f 1969 7b3f 0c27 e740
000001c0: 9541 0040 cec1 8940 f1b2 ae40 fb9b 0640
000001d0: 1fd5 1740 9e43 c740 5909 dd40 0876 7440
000001e0: 297c 1341 cd6b a240 54ca 9a3f 6e83 773f
000001f0: 6610 9241 2c6d e73f 2641 f93f fc26 9b40
00000200: 67c8 a63f 6dcf 1640 2a38 0d40 d163 8341
00000210: ecb8 ff3f 3018 1040 45f9 1440 ef84 3e40
00000220: bb41 4c40 853a cf40 1da7 c340 f028 0240
00000230: 2076 b23f 0ee8 4241 7240 c640 f5c4 de40
00000240: 6ce6 c43f f9d8 e83f 2a6d 3240 8d54 9040
00000250: 6575 f13f 9567 8e40 99c9 b03f f457 1940
00000260: 05c8 8f41 3b68 8440 75f5 6a41 70db 4140
00000270: db2f 0c41 f8f4 b840 3f5a e33f 59cf 2c40
00000280: e0bc 6440 4fb7 ed3f 538e 6740 47fd cd40
00000290: a604 2240 1c57 f93f 0f56 fc3f 4093 8d3f
000002a0: 9d5d 2840 3ade 9d40 ce39 f53f d9c5 8641
000002b0: a786 ea40 6c50 1940 8c6f 0a40 1d4a a93f
000002c0: 3be5 f03f 41d4 dd3f e320 c83f c83b 3740
000002d0: aca7 d93f 9632 fb3f 2e01 1540 5f1e 4640
000002e0: 210f 9c3f cdb2 f03f 4340 0b40 406e 0041
000002f0: 0f76 a840 557b 9940 522f e540 9f68 7e41
00000300: 0e32 7e3f c669 ee3f acac 2341 fe06 f93f
00000310: d8f4 6040 0a8c b140 74d6 6140 15ea 8640
00000320: cb98 b140 1c10 c040 ae01 5740 13ba af3f
00000330: 13b9 7340 c5f1 1a40 5c2a ab3f bcca 2740
00000340: d247 1740 a688 b73f 650a cc3f a52c 1b41
00000350: 537d cf3f 478b 1b40 751e d13f 464a 0340
00000360: 8e8c 1340 ab78 9d40 c7a6 8c41 dcc8 7240
00000370: 85c1 7440 3b41 af3f ca0a 5f40 775d c740
00000380: abff e13f 23bd 8f41 3877 0140 e4f7 9340
00000390: 379a 9740 0342 2d41 2aae 523f 1016 bb40
000003a0: 8b99 2841 0890 7740 153f 6740 42b3 bd3f
000003b0: 37f2 0b41 f21a cf3f 4716 1240 2d61 9041
000003c0: 5aeb 1040 a1bf e040 f75f 4040 cb7c 8140
000003d0: a2d3 9341 acf5 1c40 6768 2041 4272 6140
000003e0: 8cf2 3f40 761c be3f 5aca 6540 1b99 3540
000003f0: 772b fb3f 4094 7941 1a94 c13f 1473 9740

net.4.weight f4 [128, 256]
-0.0120662255 -0.03384635 -0.050079618 -0.26200157 -0.25633308 -0.26199174 0.015210226 0.114058994
-0.034013975 -0.07846415 -0.044003 -0.02098829 0.02677054 0.02501544 -0.017375976 0.0367187
0.0033248286 -0.0070225936 0.03579751 -0.024714852 0.1314913 -0.015855165 -0.065691836 0.43247142
0.020664372 -0.013703049 0.041281655 -0.18892978 0.06330781 0.05749904 0.07786823 -0.067834616
0.10215306 0.031907253 -0.3486526 -0.08055591 0.04022517 0.10914229 0.11682887 0.07745976
-0.06200871 -0.014529645 -0.057232086 0.072978735 0.017881464 0.06318046 -0.004029414 0.14715026
0.16471842 0.47736523 0.011566273 -0.01909726 -0.008599761 -0.32260954 0.12586646 0.052683044
-0.023259293 -0.036268134 0.01501933 0.27758896 -0.28743088 0.01831108 -0.2488153 -0.5173788
0.068218775 0.0016839101 0.010311253 -0.0004473709 -0.05573491 0.06255332 -0.25183976 0.0700199
-0.37917155 -0.3458734 0.100028194 0.07002113 -0.0022792248 0.060887445 -0.02222683 0.017903049
-0.034318723 -0.18871985 0.4954289 0.09651655 -0.03253358 -0.02983737 0.08909866 -0.2965264
-0.042453874 -0.019333037 -0.014849341 0.011832349 -0.033474814 0.0012805335 -0.011068769 0.007215806
0.011323342 0.07762078 0.053308785 0.10676903 0.012973064 0.122583464 -0.309829 -0.2882942
-0.22764301 -0.008283449 0.031181108 -0.20145306 -0.019451233 -0.06027048 0.032962337 -0.033957947
-0.13093838 0.027388595 -0.51915836 0.02156018 0.0046923547 0.026678918 0.4418217 -0.07823287
-0.015165214 -0.07826561 -0.11799041 -0.0106884865 0.06466081 0.041140452 -0.03310175 -0.5666228
0.01228674 -0.043017834 -0.06802844 0.053423 0.02963175 -0.003989076 -0.063140154 -0.10093557
-0.09545765 -0.069074094 -0.55272615 -0.091507815 -0.026492404 0.06014405 0.027856521 -0.5472709
-0.038535252 0.0026757917 -0.06461224 0.12502386 -0.028627876 -0.44282195 -0.009576264 0.00945637
0.012650816 0.012524999 -0.32910895 0.0052018175 -0.08521545 -0.004026574 -0.0059324 -0.14855024
-0.033376094 0.03836212 -0.01764999 -0.58595705 -0.07275169 -0.0068100244 0.008107728 0.017878879
-0.12060179 -0.019904016 -0.03025702 -0.29626015 -0.24733466 0.03910715 -0.015517757 0.026546754
-0.053341184 0.00024022644 -0.0749096 0.023111591 0.0028814354 0.0036926686 -0.0043672174 0.10748999
0.006502471 0.017233804 0.07515108 0.0061701667 0.033432484 0.049549248 -0.28797886 -0.31021428
0.012910537 0.012367164 0.046908025 -0.019798664 -0.016637472 -0.58326477 -0.0060380455 0.018056177
-0.08142282 -0.01089973 -0.37354282 -0.000108942106 0.04972477 0.07371979 0.0064199767 -0.025721312
0.070299305 0.09465993 -0.102692865 0.06659275 0.010624004 0.07594015 0.09074997 0.056975413
0.022646565 0.649277 0.040744487 0.0069773085 -0.05382478 0.0927311 0.0014907388 0.38964686
0.060316615 0.03901092 0.016127316 0.039430063 0.3292875 -0.072257526 0.08197793 0.11636277
-0.29585904 0.55897546 0.046261102 0.107053734 0.065693855 -0.0329808 -0.018110288 0.056201167
-0.0014472121 -0.19734357 0.0726082 0.03977511 0.066154405 0.035417452 -0.0012354817 -0.38771862
0.03712405 0.025351426 0.06591856 -0.010099323 0.058350258 -0.35181102 0.044975597 -0.2347447
00000000: 6bb1 45bc 78a2 0abd 4920 4dbd 1225 86be
00000010: 173e 83be c823 86be 5034 793c c397 e93d
00000020: 3d52 0bbd d0b1 a0bd 7d3c 34bd a2ef abbc
00000030: e44d db3c 2eed cc3c 1058 8ebc 5966 163d
00000040: 5ee5 593b c91d e6bb 69a0 123d cd76 cabc
00000050: a8a5 063e b1e2 81bc 7189 86bd e56c dd3e
00000060: 5448 a93c c182 60bc f416 293d cf76 41be
00000070: 86a7 813d 1d84 6b3d 6179 9f3d e0ec 8abd
00000080: a035 d13d 2eb1 023d 9882 b2be 7ffa a4bd
00000090: 26c3 243d fe85 df3d f943 ef3d 39a3 9e3d
000000a0: d8fc 7dbd c00d 6ebc 316c 6abd e075 953d
000000b0: 267c 923c c264 813d 2d09 84bb 8fae 163e
000000c0: f2ab 283e 3769 f43e 7780 3d3c db71 9cbc
000000d0: 03e6 0cbc 142d a5be 23e3 003e 2dca 573d
000000e0: 468a bebc e58d 14bd a313 763c 2420 8e3e
000000f0: 242a 93be 1e01 963c 70c9 7ebe f072 04bf
00000100: 49b6 8b3d a6b6 dc3a 88f0 283c 1b8d eab9
00000110: 4a4a 64bd f41b 803d 24f1 80be 9866 8f3d
00000120: c622 c2be 5116 b1be 95db cc3d 3d67 8f3d
00000130: 0c5f 15bb 1d65 793d 0a15 b6bc 6aa9 923c
00000140: ca91 0cbd c73f 41be dba8 fd3e 78aa c53d
00000150: ee41 05bd 806d f4bc 5c79 b63d 4fd2 97be
00000160: 1de4 2dbd 5160 9ebc a64a 73bc 78dc 413c
00000170: e31c 09bd 93d7 a73a c859 35bc 9172 ec3b
00000180: 8a85 393c a5f7 9e3d 505a 5a3d b9a9 da3d
00000190: f98c 543c 0a0d fb3d e8a1 9ebe 4c9b 93be
000001a0: 401b 69be 4eb7 07bc 866f ff3c b649 4ebe
000001b0: 3158 9fbc 2ede 76bd 8403 073d 7d17 0bbd
000001c0: b614 06be 0c5e e03c 90e7 04bf f99e b03c
000001d0: 53c2 993b bf8d da3c 7436 e23e 8e38 a0bd
000001e0: 8577 78bc b849 a0bd f5a4 f1bd c31e 2fbc
000001f0: e36c 843d e482 283d b395 07bd 310e 11bf
00000200: 534e 493c 7833 30bd 7f52 8bbd 13d2 5a3d
00000210: 49be f23c cbb6 82bb a04f 81bd 4fb7 cebd
00000220: 4d7f c3bd b876 8dbd 767f 0dbf 7368 bbbd
00000230: 9906 d9bc 9b59 763d 5c33 e43c f219 0cbf
00000240: 24d7 1dbd 565c 2f3b 6c53 84bd 4106 003e
00000250: 0285 eabc 8fb9 e2be c3e5 1cbc e4ee 1a3c
00000260: 5e45 4f3c a735 4d3c f880 a8be 0274 aa3b
00000270: 7085 aebd 5af1 83bb 9464 c2bb 8e1d 18be
00000280: 5fb5 08bd 9921 1d3d b696 90bc 4801 16bf
00000290: d7fe 94bd a026 dfbb 47d6 043c ba76 923c
000002a0: 12fe f6bd bf0d a3bc 92dd f7bc 69af 97be
000002b0: 4c45 7dbe d22e 203d 313e 7ebc 9478 d93c
000002c0: 497c 5abd 4be5 7b39 346a 99bd 8554 bd3c
000002d0: 77d6 3c3b b300 723b e01a 8fbb b623 dc3d
000002e0: ae12 d53b e82d 8d3c cfe8 993d 1c2f ca3b
000002f0: 80f0 083d 27f4 4a3d f771 93be 68d4 9ebe
00000300: b886 533c a59f 4a3c a122 403d cf30 a2bc
00000310: 4f4b 88bc d750 15bf ccda c5bb 8cea 933c
00000320: 02c1 a6bd c894 32bc 0141 bfbe d977 e4b8
00000330: 33ac 4b3d 67fa 963d ab5e d23b 80b5 d2bc
00000340: 15f9 8f3d 11dd c13d a350 d2bd c861 883d
00000350: 4d10 2e3c 8286 9b3d 1fdb b93d 0d5f 693d
00000360: 4a85 b93c 0437 263f b1e3 263d e8a1 e43b
00000370: 5f77 5cbd cee9 bd3d e564 c33a cb7f c73e
00000380: 8e0e 773d eac9 1f3d 6f1d 843c 6b81 213d
00000390: 5f98 a83e c1fb 93bd 0ce4 a73d 9b4f ee3d
000003a0: d67a 97be 0419 0f3f 487c 3d3d fd3e db3d
000003b0: 808a 863d e016 07bd 075c 94bc 3233 663d
000003c0: 61b0 bdba 6f14 4abe 9cb3 943d 3aeb 223d
000003d0: f67b 873d e411 113d e3ef a1ba 0e83 c6be
000003e0: 630f 183d cbad cf3c 4f00 873d a177 25bc
000003f0: ae00 6f3d 9320 b4be 5538 383d ea60 70be

net.4.bias f4 [128]
-0.11512114 -0.015242072 -0.018063398 -0.027584238 0.028244078 -0.020533599 0.050038468 0.016787993
-0.09411774 -0.046338372 -0.14061546 -0.060921047 -0.046924327 0.032202356 -0.00162032 -0.0015675892
-0.11728331 0.025792267 -0.04372437 -0.13508321 0.012247328 0.036500916 -0.06418939 0.04767866
-0.041359123 0.025467692 -0.09056379 -0.04679731 -0.104568005 0.05043725 0.043217704 0.020560399
-0.070834674 0.044018976 -0.051612936 -0.061861627 -0.0138520915 0.016116826 0.04449008 -0.012067611
-0.021563882 -0.011031718 -0.061565902 0.0057049547 -0.059476823 -0.05776419 0.02505353 0.05030732
-0.074377164 -0.013821504 -0.05121903 0.0090847695 0.06857452 -0.054834917 0.0074187233 -0.052191507
-0.04613031 -0.01771099 -0.039863776 -0.14745995 -0.019942904 -0.03278458 -0.02133197 0.012381327
0.048302054 -0.058817677 0.0722621 -0.050847676 0.030715656 -0.004733106 -0.020810654 -0.15224633
-0.02398612 -0.014827851 0.035377715 -0.09566608 0.033442937 -0.054593693 0.002336997 -0.012370518
-0.06184527 -0.012117876 0.008386331 0.012635014 0.043505568 0.0038813115 0.04426013 -0.18255971
0.0012700928 -0.019128354 0.046114083 -0.07420157 -0.04432561 -0.008609959 0.05968932 -0.050128978
-0.00948804 -0.045189288 -0.0019563711 0.05025661 0.011592756 0.04026336 0.008286302 -0.054016385
0.038451947 -0.0041250237 0.010114944 0.010598435 -0.0068273405 0.02834929 -0.0045182444 0.030231627
-0.10669252 -0.07139985 -0.05430107 0.024317296 -0.045716606 0.06079683 -0.021787452 0.05925756
-0.07469617 0.03297755 0.052457992 -0.03942581 0.018865505 0.07508215 0.007595056 0.04674877
00000000: a2c4 ebbd e2b9 79bc b1f9 93bc 57f8 e1bc
00000010: 2060 e73c 1436 a8bc 23f5 4c3d f986 893c
00000020: cdc0 c0bd 4ecd 3dbd 80fd 0fbe 5988 79bd
00000030: b933 40bd 9ee6 033d eb60 d4ba 9177 cdba
00000040: 3b32 f0bd 4e4a d33c 5318 33bd 4153 0abe
00000050: 04a9 483c fc81 153d ba75 83bd b34a 433d
00000060: 2f68 29bd 9fa1 d03c 8279 b9bd 89ae 3fbd
00000070: c027 d6bd 4a97 4e3d 0c05 313d 486e a83c
00000080: c511 91bd 3e4d 343d 1668 53bd 9e62 7dbd
00000090: e2f3 62bc 6f07 843c 3b3b 363d 3bb7 45bc
000000a0: bda6 b0bc 61be 34bc 872c 7cbd a1f0 ba3b
000000b0: f89d 73bd 259a 6cbd 0f3d cd3c 0c0f 4e3d
000000c0: 0e53 98bd 9773 62bc 0ccb 51bd 49d8 143c
000000d0: cc70 8c3d 949a 60bd c318 f33b c3c6 55bd
000000e0: 23f3 3cbd a316 91bc 3348 23bd beff 16be
000000f0: 4d5f a3bc 2049 06bd 62c0 aebc 0ddb 4a3c
00000100: 60d8 453d ceea 70bd 27fe 933d a745 50bd
00000110: 669f fb3c 2c18 9bbb 1b7b aabc 76e6 1bbe
00000120: 8a7e c4bc 84f0 72bc 39e8 103d 94ec c3bd
00000130: 76fb 083d a39d 5fbd 4e28 193b b7ad 4abc
00000140: 7751 7dbd 0e8a 46bc d266 093c 1703 4f3c
00000150: e532 323d 9a5d 7e3b 1c4a 353d eff0 3abe
00000160: 3e79 a63a 11b3 9cbc 1fe2 3c3d fef6 97bd
00000170: c58e 35bd c910 0dbc ca7c 743d 0b54 4dbd
00000180: b973 1bbc 6718 39bd 7636 00bb e0d9 4d3d
00000190: 8bef 3d3c 31eb 243d 45c3 073c 4940 5dbd
000001a0: ca7f 1d3d 352b 87bb 26b9 253c 0fa5 2d3c
000001b0: e2b7 dfbb c53c e83c c80d 94bb 51a8 f73c
000001c0: 9c81 dabd 163a 92bd cc6a 5ebd 1135 c73c
000001d0: 5641 3bbd 1906 793d 997b b2bc 0eb8 723d
000001e0: 4efa 98bd 7813 073d 31de 563d f57c 21bd
000001f0: d58b 9a3c acc4 993d f3df f83b a37b 3f3d

net.5.weight f4 [128]
1.5530267 1.5111883 1.1115105 1.5865291 1.6905084 1.5747174 1.4304444 1.3774594
1.5915682 0.995283 1.5318562 1.3869928 1.3629485 1.2664844 1.5583261 1.3537688
1.6426586 1.5755055 1.2709738 1.5090321 1.0930393 1.2176872 1.5798588 1.1119105
1.5994279 1.6730605 1.2717097 1.5102073 1.3149606 1.9740341 0.9173935 1.6532927
1.7705652 2.0421004 1.5421647 1.7442791 1.7706673 1.1035519 2.270939 1.1719614
1.0887933 1.8729924 1.4998817 1.5325515 1.4999491 1.2532303 1.6684822 1.2527303
1.4749178 1.5772465 1.4683738 1.2905762 2.2297604 1.7590787 1.1346239 1.4786506
2.0768309 1.0771774 1.8908548 1.5585262 1.4689571 2.1805866 1.9363273 2.087151
1.5211415 1.2985711 1.8452402 0.9861103 1.0393534 1.2528113 2.6525223 1.5054481
1.9666295 1.9557698 1.5338919 1.6035624 1.3800344 1.5783796 1.5988845 1.8451984
1.5531852 2.078161 0.95326144 1.1520082 1.548855 1.4783618 1.4681655 1.4772551
2.000784 1.0670774 1.5233798 1.8728359 1.516 1.7122736 1.3903059 1.1080377
1.5311172 1.2619654 1.9652703 1.1330143 2.2456038 1.7331537 1.1385958 1.7756135
1.182339 1.4170697 1.8299303 1.5792973 2.1096036 1.3188372 1.0311705 1.4999427
1.3991425 1.3094 1.8068528 1.7515965 1.6792887 1.516587 2.7956889 1.7958628
1.3308496 1.2470689 1.6079825 1.6257434 1.5995295 2.1547413 1.6953293 1.633949
00000000: 94c9 c63f 9e6e c13f fa45 8e3f 6313 cb3f
00000010: 9462 d83f 5790 c93f cd18 b73f 9750 b03f
00000020: 82b8 cb3f deca 7e3f dd13 c43f fb88 b13f
00000030: 1975 ae3f 291c a23f 3b77 c73f 4c48 ad3f
00000040: a342 d23f 2aaa c93f 45af a23f f727 c13f
00000050: b6e8 8b3f 2ddd 9b3f d038 ca3f 1553 8e3f
00000060: 0eba cc3f d926 d63f 62c7 a23f 794e c13f
00000070: a150 a83f 26ad fc3f 4dda 6a3f 189f d33f
00000080: e1a1 e23f c6b1 0240 a765 c53f 8a44 df3f
00000090: 3aa5 e23f 3041 8d3f 1157 1140 d502 963f
000000a0: 945d 8b3f 37be ef3f 20fc bf3f a62a c43f
000000b0: 55fe bf3f da69 a03f d390 d53f 7759 a03f
000000c0: 1bca bc3f 37e3 c93f acf3 bb3f 9a31 a53f
000000d0: 65b4 0e40 7e29 e13f 5b3b 913f 6c44 bd3f
000000e0: ccea 0440 f3e0 893f 8807 f23f c97d c73f
000000f0: c906 bc3f bb8e 0b40 93d9 f73f e293 0540
00000100: c4b4 c23f 9437 a63f d530 ec3f ba71 7c3f
00000110: 8809 853f 1f5c a03f edc2 2940 86b2 c03f
00000120: 84ba fb3f aa56 fa3f 9256 c43f 8841 cd3f
00000130: f8a4 b03f 5808 ca3f 3fa8 cc3f 762f ec3f
00000140: c6ce c63f 9700 0540 f108 743f 0175 933f
00000150: e140 c63f f63a bd3f d9ec bb3f b216 bd3f
00000160: d80c 0040 fe95 883f 1cfe c23f 16b9 ef3f
00000170: 4a0c c23f c82b db3f 8bf5 b13f 2ed4 8d3f
00000180: a6fb c33f 1588 a13f fa8d fb3f 9d06 913f
00000190: f9b7 0f40 fbd7 dd3f 82bd 913f 4e47 e33f
000001a0: e256 973f 8a62 b53f 283b ea3f 6a26 ca3f
000001b0: bf03 0740 a8cf a83f 65fd 833f 1ffe bf3f
000001c0: 1a17 b33f 6b9a a73f f446 e73f 5034 e03f
000001d0: eff2 d63f 861f c23f 91ec 3240 d5de e53f
000001e0: 4859 aa3f f49f 9f3f 5fd2 cd3f 5c18 d03f
000001f0: 62bd cc3f 48e7 0940 8d00 d93f 3e25 d13f
