pythorch saved models/classifier_joint.pth (torch, 77052 bytes, 10 tensors)

classifier.0.weight f4 [128, 64]
-0.268955 0.028414823 -0.06714957 0.19148882 -0.02233428 -0.08738803 0.011616589 0.025228865
0.3524202 -0.059046812 -0.129679 0.62980086 -0.15993172 0.16976753 -0.036536053 -0.18387678
-0.11052702 0.36487603 0.34100294 -0.27042 -0.0563218 0.060342643 -0.070931196 -0.04722841
0.1433652 -0.14999644 0.12705806 -0.091690145 -0.07824409 0.018950291 -0.021669773 -0.1734907
-0.24684797 -0.019000992 -0.042964626 0.005100171 -0.030113846 -0.03104422 -0.23091175 0.029496659
0.14818825 0.10909807 -0.0063445433 0.18014953 -0.021058584 -0.006019716 0.087766126 0.00765888
0.06336302 -0.013550451 0.12726803 -0.09093351 -0.055618558 -0.35919282 0.39182937 0.09867592
-0.020069778 0.06524361 0.10979433 -0.088546455 -0.0657501 -0.03100305 0.15807322 -0.0083399555
0.36593762 -0.1112736 -0.092167675 -0.23107478 0.030194698 0.14978673 -0.043032587 0.0021942751
0.21673465 0.09408254 0.03147285 -0.0033622447 0.07135615 -0.0884686 0.22821926 0.104845464
0.025391093 -0.16943754 -0.41574204 0.008306102 -0.27819213 -0.569583 0.072381146 -0.0029023257
0.016842498 0.060000673 -0.45441598 -0.037710372 -0.10444139 0.095156275 0.12224639 0.086495675
-0.20546284 -0.032919962 -0.062402412 -0.36611527 0.0119902035 -0.055056147 0.13168103 0.0047934763
-0.11196525 -0.13758002 -0.01865113 -0.010643752 0.09831224 0.114748776 -0.00395686 -0.039689116
0.13306026 -0.016857384 0.21423166 0.035222072 0.05456768 0.0860857 -0.26867926 -0.0589682
0.21723641 0.08936215 0.18951982 -0.010906917 0.21751638 0.14186469 -0.035202954 0.09075584
0.02756614 -0.01687013 -0.06152699 -0.25586593 -0.07873333 0.11593516 0.0029195934 0.07649029
0.05718875 0.08643542 -0.21470344 0.03383159 0.031146996 -0.28708225 -0.077289626 -0.0967977
-0.21575631 -0.01294127 1.0952139 -0.008573876 0.081500165 -0.15790096 -0.0509894 0.012878259
-0.08471823 -0.06094494 0.2374314 0.1257481 0.011863333 0.122267574 0.0063583455 0.0054381546
-0.09232525 0.30260903 -0.29959714 0.046781976 0.06826957 0.095703684 -0.07107409 -0.282199
0.022788908 0.026659146 -0.030835276 0.05906351 0.073009275 -0.00057930266 -0.06596468 -0.022161653
-0.13307588 -0.12254568 -0.082932815 0.08070488 0.19110821 0.05106743 -0.11811636 -0.064926066
-0.0067842663 -0.025510415 -0.061621875 0.06582516 -0.013248454 -0.03603601 0.2849805 -0.018492533
0.09049414 -0.029955499 0.040987644 0.13011041 0.044846866 0.042463437 0.039853107 -0.087902725
-0.81856817 -0.008126836 0.029495653 0.31098226 -0.10721661 0.2565786 -0.005952287 0.018990403
0.15550637 0.00070207415 -0.09533766 0.11415026 0.021438524 0.045322713 0.1837327 0.012013543
0.13878137 0.014477893 0.12632445 -0.058760535 0.16644453 -0.35792974 0.18972123 -0.13686274
-0.0484578 -0.036152087 0.13591287 0.018561112 -0.02266701 0.002238127 0.03887046 -0.04759384
-0.094297536 -0.020221561 0.112490565 0.48372433 0.049746387 0.034162745 -0.044932384 0.16685218
0.15625368 0.02104186 -0.021464404 -0.003923694 -0.0977884 -0.1637734 0.046891414 0.059697602
0.13432798 0.2765326 0.005164242 -0.0075529288 0.042991612 -0.10217077 0.12004455 -0.029276777
00000000: 78b4 89be 34c6 e83c b785 89bd a515 443e
00000010: 61f6 b6bc 7ff8 b2bd 8153 3e3c c4ac ce3c
00000020: 6c70 b43e 12db 71bd 92ca 04be a13a 213f
00000030: 24c5 23be 8ad7 2d3e d4a6 15bd 324a 3cbe
00000040: fe5b e2bd 08d1 ba3e f097 ae3e 7e74 8abe
00000050: b0b1 66bd d929 773d 6044 91bd 9472 41bd
00000060: 54ce 123e ab98 19be 821b 023e 0bc8 bbbd
00000070: 703e a0bd a43d 9b3c cf84 b1bc 8ca7 31be
00000080: b7c5 7cbe f8a7 9bbc adfb 2fbd 561f a73b
00000090: 50b1 f6bc 7350 febc 2174 6cbe faa2 f13c
000000a0: a9be 173e cf6e df3d e3e5 cfbb 1e79 383e
000000b0: 0d83 acbc 0a41 c5bb babe b33d 58f7 fa3b
000000c0: 79c4 813d b602 5ebc 8d52 023e 593b babd
000000d0: 49d0 63bd 1fe8 b7be dc9d c83e 9a16 ca3d
000000e0: 6069 a4bc 719e 853d dadb e03d d857 b5bd
000000f0: fda7 86bd 1cfa fdbc f2dd 213e 4fa4 08bc
00000100: 2d5c bb3e 6ae3 e3bd 68c2 bcbd de9e 6cbe
00000110: df5a f73c b161 193e f042 30bd d4cd 0f3b
00000120: b0ef 5d3e 59ae c03d ade9 003d 1b59 5cbb
00000130: 2c23 923d 062f b5bd 4fb2 693e 38b9 d63d
00000140: fb00 d03c 0981 2dbe 24dc d4be 5116 083c
00000150: 336f 8ebe 31d0 11bf 913c 943d f234 3ebb
00000160: 47f9 893c 44c3 753d 36a9 e8be 3176 1abd
00000170: 5ee5 d5bd 4be1 c23d 515c fa3d a524 b13d
00000180: da64 52be 15d7 06bd ac99 7fbd 7673 bbbe
00000190: 8f72 443c 8e82 61bd 64d7 063e 9812 9d3b
000001a0: 094e e5bd c7e1 0cbe 41ca 98bc 2263 2ebc
000001b0: ed57 c93d 6801 eb3d 8ca8 81bb 0e91 22bd
000001c0: f340 083e 7f18 8abc 8b5f 5b3e 0545 103d
000001d0: 5c82 5f3d b34d b03d 5490 89be a488 71bd
000001e0: 3973 5e3e 8103 b73d 7c11 423e edb2 32bc
000001f0: 9dbc 5e3e fa44 113e f930 10bd 33de b93d
00000200: 63d2 e13c 3a33 8abc ba03 7cbd dc00 83be
00000210: f13e a1bd 6a6f ed3d a656 3f3b f1a6 9c3d
00000220: c03e 6a3d 0e05 b13d 38db 5bbe fe92 0a3d
00000230: fc27 ff3c 72fc 92be 064a 9ebd df3d c6bd
00000240: 39ef 5cbe 9f07 54bc f82f 8c3f 7179 0cbc
00000250: 8fe9 a63d cab0 21be 43da 50bd 55ff 523c
00000260: c080 adbd 67a1 79bd 3821 733e 1cc4 003e
00000270: 6d5e 423c 6c67 fa3d ab59 d03b 8c32 b23b
00000280: 0515 bdbd 92ef 9a3e cc64 99be 759e 3f3d
00000290: ebd0 8b3d 4b00 c43d 4b8f 91bd 637c 90be
000002a0: ceaf ba3c 4864 da3c 439a fcbc 94ec 713d
000002b0: e385 953d 58dc 17ba 7d18 87bd 5b8c b5bc
000002c0: 0b45 08be 3bf9 fabd aed8 a9bd 9a48 a53d
000002d0: dfb1 433e 152c 513d fde6 f1bd f5f7 84bd
000002e0: 8d4e debb 38fb d0bc 3867 7cbd 57cf 863d
000002f0: 0b10 59bc 7f9a 13bd f7e8 913e a77d 97bc
00000300: fe54 b93d 3c65 f5bc a9e2 273d aa3b 053e
00000310: 59b1 373d 24ee 2d3d 033d 233d 5806 b4bd
00000320: af8d 51bf 6c26 05bc dea0 f13c 1139 9f3e
00000330: 6294 dbbd 455e 833e 670b c3bb c391 9b3c
00000340: 103d 1f3e 660b 383a 6440 c3bd 9dc7 e93d
00000350: d89f af3c 4fa4 393d 6d24 3c3e 74d4 443c
00000360: b41c 0e3e af34 6d3c 325b 013e e3ae 70bd
00000370: 6f70 2a3e 9142 b7be 4846 423e bf25 0cbe
00000380: b07b 46bd 3614 14bd be2c 0b3e 790d 983c
00000390: 2ab0 b9bc 8aad 123b a236 1f3d c2f1 42bd
000003a0: 111f c1bd b0a7 a5bc 7461 e63d b7aa f73e
000003b0: dec2 4b3d 3cee 0b3d 050b 38bd 4cdb 2a3e
000003c0: f700 203e fb5f ac3c 1ed6 afbc 5592 80bb
000003d0: 4945 c8bd 37b4 27be 3611 403d 7985 743d
000003e0: 468d 093e ae95 8d3e cd38 a93b 8f7e f7bb
000003f0: f917 303d e93e d1bd ebd9 f53d dad5 efbc

classifier.0.bias f4 [128]
0.0124039855 -0.041874316 -0.073595755 -0.07956628 -0.063933425 -0.054023024 0.03819773 0.09688628
0.020688754 0.16695341 -0.06914932 -0.16767289 -0.07156663 0.13972731 0.058803327 -0.09987665
-0.06745723 -0.062817715 -0.1001896 -0.022556428 0.09633833 0.03811434 0.08178484 0.1005919
0.12859741 -0.021397399 0.021499198 -0.09610192 -0.07918812 0.07158065 -0.023205047 0.017853577
-0.11070531 -0.10867802 -0.076364756 -0.04227619 -0.07002185 0.0078021735 -0.08643254 -0.011462466
0.023306955 -0.058967028 -0.055736892 0.11093565 -0.023201428 0.107783005 0.04561448 0.048569527
0.07717547 0.0083291475 -0.0042234417 0.0056860396 0.008228959 0.07826738 0.10202122 0.07345664
-0.11466167 0.06131516 -0.0678526 -0.11531128 0.0740694 -0.2381045 -0.024378058 -0.029577136
0.011909181 -0.04608939 -0.10219801 -0.04362451 -0.13259533 -0.022740314 -0.027866406 -0.014472758
0.05091634 -0.12047628 -0.057897042 0.092142306 0.009164181 0.00026445877 0.01633317 0.027650243
-0.0056955297 0.060866952 0.07838849 0.090005204 0.04582112 0.054610312 0.025635928 -0.010571258
0.08024343 0.13341416 0.0012640273 -0.0028985983 -0.045102473 -0.08274058 -0.10128363 -0.10212955
0.044272732 0.009757304 0.07553175 0.07396996 0.045534115 -0.09036428 0.09385655 -0.10840411
-0.034585733 -0.051810633 0.1610245 -0.051772013 0.052240092 0.0071812896 0.10517924 0.09564437
-0.118179984 0.058996636 -0.05482633 -0.10366161 0.08742712 -0.07697135 0.10744487 0.009179397
-0.05054864 -0.06462683 -0.048247855 -0.09571137 0.07005341 0.02024579 -0.09700895 0.03925181
00000000: 163a 4b3c 6784 2bbd 5fb9 96bd a5f3 a2bd
00000010: 87ef 82bd 3f47 5dbd 3975 1c3d 506c c63d
00000020: 767b a93c d6f5 2a3e 299e 8dbd 71b2 2bbe
00000030: 8691 92bd ad14 0f3e c2db 703d 218c ccbd
00000040: 0427 8abd 93a6 80bd 3430 cdbd 42c8 b8bc
00000050: 084d c53d c81d 1c3d cf7e a73d 2003 ce3d
00000060: 0aaf 033e 9949 afbc 161f b03c 15d1 c4bd
00000070: 622d a2bd e098 923d 8318 bebc aa41 923c
00000080: 77b9 e2bd 9592 debd 2065 9cbd cc29 2dbd
00000090: 9e67 8fbd 60a9 ff3b 8b03 b1bd 11cd 3bbc
000000a0: 3aee be3c 6987 71bd 5e4c 64bd 3b32 e33d
000000b0: ec10 bebc 56bd dc3d 40d6 3a3d d7f0 463d
000000c0: 2c0e 9e3d fa76 083c cc64 8abb f551 ba3b
000000d0: c1d2 063c a64a a03d 80f0 d03d 6f70 963d
000000e0: bdd3 eabd 9b25 7b3d 4ef6 8abd 5228 ecbd
000000f0: b3b1 973d abd1 73be 7eb4 c7bc c04b f2bc
00000100: ba1e 433c 3ac8 3cbd 314d d1bd 9daf 32bd
00000110: 12c7 07be e549 babc 1748 e4bc 261f 6dbc
00000120: a78d 503d 45bc f6bd 7325 6dbd 1bb5 bc3d
00000130: 5c25 163c 0ea7 8a39 24cd 853c c382 e23c
00000140: 91a1 babb a04f 793d 258a a03d a654 b83d
00000150: edae 3b3d 10af 5f3d 7002 d23c 1233 2dbc
00000160: ab56 a43d b99d 083e b8ad a53a 69f6 3dbb
00000170: 5fbd 38bd e573 a9bd cb6d cfbd 4c29 d1bd
00000180: 5357 353d 19dd 1f3c 64b0 9a3d 907d 973d
00000190: fb81 3a3d e810 b9bd dd37 c03d f902 debd
000001a0: c5a9 0dbd 6337 54bd 9be3 243e e40e 54bd
000001b0: b5f9 553d 0651 eb3b 3768 d73d 32e1 c33d
000001c0: 5908 f2bd 75a6 713d 9391 60bd 8a4c d4bd
000001d0: fd0c b33d 28a3 9dbd 0e0c dc3d 2e65 163c
000001e0: 170c 4fbd 125b 84bd 8b9f 45bd 5304 c4bd
000001f0: 2a78 8f3d 80da a53c a1ac c6bd 82c6 203d

classifier.1.weight f4 [128]
1.500576 1.0623697 1.26536 1.2674488 1.0630257 1.1496054 1.1140503 1.168765
0.9300013 1.0778048 1.0226618 1.0956436 1.038833 1.2267916 1.2186636 1.413808
1.3317542 1.0074525 1.0791439 1.3840197 1.086921 1.2835253 1.1240839 1.2538599
1.1539886 1.017821 1.168091 1.112433 1.1160834 1.0260034 1.3067291 1.0785338
1.1977254 1.3520664 1.0012327 1.3689415 1.1303817 1.338331 1.1656973 1.0452714
1.4888067 1.2610674 1.3180224 1.0917401 1.0039657 1.0489769 1.4713762 1.2270759
1.209109 1.3016124 1.2962489 1.3721609 1.1535586 1.2116439 1.2087249 1.0136113
1.2751657 1.1868991 1.050013 1.2372998 1.2093407 1.1390508 1.1453848 1.0813073
0.9590599 0.9972994 1.0475993 1.0153067 1.0097257 1.0706831 1.5271556 1.1684791
1.2072564 1.1863539 1.2092751 1.139177 1.2128066 1.1152524 1.3921793 1.0029205
1.1581516 1.3147372 1.1151861 1.3209894 1.0664862 1.0303309 1.1868657 1.2985668
1.0395304 1.141073 1.1279873 1.1876351 1.2236041 1.1451535 1.2433877 1.1191972
1.1059556 0.9981495 1.1166198 1.0543514 1.1174579 1.0675248 1.069484 1.3373239
1.1760411 1.1841044 1.3106723 1.0118965 1.16966 1.3676878 1.1177058 1.3214447
1.1673012 1.041627 1.1036499 1.4138385 1.0774747 1.0493448 1.1071227 1.2541559
1.4618006 1.1805104 1.2637725 1.2696886 1.0013884 1.3520484 1.002597 1.6634985
00000000: e012 c03f bbfb 873f 51f7 a13f c33b a23f
00000010: 3a11 883f 4526 933f 3399 8e3f 179a 953f
00000020: 9114 6e3f 82f5 893f 95e6 823f 0d3e 8c3f
00000030: 7bf8 843f 8207 9d3f 2bfd 9b3f a9f7 b43f
00000040: ec76 aa3f 34f4 803f 6321 8a3f 8f27 b13f
00000050: 3a20 8b3f 8f4a a43f fbe1 8f3f 7b7e a03f
00000060: e6b5 933f f547 823f 0284 953f 3464 8e3f
00000070: d2db 8e3f 1454 833f e642 a73f 650d 8a3f
00000080: 114f 993f 8310 ad3f 6528 803f 7a39 af3f
00000090: 59b0 903f 6e4e ab3f 9235 953f 74cb 853f
000000a0: 3891 be3f a86a a13f f5b4 a83f 24be 8b3f
000000b0: f381 803f e044 863f 0e56 bc3f d310 9d3f
000000c0: 15c4 9a3f 3c9b a63f 7ceb a53f f8a2 af3f
000000d0: cfa7 933f 2617 9b3f 7fb7 9a3f 04be 813f
000000e0: a138 a33f 4fec 973f d366 863f d75f 9e3f
000000f0: adcb 9a3f 6bcc 913f f89b 923f 4768 8a3f
00000100: f384 753f 034f 7f3f bc17 863f 92f5 813f
00000110: b13e 813f 250c 893f d679 c33f b990 953f
00000120: 6187 9a3f 72da 973f 87c9 9a3f 8dd0 913f
00000130: 3f3d 9b3f 97c0 8e3f ee32 b23f b35f 803f
00000140: 503e 943f 4f49 a83f 6bbe 8e3f 2e16 a93f
00000150: 9f82 883f e2e1 833f 37eb 973f 7037 a63f
00000160: 550f 853f ae0e 923f e361 903f 6d04 983f
00000170: 0f9f 9c3f 6494 923f 5427 9f3f db41 8f3f
00000180: f48f 8d3f ba86 7f3f 66ed 8e3f fdf4 863f
00000190: dc08 8f3f a7a4 883f dae4 883f 6e2d ab3f
000001a0: 8488 963f bc90 973f 1cc4 a73f d385 813f
000001b0: 6bb7 953f 6510 af3f fc10 8f3f 1a25 a93f
000001c0: 206a 953f 0954 853f 6644 8d3f a9f8 b43f
000001d0: b1ea 893f ee50 863f 32b6 8d3f 2e88 a03f
000001e0: 481c bb3f f71a 973f 4cc3 a13f 2885 a23f
000001f0: 7f2d 803f ec0f ad3f 1955 803f 85ed d43f

classifier.1.bias f4 [128]
-0.0978868 -0.18397348 -0.15977967 -0.34502894 -0.5415241 -0.02245803 0.03545326 -0.15097316
-0.042521484 -0.07867592 -0.23886868 -0.82599115 0.11543083 -0.108418226 -0.10602959 -0.3270518
-0.034449086 -0.9452397 0.019163074 -0.17777488 -0.16977035 -0.14729266 -0.511259 -0.09251344
-0.43118113 -0.44506148 -0.028832493 -0.095822446 -0.370525 -0.38417137 -0.7109021 -0.12362241
-0.28050756 -0.27853078 -0.17252542 -0.14976679 -0.4509897 -0.35606188 -0.3718269 0.13725138
-0.042519968 -0.2291663 -0.11409105 -0.35377443 -0.01046065 -0.17278925 -0.20474425 -0.5352147
0.017328626 -0.0018064666 -0.17495516 -0.25659192 -0.17578262 0.062455904 -0.45094082 -0.6386646
-0.032136355 -0.26784256 -0.17196193 -0.09978231 -0.25791082 -0.6489507 0.023601284 -0.1046343
-1.229447 -0.61309546 -0.20289028 -0.043282267 -0.64150435 -0.32722172 0.07467057 -0.21617289
-0.30469805 -0.45045525 -0.5402974 -0.21810547 -0.14663407 -0.22969253 -0.025779702 -0.25595105
-0.25901976 -0.15659128 -0.29911834 0.06989278 -0.05393506 0.010713357 -0.124520145 -0.046535894
-0.8859465 -0.27769783 -0.32478046 -0.17722367 -0.714478 -0.086114235 -0.089357935 -0.6286867
-0.0740674 0.032835558 -0.38852504 -0.1893315 -0.40537265 -0.22779554 -0.4939181 -0.08649603
-0.29973403 -0.25725728 -0.19176985 -0.2442622 -0.14615397 0.015436324 -0.113257095 -0.061680965
-0.2341728 -0.33079842 -0.79120314 -0.09959523 -0.20023502 -0.37372392 -0.6700015 0.05994694
-0.07011117 -0.28461316 -0.22043219 -0.007220873 -0.38126564 -0.14471298 -0.606856 -0.24152504
00000000: e078 c8bd 8b63 3cbe 489d 23be a2a7 b0be
00000010: 53a1 0abf e7f9 b7bc 7037 113d b598 1abe
00000020: 022b 2ebd d720 a1bd fe99 74be 2874 53bf
00000030: 0067 ec3d 600a debd 0b26 d9bd 5573 a7be
00000040: 7c1a 0dbd 3bfb 71bf e1fb 9c3c 9e0a 36be
00000050: 47d8 2dbe e3d3 16be dfe1 02bf b077 bdbd
00000060: c6c3 dcbe 19df e3be 1f32 ecbc 8f3e c4bd
00000070: 74b5 bdbe 1cb2 c4be aefd 35bf bf2d fdbd
00000080: b09e 8fbe 969b 8ebe 81aa 30be 775c 19be
00000090: 1fe8 e6be be4d b6be 1860 bebe a08b 0c3e
000000a0: 6b29 2ebd 92aa 6abe 92a8 e9bd ec21 b5be
000000b0: 2563 2bbc aaef 30be 7aa8 51be d503 09bf
000000c0: c3f4 8d3c f6c6 ecba 7227 33be 0460 83be
000000d0: 5c00 34be c3d1 7f3d b7e1 e6be 867f 23bf
000000e0: 69a1 03bd a922 89be ca16 30be ab5a ccbd
000000f0: e30c 84be a221 26bf 7b57 c13c 824a d6bd
00000100: 855e 9dbf d3f3 1cbf 78c2 4fbe bf48 31bd
00000110: a139 24bf 9b89 a7be e2ec 983d 6d5c 5dbe
00000120: 6201 9cbe 12a2 e6be ee50 0abf 0a57 5fbe
00000130: 3e27 16be 8534 6bbe f42f d3bc 040c 83be
00000140: 3d9e 84be 7759 20be 0a26 99be f223 8f3d
00000150: 02eb 5cbd 1387 2f3c 6b04 ffbd 6c9c 3ebd
00000160: 64cd 62bf 692e 8ebe a049 a6be 1f7a 35be
00000170: 08e8 36bf a95c b0bd 4b01 b7bd 9df1 20bf
00000180: a6b0 97bd 947e 063d c1ec c6be 1ee0 41be
00000190: 018d cfbe 3c43 69be d5e2 fcbe d524 b1bd
000001a0: bd76 99be 3ab7 83be 515f 44be df1f 7abe
000001b0: 63a9 15be a3e8 7c3c 56f3 e7bd 2ea5 7cbd
000001c0: ffca 6fbe 695e a9be 4a8c 4abf 95f8 cbbd
000001d0: 690a 4dbe be58 bfbe 3885 2bbf ec8a 753d
000001e0: 7296 8fbd d1b8 91be fab8 61be 139d ecbb
000001f0: 4035 c3be a42f 14be ea5a 1bbf 5752 77be

classifier.1.running_mean f4 [128]
2.7503457 -1.6081091 -1.288109 2.6016982 -0.39773214 -0.78991634 -1.5113356 -1.0101212
-0.8681192 -1.0599314 0.26301733 -1.1222721 -0.75018483 0.09968979 -0.94615793 -0.18067315
1.181068 -0.81874484 -0.57190454 0.70149183 -0.47574753 2.3634799 -0.17639993 0.09251344
-1.9434688 -1.2205956 -0.8603661 -1.2132004 -1.2663095 -0.5643531 -1.4292356 -1.026587
-1.8604509 -2.004615 -1.7825046 2.0630622 -0.8847953 3.3286216 -1.0326272 -1.8289652
2.722012 1.0554929 0.7793327 -0.63298446 -0.8578273 0.18851022 -1.1851999 -1.3538307
-1.5357242 -0.62890637 1.4713244 -0.1852167 -0.36436665 -2.0168705 -0.631671 0.3990224
-0.8223292 -1.6231843 -0.67793876 -2.2644446 -0.86235565 -1.4097846 -1.7241801 -1.1537622
-0.5746593 -0.22833426 -0.6684009 -1.4947823 -0.12690988 -0.14803457 3.6885712 -0.97143483
0.29475075 -0.53620255 -2.1202242 -1.7084383 -0.8435557 -1.1764928 1.3901196 0.22391161
-0.931396 5.057225 -1.6842904 -2.0152557 0.325335 -0.47110647 -1.0391185 1.4041713
-0.6893855 -1.8889494 -0.5459955 -0.95204216 -2.0710292 0.09184647 -0.44053733 -1.4769529
2.627345 0.6108302 -0.43248528 -1.2682226 0.59220177 2.2506866 -0.8976025 -2.7242177
-1.0734155 -1.3948654 1.1198964 -1.477264 1.053204 0.8030349 0.7541751 3.0985558
-0.45506868 -0.27281293 -1.2749083 1.8257065 -1.4782348 -0.6860237 -0.70290154 3.312623
0.5962144 4.0834928 1.2813454 -3.0808194 -3.3216214 0.41374847 -0.16380148 0.74688315
00000000: aa05 3040 85d6 cdbf c1e0 a4bf 3982 2640
00000010: 8ca3 cbbe f537 4abf 7273 c1bf a74b 81bf
00000020: 0f3d 5ebf d5ab 87bf 35aa 863e 9da6 8fbf
00000030: 1d0c 40bf 292a cc3d 6837 72bf 6202 39be
00000040: 3c2d 973f 4399 51bf 5668 12bf f894 333f
00000050: 2e95 f3be 4143 1740 2fa2 34be b077 bd3d
00000060: 96c3 f8bf 7a3c 9cbf f440 5cbf 274a 9bbf
00000070: 6e16 a2bf 7279 10bf 31f1 b6bf 3467 83bf
00000080: 4123 eebf 9d4b 00c0 1c29 e4bf 3609 0440
00000090: f281 62bf 2308 5540 212d 84bf 881b eabf
000000a0: 7235 2e40 641a 873f 5982 473f 450b 22bf
000000b0: 929a 5bbf d308 413e a1b4 97bf 534a adbf
000000c0: 9c92 c4bf 0200 21bf 5c54 bc3f 72a9 3dbe
000000d0: 448e babe 6814 01c0 31b5 21bf aa4c cc3e
000000e0: 2b84 52bf 81c4 cfbf 658d 2dbf a9ec 10c0
000000f0: 57c3 5cbf d273 b4bf efb1 dcbf 7bae 93bf
00000100: df1c 13bf 75d0 69be 521c 2bbf 0755 bfbf
00000110: aaf4 01be 6096 17be 8d11 6c40 f4af 78bf
00000120: 92e9 963e 9244 09bf c1b1 07c0 1bae dabf
00000130: 44f3 57bf 5197 96bf 70ef b13f 1649 653e
00000140: f86f 6ebf cad4 a140 d496 d7bf f3f9 00c0
00000150: 4f92 a63e de34 f1be d601 85bf e3bb b33f
00000160: 917b 30bf 18c9 f1bf 5cc6 0bbf 09b9 73bf
00000170: be8b 04c0 011a bc3d 1c8e e1be cb0c bdbf
00000180: 6c26 2840 5e5f 1c3f b66e ddbe 1e55 a2bf
00000190: 899a 173f 400b 1040 47c9 65bf 9559 2ec0
000001a0: ae65 89bf f38a b2bf c458 8f3f fd16 bdbf
000001b0: 64cf 863f b293 4d3f 9f11 413f bd4e 4640
000001c0: c3fe e8be 23ae 8bbe 3230 a3bf c0b0 e93f
000001d0: cc36 bdbf 409f 2fbf 5bf1 33bf 0402 5440
000001e0: 82a1 183f f9ab 8240 2003 a43f 252c 45c0
000001f0: 7295 54c0 d7d6 d33e 93bb 27be bc33 3f3f

classifier.1.running_var f4 [128]
14.498496 3.2696838 5.6947517 4.758425 4.680071 3.5331163 3.426133 3.7336392
3.0273721 3.1818078 1.8758477 3.489127 2.6702862 3.196558 3.2184012 4.361762
16.257011 3.6066728 2.4454064 7.7711573 4.39174 4.673442 2.251991 2.4206548
2.4787204 5.029801 2.791172 3.4314446 4.115297 1.4741124 3.0232804 2.1007128
3.093505 4.74515 2.0532248 5.9077907 3.9576495 6.3617973 4.2220583 3.56902
6.047524 7.9579678 3.002765 3.6612034 2.4919577 5.1662955 6.108977 3.4470303
4.484986 30.080685 5.533031 6.608004 2.9966295 15.118539 3.4866085 5.003785
3.3794146 4.0668526 4.9276743 3.5765133 3.254064 3.1585014 4.3726053 2.3823824
2.5452542 3.512528 6.731047 1.4213023 4.7688613 4.530608 8.347489 6.8294673
3.0728426 3.6517582 5.092093 10.38921 3.165393 4.9101534 14.829681 4.120624
4.0285854 11.037643 4.3556423 9.969054 2.6344254 3.0441458 2.8861961 4.2970734
3.2714238 4.3289256 6.14003 3.2786167 3.5320854 3.3289611 2.4795651 3.3495996
4.810152 4.8453736 4.539571 8.061285 5.923419 3.6799552 4.2421994 11.581819
4.442318 4.712703 4.045384 3.3096447 3.846219 3.9815273 2.797612 5.309884
3.3153226 4.742166 3.0307126 5.513103 2.1726248 5.6753697 3.425722 12.211201
10.744741 6.649354 3.2218862 6.8540697 3.2292724 8.510222 4.6526027 5.6381435
00000000: d7f9 6741 8042 5140 683b b640 0545 9840
00000010: 24c3 9540 941e 6240 c345 5b40 f2f3 6e40
00000020: 77c0 4140 bda2 4b40 c71b f03f db4d 5f40
00000030: f8e5 2a40 6894 4c40 49fa 4d40 8e93 8b40
00000040: 5c0e 8241 bad3 6640 8a81 1c40 52ad f840
00000050: 2289 8c40 d68c 9540 9f20 1040 02ec 1a40
00000060: 5ba3 1e40 21f4 a040 90a2 3240 ca9c 5b40
00000070: 83b0 8340 b7af bc3f 6d7d 4140 1472 0640
00000080: fcfb 4540 45d8 9740 0968 0340 9f0c bd40
00000090: 214a 7d40 d893 cb40 1a1b 8740 d36a 6440
000000a0: 5185 c140 aca7 fe40 4d2d 4040 2851 6a40
000000b0: 3c7c 1f40 4b52 a540 bd7c c340 259c 5c40
000000c0: 0185 8f40 3ea5 f041 970e b140 c574 d340
000000d0: c7c8 3f40 89e5 7141 9824 5f40 021f a040
000000e0: 5448 5840 a823 8240 82af 9d40 98e5 6440
000000f0: 9642 5040 e324 4a40 62ec 8b40 f478 1840
00000100: 72e5 2240 42cd 6040 bd64 d740 3ced b53f
00000110: 839a 9840 befa 9040 518f 0541 ff8a da40
00000120: 74a9 4440 68b6 6940 6df2 a240 343a 2641
00000130: cd95 4a40 fa1f 9d40 6046 6d41 27dc 8340
00000140: 2cea 8040 309a 3041 6c61 8b40 3f81 1f41
00000150: 6d9a 2840 49d3 4240 70b7 3840 a081 8940
00000160: 025f 5140 8f86 8a40 207b c440 dbd4 5140
00000170: b00d 6240 b30d 5540 32b1 1e40 d75f 5640
00000180: c4ec 9940 4d0d 9b40 2a44 9140 06fb 0041
00000190: a68c bd40 6384 6b40 19c0 8740 214f 3941
000001a0: 7827 8e40 77ce 9640 c973 8140 38d1 5340
000001b0: 7428 7640 58d1 7e40 130c 3340 92ea a940
000001c0: 3f2e 5440 d3bf 9740 32f7 4140 576b b040
000001d0: 490c 0b40 a19c b540 073f 5b40 1461 4341
000001e0: 76ea 2b41 82c7 d440 6233 4e40 8a54 db40
000001f0: 66ac 4e40 df29 0841 1fe2 9440 ac6b b440

classifier.4.weight f4 [64, 128]
0.042762153 0.084274516 0.07887905 -0.5695514 -0.32632756 0.16811794 -0.14819264 0.016762052
-0.023843141 0.09065715 -0.10508114 0.33197263 0.10279053 0.065552905 -0.2829962 -0.14983086
-0.14539814 0.26834947 0.23765162 -0.6334873 0.057882443 0.036695 -0.23873687 -0.046677683
-0.09379079 -0.12674569 0.03244378 -0.017685834 0.12166102 -0.03284571 -0.3895522 -0.008388003
-0.058748253 0.2354161 0.16560358 -0.014584303 0.055087313 -0.5529709 0.08245535 0.2461383
-0.2514211 -0.03479829 0.25905445 -0.04670125 -0.110485494 0.0046867337 0.034093123 -0.016066054
0.05894047 -0.08515944 -0.16527972 -0.87440914 0.13134697 0.0043804757 0.13305682 -0.5055375
0.015002923 0.06283539 -0.07908821 0.038575314 0.107958496 0.31093544 -0.017064795 0.11485754
0.328746 -0.09248566 0.080807686 0.09661425 -0.60016143 0.0038934646 0.050426304 0.09731144
-0.03540512 0.094394036 0.35492787 0.049429357 0.028998682 0.08275258 0.16945438 0.03802055
0.13029267 -0.021421434 -0.21347274 -0.25605437 0.032923374 -0.1130354 0.026874054 -0.023293553
0.21521443 -0.046576194 -0.18072008 -0.06124277 0.25916263 -0.29604748 -0.10096011 0.30022347
-0.21819946 0.0761243 -0.19705726 0.042342205 -0.11479132 -0.13583657 -0.25554463 0.07470434
-0.20096838 -0.009943355 -0.06758949 0.0923564 0.051456243 -0.25167963 -0.32329392 -0.11410097
0.24868286 -0.12851502 0.35975024 -0.466901 0.16648598 -0.14228702 0.20906344 0.1536895
0.008778477 -0.4156189 -0.12560429 0.25374168 0.11220544 -0.6170823 -0.42213386 -0.635566
-0.10373602 -0.054497905 0.0034635009 -0.13404022 -0.034004133 0.102477886 0.25801694 0.06518167
0.033078548 0.2287505 -0.2738791 -0.13497064 -0.29439682 -0.08675471 0.09762199 -0.012337628
-0.64875436 -0.012374502 -0.68322194 -0.10755045 0.2072171 -0.35353303 0.10619492 0.20848598
-0.062552065 -0.08168041 0.1738834 0.026301771 0.055670176 0.12639509 -0.004346157 -0.16945313
0.33958113 0.15907627 0.14589037 -0.08216855 0.05358947 -0.030793227 -0.1535571 0.11792368
0.049736187 0.15958335 -0.20825575 -0.16540593 0.16397214 0.07934354 0.0053885286 -0.030379925
0.22538796 -0.2632533 0.15040438 -0.010321555 -0.278253 -0.09308367 -0.0141914105 -0.19726737
0.07500117 0.05572204 0.20272382 0.02128934 -0.16326182 0.02431755 0.10734053 0.21801238
-0.07364536 -0.33395508 0.0063415705 0.051768206 0.024473323 0.12917052 -0.043572024 -0.23669635
0.1870348 0.06478662 -0.01757018 -0.18228018 0.096491285 0.22802943 -0.052609093 -0.0469259
0.0041855094 0.005545815 0.06576193 -0.061692584 -0.003339811 0.009829132 -0.3837797 -0.058728654
-0.13367541 -0.023560975 0.06652926 0.14979975 -0.17320028 0.025898837 -0.08899953 0.013481868
0.0995498 0.062413014 -0.06285956 0.17318383 -0.04390351 -0.1778821 -0.06141166 -0.07230979
0.28285968 0.026375279 0.1593988 -0.24070024 -0.5230635 0.35094148 -0.0752533 -0.026329871
0.03753861 0.15803169 -0.11249389 -0.3164499 -0.0407385 0.05129249 -0.057685263 -0.44205594
-0.1084455 -0.038300235 -0.0047635436 -0.06896846 -0.17582618 0.11419606 -0.052640796 0.019846883
00000000: 5e27 2f3d 1e98 ac3d 578b a13d 1fce 11bf
00000010: 6814 a7be 1c27 2c3e d0bf 17be 9250 893c
00000020: b152 c3bc 75aa b93d c834 d7bd 51f8 a93e
00000030: d783 d23d 9a40 863d e1e4 90be 436d 19be
00000040: 40e3 14be 1a65 893e f25a 733e 392c 22bf
00000050: 2416 6d3d 7f4d 163d 7077 74be 1931 3fbd
00000060: 6315 c0bd 9fc9 01be c5e3 043d e2e1 90bc
00000070: 6a29 f93d 3989 06bd 6373 c7be d66d 09bc
00000080: 02a2 70bd eb10 713e fc93 293e 00f3 6ebc
00000090: 3ca3 613d 808f 0dbf 5ade a83d ae0b 7c3e
000000a0: 44ba 80be a788 0ebd c9a2 843e cf49 3fbd
000000b0: 3846 e2bd 2c93 993b 3ba5 0b3d f59c 83bc
000000c0: 906b 713d 1368 aebd 163f 29be 47d9 5fbf
000000d0: d27f 063e 188a 8f3b 0c40 083e e86a 01bf
000000e0: d2ce 753c d7af 803d 00f9 a1bd 2601 1e3d
000000f0: 5819 dd3d ee32 9f3e 78cb 8bbc 6e3a eb3d
00000100: 6551 a83e 1f69 bdbd 807e a53d b1dd c53d
00000110: 2ea4 19bf 7f29 7f3b d08b 4e3d 384b c73d
00000120: f604 11bd a951 c13d 1bb9 b53e 7076 4a3d
00000130: a58e ed3c 2f7a a93d 7385 2d3e 70bb 1b3d
00000140: 716b 053e 017c afbc 9998 5abe 8f19 83be
00000150: a9da 063d 1b7f e7bd fa26 dc3c 1fd2 bebc
00000160: 2c61 5c3e aec6 3ebd af0e 39be b3d9 7abd
00000170: f7b0 843e 8993 97be 2dc4 cebd e4b6 993e
00000180: ae6f 5fbe 0fe7 9b3d 61c9 49be 056f 2d3d
00000190: b617 ebbd be18 0bbe bfd6 82be 97fe 983d
000001a0: a8ca 4dbe 74e9 22bc 5c6c 8abd 5a25 bd3d
000001b0: c8c3 523d 27dc 80be c886 a5be c5ad e9bd
000001c0: b8a6 7e3e 7199 03be 2f31 b83e a60d efbe
000001d0: 4d7b 2a3e b0b3 11be ba14 563e c860 1d3e
000001e0: 9ad3 0f3c 00cc d4be 699e 00be 6eea 813e
000001f0: f7cb e53d 1bf9 1dbf ee21 d8be 74b4 22bf
00000200: 8d73 d4bd 3239 5fbd e7fb 623b d741 09be
00000210: eb47 0bbd eddf d13d cc1a 843e f87d 853d
00000220: 5f7d 073d 923d 6a3e e239 8cbe be35 0abe
00000230: 2ebb 96be 74ac b1bd 0aee c73d c323 4abc
00000240: c414 26bf 6cbe 4abc a2e7 2ebf 6943 dcbd
00000250: b830 543e 4802 b5be b97c d93d 597d 553e
00000260: 4c1b 80bd 0f48 a7bd 7d0e 323e d076 d73c
00000270: 6906 643d b76d 013e 356a 8ebb 1f85 2dbe
00000280: 94dd ad3e e4e4 223e 4964 153e fc47 a8bd
00000290: a280 5b3d 1442 fcbc 133e 1dbe f881 f13d
000002a0: 2cb8 4b3d d169 233e ff40 55be 2c60 29be
000002b0: 50e8 273e de7e a23d 4192 b03b 52df f8bc
000002c0: 1acc 663e 23c9 86be 9b03 1a3e bd1b 29bc
000002d0: 2d77 8ebe a7a2 bebd 1783 68bc 7500 4abe
000002e0: 379a 993d cb3c 643d d596 4f3e fb66 ae3c
000002f0: 1b2e 27be 9935 c73c 5ad5 db3d a33e 5f3e
00000300: 61d3 96bd 29fc aabe f3cc cf3b e60a 543d
00000310: 477c c83c 4745 043e 9478 32bd 8760 72be
00000320: 0d86 3f3e d9ae 843d 57ef 8fbc a8a7 3abe
00000330: 399d c53d 8c80 693e a27c 57bd 5f35 40bd
00000340: 9926 893b abb9 b53b 31ae 863d 5db1 7cbd
00000350: bbe0 5abb 5e0a 213c c67e c4be 758d 70bd
00000360: 35e2 08be f202 c1bc 7e40 883d 1b65 193e
00000370: 6a5b 31be cc29 d43c 6345 b6bd 0ee3 5c3c
00000380: c4e0 cb3d caa4 7f3d 83bc 80bd 1a57 313e
00000390: 2bd4 33bd ba26 36be cb8a 7bbd 2817 94bd
000003a0: fcd2 903e f810 d83c 7039 233e 207a 76be
000003b0: 7de7 05bf 9aae b33e 671e 9abd beb1 d7bc
000003c0: 16c2 193d 0fd3 213e 3263 e6bd b905 a2be
000003d0: 6add 26bd 1318 523d 6247 6cbd 2855 e2be
000003e0: ad18 debd b5e0 1cbd 8017 9cbb 563f 8dbd
000003f0: c70b 34be a0df e93d e09d 57bd ee95 a23c

classifier.4.bias f4 [64]
0.14127496 0.3364209 0.06287826 -0.09396062 -0.07140874 -0.40495697 0.5912041 0.14659609
0.36002123 -0.086407915 0.9073194 0.115449175 0.7795718 0.39292404 0.022966523 0.2895918
-0.113127686 -0.015588244 0.20412202 -0.31240585 0.4904661 0.11125963 -0.069953926 0.71832794
0.32069397 -0.19233152 -0.05307443 0.18163194 -0.2834696 0.086846545 0.57457775 0.29909688
0.40740815 0.34936857 -0.49887928 0.26766846 -0.007951923 -0.34875506 0.63704145 -0.4800062
0.16146764 -0.23998055 0.6782093 0.46983388 -0.2986117 -0.28381708 0.4528892 0.68989277
0.0035866243 0.15323839 0.34551188 0.061835025 -0.33603585 -0.087891884 0.09826292 0.46754494
-0.38231096 0.15464294 0.26982826 0.3689106 0.22398742 0.16613609 0.46454498 0.25943035
00000000: 62aa 103e 5c3f ac3e 51c6 803d 6d6e c0bd
00000010: bf3e 92bd 8556 cfbe 2759 173f 491d 163e
00000020: b454 b83e a2f6 b0bd 1646 683f 9e70 ec3d
00000030: 0492 473f 572d c93e 4a24 bc3c 6045 943e
00000040: 7daf e7bd d665 7fbc 5d05 513e a9f3 9fbe
00000050: 5f1e fb3e 17dc e33d 0144 8fbd 57e4 373f
00000060: 0032 a43e 8ef2 44be 9364 59bd b9fd 393e
00000070: ed22 91be 9adc b13d 8717 133f 3a23 993e
00000080: cd97 d03e 70e0 b23e 1b6d ffbe d70b 893e
00000090: c848 02bc 0690 b2be 2615 233f 5fc3 f5be
000000a0: c657 253e 76bd 75be 209f 2d3f 118e f03e
000000b0: a2e3 98be 7950 91be 18e1 e73e d09c 303f
000000c0: 920d 6b3b 86ea 1c3e efe6 b03e b946 7d3d
000000d0: e40c acbe a900 b4bd 123e c93d 0d62 ef3e
000000e0: 43be c3be b85a 1e3e ee26 8a3e dae1 bc3e
000000f0: f55c 653e 941f 2a3e d7d8 ed3e 0ed4 843e

classifier.6.weight f4 [17, 64]
-0.02001187 0.060540482 0.10155313 0.2581741 -0.30844063 -0.040075056 0.06345359 -0.0837656
-0.8914826 0.1930832 -1.236718 0.057603132 0.18579568 -0.7334349 -0.8521491 -0.0039558043
0.077870764 0.09055815 -0.1523327 -0.2810318 -0.99773705 -0.5908237 0.17756037 -0.8586024
-1.0847435 0.10274456 0.25445083 -0.3731217 0.14500336 0.30311823 -0.66591877 0.10487511
0.109588906 -1.0658903 0.05212161 -0.24315968 -0.003337983 -0.0132863615 -0.9874462 -0.7698905
0.20018025 0.24825256 -0.03354574 -0.06697589 0.17916168 -0.251902 0.32943562 0.026510103
0.20511074 -0.5326228 0.12427403 0.13417931 0.30336845 0.019192025 -0.51986575 0.034065288
-0.18832906 -0.88368946 0.215573 -0.87751126 0.16575685 -0.70721203 -0.5589722 0.255278
-0.5535758 -0.27062398 -0.37308758 -0.13358584 0.13063477 0.1898056 -0.14887057 0.09897347
-0.8394504 0.19101784 -1.5123018 0.15212238 -0.3093371 -0.32206893 -0.55943745 0.05811482
0.12617259 0.24615811 0.13373682 -0.015569105 -0.53786606 0.08106548 0.012850542 -0.51939976
-1.0415566 0.03164564 -0.021100797 -0.5853857 -0.3421337 -0.2105665 -0.4434361 -0.13533792
-0.32370195 -0.9729734 -0.07676942 -0.4360392 0.17644064 -0.1102403 -1.6394675 -0.16637754
-0.023474177 0.0010450977 -0.53381395 -0.110479474 0.034335222 0.113697425 -0.097682565 -0.3044216
0.16238938 -1.6077858 -0.7379927 -0.07194572 -0.46353942 0.14702792 -0.7284843 0.11336287
0.15619189 -0.7277086 -0.21596426 -1.8317416 -0.25166458 0.14708735 -0.38426363 -0.06955592
0.058025673 0.19054873 0.042252187 -0.24169928 -0.06559851 0.116578974 -0.21093588 -0.36477938
-0.4339228 0.050106294 -0.08065501 -0.860125 -0.0040383954 0.23149192 0.12171353 -0.8707228
-0.3640782 -0.57808334 0.08248361 -0.26004514 0.08979041 -0.34398517 -0.36012712 0.16405793
0.029963864 -0.018444436 -0.13814624 -0.5308657 -0.4065436 0.023846177 0.043324027 -0.4378302
0.20942801 0.11648424 -0.021821707 0.057056382 0.19732986 -0.5465686 0.08256914 0.032570887
0.2126021 0.07452698 0.11535818 -0.15767327 0.09311411 0.17961624 -0.21277265 -0.13417865
-0.29168648 0.1403378 -0.020566074 0.24378692 -0.045755383 0.20210339 -0.23980004 -0.30436906
-0.5440838 0.21680395 0.02723761 -0.040922843 -0.36800113 -0.53003347 0.12781763 0.08007165
0.050925095 -0.2135285 0.20839854 -0.3056835 -0.08868181 -0.13135427 -0.51987755 0.0891009
-0.017022211 0.075220205 0.088835806 -1.3366873 -0.5283859 0.01343468 -0.05848359 -0.5023958
-0.36509314 -0.39873487 -0.044698667 -0.13984518 -0.106211826 -0.31255865 -0.22532819 -0.12093057
-0.08386422 -0.019880764 -0.088856414 -0.24078333 0.35419223 0.042847328 -0.26898128 -0.25628942
-0.6182902 0.15534191 0.002161008 0.15222095 -0.07017566 -0.49854082 0.045124605 -0.19245122
0.14208709 0.3256711 -0.38077378 -0.15792169 0.12894511 0.19483486 -1.0336236 -0.17443216
-0.486631 0.27335295 0.060670216 0.10221401 0.22444256 0.28247383 0.18225323 -0.4601288
0.08060256 -0.028154261 0.02618384 0.06420064 -0.49058372 0.32518336 -0.30879486 -0.14922138
00000000: efef a3bc 4cf9 773d 16fb cf3d 652f 843e
00000010: eeeb 9dbe be25 24bd f5f3 813d 4d8d abbd
00000020: 3438 64bf 9ab7 453e c74c 9ebf 43f1 6b3d
00000030: 3941 3e3e 64c2 3bbf 7226 5abf b19f 81bb
00000040: b57a 9f3d 8d76 b93d 1afd 1bbe 66e3 8fbe
00000050: b26b 7fbf 3940 17bf 63d2 353e 5ecd 5bbf
00000060: e0d8 8abf bd6b d23d 6147 823e cf09 bfbe
00000070: c37b 143e 5032 9b3e a779 2abf c3c8 d63d
00000080: 2670 e03d 186f 88bf 787d 553d dafe 78be
00000090: 10c2 5abb 0aaf 59bc 46c9 7cbf 8b17 45bf
000000a0: 0dfc 4c3e eb35 7e3e 4267 09bd a82a 89bd
000000b0: 2976 373e 4df9 80be c9ab a83e b72b d93c
000000c0: 8d08 523e f859 08bf 6283 fe3d 4d66 093e
000000d0: 1c53 9b3e 9838 9d3c ec15 05bf 0b88 0b3d
000000e0: 55d9 40be 7939 62bf 2bbf 5c3e 94a4 60bf
000000f0: 2abc 293e d90b 35bf cd18 0fbf ccb3 823e
00000100: 25b7 0dbf 3a8f 8abe 5605 bfbe baca 08be
00000110: 1fc5 053e 665c 423e 8771 18be 9ab2 ca3d
00000120: 39e6 56bf 2e9a 433e 1b93 c1bf f8c5 1b3e
00000130: 6f61 9ebe 38e6 a4be 4b37 0fbf ce09 6e3d
00000140: 6333 013e df10 7c3e 4ef2 083e 8f15 7fbc
00000150: 97b1 09bf a905 a63d 148b 523c 62f7 04bf
00000160: ba51 85bf dc9e 013d 94db acbc d6db 15bf
00000170: 262c afbe bf9e 57be 0e0a e3be 0696 0abe
00000180: 43bc a5be c914 79bf 4939 9dbd 8840 dfbe
00000190: dbac 343e abc5 e1bd 12da d1bf e05e 2abe
000001a0: eb4c c0bc a9fb 883a 08a8 08bf 1043 e2bd
000001b0: 17a3 0c3d 32da e83d cc0d c8bd 26dd 9bbe
000001c0: 6749 263e edcb cdbf 17ed 3cbf 4758 93bd
000001d0: 0a55 edbe 7d8e 163e f27d 3abf cb2a e83d
000001e0: c4f0 1f3e 1c4b 3abf bc25 5dbe 8276 eabf
000001f0: 2eda 80be 119e 163e 34be c4be 5673 8ebd
00000200: 54ac 6d3d 351f 433e a110 2d3d 0480 77be
00000210: 8358 86bd f5c0 ee3d 93ff 57be 5dc4 babe
00000220: 212b debe 423c 4d3d 742e a5bd 2731 5cbf
00000230: 8454 84bb 380c 6d3e f144 f93d b0e7 5ebf
00000240: 7568 babe 45fd 13bf 2bed a83d a324 85be
00000250: 09e4 b73d d31e b0be 9562 b8be cdfe 273e
00000260: c776 f53c c918 97bc 3576 0dbe d1e6 07bf
00000270: 7c26 d0be 0f59 c33c 8974 313d 482b e0be
00000280: 4c74 563e 4a8f ee3d 70c3 b2bc f4b3 693d
00000290: d710 4a3e ebeb 0bbf 021a a93d 0d69 053d
000002a0: 5db4 593e 9aa1 983d e940 ec3d 1a75 21be
000002b0: 9cb2 be3d 52ed 373e 13e1 59be 2166 09be
000002c0: ee57 95be b6b4 0f3e 2f7a a8bc 47a3 793e
000002d0: ff69 3bbd 31f4 4e3e 248e 75be 43d6 9bbe
000002e0: 1349 0bbf db01 5e3e 6921 df3c b69e 27bd
000002f0: a56a bcbe 46b0 07bf a0e2 023e 9bfc a33d
00000300: d596 503d 37a7 5abe 6d66 553e 8c82 9cbe
00000310: cf9e b5bd bc81 06be b216 05bf 887a b63d
00000320: 2a72 8bbc 0d0d 9a3d 8cef b53d 9218 abbf
00000330: 4c44 07bf 221d 5c3c 7d8c 6fbd 039d 00bf
00000340: 7ded babe fa26 ccbe f315 37bd 9333 0fbe
00000350: 9685 d9bd b007 a0be 6fbc 66be 72aa f7bd
00000360: 01c1 abbd fcdc a2bc 5afa b5bd e88f 76be
00000370: af58 b53e ae80 2f3d eab7 89be 5e38 83be
00000380: 4448 1ebf f311 1f3e b39f 0d3b cfdf 1b3e
00000390: 42b8 8fbd be40 ffbe 94d4 383d ef11 45be
000003a0: 477f 113e 5dbe a63e c8f4 c2be 39b6 21be
000003b0: 300a 043e ca82 473e c74d 84bf 589e 32be
000003c0: b327 f9be ebf4 8b3e 5581 783d 9455 d13d
000003d0: 45d4 653e 69a0 903e 97a0 3a3e 0196 ebbe
000003e0: f412 a53d c4a3 e6bc 7e7f d63c a07b 833d
000003f0: ca2d fbbe 6f7e a63e 5c1a 9ebe 7dcd 18be

classifier.6.bias f4 [17]
-0.30358803 -0.30719626 0.09196906 -0.35873565 0.23889972 0.20621291 -0.54289883 0.2681439
-0.27181676 0.26107395 -0.01818391 0.2159964 -0.38946426 -0.18681522 -0.7269789 0.12795277
0.39544323
00000000: e46f 9bbe d448 9dbe 465a bc3d 33ac b7be
00000010: 21a2 743e 7a29 533e 6bfb 0abf 284a 893e
00000020: 912b 8bbe 7cab 853e 6cf6 94bc 292e 5d3e
00000030: dc67 c7be 7d4c 3fbe 4a1b 3abf 0d06 033e
00000040: 8977 ca3e
