pythorch saved models/cnn_classifier_from_gan.pth (torch, 77200 bytes, 4 tensors)

classifier.0.weight f4 [128, 128]
000000 04 ad 4f 3d 3c 6c 60 be 70 9d f4 bd 02 60 d9 be
       0.05070211 -0.21916288 -0.11944091 -0.4245606
000010 01 69 e1 bd a6 13 7b 3e f7 44 2f be 7d 96 06 be
       -0.11006356 0.24519214 -0.17116152 -0.13143344
000020 66 36 9a 3d 70 9b 61 bd ea bc a6 be 7c d1 80 bd
       0.07529907 -0.055079877 -0.32566005 -0.06289956
000030 41 2e 5e 3e 61 da 42 bd 6c 28 41 3d 21 10 85 bd
       0.21697332 -0.047571544 0.04715769 -0.06497217
000040 5c a5 5a bd 61 cd ee 3c c1 a5 24 bd c4 67 48 3e
       -0.053380355 0.029150667 -0.040197138 0.19570833
000050 26 c1 e8 bd 6d 4d 16 3d ef a6 24 bd ed 95 29 bc
       -0.11364965 0.036694933 -0.040198263 -0.0103506865
000060 b4 57 81 be 18 a8 83 be 60 11 9f 3e 0c bf b3 be
       -0.25262225 -0.25714183 0.31067944 -0.35106695
000070 f9 cf 8e bd e5 e8 d4 3c 58 f6 4d be 43 26 13 3e
       -0.069732614 0.025989959 -0.20113504 0.14370064
000080 61 ce 74 bc 59 1e 47 3b 65 0f f8 3d 9f 60 68 bd
       -0.014941783 0.003038308 0.12112311 -0.05673277
000090 88 36 19 bd 13 c7 b6 bd 27 5a 36 3d c3 b4 bb bc
       -0.03740552 -0.08924689 0.04451957 -0.022913342
0000a0 37 7d 8b 3d 56 a2 07 3e 40 45 30 3e ed bb 24 3c
       0.06810992 0.1324552 0.17213917 0.010054571
0000b0 21 32 6f bd 53 40 3f be ce 10 83 3e 98 51 aa 3d
       -0.058397416 -0.18676881 0.25598758 0.08316344
0000c0 9d 70 86 3e fc 7e ca 3a 37 46 d2 bc 6c 39 b3 be
       0.26257792 0.0015449221 -0.025668247 -0.35004747
0000d0 2f b9 c4 bd d5 44 54 be b1 67 17 be 14 9a 83 bd
       -0.096056335 -0.20729382 -0.14785649 -0.064258724
0000e0 29 14 94 bd 75 4d 46 3d 8a 9a 01 3e 66 dc f2 3d
       -0.07230408 0.048413713 0.12656608 0.11858444
0000f0 1e fa 52 3e 8c a7 49 ba 92 99 05 3c 6e 4b 6e 3e
       0.20603225 -0.0007692508 0.00815429 0.23270962
000100 93 c1 0a 3e e0 48 35 3e 42 fa 91 3d 65 cc c6 3d
       0.13550405 0.17703581 0.07127811 0.09706954
000110 00 3f ac 3d a7 30 20 3d ef 89 28 3d 1e c9 9a be
       0.08410454 0.0391089 0.04114717 -0.30231565
000120 ce 2f 63 3e d9 3b ea be f8 e9 1a 3e c1 5b 93 3c
       0.22186205 -0.45748785 0.15128314 0.017988088
000130 24 7c 90 bd 72 3d 31 3e 33 3a c2 bd 44 4b e1 3d
       -0.07054928 0.17308596 -0.09483757 0.11000684
000140 36 1c ad ba 60 6c 4c bd 19 76 ac 3c 61 d8 ea bb
       -0.001320726 -0.049908042 0.021052407 -0.0071669077
000150 25 f5 12 3e 33 11 ff 3c a9 b7 56 3e 3c 33 83 3d
       0.14351328 0.03113613 0.20968498 0.064062566
000160 95 74 14 3e 7c 63 ae 3e 16 c4 21 bd 91 ad 13 be
       0.14497598 0.34060276 -0.039493643 -0.14421679
000170 94 f0 e3 bd 53 eb de 3d 5c 8f a6 bc 93 ad 38 3c
       -0.11129871 0.10884728 -0.020332031 0.011271852
000180 0e 7c d4 bd ac b7 b0 3d 69 f6 9e 3c bd 07 83 3d
       -0.10375224 0.08628783 0.019404607 0.0639796
000190 1b 22 f3 bd be dc 65 be cf a3 4d 3e f5 31 ca bc
       -0.118717395 -0.22447488 0.2008202 -0.024682024
0001a0 5c bd 75 3e e6 69 06 3d d2 f9 90 3d a4 b0 8d 3c
       0.23998016 0.032815836 0.070788994 0.017296143
0001b0 1b 1c 78 bd d7 06 56 bd c7 ed 2e 3e 33 44 8a 3e
       -0.06057368 -0.052252617 0.17082892 0.27005157
0001c0 5a 0f da 3c d0 cf b2 bd cb d0 48 be 6d 9f a5 bd
       0.026618648 -0.08731043 -0.19610898 -0.08087049
0001d0 c6 76 0e 3e 0d ec 8d bc ee ad 63 bc 52 70 bb bc
       0.13912496 -0.017324472 -0.013896449 -0.022880707
0001e0 9a b9 80 be a9 d4 1f bd 12 12 dd 3c b1 c3 e0 3d
       -0.25141603 -0.039021168 0.026986156 0.10974825
0001f0 4c 43 5d be 0a c2 02 be 2e 2e 2c 3d e4 b9 cc 3b
       -0.21607703 -0.12769333 0.042036228 0.006247746
000200 96 14 09 bf d5 88 3d 3d 1f 6b 9f bd a9 a7 50 3e
       -0.53547037 0.04627307 -0.077841036 0.20376457
000210 be 32 ac bd 1b a3 b5 bd 59 db ed bd 8d 3d b3 bd
       -0.08408116 -0.088690005 -0.11614103 -0.08751974
000220 aa d1 8e 3d 81 2c 52 be 86 1d 98 3c ae 9a d5 bd
       0.06973584 -0.2052479 0.018568765 -0.104298934
000230 5b 44 4b bd 0b e3 57 3d 52 83 8f bd 29 f9 eb 3d
       -0.049625736 0.05270676 -0.07007469 0.11522133
000240 d6 04 b8 3d a7 d6 93 3d 27 2d d4 bd 4c ce ff bd
       0.089852974 0.07218676 -0.103601746 -0.1249052
000250 c4 17 e7 3c 17 87 d6 3c 64 17 f9 bd a9 26 cc be
       0.028209575 0.026187463 -0.121626645 -0.39873245
000260 ce af 06 be 62 19 43 be ed 81 4a be bb c9 8c 3d
       -0.13153002 -0.19052652 -0.19776125 0.068744145
000270 1d 38 17 bd f6 ef c9 3d e1 4c 11 3c 6a 6e c7 bc
       -0.03691875 0.09860222 0.008868427 -0.024344642
000280 65 3a 4f 3e 71 eb 78 3e ed cb b0 3e e2 55 da bc
       0.2023712 0.24308564 0.34530583 -0.02665228
000290 6a f6 b0 3a 21 e4 b6 3e a4 e6 ef bc e0 ed ca bd
       0.0013501171 0.35720924 -0.029284783 -0.09908652
0002a0 6a f6 b1 bd 07 52 b2 be 45 ca 15 3c cd f1 c2 3c
       -0.08689578 -0.34828207 0.009142463 0.02379694
0002b0 cb c2 a5 3e 9c 2f b8 bd 21 90 06 bf 91 8d 99 3d
       0.32375178 -0.08993456 -0.52563673 0.07497705
0002c0 d4 50 3e 3c 50 37 27 bd 56 3d 04 bd 5c f6 60 bd
       0.011615951 -0.040824234 -0.032285057 -0.054922447
0002d0 98 b8 27 3d 56 54 09 3d 3c 29 e7 3d 67 9f ea 3a
       0.040947527 0.033527695 0.11287162 0.0017900289
0002e0 da 58 9e be 65 86 9c 3d c2 5c 6a be 6e dc cd be
       -0.30927163 0.07642821 -0.22886947 -0.40207237
0002f0 f6 3d 17 be 59 b6 d9 bc b8 e5 bb 3d df c8 57 be
       -0.1476973 -0.026576208 0.09174675 -0.2107272
000300 e6 2b ee bd 2e f1 a3 bd 26 19 c5 bd 21 22 2e 3e
       -0.11629467 -0.08004986 -0.09623937 0.17005207
000310 2a fc 8d 3d a7 68 12 bb 71 49 0d bd 5c c4 22 3e
       0.06932862 -0.002234021 -0.034493867 0.15895218
000320 e7 40 89 3d 82 94 05 3f b3 bc ac be fd e9 1f 3d
       0.06701832 0.5217973 -0.33737716 0.039041508
000330 dc 47 0c bd a0 b1 ed be 87 dd 4d be 33 35 c7 be
       -0.034248218 -0.4642458 -0.20104037 -0.38907775
000340 6f 6c a2 3c 9a be 3a bd 4a 6f ef be b5 67 6e be
       0.019827096 -0.045591928 -0.46764594 -0.23281749
000350 b8 78 ff bd 1b 63 fd bd d3 11 a1 bd 01 6f c4 bd
       -0.12474197 -0.123724185 -0.07864728 -0.09591485
000360 ca c2 66 3c 53 08 32 3f f3 5a 39 be 93 3b 3b 3f
       0.014084527 0.6954395 -0.181011 0.7313778
000370 d8 ee 49 3e be 7d 3c bc 24 ee 68 3d cd fb a1 bd
       0.19720018 -0.011504589 0.056867734 -0.07909355
000380 82 89 8b be ce e5 4a 3b e7 11 c9 bc 0a 5a 7c be
       -0.27253348 0.0030959728 -0.02454467 -0.24643722
000390 7f 95 df bd a6 db 95 be 10 a4 0c 3d 9c 62 b2 bd
       -0.10917186 -0.2926914 0.03433615 -0.087102145
0003a0 36 53 46 3e 88 a9 26 be 20 f5 70 bd c5 35 a8 be
       0.1936768 -0.16275609 -0.05882752 -0.32853523
0003b0 97 71 8d 3d 5f d6 97 3e 0c e9 8a be ea d5 84 be
       0.06906431 0.2965574 -0.27130926 -0.25944453
0003c0 90 6b 23 bd 39 e0 fa bd 71 f9 ff ba b8 be 94 3e
       -0.0398975 -0.12249798 -0.0019529295 0.29051757
0003d0 b2 f8 df bd 63 9f 3d bd 1b 83 43 3d 9d 3f 59 be
       -0.10936107 -0.04629458 0.047732454 -0.21215673
0003e0 3e f5 c6 be 0c cd 2a be 11 e3 86 bd ea 69 66 be
       -0.3885898 -0.16679782 -0.06586278 -0.2250134
0003f0 cd 5d 93 3c b7 d7 c3 3c 29 a5 5e be 55 52 8e 3d
       0.017989064 0.023906572 -0.21742691 0.06949297

classifier.0.bias f4 [128]
000000 80 ef 73 3f 31 e5 fa 3d 31 71 6c be 9d 8b 31 3f
       0.95287323 0.12250746 -0.23090054 0.6935366
000010 32 0a 86 be 41 73 e6 3e 0e 6b df 3d 84 40 3c 3e
       -0.26179653 0.45009807 0.10909091 0.18383986
000020 86 ff 08 3d 26 9c 09 3f 83 db ef be e9 e8 31 3d
       0.03344681 0.5375389 -0.46847162 0.04343501
000030 1b cc 44 be 69 a0 a6 3e 8d 20 d4 3d 3b 58 fd 3e
       -0.19218485 0.32544258 0.10357771 0.49481377
000040 13 06 c1 3e 24 43 c9 be 34 11 35 be aa 17 23 bf
       0.37699947 -0.39309037 -0.17682344 -0.63707983
000050 5f d5 39 bf fb 21 8c 3e 96 cf e6 3e ac 63 f1 3e
       -0.72591203 0.27369675 0.4508025 0.47146356
000060 16 a2 27 bb 3f d7 05 be 9d 8d 67 bf 62 55 3e be
       -0.0025578788 -0.13070391 -0.9045046 -0.18587258
000070 31 fa 16 3e e3 7e 99 3e 59 09 fa be 44 d9 23 bd
       0.14743878 0.2997962 -0.48835257 -0.040002123
000080 de 40 96 3e 2e 31 7a 3e 6f fe 20 bf a7 68 86 be
       0.29346365 0.24432823 -0.62888235 -0.26251718
000090 53 2f af 3e b7 a8 4a 3e 8f 0b 3a bf 94 e9 ef bd
       0.34215793 0.19790922 -0.72673887 -0.11714473
0000a0 6d 08 83 3e 32 bb 4d 3c 79 64 b0 be a1 21 3a bf
       0.25592366 0.012556838 -0.34451655 -0.72707564
0000b0 9f 88 56 be 7d 9f 4d be cf 91 62 be ff ff 3c bf
       -0.20950554 -0.20080371 -0.22125934 -0.7382812
0000c0 3c c5 99 3f 73 af bc 3e 8b 5d 5e 3d 9a f5 ec be
       1.2013316 0.36852607 0.05428843 -0.4628113
0000d0 f3 46 1d 3e f2 1e 44 3f a5 72 20 3c 75 c4 a8 be
       0.15359096 0.7660972 0.009792958 -0.32962385
0000e0 cc 82 d2 be b5 18 23 be ae c6 13 bf 58 de 2e bf
       -0.41115415 -0.15927394 -0.57725036 -0.6830802
0000f0 ce e5 00 be d4 35 35 3d 1e a0 c5 bd df d9 12 3d
       -0.12587664 0.044240788 -0.096496806 0.03585231
000100 8d df bd be 58 37 49 be 68 8d 70 3f 3a 74 58 3e
       -0.37084618 -0.19650018 0.9396577 0.21138087
000110 ca 33 53 bd 67 38 3a 3f 92 b3 a9 be 1a 91 1f be
       -0.05156306 0.72742313 -0.33144814 -0.15582696
000120 d0 21 56 bf 81 f8 91 3c 46 25 e5 bf 8f 35 a1 3e
       -0.83645344 0.017818691 -1.7902 0.31486174
000130 15 35 b6 bd cc ec 06 3f cc dd 86 be f9 c0 00 bf
       -0.08896843 0.52705073 -0.26341093 -0.5029445
000140 49 13 3b 3e ca 16 89 bf 92 43 41 3f e8 f6 0b be
       0.18269075 -1.071008 0.7549373 -0.13668406
000150 3c 1e 04 bf 28 fa 46 3f 60 ee 15 bf f0 9b ab 3e
       -0.51608634 0.7772546 -0.58566856 0.33517408
000160 4d 93 65 3d 07 c7 d2 3e 07 a1 3a bf 53 e8 c6 be
       0.05604868 0.4116747 -0.7290196 -0.38849124
000170 c6 36 24 3e f9 d2 9c 3e 93 3d b1 3e 8a 2e 0f bf
       0.1603652 0.3062971 0.3461729 -0.5593039
000180 68 56 e7 be 29 3b eb 3e a6 5a 7c bf 8c f0 0d 3e
       -0.4518311 0.45943573 -0.9857582 0.13861293
000190 85 ff 0d 3d 45 84 af 3e d9 3e b2 be df 9f 9c 3e
       0.03466751 0.342806 -0.34813574 0.30590722
0001a0 ec 52 2a bf 5b 34 da bd 0a a6 83 3d 37 c4 07 be
       -0.6653278 -0.10654517 0.06428154 -0.13258444
0001b0 fb 9e bd bd ca 13 80 3d d7 16 34 3f d4 d9 78 be
       -0.09258839 0.062537745 0.7034735 -0.24301845
0001c0 57 b8 23 bd 99 31 19 bb 26 4c ca 3e ba 31 29 bf
       -0.039970722 -0.002337551 0.39511222 -0.660915
0001d0 35 c2 22 3f 11 4d 09 be a3 6a 8b be 0f 93 6f 3d
       0.63577586 -0.13408305 -0.27229795 0.058489855
0001e0 03 6b 72 3f 3a e1 a6 3e 2b 26 e7 3e 25 c5 b7 be
       0.94694537 0.3259371 0.45146307 -0.35892597
0001f0 f0 7c a1 3e ef b7 76 3e 0a 02 2e 3e 82 7e b2 bd
       0.31540632 0.24093603 0.16992965 -0.08715536

classifier.2.weight f4 [17, 128]
000000 9e ec 83 3d f7 d3 8b be de 46 ae be a9 42 80 be
       0.064416155 -0.27310154 -0.34038442 -0.25050858
000010 59 83 13 be 25 0b df 3c 28 2e 98 be e6 45 33 3e
       -0.14405574 0.027226994 -0.29722714 0.17507133
000020 a6 81 49 3c c1 08 3e bc fc ac f7 3e 0c 1b 3a be
       0.012298977 -0.011598767 0.48374164 -0.1817438
000030 ce b7 d6 bd 35 ea b6 bc 16 04 ab be a2 ff fa bd
       -0.10484277 -0.022328475 -0.33401555 -0.12255789
000040 d7 2b 51 be eb a3 3f 3d b1 7d 4d bd 77 a3 08 be
       -0.2042688 0.046787184 -0.050168697 -0.13343607
000050 a3 4a 66 be fe 04 98 bd 51 54 31 3e 62 b9 02 bd
       -0.22489409 -0.07422827 0.1731732 -0.031915076
000060 e9 f5 3c be 5a 13 fe 3d 80 f5 d6 3e 68 a8 6e be
       -0.18453182 0.12406035 0.41984177 -0.2330643
000070 00 cd b9 3a 59 ef 43 be 27 c2 d3 3d c3 5f c1 be
       0.0014175475 -0.19134273 0.10339766 -0.37768373
000080 87 b5 24 be 33 6d cb 3d dc 1e fa be f3 c2 c2 3d
       -0.16084872 0.099329375 -0.4885167 0.0950984
000090 7b 49 3d 3d 96 26 d5 3d 50 63 db bd eb 5e 0f be
       0.046212655 0.1040775 -0.10712302 -0.14001052
0000a0 06 57 9c 3d 7d 04 4b 3c 43 55 4a 3e c6 bf e6 be
       0.07633786 0.012391207 0.19759087 -0.45068187
0000b0 2b e9 07 be b7 da 94 be 3c 40 17 be 2c 97 0c be
       -0.1327254 -0.29073116 -0.14770597 -0.13729542
0000c0 2b ed ab 3c 3c 18 a9 3e 16 bb e6 be d6 1b 39 bf
       0.020987114 0.33026302 -0.4506461 -0.723081
0000d0 87 9b 91 bd 6e 50 d4 3d 47 6d d7 bd 69 b9 ab bd
       -0.071097426 0.10366903 -0.1051889 -0.083849736
0000e0 c8 1f 86 3e fe e9 d4 3d 4e 27 f6 3d f5 f1 99 be
       0.26196122 0.10396193 0.120192155 -0.3006741
0000f0 40 d9 fa 3e 0e 80 83 3c fa 6d 28 3e 6a 62 1f 3e
       0.48993874 0.016052272 0.16448203 0.15564886
000100 7a 5d 38 3e 03 79 0a bd 39 a5 af 3d 8d 48 af 3c
       0.18004408 -0.033806812 0.085764356 0.0213969
000110 a3 cc 33 bd 8c 21 05 3d 76 04 98 be d2 c2 9a 3e
       -0.04389633 0.032502696 -0.29690903 0.3022676
000120 a5 f8 1f 3f 93 82 84 3d 70 6e 18 3b a2 76 43 3e
       0.62488776 0.064702176 0.0023259185 0.19088224
000130 cd 33 a2 3d 82 0b 22 3e b0 b8 e7 be 8b d5 a1 3d
       0.079200365 0.15824702 -0.45258093 0.07902058
000140 03 9c 26 be 36 c2 4e bd 31 47 01 3e a6 ad 08 3e
       -0.16270451 -0.050478183 0.12624814 0.13347492
000150 f0 8b 1e bf f5 fd 23 bc 30 ab 8b bc 0b ee fe bd
       -0.6193228 -0.010009279 -0.017049402 -0.12447747
000160 f0 09 98 3c 18 7e 87 bd fc 67 0b be db 36 8c 3e
       0.018559426 -0.06615847 -0.13613886 0.273856
000170 2d 56 d3 bd 32 d5 5c bd 40 7e a0 be 96 64 1d 3e
       -0.10319171 -0.053914256 -0.3134632 0.15370402
000180 0b 3f 86 be 1d 22 e3 bd 6f 0c 98 be a1 c1 e0 3d
       -0.26219973 -0.11090491 -0.29696986 0.10974432
000190 e5 cf 84 3e c7 9c ab 3d 09 10 fe 3d 48 bc 9a 3c
       0.2593986 0.08379512 0.12405402 0.018888608
0001a0 ce e7 d5 be 7b 2b 72 bd bf 31 5e bd 20 c7 36 be
       -0.41778415 -0.059123497 -0.05424666 -0.17849398
0001b0 36 5e 51 3e ac d6 31 3e 4d 9d 27 be 38 1f 12 3e
       0.20446095 0.17367047 -0.16368599 0.14269722
0001c0 6d 09 97 be 93 ab 7c 3e 48 b6 82 3e 51 a5 a4 3d
       -0.2949938 0.24674825 0.25529695 0.08039344
0001d0 54 11 53 bd 19 7a 5e bd 26 95 6d be b2 2c c3 bd
       -0.051530197 -0.05431566 -0.23201427 -0.09530009
0001e0 53 13 00 3d b9 41 05 be 9a f8 52 be cd 97 32 3e
       0.03126843 -0.13013352 -0.20602646 0.1744072
0001f0 1b e2 2f 3e a6 03 92 3e 65 06 43 3e ac 57 28 3e
       0.17176096 0.2851841 0.19045408 0.16439694
000200 8c 34 a0 3d bd 84 59 3e da 32 d2 be 3f 01 29 be
       0.078225225 0.21242042 -0.41054422 -0.16504382
000210 5c 0c 88 3e 80 90 c4 ba f3 e3 b2 be 3a 55 1f 3d
       0.2657193 -0.0014996678 -0.34939536 0.038899638
000220 bb f6 88 bd 02 46 7a be d4 f3 17 3f 2c d5 31 be
       -0.06687685 -0.24440768 0.5935643 -0.17366475
000230 5f e9 76 bd 4c 34 1c 3d 38 f1 02 be df 74 ca bd
       -0.060281154 0.03813581 -0.1278733 -0.09885573
000240 98 35 da be ef ed e4 3d c2 f7 fe bd 5f 32 2c bf
       -0.42619014 0.11178195 -0.124496 -0.6726436
000250 13 b3 70 be e6 5e c0 be e7 a4 16 3e a0 80 4d 3e
       -0.23505811 -0.37572402 0.14711343 0.20068598
000260 41 3a 48 3d 19 1c f9 3e 67 26 3a 3f b3 87 66 be
       0.04888368 0.4865425 0.7271485 -0.22512703
000270 01 82 aa 3e 9b f6 16 bf c6 70 f2 3e 76 0a 8c be
       0.3330231 -0.5897004 0.47351664 -0.2735173
000280 35 7b 8f bd 98 e1 12 bd ca a1 27 bf 91 6b d5 3e
       -0.07005922 -0.035859674 -0.65481246 0.4168363
000290 2a 3e 24 be 97 4a 8e 3e e4 81 95 be a0 32 70 3c
       -0.16039339 0.27791283 -0.2920066 0.014660507
0002a0 b5 e7 9a 3e fd f3 f1 3e e7 0a 14 be 5c fb 00 bf
       0.30254903 0.4725646 -0.14457284 -0.50383544
0002b0 6c da 23 be 45 f2 00 bf f4 8f b6 3d 00 c6 6e 3e
       -0.1600129 -0.50369674 0.08914176 0.23317719
0002c0 46 6c 4c 3e fd 7e 3b 3e d5 26 e0 be 2e a4 92 be
       0.19963178 0.18310161 -0.43779626 -0.28640884
0002d0 e6 77 5a 3d 6c 35 05 3e 4b e8 9a be 01 0c aa be
       0.053337 0.1300866 -0.3025535 -0.33212283
0002e0 8f 38 8c be 02 b3 2a be f1 3b 32 3e ba 51 ee be
       -0.273869 -0.16669849 0.17405678 -0.46546727
0002f0 e3 e9 00 bf e6 72 fc 3e 13 9f 26 be 96 86 1a 3e
       -0.5035688 0.4930641 -0.1627162 0.15090403
000300 95 37 8e 3e d0 34 6c be 3d 38 14 3e af 99 83 3e
       0.2777678 -0.23067021 0.14474578 0.2570319
000310 91 d0 d0 bd 6d 08 e3 bd 3e 36 ea be 02 d7 14 ba
       -0.10196031 -0.110855915 -0.45744509 -0.00056777906
000320 0f 6b fc 3e 60 4f b3 bd 0b 88 98 bf c6 e8 12 3e
       0.4930043 -0.08755374 -1.1916517 0.14346609
000330 b2 d5 43 bf 7e 15 d9 3d bb e3 27 bd 02 8b ab bd
       -0.7649795 0.105998024 -0.040988665 -0.08376123
000340 21 3e 9d bd f5 e0 42 bf 65 1b 60 3e 0b 4d da 3a
       -0.07677866 -0.7612451 0.2188545 0.0016655041
000350 31 a6 f9 bd 0d 71 8d 3d 19 95 39 be a5 1e b8 be
       -0.121899016 0.06906328 -0.18123282 -0.3596088
000360 b3 75 05 bf 32 c7 a6 3d 36 19 49 bf c1 e3 de bd
       -0.5213272 0.08143462 -0.78554094 -0.10883284
000370 b0 c3 07 bf ba f0 06 bf 61 d3 1c bf 52 44 c3 3e
       -0.5303297 -0.5271107 -0.6126004 0.38138062
000380 ef 16 43 bf 06 05 e0 be 17 7b 03 be ed 2f 8a 3e
       -0.7620687 -0.43753833 -0.12839924 0.2698969
000390 16 b7 da 3e 41 9b 69 3e 1e d8 9a 3e f5 df bf 3e
       0.42717808 0.22813131 0.3024301 0.37475553
0003a0 31 d0 b7 be d0 7c b5 be 32 e3 86 be 28 8b 9f be
       -0.35901025 -0.35446787 -0.2634521 -0.31160855
0003b0 f8 f0 f6 3e a1 e0 3c 3e ef 1c 1d bf 29 a4 9b 3a
       0.4823072 0.18445064 -0.61372274 0.0011874485
0003c0 36 b5 21 bf f0 15 ac 3e 45 5c ed 3d 95 d7 b5 3e
       -0.6316713 0.33610487 0.11589865 0.3551604
0003d0 6a 38 45 be ed 37 04 be 26 f4 18 bf 9e c8 c1 bd
       -0.19259802 -0.12911959 -0.5974754 -0.09462093
0003e0 c4 69 63 bd ac 5d 18 bf a5 f4 3c 3e 5e c7 e3 3e
       -0.055520788 -0.5951793 0.184527 0.44488043
0003f0 5a 71 a5 3e 83 87 8b 3e e7 37 96 3d 27 f5 02 3f
       0.32313043 0.27251825 0.07334881 0.5115532

classifier.2.bias f4 [17]
000000 e3 38 60 be c9 97 8c 3d a3 e8 6d bb ad dc e6 3e
       -0.218967 0.06864888 -0.0036301992 0.45090237
000010 56 28 a6 3d 55 8b 81 bd b8 44 85 3e b0 c0 44 3a
       0.08113162 -0.063254036 0.2602899 0.00075055193
000020 99 2b 91 3d d1 86 df bd 1c 0b f1 bd 7b af 02 be
       0.07088394 -0.10914386 -0.11769697 -0.12762253
000030 33 c6 1b be dd 9e ab bd fd 0e c0 3e 9e 5d 59 be
       -0.15212326 -0.0837991 0.37511435 -0.21227118
000040 a6 d4 ef 3c
       0.029276203
