pythorch saved models/decoder_lstm_joint.pth (torch, 737398 bytes, 6 tensors)

decoder.0.weight f4 [256, 64]
0.18603674 -0.09529347 0.10907878 0.25132677 -0.25836957 -0.0071293795 0.039490372 0.26083538
0.003098751 -0.058137663 -0.2118615 -0.26088008 -0.3062355 0.1212091 0.071581855 0.35412887
-0.1440941 0.0048372434 0.11752398 0.05363611 0.28168604 -0.07994997 -0.16522199 -0.08129749
-0.2051173 -0.31887293 0.14152916 0.09665544 -0.12799813 0.027452642 -0.49989438 0.19822957
0.15636092 -0.14372067 -0.29308736 -0.013525448 -0.1978603 -0.17090403 0.0077284486 0.14771655
-0.3129981 0.060806353 0.17027041 0.12871666 0.10233196 0.18019775 -0.078151 0.09087074
0.02535916 0.14752689 -0.0153321475 -0.007964609 0.06455853 -0.0007926966 -0.002237858 0.24968897
-0.25343746 -0.20993923 -0.1063884 -0.09802657 -0.57627463 0.069444954 -0.16360323 -0.07256696
0.21570262 0.23596273 -0.20659657 -0.0780625 0.050032794 0.013617283 0.1884984 -0.072763644
-0.0987135 0.31254703 -0.26831117 0.039460756 -0.06086506 0.09466829 -0.05844635 0.22938117
0.009322491 0.19269955 0.05350773 -0.20188332 -0.1373633 0.11832224 0.23969887 0.009151804
0.005156279 -0.18466756 0.4527967 -0.08337461 -0.22203486 0.14099869 0.08324382 0.075704485
0.035305023 0.18963528 0.07437815 0.085075706 -0.097665235 -0.18773961 0.11944069 0.1746587
-0.043532565 0.12208804 0.04285686 0.23439957 0.028722698 -0.15299912 0.035196617 0.045873247
-0.12342337 0.05166292 -0.14228937 -0.21514364 -0.054168172 -0.098831594 0.39877462 0.10198403
0.04266772 -0.22108741 -0.11608781 0.046513785 -0.6541425 -0.17126417 0.14826636 -0.0769461
-0.12818064 0.029119654 0.06514835 0.1832048 -0.29017007 0.10937009 -0.12409585 -0.4756329
-0.14498559 0.4560809 -0.022954194 0.100438826 0.12172163 -0.27581212 -0.10033818 -0.065047294
-0.30026963 0.14934473 -0.008080412 -0.09806373 0.2016019 -0.35997155 -0.2199879 0.06695709
0.11441831 0.085564926 0.22446488 -0.019159187 0.39887014 -0.07847982 0.17460284 -0.28371724
0.17181958 0.009116053 0.07139754 0.04725062 0.2095784 -0.052978814 -0.11938166 0.01265489
0.21715647 0.06720252 0.12475197 0.16450824 -0.085367404 0.0999227 0.124493554 0.13507883
-0.15626897 0.069647774 -0.11673154 -0.0027016178 -2.5129973e-05 -0.021352535 0.099307455 -0.07666256
-0.13020469 0.11231096 -0.10205879 0.0064216005 0.14816353 -0.0791441 0.034674183 0.06452651
0.042489324 0.042814717 0.08277391 -0.330639 0.2710405 -0.12280404 0.11546009 0.009877993
0.24673893 0.10417963 0.14096668 -0.041948948 -0.2905483 0.07000248 -0.06736848 -0.0732121
-0.004678505 0.3599869 -0.16090727 -0.1958692 -0.20787007 0.26701027 0.40136558 0.0984273
-0.34395015 -0.09578461 -0.1094426 -0.03843499 -0.16413657 -0.13690561 -0.30357417 0.19423406
0.020366868 -0.14990848 0.20767145 -0.16520403 -0.09221916 0.15639918 -0.3805856 -0.033617932
-0.050904334 0.04060755 -0.020651089 0.11225021 -0.13253635 -0.11387568 -0.30332616 -0.055683877
-0.08707942 0.080243096 0.11372382 -0.032684233 -0.080604054 0.015123183 -0.041803677 0.13530686
0.015861105 -0.10287401 0.15514837 -0.06685669 -0.014375063 -0.18326293 0.29360473 0.22440459
00000000: 6a80 3e3e 3929 c3bd b264 df3d e7ad 803e
00000010: 0449 84be 929d e9bb a8c0 213d 378c 853e
00000020: 6a14 4b3b c221 6ebd 39f2 58be 1392 85be
00000030: e6ca 9cbe 7a3c f83d 8299 923d 6150 b53e
00000040: 678d 13be bd81 9e3b 6ab0 f03d 8ab1 5b3d
00000050: 2739 903e cfbc a3bd f42f 29be 4c7f a6bd
00000060: 450a 52be 5043 a3be 05ed 103e 4af3 c53d
00000070: f111 03be 5de4 e03c 28f2 ffbe b1fc 4a3e
00000080: 141d 203e 832b 13be 8c0f 96be d799 5dbc
00000090: e49b 4abe 7701 2fbe ed3e fd3b 0243 173e
000000a0: 4941 a0be 1510 793d 5e5b 2e3e 4dce 033e
000000b0: 6b93 d13d c285 383e a20d a0bd 701a ba3d
000000c0: 03be cf3c 4a11 173e b033 7bbc fe7d 02bc
000000d0: 4337 843d f8cc 4fba 07a9 12bb 77ae 7f3e
000000e0: 8ec2 81be 4ffa 56be 29e2 d9bd 28c2 c8bd
000000f0: bc86 13bf 2839 8e3d 9b87 27be fc9d 94bd
00000100: 26e1 5c3e 37a0 713e 0d8e 53be 3bdf 9fbd
00000110: 30ef 4c3d 061b 5f3c b905 413e 1b05 95bd
00000120: 4e2a cabd 2a06 a03e 1560 89be 9aa1 213d
00000130: a44d 79bd 73e1 c13d 7165 6fbd e6e2 6a3e
00000140: 5cbd 183c 0853 453e ec2a 5b3d 80ba 4ebe
00000150: f7a8 0cbe ee52 f23d 9f73 753e 73f1 153c
00000160: 01f6 a83b 7e19 3dbe f8d4 e73e 4fc0 aabd
00000170: 1b5d 63be f661 103e bc7b aa3d f40a 9b3d
00000180: 009c 103d c02f 423e 9253 983d 2c3c ae3d
00000190: b604 c8bd d03e 40be 529d f43d bbd9 323e
000001a0: 344f 32bd 4b09 fa3d ad8a 2f3d 7106 703e
000001b0: dd4b eb3c cdab 1cbe 542a 103d 96e5 3b3d
000001c0: 64c5 fcbd 7f9c 533d 4eb4 11be 9d4e 5cbe
000001d0: 72df 5dbd 3868 cabd 302c cc3e 01dd d03d
000001e0: 59c4 2e3d bd64 62be 72bf edbd 3d85 3e3d
000001f0: e275 27bf e05f 2fbe 23d3 173e eb95 9dbd
00000200: c941 03be 578c ee3c 806c 853d 0a9a 3b3e
00000210: 2c91 94be 6dfd df3d f725 febd 2886 f3be
00000220: 1a77 14be 7083 e93e 6f0a bcbc dfb2 cd3d
00000230: 3149 f93d 3f37 8dbe 1b7e cdbd 8437 85bd
00000240: f1bc 99be d3ed 183e b463 04bc a3d5 c8bd
00000250: ba70 4e3e 314e b8be 8244 61be cc20 893d
00000260: 2654 ea3d aa3c af3d 1fda 653e baf3 9cbc
00000270: b538 cc3e 07ba a0bd 16cb 323e 6343 91be
00000280: 79f1 2f3e 7f5b 153c e038 923d de89 413d
00000290: b89b 563e 5000 59bd 5f7e f4bd 7556 4f3c
000002a0: 445e 5e3e 7aa1 893d f67d ff3d d974 283e
000002b0: 1bd5 aebd 46a4 cc3d 7af6 fe3d 1b52 0a3e
000002c0: f904 20be 7ea3 8e3d f210 efbd a00d 31bb
000002d0: 35ce d2b7 83eb aebc b561 cb3d 4301 9dbd
000002e0: 6154 05be 4a03 e63d 3304 d1bd 4a6c d23b
000002f0: 2eb8 173e 4d16 a2bd 8406 0e3d 7a26 843d
00000300: 4909 2e3d 7c5e 2f3d 5e85 a93d 8449 a9be
00000310: d2c5 8a3e af80 fbbd 5776 ec3d 4ed7 213c
00000320: 21a9 7c3e 215c d53d 9259 103e a9d2 2bbd
00000330: bfc2 94be 765d 8f3d 7cf8 89bd 3af0 95bd
00000340: 254e 99bb 3450 b83e e0c4 24be f091 48be
00000350: e4db 54be 92b5 883e ca7f cd3e 4194 c93d
00000360: 3c1a b0be b92a c4bd 7123 e0bd 026e 1dbd
00000370: 6b13 28be fc30 0cbe 136e 9bbe 4be5 463e
00000380: 6bd8 a63c 9c81 19be d3a7 543e 3f2b 29be
00000390: 66dd bcbd 1b27 203e 1edc c2be f5b2 09bd
000003a0: 1081 50bd 1a54 263d 792c a9bc 70e3 e53d
000003b0: 9cb7 07be a737 e9bd 914d 9bbe c714 64bd
000003c0: b256 b2bd 7e56 a43d 09e8 e83d e7df 05bd
000003d0: bd13 a5bd 3ac7 773c 553a 2bbd e28d 0a3e
000003e0: 26ef 813c 9caf d2bd 37df 1e3e 29ec 88bd
000003f0: 6285 6bbc 47a9 3bbe 5c53 963e 51ca 653e

decoder.0.bias f4 [256]
0.08309449 0.16913459 -0.38703698 -0.03306166 -0.12313187 0.2457327 -0.16753206 0.33709005
-0.16018923 0.33792928 -0.037687514 -0.092961155 -0.26430196 -0.07831772 0.24177442 0.22843233
0.034594692 0.07383245 0.13926901 0.15520291 0.24959952 0.26432884 -0.07914963 0.3673701
0.5060273 -0.19916171 -0.6402896 -0.081024915 0.32821056 0.88380325 0.17146018 0.0649866
-0.18358622 0.33377805 -0.25395042 0.031392872 -0.08239819 0.12665533 -0.11577986 -0.08915984
0.5306003 0.19145495 0.18600515 0.10502195 -0.6955879 -0.344502 0.25567442 -0.30917266
0.07280589 0.106230624 -0.37915558 0.4268876 0.39397264 0.34395579 -0.17848937 0.44745538
0.04656983 -0.4584362 0.11615571 -0.027468855 -0.44577214 -0.27060837 -0.39667216 -0.2808605
-0.13720846 0.2525299 0.27259976 -0.09783039 0.39899504 -0.14271167 0.31322277 0.009858791
0.24848893 -0.32107353 0.16828048 0.026758736 -0.60697126 0.512771 -0.005846253 -0.3466156
0.13073753 -0.23685163 0.16188823 -0.30820996 -0.056004815 0.24831447 -0.22430746 -0.32579362
0.16353232 0.34750533 -0.2671033 0.24164663 0.19368577 -0.0034796174 0.17601815 0.34388342
-0.25556052 0.5439404 -0.3096125 0.3312142 0.16022547 0.23213656 0.20998389 -0.40925133
0.027754804 0.19849238 -0.19677223 -0.22169155 0.020648913 -0.084056415 -0.077206016 0.09131996
0.02424836 0.04156181 0.6778463 -0.22167785 -0.5096769 0.14638385 0.52152145 -0.07037392
0.41805068 0.15414874 -0.042434126 -0.27262172 0.12807807 0.12013454 -0.14254344 0.6011781
0.2602626 -0.44406766 0.24017446 0.10749142 -0.45923135 -0.25598982 -0.18025425 -0.13896237
0.3824461 -0.28909406 0.02223387 -0.48987043 -0.041909736 -0.032971043 -0.21892022 -0.3644729
0.025866147 0.21666884 -0.5801855 0.37492096 0.03420743 0.02956446 -0.49832016 -0.0013497833
-0.029678712 -0.0025180373 0.23493601 0.17011006 0.4319315 -0.014628358 0.51847655 -0.27328935
-0.15865472 -0.036394536 -0.09972867 -0.1161272 0.07106408 -0.6326395 0.13305776 0.13496572
-0.49679133 -0.5083247 -0.06781771 0.5152393 -0.012366566 -0.1129036 -0.11182872 0.31568897
0.5137327 0.5030268 0.30180863 -0.34909135 0.18863258 0.23516445 0.23558657 -0.1917042
0.12977093 -0.113063075 -0.18021871 -0.20368136 0.5986924 -0.27601948 0.21161108 -0.4544993
-0.12126824 0.48813576 -0.14176702 0.32323036 0.04580267 -0.2671183 0.70556 0.4136374
-0.7954206 0.21810436 -0.017924469 0.17065367 -0.69218385 0.20043813 0.042388007 0.37380332
0.47608802 -0.034625515 -0.48564646 0.07233509 -0.16858938 -0.16470708 -0.098476306 0.022255516
-0.0256948 -0.4922768 0.38605824 -0.30076066 0.1796905 -0.43160966 -0.23211317 0.09152404
-0.40398657 -0.051932555 0.39362603 -0.15760498 -0.123903856 0.5987637 0.48324925 -0.3297437
-0.09592129 0.26107386 -0.31416947 0.3713425 0.3374337 -0.30789843 0.09936186 -0.28161526
0.14759976 0.18389875 0.6018613 0.03944461 -0.10398727 -0.546929 0.062462024 0.17352833
0.14650068 0.0060804673 -0.30527338 0.29383126 0.3987135 0.13707088 0.1960765 0.11161099
00000000: 722d aa3d 9e31 2d3e b629 c6be aa6b 07bd
00000010: 902c fcbd 5aa1 7b3e 868d 2bbe 1197 ac3e
00000020: a508 24be 1105 ad3e 395e 1abd 6b62 bebd
00000030: 9652 87be 0a65 a0bd b793 773e 2aea 693e
00000040: 2ab3 0d3d 7835 973d 899c 0e3e 83ed 1e3e
00000050: 0497 7f3e 1c56 873e 3419 a2bd ef17 bc3e
00000060: 018b 013f 0cf1 4bbe 05ea 23bf 64f0 a5bd
00000070: 370b a83e ee40 623f 4293 2f3e b217 853d
00000080: 07fe 3bbe f5e4 aa3e ca05 82be d095 003d
00000090: 62c0 a8bd efb1 013e fe1d edbd 6f99 b6bd
000000a0: 6cd5 073f c40c 443e 2278 3e3e c015 d73d
000000b0: 0c12 32bf 9162 b0be c2e7 823e e14b 9ebe
000000c0: 411b 953d 718f d93d ae20 c2be 0391 da3e
000000d0: c8b6 c93e f91a b03e ebc5 36be df18 e53e
000000e0: 02c0 3e3d 26b8 eabe 0be3 ed3d 5d06 e1bc
000000f0: 3f3c e4be 2e8d 8abe 9d18 cbbe f3cc 8fbe
00000100: 6080 0cbe 994b 813e 3292 8b3e 4d5b c8bd
00000110: 1449 cc3e 0223 12be bc5e a03e c486 213c
00000120: e273 7e3e c063 a4be b851 2c3e 2335 db3c
00000130: 7862 1bbf f644 033f ed91 bfbb 9a77 b1be
00000140: 0fe0 053e 3c89 72be 07c6 253e b2cd 9dbe
00000150: 4e65 65bd 2646 7e3e dbb0 65be 6cce a6be
00000160: 0475 273e 38ec b13e c4c1 88be 3772 773e
00000170: 9055 463e 4b0a 64bb 1a3e 343e 7d11 b03e
00000180: d4d8 82be ae3f 0b3f 8885 9ebe e894 a93e
00000190: 2512 243e 35b5 6d3e 0406 573e 6489 d1be
000001a0: 0b5e e33c 9641 4b3e a97e 49be 1c03 63be
000001b0: e927 a93c c525 acbd 301e 9ebd f605 bb3d
000001c0: 7fa4 c63c b73c 2a3d 5687 2d3f 85ff 62be
000001d0: 2f7a 02bf a6e5 153e 6e82 053f 3420 90bd
000001e0: bd0a d63e 2bd9 1d3e 68cf 2dbd 1395 8bbe
000001f0: e626 033e 1909 f63d e8f6 11be cfe6 193f
00000200: 2441 853e d65c e3be 4bf0 753e 7624 dc3d
00000210: 5f20 ebbe 1911 83be 9294 38be 274c 0ebe
00000220: facf c33e 2304 94be ce23 b63c 4cd0 fabe
00000230: 8ba9 2bbd a50c 07bd 9f2c 60be 319c babe
00000240: 3ee5 d33c 70de 5d3e 0987 14bf a4f5 bf3e
00000250: 171d 0c3d 2b31 f23c d223 ffbe 36eb b0ba
00000260: c520 f3bc a805 25bb 1193 703e 5531 2e3e
00000270: 2026 dd3e c8ab 6fbc e1ba 043f 95ec 8bbe
00000280: 6276 22be 7012 15bd 8c3e ccbd 19d4 edbd
00000290: 0b8a 913d aaf4 21bf 4b40 083e 7434 0a3e
000002a0: 6f5b febe 9121 02bf 03e4 8abd b9e6 033f
000002b0: 239d 4abc 013a e7bd 7506 e5bd fca1 a13e
000002c0: fc83 033f 5dc6 003f a986 9a3e 1abc b2be
000002d0: e628 413e f3ce 703e 9b3d 713e 1b4e 44be
000002e0: ace2 043e 9d8d e7bd 418b 38be d991 50be
000002f0: e843 193f 6d52 8dbe 93b0 583e 22b4 e8be
00000300: 7c5b f8bd eeec f93e 602b 11be 737e a53e
00000310: 959b 3b3d bbc3 88be 959f 343f 48c8 d33e
00000320: afa0 4bbf c056 5f3e 56d6 92bc d6bf 2e3e
00000330: f632 31bf a73f 4d3e 0c9f 2d3d 2663 bf3e
00000340: cfc1 f33e 7cd3 0dbd a7a6 f8be 6b24 943d
00000350: b2a2 2cbe f9a8 28be f2ad c9bd 3351 b63c
00000360: e77d d2bc b40b fcbe 6da9 c53e 4dfd 99be
00000370: c900 383e f1fb dcbe 13af 6dbe f570 bb3d
00000380: 54d7 cebe 3bb7 54bd 5a89 c93e 3363 21be
00000390: 4ec1 fdbd 9448 193f 726c f73e 2bd4 a8be
000003a0: 6272 c4bd 79ab 853e d2da a0be 9b20 be3e
000003b0: 1cc4 ac3e dda4 9dbe 3b7e cb3d e02f 90be
000003c0: 6424 173e f44f 3c3e 9513 1a3f ac90 213d
000003d0: 47f7 d4bd 8a03 0cbf 2ed8 7f3d 69b1 313e
000003e0: 4604 163e a83e c73b cb4c 9cbe 0d71 963e
000003f0: 2d24 cc3e 4f5c 0c3e 47c8 483e 4d94 e43d

decoder.2.weight f4 [512, 256]
0.013628049 -0.024473738 -0.03832173 -0.05467252 -0.008660762 0.014837717 -0.06407423 0.016034665
-0.043302372 -0.07060913 0.007749119 0.03406451 0.012461757 -0.033620767 0.008176848 0.035406943
-0.061493136 0.01800646 0.042785212 -0.012683512 -0.050471906 0.046988267 -0.04079569 -0.07665741
0.022850014 -0.0577432 -0.033264007 0.017474953 -0.05697319 -0.03398021 -0.07526356 -0.04400848
0.004801623 -0.043485925 -0.0038929994 -0.04308217 0.0050956667 -0.029129842 -0.009102376 0.017942626
-0.07522589 0.014624303 0.04720416 -0.016183382 -0.07136264 0.014240934 0.010328672 -0.058133963
-0.060226236 0.011109758 -0.048625253 -0.043496426 0.006177244 -0.051128943 0.0048171985 0.033799905
-0.072290294 0.03390411 -0.0027238245 -0.0499363 -0.037676882 0.024626248 0.038943943 -0.050506286
0.026881695 -0.05852419 0.0014141398 -0.07087055 0.030035032 0.0018023583 0.0017578411 0.028884549
-0.05380765 -0.04525668 0.0036599592 -0.06848714 -0.039495565 0.02652919 -0.026951341 -0.05957669
0.0017587311 -0.034464303 0.017547479 -0.08646704 0.009480303 -0.008007988 -0.011133164 -0.06493963
-0.0289835 0.028112363 -0.05867859 0.017805545 -0.07341512 -0.06947772 -0.03457339 -0.0057299514
-0.058749653 0.021222737 0.0127465185 0.022252707 0.024534304 -0.027244085 -0.005397122 -0.072656654
-0.010756815 0.021214591 0.0271854 -0.033159412 0.014742953 -0.028832901 -0.012871031 0.018194808
-0.06647135 0.024890497 -0.013249547 -0.037948772 -0.051700663 -0.051764764 -0.027425844 -0.03986646
-0.046267714 -0.06400973 0.036237836 0.0029940582 -0.069007136 -0.038639817 -0.020916961 -0.03822661
-0.05478005 -0.039376575 -0.054231666 -0.09195846 -0.0037665856 0.010330082 -0.068208784 -0.06343851
-0.017809875 -0.0028630202 -0.0279692 -0.054610256 -0.08449495 0.034612592 0.006785274 0.04830549
-0.052968975 -0.06061334 0.039572928 -0.038828127 -0.038114287 -0.058521338 0.005503062 -0.039884757
-0.043690585 -0.0037683162 -0.015260714 -0.010482933 -0.0006138412 -0.0038595626 -0.060747445 -0.028215053
0.003967559 0.031628784 -0.051668983 -0.04999532 0.016629742 -0.046718616 -0.040936276 0.0026739798
0.034816574 0.025299525 -0.0717673 -0.053538613 0.019143103 -0.04681844 0.047596715 -0.058654398
0.0046899784 -0.019669445 -0.03494722 -0.031235998 -0.0012213411 -0.033821333 -0.05063346 -0.028735504
-0.039930537 -0.05651348 0.042618513 -0.061507273 -0.0063470933 -0.058806278 0.01824284 0.03146192
-0.054824173 -0.035942115 0.030446706 0.027325537 0.017923212 0.0013901755 -0.044737045 0.00052974164
0.049275935 -0.009653237 0.049410082 -0.0039240792 -0.086462595 -0.021460013 0.0037518921 -0.011262686
0.0071783583 -0.05766247 -0.039818432 0.017593173 -0.0027915633 0.021696916 -0.08369132 0.006510471
-0.04663638 -0.030682445 0.01375855 -0.101411045 -0.0006747409 -0.042929474 -0.029365633 -0.06874553
-0.056726187 -0.017634744 -0.07374157 -0.047083303 -0.030972928 -0.025143975 0.016983306 -0.039992
0.017834336 -0.07865705 0.02820358 -0.05637877 -0.029032765 -0.03528231 0.048194032 -0.00899878
-0.007295725 -0.022789866 0.02694776 -0.058827538 0.031615 0.019698953 -0.03553024 -0.07293757
-0.00095933286 -0.012239673 0.018370884 -0.060736526 0.009016309 0.00598188 -0.08484763 -0.056096222
00000000: 2e48 5f3c 267d c8bc 3ff7 1cbd 4bf0 5fbd
00000010: dee5 0dbc e519 733c 5a39 83bd 215b 833c
00000020: d45d 31bd 859b 90bd 52ec fd3b 3a87 0b3d
00000030: 662c 4c3c eeb5 09bd 30f8 053c df06 113d
00000040: 3ae0 7bbd 4982 933c 8c3f 2f3d 81ce 4fbc
00000050: a1bb 4ebd c576 403d 6219 27bd 8ffe 9cbd
00000060: f42f bb3c 2284 6cbd d73f 08bd a227 8f3c
00000070: b85c 69bd d52e 0bbd c823 9abd 3c42 34bd
00000080: ef56 9d3b 4c1e 32bd b121 7fbb ee76 30bd
00000090: 8df9 a63b b5a1 eebc 2222 15bc 6afc 923c
000000a0: 0810 9abd c69a 6f3c 2659 413d 0393 84bc
000000b0: 9326 92bd ce52 693c 9739 293c e11d 6ebd
000000c0: c9af 76bd b405 363c 462b 47bd 4f29 32bd
000000d0: 7a6a ca3b 956c 51bd 97d9 9d3b c571 0a3d
000000e0: ef0c 94bd 09df 0a3d 3182 32bb 018a 4cbd
000000f0: 1353 1abd fcbc c93c af83 1f3d aedf 4ebd
00000100: 0037 dc3c 10b7 6fbd a85a b93a 9424 91bd
00000110: 070c f63c 1c3d ec3a 5c67 e63a 4a9f ec3c
00000120: 6965 5cbd 125f 39bd eddb 6f3b fc42 8cbd
00000130: 1ac6 21bd be53 d93c 0fc9 dcbc b006 74bd
00000140: 3985 e63a 712a 0dbd bbbf 8f3c a215 b1bd
00000150: 4653 1b3c f033 03bc e067 36bc 12ff 84bd
00000160: ce6e edbc e64b e63c f658 70bd efdc 913c
00000170: ab5a 96bd 564a 8ebd d49c 0dbd 51c2 bbbb
00000180: 7aa3 70bd 4edb ad3c c6d6 503c 4f4b b63c
00000190: 2afc c83c fd2e dfbc 57da b0bb 03cd 94bd
000001a0: 5a3d 30bc 39ca ad3c eab3 de3c 2ad2 07bd
000001b0: 6d8c 713c fa32 ecbc 04e1 52bc 470d 953c
000001c0: 2222 88bd 28e7 cb3c a114 59bc 2c70 1bbd
000001d0: 13c4 53bd 4a07 54bd 2aac e0bc 034b 23bd
000001e0: 3783 3dbd 8917 83bd 206e 143d f637 443b
000001f0: 9d53 8dbd c944 1ebd 0c5a abbc 8193 1cbd
00000200: 0c61 60bd 5549 21bd 0622 5ebd b854 bcbd
00000210: d2d8 76bb 813f 293c 0cb1 8bbd 0dec 81bd
00000220: 04e6 91bc 82a1 3bbb aa1f e5bc 01af 5fbd
00000230: b00b adbd efc5 0d3d 0157 de3b fadb 453d
00000240: fff5 58bd b245 78bd 3917 223d 3e0a 1fbd
00000250: ba1d 1cbd 12b4 6fbd 0853 b43b 335e 23bd
00000260: e6f4 32bd dbf5 76bb 1308 7abc 9cc0 2bbc
00000270: 30ea 20ba b7f0 7cbb 50d2 78bd 4123 e7bc
00000280: 4c02 823b 2f8d 013d dba2 53bd e5c7 4cbd
00000290: 193b 883c 055c 3fbd ccac 27bd f03d 2f3b
000002a0: d39b 0e3d f340 cf3c bcfa 92bd 4e4b 5bbd
000002b0: ffd1 9c3c b1c4 3fbd c6f4 423d 983f 70bd
000002c0: 64ae 993b d121 a1bc d124 0fbd a3e2 ffbc
000002d0: 6815 a0ba 3d88 0abd 0865 4fbd b866 ebbc
000002e0: 348e 23bd ae7a 67bd c090 2e3d 0def 7bbd
000002f0: 47fb cfbb dade 70bd 0272 953c 37de 003d
00000300: 508f 60bd 0a38 13bd 5f6b f93c ced9 df3c
00000310: b3d3 923c 8d36 b63a 313e 37bd 5cde 0a3a
00000320: 90d5 493d 9c28 1ebc 3a62 4a3d 9095 80bb
00000330: 4d13 b1bd e9cc afbc 4ee2 753b 2187 38bc
00000340: 6f38 eb3b 7b2f 6cbd a718 23bd 8f1f 903c
00000350: a9f2 36bb bbbd b13c 5b66 abbd ca55 d53b
00000360: ca05 3fbd c059 fbbc 8b6b 613c 98b0 cfbd
00000370: 18e1 30ba d1d6 2fbd 3290 f0bc 75ca 8cbd
00000380: b859 68bd bd76 90bc d205 97bd 6cda 40bd
00000390: f0ba fdbc bdfa cdbc 9320 8b3c a7ce 23bd
000003a0: 5019 923c f316 a1bd 320b e73c 6ded 66bd
000003b0: 1fd6 edbc 2f84 10bd 1b67 453d 9e6f 13bc
000003c0: fa10 efbb d0b1 babc 8cc1 dc3c 25f5 70bd
000003d0: bb7e 013d b35f a13c 2888 11bd 4b60 95bd
000003e0: bd7b 7bba e988 48bc 897e 963c ddc6 78bd
000003f0: 24b9 133c a503 c43b 98c4 adbd 27c5 65bd

decoder.2.bias f4 [512]
-0.057905532 0.37471694 -0.017786859 0.19249208 0.19616987 0.08156481 -0.099831626 -0.31725734
0.083396696 -0.21727422 0.3305326 0.15810311 0.02168056 -0.10483199 0.4886556 0.08166035
0.19161876 0.13554098 0.030550241 -0.1773489 0.019254051 -0.27979308 -0.02441447 -0.021025814
0.2234204 0.32459074 0.3398406 0.39197257 -0.028030125 -0.07601365 0.0831302 -0.07163835
-0.07586996 0.05753872 0.4257566 0.07503295 -0.033836786 -0.19228396 -0.3041364 0.15992297
-0.36757496 -0.14226487 0.15598115 0.21584675 -0.14476192 0.18618326 -0.14204793 -0.097708695
-0.044687983 -0.16598383 0.12943494 0.614016 0.24364911 -0.06905143 0.3625261 0.06465795
0.43995336 -0.18243009 0.28608432 -0.25791773 0.16718669 -0.024186783 -0.25176558 -0.46851432
0.114474475 -0.09674827 0.29690322 -0.5122095 0.3781913 -0.10937533 -0.3056965 0.12075775
0.02706753 -0.035968535 -0.07521177 -0.016772298 0.27223068 0.25447258 -0.27038825 -0.015214035
0.03613612 0.45858297 -0.03888909 0.023930911 0.18992749 -0.142813 0.1079348 0.44766396
-0.20441692 -0.3120326 0.300833 -0.024162296 -0.041361205 0.3083932 0.23064205 -0.32947043
0.42827863 -0.04319632 0.095094055 -0.08837458 0.48705602 -0.2990569 -0.25668073 0.46853033
-0.021009967 -0.077702984 0.089529686 -0.10380677 -0.12585 0.20981738 0.114509135 -0.14734742
-0.28310785 0.22623336 0.5475238 -0.11911341 0.19741566 0.018824445 0.033309817 0.072687395
-0.22696042 -0.05251229 -0.10133668 0.16580452 -0.2423521 -0.16950639 0.116304345 0.19669022
0.21184939 0.05843948 -0.056139525 0.034530528 0.25398353 0.14628443 0.36418912 -0.35128403
0.045822486 0.23362201 -0.41777 0.1686292 0.24804331 -0.42994297 0.20454507 -0.1911456
-0.09443741 0.012748361 -0.010716699 0.17151652 -0.036422715 0.41416365 0.09379888 0.027150244
0.2949143 0.0790318 0.023843879 0.27125517 0.43195948 -0.054555133 0.48407847 0.7302075
-0.26008737 -0.08416593 0.12749314 0.043984205 0.018801812 -0.13163787 0.2377004 0.019921342
0.13472566 0.29123688 -0.44473308 0.32336032 0.24576607 -0.06849358 0.3760551 -0.060857058
0.3354301 0.23602961 0.005262946 -0.016463788 0.07118006 0.0052133338 -0.044677082 0.19820634
-0.1204525 0.14226952 0.49671388 0.44474682 0.43905592 -0.06873959 -0.45712915 -0.20680879
0.22546895 0.30872592 0.47254983 -0.08042334 -0.08244402 -0.050619293 0.20676716 0.2010831
0.0070872097 -0.0688148 -0.091725886 0.31176394 0.04436708 -0.17948282 0.176781 0.07543231
0.011769441 -0.05779678 0.42644936 0.20525648 -0.24794479 -0.15552914 0.1616531 -0.036074877
0.0063477447 -0.11138268 0.0029160597 -0.36704785 0.08072477 0.10401361 0.27403575 -0.048338417
0.13714164 0.15105578 -0.20349613 -0.36441377 0.3462817 0.003089852 -0.008358594 -0.13609993
-0.029031835 -0.07336523 0.119611576 -0.16684371 0.069283344 -0.23391518 -0.0012628332 0.36451548
0.100257315 -0.16225618 0.10307564 0.19233385 0.02303857 0.028000241 -0.25020903 0.09534562
-0.1209325 0.2803961 0.01859925 0.05628234 0.003188796 -0.19005334 0.13529927 0.33978775
00000000: 5a2e 6dbd e6da bf3e bfb5 91bc a51c 453e
00000010: c1e0 483e 730b a73d 8674 ccbd 8e6f a2be
00000020: e3cb aa3d 227d 5ebe 923b a93e c8e5 213e
00000030: 6e9b b13c 28b2 d6bd 1131 fa3e 8b3d a73d
00000040: b537 443e 41cb 0a3e 8044 fa3c f39a 35be
00000050: acba 9d3c 0a41 8fbe db00 c8bc 543e acbc
00000060: 51c8 643e c230 a63e 96ff ad3e a1b0 c83e
00000070: 6f9f e5bc 0bad 9bbd 2b40 aa3d 21b7 92bd
00000080: b661 9bbd b9ad 6b3d c5fc d93e e0aa 993d
00000090: 7198 0abd 16e6 44be c4b7 9bbe d9c2 233e
000000a0: c932 bcbe e2ad 11be 86b9 1f3e ee06 5d3e
000000b0: 783c 14be d3a6 3e3e 0375 11be 7f1b c8bd
000000c0: bf0a 37bd aaf7 29be 988a 043e 2730 1d3f
000000d0: 277f 793e d66a 8dbd 059d b93e 636b 843d
000000e0: 9141 e13e f4ce 3abe a579 923e cb0d 84be
000000f0: fd32 2b3e 5c23 c6bc 6be7 80be 1ce1 efbe
00000100: 9871 ea3d f523 c6bd b303 983e 2920 03bf
00000110: 4aa2 c13e 2c00 e0bd 4084 9cbe d74f f73d
00000120: babc dd3c be53 13bd a108 9abd 0f66 89bc
00000130: d261 8b3e 3b4a 823e 5470 8abe 4a44 79bc
00000140: 7803 143d 63cb ea3e 2b4a 1fbd c20a c43c
00000150: 5a7c 423e 923d 12be ec0c dd3d 3634 e53e
00000160: ab52 51be bdc2 9fbe c806 9a3e 02f0 c5bc
00000170: 5e6a 29bd b7e5 9d3e 6e2d 6c3e 59b0 a8be
00000180: 5647 db3e a0ee 30bd acc0 c23d bbfd b4bd
00000190: 685f f93e fc1d 99be a86b 83be 35e3 ef3e
000001a0: 181d acbc be22 9fbd 575b b73d a598 d4bd
000001b0: d3de 00be 5eda 563e c483 ea3d 3ee2 16be
000001c0: 83f3 90be b8a9 673e 852a 0c3f bbf1 f3bd
000001d0: 5527 4a3e b935 9a3c e06f 083d 21dd 943d
000001e0: 5068 68be 2117 57bd 9b89 cfbd a9c8 293e
000001f0: 262b 78be 1593 2dbe f930 ee3d 2969 493e
00000200: 0cef 583e 3c5e 6f3d 8ff2 65bd e26f 0d3d
00000210: 210a 823e 96cb 153e ff76 ba3e 80db b3be
00000220: 5cb0 3b3d 9c3a 6f3e f3e5 d5be 22ad 2c3e
00000230: 11ff 7d3e 7c21 dcbe 4374 513e acbb 43be
00000240: 6768 c1bd 80de 503c 1895 2fbc 07a2 2f3e
00000250: fc2f 15bd 420d d43e a119 c03d 306a de3c
00000260: 02ff 963e 6ddb a13d 3d54 c33c f5e1 8a3e
00000270: cb29 dd3e 3475 5fbd 22d9 f73e e1ee 3a3f
00000280: 2c2a 85be 305f acbd 908d 023e c828 343d
00000290: 4206 9a3c 14cc 06be bc67 733e 1532 a33c
000002a0: 86f5 093e 001d 953e 0eb4 e3be 7c8f a53e
000002b0: 1aaa 7b3e 5d46 8cbd 4b8a c03e 4045 79bd
000002c0: 7ebd ab3e bfb1 713e ca74 ac3b 11df 86bc
000002d0: dac6 913d 9dd4 aa3b 51ff 36bd 9af6 4a3e
000002e0: cdaf f6bd 1aaf 113e 4851 fe3e dbb5 e33e
000002f0: f0cb e03e 58c7 8cbd d50c eabe afc5 53be
00000300: 55e1 663e 5311 9e3e 0df2 f13e feb4 a4bd
00000310: 69d8 a8bd 2d56 4fbd c5ba 533e bae8 4d3e
00000320: d33b e83b c6ee 8cbd c8da bbbd 869f 9f3e
00000330: 41ba 353d 58ca 37be 1406 353e 417c 9a3d
00000340: 9dd4 403c 51bc 6cbd 9257 da3e c12e 523e
00000350: 3de5 7dbe 0843 1fbe 6488 253e 40c3 13bd
00000360: be00 d03b 9a1c e4bd 5d1b 3f3b b2ed bbbe
00000370: 0753 a53d 1605 d53d 6a4e 8c3e 81fe 45bd
00000380: dc6e 0c3e 5eae 1a3e 4a61 50be 7194 babe
00000390: d64b b13e 1d7f 4a3b 7cf2 08bc c85d 0bbe
000003a0: 2cd4 edbc 8240 96bd eaf6 f43d 14d9 2abe
000003b0: 6de4 8d3d 7687 6fbe a785 a5ba c6a1 ba3e
000003c0: b553 cd3d 7c26 26be 5219 d33d 2af3 443e
000003d0: 62bb bc3c c360 e53c 661b 80be 9044 c33d
000003e0: 75ab f7bd 1490 8f3e 745d 983c 5088 663d
000003f0: 1ffb 503b 589d 42be e48b 0a3e a9f8 ad3e

decoder.4.weight f4 [69, 512]
-0.006066759 -0.29226235 -0.00769022 0.10186272 -0.10258096 0.0074011125 0.12297017 0.111002006
0.119806126 0.029837593 0.008525857 0.12363717 0.15811123 -0.08524538 0.005333511 0.075496666
-0.07755591 -0.09635762 -0.007883383 0.15613975 -0.19808613 -0.07020196 -0.07072764 -0.15468657
-0.19639657 -0.069744095 0.1438325 0.1766573 -0.018406192 -0.005576933 0.0846796 -0.07425823
0.11206923 0.22488059 -0.31578612 0.026328446 0.07546449 0.03152853 -0.044792265 0.079898596
-0.028739775 0.0028172557 0.041960977 -0.18116152 -0.0526669 0.08651984 -0.086281985 0.079921044
0.06873038 0.009680651 -0.30697656 -0.16742948 -0.087397225 0.059923373 0.10630123 0.07729023
0.0257042 0.075001895 -0.13533005 0.09729576 -0.015208569 -0.0076568644 0.043384418 0.007452819
-0.17632738 -0.12193466 0.12775485 0.04087887 -0.026763283 -0.050612867 0.123583816 -0.15807001
-0.16964072 0.02957389 0.044432763 -0.032788098 -0.08215383 -0.007295398 0.1465798 0.022823907
0.2561138 0.13114706 0.024924485 0.011353119 0.07517033 -0.06828182 -0.1805212 -0.18316309
0.3093297 0.20440365 -0.12197456 0.045617577 -0.14100558 -0.3616529 0.02375576 0.14444815
-0.37861276 0.24529858 0.116984464 -0.013689694 -0.39249343 -0.006445273 -0.00362647 -0.15908727
-0.13315193 0.025597475 0.073029496 0.023896853 -0.014320551 -0.06672706 -0.22852057 -0.14490822
-0.027015505 -0.4077516 0.022874253 -0.36497962 -0.074508816 -0.046807747 0.011747893 0.04399159
0.077489294 0.13814731 -0.016500393 0.38706997 -0.07326431 -0.024417032 0.05940465 0.039472103
-0.12722185 0.021910563 0.11635023 0.04665054 0.019964978 -0.389822 -0.3000331 -0.053593718
-0.28095478 0.14805128 0.059760295 0.13129863 -0.019275466 0.1232719 -0.1673696 0.19961622
0.032452706 -0.05464786 -0.013742045 0.045119315 -0.08524301 0.13684295 0.11234967 -0.27648282
-0.21969463 -0.274778 0.007318192 0.05740699 -0.038521152 -0.1364136 0.012842565 0.07275958
0.20386326 -0.081106536 -0.05271253 -0.0010931558 -0.009567859 0.07349827 0.14573562 -0.04025442
0.10896743 0.05081572 -0.009192921 0.04298906 -0.06371539 -0.031917322 -0.031106802 0.025372162
0.034623746 -0.026030293 0.05295733 0.16120832 0.13729867 0.017282994 -0.022223137 0.15350567
0.032481294 -0.02842586 0.030705806 -0.03415949 0.22219709 -0.1523114 -0.002760392 -0.056780994
0.06991529 0.049370244 -0.048509773 0.054973587 -0.030995335 0.36760014 -0.17317648 0.0493211
0.028059147 -0.42276502 0.053198133 -0.029936373 0.11316768 0.19414471 -0.24292561 0.079605535
-0.16801053 0.0068114796 -0.1664128 -0.0005356715 -0.080540255 -0.07032731 0.013556618 -0.0040923273
-0.03059421 -0.051189996 0.019412309 0.15014099 -0.0066079595 0.15016356 -0.026525367 -0.0690656
0.087541774 -0.035913423 0.34945792 0.041664474 0.15852948 0.027907219 0.020590661 0.070256285
0.12336218 -0.04229104 0.045394253 0.06761944 -0.08764869 0.0992131 0.023880884 -0.4444285
0.06035896 -0.08712935 0.054735515 0.22320883 -0.0076255663 -0.06647706 0.109584495 0.18243214
0.20668682 -0.018527465 0.25504836 -0.12637678 -0.023158722 -0.11633423 0.046334352 0.028561568
00000000: aacb c6bb 69a3 95be 3efe fbbb 679d d03d
00000010: f715 d2bd 0885 f23b c9d7 fb3d 0555 e33d
00000020: ea5c f53d f86d f43c 09b0 0b3c 7c35 fd3d
00000030: e9e7 213e 2195 aebd bcc4 ae3b ff9d 9a3d
00000040: a2d5 9ebd 2557 c5bd 4e29 01bc 19e3 1f3e
00000050: 17d7 4abe 0cc6 8fbd a7d9 90bd 2866 1ebe
00000060: 2f1c 49be fed5 8ebd d448 133e a7e5 343e
00000070: 95c8 96bc b4be b6bb 806c ad3d b314 98bd
00000080: 8d84 e53d 1947 663e b8ae a1be c1ae d73c
00000090: 208d 9a3d 0f24 013d 1878 37bd e0a1 a33d
000000a0: ad6f ebbc b5a1 383b 46df 2b3d 6882 39be
000000b0: 3fb9 57bd 5031 b13d 9cb4 b0bd a5ad a33d
000000c0: 83c2 8c3d 989b 1e3c 082c 9dbe a272 2bbe
000000d0: 51fd b2bd 3672 753d 76b4 d93d 574a 9e3d
000000e0: 9d91 d23c 989a 993d f693 0abe 0043 c73d
000000f0: 5d2d 79bc 6fe6 fabb dcb3 313d c736 f43b
00000100: 2a8f 34be e1b8 f9bd 2bd2 023e 9a70 273d
00000110: ac3e dbbc 704f 4fbd 8319 fd3d 1bdd 21be
00000120: 4cb6 2dbe f144 f23c 21ff 353d d04c 06bd
00000130: 4440 a8bd 3c0e efbb 0419 163e 34f9 ba3c
00000140: 5921 833e 6a4b 063e 6f2e cc3c 6f02 3a3c
00000150: e7f2 993d 57d7 8bbd 8dda 38be 1b8f 3bbe
00000160: 7660 9e3e 314f 513e cccd f9bd 7fd9 3a3d
00000170: c463 10be 922a b9be 719b c23c 37ea 133e
00000180: 88d9 c1be 8d2f 7b3e 8d95 ef3d bd4a 60bc
00000190: e6f4 c8be de32 d3bb 12aa 6dbb c6e7 22be
000001a0: fb58 08be ccb1 d13c 7d90 953d 55c3 c33c
000001b0: bfa0 6abc 32a8 88bd 4c01 6abe d262 14be
000001c0: 9f4f ddbc d1c4 d0be c962 bb3c 9cde babe
000001d0: 1498 98bd 7bb9 3fbd 3c7a 403c 8730 343d
000001e0: b5b2 9e3d 7d76 0d3e d52b 87bc 092e c63e
000001f0: 990b 96bd 3a06 c8bc 4a52 733d 80ad 213d
00000200: 7246 02be c87d b33c 0849 ee3d a314 3f3d
00000210: 988d a33c c096 c7be f09d 99be 1685 5bbd
00000220: 4ed9 8fbe c19a 173e 36c7 743d 2673 063e
00000230: 95e7 9dbc fa75 fc3d f062 2bbe 3268 4c3e
00000240: 21ed 043d 6fd6 5fbd 5026 61bc 08cf 383d
00000250: e393 aebd 8f20 0c3e 9517 e63d 288f 8dbe
00000260: a1f7 60be b4af 8cbe 72cd ef3b 9823 6b3d
00000270: 5bc8 1dbd 02b0 0bbe 9f69 523c fa02 953d
00000280: 88c1 503e 2f1b a6bd 18e9 57bd 3948 8fba
00000290: 82c2 1cbc 4386 963d b83b 153e d2e1 24bd
000002a0: 512a df3d 2524 503d e89d 16bc 4c15 303d
000002b0: 377d 82bd bdbb 02bd b1d3 febc 48d9 cf3c
000002c0: a1d1 0d3d 7b3d d5bc c9e9 583d cb13 253e
000002d0: 0698 0c3e 1195 8d3c 4c0d b6bc 9730 1d3e
000002e0: 1b0b 053d 59dd e8bc be8a fb3c d2ea 0bbd
000002f0: a287 633e 85f7 1bbe b1e7 34bb 3093 68bd
00000300: bf2f 8f3d 7438 4a3d 2fb2 46bd fc2b 613d
00000310: eee9 fdbc 1636 bc3e 2d55 31be ec04 4a3d
00000320: 4cdc e53c a874 d8be 49e6 593d 203d f5bc
00000330: 75c4 e73d dfcd 463e 7ec1 78be 3a08 a33d
00000340: f40a 2cbe d532 df3b 1e68 2abe 4e6c 0cba
00000350: 4af2 a4bd c407 90bd 941c 5e3c ee18 86bb
00000360: b5a0 fabc 9aac 51bd 9006 9f3c 8fbe 193e
00000370: 9587 d8bb 7ac4 193e ba4b d9bc 4472 8dbd
00000380: 1a49 b33d f419 13bd 26ec b23e 5ea8 2a3d
00000390: 8d55 223e ae9d e43c bfad a83c 87e2 8f3d
000003a0: 50a5 fc3d 5f39 2dbd 53ef 393d 107c 8a3d
000003b0: 2881 b3bd 3d30 cb3d d8a1 c33c 228c e3be
000003c0: f53a 773d df70 b2bd 5932 603d db90 643e
000003d0: e3df f9bb 2025 88bd d66d e03d 7ecf 3a3e
000003e0: b6a5 533e e9c6 97bc b395 823e ea68 01be
000003f0: 5cb7 bdbc a440 eebd 17c9 3d3d f3f9 e93c

decoder.4.bias f4 [69]
-0.59877914 -0.037538026 -0.3067843 -0.17489219 -0.12434784 -0.16313145 -0.0333923 -0.20408233
-0.17423835 0.14449014 -0.26557598 -0.5394057 -0.1760539 0.18164392 -0.14958128 0.16073923
-0.60334307 -0.16449137 -0.014005616 0.014925416 -0.08382171 -0.36985457 0.073802345 0.10422673
-0.20929803 -0.109208785 -0.568007 -0.04145169 -0.006001425 -0.022331595 -0.29056093 -0.33047995
-0.1478429 0.07444001 0.14621639 0.20857455 -0.34570217 -0.20721744 0.004588314 -0.48022646
-0.0281175 -0.3284079 -0.052249655 -0.2766546 -0.15247792 0.47251648 -0.103339165 -0.21029386
-0.18229233 -0.17373364 -0.18848677 -0.34090534 -0.35406038 -0.12893239 -0.20284887 -0.16586111
-0.14239115 -0.41368887 -0.24483581 0.10017484 0.07465982 -0.037202697 0.10012336 0.29690385
-0.22649892 -0.1424872 -0.23230682 0.034657523 -0.62357
00000000: 9749 19bf 79c1 19bd d512 9dbe f016 33be
00000010: 15aa febd ee0b 27be 5dc6 08bd f5fa 50be
00000020: 8a6b 32be 39f5 133e 93f9 87be 7e16 0abf
00000030: 7947 34be dd00 3a3e d62b 19be d398 243e
00000040: b174 1abf 6d70 28be d077 65bc bb89 743c
00000050: b7aa abbd 945d bdbe af25 973d d374 d53d
00000060: 3952 56be dba8 dfbd e868 11bf 3fc9 29bd
00000070: 9aa7 c4bb c0f0 b6bc 67c4 94be ab34 a9be
00000080: 2164 17be 0174 983d c0b9 153e 9194 553e
00000090: e0ff b0be cf30 54be 9159 963b 3ee0 f5be
000000a0: ac56 e6bc 1525 a8be bc03 56bd aca5 8dbe
000000b0: 2c23 1cbe aeed f13e 7ca3 d3bd 4657 57be
000000c0: d7aa 3abe 3be7 31be ad02 41be 258b aebe
000000d0: 6747 b5be da06 04be 9db7 4fbe 7fd7 29be
000000e0: fcce 11be 07cf d3be 3db6 7abe 7728 cd3d
000000f0: 3fe7 983d db61 18bd 7a0d cd3d c803 983e
00000100: 55ef 67be 2ae8 11be d7e1 6dbe 0cf5 0d3d
00000110: 49a2 1fbf
