pythorch saved models/discriminator_hybrid.pth (torch, 707466 bytes, 5 tensors)

model.0.weight f4 [512, 86]
-0.007551495 0.11989418 0.14260669 -0.14645244 -0.08743575 -0.291728 -0.026872735 0.02164093
-0.037332676 0.00021250558 -0.003903861 -0.10480987 0.023360126 -0.0018889392 -0.04020917 0.036236852
-0.31765136 -0.35129705 0.03763318 0.12936343 0.0015169417 0.19784825 -0.008299714 0.01766909
-0.019850122 -0.09078863 0.14494826 0.189129 -0.0059059886 0.020557899 0.10660884 0.10791688
-0.3518591 -0.031078879 -0.00505802 -0.054197084 0.03641234 -0.0629943 -0.02288173 0.011093422
-0.0076562 -0.10480094 0.042151593 -0.0019373402 -0.008243837 0.011218391 0.079433985 0.0017046556
0.08619653 0.048012238 -0.054107 -0.1731024 -0.15796657 0.09319349 0.26824206 -0.052367013
0.00615488 -0.008300956 0.18672483 0.0027258694 -0.18033399 -0.05186253 0.11156697 0.106218986
0.013394245 0.0044861934 -0.010955068 0.0029767854 0.01744895 -0.102772065 -0.109087974 -0.10165907
-0.067491375 -0.052404877 -0.066817895 -0.035232518 -0.051953003 -0.06314368 -0.08544807 -0.036562596
-0.085342854 -0.057258878 -0.062793076 -0.10012226 -0.05437886 -0.073821105 0.0075727757 0.18412526
-0.041408047 -0.21057327 0.2109714 0.21617667 0.019659469 0.023001254 -0.017282795 -0.018727165
0.047367625 -0.0074092774 0.11792386 -0.04557432 -0.04709751 0.24662556 -0.056804698 -0.0069005946
-0.054203372 -0.023117865 -0.00881688 0.060854007 -0.04574396 -0.012349922 0.08073858 -0.17859903
0.06514977 -0.009419037 0.08056529 -0.056483265 -0.030388035 0.1776138 0.19071236 -0.18637423
-0.13192418 0.5342898 0.012258894 0.017182516 0.007218411 0.090761125 -0.011436014 0.03512254
0.22077805 0.0123102665 0.009497573 -0.021993358 -0.04032019 0.030982198 -0.16521302 0.04066306
-0.08449058 -0.0984045 0.13152365 0.017933207 -0.28531468 -0.12758055 -0.021257754 0.004233991
-0.16720474 0.06763996 0.013579092 0.14235559 -0.139553 0.080841206 0.003136927 0.08209266
-0.13198246 0.106772974 -0.053297013 0.12104707 0.12376399 0.15775183 0.0015730875 0.057487555
0.042527508 -0.0693515 -0.037218705 0.009302994 0.09684928 -0.00010299991 0.061758526 0.012304466
0.06116911 -0.075535476 -0.007923329 0.07084291 -0.01765571 -0.030651849 -0.08304774 0.052238394
0.11059547 -0.027117345 0.061395433 0.085496046 -0.084925056 -0.002960125 0.12133863 0.0055408766
0.018152663 -0.03817931 -0.13439712 -0.06794219 0.11174863 -0.2084165 -0.13480556 0.022004958
0.17236196 0.10737462 0.008836537 0.093756095 -0.04507375 0.19206905 -0.03777668 0.07129547
0.081016146 0.0016263335 -0.32718712 -0.03542612 0.09053429 0.09080544 0.09817067 -0.17440398
-0.1039163 0.00491964 0.061511908 0.024132008 0.015024799 -0.24238445 0.086762965 0.044794504
0.014517573 -0.16282913 0.03229468 -0.06189436 0.0061535067 0.019400844 -0.08154477 0.041523002
0.019351933 -0.1090757 -0.06914567 -0.013536382 -0.014298437 -0.04213151 -0.012167052 0.0069770226
-0.01572958 0.094440505 -0.047798473 0.020527337 0.10565647 -0.014319022 0.08346768 -0.008693819
0.029824506 -0.10937827 -0.05049052 -0.058390785 0.01567487 -0.049760185 -0.024226619 0.090793304
-0.10064382 -0.08227695 -0.05455913 -0.019384565 -0.012595095 -0.0015592524 -0.15115255 -0.094852075
00000000: 8872 f7bb 148b f53d 7d07 123e a1f7 15be
00000010: 8411 b3bd 5f5d 95be 3624 dcbc 5248 b13c
00000020: 26ea 18bd 08d4 5e39 ebd7 7fbb 8fa6 d6bd
00000030: bc5d bf3c 4896 f7ba 5fb2 24bd 186d 143d
00000040: 33a3 a2be 35dd b3be 4025 1a3d d977 043e
00000050: 1ed4 c63a bb98 4a3e 86fb 07bc c4be 903c
00000060: b99c a2bc 64ef b9bd 516d 143e 08ab 413e
00000070: 0687 c1bb 0a69 a83c bc55 da3d 8603 dd3d
00000080: e026 b4be 2299 febc bfbd a5bb c3fd 5dbd
00000090: 1b25 153d 2803 81bd 7772 bbbc 2fc1 353c
000000a0: dce0 fabb e0a1 d6bd 26a7 2c3d 5aee fdba
000000b0: 2911 07bc 58cd 373c 49ae a23d c06e df3a
000000c0: ce87 b03d 7ba8 443d 4d9f 5dbd c141 31be
000000d0: fdc1 21be 3adc be3d 0657 893e cb7e 56bd
000000e0: e0ae c93b bc00 08bc cb34 3f3e 80a4 323b
000000f0: 79a9 38be ce6d 54bd 397d e43d 5789 d93d
00000100: 8973 5b3c eb00 933b e37c 33bc 2c16 433b
00000110: 1af1 8e3c 297a d2bd 8469 dfbd a132 d0bd
00000120: eb38 8abd 7fa6 56bd d2d7 88bd f94f 10bd
00000130: accc 54bd 7951 81bd 66ff aebd a9c2 15bd
00000140: 3cc8 aebd 4988 6abd a899 80bd e60c cdbd
00000150: 5ebc 5ebd 852f 97bd 0c25 f83b 558b 3c3e
00000160: 7c9b 29bd 85a0 57be e308 583e 6b5d 5d3e
00000170: e50c a13c 206d bc3c a694 8dbc b669 99bc
00000180: 8e04 423d 86c9 f2bb 1182 f13d 23ac 3abd
00000190: 52e9 40bd 698b 7c3e 0bac 68bd 621e e2bb
000001a0: 5b04 5ebd ad61 bdbc ad74 10bc 0d42 793d
000001b0: 055e 3bbd 5457 4abc 455a a53d aae2 36be
000001c0: 3e6d 853d 4e52 1abc 6aff a43d ff5a 67bd
000001d0: 54f0 f8bc 64e0 353e 1a4a 433e e3d8 3ebe
000001e0: 2217 07be 37c7 083f 87d9 483c 59c2 8c3c
000001f0: 6c88 ec3b f8e0 b93d 1f5e 3bbc a7dc 0f3d
00000200: a413 623e 00b1 493c b59b 1b3c 6a2b b4bc
00000210: c926 25bd 61ce fd3c 9a2d 29be 4f8e 263d
00000220: 6609 adbd 4c88 c9bd 23ae 063e a9e8 923c
00000230: c414 92be 7aa4 02be be24 aebc 4abd 8a3b
00000240: b837 2bbe d286 8a3d d77a 5e3c aac5 113e
00000250: fbe6 0ebe 1390 a53d e794 4d3b 3220 a83d
00000260: 6926 07be caab da3d f84d 5abd 87e7 f73d
00000270: fa77 fd3d b289 213e 0f30 ce3a 1278 6b3d
00000280: 5331 2e3d 2908 8ebd a472 18bd 966b 183c
00000290: ea58 c63d a801 d8b8 82f6 7c3d ac98 493c
000002a0: 768c 7a3d 58b2 9abd dad0 01bc 1616 913d
000002b0: b5a2 90bc 9619 fbbc ef14 aabd edf7 553d
000002c0: e17f e23d 3225 debc c779 7b3d 8d18 af3d
000002d0: 30ed adbd a8fe 41bb 6380 f83d 3e90 b53b
000002e0: e5b4 943c e861 1cbd 669f 09be 4625 8bbd
000002f0: 77dc e43d 236b 55be 780a 0abe be43 b43c
00000300: a77f 303e 3ae7 db3d 1fc7 103c 3203 c03d
00000310: 419f 38bd c0ad 443e b8bb 1abd 5c03 923d
00000320: cbeb a53d b22a d53a 1285 a7be fb1a 11bd
00000330: 0b6a b93d 34f8 b93d b40d c93d f596 32be
00000340: 12d2 d4bd ee34 a13b e9f3 7b3d 7db0 c53c
00000350: 932a 763c a133 78be c8b0 b13d 717a 373d
00000360: 1ddb 6d3c aebc 26be 6d47 043d f184 7dbd
00000370: 5ba3 c93b 85ee 9e3c f200 a7bd 0614 2a3d
00000380: f287 9e3c 1563 dfbd 3f9c 8dbd b3c7 5dbc
00000390: fe43 6abc 1792 2cbd 5158 47bc 829f e43b
000003a0: 52db 80bc 066a c13d 55c8 43bd f228 a83c
000003b0: 6b62 d83d 559a 6abc 1af1 aa3d 8570 0ebc
000003c0: 8652 f43c b701 e0bd 26cf 4ebd 2d2b 6fbd
000003d0: 9668 803c 56d1 4bbd e776 c6bc d7f1 b93d
000003e0: 591e cebd d180 a8bd 6579 5fbd 61cc 9ebc
000003f0: a85b 4ebc d45f ccba bcc7 1abe ce41 c2bd

model.0.bias f4 [512]
-0.05700122 -0.06632502 -0.09288126 -0.1634839 -0.15900657 -0.18569525 -0.19719392 -0.1477913
-0.16193429 -0.070297986 -0.2326591 -0.08635165 -0.067742474 -0.07616772 -0.06538644 -0.031241346
-0.14979601 -0.38259172 -0.109520674 -0.13093394 -0.15952756 -0.33020437 -0.21596552 -0.21139571
-0.25433782 -0.023729866 0.025312223 0.012125869 -0.11017663 -0.22441246 -0.36232758 -0.28520927
-0.19720612 -0.19932592 -0.20819302 -0.12080551 -0.064830974 -0.0923417 -0.033157844 -0.24106227
-0.2780971 -0.15111618 -0.11248237 -0.030231435 -0.012761607 -0.16391996 0.031382754 0.11049155
-0.32101172 -0.25533944 -0.07602441 -0.24929716 -0.05104868 -0.027263872 -0.019463224 -0.29617026
0.0038619994 -0.1853575 -0.19470534 -0.2316482 -0.09437155 0.14073429 -0.051149394 -0.18352385
-0.10286798 -0.28327763 -0.32804328 -0.017169474 -0.09053316 -0.37371036 -0.002917 -0.143756
-0.23071077 -0.16991739 -0.2898006 -0.2816672 -0.24369353 -0.12297545 -0.1995639 -0.29664198
-0.14754644 -0.039274704 -0.050584845 -0.30218846 0.029591873 0.04760802 -0.3231934 -0.13987976
-0.29441887 -0.18023968 -0.16758585 -0.09674958 -0.22927286 -0.28999698 0.22018583 -0.08171664
-0.10041051 -0.37821734 -0.23554249 0.012105294 0.0021582523 -0.3307085 -0.3049575 -0.2502021
-0.10282943 -0.030981353 -0.24012053 -0.12305 -0.046486158 0.017674908 -0.10729052 -0.18581961
-0.12330084 -0.1636814 -0.16399944 -0.31114006 -0.14848797 -0.088211946 -0.08510379 -0.16543174
-0.4037981 -0.16539808 -0.11172086 -0.18824483 -0.1957435 -0.1381752 -0.11538437 -0.33987635
-0.21779625 -0.2742246 -0.32519808 -0.23142621 -0.2791906 0.053376954 -0.07589291 -0.31098354
-0.37799424 -0.1640934 0.11800665 -0.18065642 -0.27844286 -0.14832474 -0.16305698 -0.03446072
-0.17035723 -0.1352184 -0.070594355 0.10608311 -0.09381654 -0.2415974 -0.18060988 -0.38042247
-0.10700045 -0.26493177 -0.16224621 -0.2830585 -0.17203374 -0.2173998 -0.09603366 -0.208654
-0.10276694 -0.33284277 -0.3646043 -0.030810038 -0.07995457 -0.09201556 -0.09706975 -0.25175303
0.0007439041 -0.18163475 -0.18269171 -0.4196028 -0.2375396 -0.12660956 -0.20105954 -0.028236687
-0.09524535 -0.12755878 0.041917462 -0.13209808 -0.4082521 -0.39983797 -0.0847406 -0.039685026
-0.32920358 -0.20038542 -0.18278049 -0.11223849 -0.24355356 -0.29419515 -0.06635853 -0.04696502
-0.10128726 -0.1069297 -0.19245665 -0.10778455 -0.19197747 -0.3647581 -0.23362213 -0.3523215
-0.3327723 -0.18854734 -0.07274624 -0.31371033 -0.14796211 -0.11503017 -0.075984396 -0.13474983
-0.13348868 -0.036808833 -0.3096992 -0.12063048 -0.044238694 -0.20344888 -0.14124654 -0.37158093
-0.26658463 -0.21419725 -0.37785423 -0.12982173 0.0038294573 -0.103156656 -0.318087 -0.15770121
-0.11932897 -0.22815756 0.07000545 -0.20960188 -0.15409975 -0.060764726 -0.25563806 -0.017098786
-0.095278956 -0.1989552 -0.31383714 -0.12678501 -0.15428683 -0.19643325 -0.14483942 -0.20430893
-0.18622513 -0.3334966 -0.30381137 -0.09443399 0.13110523 -0.3267568 -0.13776438 -0.11799244
-0.2637676 -0.25998694 -0.060179166 -0.06074784 -0.09564845 -0.11827094 -0.13398455 -0.26021665
00000000: 1c7a 69bd 69d5 87bd 8838 bebd 5368 27be
00000010: 9ed2 22be e526 3ebe 34ed 49be 9a56 17be
00000020: 1ad2 25be 64f8 8fbd 303e 6ebe 22d9 b0bd
00000030: 91bc 8abd d2fd 9bbd 53e9 85bd daed ffbc
00000040: 2064 19be 10e3 c3be 604c e0bd 8c13 06be
00000050: 315b 23be 8c10 a9be 1126 5dbe 1e78 58be
00000060: 9138 82be 2365 c2bc 945b cf3c 95ab 463c
00000070: 49a4 e1bd 61cc 65be 0083 b9be f306 92be
00000080: 67f0 49be 181c 4cbe 8d30 55be e168 f7bd
00000090: 1ac6 84bd a51d bdbd 85d0 07bd 07d9 76be
000000a0: be62 8ebe 33be 1abe 285d e6bd eaa7 f7bc
000000b0: 0f16 51bc a2da 27be 348b 003d 6549 e23d
000000c0: a65b a4be dabb 82be b0b2 9bbd c147 7fbe
000000d0: 6c18 51bd 7c58 dfbc 5771 9fbc a1a3 97be
000000e0: 9919 7d3b 5bce 3dbe d660 47be 3035 6dbe
000000f0: df45 c1bd a61c 103e 0782 51bd aded 3bbe
00000100: 73ac d2bd c409 91be 4af5 a7be ffa6 8cbc
00000110: 7369 b9bd f756 bfbe 242b 3fbb c634 13be
00000120: 723f 6cbe d3fe 2dbe bf60 94be af36 90be
00000130: cc8a 79be 8dda fbbd 7b5a 4cbe 75e1 97be
00000140: 6a16 17be 83de 20bd 0e32 4fbd 72b8 9abe
00000150: a86a f23c a100 433d 9b79 a5be a43c 0fbe
00000160: 12be 96be c090 38be a09b 2bbe a524 c6bd
00000170: 81c6 6abe 7c7a 94be 6578 613e 0e5b a7bd
00000180: 07a4 cdbd b4a5 c1be 0d32 71be 4855 463c
00000190: 7771 0d3b a052 a9be 6423 9cbe 7d1a 80be
000001a0: 3c98 d2bd 9bcc fdbc 28e2 75be a301 fcbd
000001b0: 4568 3ebd f8ca 903c 22bb dbbd 7f47 3ebe
000001c0: 2785 fcbd 199c 27be 78ef 27be c04d 9fbe
000001d0: 3b0d 18be 77a8 b4bd e54a aebd f066 29be
000001e0: a0be cebe 1d5e 29be e8cd e4bd 41c3 40be
000001f0: fc70 48be cd7d 0dbe a44e ecbd 4604 aebe
00000200: fb05 5fbe 2b67 8cbe 5d80 a6be fefa 6cbe
00000210: 12f2 8ebe cba1 5a3d be6d 9bbd 3c39 9fbe
00000220: 7688 c1be 1a08 28be 78ad f13d fffd 38be
00000230: 1090 8ebe 71e2 17be 69f8 26be af26 0dbd
00000240: 2072 2ebe b176 0abe c693 90bd 1a42 d93d
00000250: e322 c0bd 4f65 77be ccf1 38be bcc6 c2be
00000260: 0d23 dbbd 23a5 87be df23 26be 0bed 90be
00000270: 9d29 30be 0e9e 5ebe 4cad c4bd 65a9 55be
00000280: 7977 d2bd 5e6a aabe 6aad babe 5565 fcbc
00000290: 39bf a3bd a772 bcbd 81cc c6bd c6e5 80be
000002a0: 8f02 433a 76fe 39be 8913 3bbe 2ed6 d6be
000002b0: 953d 73be f0a5 01be 8de2 4dbe a050 e7bc
000002c0: fe0f c3bd c59e 02be a5b1 2b3d b844 07be
000002d0: 6b06 d1be 90b7 ccbe 7b8c adbd c48c 22bd
000002e0: 5f8d a8be d631 4dbe cf2a 3bbe 4bdd e5bd
000002f0: 1b66 79be bfa0 96be fbe6 87bd 655e 40bd
00000300: b26f cfbd f5fd dabd 5b13 45be 25be dcbd
00000310: be95 44be 93c1 babe a43a 6fbe 7c63 b4be
00000320: 2261 aabe 8e12 41be fbfb 94bd a49e a0be
00000330: 6183 17be f094 ebbd b59d 9bbd dcfb 09be
00000340: 42b1 08be dcc4 16bd e590 9ebe 1d0d f7bd
00000350: a233 35bd e754 50be efa2 10be db3f bebe
00000360: c87d 88be 8656 5bbe 1c76 c1be fdef 04be
00000370: a2f7 7a3b cc43 d3bd 4ddc a2be 6d7c 21be
00000380: bf62 f4bd 23a2 69be 045f 8f3d e0a1 56be
00000390: 53cc 1dbe 6fe4 78bd fee2 82be c112 8cbc
000003a0: 9d21 c3bd e9ba 4bbe 43af a0be eed3 01be
000003b0: 5efd 1dbe cc25 49be c950 14be 5c36 51be
000003c0: cdb1 3ebe 11c0 aabe 2a8d 9bbe 9c66 c1bd
000003d0: 7340 063e ab4c a7be 1b12 0dbe 05a6 f1bd
000003e0: 8c0c 87be 021d 85be 6e7e 76bd bad2 78bd
000003f0: 56e3 c3bd 0938 f2bd 3f33 09be 1e3b 85be

model.3.weight f4 [256, 512]
0.08857246 1.7811924e-05 -0.0017005047 0.017512662 -0.01708799 0.032018106 -0.027736738 -0.03494275
-0.023853688 0.059091773 0.011873969 0.034742344 -0.08406727 0.058510117 0.042479206 0.0028286094
0.030513149 0.06255266 0.026389075 0.124427974 -0.08501388 0.015302718 0.011093377 0.061251942
-0.008699596 -0.074669555 -0.020973971 0.010211582 0.019817404 -0.011388707 0.13220532 -0.008597592
-0.021687657 -0.024381947 -0.039469104 0.012550151 0.10212951 0.011610488 0.0905839 0.18959439
-0.065803304 0.038629808 0.016074486 -0.051012974 -0.019406673 0.014580638 -0.043228764 0.015100139
0.032103155 -0.012916317 0.033349395 -0.052903682 -0.08132458 -0.019301811 -0.031829413 0.0015652383
-0.034652703 0.115738906 -0.046549823 -0.08255546 -0.12935652 -0.03817784 0.025070537 -0.06250027
-0.0012241708 -0.032868862 0.014371657 0.02369584 0.038353186 -0.04416607 -0.025981981 -0.022113318
0.068559185 0.07728604 0.040352594 -0.04773971 0.023683872 0.0851651 -0.015545676 0.007155837
0.012752809 -0.14702082 0.0109099215 0.05856051 -0.05241453 -0.03970256 -0.05191567 -0.068318054
0.037634242 0.0006946435 -0.04549852 0.011039987 0.034191992 -0.12512732 0.09969371 -0.12443694
0.064436875 0.085761346 0.014928122 -0.01933944 0.004497308 -0.012004571 0.1363964 0.0038350953
0.13702977 -0.03340187 -0.053101778 -0.18393783 0.07691182 -0.03406167 -0.0012736695 -0.055502914
0.002217732 0.0028529966 0.019129336 0.37201706 0.09860851 0.08194235 -0.046637014 0.029553935
0.08607935 -0.0342394 -0.030849367 -0.027836861 -0.09809734 -0.12313835 -0.043083344 0.07588096
0.008313675 -0.023351906 -0.023977531 0.0038374602 0.027426371 -0.00085328723 0.2105519 0.04808255
0.08519707 -0.01157362 -0.003626204 0.12203865 0.030320887 -0.13131045 0.105946735 0.015417932
-0.07461713 0.14473277 0.020449635 0.065386735 0.00221721 0.013318422 0.0058152834 -0.039134193
0.023614924 0.0735739 0.11100147 0.040584557 0.022590753 0.015764399 -0.040362332 -0.003098143
0.07051528 -0.010406277 -0.0141909495 -0.00170761 0.024585435 0.01797862 0.032946132 -0.04553041
0.051482156 0.016422322 -0.035460483 0.049989674 -0.14155084 0.06995646 -0.038108934 -0.030795677
0.07542297 -0.048164483 0.024295382 0.09227854 0.15791048 0.018505493 0.015831737 0.08623424
0.022002788 0.10125827 -0.0376374 -0.05438973 -0.0032969548 0.0004099878 -0.054022882 -0.011793494
-0.05437241 0.029983833 0.15938474 -0.024975035 -0.06064378 -0.0071768016 0.002613118 -0.0012364747
-0.01153081 -0.03787798 0.039675463 0.1340242 0.16427375 0.045339398 0.06745496 0.012329974
0.010952964 -0.017737202 -0.12939274 -0.037218094 0.020888854 -0.042033423 0.00993503 0.06270993
-0.0053689345 -0.04118817 0.054748554 0.06060494 -0.043396797 -0.001362807 0.053899027 0.013487548
0.16916229 0.05428654 0.031967986 -0.13313676 -0.03291235 0.01561326 -0.0018494504 0.5758433
-0.09967186 -0.13479577 0.043082803 0.013917148 0.07820254 0.049374755 -0.1386507 -0.016268754
0.022102756 0.06489596 0.00038903498 -0.059510674 0.016764658 -0.0024318323 0.08525309 0.0058246893
-0.010863093 -0.04543589 0.10438253 0.03937825 -0.13216309 0.04931013 -0.03305251 0.256575
00000000: 7a65 b53d d16a 9537 78e3 deba b776 8f3c
00000010: 1dfc 8bbc 6b25 033d 2838 e3bc 2120 0fbd
00000020: cf68 c3bc 370a 723d 098b 423c fd4d 0e3d
00000030: 762b acbd 4ea8 6f3d adfe 2d3d 3160 393b
00000040: b6f6 f93c 9c1b 803d e72d d83c 18d4 fe3d
00000050: c21b aebd 40b8 7a3c ffc0 353c 51e3 7a3d
00000060: c088 0ebc 5aec 98bd 9bd1 abbc 7b4e 273c
00000070: 1c58 a23c b397 3abc d560 073e eadc 0cbc
00000080: 50aa b1bc a6bc c7bc 5baa 21bd 269f 4d3c
00000090: 4729 d13d eb39 3e3c 0d84 b93d 0825 423e
000000a0: e2c3 86bd 4a3a 1e3d a4ae 833c fbf2 50bd
000000b0: befa 9ebc a1e3 6e3c a510 31bd 9366 773c
000000c0: 997e 033d f69e 53bc 6099 083d 88b1 58bd
000000d0: 808d a6bd d51e 9ebc 8f5f 02bd af28 cd3a
000000e0: feef 0dbd 8508 ed3d 07ab 3ebd d612 a9bd
000000f0: 0976 04be 5e60 1cbd ba60 cd3c 2400 80bd
00000100: 5b74 a0ba 80a1 06bd 1977 6b3c c71d c23c
00000110: 3b18 1d3d 7be7 34bd 2ad8 d4bc fd26 b5bc
00000120: c268 8c3d 2548 9e3d c348 253d b78a 43bd
00000130: ae04 c23c 0a6b ae3d 4bb3 7ebc 837b ea3b
00000140: 28f1 503c a08c 16be 87bf 323c 25dd 6f3d
00000150: 9eb0 56bd 279f 22bd 87a5 54bd 56ea 8bbd
00000160: 5d26 1a3d bc18 363a a85c 3abd 10e1 343c
00000170: e70c 0c3d 6021 00be 372c cc3d cbd8 febd
00000180: 7bf7 833d a5a3 af3d 1595 743c bf6d 9ebc
00000190: 275e 933b d2ae 44bc 7fab 0b3e 3956 7b3b
000001a0: 8851 0c3e 66d0 08bd 4081 59bd 335a 3cbe
000001b0: f283 9d3d 4084 0bbd 42f1 a6ba 0657 63bd
000001c0: 5e57 113b 57f9 3a3b 20b5 9c3c 0579 be3e
000001d0: 42f3 c93d 64d1 a73d 7406 3fbd 181b f23c
000001e0: 5f4a b03d 9d3e 0cbd d0b7 fcbc 210a e4bc
000001f0: 42e7 c8bd f62f fcbd 2978 30bd 7a67 9b3d
00000200: 1536 083c 7f4c bfbc 876c c4bc e67d 7b3b
00000210: 45ad e03c 23af 5fba eb9a 573e 35f2 443d
00000220: cd7b ae3d 489f 3dbc 9ca5 6dbb 66ef f93d
00000230: 8263 f83c 3f76 06be 9afa d83d 7e9b 7c3c
00000240: ded0 98bd d434 143e fe85 a73c 7be9 853d
00000250: 9c4e 113b 8335 5a3c 228e be3b 2d4b 20bd
00000260: 1674 c13c eaad 963d bd54 e33d fe3b 263d
00000270: 3e10 b93c 5724 813c f952 25bd 370a 4bbb
00000280: 516a 903d 177f 2abc 2881 68bc e2d1 dfba
00000290: 6567 c93c e647 933c 86f2 063d 187e 3abd
000002a0: f4de 523d 1b88 863c 033f 11bd f9c1 4c3d
000002b0: b4f2 10be 5545 8f3d 1d18 1cbd 3747 fcbc
000002c0: 5c77 9a3d 1f48 45bd 1c07 c73c 88fc bc3d
000002d0: 49b3 213e d598 973c 8fb1 813c 949b b03d
000002e0: 313f b43c 7f60 cf3d ad29 1abd c4c7 5ebd
000002f0: b911 58bb a2f3 d639 1947 5dbd 8039 41bc
00000300: 9bb5 5ebd a8a0 f53c c135 233e 7298 ccbc
00000310: 9d65 78bd 602b ebbb d840 2b3b 3511 a2ba
00000320: b9eb 3cbc f125 1bbd bd82 223d a43d 093e
00000330: 6137 283e ceb5 393d d325 8a3d a903 4a3c
00000340: 1074 333c 9c4d 91bc 887f 04be 0072 18bd
00000350: 1a1f ab3c 3d2b 2cbd 89c6 223c 106e 803d
00000360: e3ed afbb edb4 28bd 0540 603d e33c 783d
00000370: d7c0 31bd 37a0 b2ba 3ac5 5c3d e0fa 5c3c
00000380: e138 2d3e 905b 5e3d ddf0 023d 0155 08be
00000390: 1acf 06bd c2ce 7f3c 4269 f2ba 776a 133f
000003a0: c320 ccbd e707 0abe 9877 303d c004 643c
000003b0: a728 a03d 2f3d 4a3d 73fa 0dbe 0d46 85bc
000003c0: d710 b53c 2ce8 843d 64f7 cb39 77c1 73bd
000003d0: 0956 893c 605f 1fbb 2c99 ae3d 09dd be3b
000003e0: 1dfb 31bc fc1a 3abd 82c6 d53d 164b 213d
000003f0: c355 07be 6bf9 493d 1262 07bd cc5d 833e

model.3.bias f4 [256]
-0.032066695 0.001391008 0.14540417 -0.18126954 0.13961434 0.061941486 -0.18794113 -0.002517689
-0.1754169 0.070355155 0.11678779 0.014914844 -0.07262866 -0.0055509927 0.0020956066 -0.11524491
0.08008553 -0.004055626 0.10765538 -0.19974229 -0.18238147 -0.20264144 0.022994675 0.0750158
-0.003932456 0.100026086 -0.009942557 0.07648651 0.0073657813 0.016442623 -0.066814825 0.03866712
-0.07514259 0.13514687 0.011493208 0.066092215 0.002671053 0.07741196 0.13262887 -0.03355834
-0.110390835 -0.05375722 -0.012554908 0.07910682 -0.050419167 -0.16204849 -0.18939868 0.060597528
-0.045408715 -0.025529465 -0.14556047 0.026554447 -0.15469213 0.04504472 -0.0025808879 -0.11424561
-0.19027704 0.12293387 -0.22856916 -0.06619506 0.050511587 -0.14916009 -0.0063634356 0.030214624
-0.05650556 -0.05553302 0.047002774 -0.0983521 -0.23446058 0.033873647 0.13209242 0.085621975
0.1016653 -0.21002184 0.049329896 -0.06810949 -0.17069034 0.05834403 0.03086129 0.068381205
-0.057376888 0.103549644 -0.04655122 0.020278228 0.1431347 -0.19884126 0.08412468 0.053109426
0.13557209 -0.03444589 -0.06103045 -0.012778317 -0.22492768 -0.15369305 0.03448753 -0.15151319
-0.0014942242 -0.12478043 0.04093873 0.05881795 -0.066209435 -0.08985468 -0.07020234 0.035509072
0.14411855 -0.06798541 -0.093855835 -0.052560348 0.06828959 -0.05840145 -0.016421836 0.051007614
-0.06332861 0.053924747 -0.01934047 -0.10445559 -0.16114712 0.06895494 0.01358217 0.07851863
-0.11088529 0.12379583 0.005753667 0.050556947 -0.048318435 -0.01772569 0.08051657 0.12784317
-0.05331675 -0.033312492 0.028777337 -0.14064154 -0.005685286 -0.18516612 0.022118215 -0.070870765
-0.0034021167 -0.09403683 0.1039055 -0.18655513 0.08113202 -0.052541126 0.091010965 -0.023242809
-0.04618683 -0.16955833 0.13380018 -0.111698315 0.014541321 -0.05765953 0.08922904 -0.0050871028
-0.17379251 -0.12646447 -0.15256715 -0.13933854 0.095462315 -0.27173787 -0.001782961 0.0188751
-0.005579647 -0.18294708 -0.32931957 -0.07049124 0.086091 0.009175008 -0.0871614 -0.03511737
0.0060421466 -0.0839741 -0.12219854 -0.21287593 -0.033338875 0.06288925 -0.11724517 -0.022678804
0.091466576 -0.038226407 -0.023547968 -0.05938724 -0.05853837 0.04928484 -0.2190502 0.039721847
0.008601572 -0.07283941 -0.029892957 -0.08814931 0.057090737 0.010912209 0.11450821 -0.04149302
-0.2320837 -0.06009008 0.0502872 -0.055261575 0.010889872 0.11527653 -0.02081641 -0.04031946
-0.19203566 0.0277455 -0.15311335 0.00095160067 0.11542477 -0.16720416 -0.025023509 0.015115147
-0.0298224 -0.079024814 -0.07848086 -0.02038208 0.026877446 -0.090305805 -0.010391296 0.01375923
-0.038184185 0.015896676 -0.08234777 -0.1835754 -0.0024164573 0.11335026 -0.017691623 0.011404389
0.06432368 -0.010885629 -0.023025809 0.13546169 0.1557093 -0.014950982 -0.24232817 0.033405863
0.00040029705 -0.12976192 0.061606735 0.10246218 -0.053644236 0.06887729 0.11362497 -0.033566516
-0.022047775 0.0333811 -0.13813902 -0.02986181 -0.05887713 0.009254477 -0.08234078 -0.040035933
-0.0949059 -0.07493791 -0.14717169 0.1287711 -0.2515743 0.011065345 0.008972619 -0.1337687
00000000: 5e58 03bd 7c52 b63a d5e4 143e b99e 39be
00000010: 10f7 0e3e 5bb6 7d3d a473 40be d0ff 24bb
00000020: 7da0 33be 5d16 903d 702e ef3d 645d 743c
00000030: 56be 94bd 1ae5 b5bb 7256 093b 8605 ecbd
00000040: e203 a43d 0fe5 84bb 6d7a dc3d 3e89 4cbe
00000050: 35c2 3abe 3d81 4fbe 545f bc3c e2a1 993d
00000060: d5db 80bb 7ada cc3d 1be6 22bc f6a4 9c3d
00000070: a75c f13b aeb2 863c 36d6 88bd 6a61 1e3d
00000080: 5ce4 99bd f163 0a3e 024e 3c3c 5b5b 873d
00000090: d50c 2f3b 298a 9e3d ddcf 073e 7874 09bd
000000a0: 9714 e2bd 8830 5cbd 1ab3 4dbc c202 a23d
000000b0: 5484 4ebd 0af0 25be baf1 41be 1d35 783d
000000c0: 7dfe 39bd 2b23 d1bc ce0d 15be b688 d93c
000000d0: 9d67 1ebe d080 383d 1d24 29bb 9af9 e9bd
000000e0: fcd7 42be c1c4 fb3d 090e 6abe 4791 87bd
000000f0: 3de5 4e3d 6cbd 18be 5e84 d0bb a984 f73c
00000100: 6072 67bd 9876 63bd fb85 403d d36c c9bd
00000110: 6f16 70be 18bf 0a3d 3c43 073e 935a af3d
00000120: e635 d03d f70f 57be 250e 4a3d fd7c 8bbd
00000130: 73c9 2ebe 26fa 6e3d d1d0 fc3c 720b 8c3d
00000140: 0704 6bbd d611 d43d 7eac 3ebd 871e a63c
00000150: e791 123e 0b9d 4bbe 8f49 ac3d 4589 593d
00000160: 69d3 0a3e 2217 0dbd 11fb 79bd 255c 51bc
00000170: 7153 66be b661 1dbe cc42 0d3d 4626 1bbe
00000180: d8d9 c3ba e28c ffbd 5faf 273d 17eb 703d
00000190: d098 87bd bb05 b8bd 3fc6 8fbd f671 113d
000001a0: d093 133e ef3b 8bbd 7d37 c0bd 8549 57bd
000001b0: 6adb 8b3d 5c36 6fbd 1687 86bc 5ced 503d
000001c0: 6eb2 81bd 32e0 5c3d e86f 9ebc d0ec d5bd
000001d0: c003 25be 3f38 8d3d c087 5e3c 60ce a03d
000001e0: d417 e3bd ab88 fd3d 4289 bc3b cd14 4f3d
000001f0: 8de9 45bd 7735 91bc dfe5 a43d 52e9 023e
00000200: aa62 5abd ae72 08bd 73be eb3c 5604 10be
00000210: a34b babb 309c 3dbe 4231 b53c b124 91bd
00000220: 0cf6 5ebb 6296 c0bd 68cc d43d 4f08 3fbe
00000230: 8b28 a63d 5d35 57bd f563 ba3d b467 bebc
00000240: 672e 3dbd b3a0 2dbe ea02 093e 16c2 e4bd
00000250: b93e 6e3c 662c 6cbd b7bd b63d b6b1 a6bb
00000260: aaf6 31be e77f 01be 903a 1cbe c3ae 0ebe
00000270: bf81 c33d 3a21 8bbe 3eb2 e9ba f49f 9a3c
00000280: 79d5 b6bb 7b56 3bbe 939c a8be b65d 90bd
00000290: 7a50 b03d c652 163c ad81 b2bd 3bd7 0fbd
000002a0: 33fd c53b 9dfa abbd 3a43 fabd 26fc 59be
000002b0: 588e 08bd 14cc 803d 3c1e f0bd e6c8 b9bc
000002c0: d452 bb3d 4b93 1cbd abe7 c0bc 0940 73bd
000002d0: eec5 6fbd e6de 493d b24e 60be 60b3 223d
000002e0: 9ced 0c3c d42c 95bd 13e2 f4bc a087 b4bd
000002f0: fad7 693d 1fc9 323c 4883 ea3d 96f4 29bd
00000300: 59a7 6dbe 0421 76bd f3f9 4d3d f659 62bd
00000310: 6f6b 323c 1a16 ec3d 2d87 aabc 0526 25bd
00000320: ffa4 44be 884a e33c bfc9 1cbe d774 793a
00000330: d263 ec3d 9137 2bbe 1afe ccbc 86a5 773c
00000340: 1b4e f4bc c3d7 a1bd 93ba a0bd 52f8 a6bc
00000350: 172e dc3c 40f2 b8bd 4140 2abc 656e 613c
00000360: 0567 1cbd bf39 823c f3a5 a8bd 31fb 3bbe
00000370: 6d5d 1ebb 2e24 e83d 06ee 90bc 79d9 3a3c
00000380: 22bc 833d a359 32bc 9fa0 bcbc 78b6 0a3e
00000390: 4272 1f3e f7f4 74bc e024 78be 96d4 083d
000003a0: f6de d139 4fe0 04be 5857 7c3d b1d7 d13d
000003b0: 0fba 5bbd 890f 8d3d 35b4 e83d 0b7d 09bd
000003c0: 899d b4bc 9fba 083d 5174 0dbe c1a0 f4bc
000003d0: 2529 71bd 17a0 173c 48a2 a8bd b8fc 23bd
000003e0: 065e c2bd 0c79 99bd 2db4 16be 92dc 033e
000003f0: 59ce 80be 6c4b 353c e401 133c a9fa 08be

model.6.weight f4 [1, 256]
-0.09757493 -0.14585531 -0.23650715 0.19837075 -0.13682577 -0.05695091 0.2055246 0.19978987
-0.3698456 -0.23664059 -0.15859887 0.22039472 -0.11099818 -0.21572165 -0.1748651 0.2107077
-0.23464306 -0.28035498 -0.12627721 0.23712824 0.25076592 0.25997818 -0.10112797 -0.26642215
0.20691335 -0.14980054 -0.30321276 -0.16550411 -0.17734322 -0.16565381 0.23554696 0.20568955
-0.072550476 -0.17288996 -0.07768893 -0.24866647 -0.09673327 -0.18950711 -0.19533694 0.20566393
0.23644085 -0.0994992 0.23901382 -0.20941266 0.17339455 -0.3508871 0.23677692 -0.18219139
0.18621133 -0.13080752 -0.20859456 -0.144891 0.21309996 -0.08287686 0.18635115 -0.11911113
0.19476888 -0.2353323 0.22267026 -0.15769948 -0.26207283 -0.24422608 -0.1218278 -0.26911336
0.13779196 0.17621905 0.17889613 -0.13954611 -0.40952617 -0.3541845 -0.15548033 -0.1566986
-0.176452 -0.19717604 0.20354152 0.19929695 -0.29431164 -0.117962554 -0.30604863 -0.11876887
0.18208912 -0.08559858 -0.074301735 -0.18114467 -0.18562959 0.29044163 -0.28813958 0.22447035
-0.15971135 0.20566368 -0.22324456 0.22981165 -0.32857326 0.28384316 0.21117482 0.2296801
0.17522173 0.19650373 -0.108775385 -0.11625401 0.14791526 -0.3452268 -0.19864075 -0.12297076
-0.11834108 0.19753177 0.23489426 -0.22620772 -0.18276069 -0.28330168 0.23378368 -0.10661417
-0.30749562 0.19484009 0.20602173 -0.29580334 0.217793 -0.15085317 0.22924839 -0.14187333
-0.25741574 -0.12903883 0.16106899 0.16297054 0.17834501 -0.17753664 -0.13251455 -0.15780246
0.22457734 0.210433 -0.2589883 0.24674606 -0.221077 0.20757118 -0.13591108 0.20715632
0.23367952 -0.13362895 -0.22114007 0.22289406 -0.18506134 -0.20930362 -0.110972516 0.19346797
0.15539218 -0.23396792 -0.14180532 0.17423855 -0.09186576 0.17041126 -0.14718252 -0.12756275
0.18936808 -0.18099502 0.19219884 0.17483598 -0.06533577 -0.24229352 0.21842228 -0.101723775
-0.34306553 0.20420118 -0.4321336 0.20997994 -0.21050084 0.176874 -0.10073443 0.22616929
-0.43627262 0.15903494 0.21064126 -0.14299342 -0.15663187 -0.13752271 -0.14255841 0.23167817
-0.19945082 -0.09479479 0.16177395 0.18959963 -0.28767708 0.23016995 0.21912344 -0.26107618
0.24345616 -0.14172058 -0.11499374 -0.35802096 -0.090314284 -0.27092704 -0.15422876 -0.15563262
-0.28952965 -0.22831862 -0.15578467 -0.1313439 0.21234153 -0.23302671 0.20954077 0.17976618
-0.31366518 -0.10486609 0.24155128 -0.06296273 -0.17163002 -0.3655498 0.16448137 0.21277545
0.13088906 -0.25226834 0.20238696 0.20546824 0.23209658 0.14494854 -0.18041293 0.18569216
0.21000323 -0.097630695 -0.09931924 0.20153219 0.2099941 -0.2131672 0.15346915 -0.1474101
-0.12981015 -0.11072541 0.19212046 -0.18149064 -0.19312222 0.21757793 -0.33024457 0.20150322
-0.17069681 0.25070196 -0.088050544 -0.16247407 -0.0704379 -0.2388 -0.15666388 0.21470451
-0.1652961 0.11766438 -0.21519731 -0.12530005 0.1473848 0.23233563 0.18007527 -0.21913262
-0.124247506 0.1928442 -0.2257812 -0.22282128 -0.2725354 -0.1393618 0.23840691 0.19468564
00000000: 5dd5 c7bd 185b 15be ee2e 72be b421 4b3e
00000010: 0e1c 0cbe 5b45 69bd 0a75 523e b795 4c3e
00000020: 675c bdbe e951 72be be67 22be 27af 613e
00000030: 0453 e3bd 23e6 5cbe d60f 33be c2c3 573e
00000040: 4546 70be b08a 8fbe d04e 01be bfd1 723e
00000050: 6464 803e dc1b 853e 2e1c cfbd 7c68 88be
00000060: 18e1 533e 5065 19be b43e 9bbe e979 29be
00000070: 7699 35be 27a1 29be 3933 713e 48a0 523e
00000080: 5895 94bd 110a 31be 601b 9fbd 6ca2 7ebe
00000090: 181c c6bd 270e 42be 6806 48be 9199 523e
000000a0: 8d1d 723e 3dc6 cbbd 0ac0 743e 4670 56be
000000b0: 578e 313e 79a7 b3be a675 723e 6190 3abe
000000c0: 2fae 3e3e 68f2 05be d099 55be 4e5e 14be
000000d0: e036 5a3e 58bb a9bd d6d2 3e3e 89f0 f3bd
000000e0: 7e71 473e f3fa 70be ac03 643e f97b 21be
000000f0: 692e 86be 6716 7abe db80 f9bd 3ac9 89be
00000100: 5619 0d3e c472 343e 8c30 373e 2de5 0ebe
00000110: 6aad d1be ac57 b5be 3c36 1fbe 9975 20be
00000120: d5af 34be 84e8 49be 306d 503e 8014 4c3e
00000130: 04b0 96be 5a96 f1bd 68b2 9cbe 183d f3bd
00000140: 9275 3a3e 4f4e afbd 822b 98bd fd7d 39be
00000150: af15 3ebe c4b4 943e 0887 93be 8edb 653e
00000160: 5f8b 23be 8099 523e 399a 64be bf53 6b3e
00000170: c13a a8be e453 913e 363e 583e 4331 6b3e
00000180: 536d 333e 4638 493e a1c5 debd 9516 eebd
00000190: 1977 173e 91c1 b0be 7b68 4bbe 18d8 fbbd
000001a0: cf5c f2bd c545 4a3e 1f88 703e ffa2 67be
000001b0: 9e25 3bbe eb0c 91be fd64 6f3e 8858 dabd
000001c0: 1170 9dbe 2984 473e 5cf7 523e 8973 97be
000001d0: 2105 5f3e 4179 1abe 17c0 6a3e 3e47 11be
000001e0: ffcb 83be c122 04be 45ef 243e c0e1 263e
000001f0: 13a0 363e 2acc 35be e5b1 07be f896 21be
00000200: 9af7 653e c07b 573e 1d9a 84be 00ab 7c3e
00000210: 0262 62be 8a8d 543e 462c 0bbe c920 543e
00000220: af49 6f3e 07d6 08be 8b72 62be 573e 643e
00000230: b880 3dbe b053 56be 8f45 e3bd 781c 463e
00000240: 211f 1f3e 4995 6fbe 6a35 11be 976b 323e
00000250: 1e24 bcbd 4a80 2e3e 04b7 16be cf9f 02be
00000260: b5e9 413e c256 39be c6cf 443e 3408 333e
00000270: c3ce 85bd cb1b 78be 17aa 5f3e 8e54 d0bd
00000280: 49a6 afbe 1d1a 513e 9d40 ddbe fb04 573e
00000290: 888d 57be 751e 353e da4d cebd ec98 673e
000002a0: 205f dfbe 0eda 223e 58b2 573e de6c 12be
000002b0: 1b64 20be c1d2 0cbe d5fa 11be 0b3d 6d3e
000002c0: d63c 4cbe c523 c2bd 12a8 253e 6826 423e
000002d0: 694a 93be acb1 6b3e e561 603e c7ab 85be
000002e0: 924c 793e 331f 11be d781 ebbd 864e b7be
000002f0: b2f6 b8bd f3b6 8abe 25ee 1dbe 285e 1fbe
00000300: 3b3d 94be 5bcc 69be 0486 1fbe 047f 06be
00000310: 0f70 593e 8e9e 6ebe db91 563e a014 383e
00000320: b998 a0be 08c4 d6bd 3859 773e 9bf2 80bd
00000330: c8bf 2fbe 5829 bbbe ce6d 283e cfe1 593e
00000340: c807 063e 5129 81be 873e 4f3e 4466 523e
00000350: baaa 6d3e 646d 143e 2bbe 38be 1626 3e3e
00000360: 160b 573e 9af2 c7bd e367 cbbd 745e 4e3e
00000370: b108 573e 8148 5abe 0427 1d3e acf2 16be
00000380: f4ec 04be 01c4 e2bd 3abb 443e afd8 39be
00000390: d5c1 45be c0cc 5e3e d115 a9be dc56 4e3e
000003a0: 25cb 2ebe 025c 803e d853 b4bd 9a5f 26be
000003b0: bf41 90bd fd87 74be 7f6c 20be 80db 5b3e
000003c0: 6143 29be 06fa f03d af5c 5cbe a84e 00be
000003d0: 0aec 163e 64e9 6d3e a765 383e 4d64 60be
000003e0: 7a75 febd f378 453e 3033 67be 432b 64be
000003f0: c389 8bbe dcb4 0ebe f120 743e ac5b 473e
