pythorch saved models/discriminator_cgan_ssl.pth (torch, 707550 bytes, 5 tensors)

model.0.weight f4 [512, 86]
00000000: bd29 30bb a6f9 843c 2c45 5cbd 5f54 d83c
00000010: 4bd1 d03e a8e8 e1bd 3ef9 f83b 9838 10bd
00000020: 2ea8 9abc c864 1b3c 46ea 763d 4bd9 ae3c
00000030: 60ba 8ebd 6e37 f839 37d3 37bc 5ef4 98be
00000040: e7c2 57be d3f0 c53d d1dc 21bd 75c1 0a3e
00000050: 9a34 aa3d 944b 88bd 385b 463e c92c 3cbe
00000060: 4f74 843d 219f a8bd ade5 223e f120 32be
00000070: 54ae 383e 5d2c 29be 75bb 05bc 4139 a8be
00000080: 2f30 90be 082c 823e 1d19 c83d 5634 2bbe
00000090: 70b4 5cbd 9f46 5bbd 884d 843b 98d6 153c
000000a0: 88c9 89bd 30f5 5c3c 5c3a f43e e612 aabe
000000b0: 870d cabe a739 c839 f93c 6b3f 3249 453b
000000c0: 3ec8 983d 5953 4b3c c82a 803d 3da1 603d
000000d0: 51c3 023f f78f eabe bfd3 823e 5caf 073d
000000e0: 048d 95be c69a 12bc 2868 62be 0208 97bc
000000f0: 0089 b5bd f82b 4fbd 02bf 693d 3f08 ee3c
00000100: c0f5 fabb 0e41 e4bb 28c4 91bc 85bf c93b
00000110: 2453 8d3a 55ee 7938 c50e a4bc 6a72 90bb
00000120: 345f 3c3c 423c bf3b 16dc 7ebb 85c8 003c
00000130: 647e 4abb 834e 343c dfb4 daba acf9 88ba
00000140: e225 c3bb 5848 0ebb f94f faba ddf2 623c
00000150: 2c8e 2cba 91a4 fa3b 22a7 cb3b 6f3f 6bbd
00000160: 4bfe 573c 79f0 7d3d 8402 cf3d 22d6 08bc
00000170: 5b5e 223b 96da b83c e3d3 03bc 289c 1abc
00000180: c38c dfbb 17e7 243b cf72 b43c 7740 693b
00000190: 6c0d d43c dc6c 35bd 62c6 e23c 1f6a 933b
000001a0: b078 b93c 27bd debc c459 333d bb30 553d
000001b0: a608 a0bd 8c23 e73c 2f16 25bd 9efd cc3b
000001c0: 1e68 103c b772 8dbc 36ed 453c 648f 99bb
000001d0: 2916 2abb eedd ee3c 488f 963d bf03 8a3d
000001e0: 768b ac3b fe37 62bc 3627 da3b 1176 02bd
000001f0: 1104 8bbc a2c4 4a3c a6ca b9bd c805 b8ba
00000200: 1e8e 753e d754 0fbd 2662 87bc 6e13 aebb
00000210: 3557 7c3e a2f0 0cbc f4f7 313d 7157 293d
00000220: f9c9 11bd 5cb0 aabd 93fb 6f3d c01a f83b
00000230: 7cb9 0cbe 499a fa3b 114d 17bb d0c1 103c
00000240: 0f74 75be 98ab 293f 73df 1a3b fad7 143d
00000250: 6507 30bd 39cb 0a3d c35e b53c e6f0 203b
00000260: 530a 3bbc c5d6 9bbc 61ab 0fbc 96a0 e4bd
00000270: f376 0abe c453 07be 8317 a0bd ba1a cfbd
00000280: 0215 e2bd 8f6f 16be 9987 01bc a61f bd3d
00000290: 1ee1 d4bd 8645 16be a6b2 e6bd 8107 17be
000002a0: eed3 d8bd 457b 32bd 744b efbd b0c7 a9bd
000002b0: 2c39 b8bc 4ace b5bd db3c 70be 8613 273e
000002c0: c34e 26be a926 5d3b fdc6 6bbd 4492 5f3d
000002d0: 9ce9 e0bd a664 393e 04f6 83bd 4451 43bc
000002e0: e91e 7bbd 6b0d 523e 698d 243e d3b7 673d
000002f0: 214f e73d 72ea 053d 61cf 393c 5d35 263d
00000300: 27aa 52bd 7176 4b3a 1348 9e3c b027 03bd
00000310: 1c8d 2a3d 0158 0b3c 729e 58bd 530a b1bd
00000320: 7c93 46bd 91c5 633e a7db 493d 9a70 89be
00000330: 3de9 3abe 596f 9c3d 5b2f ed3d 6d51 6cbe
00000340: e151 debd af71 91bd 0719 883d b7f4 6d3d
00000350: d7da fe3d 3d2c 7fbd 87dd 8d3e 2962 cebd
00000360: 4b0f 1e3b 2933 6cbb 7ba4 703c 6b2b 9bbd
00000370: d343 2ebd 812f b0bd a982 17be 8476 9abe
00000380: bcea ebbd 8173 17bd 545b c0bb 25e9 653c
00000390: 3946 e93b e860 803c fd8b 123e e437 fd3d
000003a0: d308 7dbd 7f0c d2bd 6af8 ccbd e53a 19bd
000003b0: 70cb 5e3c 1a10 953d 5139 cd3b 1b7e 1abc
000003c0: cc82 5fbc be4b 86bd a5b0 11be 3147 ffbc
000003d0: f08f 33bd f48f c0bb 5695 bdbd 03c6 a5bd
000003e0: ffea 8f3e e057 513e 3619 48bc c4e6 48be
000003f0: 0b5d 5cbe b8dd 693c afdc a9bb 20d5 ae3e
-0.0026880347 0.016232323 -0.053776905 0.026407419 0.40784678 -0.11030704 0.0075980714 -0.035210222
-0.018879022 0.009484477 0.060282014 0.021343848 -0.06969142 0.00047343544 -0.011219791 -0.29873937
-0.21070443 0.09665074 -0.039517228 0.1355036 0.08310814 -0.066550404 0.19370735 -0.18376459
0.064674966 -0.082334764 0.15907927 -0.17395379 0.18035251 -0.1652083 -0.008162369 -0.3285618
-0.2816176 0.25424218 0.09770415 -0.16719183 -0.053883016 -0.053534146 0.0040375628 0.009145401
-0.06727892 0.013486192 0.47700775 -0.33217543 -0.39463446 0.00038189927 0.9188991 0.0030103442
0.07460068 0.012410008 0.0625816 0.05484127 0.5107928 -0.4581296 0.25552174 0.03312622
-0.2920915 -0.008948034 -0.22110045 -0.018436436 -0.08864021 -0.05057904 0.057066925 0.029056666
-0.00765869 -0.006965763 -0.01779373 0.006156864 0.0010782224 5.958819e-05 -0.020026574 -0.0044081705
0.011497308 0.0058360407 -0.0038888506 0.007860308 -0.0030898089 0.011005047 -0.0016685984 -0.0010450385
-0.0059554437 -0.00217106 -0.001909732 0.013851848 -0.00065824646 0.0076490124 0.006214992 -0.057433542
0.013183187 0.06199691 0.10107902 -0.0083518345 0.0024775479 0.022565167 -0.008046123 -0.009436645
-0.0068222 0.0025162154 0.022027401 0.0035591403 0.025885306 -0.04429327 0.027682487 0.0044987346
0.022640556 -0.027189804 0.04378678 0.052048426 -0.078141496 0.028215192 -0.04030436 0.0062558195
0.008813886 -0.017266614 0.012080481 -0.004686283 -0.002595315 0.029158559 0.073515475 0.06738996
0.0052656485 -0.013807295 0.0066575063 -0.03185088 -0.016969712 0.0123759825 -0.09071855 -0.0014039809
0.23979995 -0.03499302 -0.016526293 -0.005312375 0.24642642 -0.008602293 0.043449357 0.041343156
-0.035593007 -0.08334419 0.05858953 0.007571548 -0.13742632 0.0076477868 -0.0023086707 0.008835271
-0.23970054 0.66277456 0.0023631721 0.036338784 -0.042975802 0.033885214 0.022139912 0.002455765
-0.011416036 -0.019023309 -0.008768887 -0.11163442 -0.13521938 -0.13215548 -0.078169845 -0.101125196
-0.11039163 -0.14690994 -0.007905864 0.09234552 -0.103945 -0.14674959 -0.11264543 -0.14748956
-0.105872974 -0.04357459 -0.116843134 -0.082900405 -0.0224882 -0.08877237 -0.23460715 0.16316041
-0.16240983 0.0033744967 -0.057562817 0.05458285 -0.109820575 0.181048 -0.06443408 -0.011921231
-0.061308775 0.20512931 0.16069569 0.056571793 0.112943895 0.032694288 0.011340947 0.040578235
-0.0514318 0.00077614846 0.019321477 -0.03202027 0.04163848 0.0085048685 -0.05288548 -0.08644547
-0.048480496 0.22243334 0.049281742 -0.2684372 -0.18253036 0.076384254 0.11581298 -0.23077936
-0.10855461 -0.071017615 0.066453986 0.058094706 0.12444084 -0.06229805 0.27708074 -0.10077316
0.0024118002 -0.0036041236 0.014687653 -0.07576641 -0.04254515 -0.08602811 -0.14795937 -0.30168545
-0.115193814 -0.036975387 -0.005870262 0.014032637 0.007118967 0.015671209 0.14311214 0.12364176
-0.061775994 -0.1025629 -0.10008319 -0.03740968 0.013598308 0.07278462 0.006262936 -0.00942948
-0.013642024 -0.065574154 -0.14227541 -0.031161876 -0.04383844 -0.0058765355 -0.09256999 -0.08094408
0.28108975 0.20443678 -0.012213042 -0.1961928 -0.21519868 0.014274053 -0.0051837782 0.34146976

model.0.bias f4 [512]
00000000: 2acf 12be 4d6a a7be 62c8 81be 3a82 f5be
00000010: 56e2 313e 5a90 85be daee 86be 9e61 9ebe
00000020: fe50 6abe 3fc8 bdbe 855c b9be f1f8 98be
00000030: 7a43 d8be 2548 25be 3572 5ebd 5c81 a2be
00000040: 5f7a c1bb 2d94 fabe 2fb1 9ebd f3e5 abbe
00000050: 551c d7bd 7f79 bcbb 5b9c c3be da50 aabd
00000060: a9f9 28be ae8d abbb d6f5 02be ed86 953c
00000070: fd65 dfbe fd7c a5bd 952f 58be 8be3 1dbe
00000080: a36b 39be d031 babe 43bc b2bd 9b67 e0bd
00000090: 5fbb f2bd 5e60 debd 93b3 5fbe 681d b3be
000000a0: 383e 02bf ff74 9abd c7cb d1bd b6c6 bcbd
000000b0: 505f 98be 7eeb b5be cbc0 1bbe 675d 3fbd
000000c0: 52d6 103e 44c5 56be 805c 68be 1982 9abe
000000d0: 5679 09be 5099 d2ba 38be 55be d423 79be
000000e0: bbd3 10be ff23 fdbd fe95 5bbe 7c8f a3be
000000f0: 9acb 88be 8669 97be 7747 c4be 172c d7be
00000100: 7f30 05be 8bb6 94be 4cc5 2bbe d838 91be
00000110: 50f3 cdbd 4521 84be a120 763b d517 80be
00000120: 8a46 8cbe 0008 9bbe 2a7b a3bd cfda 5e3c
00000130: fee5 a7be bc0f 2abe dc49 5cbe ac6e 22bd
00000140: 1ff2 e0be bc7f 883e eca4 d1bd b75c e4be
00000150: c92a 66be 178d 283d e97d 25be 1abd 18be
00000160: 8342 613b b6c9 2abe 8a7d 523d 8583 c8be
00000170: bbf0 73be 71b8 71be fc11 c8bd 7991 9ebd
00000180: 2645 99be 6242 23be a0d8 cebe 285f 9cbe
00000190: eb1c d4be 0f5d 1dbe 250a 1ebe eaee bfbe
000001a0: 17cf a1be 1616 24be e0c1 90be cfb3 43bd
000001b0: b324 9ebd 08ef 7d3d 1e24 5ebe 810a e1bd
000001c0: 2bd5 1ebe bc89 8cbe 9d33 a5be 69a4 95be
000001d0: 506b 4ebd a9da 62bc a5d5 3ebe e508 18be
000001e0: d9b0 b5be 7d9d 68be dc43 96be 3cb8 04bf
000001f0: 55aa 3abe 4287 b9bd 7234 82bd a054 57be
00000200: 7350 64be c106 63be 9101 80be 83be 4abe
00000210: 63cb 27be 554e 0cbe 6dd3 85be ce88 6fbd
00000220: a8d7 c0be 482d 82be 6a84 43be 5ad5 ddbe
00000230: e54f 8cbe 514e 3bbe 141d 453d 28dd d63c
00000240: 2dc0 57be ecb0 b3bd 9441 57be b505 40bd
00000250: 7ee7 a8be 2be3 fabe 227f 4ebe 5581 63bd
00000260: 2e48 f8bd c46d 47be 1209 2cbc 906c dfbe
00000270: 90a1 b1bc 1bf3 9bbe 46e1 b4bd 00c6 01be
00000280: cf27 11be e1cb d0bb e9e1 d8bd 35a9 a2be
00000290: c026 26be 0c53 39be 150c a8bd 2b33 a1be
000002a0: 4e4d 0ebe 21e7 c1bd 50b6 b1be c14d 81be
000002b0: 8286 febd e179 683d ed9e 60be 8f07 06be
000002c0: 92de 0fbf f1f6 89be 0d95 16bd d102 8bbd
000002d0: 1fd9 6ebe 2206 80be db23 20be d568 20be
000002e0: 84f4 98bc 4cb8 89be dd65 2abe 6dc1 a1be
000002f0: df39 39be 5a82 01bf a402 fbbe 7e40 23be
00000300: 19bb 49be 4c59 2bbd a9f6 42be 560e 88be
00000310: 0fcc 37be 7931 f1bd 1dd8 debe d5d1 80be
00000320: f256 90be 56cf 2dbe 16fe c8be d001 61bd
00000330: 36d5 89bd 4cfd 7abe 742f 5dbe 90a2 debe
00000340: c7f2 b4be fdc8 c4be 2aab e83d 1cef 84be
00000350: a975 debe ac7f acbe 8816 b0bd 9c4d d2bd
00000360: 6df5 9ebe 6ca0 4ebe 7efa b6be 4e9b edbe
00000370: a503 50bc 5c7c 7dbe 2e43 44be 7025 a23d
00000380: ab28 83be 9aee 73be fbaa 05be 3618 6bbd
00000390: fc19 b8be 13e2 8cbe 96b0 ff3d 70b0 f6be
000003a0: d9a9 d1be a8c4 17be dfa9 73be f3f3 aebd
000003b0: a006 48be 44a7 72be 4e1a c4bc cb06 ecbd
000003c0: c2f6 63be 7a4d 33be ba43 0ebd 99ad 9abd
000003d0: 74be babd 13a4 83be 2a44 49be 4f33 8fbe
000003e0: 991e e1bc 066e 70be 39ff 9fbe 21a6 e1be
000003f0: 3329 8cbe 5739 9cbe cb07 59be 4390 01bf
-0.1433684 -0.3269829 -0.25348192 -0.47950917 0.17371497 -0.26086694 -0.26354104 -0.3093385
-0.22882459 -0.37066838 -0.362034 -0.29877427 -0.4223898 -0.16140802 -0.054308135 -0.31739318
-0.0059044803 -0.48941174 -0.07748639 -0.33573875 -0.10503451 -0.005751788 -0.38205227 -0.083162025
-0.16501488 -0.0052353954 -0.12789091 0.018252814 -0.43632498 -0.0808048 -0.21111901 -0.15418832
-0.18107466 -0.3636613 -0.08727314 -0.10957261 -0.118521444 -0.10858224 -0.21845846 -0.34983373
-0.5087619 -0.075418465 -0.102439456 -0.092175886 -0.29760218 -0.3553123 -0.15210263 -0.046719935
0.14144257 -0.20973688 -0.22691536 -0.30177382 -0.13425192 -0.0016067419 -0.20873344 -0.24330074
-0.14143269 -0.12360381 -0.21443936 -0.31945407 -0.26717836 -0.29572695 -0.38335773 -0.42025825
-0.13006781 -0.2904552 -0.16774482 -0.2836368 -0.10056174 -0.25806633 0.003755607 -0.25018182
-0.27397567 -0.3027954 -0.07982476 0.013601973 -0.32792658 -0.16607565 -0.2151255 -0.039656326
-0.43934724 0.26659954 -0.102365345 -0.44601986 -0.22477259 0.04115018 -0.16161312 -0.14915887
0.003437192 -0.16678509 0.051389255 -0.3916284 -0.238223 -0.23605515 -0.09769055 -0.077425905
-0.2993557 -0.15943292 -0.40399647 -0.30541348 -0.41428313 -0.1536753 -0.15433557 -0.37486964
-0.3160331 -0.1602405 -0.28272915 -0.0477789 -0.077218436 0.061995536 -0.21693465 -0.109883316
-0.15511005 -0.27448833 -0.3226594 -0.29226997 -0.05039531 -0.013846078 -0.18636186 -0.14847143
-0.35486487 -0.22716327 -0.29348648 -0.5184362 -0.18229039 -0.090590015 -0.063576594 -0.21028376
-0.22296314 -0.22170545 -0.25001195 -0.19799237 -0.1638618 -0.13701756 -0.26137868 -0.058480076
-0.37664533 -0.25425172 -0.1909348 -0.43326837 -0.27404705 -0.18291594 0.048123434 0.026228502
-0.21069403 -0.087739795 -0.2102111 -0.046880443 -0.32989115 -0.4900144 -0.20165685 -0.055543263
-0.12123142 -0.19475466 -0.010500209 -0.43637514 -0.021683484 -0.30458912 -0.0883203 -0.12673187
-0.14175342 -0.0063719605 -0.10589964 -0.3176972 -0.1622572 -0.18098086 -0.082054295 -0.3148435
-0.13896677 -0.094679125 -0.34709406 -0.25254634 -0.12427999 0.056756858 -0.21935625 -0.13088821
-0.5619899 -0.26946214 -0.03676324 -0.067876466 -0.23325013 -0.2500468 -0.15638678 -0.1566499
-0.018671282 -0.2689842 -0.1664042 -0.31592885 -0.18088482 -0.50589526 -0.49025452 -0.1594257
-0.19700278 -0.041833207 -0.19039406 -0.26573437 -0.17948936 -0.11777014 -0.43524256 -0.2516009
-0.28191334 -0.16973624 -0.39256352 -0.05493337 -0.0673012 -0.24510688 -0.21600133 -0.434834
-0.35341474 -0.38434592 0.11360772 -0.25963676 -0.43449143 -0.33691156 -0.085980475 -0.10268709
-0.3104662 -0.20178384 -0.35737985 -0.4640755 -0.012696181 -0.2475447 -0.19166252 0.07917297
-0.25616965 -0.23821488 -0.13053505 -0.057396136 -0.35957325 -0.2751623 0.12484853 -0.48181486
-0.40949896 -0.14821112 -0.2379527 -0.08542623 -0.19533777 -0.2369662 -0.023938324 -0.11524733
-0.222621 -0.17510024 -0.034732558 -0.075526424 -0.09118357 -0.25711116 -0.19654909 -0.27968833
-0.02748041 -0.2347947 -0.31249407 -0.4407206 -0.27375183 -0.30512497 -0.21194379 -0.5061075

model.3.weight f4 [256, 512]
00000000: fef6 d03d e55c 8bbc fba5 92bd 9d68 343d
00000010: 6b39 83bc e253 51be 7378 6dbe 6a73 ab3d
00000020: 6fe8 543d a565 0cbe 2075 393c efd5 50bd
00000030: 9bd7 3a3e 4fe3 8a3e 7ddb 9fbd 7dbd 25be
00000040: f535 113c 73a2 813d 253a 55bd 934e 873c
00000050: e551 fa3d 164f bdbd 618f d439 f0a3 8b3c
00000060: a1c4 6e3e 1891 b23d 41f7 e83d 8a85 aa3c
00000070: 0611 df3d f1af 14be dc40 f53c 862e 09be
00000080: 9f41 683e 9266 eabd f8ec 0cbd 7aba bebd
00000090: 8eea f13d 802d a93d 25c0 a4bd 427f 743d
000000a0: f9c8 873d de15 05bd 964d 02be 08c7 bfbd
000000b0: 78ae 07be d516 413d 8fa6 6b3d 1941 7cbd
000000c0: 3091 e5bb 7d70 e83d 2dd2 c6bd f14a 3a3d
000000d0: e3ed 9f3d f39f 79bd 9073 e03d 74a1 a2bd
000000e0: 5612 62bd 7729 fdbc 7e03 af3d 1890 e53b
000000f0: 0195 4abd 79dc 3dbd 58ad 063e e748 a9bd
00000100: d6c6 0e3e ed5b b1bd 3d4f 70bd 31d5 8f3d
00000110: 1514 c1bd 41dd 5a3b 4b91 0a3e e56b c0bd
00000120: a78e 55bd 6851 163e 8a6f 3e3e e6c1 b53c
00000130: aab6 7bbe ca66 cf3c 67e6 6dbc 504f 25bd
00000140: 44e7 893d 133a 3b3e 4668 433d 47fa a63b
00000150: 9405 4a3d 2156 883b 4d37 9f3d ec4c c83c
00000160: 5baf 94bd f1fe e13b dea2 28be 2ef0 cdbc
00000170: 7cf0 813c a809 e0bd cd62 e13c f194 bf3d
00000180: c67f 95bd b121 e7bd 6c6b 0ebd 7f49 73be
00000190: b774 f7bc 6d9d 823c 6116 053d 035f 02bd
000001a0: 1035 813e c4d3 d03d 039a 0cbd 629d ebbc
000001b0: 7129 0f3c 354f 87bd b6c3 86bd 042e 3c3e
000001c0: feea 403d 148f a13d 9181 a5bc 257b 8abd
000001d0: 4bfa bdbd 9261 8bbc 3c2a a4bd 2a9d 123e
000001e0: b540 153d 542c 9c3d ebdd a7bd a575 8c3d
000001f0: fad8 1d3e 0eed ad3d 1c8f ae3f 5ebe 92bd
00000200: 1aa0 023d dffd 403d f4b0 05bd d745 39be
00000210: a301 123d 47cb 1e3e eaa6 7e3d e9b2 bbbd
00000220: 5c26 57be 4891 01bd 0e94 26be 9894 d03d
00000230: c200 083d 0c35 81bd 2d22 b7bb 63c3 0bbd
00000240: fd62 ffbd 740a fcbd 376c 01be b85b 423e
00000250: 8f2d ed3e 7d51 0cbd 71a5 cebd 21e4 d2bd
00000260: e591 023e 33e2 32bd 2f0c bd3d a724 063e
00000270: ed6c 1abe 9368 e73d 1ea2 e4bc 20ce afbd
00000280: cc70 f2bd 6603 cabb 1492 73bc 6f04 db3c
00000290: f104 c9bd 19c1 37bd fbb9 023e b628 193d
000002a0: fa77 a8bd ffd3 95bd c657 eebd 4394 b53a
000002b0: 2c4a 1f3b f346 57bb cddf 2f3e 9374 a4bc
000002c0: 8dd4 bebc b6f8 623d e902 c8bc 08ff 4b3e
000002d0: 2374 bfbc f832 10bd dd55 86bd 1e45 cabd
000002e0: 50d6 743d 4bdd 5cbe 857b 0c3c e105 c4bd
000002f0: da06 71bb 631c 96bc 23f1 273e a862 4b3d
00000300: 88d3 913c cc5e 4dbc 2fe9 703d 695b 113e
00000310: dfe7 b83d 96d2 5fbc 206a 403c 6716 c0bd
00000320: 71c2 773d 2b31 7fbd b8d0 9b3d 23c3 b2bc
00000330: fa3f 9a3d 24a0 babd d0b7 2abd 5721 833d
00000340: 59f9 4e3c bf60 bd3d 3ee6 dbbc e549 443d
00000350: b11e 5d3f 339d 20be 8e2a 573d 43c6 633d
00000360: d3c1 39bd 1f3c eeba 18ec ebbc ee8b 0b3e
00000370: 0433 bfbd c5bf 4dbd 6328 563d 48e3 34bd
00000380: 0fd2 f9bd 40b0 c5bd a2b0 933b 9e13 8c3b
00000390: 6500 02bd de7c 12be 0e17 de3d dd64 cc3c
000003a0: f0ed 403d d3fd 59bd bff7 063d 2f46 13bc
000003b0: da29 0ebe 60f5 34bc 6934 863c b685 073c
000003c0: 95e0 57bd a1dc 42bd 9f9f 2bbd 0cb5 0c3e
000003d0: e329 a43c e33d 01be bc9a bfbc bf3d 3e3d
000003e0: db78 a0bd 62e0 c83b 225c 3b3d d3f0 6d3d
000003f0: 068d 273e 56d5 8ebd eef0 9b3c 7541 ab3d
0.1020336 -0.017012069 -0.071605645 0.04404508 -0.01601859 -0.20442155 -0.23190479 0.08371623
0.05197948 -0.1371065 0.011319429 -0.050985273 0.1824631 0.27126548 -0.07805536 -0.16185565
0.008862962 0.06329813 -0.052057404 0.01651696 0.122226514 -0.092436 0.00040542617 0.017045945
0.23317195 0.08719081 0.11375285 0.02081563 0.10891919 -0.14520241 0.029938154 -0.13396654
0.22681282 -0.11445345 -0.03440568 -0.09312911 0.11812316 0.082606316 -0.08044461 0.059691675
0.06630129 -0.032491557 -0.12724909 -0.09364134 -0.13250148 0.047140915 0.05753189 -0.06158552
-0.007005833 0.113495804 -0.097080566 0.045481626 0.07809045 -0.060943555 0.10959542 -0.07940951
-0.055193268 -0.030903561 0.08545588 0.0070057027 -0.049458507 -0.046352837 0.13152063 -0.08265858
0.13943037 -0.086601116 -0.058669318 0.07023085 -0.094276585 0.0033396038 0.13531987 -0.09395579
-0.052137997 0.14679492 0.18597236 0.022187185 -0.245814 0.025317568 -0.014520264 -0.04035884
0.067335635 0.18283872 0.047706865 0.0050957534 0.049321726 0.004160658 0.0777422 0.024450742
-0.07260009 0.0068968465 -0.16468379 -0.02513894 0.015861742 -0.10939342 0.027512932 0.0935458
-0.072997615 -0.11285723 -0.034770414 -0.23758505 -0.030207021 0.015944207 0.032492045 -0.03182889
0.25235796 0.10196641 -0.034326565 -0.02876157 0.008737908 -0.066069044 -0.06580298 0.18376929
0.047099106 0.07888618 -0.020203384 -0.06761769 -0.09276255 -0.017014299 -0.08015868 0.14317766
0.036438663 0.076256424 -0.08196624 0.068583764 0.15414801 0.0849248 1.3637424 -0.07165216
0.031890966 0.04711711 -0.03263946 -0.18093048 0.035646092 0.15507232 0.0621709 -0.09164984
-0.21010727 -0.03163269 -0.16267416 0.10184592 0.033203848 -0.06308946 -0.005588791 -0.034121882
-0.124700524 -0.12306681 -0.12638937 0.189803 0.4632382 -0.0342574 -0.10090149 -0.102974184
0.12750967 -0.04367275 0.092308395 0.1309992 -0.15080614 0.11299243 -0.027909335 -0.08584237
-0.118379205 -0.006164956 -0.014866371 0.026735513 -0.098153956 -0.044861887 0.12766258 0.03739234
-0.08226009 -0.07315826 -0.11637835 0.001385339 0.0024305684 -0.0032848686 0.17175217 -0.020075118
-0.023294711 0.05541297 -0.02441545 0.19921505 -0.023370808 -0.035204858 -0.06559346 -0.09876464
0.059774697 -0.21568792 0.008574371 -0.09571434 -0.0036777765 -0.018324083 0.1640058 0.049654633
0.017801061 -0.012534808 0.05881613 0.14195026 0.09028601 -0.013661047 0.011744052 -0.09379273
0.06048817 -0.06230275 0.07608169 -0.021821564 0.07531734 -0.09112576 -0.041679204 0.064028434
0.012632691 0.092469685 -0.026843186 0.047922034 0.86374956 -0.15684967 0.052530818 0.055609
-0.04535086 -0.0018175876 -0.028799102 0.13627598 -0.09335902 -0.050231714 0.05228461 -0.044162065
-0.121982686 -0.09652758 0.0045071403 0.0042747995 -0.031738658 -0.14305446 0.10844241 0.02495044
0.047101915 -0.05322058 0.032951113 -0.008988901 -0.13883153 -0.01104483 0.016382413 0.008271625
-0.052704412 -0.04757369 -0.041900273 0.13740939 0.020039504 -0.12621264 -0.023389213 0.046445604
-0.07835551 0.006130264 0.04574216 0.058090996 0.1636239 -0.06974284 0.019035783 0.08362094

model.3.bias f4 [256]
00000000: 4fcd 33bd 2233 36bc fc04 0dbc 2915 f7bd
00000010: 0d91 14be 282b 8ebe 425d c7bd 0424 2dbe
00000020: 5c93 0b3d d0d0 3fbd 812e 89bd 0581 afbd
00000030: f049 e63b 5169 f1ba 92c4 99be 86f6 87bd
00000040: 2a14 69bd ca8f 96bd 8dd9 ebbd dc76 f8bb
00000050: 23e1 76be 3cb1 e4bd 9212 d0bd fd63 c1bd
00000060: ee07 bc3c 6055 f4bd cc6a 6cbd b792 1bbd
00000070: af8e 31bd 255d 26be 1c5a b7bd 70aa 2e3e
00000080: db8c a63b eae5 9bbe 3135 1939 6507 0dbe
00000090: 2f98 d9bd 3e0e efbd 67c6 e13c 717a 58bc
000000a0: b57f a3be f98b eabd 987d 16be 3bb9 103d
000000b0: 39fc c2bb 08d2 30bd 3d65 353e 2945 0abd
000000c0: b204 50be d3ef b2bc 4763 dcbd 2785 68bd
000000d0: a473 84bd f262 553e 49ed 18be 5897 cbbd
000000e0: 423a 9bbd 2c8e dfbd 6847 d5bd 23fd 63bd
000000f0: c4a3 03be 647d 2bbd ea5a 00bd 71d2 a13c
00000100: 91df 15bd 3382 e3bd 1abb 0ebe f86e 58be
00000110: 4ec1 773b b8d4 78be baa2 dc3b 7520 87bd
00000120: d1fa a0bc cf28 a6bd 34ed eabd 5451 1cbe
00000130: 4200 fcbd cc1f 9dbd 015b 0c3d 3470 9e3c
00000140: 0875 ecbd 7144 a53c e18c 7abd 52da 4d3d
00000150: 3fce 02bb 609f 79bd 5e4c 47be af96 f2bd
00000160: f15f 7fbd 84be c93d 84cb 50bd bed4 08be
00000170: 3e93 45bd 5b48 d3bc 6f97 9d3c 130a ef3b
00000180: 7e78 03bb 4d6d 53be f28b 14bd cf9a 1cbe
00000190: 4436 7abe a01d e1bd 5bfe 323c 39e2 78ba
000001a0: 7765 10be 171e 7abe b6e6 1fbe c05b 9dbc
000001b0: 244f 8bbe 3f68 583d 4cbe 98be 4368 4abd
000001c0: fad8 453c 561a 68bd e25c 0abe 319d 67bc
000001d0: ace7 67bd 66ef 27be a6af a8be 5291 66bd
000001e0: 28f0 c1bd d567 cabd 32bd bcbd f279 febd
000001f0: 650a 7abd 5e0b c1bd bfd1 83bd 1de9 01bd
00000200: 6603 16bd 0a33 1b3d f4ca 5a3d 1e35 a5be
00000210: baa9 be3c b7d0 3fbe 9a9d e3bd 7f83 0abe
00000220: 7994 45be c924 fcbd 3a22 30bd 52db dfbd
00000230: 9a15 34bd faa7 72be 9cc2 00be 2dc9 1ebc
00000240: a04e 09be 914b 42bd b7fe b4bc d1d5 0fbe
00000250: dbd3 96bd 3a38 32be 612d 083c 1da2 86be
00000260: e088 503c 1674 6cbc 19b3 973d be2b a7bc
00000270: f766 1b3e efe9 abbd c37f 69be 019f fabd
00000280: 0334 6f3c 1055 4bbd 9bc4 18be 0281 a03d
00000290: 08c5 2b3d d7fe dbbd cf96 873d 915f 44bc
000002a0: 647d 20be 7533 a9bd bcc4 c2bd c99a 6fbe
000002b0: c1ea 6cbd 304c 18bd 25cf 17bb f872 12bd
000002c0: 496f db3d 519f 1abe e4e5 5abc da63 7fbe
000002d0: ca53 ebbc a818 abbd 1e17 9cbb f8e7 70bc
000002e0: b07b 5bbe d419 26be ec88 e0bc 12b6 05be
000002f0: 0316 28be bbf4 10be a5e0 79bb 56b1 02be
00000300: c9df 033d f501 703d 9440 dbbd 7c2c dbbd
00000310: 5e8f 8f3d 178d e4bd e01b 1ebd edd5 aabd
00000320: 795c 15be f197 d9bc 402b 56bd 6afc 86be
00000330: af1e 47bc 6be1 313d a93d 513e f904 d8bd
00000340: 6e94 98bc b095 8b3d 5107 73be 79c2 9dbd
00000350: 3608 ab3c 7528 dabc 3a02 c1bc 817e b2bd
00000360: 6128 b3ba ad28 debc 0ddf 03be 8277 20be
00000370: 799d 43be 8a71 30be c9a0 3ebb 17f4 353d
00000380: 2b8a 55be 297d c6bd 0c1e e7bc fc5c 1dbe
00000390: d0bb 29be 2335 12be 26ed 303e f139 93bd
000003a0: 4164 8a3d 6808 20bd cf86 85bd fea3 70bd
000003b0: 9415 f1bd 8df7 1abe e766 ffbd 7dfa 93bd
000003c0: 8e6e bdbd 7000 af3d 6846 193d 00e9 02be
000003d0: db4b dfbc c0ab 15be fcfe b9bb 52dd 1cbe
000003e0: d934 a43d 7c6b eebd dbd4 afbd 0b0c 753d
000003f0: a8c7 59be c9e0 11be 8de6 bfbd 2a82 e8bd
-0.04389697 -0.011120589 -0.008607145 -0.12064583 -0.14508457 -0.277673 -0.097345844 -0.1690827
0.03407608 -0.04683 -0.06698323 -0.085695304 0.007027857 -0.0018418228 -0.30032784 -0.066388175
-0.056903996 -0.07351644 -0.11516104 -0.0075825285 -0.2410932 -0.11166617 -0.10159792 -0.094428994
0.022953 -0.119303465 -0.057719037 -0.037981715 -0.043348964 -0.1624647 -0.08952734 0.17057204
0.0050827092 -0.30448848 0.00014611032 -0.13772352 -0.1062473 -0.11672638 0.027560426 -0.013212786
-0.3193337 -0.11452479 -0.14696348 0.0353329 -0.0059504774 -0.04316905 0.177144 -0.033757363
-0.20314291 -0.021842873 -0.10761123 -0.05676761 -0.06467369 0.20838526 -0.14934267 -0.09940976
-0.07579471 -0.10915789 -0.1041401 -0.05566133 -0.1285544 -0.04186763 -0.031336702 0.019753667
-0.036590163 -0.11108818 -0.13938561 -0.21136081 0.0037804428 -0.24299896 0.0067332657 -0.065979876
-0.019650849 -0.08113252 -0.11471024 -0.15265399 -0.12304737 -0.076720804 0.034266476 0.019340612
-0.115457594 0.020174237 -0.06116951 0.050257035 -0.0019959358 -0.060943007 -0.19462726 -0.11845147
-0.062347356 0.09850791 -0.050975338 -0.13362405 -0.048236124 -0.025791338 0.019237248 0.007294902
-0.0020060833 -0.20647164 -0.036266275 -0.1529343 -0.24434763 -0.10991979 0.010924901 -0.0009494159
-0.14101206 -0.24425541 -0.15615353 -0.019208789 -0.27208817 0.05283379 -0.29832685 -0.049415838
0.012075657 -0.05666574 -0.13511994 -0.014136598 -0.056617424 -0.16399917 -0.3294651 -0.056290932
-0.09469634 -0.09883086 -0.09215774 -0.12425603 -0.06104507 -0.09425996 -0.0643649 -0.031716455
-0.036624335 0.03789047 0.053416207 -0.32267088 0.023274291 -0.18731962 -0.111140445 -0.13526724
-0.19294919 -0.12311704 -0.04300139 -0.10930504 -0.043965913 -0.2369689 -0.12574238 -0.009691519
-0.134089 -0.047435347 -0.022094114 -0.14046408 -0.07364627 -0.17404261 0.0083116 -0.26295558
0.012727946 -0.014431974 0.07407207 -0.0204066 0.15175997 -0.08394229 -0.22802643 -0.12237359
0.014599803 -0.04964167 -0.14918749 0.07837106 0.04193595 -0.10741966 0.06620561 -0.011985675
-0.15672833 -0.08261768 -0.0951018 -0.2339889 -0.057841066 -0.037182033 -0.002316424 -0.035754174
0.10714585 -0.15099837 -0.013360474 -0.24940434 -0.028726477 -0.08354312 -0.004763498 -0.014703743
-0.21433902 -0.1622079 -0.02740904 -0.13057736 -0.16414647 -0.14155857 -0.0038128283 -0.12762961
0.03219584 0.058595616 -0.10705677 -0.10701844 0.07009767 -0.11159723 -0.038600802 -0.08341584
-0.14586057 -0.02656171 -0.05228734 -0.26364452 -0.012153312 0.043427866 0.20433678 -0.105478235
-0.018625464 0.0681566 -0.2373326 -0.07703108 0.020877939 -0.02663062 -0.023560632 -0.08715535
-0.001366865 -0.027119005 -0.12878056 -0.15670589 -0.1910304 -0.17230812 -0.0029087535 0.044422235
-0.20853488 -0.09691841 -0.02821257 -0.15367502 -0.16575551 -0.14278083 0.17277965 -0.07188786
0.06757403 -0.039070517 -0.06519853 -0.058750145 -0.11771694 -0.15133496 -0.12470799 -0.07225511
-0.09249602 0.08545005 0.03742066 -0.12784195 -0.02725785 -0.14616299 -0.0056761485 -0.15318802
0.080178924 -0.11641595 -0.08585521 0.05982594 -0.21267569 -0.14245905 -0.09370146 -0.11352952

model.6.weight f4 [1, 256]
00000000: b56f 7ebe f54a 2dbe d2f0 50be b457 853e
00000010: 0dc0 05be bb0e 803e c842 603e e1e9 513e
00000020: 476a 3abe 8f6a 0b3e 4253 973e 3b54 9b3e
00000030: 6cc6 1abe 218c 8cbe 9e12 763e 77e5 acbe
00000040: 6627 4cbe 7a5a 6ebe ded1 2ebe 686a bf3e
00000050: f144 8a3e 7c18 5b3e 278d 7bbe 6742 e0bd
00000060: de66 1ebe 1a8b afbe 0451 0cbe ed8b 14be
00000070: 5a55 d2bd 8a0f 7cbe a0b7 803e ee0a 94be
00000080: cb24 abbd 5e4b 853e 35d7 54be bff7 0bbe
00000090: afd7 22be 29a9 47be 097c 6dbe a16a 213e
000000a0: db44 7a3e 0772 d1be e3ee 863e 017e 11be
000000b0: a9c7 783e a034 7abe 888f 93be 9ae7 17be
000000c0: 60b6 8d3e eddf 843e 9de7 413e 7983 5e3e
000000d0: 72ce c5bd ef4d b6be 0d34 6d3e 1d29 ebbd
000000e0: 5256 4ebe 55b0 713e 5f6d 9b3e f1a6 4bbe
000000f0: 0a9b 81be 14e4 c6bd 87b6 27be 705e 383e
00000100: e43c 863e 7bc8 1dbe a1e7 2dbe f562 b83e
00000110: 50b2 3f3e f69a 833e 7cf2 69be ebf6 82be
00000120: b7db 15be 8894 20be ef65 79be 6bf3 9dbe
00000130: 70e2 813e 619d 463e 7aa8 d6be 1192 5bbe
00000140: 9e73 863e 0787 c8be fd6b 7b3e 3bd0 aa3e
00000150: 2728 76be 58d7 73be 7552 69be 763f 83be
00000160: e337 bc3e b2ba 66be 9af0 e3bd 9cca 933e
00000170: a076 babd 8943 f03d 1c25 7abe 8acc 49be
00000180: 1d03 aa3e ec6d a43e 6be1 08be d438 3e3e
00000190: c171 923e aec4 a53e a8d0 c43e 809f 4fbe
000001a0: 17a8 243e d79e d4be eab4 5b3e 8f4d c23e
000001b0: 1ace 853e d9e0 55be e830 7f3e 9e47 37be
000001c0: 74be 373e 8c4e 0cbe 4159 a43e 81f1 733e
000001d0: 554d 44be ae33 94be 627f aabe 5461 673e
000001e0: 1776 803e ea23 42be a06d 5fbe a2c7 8a3e
000001f0: 199c 653e e2b7 74be f1da 5a3e b6e6 333e
00000200: 9f7a dbbd 95fb edbd d650 2d3e f2dc 763e
00000210: cbe9 30be 9b25 45be cfbd 77be 403e 813e
00000220: f198 8dbe b084 5bbe fd79 19be d86e 8bbe
00000230: 3c4c 7ebe f620 7b3e 48be 7fbe 006b 7cbe
00000240: 7ff8 6e3e 7fad 7a3e 3443 5ebe 6bdd 26be
00000250: a977 333e 6e23 6f3e 0d88 cdbe 40e3 c23e
00000260: c723 483e f9c0 1b3e 8838 533e dbd7 8abe
00000270: 9f8a a2be dd0f 1f3e a7eb 77be 4a18 423e
00000280: 3031 35be b7d9 e6bd f263 793e f1e8 9d3e
00000290: 1363 5b3e 1315 823e ba0f 353e 164e 1c3e
000002a0: 8088 a63e e2a1 71be 0943 0d3e cb99 863e
000002b0: f4aa 52be 713e ffbe 8a94 273e 3601 993e
000002c0: 99cc d33e 8baf 4d3e 4ea4 34be c094 843e
000002d0: a8fd 0cbe c9d5 27be 337f de3e 8474 e4bd
000002e0: 3971 8d3e 4ffd 4d3e c92f 39be 0385 2dbe
000002f0: 6ab2 6e3e 784a 61be 58c0 21be ae69 7ebe
00000300: d235 d3bd a7cd ba3e 168d 793e 7f2c 8a3e
00000310: c5ef 66be b15e b1be e32c 693e 47d8 5ebe
00000320: 22b9 ebbd 7690 3d3e 63f8 93be 7438 603e
00000330: daae 2fbe 2964 84be 43ee 89be 8cdd 523e
00000340: b6aa e8bd 204b 31be 7cfa 533e eddd 3fbe
00000350: 82ac 8e3e 1495 f7bd 0d7e c7be f1ab 25be
00000360: ecef cdbe 6477 03bf db16 57be d2cb 8b3e
00000370: 4fb4 a7be 06e3 853e 400d 68be 7233 dcbd
00000380: 45f4 9bbe c027 26be 2f04 b3be 9a9b bebe
00000390: 4c58 af3e 2f60 c0be 849a b3be e255 2c3e
000003a0: f08d 43be 036c a83e 1ac6 1a3e 588a 383e
000003b0: 3548 b2be be0c 06be 60c7 94be 88f9 0b3e
000003c0: 5b3f 883e 3372 363e 9a52 98be ae39 44be
000003d0: e989 6ebe e77a 80be 941c 673e 006d 1abe
000003e0: 6f4c 2bbe d217 3fbe f941 763e 1b6d 64be
000003f0: 7203 803e 4adc 823e fe6b c3be 0f4e 20be
-0.248473 -0.16923125 -0.20404366 0.26043475 -0.13061543 0.25011238 0.21900475 0.20499374
-0.18204604 0.13614868 0.29555708 0.303377 -0.15114754 -0.2745066 0.2403054 -0.33768818
-0.19936904 -0.23276702 -0.17072245 0.3738587 0.27005723 0.21396059 -0.24565564 -0.10950165
-0.15468928 -0.34285814 -0.1370278 -0.14506502 -0.10270186 -0.24615303 0.25140095 -0.2891459
-0.08356627 0.26034063 -0.2078522 -0.13668726 -0.1590259 -0.19498123 -0.23191847 0.15763332
0.24440329 -0.40907308 0.2635413 -0.14208223 0.24294914 -0.24434137 -0.28820443 -0.14834443
0.27678204 0.25952092 0.1893601 0.2172984 -0.09658517 -0.35606334 0.23164387 -0.11482451
-0.20150116 0.23602422 0.3035688 -0.19887902 -0.25313598 -0.09711471 -0.16378222 0.18004775
0.2621833 -0.15408508 -0.1698289 0.36012998 0.18720365 0.25704163 -0.22846407 -0.25579008
-0.14634596 -0.1568166 -0.24355291 -0.30849776 0.2536807 0.19395973 -0.41925412 -0.21442439
0.26260084 -0.39165518 0.24552913 0.33361992 -0.24038754 -0.23812616 -0.22785361 -0.25634354
0.36761388 -0.22532156 -0.111298755 0.28865516 -0.09104657 0.11731631 -0.24428219 -0.19706932
0.332055 0.32115114 -0.1336724 0.18576366 0.28602412 0.32376617 0.38440442 -0.20275688
0.16079746 -0.41527435 0.21455732 0.37949798 0.26133806 -0.20886554 0.24921 -0.17898414
0.17943746 -0.13701838 0.32099345 0.23822595 -0.19170125 -0.28945678 -0.3330031 0.22595721
0.25090095 -0.18959013 -0.21819162 0.27105433 0.22422828 -0.2389827 0.21372582 0.17568478
-0.107167475 -0.11620251 0.16925368 0.24107721 -0.17276685 -0.19252627 -0.241935 0.25242805
-0.27655748 -0.21437335 -0.14987941 -0.27233005 -0.24833769 0.24524292 -0.2497493 -0.24650192
0.23336981 0.24480246 -0.21705323 -0.16295402 0.17526115 0.23353359 -0.4014286 0.38064003
0.19544898 0.15210332 0.20627034 -0.2711781 -0.31746385 0.15533395 -0.24210988 0.18954578
-0.17694545 -0.112719946 0.24354532 0.30841783 0.21424513 0.25406703 0.1768178 0.15264162
0.32526016 -0.2359691 0.13795103 0.2628921 -0.20573026 -0.49852327 0.16365257 0.29883736
0.41367033 0.20086496 -0.17640802 0.25894737 -0.13768637 -0.16390146 0.4345642 -0.11155036
0.27625445 0.20116161 -0.18084635 -0.16945271 0.23310247 -0.22001064 -0.1579603 -0.24845001
-0.10313 0.36485025 0.24370226 0.26987073 -0.22552402 -0.34642556 0.22771029 -0.21762191
-0.11509921 0.18512139 -0.28900442 0.21896535 -0.17156544 -0.25857666 -0.26939592 0.20592326
-0.113606855 -0.17313814 0.20701021 -0.18737002 0.27865988 -0.12088981 -0.38963357 -0.16178872
-0.40222108 -0.5135405 -0.21004812 0.2730394 -0.32754752 0.26149768 -0.22661304 -0.10752
-0.304598 -0.16226101 -0.3496413 -0.3722809 0.34247053 -0.37573382 -0.35078824 0.16829637
-0.19097114 0.32894906 0.15114632 0.18021524 -0.34820715 -0.13090798 -0.2905836 0.13669407
0.26610836 0.17817001 -0.2975052 -0.19162628 -0.23294796 -0.25093767 0.22569495 -0.15080643
-0.16728376 -0.1866143 0.24048604 -0.22307245 0.2500263 0.25558692 -0.3816833 -0.15654777
