pythorch saved models/fed_classifier_cgan_ssl2.pth (torch, 831452 bytes, 20 tensors)

net.0.weight f4 [512, 69]
00000000: 8038 903c e072 f23c 5479 37be 7d72 293e
00000010: 1693 a0be 88e7 5a3e 2218 9cbc 0b1d 5abd
00000020: b5d4 da3c 5f36 93bd d5d5 18bd e173 dc3d
00000030: 6e72 ee3d 6c1f 303d 432b 14bc 36ba 063d
00000040: 7947 4d3d b4b7 963c 8ee0 81bc e0de eabb
00000050: b748 0f3d eb22 52bd 9892 a0bb f426 f03b
00000060: 3b5c 2bbc 050e 73bd e1ae c6bd 8ec5 323d
00000070: c053 413d 5fb2 063d a1fa 263c e7d9 83bd
00000080: e29a 3fbd 6bea 083c 5877 f93c 4700 943c
00000090: 5bb3 7fbb 7076 1d3d 4e16 d13b 9a19 8a3c
000000a0: b70d 063c b4c3 cdbc 66d8 81be 95ba 813d
000000b0: 8af1 1a3d 753b 053c 1ebc d03e a17a cebc
000000c0: 74b4 423d c4d1 39bb 56e6 13be ef4e 0e3e
000000d0: ad6b 413d a15e 773e 98ba acbd 22a8 57be
000000e0: c553 47bc 724a e23b 86e6 523b eac7 acbc
000000f0: 25e5 a2bc bbe4 103d 7326 56bd 3760 eb3d
00000100: 5c4a 02be a2fa 52bd ce17 883d f73e ff3c
00000110: 1abc fb40 db76 cbbd a178 21be 9cea 81be
00000120: 197b e7be 076d b6be bf13 c3bc 4b58 16bf
00000130: 470d 7abf 67ee 293e ac88 4b3e eaf7 99bd
00000140: 93a7 93bf 279c 5d3e 0627 19be 6be2 f4be
00000150: fe62 f43d 216c a3be fdfe 07be 03b8 16be
00000160: 800f aa3e ae6f 983c 1b84 a0bc 3695 c13e
00000170: 19c5 5e3e d60f d23d 2737 bbbc c468 e03d
00000180: af48 2a3e 98c2 6cbe f731 21bf 5e00 ff3d
00000190: d113 443e 3a94 76be 041a 083e 52cc 87be
000001a0: 9b5b cd3e 0fbc b13d 632a 513e 9cf2 9cbe
000001b0: 0066 d8bd 9776 53bf fa52 42bb b775 aebd
000001c0: 98b8 a3bd 94c2 21bd efb8 4bbf 53e2 1b3e
000001d0: bccc 16bf 047d 803e e461 223e d347 773e
000001e0: dbb4 f0bd 6325 89bd 3d26 97be cd1b 36be
000001f0: 6e1e af3b 4382 943e 3153 e7bf 396b 45be
00000200: 8db5 bdbc 0f68 23be 2ddd 493e e629 3e3e
00000210: cd1a 89bc 5bc0 b43b 2854 4f3e 74d7 0d3e
00000220: 0a51 ea3c 19af 163e c381 273e 9235 643e
00000230: 8294 353d 578a 183d 985d 1ebe 18ee a73d
00000240: 931f acbd c772 bebe cdf2 e83d 85e9 8b3e
00000250: 8b54 ab3d 0544 8f3e 0975 503d d3c5 7dbe
00000260: 0121 6fbd 002e 18bf d729 5f3d 0065 23bd
00000270: 1025 333e d7b6 313e 2d74 0fbe ca22 493e
00000280: f66d 09be e60d 83be 0eef d93c f45e 7f3d
00000290: b371 193e 432b 883d 9fd3 3dbd 05ef 3f3d
000002a0: b2d0 893d 9eca 3a3e 3a54 51bd bb68 53bf
000002b0: 5c49 3abe 3d2a 653e 2d55 7e3e 8e09 163e
000002c0: 720d 9bbd 1395 693e 4e64 57be 5aa4 0abd
000002d0: f6a9 a53c acbd 7f3e de8d dabd 5457 8abe
000002e0: 3497 143e 8c36 223e acaa 1abc 896e 653b
000002f0: 3058 c0bd 505f a03e 70f4 893d bb2b 083e
00000300: 2e4a 86be f144 5c3e 5fa1 db3e be3a bfbe
00000310: c9c8 ca3d 5958 62bf 4c40 ddba 60f5 6cbe
00000320: efb9 043b 2e73 a93d eed3 42bd 4a57 53be
00000330: 11f0 293e 5a43 8bbc b836 c93e d462 263c
00000340: bfe6 383d 6e1c afbc 8e01 27bd 25af 6a3e
00000350: 7088 1cbe 86ac ffbd 3b2e d43c f29d 00be
00000360: a475 4b3e 09c4 703d b952 03bc caea 09be
00000370: 9e34 a73d ef1b 223d 6dd4 19be 8d32 f5bc
00000380: d2b8 40bc ada5 b7bc 3d08 30bd a46b 493c
00000390: 7bee cf3c 5817 1a3c 8b6e 3cbc f10a c53c
000003a0: 6dbd a73c 640e a7bd 35c6 583c fd5d f9bc
000003b0: ae12 223d 07eb ecbd 6a95 793d db20 21bd
000003c0: b438 243e 7685 2a3d 53ca c3bc de87 c1bd
000003d0: a054 d83d 8e43 ad3d e8ee 27bd 8044 ecbb
000003e0: d751 f03d ba11 3f3e 7366 75bd fa51 a43c
000003f0: 51f1 8abd 4d09 73bd 39a1 d6bc e3b6 0abc
0.017605066 0.029595792 -0.17917377 0.1654758 -0.31362218 0.21377385 -0.019054476 -0.053250354
0.026712755 -0.07188105 -0.0373133 0.1076429 0.116429195 0.042998716 -0.0090435175 0.03289243
0.05011699 0.018398143 -0.015854146 -0.007167682 0.034981456 -0.05130283 -0.004900288 0.0073288623
-0.010459001 -0.059339542 -0.09701324 0.043645434 0.04719901 0.03288495 0.0101915905 -0.06438046
-0.046778567 0.008356671 0.030452415 0.018066538 -0.0039016816 0.03844303 0.0063808328 0.01685791
0.008181981 -0.025117733 -0.2536041 0.06334416 0.037828006 0.008131851 0.40768522 -0.025204958
0.047535375 -0.002835379 -0.14443335 0.13897298 0.04722183 0.24157192 -0.084340274 -0.21060231
-0.012165968 0.006905847 0.003218086 -0.02109142 -0.019884655 0.035374384 -0.05228276 0.11492961
-0.12723678 -0.051508553 0.066451654 0.031157954 7.8667116 -0.09934779 -0.15768673 -0.25374305
-0.45211104 -0.35630056 -0.023813127 -0.58728474 -0.9767651 0.1659485 0.19876355 -0.07517989
-1.1535515 0.21641599 -0.14956293 -0.47828993 0.11932944 -0.31918433 -0.13280864 -0.14718632
0.3321495 0.01860794 -0.019594243 0.3780915 0.21754874 0.10256927 -0.022853447 0.109574825
0.16629289 -0.23121107 -0.62966865 0.12451242 0.19148184 -0.24079981 0.13291174 -0.26523072
0.40108952 0.086784475 0.20426326 -0.30653846 -0.1056633 -0.8260283 -0.0029651509 -0.08518546
-0.07994193 -0.039492205 -0.7957906 0.15223055 -0.5890615 0.2509538 0.15857655 0.24148493
-0.117532454 -0.06696584 -0.2952136 -0.17784043 0.0053442037 0.29005632 -1.8072263 -0.19279183
-0.02315786 -0.15957664 0.19713278 0.1857067 -0.016736412 0.0055160946 0.20246947 0.1385172
0.028603096 0.14715232 0.16358094 0.2228606 0.04433108 0.037241306 -0.1546539 0.0819971
-0.0840446 -0.37196943 0.113744356 0.273266 0.08365735 0.27981582 0.050892863 -0.24782495
-0.058381084 -0.5944519 0.05448326 -0.039891243 0.17494607 0.17354904 -0.14009161 0.19642177
-0.13420853 -0.2559654 0.026603248 0.062346414 0.14984779 0.066488765 -0.046344396 0.046858806
0.067292586 0.18241355 -0.051105715 -0.8258168 -0.18192047 0.22379394 0.2483718 0.14652082
-0.07570924 0.22810774 -0.21034357 -0.033848144 0.020222645 0.24974698 -0.1067159 -0.2701975
0.14510804 0.1584112 -0.009440105 0.003500851 -0.093918204 0.31322718 0.06736076 0.13297932
-0.2622847 0.21510674 0.42896554 -0.37349504 0.09901578 -0.8841606 -0.0016880124 -0.23140478
0.0020252427 0.08273922 -0.047565393 -0.20638767 0.16595484 -0.01699989 0.3929956 0.010155398
0.04514193 -0.021375861 -0.040772967 0.22918375 -0.15286422 -0.12484078 0.02590095 -0.12560251
0.19869095 0.058780704 -0.008015328 -0.13468471 0.08164333 0.03957742 -0.1502244 -0.029931331
-0.011762815 -0.022417868 -0.042976607 0.01229373 0.025382271 0.00940498 -0.011500965 0.024053069
0.020476067 -0.08157042 0.01323085 -0.030440325 0.039568596 -0.115682654 0.060933508 -0.039337974
0.16037256 0.041631185 -0.023900187 -0.09449743 0.10563016 0.08460151 -0.040999323 -0.0072103143
0.1173436 0.18659106 -0.059912156 0.02005862 -0.06784309 -0.05933504 -0.026199924 -0.008466455

net.0.bias f4 [512]
00000000: 8a88 c43d 6cf6 7ebd 9e3c 103d a6fb 8d3d
00000010: 85dd ebbd f1c0 f43d a146 85bc 9d23 363d
00000020: e0c3 cebd 05c2 ad3a 4fe2 b3bd a768 763d
00000030: 662d 47bd d29d b6bd 61eb d33d d88d e03d
00000040: 0f06 3b3d 04b9 b33d 930b 423c cf13 e7bd
00000050: 93f9 a13d 38f8 b53d 2259 e83d cbed 193d
00000060: c2fe 943d 6a95 45bb 5fd4 e73d 65d3 dbbd
00000070: e1ef a3bb 61be d73d da7e 843d c04a 3b3d
00000080: 307e 013d 966b 2abd 5539 d13c a0ea 3c3d
00000090: bcd1 943c be46 90bd 69f0 9b3d 7da7 2f3d
000000a0: 2c2a a43d 8764 973d 7d8f be3d 9f68 6e3d
000000b0: b48a 9cbd 6285 63bd ab0f 1cbd 4b50 923c
000000c0: 7fd3 3c3d 4712 e03c 874d e5bd 64a8 3a3c
000000d0: 917d 493c ad13 02bd 9e25 963d 562f cfbc
000000e0: 69ec a33d 0acd 2cbd 6ea4 fcbc f90e 1dbd
000000f0: fa18 cd3c ceea d13d da47 213d 386f 4cbd
00000100: bc91 c4bc b67a 4fbc 2861 9d3d 7bd4 823d
00000110: d47a 44bd 5df8 f33d d336 b03c eafc 7d3d
00000120: de1d 98bd 21f1 cfbd 4793 323d 60e7 d43d
00000130: 0eeb c0bd 26fb 04bc 2b24 ff3d dd74 9a3d
00000140: f9a8 78bd 2ad9 dcbc f946 8f3d 0072 c8bc
00000150: ac41 d03d cd0b 53bd 6463 debd 5f17 f03c
00000160: 4dba eabd 1b69 96bc edfd 573d e20b d4bd
00000170: f92b 5f3d bfbb 9ebd a792 f13c 40df 803d
00000180: f619 b6bc 9491 073d f3dc 883d 9606 edbc
00000190: ba90 d83d 64a3 74bd ce76 89bc a61d bebd
000001a0: dc85 25bd f596 95bd a3c9 b23d 0ef8 283d
000001b0: f021 ba3d cc6d a13d 6b92 9ebd cd75 94bd
000001c0: da26 b23d 9878 41bd 9a56 af3d ff06 8fbd
000001d0: 7287 0dbd c2fe 353d 8a58 d3bd c507 df3b
000001e0: 8009 563d 3197 b5bd f9e9 cbbb 37b2 d63d
000001f0: 9d89 93bc d423 27bd d2bd ee3d 65df a8bc
00000200: f0d1 a43d 13e9 9d3d 9812 733d dfd6 84bc
00000210: f89b 12bd 92b1 98bc 4590 dbbd 24ec 743c
00000220: 3789 a2bd 2d11 613a ea51 993d a2fc 3c3d
00000230: 9c2f d5bd 1348 36bd 68ff 043d 29ae a9bd
00000240: e41f ed3d de12 863d c771 983d 6a85 f5bc
00000250: c223 333d 59dd 44bd 9e68 29bd 32a8 b73d
00000260: 635d 73bd 5e80 6cbd 3173 ebbd 1208 d6bd
00000270: d9bb f03d d9d0 86bd 5812 de3c 4cbe 38bc
00000280: 3bc6 933d 5271 83bd 112c 863c 562c e73c
00000290: e8d5 2bbb 98cb b13c c0b4 aabc 81ea e83d
000002a0: 48f2 5a3d bb71 12bc 5ffa aabb 1d5b f1bd
000002b0: e77c 793d 31be babd fc04 61bd a044 b43d
000002c0: 9d79 20bd b21c d9bd 68e3 e5bd 6b00 673d
000002d0: d9bf cebd 5dac c2bc e052 923d 5dd9 533b
000002e0: 63bc 403d 35a9 5f3d eb00 63bd a35d 87bd
000002f0: 511c 07bd a786 bd3d a3c0 77bd 60d1 d8bd
00000300: 0e0b c3ba 9a55 dc39 9193 913d 5389 403c
00000310: 2a24 96bd 0b48 c3bd f159 c03c beb3 ffbd
00000320: 2563 9dbd 6aae 273d e753 83bd decf 513d
00000330: f55b eebd c898 f83b 581a 8c3c 3c81 80bd
00000340: 2449 8e3d 37cd 1abd 4309 a23d 8824 a93d
00000350: 404d e13d 7162 e4bd a152 d53d 5df9 e5bd
00000360: b059 103d 19a3 eb3d a1fe ae3c 4351 cb3d
00000370: 40a8 283d 7acf b9bd 512b 573d b639 983c
00000380: 0036 2ebb 66eb acbd ff9e e13d 6f18 0c3d
00000390: e925 583d faf1 42bd 923e 91bd 87cc debd
000003a0: 2c40 033d ba22 d73d 51ad 59bd 07b2 e43d
000003b0: 3966 d5bd 414b 953d ee1b 81bd f418 3f3d
000003c0: 34f4 dd3d 7707 49bd c88b e6bd a015 20bd
000003d0: 73de b33d ca8d 09bd b1ae ae3d 19cb 02be
000003e0: 4157 e2bd f29c b1bd 15f7 693c 717b 243d
000003f0: 96e3 de3c 242c 623d 4c2c 1cbd 56e7 bdbd
0.09596355 -0.062246725 0.03521406 0.06932764 -0.11516861 0.11950863 -0.01626903 0.044467557
-0.10095954 0.0013256675 -0.08783399 0.060158398 -0.04862728 -0.089168206 0.10347629 0.109645545
0.045660075 0.08775523 0.01184358 -0.11283075 0.07908931 0.088852346 0.11345126 0.037580293
0.07275154 -0.0030148872 0.113198034 -0.1073368 -0.005002961 0.10534359 0.064695075 0.045725584
0.031614482 -0.04160651 0.025540033 0.046122193 0.018166415 -0.07044743 0.07614214 0.04288434
0.08015856 0.07392221 0.09304712 0.058205243 -0.07643643 -0.055547126 -0.03810088 0.017860552
0.046100136 0.027352465 -0.11196428 0.0113926865 0.012298004 -0.031757046 0.07331394 -0.025291126
0.08004076 -0.042187728 -0.030840125 -0.038344357 0.025036324 0.102498636 0.039375164 -0.049910754
-0.023995273 -0.012663534 0.07684547 0.06388184 -0.0479687 0.11912606 0.021510517 0.062008776
-0.07427572 -0.101534136 0.043597486 0.10395694 -0.09419833 -0.008116519 0.1245807 0.07541821
-0.06070802 -0.02695902 0.06995959 -0.024468422 0.10168776 -0.051524926 -0.10858801 0.02930802
-0.11461315 -0.018360665 0.052732397 -0.10353829 0.054485295 -0.077506535 0.029488875 0.062925816
-0.022229176 0.03309782 0.06682768 -0.028933804 0.105744794 -0.059726134 -0.016780283 -0.09282999
-0.04041086 -0.073041834 0.087298654 0.04125219 0.09088504 0.0788227 -0.07742771 -0.07249031
0.086988166 -0.047234148 0.0856144 -0.06983756 -0.034553 0.04443241 -0.10319622 0.006806346
0.052255154 -0.08866728 -0.00622296 0.104832105 -0.018009955 -0.040805653 0.11657299 -0.020614335
0.08047855 0.07710471 0.059343904 -0.01621574 -0.035793275 -0.01863936 -0.107208766 0.014948878
-0.07936328 0.0008585628 0.07486327 0.046139367 -0.104094714 -0.04450233 0.032470137 -0.082851715
0.11578348 0.065465674 0.07443576 -0.029970843 0.043735273 -0.048062656 -0.041359536 0.089676276
-0.059415232 -0.057739608 -0.114965804 -0.10450758 0.11754579 -0.06582803 0.027108356 -0.011275839
0.07215544 -0.064180985 0.016378434 0.028219383 -0.0026220027 0.021703526 -0.020838141 0.11372853
0.053453714 -0.008938248 -0.005217835 -0.117849566 0.06091013 -0.091183074 -0.054936394 0.08802152
-0.03917848 -0.10601176 -0.11225015 0.056396883 -0.10095186 -0.02376383 0.071447134 0.0032325604
0.04705466 0.054604728 -0.055420797 -0.06609657 -0.03298599 0.092541985 -0.060486447 -0.1058681
-0.0014880614 0.00042025448 0.07108224 0.011751491 -0.073311165 -0.095352255 0.023480387 -0.12485455
-0.07684926 0.04093782 -0.064124875 0.05122363 -0.11638633 0.0075865723 0.017102405 -0.062746495
0.06947544 -0.037793364 0.07911923 0.08258921 0.110010624 -0.11151589 0.10416151 -0.11229203
0.035241783 0.11505718 0.02136165 0.09927609 0.04117608 -0.09072776 0.052531544 0.018582206
-0.002658248 -0.08443336 0.11016654 0.03420299 0.05277053 -0.047594048 -0.070920125 -0.10878854
0.03204362 0.105046704 -0.053143803 0.111667685 -0.10419888 0.07289744 -0.06304155 0.046654657
0.10837594 -0.049079385 -0.1125713 -0.039083123 0.08782663 -0.033582486 0.085294135 -0.12772788
-0.110517986 -0.08672513 0.0142801 0.040156785 0.02720813 0.055217877 -0.038128182 -0.092726395

net.1.weight f4 [512]
00000000: 482b 783f 28a2 0c3f 6175 2b3f 7c1f 4a3f
00000010: ef9e 443f b93f 323f 25a1 2a3f 1622 483f
00000020: 50e2 4f3f b345 673f 8055 383f be60 f43e
00000030: 5e9f 953f 88f1 633f d136 013f bf70 8b3f
00000040: 7afe 593f f0d3 8d3f cc31 593f fd38 2f3f
00000050: 82ea 3f3f 87de 893f af59 6e3f 4907 2c3f
00000060: 31a6 183f 9032 2b3f 5f55 313f 3528 773f
00000070: a79a 873f d588 993f ad33 6f3f b498 863f
00000080: 2070 3a3f ba9b 823f ca7a 313f 0043 473f
00000090: 15e2 bd3f 4064 753f b0e1 823f 769e 2d3f
000000a0: 8ff0 4a3f 2462 7f3f 1053 383f 4cb2 873f
000000b0: 28c6 563f 174f 5a3f 7f81 a03f e0c4 763f
000000c0: c7e2 093f cbc5 a43f 252a 833f d29e 703f
000000d0: 8c4c 2d3f d3c2 883f ba28 643f 72a0 363f
000000e0: 821e 353f 6da2 d73f 40be 983f c598 5f3f
000000f0: 0e99 513f 6c05 0940 2e03 3b3f 4edf 7f3f
00000100: e2fd 783f 0c73 4c3f 6082 233f 6008 5d3f
00000110: e6fe 7d3f e596 053f 9d94 2b3f ad75 923f
00000120: 665d 263f 88f8 213f a052 653f 2b56 503f
00000130: e72b 3d3f b1a8 203f ae8f 823f 4248 863f
00000140: 43ef 8e3f 8cd6 093f 120a 8c3f 28ba 713f
00000150: 82d6 163f 3eda 553f 8165 373f d201 343f
00000160: 1a6f 1d3f 6423 863f fd12 353f 0cd0 5a3f
00000170: 961c 1f3f 41bd 3f3f 7e17 513f 7a2a e43f
00000180: 87c0 873f 7d84 253f dfc3 4a3f d15e 263f
00000190: e6ce 4b3f 1ef5 663f 63fd 303f 8180 393f
000001a0: 1ec4 903f 82ab 613f d3dd 2f3f 0487 643f
000001b0: 5bd8 383f 93c4 4d3f f2d3 953f d6b5 423f
000001c0: 0e09 313f 6c4f 423f 2242 373f b137 833f
000001d0: f313 403f b5e4 863f a20b 283f 1dcd 713f
000001e0: 2d93 7b3f e3f4 103f b56b 7b3f eef3 663f
000001f0: 0b23 923f c6a6 953f ab1d 613f 6157 4c3f
00000200: cb77 753f c794 633f dd62 d63f 8b9b e23f
00000210: 4a1b 853f bd1d 8d3f 0915 ac3f ecca 483f
00000220: 0627 4a3f eae7 c73e 34c7 513f ad2e 1f3f
00000230: 5b4e 913f e095 5d3f b69c 943f 09dc 863f
00000240: 16b2 0f3f 0f6e 383f 8ecd 733f 3854 873f
00000250: d2fd 833f 0454 473f 624b 873f 9c49 703f
00000260: 2e37 cf3f fa7c 193f 989c 1c3f d31b 543f
00000270: db93 7a3f 78da 503f 87be 883f 9575 213f
00000280: c9b7 5d3f 01da 6a3f 7221 463f b6c7 543f
00000290: 7ea2 9e3f 51b0 773f 063e 963f ad8c ad3f
000002a0: d099 203f 5489 713f 8331 233f 82f1 193f
000002b0: 6ee0 1e3f 981c 2f3f 9247 4d3f 4d48 203f
000002c0: 241d 903f 7f8c 653f f6e2 7d3f 22ca 293f
000002d0: 3098 7d3f 0705 873f 425c 913f 37d9 443f
000002e0: b534 1d3f 6b01 903f 75f9 593f 68de 513f
000002f0: 2d22 553f 9978 8f3f 7bed 1a3f 935b 5f3f
00000300: 2bd8 223f 4d2e 8f3f def3 a33f 7286 553f
00000310: a14a 2b3f 90b9 3f3f 6d23 7a3f 465c 903f
00000320: b258 883f 18ce 223f 4af0 1e3f 5fc4 ce3f
00000330: 918d 293f 7363 6f3f c0d5 8d3f 8326 223f
00000340: 3d11 163f 62fe 543f c7cd 2f3f 1ea0 d93e
00000350: c1b5 463f 3a9a 583f 79f8 873e 3218 2c3f
00000360: 2de6 653f 18d8 873f a734 9c3f 1279 833f
00000370: 7ca8 6b3f 0fe8 633f 7417 613f bce0 403f
00000380: b32e 0d3f 9b65 4c3f ee65 593f 2b1f 0d40
00000390: 70ca 463f 50b5 253f 53db 4c3f cfd2 233f
000003a0: 7004 cf3e 5f57 733f 19ca 663f b0a0 073f
000003b0: f694 323f 8802 563f 7095 e73f da75 9d3f
000003c0: 896b 973f 9bad 5e3f 4df6 2e3f 2e71 6b3f
000003d0: c0c3 1f3f cabe 643f c300 cd3f 28d5 013f
000003e0: cc4f 593f b374 323f 8bb2 5b3f f829 443f
000003f0: bcc7 863f e9eb 733f df11 813f 427f 7d3f
0.9694104 0.5493493 0.6697598 0.7895429 0.76805013 0.69628483 0.6665214 0.7817701
0.812047 0.9034073 0.7200546 0.47730058 1.168926 0.8904042 0.5047427 1.0893782
0.85153925 1.1080303 0.8484161 0.6844633 0.74967206 1.0771035 0.93105596 0.67198616
0.5962859 0.6687403 0.6927089 0.96545726 1.0594071 1.1994883 0.93438226 1.0515351
0.7282734 1.0203774 0.69327986 0.7783661 1.483462 0.95856094 1.0225124 0.6781992
0.79273313 0.99759126 0.72001743 1.0601287 0.8389611 0.8527693 1.2539519 0.9639416
0.5386166 1.2872862 1.0247236 0.9399234 0.67694926 1.0684456 0.89124644 0.7133857
0.70749676 1.6846443 1.193306 0.8734248 0.8187417 2.140956 0.73051727 0.9995011
0.97262394 0.7986305 0.6387081 0.86340904 0.9921707 0.5218337 0.6702364 1.1442162
0.64986265 0.63269854 0.895792 0.8138148 0.73895115 0.627574 1.0200098 1.0490801
1.1166767 0.53843 1.0940573 0.94424677 0.5892106 0.83536136 0.7163926 0.7031528
0.6149765 1.047955 0.707321 0.85473704 0.62152994 0.74898154 0.8167647 1.7825463
1.060563 0.64655286 0.79205126 0.6498843 0.79612577 0.9021777 0.6913664 0.72461706
1.130985 0.88152325 0.6869785 0.8926852 0.7220513 0.80378073 1.1705306 0.7605871
0.6915444 0.7590244 0.71585286 1.0251371 0.7503044 1.0538546 0.6564275 0.94453603
0.9827145 0.5662367 0.9821122 0.9021596 1.1416944 1.169152 0.87935895 0.7982083
0.95885915 0.8889889 1.6748921 1.7703718 1.0398953 1.10247 1.344392 0.78434634
0.78965795 0.39044124 0.81944585 0.62180597 1.1352037 0.86556816 1.1610324 1.0535899
0.5613111 0.72042936 0.95235527 1.0572577 1.0311835 0.7786257 1.056988 0.9386232
1.6188715 0.59956324 0.61176443 0.82854956 0.9788186 0.81583357 1.0683144 0.6307004
0.8660856 0.917389 0.77394783 0.83117235 1.2393339 0.9675341 1.1737678 1.3558556
0.627347 0.9435017 0.63747424 0.60134137 0.620612 0.68403006 0.8018733 0.6261032
1.1258893 0.89667505 0.9917444 0.66324055 0.99060345 1.0548409 1.135628 0.76893944
0.6140855 1.1250433 0.85146266 0.8197999 0.83255273 1.1208678 0.60518616 0.87249106
0.63611096 1.1186005 1.2808797 0.8340827 0.6691075 0.7489252 0.97710305 1.127816
1.0652068 0.63595724 0.620854 1.6153678 0.6623164 0.9351112 1.1080856 0.63340014
0.58620054 0.8320066 0.68673366 0.42504972 0.77621084 0.8461033 0.26556757 0.6722442
0.89804345 1.0612822 1.2203568 1.0271323 0.9205396 0.8902597 0.8792641 0.7534292
0.5514938 0.7984254 0.8492116 2.2050273 0.77652645 0.64729786 0.8002216 0.63993543
0.40433073 0.9505519 0.90152127 0.52979565 0.69758546 0.8359761 1.809248 1.230159
1.1829692 0.8698365 0.68344575 0.91969573 0.62408066 0.8935362 1.6015857 0.50715876
0.84887385 0.6970932 0.8581931 0.7662654 1.0529704 0.95281845 1.0083579 0.99022305

net.1.bias f4 [512]
00000000: b01f 653e 63bb 2bbe c0ad 04bf 2347 593e
00000010: aab6 f4be 7250 21be cbc0 f2bd cf20 9abe
00000020: a969 babe f819 75be b67d 853c 6ec4 99bd
00000030: d43c ed3d 909c 90be 9885 03bf 8322 11bf
00000040: a5f3 9abe 65a0 843e bbe2 dbbe 7d2b e3be
00000050: 0960 dbbe 2174 69be 0b8f d83d e430 dcbe
00000060: d406 16bf 8049 28be efa8 b3be 48ed 07bf
00000070: 0856 483e 04cd c9be 1e6c c73d 3b69 2bbf
00000080: fe50 f3be d329 853e b59e 1e3e c6ad b2be
00000090: 544b 3fbf 187c c7be be31 3dbf 9602 35bf
000000a0: 7005 ecbd 5c3f 243e 2e30 02bf a083 ffbe
000000b0: 3273 10bf 0660 01bf 5093 00bf 3f14 693e
000000c0: 2c9e 1abe 25b3 3fbf a025 88be 4d91 82be
000000d0: be3b b2be 6a76 b3be 14bd 0f3e 33f8 94be
000000e0: 5ab9 8cbe 42c0 0abf da10 d5be 347a 21bf
000000f0: 869a adbe 13ac 53bf 9e03 ad3d e7d4 2ebf
00000100: 5c87 3cbf 8f64 e5be 85df 3bbf 4a04 abbe
00000110: 4113 18bf 5a45 8cbe 47d3 c9be e5d1 bd3d
00000120: ae26 e2be 67e9 02bf 8bbd 2abf 17ef adbe
00000130: d702 31bf 971f 14bf fce8 003e b4d3 0dbf
00000140: e270 7e3e 0dc0 14bf 5c80 47bf 51ed dcbe
00000150: e824 65be d485 d0be 34e2 7e3d ab1d 3f3e
00000160: be52 b4be adb3 c7be 156c 16bf 9fae 65be
00000170: 7bee b1be b896 abbe 7efe 16bf a4d4 5ebf
00000180: b197 d4be 0065 0bbf a6a2 55be 5424 e03d
00000190: 4d19 aebe c905 12bf 7408 23bf 508f dcbe
000001a0: 3ebe e13d bba0 61be 2dc0 c3be 68f9 51bf
000001b0: f677 9fbd ea08 d7be 56dc 23bf 43ff 0ebf
000001c0: c122 70be 0f7a 02bf e37a 93be 0a4e 34bf
000001d0: 7396 ddbe 5216 09bf e162 383d 97b6 5abf
000001e0: 5114 bc3d 53ee b6bd fbb9 5abf a43e 02bf
000001f0: 5da0 27be a07a a6be a777 e5be 43eb 30be
00000200: f14c 0d3e 58df 36bf 3fbe f9be 9aa0 6fbf
00000210: d546 d53d ba47 acbe b403 38bf 3597 f5be
00000220: 4ecf 00bd 02c2 12bf 21ca d8be 79ca 4bbf
00000230: e62e 07bf 64e1 24bf 2429 24bf a646 21bf
00000240: f91a 71be 1c00 d7be 8fb9 05bf 5718 6fbe
00000250: 03d0 e1be 67a1 c8be 663b 853e c22b 14bf
00000260: c8ee e6be 25aa aebe 8294 afbe b88c 15bf
00000270: e0c3 b6be 5169 f6be ef58 1bbf e18e 34bf
00000280: 6493 08bf f04f ffbe 862f f43c f7b5 81be
00000290: c5cc 13bf c741 583e 450e ed3d 971d d0be
000002a0: 56ac c7be 21c6 cebe 940e 69be b7c7 e7be
000002b0: 8c5b 973c c7b8 5ebe 73a0 a0be 6634 17bf
000002c0: 496f 1d3e 969e 633e efc0 abbe 5bac e9be
000002d0: fd6e 2cbf 532d 3f3e 1348 963d 1159 92be
000002e0: a668 3dbf cb36 07bf 0d9e 473e 4355 37be
000002f0: 5a4d e0be 187d cebe 6ead d43c 5dd4 efbe
00000300: 4f34 b6be b5c5 33bf a71f 63bf 6b80 dbbe
00000310: 2856 b6be e975 26bf ca72 84be 593c 093e
00000320: 6de1 2abf 1a49 04bf db88 5cbe 9b0f 18bf
00000330: 2522 f7be c3db 133d d52d 41bf 38ab 4abe
00000340: 0ba4 4abf 1ac8 a8be 922c b9be 4816 a2be
00000350: 2232 2bbf d9a4 3bbe 9bd2 bdbe 8616 04bf
00000360: 3643 4abf 13cf 723e 3156 8cbe c820 25bf
00000370: 73c1 5a3e 9306 c7be e1a2 73be 1ebe 343d
00000380: 32ac 64be 5fd4 afbe ba9e a0be c65d 1fbf
00000390: 1a31 56be 8ca5 c9be 27f4 413d 3dc8 03bf
000003a0: aaf6 99be 7cc0 91be cb6b 743d a602 87be
000003b0: 9cde 10bf be27 cbbd 3254 a4be af65 02bf
000003c0: 513c 5bbe be12 c8be cf1e debe eb4d a0be
000003d0: 9c64 a7be c793 aebe 1f80 00bf 852d aebf
000003e0: 095b 013e ccfd 86be 9f6e 1f3e aa6b 06be
000003f0: 9e15 c0be fcd7 30be 9c63 2ebf 1c6e 163e
0.22375369 -0.16770701 -0.5182762 0.21218543 -0.47795612 -0.15753344 -0.118531786 -0.30103156
-0.36408737 -0.23935688 0.016295295 -0.07508169 0.11583868 -0.28244448 -0.5137572 -0.56693286
-0.3026401 0.2590362 -0.4294642 -0.44369116 -0.42846707 -0.22798206 0.10574158 -0.4300605
-0.5860417 -0.16434288 -0.35089824 -0.5309644 0.19564068 -0.39414227 0.097374186 -0.66957444
-0.4752273 0.26008472 0.1549023 -0.34898204 -0.74724317 -0.38961864 -0.73904026 -0.7070707
-0.115244746 0.16039795 -0.50854766 -0.4990511 -0.56425774 -0.50537145 -0.5022478 0.2276163
-0.150994 -0.7488273 -0.26591206 -0.2550148 -0.34811205 -0.3505128 0.14036971 -0.2909561
-0.27485162 -0.5419961 -0.4161442 -0.6307709 -0.33906955 -0.8268444 0.084479555 -0.68293613
-0.7364404 -0.44803283 -0.7338794 -0.3340171 -0.5940438 -0.2739666 -0.39419004 0.0926855
-0.44170135 -0.51137394 -0.6669547 -0.33971474 -0.6914496 -0.578607 0.12588876 -0.5540116
0.24847749 -0.58105546 -0.77930236 -0.43149808 -0.2237736 -0.40727103 0.062227443 0.18663661
-0.35219377 -0.3900427 -0.5875867 -0.22429894 -0.3475226 -0.33513427 -0.58982074 -0.87043214
-0.4152198 -0.5445099 -0.20862827 0.10944429 -0.34003678 -0.5704008 -0.63684773 -0.4307809
0.11022614 -0.2203397 -0.38232556 -0.8202119 -0.077865526 -0.41998988 -0.6400808 -0.5585825
-0.23450758 -0.50967497 -0.28804693 -0.7043158 -0.43278846 -0.53549683 0.045016173 -0.8543486
0.091835625 -0.089321755 -0.85440034 -0.5087683 -0.16369767 -0.3251543 -0.4481785 -0.17277245
0.13798882 -0.71434546 -0.4877796 -0.93604434 0.10413901 -0.33648473 -0.7188065 -0.47966924
-0.0314477 -0.5732728 -0.42341712 -0.79605824 -0.52805936 -0.6440642 -0.64125276 -0.62998426
-0.23545446 -0.4199227 -0.52236265 -0.23349129 -0.44104013 -0.3918564 0.2602188 -0.5787927
-0.4510405 -0.34114185 -0.3429299 -0.58417845 -0.35696316 -0.48127225 -0.60682577 -0.70530516
-0.533499 -0.49865675 0.029807817 -0.2533414 -0.5773433 0.21118842 0.11574987 -0.40647575
-0.3899867 -0.40385535 -0.22759467 -0.45269558 0.01847627 -0.21750174 -0.31372413 -0.5906433
0.15374483 0.22228464 -0.33545634 -0.4563931 -0.67356855 0.18669634 0.07337966 -0.28583577
-0.73987806 -0.5281798 0.19493885 -0.17903619 -0.43809015 -0.40329814 0.025961604 -0.46841708
-0.35586783 -0.7022355 -0.8872017 -0.42871413 -0.35612607 -0.65023667 -0.25868827 0.13401927
-0.6675022 -0.51674044 -0.21536581 -0.5939881 -0.48268238 0.036098253 -0.7546056 -0.19791877
-0.7915656 -0.32965165 -0.36166817 -0.31657624 -0.6687337 -0.18324603 -0.37074742 -0.5159687
-0.79008806 0.23711805 -0.2740951 -0.64503145 0.21362858 -0.38872203 -0.23792602 0.044126622
-0.22331312 -0.34341714 -0.313711 -0.6225246 -0.20917168 -0.39384115 0.047351982 -0.51477414
-0.30071002 -0.28467166 0.059673112 -0.26369208 -0.56589675 -0.099196896 -0.32095486 -0.50936407
-0.21409728 -0.390768 -0.4338288 -0.31309447 -0.32693946 -0.3409712 -0.501955 -1.3607641
0.12632383 -0.26365507 0.15569542 -0.13127008 -0.37516493 -0.17269892 -0.6812074 0.14690441

net.1.running_mean f4 [512]
00000000: e33d 033e d7c0 0ebe 261c b73d 37e5 453d
00000010: 2edb 5dbd 0783 093d d9da 8f3d 6d6f 773d
00000020: 39ba a7bd 0cf1 983d 5e62 cebd 542e 1b3e
00000030: 130d acbd d827 ecbd f44d 533e 3ea9 0a3e
00000040: 0b49 803d 640b e63d 593c 373d fed5 53be
00000050: e719 7d3c 100b f43d d925 113e 3fa3 ffbc
00000060: 9903 663d 587a 8a3d 2428 dc3d b857 e5bd
00000070: 72e1 bebc 04f2 1d3e ddf1 593d cc2f cb3d
00000080: 976a 023c e007 67bd fc66 83bc b5b8 933d
00000090: 426f 283c bf6a b5bc 81e2 a83c 2f4c 963d
000000a0: eb56 033e af24 f13d 68a1 033e b1e3 e1bc
000000b0: 5ded c2bd 29fe 6dbd f3cc d5bc f869 413d
000000c0: 5f33 363e 99eb ba3c 01f2 22be 2924 7c3d
000000d0: b4dd 323d 2336 4dbd 1c3b 433d 4f62 cb3b
000000e0: 6b73 d73d 4097 34bd 8eb3 73bd 357f 6abd
000000f0: 79c9 123d 6984 fc3d 6ded ab3d 8ef6 32bd
00000100: 837c c03c 0460 c9bd c7b0 5e3e c2b3 bf3d
00000110: 74c1 74bc f4ee 2f3d be2b 32bd a36e 313d
00000120: f286 26be cee4 04be 99ec 1cbd bb9f 153e
00000130: 1eba 83bd ccbc b1bd f831 133e d53c 633d
00000140: adfe b6bc 831a 1d3d 11f7 d93d 77cc 7a3b
00000150: b8ee e43d 35b6 6dbd d44c 05be 6bec c53c
00000160: 1a37 32be 9679 a43d a687 be3c b480 42be
00000170: 49a9 f93c f63d 1abd 37ba 6b3d e3e6 6a3d
00000180: 4f05 23bd e7dd 943d 655c cd3d a702 16bd
00000190: c14d b03d 66c1 2fbe 53d2 453c d0c4 32bd
000001a0: 3ab1 86bd 5d2f 0abe bffb a33d 10db a7bb
000001b0: a68c d83d fea7 473d 89ff f7bd 0c43 81bd
000001c0: 432d d13d dfbd c2bd 6a26 233e b348 3fbe
000001d0: 0810 a23c 5445 533d b6c9 29be 5e69 913d
000001e0: 241c a53d 5cfa 0fbd 71b5 153d c114 db3b
000001f0: 4558 3f3c 25cc cc3c c3cd 8a3d 52ea 123d
00000200: ef13 4e3d ddaf 7a3d 4129 6e3d e444 d8bc
00000210: e622 64bd 8168 de3d e50f 04be ea6c 9bbc
00000220: 3f9d 81bc 983e 82be 50e2 a53d 42b2 1a3e
00000230: 7567 dabd 85ad 8dbd 4d74 17be 13a4 82be
00000240: c892 9e3c 0529 bf3d c9eb 4a3d ad26 edb9
00000250: 5f30 c2bd 1700 09bd 090a 27bc dd74 2e3c
00000260: ce94 82bd 7dae 83bd 4454 3dbe cc25 c5bc
00000270: b37c ef3d 2197 e9bc 3c93 183d 7dec 2fbc
00000280: 72ce f13d 2b2c c2bd 605a 313c 127e 5c3d
00000290: b45d c23d cc46 88bc 2225 6fbb 7100 243e
000002a0: 25d7 f13d 2ff6 00bc dda0 c0bc 285a 4cbe
000002b0: f93e 6b3d 57e7 02bb 9a63 47bd 971b dd3d
000002c0: 3ce5 61bc d1a2 02be f6e4 67be b511 d13d
000002d0: abc4 c5bd 8551 f13a b456 1d3d 42c5 3c3d
000002e0: 24c7 093e a0e5 8eba 6f23 b1bd 3a33 8bbd
000002f0: 6c40 74bd b93a 4b3d bd68 5cbd 9dfa 1cbe
00000300: bd08 8bbc 4e64 a0bb 256c 0dbe 778c 66bd
00000310: a81c 67bb 70cb 4cbd 2b34 4a3d 4f2f dbbd
00000320: 14f2 54bd b292 c33d ceee 05be ac92 8b3d
00000330: a41f a0be d1d1 0c3d 5a9c 703b 01e7 16be
00000340: d9a3 493c 92a1 73bd 517a cd3d 7922 ce3d
00000350: d880 0b3e 4dd4 17be 50cc 413b c6b4 94bd
00000360: 25cb 9e3d 375d 163e 9866 a13d 4f07 743d
00000370: 22fe 023c d194 6ebd ccfc 8c3d 253b 2c3d
00000380: 1489 263d d7f3 d6bd dd50 1e3e 6be6 da3c
00000390: 4034 fc3d 896b 56bd c5a2 6cbd 43bd 233b
000003a0: b225 b3bd 7ce6 773d 97e9 bebc c350 543e
000003b0: f5d3 99bd 9b13 bf3d 5d0d 62be 4785 953d
000003c0: 887d bb3c c5d8 1bbe bb6e 9ebd aa5b 803d
000003d0: 1b8a 953d 26e8 50be 39cc a73d 9d20 88bd
000003e0: bfb7 f7bd ecbd 43be e105 33bc 5cf5 683e
000003f0: 8d59 dabc d981 8cbd a23a 09bd 4650 f8bd
0.12816577 -0.1394075 0.08940916 0.0483143 -0.054164104 0.033572223 0.07024164 0.060409
-0.08189816 0.07467851 -0.10077356 0.15154392 -0.08400931 -0.11531037 0.20635206 0.13541123
0.06263932 0.11232641 0.044735286 -0.206871 0.01544807 0.119161725 0.14174594 -0.031205771
0.056155775 0.067616165 0.10749844 -0.11198372 -0.02330086 0.15424353 0.053209174 0.09921226
0.007959983 -0.056403995 -0.016040318 0.072129644 0.010280432 -0.022145627 0.020615818 0.073387496
0.12826125 0.11774575 0.1285454 -0.027574392 -0.0951793 -0.058103714 -0.026098704 0.0472202
0.17793034 0.02281742 -0.1591263 0.061557923 0.043668464 -0.050100457 0.047663793 0.0062067877
0.10520061 -0.044089556 -0.05949741 -0.05725022 0.03583667 0.12329943 0.08394895 -0.043692164
0.023496872 -0.09832767 0.21747123 0.09360458 -0.014938701 0.042952493 -0.043498747 0.043318402
-0.16262415 -0.12977907 -0.038311575 0.14611714 -0.064319834 -0.08678588 0.1437453 0.055477936
-0.022338236 0.03835536 0.10642827 0.0038268843 0.111783445 -0.058035094 -0.13017589 0.024160584
-0.17403832 0.08031003 0.023258042 -0.18994409 0.03047623 -0.037656747 0.057550635 0.057349097
-0.039799985 0.07268887 0.100273885 -0.036623623 0.086085804 -0.1716362 0.012074071 -0.043644726
-0.06576772 -0.1349463 0.08007001 -0.00512255 0.105737016 0.048744194 -0.12109286 -0.06311616
0.10213711 -0.09508871 0.15932623 -0.18680076 0.019783035 0.05157979 -0.16580853 0.07100175
0.08062008 -0.03515087 0.03654999 0.0066858237 0.01167876 0.024999687 0.06777527 0.035867997
0.05031198 0.061202873 0.05814481 -0.026400037 -0.055697344 0.10859776 -0.12896688 -0.018972833
-0.015822051 -0.2543838 0.08099806 0.15107062 -0.10664264 -0.06917862 -0.14790459 -0.25515804
0.0193571 0.09333996 0.04954127 -0.00045232978 -0.09481882 -0.03344735 -0.010195264 0.01064798
-0.063760385 -0.064297654 -0.18489176 -0.024065875 0.11693706 -0.028514447 0.03724979 -0.010737536
0.118069544 -0.094810806 0.01082477 0.053831168 0.09490529 -0.016635321 -0.0036490639 0.16015793
0.11808614 -0.007871195 -0.023514206 -0.19956267 0.057433102 -0.0019974315 -0.04867897 0.10796278
-0.013787564 -0.12757422 -0.22645935 0.102084555 -0.09656652 0.0018411136 0.038412765 0.046086557
0.13454872 -0.0010902174 -0.086493365 -0.0679688 -0.05963175 0.04961655 -0.053810824 -0.15329976
-0.01697194 -0.0048947698 -0.13810785 -0.0562863 -0.0035264883 -0.0499987 0.049366158 -0.10702383
-0.051988676 0.09549464 -0.13079378 0.06815085 -0.3127414 0.034379784 0.0036714287 -0.14736558
0.012307131 -0.059480257 0.10033096 0.10065169 0.13623369 -0.1482708 0.0029571243 -0.07261042
0.077535905 0.14683996 0.07880896 0.059577283 0.00799516 -0.05824739 0.06884155 0.042048592
0.04065807 -0.104957275 0.15460534 0.0267212 0.123146534 -0.052348647 -0.057772417 0.0024984635
-0.08747424 0.06052254 -0.023304744 0.20733933 -0.07511131 0.09329911 -0.2207541 0.07300811
0.022887006 -0.1521941 -0.07735964 0.062674835 0.07301732 -0.20401058 0.08193249 -0.066468455
-0.12095594 -0.19115418 -0.010926695 0.22749847 -0.02665403 -0.06860704 -0.033503182 -0.12124686

net.1.running_var f4 [512]
00000000: 6462 8442 249a 1741 5871 bb40 f77c 5e42
00000010: fc31 b840 7086 1441 5460 c640 0519 db40
00000020: 519b 8341 4520 ab40 317c 7641 fbef b340
00000030: 93d1 8a42 d62a ba40 5032 3741 feae 8e40
00000040: a568 8940 cfb1 8c42 fb19 3d40 3c84 1941
00000050: e7b3 b240 84b1 c740 c0f3 0b42 e6a7 b340
00000060: 844c ef40 d299 8840 35d9 de40 bbb4 9a40
00000070: c72a 8842 f32c 0141 24b4 4942 ccc4 1f40
00000080: e82d a940 72ff 1842 dbd0 c041 2624 6241
00000090: e27c 3541 cbdb c840 19fd 0041 9681 9540
000000a0: 1b84 6241 15f8 5642 8f08 c941 f3eb 9541
000000b0: f80b 9b40 e6ee c140 cf2a 1441 c649 a742
000000c0: 59b5 6d40 714a 2e41 8d04 2241 3572 5241
000000d0: 4ba3 9340 f431 6c40 4884 5342 a999 8b40
000000e0: 3bdd 8341 6a71 5941 54b8 3b40 4043 8940
000000f0: 915f 1040 ae25 5141 f98d a841 b78c a740
00000100: 212d f440 39e6 e740 c5a1 2c41 85af f83f
00000110: 6b63 cd40 332c 2041 90fe 6c40 2131 8242
00000120: d0d6 9340 eb71 c440 7bec eb40 1501 1b41
00000130: cb6d a540 3865 f141 24a9 0442 a400 1c40
00000140: f952 9f42 7f76 e640 e9dd 3340 3cb4 f140
00000150: 07ae 7f40 dfb5 d640 83c0 7d41 3307 1242
00000160: 5ce7 a540 2de4 9241 541a 9840 f9ef 5041
00000170: 4e31 b640 badc 8140 54ce 5140 6fe3 2c41
00000180: fb8d 8b40 2c94 be40 6f90 1a41 5f06 9e41
00000190: 9ee3 cb40 59b9 8141 d3ba 7b40 9111 4040
000001a0: edc6 8442 4930 e440 70f2 a340 dc64 5e40
000001b0: 76b3 1841 4e6f 9d40 b7d9 1b40 174a 6d40
000001c0: f4a0 a240 9677 de40 d06f 0f41 5d44 0441
000001d0: 8977 5940 7e8c e740 bdfb c241 b105 3740
000001e0: 39f4 3242 15e9 d440 e64f 2540 ec5c 2741
000001f0: e15f c340 5247 4b41 4957 2541 45e0 cf40
00000200: 0a33 8e42 569e 5b40 8287 7141 0b18 4f41
00000210: 0a84 7f42 f6e3 7141 9760 1740 9063 6940
00000220: a99c 1941 5dfa ed41 fc39 9640 009a 2041
00000230: d4f3 ce40 5cbd db40 2ee2 2341 a035 6241
00000240: d719 fa40 1306 8040 ffb8 d040 e33b bb40
00000250: e257 3f41 e07b a640 20f6 a442 ac2b 1a41
00000260: 789c 9141 9089 0c41 d2a3 b540 face 4a40
00000270: a3b1 8e41 3969 a940 62ba c840 5819 d440
00000280: 2e5b 8440 5d53 8840 185f c641 12ee 9a40
00000290: bd3c 3b41 e97a 8642 1130 2842 960d 8f41
000002a0: 97d7 c440 b5b1 6040 4deb 1541 1569 b140
000002b0: 5ffe 3f41 75b0 9e40 e820 5c40 b8fc 6740
000002c0: 6dbf 3d42 a85d 6142 1823 8f41 d972 4c40
000002d0: e9dd 3b40 4df9 8542 0cec 8142 475f 1041
000002e0: cbc4 8040 a74a 4f41 0d51 7b42 a15d 0441
000002f0: 0706 2e40 993b 0941 0f1d fd40 dfd2 6740
00000300: 483b bf40 654d 0441 99e4 8541 d94b 9f40
00000310: 9938 d140 48ad 1440 fe5f 9740 a9fa 3542
00000320: bcf5 e940 bb9f ce3f 7023 9540 7f5b 3741
00000330: 464e 4441 4b68 c941 b365 f140 55c0 1641
00000340: 46d7 8941 a8fe 9640 c97f 5a40 7ddc 0641
00000350: 42c3 5440 f4b4 0e41 84ac 3c41 f26a 2e40
00000360: a206 3340 ed98 8542 04ff 0640 1cd0 ee40
00000370: 9fd4 8142 5b9f 8140 5546 0041 42a3 5941
00000380: 42d6 8f40 b8f9 4840 1bad 7941 60dd c741
00000390: b965 2741 c699 8940 fb6e dd41 3ff3 f040
000003a0: c32c 4041 df79 4341 b611 0742 df6d ca40
000003b0: 99bf 7e40 f3a2 4541 652b 0b42 78de ed40
000003c0: b48d 4d41 616e 3441 cd57 6740 c4b1 1741
000003d0: 91de 0241 2921 4241 5b39 8541 7049 5441
000003e0: 5dde 6b42 a3e3 0741 5081 8a42 cc19 1042
000003f0: 9b4e e340 7e27 8a41 90d8 c740 6ea1 8842
66.19217 9.475132 5.857586 55.622036 5.7561016 9.282822 6.199259 6.846804
16.450838 5.347689 15.40532 5.6230445 69.409325 5.817729 11.449783 4.4588614
4.294024 70.34728 2.9547107 9.594784 5.5844607 6.2404194 34.988037 5.6142454
7.4780903 4.268777 6.9640145 4.834562 68.08355 8.073474 50.42592 2.4963865
5.286854 38.24946 24.10198 14.133825 11.342989 6.27683 8.061791 4.6720686
14.157252 53.742268 25.129179 18.74021 4.845211 6.0604124 9.260451 83.64409
3.7141936 10.893174 10.126111 13.152883 4.613683 3.690549 52.87918 4.3625073
16.483023 13.590189 2.9331255 4.289459 2.255833 13.071699 21.069323 5.235927
7.630509 7.2468534 10.7894945 1.9428564 6.418386 10.010791 3.7030373 65.095955
4.619972 6.138906 7.3726172 9.687764 5.1696525 30.174423 33.165176 2.437539
79.662056 7.201965 2.8104193 7.5532513 3.9949968 6.709701 15.8595 36.50703
5.184492 18.361414 4.753214 13.058587 5.6935186 4.058194 3.2782183 10.805526
4.3610816 5.9555874 9.660262 19.75311 6.3715353 16.215502 3.9332778 3.0010722
66.38853 7.130894 5.1233444 3.474906 9.543814 4.919837 2.4351633 3.707647
5.0821476 6.952098 8.964798 8.26669 3.3979208 7.2359 24.37292 2.8597224
44.7385 6.6534524 2.5830016 10.460186 6.105454 12.704912 10.33381 6.4961267
71.099686 3.431539 15.095583 12.94337 63.878944 15.118155 2.3652704 3.6467018
9.600747 29.747248 4.694578 10.037598 6.467264 6.866865 10.24272 14.138092
7.8156543 4.0007415 6.5225825 5.8510604 11.958956 5.2026215 82.48071 9.635662
18.2014 8.783585 5.6762476 3.1688828 17.836737 5.2940946 6.272752 6.6280937
4.1361303 4.260176 24.796432 4.8415613 11.702329 67.24006 42.04694 17.881634
6.151317 3.5108464 9.3699465 5.5440774 11.999602 4.95904 3.4395084 3.6247997
47.43694 56.34146 17.892136 3.1945097 2.9354193 66.986916 64.96103 9.023261
4.0240226 12.955726 62.82915 8.272859 2.7191179 8.57705 7.909797 3.6222456
5.9759865 8.268895 16.73662 4.9780087 6.538159 2.3230762 4.730468 45.494785
7.311247 1.6142496 4.660576 11.459838 12.26911 25.175924 7.5436645 9.421956
17.230114 4.718586 3.4140494 8.42883 3.3244176 8.919178 11.792118 2.7252774
2.7972798 66.79868 2.109315 7.462904 64.915276 4.0507026 8.017171 13.602358
4.4949045 3.1402416 15.604762 24.983093 10.462335 4.300021 27.67919 7.529693
12.010928 12.217254 33.767296 6.325912 3.9804442 12.352283 34.792377 7.433407
12.8470955 11.276948 3.614734 9.4809 8.1793375 12.133096 16.653006 13.267929
58.96715 8.493075 69.25256 36.025192 7.1033454 17.269283 6.245186 68.31529

net.4.weight f4 [256, 512]
00000000: a073 fb3b adca 273c d605 d13d f1e2 4f3d
00000010: ffb7 fe3c 30df 103e e126 b93c d790 5bbe
00000020: 4b5f 2bbf 14a4 bcbd 28ff 15bf 4c5f 6dbe
00000030: 384c b63d 41f0 063e 11f1 2ebe 2261 773e
00000040: 613a f83d ac99 cabd 9fa8 01bf 4b0d c73e
00000050: 3025 8abd 009c 423e 92a8 4abd bc6f 053e
00000060: 09e3 0bbe b141 ce3d d427 8bbd b187 5c3e
00000070: af89 70bc f334 29bf c804 953c e71b 05be
00000080: 1e48 153f c946 e8bd d533 c63c 6c47 1bbe
00000090: b87d f23d e663 353e af00 b5bc 4499 5c3e
000000a0: 37be 22be fc91 fe3b 9f6d bf3e 27d9 55bc
000000b0: 72de ba3d 84b5 04be 7ce7 003e 2169 3bbd
000000c0: 2a81 fbbd 329c d6bd 9e94 0e3c ecd7 e8be
000000d0: 0a6d dfb9 4dfc a43b 0c00 8e3d 4e19 c53d
000000e0: 5820 9e3e 490d a3bd 9fe7 01be d9a3 54be
000000f0: 8925 e5bc 3e56 2d3a d06e 46bd 5c86 e7bd
00000100: 333d 963e b9a3 78be 3bb9 333e 1379 27be
00000110: 6996 05bd b83e b93d 0278 6fbe a3ab 4fbc
00000120: 6df0 6d3b 2445 a23d b066 4bbe e570 d9be
00000130: 02e0 973e 35dd d3bd 84ff 0b3e 3ae3 5bbf
00000140: de06 3a3d 8520 343e bec0 d43e f18f 523e
00000150: 51d6 f33d 8221 34be 053b 503e 04ca 2e3e
00000160: 6daa 443e b293 4b3e e67d a5bc 6079 01be
00000170: 42a3 25bf fa22 cf3d ff83 223e a7c1 08bd
00000180: 5d70 32be 4e5f 59bf 98b1 96be d4b5 423e
00000190: 5b4a 1bbe c1a6 a1be 69c9 de3d c8d7 d03e
000001a0: b1d3 ce3c d40a eebe 8f48 aebe d04f 8e3e
000001b0: 7827 d93c e5fe 52bd cf4f 073e ae6f 673e
000001c0: e5b2 373e 1841 063e 72d3 9a3e e3df fa3a
000001d0: 1b52 5d3e 47ef 3dbf 161d 153e c2a0 9f3e
000001e0: c751 e83d 4968 723e 9d3c 4a3e 04e3 03bf
000001f0: 6d87 793d ae44 bebe 0f9f 37bd 4d81 a73d
00000200: 3885 953d cee6 88be a00b 61be 49ef 893d
00000210: 7104 393d 2cf6 47bf fa5f db3a aa0c 443d
00000220: ac7f 913e a505 3c3c e006 ffbe 5bcf 103e
00000230: 5888 d3be 0f1f 65be bf4e 40bf 78c7 07be
00000240: c29a 113e daa0 183e 54ca 853e 7637 40be
00000250: c364 5e3e 1017 e5be 6883 20bd 0923 673c
00000260: aade bf3c b085 803e ebdb 9b3d 8712 2c3e
00000270: 58d9 803e 6780 98be 952a bdbd f42d 1cbd
00000280: f70a be3d 8129 dabb 524d f4bc 17ca b83e
00000290: 9913 923e a607 743b ab30 163d b3b4 91bf
000002a0: fac9 793c 6eb6 42bf 2d5c 95be 1145 5ebe
000002b0: 8ae2 df3d a7c1 07bd 469b 0abe 1905 623e
000002c0: ce17 8a3c 031c 273e 933f 9dbe d4f9 a13e
000002d0: 151a 573d c1f1 7e3d 9184 6cbd 552d 75be
000002e0: 4b4e 4c3e 3b2b 013f f0d0 4c3c fb43 ecbe
000002f0: cad8 263e 84c0 acbe bab6 b6be 6acf b0be
00000300: 83e3 89bd 173a b33e 0737 a43e d690 0cbf
00000310: b354 cc3d 7216 59bd b196 afbe 9a9c 823d
00000320: e1f4 e2ba 995a 60bd ba8a 92bc d960 61bc
00000330: d9a6 99be b871 823d a401 55bc c7a7 da3d
00000340: e494 30be 9e96 1e3d 52d6 afbe 53ac c8bd
00000350: 40e4 39be 3cbf 903d 37ae 3a3d 3e8a 5d3e
00000360: 23ce c93e 5cf8 7f3c feb7 12be 6648 c23c
00000370: b2ee 8c3d aa83 263b 3d53 bbbd 703b fcbe
00000380: 01bf a63e d964 ec3e f6c2 473e 0d1d 6ebd
00000390: 0850 a93c 58b1 583d 830e 72bc 6b60 583d
000003a0: f43a cf3c 6bba 2abf 59ad 383d 8555 943d
000003b0: 42ad d63e bd89 eabc 06a7 9b3e 3510 5cbf
000003c0: 78b2 553e 03f9 55bd 1347 5d3e 86ad b1bd
000003d0: 8e85 04bf 5eb4 32bf 7087 0bbe e67b 853c
000003e0: dd8f f9bb 08b0 3d3e e75c 993d be57 413e
000003f0: ede1 9fbd fbab f6be 3265 8d3e 5eec 78bc
0.0076736957 0.010241193 0.10206191 0.050753538 0.031093596 0.1414764 0.022601547 -0.21441971
-0.6694228 -0.09210983 -0.5859246 -0.23180884 0.08901256 0.13177587 -0.17084147 0.24158147
0.1212051 -0.09892592 -0.5064792 0.3887733 -0.06745374 0.19004822 -0.049477167 0.13030905
-0.13660826 0.100711234 -0.06794706 0.21536137 -0.014681264 -0.6609642 0.018190756 -0.12998925
0.5831317 -0.11341626 0.024194637 -0.15163964 0.11840385 0.1771389 -0.022095053 0.21542841
-0.15892874 0.0077688675 0.37388322 -0.013052261 0.09124459 -0.12959868 0.12588304 -0.045754556
-0.122804955 -0.10479011 0.008702425 -0.45477235 -0.00042615115 0.0050349594 0.06933603 0.09623967
0.3088405 -0.07961518 -0.12686013 -0.20765628 -0.027972 0.00066122774 -0.048445523 -0.11304924
0.29343566 -0.24281205 0.17551129 -0.1635478 -0.032614145 0.09045166 -0.23385623 -0.012675199
0.0036306635 0.07923344 -0.19863391 -0.42468944 0.29663092 -0.10344926 0.1367169 -0.85893595
0.045416705 0.1759053 0.415533 0.20562722 0.11906112 -0.17590907 0.20335014 0.1706925
0.19205637 0.1988056 -0.020201635 -0.12643957 -0.64702237 0.10114093 0.15870665 -0.033387806
-0.17425676 -0.8491105 -0.29432368 0.19014674 -0.15165083 -0.31572536 0.1087826 0.40789628
0.025247427 -0.46492636 -0.34039733 0.27795267 0.026508078 -0.051512618 0.13214038 0.22601196
0.17939337 0.13110769 0.30239445 0.001914021 0.21613352 -0.74193233 0.14561877 0.31177336
0.11343723 0.23672594 0.19749685 -0.51518273 0.060920168 -0.37161773 -0.044829424 0.08178959
0.073008 -0.2673859 -0.21977091 0.06735093 0.04517025 -0.78110003 0.0016736977 0.04786364
0.28417718 0.011475955 -0.49809933 0.141416 -0.4131496 -0.22375129 -0.75120157 -0.13259685
0.14219192 0.1490511 0.26130927 -0.18771157 0.21718125 -0.44744158 -0.03918782 0.014107474
0.023421604 0.25101995 0.076103054 0.16803943 0.2516582 -0.29785463 -0.092366375 -0.03812976
0.09279435 -0.0066577797 -0.029822025 0.36091682 0.28530577 0.0037236004 0.036667507 -1.138327
0.015245909 -0.76059616 -0.29171887 -0.21706034 0.10931881 -0.033143666 -0.13535795 0.22072257
0.016857054 0.1631928 -0.30712566 0.31635916 0.05251511 0.062242273 -0.057743613 -0.23943074
0.19951741 0.5045659 0.012500986 -0.46145615 0.16293636 -0.33740628 -0.35686284 -0.34533244
-0.067328475 0.35005257 0.32073233 -0.549085 0.099770926 -0.05299992 -0.34294656 0.06377526
-0.0017315411 -0.0547739 -0.017888416 -0.013756 -0.30010107 0.063693464 -0.013000879 0.10676532
-0.17244297 0.03871786 -0.343432 -0.09798493 -0.18153477 0.07067725 0.0455763 0.21634766
0.39415082 0.015623178 -0.14328 0.023716163 0.06881465 0.0025408068 -0.09146736 -0.49264097
0.325676 0.4617069 0.19507965 -0.058133174 0.020668045 0.052903503 -0.014773968 0.052826326
0.025296666 -0.666907 0.045087192 0.07242874 0.4192906 -0.028630132 0.30400866 -0.8596223
0.20868862 -0.05223943 0.21609144 -0.08675675 -0.5176629 -0.6980647 -0.13625884 0.016294431
-0.007616027 0.18524182 0.07488423 0.18881127 -0.07806764 -0.48178086 0.27616268 -0.015193073

net.4.bias f4 [256]
00000000: d7af 013d 76f5 89bc cbcc 043c 91f2 26bc
00000010: ffe5 8bbc 8b33 2dbc 2ea8 2bbd 815f 2abd
00000020: f11d 12bd 2401 ac3c d257 1bbd edc5 113d
00000030: 1e26 80bc e8e4 afbc f203 1abc b49c 593c
00000040: 476c b23a ab15 e5bc 0f76 1dbb 5c47 12bd
00000050: 78af 0bbd b96e 333c 0ca8 1a3d d543 f1ba
00000060: b3c5 df3c faea 193c cce9 df3c b6b6 c53a
00000070: c9e6 4bbc 27c3 fabc 2ff1 bebc 578e 25bd
00000080: f1ee 823a 92ea 35bc fe68 a03c 938f fc3c
00000090: 4262 243d 86c9 263d d05c ebbc 6f6b 30bc
000000a0: 1abb 23bd b4ae 453a b6c2 423c 73a9 5d3c
000000b0: b58c 0ebd f3bb d43c e8b7 de3c 203d 2b3d
000000c0: 50d3 193d a08c c23c bf4f 083d a175 493c
000000d0: fc8b 093d 75cc 0b3c 9bda c0bc 1d03 933b
000000e0: d4d2 1ebd e1c6 fc3c b575 2f3d 4ee1 1e3d
000000f0: 7bd4 253d 5fe9 89bc 8691 0fbd a984 a5bc
00000100: eff8 ee3c b17a a1bc ace1 21bc 733f c03c
00000110: a2d0 bcbc 1555 c9bc dfdf 393d da73 e43a
00000120: 189e 0bbd 4e45 323c faed 883b 8164 63bc
00000130: 1b2d 73bc c33e b63b a816 933b f502 09bd
00000140: a823 b73c 0d71 7d3c bc66 343d 0466 f038
00000150: 55ca bdbc 5327 0abd be9e 7f3c 2748 d2bc
00000160: 4d47 8b3c e1c9 e93c b372 c8bc 1eff a7bc
00000170: 2c20 523c ecdf 2cbd 9668 78ba 1fd7 4cbc
00000180: b0f0 87bc a7dd f1bb d49b bd3c 6718 c83c
00000190: 8978 5238 71fc 0abd 3a2e a93c 0aaf 8a3c
000001a0: 9e1a 113d f4b2 18bd 1ba2 fbba 7345 f23c
000001b0: a4c3 8abc 5a4b 883c 90ab 65bc 892d c03c
000001c0: 6961 3dbd ce78 183d ed29 003d 24c9 153d
000001d0: 049b c7bc b1e3 703c 35e0 edbc 13be 2e3d
000001e0: e84c fabc 9a4c 14bd 52f2 0c3d 6e5f ac3b
000001f0: cf84 963b a275 8ebc 2385 29bd fdbd 213d
00000200: a987 933b cfc5 41bd c239 bc3c 9edc 053d
00000210: deb6 24bd b466 2fbd 05e5 41bc 1921 1cbc
00000220: cf63 6ebc 25a2 25bd 9f18 36bd 4093 d2bc
00000230: e335 e33c ab34 e4bc 4d94 d73b 6c5e 53bb
00000240: c6a7 023d 6e3d 0bbd b843 0dbd 5158 b5bc
00000250: 8282 0c3c c2a0 b1bc 64fb 2a3d af95 893c
00000260: d30a efbb 6242 f93c f88c 213d de54 533b
00000270: bf28 0a3d a437 dd3c 41b1 1f3d a1b7 b13c
00000280: 4bd5 c13c 25ac 253b e594 a5bb 7298 b33c
00000290: 4a47 a0bc 9879 b0bc 9297 c23c e038 0ebd
000002a0: e00d 993c 5611 20bc 4141 123d e420 103d
000002b0: 8a81 92bb e8bd c4bc 3951 0b3d eb76 0a3d
000002c0: 4ebd 08bd d7b7 64bc 3c3f da3b 1ef8 f0bc
000002d0: 01bf 7ebb ecd1 f9bc 1b12 a83c a416 39ba
000002e0: 6ab1 0dbd 1f52 333d 7c89 c63c b23f 1a3d
000002f0: 6914 24ba fa7c a4bc 4609 073d b0bc d13c
00000300: 9a3f 2c3d 96a1 b83c ec34 3c3b 9c33 26bc
00000310: ee6b fd3c feac ce3c c6ab 37bd f5d0 92bc
00000320: 5ef4 e5bb 1337 1ebd 5250 01bc 026e 97bc
00000330: f59c b5b9 b6ec c03c e977 1cbc 4d46 2d3d
00000340: af15 31bd 5f70 5b3b 7b0c a7bb acda 833b
00000350: 0ce7 61bc 237e 13bd 2c0b c4ba a034 e1bb
00000360: eb38 a2bc 7796 353c 054c ce3b 1a09 843b
00000370: 8629 2abd a8d7 083d 56bd ee3c c14d b53c
00000380: ac4b c23c 054a f9bc 280a c8bc cf66 fb3a
00000390: 8b24 c03c 45e9 c73c 39ff 0cbd aebb 1f3d
000003a0: 1464 10bd fb4b 293c 9f33 353c e161 9cbc
000003b0: 509a c639 bf71 273d 26a9 373c 8ea8 2f3d
000003c0: 2918 0ebd 1abd 18bc 9cb5 163d 2c74 13bd
000003d0: 3b05 c6bc e7b8 2dbd 2f27 bbbc 12de 18bd
000003e0: fc5f b83c a5fc 20bd 1d74 a13b fc6c ee3c
000003f0: df9c a13a 2a2e fa3c 7188 13bc 22f2 29bd
0.031661835 -0.016840678 0.008105467 -0.010189668 -0.017077444 -0.010571371 -0.041908436 -0.041594986
-0.035673086 0.020996638 -0.03792555 0.035589147 -0.015643176 -0.021471456 -0.009400355 0.01328199
0.0013612591 -0.027964434 -0.0024026667 -0.035712585 -0.034102887 0.010951691 0.03775792 -0.0018407056
0.02731595 0.009394402 0.027333163 0.0015084359 -0.01244516 -0.030610634 -0.023308365 -0.04041895
0.0009989423 -0.011103289 0.019581314 0.03083018 0.04013277 0.04071953 -0.02873078 -0.010767802
-0.039973356 0.00075409864 0.011887243 0.013529169 -0.034802157 0.025968527 0.027187303 0.04180634
0.03755504 0.023748696 0.033279177 0.012296111 0.033580765 0.008532633 -0.02354174 0.004486455
-0.03877528 0.030856552 0.042836864 0.038789086 0.04048584 -0.016834913 -0.03505089 -0.020204859
0.029171435 -0.019711824 -0.0098804645 0.023467755 -0.023048703 -0.024576703 0.045379516 0.0017429546
-0.034086317 0.010880781 0.0041787596 -0.0138789425 -0.014842297 0.005561681 0.004488785 -0.033450086
0.02235587 0.015468848 0.044043288 0.00011463094 -0.023167768 -0.03372891 0.015601812 -0.02566917
0.017001772 0.028538646 -0.024468755 -0.020507392 0.012825053 -0.042205736 -0.0009476034 -0.012502461
-0.01659426 -0.0073811593 0.023145594 0.024425698 5.018016e-05 -0.033932153 0.020651925 0.016929168
0.035425775 -0.037280038 -0.0019198091 0.029574132 -0.016938992 0.016637493 -0.0140179545 0.023459213
-0.046235476 0.037224583 0.031289984 0.036568776 -0.02436591 0.014702723 -0.029037574 0.042661738
-0.03055425 -0.036205865 0.034410782 0.0052603995 0.0045934687 -0.017390076 -0.041386735 0.039487828
0.004502256 -0.047307786 0.02297676 0.0326811 -0.04021346 -0.042822555 -0.011834388 -0.0095293755
-0.014550163 -0.040437836 -0.044457074 -0.02570498 0.027735656 -0.027857145 0.006578958 -0.0032252325
0.031898282 -0.03399413 -0.03448841 -0.02213684 0.008576037 -0.0216831 0.04174365 0.016795008
-0.0072949915 0.030427162 0.03944108 0.003224663 0.033730265 0.02700407 0.038987402 0.021694006
0.023661276 0.0025279608 -0.00505315 0.021923278 -0.019565243 -0.021542355 0.023753915 -0.03472221
0.018683374 -0.009769758 0.035706762 0.035187617 -0.0044710087 -0.024016336 0.034013007 0.033804815
-0.03338366 -0.013959846 0.00666037 -0.029415186 -0.0038871171 -0.030495606 0.020516446 -0.00070605637
-0.034593023 0.04377949 0.02423548 0.0376584 -0.0006259145 -0.020079125 0.03296783 0.025602669
0.042052843 0.022537988 0.0028718067 -0.010144141 0.030935254 0.025228973 -0.04484155 -0.017921904
-0.007017656 -0.03862674 -0.007892685 -0.018485073 -0.00034639952 0.023550373 -0.009550073 0.042303372
-0.04323357 0.0033483726 -0.0050979233 0.0040238705 -0.013787996 -0.036008965 -0.0014956943 -0.0068727285
-0.019802531 0.011083237 0.0062956833 0.0040294053 -0.041543506 0.03340879 0.029143017 0.022131803
0.023717724 -0.030430803 -0.024418905 0.001918042 0.023454925 0.024403224 -0.034423087 0.038997345
-0.035251692 0.010333057 0.011059671 -0.019089641 0.00037880475 0.04087996 0.011209762 0.042885356
-0.03469101 -0.009322429 0.03679429 -0.035999462 -0.024172416 -0.042412665 -0.022845833 -0.037321158
0.022506706 -0.03930344 0.004927172 0.029104702 0.0012330076 0.03053959 -0.009004698 -0.04149068
