pythorch saved models/fed_generator_cgan_ssl2.pth (torch, 807014 bytes, 14 tensors)

model.0.weight f4 [256, 117]
000000 bf 48 07 3d 4c fb 42 bd 22 fc 40 bd ec 21 85 bc
       0.03302836 -0.047602937 -0.047115453 -0.016251527
000010 a6 8f 63 3d 38 e3 71 bc 8e f3 6b 3c ba 5b 12 bd
       0.055556916 -0.014763646 0.01440133 -0.03573201
000020 c3 e5 df bb d6 19 b2 bc 0c 5d ca 3c fc 9a 42 3c
       -0.0068328097 -0.021740835 0.024702571 0.0118777715
000030 82 d8 e7 3b a6 ab 83 bc 0e a3 9f bc 1c 0a b4 3d
       0.0070753703 -0.01607306 -0.01948693 0.08790991
000040 34 43 78 3d 30 5a 05 3d e3 6c 44 bd ba 1d 55 bd
       0.060610965 0.032556713 -0.047955405 -0.052030303
000050 7c 7b 8b bc 47 ea 75 3c ed 37 73 3d dc 26 0e 3d
       -0.017026655 0.015009469 0.059379507 0.034705028
000060 67 bd 06 bd e0 16 7c 3b 60 aa 93 3b 13 6f ae 3d
       -0.032895472 0.0038465783 0.0045063943 0.085172795
000070 cd ff 89 3d 98 0c 72 3d fd 6f b0 bc 22 a0 8c 3d
       0.06738243 0.05909404 -0.021537775 0.068664804
000080 71 ba 43 3d 99 bb 1a bc b1 c3 8e 3d ee db 4f 3d
       0.047785226 -0.009444141 0.06970919 0.05074685
000090 de 38 55 bc 61 07 07 bd 1e 74 a2 bc a7 d2 d6 3b
       -0.0130140465 -0.03296602 -0.01983076 0.0065558734
0000a0 67 d4 2e bb 49 99 62 bd 42 02 20 bd ee d2 ce bd
       -0.0026676895 -0.055321965 -0.039064653 -0.100988254
0000b0 e5 b6 73 bd 35 52 17 3d 08 85 45 bd 47 95 0a 3a
       -0.059500594 0.036943633 -0.04822257 0.0005286526
0000c0 e2 96 71 3c 27 b3 b0 bc 89 0b df 3d 30 5d 5a 3d
       0.014745446 -0.021569801 0.10890872 0.053311527
0000d0 eb f1 f1 bc d9 2f ff 3c f9 4c e8 3b c2 b0 a6 3d
       -0.0295343 0.031150745 0.007089254 0.081391826
0000e0 0a a0 90 bd 34 49 d3 3c 03 2d 79 bd 0c 20 f6 bd
       -0.07061775 0.025791742 -0.060833942 -0.12017831
0000f0 ff da 0a bd 82 c7 7e 3d 3c 50 d3 bc a2 14 c8 bc
       -0.033900257 0.062201984 -0.025795095 -0.024423901
000100 51 97 1f 3d 31 c0 d8 bc fe 58 8b bd 6a 01 21 bd
       0.038962666 -0.026458832 -0.06804083 -0.03930799
000110 bc 5f a7 3c 90 da c9 bc d3 8d 72 3d 44 3d 1a 3d
       0.020431392 -0.024640352 0.059217285 0.037656084
000120 ca b2 4d bc f2 ec 38 3b ee 2c 58 bc 0e 36 62 bc
       -0.012554834 0.0028217402 -0.013194306 -0.013806833
000130 5c 67 31 3d 42 9e a8 bd d6 18 fb bb be 4e ce bb
       0.04331146 -0.0823331 -0.007662873 -0.006296008
000140 4e 02 7d bd 3b 00 25 be 60 06 02 3d 73 6b 33 3c
       -0.061769776 -0.16113369 0.03174436 0.010950911
000150 51 c0 aa bc 24 4f 46 3c 70 18 43 3c 2d 0d 74 bc
       -0.020843657 0.0121038295 0.011907682 -0.0148957195
000160 fe a9 0a bd 66 a8 0a bb ed b3 92 bc 60 ac 70 3d
       -0.033853523 -0.0021157502 -0.01790806 0.05875814
000170 2c e3 fa bc 8a 62 c9 3c f8 89 c8 bd 71 bb 32 bd
       -0.030625902 0.02458312 -0.097919405 -0.04363579
000180 08 77 53 3d 8e d9 d2 bc d0 bc 84 bd 96 c3 ac bd
       0.05162719 -0.025738504 -0.064813256 -0.084357426
000190 36 5c f6 3d f8 d7 cf bd 43 16 ed bd f2 bd 6d 3e
       0.120293066 -0.10148615 -0.11576512 0.2321699
0001a0 7b 57 2b 3d 76 f9 bd bd 4f 9f 30 3e 16 ca dd 3c
       0.041831475 -0.092760965 0.17248271 0.027073901
0001b0 ac da fc 3d ef 9f d5 bd 78 83 01 3e 05 9e b0 3d
       0.12346396 -0.104308955 0.12647808 0.0862389
0001c0 34 3e 83 bc a2 52 6a bd d0 c5 3a be 35 f6 f3 bd
       -0.016020872 -0.05720771 -0.18239522 -0.11912195
0001d0 05 fc 1d be e0 18 4d 3c 04 28 10 3b 0c 36 ee bc
       -0.15428169 0.012518138 0.0021996507 -0.029078506
0001e0 34 2a d0 bc be d6 89 3c 88 c0 40 bc f0 79 9d 3d
       -0.025410749 0.01682603 -0.011764653 0.07689273
0001f0 8e 8a a1 bd 50 8d 61 3c 68 14 42 3d 54 c7 bd 3c
       -0.07887755 0.013766602 0.047382742 0.023166336
000200 4b a5 ef 3c 80 08 bd bc a9 11 04 bd 75 98 c7 bb
       0.029253623 -0.023075342 -0.032243405 -0.0060911723
000210 86 9a 0d 3d 24 f9 9f 3d 34 e2 0d 3d 74 38 e8 3c
       0.034571193 0.07811192 0.034639552 0.028347231
000220 ad cb 6e bc 94 ea ae bb b6 6b 57 bc ee 34 c2 3d
       -0.014574927 -0.0053380225 -0.013148239 0.09482752
000230 84 19 a8 3c c0 97 04 bd 1b fd 0c bd 21 e6 c4 3c
       0.02051998 -0.032371283 -0.034421068 0.024035515
000240 c0 03 9e 3d 4d 1a 99 3d 34 b6 a3 bc ec 42 b1 bc
       0.07715559 0.074757196 -0.019984342 -0.021638356
000250 9a a1 36 3d 6a b1 f7 bc 7a 05 b1 bc f1 1e 63 3d
       0.04458771 -0.030235965 -0.021609057 0.05544943
000260 c0 f6 36 bc be f5 81 bd 1b d0 5e bd 02 6d 84 3c
       -0.011167228 -0.063457 -0.054397684 0.01616526
000270 cc e5 8d 3c 94 b6 50 bd 88 ec ec bd 31 64 7f bd
       0.01732149 -0.05095537 -0.11568552 -0.06235141
000280 f5 5a b0 bd b6 82 58 bc 3f 9b 7b 3d 86 23 26 bd
       -0.08611099 -0.013214758 0.06142735 -0.04056122
000290 1c 26 1e 3d 16 88 0d bb 74 d6 4e bd 5c d6 ad 3d
       0.038610563 -0.0021596006 -0.050497487 0.084881514
0002a0 af ea 93 3c 9a 7a 80 bd 59 9e 16 3d 64 11 85 3c
       0.018056242 -0.062733844 0.036772106 0.016243644
0002b0 68 25 46 3d 85 75 ed bc d8 db 3c 3c b6 d5 81 bd
       0.048375517 -0.028986702 0.011527024 -0.0633959
0002c0 44 01 f8 bc 1d 34 82 3c c6 c2 b9 3d c8 41 c3 bc
       -0.030274041 0.01589399 0.09070353 -0.023835078
0002d0 bc d7 34 bd 52 72 1c bd 0e d0 33 bd 00 35 46 bd
       -0.044151053 -0.03819496 -0.04389959 -0.04839039
0002e0 d5 13 94 bd 9b f2 17 bd 98 5a 9a 3c 97 c2 a0 3d
       -0.07230345 -0.0370966 0.018842027 0.07849615
0002f0 77 8b 23 3d 9b 51 2c 3d d0 01 e9 3b 12 2e 6a bd
       0.039927926 0.042070013 0.007110812 -0.057172842
000300 30 e3 60 bc 65 f5 c3 bc c0 ac 4f bd 0d f6 a4 3c
       -0.013726041 -0.023920724 -0.050701857 0.020136857
000310 2a 98 18 bd e4 45 8c bd 50 14 fe bd b4 e7 13 3d
       -0.03725449 -0.06849268 -0.12406218 0.03610964
000320 9c 1c 36 3d a8 d4 bc 3c a0 2f 63 3c 2e 6a 09 3d
       0.044460878 0.023050621 0.013866335 0.033548526
000330 39 4f 9c bb e2 5f 81 3b 3b 21 eb ba 2a ba 81 bd
       -0.0047701863 0.0039481977 -0.0017938981 -0.06334336
000340 3d b6 12 3d 26 61 c5 bc b6 58 08 3d 7b af 9f bd
       0.035818327 -0.024094176 0.033287726 -0.07797142
000350 f2 00 37 bd 04 2a 07 3b 27 b5 b6 3c 75 81 c0 bd
       -0.044678636 0.0020624408 0.022303177 -0.09399692
000360 49 72 24 bd 9c a8 2e be 01 23 dd 3d 66 65 de 3e
       -0.040148053 -0.17056507 0.10797692 0.43436736
000370 44 3d 18 bd 7f bf 0f 3c 35 eb 73 bd 90 dd 33 be
       -0.037167802 0.008773684 -0.059550483 -0.17564988
000380 9c a5 11 be 5a c4 30 bb 6b ad 16 be f8 7a be bd
       -0.14223331 -0.0026972503 -0.14714591 -0.09300798
000390 03 d7 e8 3d 8f 31 54 3d 60 99 e8 bc fa 39 da bd
       0.11369135 0.051805075 -0.028393447 -0.106555894
0003a0 e8 1c 76 bd cb ad 70 bd 42 02 21 3d 7d 65 02 bd
       -0.06008616 -0.058759492 0.039308794 -0.031835068
0003b0 5c 31 39 bd 04 58 61 bd db 4b 71 3d b8 d6 a0 3d
       -0.04521309 -0.05501558 0.058910232 0.07853454
0003c0 35 69 c2 bc 6f a9 03 bd b6 d4 86 bc d9 17 3c bd
       -0.023731807 -0.032144006 -0.01645885 -0.04592118
0003d0 b7 7f 79 3c f8 e7 9d bd 21 36 52 bd 56 cd a1 3d
       0.0152282035 -0.0771026 -0.051321153 0.07900493
0003e0 95 87 2e 3c fc bb ad 3c 72 1f 13 3d 36 17 0e 3c
       0.010652442 0.021207802 0.03591866 0.008672526
0003f0 50 09 09 3b 96 44 0e bd e4 9c 89 3d 9e 91 2b bc
       0.0020910092 -0.034733377 0.06719378 -0.01047173

model.0.bias f4 [256]
000000 4f 08 8e bd 1c 6f 70 3d 94 86 0c bd be 6f b8 3d
       -0.069351785 0.058699712 -0.03430803 0.09005688
000010 a2 9a 99 bd 45 ae d4 bc 7d 8d 4a bd 44 e2 0b bc
       -0.07500197 -0.025962004 -0.04945134 -0.008537833
000020 c4 bc 56 3d be 18 66 3d c4 c8 17 bd d0 2b 5e bd
       0.052426115 0.05617594 -0.0370567 -0.054241
000030 39 87 9f bc 0c 2b 2f 3d d5 32 45 bd c5 13 b8 3d
       -0.019473659 0.042765662 -0.04814418 0.08988146
000040 b7 ac 09 3d 3e 20 b8 bd cc 54 83 bd b5 b8 86 3d
       0.03361198 -0.08990525 -0.06412658 0.06578199
000050 84 b5 7c 3d 79 a0 8b bd a0 5c b0 3d 68 7d c5 3c
       0.061696544 -0.06817717 0.08611417 0.02410765
000060 94 ec 1a 3d 7f 27 18 3d 16 e8 e2 3c 22 ff af 3d
       0.037823275 0.03714704 0.027698558 0.085935846
000070 57 af 0c 3d 81 49 99 bd 6c 27 89 3c a3 16 4c ba
       0.034346905 -0.07484723 0.01674243 -0.00077853556
000080 94 72 20 bd a5 ed 8a bc b8 32 81 3d 96 83 5f 3c
       -0.03917177 -0.01695902 0.06308502 0.013642212
000090 87 57 bb 3d 58 ee 86 3d 3a 89 2d bd 84 6c a3 3d
       0.09147554 0.06588429 -0.042367198 0.07979682
0000a0 ac c6 14 ba 6a 2b 52 3d 7c 6f 77 3d b0 79 91 3d
       -0.00056753564 0.051310934 0.060409054 0.07103288
0000b0 49 a1 26 3d 44 cb 9f 3b e0 61 83 bd 00 d8 14 bd
       0.040681157 0.004876526 -0.064151525 -0.036338806
0000c0 b9 ec 23 3d f6 7b ec 3c 60 17 c3 bc 4b 65 0f bd
       0.04002068 0.028867703 -0.023814857 -0.03500871
0000d0 f2 e7 52 3d 74 03 88 3d 21 fc 12 3d d7 4f 99 3b
       0.05149073 0.06641284 0.03588498 0.004678707
0000e0 d4 da b5 bd 61 e9 a0 bd 2a d2 17 3a 98 7a 7d bc
       -0.08879629 -0.078570135 0.000579151 -0.015471123
0000f0 ca 89 62 3b b4 4d 48 bd 2a 0c 31 3d 0b b8 83 bd
       0.0034566992 -0.04890223 0.04322449 -0.06431588
000100 2b 9f 99 bd 87 b8 e0 bb 80 c6 ac bc 50 49 91 bb
       -0.07501062 -0.006857935 -0.021090746 -0.0044337884
000110 3c e9 97 3d b4 a5 6a bd 41 2f 42 3d 48 28 86 bd
       0.07417533 -0.057286933 0.047408346 -0.06550652
000120 ae 2c b4 3d 22 6f 74 3d 58 78 be bd 90 c5 ec bc
       0.087975845 0.059676297 -0.093002975 -0.028902799
000130 92 9e c8 bc 10 aa 82 bd 19 d6 54 bd e1 ea b2 bd
       -0.024489675 -0.06380093 -0.051961992 -0.08736206
000140 84 68 b3 bd c2 5f 6a 3d 65 f5 cc 3c b2 6a 91 3c
       -0.08760169 0.057220228 0.025019357 0.017751072
000150 c3 01 72 3d 54 6e b9 bb 24 de 9a bd 3d b4 12 bc
       0.05908371 -0.005658904 -0.07561901 -0.008954105
000160 aa 1d f0 3c 78 2d 40 bd 44 b5 5a 3d f0 7e c3 3c
       0.02931102 -0.046918362 0.053395525 0.02386424
000170 05 a4 3c bb b0 34 b3 bd de 51 20 3d f6 5f 64 3d
       -0.0028784287 -0.08750284 0.039140575 0.055755578
000180 8f 4d 04 3d fb eb 56 bd 10 5a e4 3c df 46 b2 bd
       0.03230053 -0.052471142 0.027874976 -0.08704924
000190 dc d0 fe 3c fd a5 01 3d 38 ea 39 3d 6d fb 80 3c
       0.031105451 0.03165244 0.045389384 0.01574489
0001a0 1a ed 23 3c 3a f4 8f 3c 0e b8 d1 bc 93 cd 80 bd
       0.01000526 0.017572511 -0.02560046 -0.0628921
0001b0 17 8b 54 3d af aa bb 3d 9b d7 8a 3d 1a 77 9f 3c
       0.05189046 0.09163415 0.06779405 0.019465972
0001c0 90 b9 99 bd a3 e7 12 bd db dc d9 bc b4 46 05 3b
       -0.07506096 -0.035865437 -0.02659457 0.0020336332
0001d0 8e 4c 4e 3c 4c c6 8a bd 76 04 5a 3d 7d 65 ee 3c
       0.012591494 -0.067761034 0.05322691 0.029101128
0001e0 ca f9 a3 bc 84 29 2f 3d 30 35 a6 3d 38 f0 c2 3c
       -0.02001657 0.0427642 0.081156135 0.023796186
0001f0 c3 7f 64 3c 3b 1c 2b bd 0c 62 a7 bd 56 22 28 3a
       0.013946476 -0.04177497 -0.08172998 0.0006413808
000200 18 e4 84 bd 80 27 86 bd f8 b0 ad bd 9c c5 58 bd
       -0.06488818 -0.06550503 -0.0848102 -0.05292283
000210 d8 43 59 bd 3d 10 84 bb 86 57 38 bd f2 8d bc bd
       -0.053043216 -0.004030256 -0.045005344 -0.092067614
000220 28 d3 58 bd 68 f8 88 3d ee 13 a2 bc 4b a5 98 bd
       -0.05293575 0.06688005 -0.019784894 -0.07453402
000230 06 9c e2 3c 1f c6 fd 3c e0 2a 62 bd cf 01 d0 bb
       0.027662288 0.03097826 -0.05521667 -0.006347872
000240 74 3a a8 bd 22 b1 a8 bb df 63 2a bd 04 92 ab bd
       -0.08214274 -0.005148069 -0.04159915 -0.0837746
000250 1a 67 24 bd 30 70 71 3d f1 5c de bc 43 6e 98 3c
       -0.040137388 0.05894488 -0.027143927 0.018607264
000260 7a 00 45 3d 38 87 aa bd 1f 76 ae bc f6 c3 83 bd
       0.048096158 -0.08326572 -0.021296559 -0.06433861
000270 12 3a 25 3d c3 ed 0c bc 64 53 90 bd b3 2d 4e 3d
       0.040338583 -0.008601609 -0.070471555 0.05033655
000280 bb 02 9e 3d a2 a2 70 3d 53 c4 2e bd 86 0f 8e bd
       0.077153645 0.05874885 -0.042667698 -0.069365546
000290 ff 09 9c 3d 87 38 06 bd 13 a1 b2 3d 56 ba 5c bd
       0.07619094 -0.032768752 0.08722129 -0.05388864
0002a0 f9 0a 3c 3d c0 2d a9 bd 18 2c 16 bd ae 6f 0f bd
       0.0459089 -0.08260679 -0.036663145 -0.035018615
0002b0 f6 45 bb 3a fb 5e a4 3d ed c0 ff 3c 07 25 6e 3d
       0.0014287818 0.080259286 0.031219924 0.05814078
0002c0 e7 f6 8b 3c 18 b6 17 bd c5 32 aa 3d ec b7 c4 bc
       0.017085506 -0.037038893 0.08310465 -0.024013482
0002d0 82 16 c6 3c 99 a8 a9 bc 92 f6 3b bc 58 f8 64 3d
       0.024180654 -0.020710276 -0.011472361 0.0559009
0002e0 8b de af 3b 3b c5 82 3b 8f 8c 3f 3d 38 43 51 bb
       0.0053671054 0.003990797 0.046764906 -0.0031930935
0002f0 0a bb 70 3d 36 02 27 3d 90 01 74 3d 5c 4c 57 3b
       0.058772124 0.040773593 0.059571803 0.003285191
000300 0a 89 13 3c c4 cd 52 bc eb 12 87 bb e8 a5 68 3d
       0.009004841 -0.012866441 -0.0041221282 0.056798846
000310 46 66 31 bd e4 cd 8d 3c 16 b3 45 3d 36 f1 b7 bd
       -0.043310426 0.01731009 0.048266493 -0.08981554
000320 10 b2 8b 3d 2c bb 1f bd 20 54 05 3c 21 d4 62 3d
       0.06821072 -0.03899686 0.008137733 0.055378083
000330 30 43 87 bc 89 44 0a 3d f2 28 86 bc 12 84 4a 3d
       -0.01651153 0.033756766 -0.016376946 0.04944236
000340 59 91 6c 3d f9 12 1e 3d 04 51 ec bc 7b 9a 90 3d
       0.0577558 0.038592312 -0.028847225 0.07060715
000350 78 64 2d 3d 99 dc 17 3d 2c e5 a6 3d 83 be b9 3d
       0.042332143 0.037075613 0.0814918 0.0906954
000360 5a 12 ad 3d 1d 30 9e 3d 65 31 01 bd 01 77 c9 3c
       0.08450766 0.07724021 -0.031541247 0.024592878
000370 aa 9a 8d bd 51 2b 11 bd 57 9b 82 3d 90 61 85 bc
       -0.069142655 -0.0354417 0.06377285 -0.016281873
000380 78 d3 a5 3d be ab 03 3d 6d aa 3d 3d 26 77 bb bd
       0.08096975 0.032146208 0.04630511 -0.09153585
000390 6e 18 46 3d 2b 66 7b bd be f4 a3 bd 56 59 f8 bc
       0.04836314 -0.06137673 -0.08005665 -0.030316036
0003a0 3a c8 02 bc 68 2f 7b 3d c0 27 99 3d 6a f1 55 bd
       -0.007982308 0.061324507 0.07478285 -0.052232184
0003b0 9f 98 5f bc 18 da 86 bb c9 01 14 3d 4a cf a8 bd
       -0.013647228 -0.0041153543 0.036134515 -0.08242662
0003c0 94 5c 0e 3c 2f 10 9a 3d 8c 54 a6 3d 9a d5 91 3c
       0.0086890645 0.07522618 0.08121595 0.017802048
0003d0 71 3c 84 3c 90 dd 86 bc 20 a6 a1 3d 2e 96 b3 b9
       0.016142102 -0.016463071 0.07893014 -0.00034253433
0003e0 6a 9c 34 3d 91 c2 20 bc 92 b0 a9 bd 8b 4c 6a bd
       0.04409448 -0.009812013 -0.08285631 -0.057201903
0003f0 1b 1a 2a 3b 3d 03 55 bd 5c 51 82 3d d2 87 33 bd
       0.0025955501 -0.05200504 0.06363174 -0.0438307

model.1.weight f4 [256]
000000 d4 4e 2e 3f 19 76 3a 3f 01 02 33 3f 74 17 32 3f
       0.6808903 0.7283645 0.6992493 0.69567037
000010 f0 0a 21 3f 2f 5b 58 3f dd 4b 3b 3f 36 e9 35 3f
       0.62907314 0.84514135 0.73162633 0.71058977
000020 f1 31 44 3f 81 89 29 3f 84 98 7f 3f c7 96 6a 3f
       0.76638705 0.6622544 0.99842095 0.9163632
000030 54 e5 83 3f 2a 0a 84 3f 9e 7d 7b 3f 11 c4 5a 3f
       1.030436 1.0315602 0.9823855 0.85455424
000040 b4 f2 83 3f 50 dd 87 3f 4e a0 79 3f 33 ed 75 3f
       1.0308442 1.0614414 0.9751023 0.9606506
000050 f4 94 30 3f 77 37 6e 3f 16 03 5c 3f cd 8c 54 3f
       0.68977284 0.9305338 0.8594221 0.83027345
000060 56 50 4d 3f 58 76 5b 3f 82 c5 57 3f 58 1d a4 3f
       0.8020071 0.85727453 0.8428575 1.2821455
000070 09 7b 81 3f 73 36 38 3f 60 f0 8a 3f 8f a2 33 3f
       1.0115672 0.7195808 1.0854607 0.7016992
000080 85 c0 26 3f dd a1 55 3f d8 0b 3e 3f 8a ad 80 3f
       0.6513751 0.8345011 0.7423682 1.005296
000090 76 5b 3c 3f 2a 53 83 3f 2b cd 6a 3f 79 4f 8c 3f
       0.7357706 1.0259755 0.9171931 1.0961753
0000a0 ca f7 89 3f 10 18 54 3f 10 7e 80 3f b0 3c 50 3f
       1.0778744 0.82849216 1.0038471 0.813426
0000b0 48 ef 6b 3f 1c 6f 7a 3f 04 dc 4b 3f 78 da 79 3f
       0.9216199 0.9782579 0.7963259 0.9759898
0000c0 da 27 6d 3f 2d cf 27 3f 85 87 75 3f 88 9f 7b 3f
       0.92638934 0.655505 0.9590991 0.982903
0000d0 c7 00 49 3f e4 e6 8f 3f 9c b1 6a 3f 76 46 82 3f
       0.7851681 1.1242337 0.9167726 1.0177753
0000e0 aa 02 38 3f 3a dd 39 3f ec 59 71 3f a2 1e 64 3f
       0.71879065 0.7260319 0.94277835 0.8910924
0000f0 75 dc 60 3f f7 8f 4e 3f ff 5c 53 3f a3 1c 2d 3f
       0.8783639 0.8068842 0.82563776 0.6762182
000100 93 b7 5a 3f 4d 10 72 3f ce 35 7a 3f ae 6a 2a 3f
       0.8543636 0.94556123 0.9773835 0.6656903
000110 88 f2 8a 3f 01 c0 7c 3f d7 68 76 3f 03 74 5d 3f
       1.0855265 0.98730475 0.9625372 0.86505145
000120 b0 f0 4b 3f b3 4c 4d 3f b3 ac 5a 3f 7b c2 18 3f
       0.79664135 0.8019516 0.8541977 0.59671754
000130 c4 79 4b 3f 5f db 6b 3f de b6 74 3f 45 2f 2d 3f
       0.79482675 0.9213161 0.95591533 0.6765025
000140 25 56 47 3f a5 22 5e 3f 42 7b 8b 3f bd cd 80 3f
       0.7786582 0.86771613 1.089699 1.0062786
000150 df 70 33 3f eb 70 54 3f 6a fa 3b 3f 12 08 78 3f
       0.700941 0.829848 0.73428977 0.96887314
000160 28 1f 77 3f 64 c1 4e 3f ca 86 27 3f 3a e9 3c 3f
       0.96531916 0.8076384 0.65440047 0.73793375
000170 cf 5a 83 3f 81 39 2f 3f 58 da 65 3f cc 7d 53 3f
       1.0262088 0.6844712 0.8978629 0.82613826
000180 1b 62 42 3f ff d9 4e 3f 50 84 59 3f c6 d4 3e 3f
       0.7593095 0.80801386 0.8496752 0.74543417
000190 46 a9 96 3f 88 5d 38 3f 57 34 4e 3f 98 a0 5d 3f
       1.1770408 0.7201772 0.80548614 0.8657317
0001a0 e3 70 73 3f 26 55 3d 3f c2 c8 46 3f 2b 9d 64 3f
       0.95094126 0.7395805 0.7765008 0.8930232
0001b0 0e ea 6c 3f 5a 03 60 3f 76 c1 5f 3f 94 a5 70 3f
       0.9254464 0.87505114 0.8740457 0.9400265
0001c0 bf 12 51 3f 34 a7 32 3f 43 d1 aa 3f 5c ec 8a 3f
       0.8166923 0.6978638 1.3345112 1.0853381
0001d0 ab 6c 94 3f 76 e1 82 3f bc 33 8a 3f 21 33 90 3f
       1.1595663 1.0225055 1.0797038 1.1265603
0001e0 df e7 37 3f 70 f3 83 3f bd e6 47 3f ae 30 80 3f
       0.7183818 1.0308666 0.78086454 1.0014856
0001f0 cb 90 59 3f 21 b1 38 3f 32 1a 8d 3f 78 36 87 3f
       0.8498656 0.7214528 1.1023619 1.0563498
000200 e0 0a 73 3f fc 37 39 3f b2 9d 41 3f 1d 61 4c 3f
       0.9493847 0.7235105 0.7563125 0.79835683
000210 f8 c0 28 3f 03 85 3e 3f 3e a0 71 3f fa 86 7b 3f
       0.65919447 0.7442171 0.94385135 0.9825283
000220 0a 7c 46 3f c8 73 6c 3f aa 46 4f 3f 8c 1e 4c 3f
       0.7753302 0.9236417 0.809672 0.7973411
000230 4d d4 60 3f 5a 81 5e 3f 60 89 6e 3f 49 24 1d 3f
       0.87823945 0.86916125 0.9317837 0.6138349
000240 c4 5e 5e 3f a3 07 90 3f 2f 76 6b 3f a2 54 5b 3f
       0.8686335 1.125233 0.9197721 0.85676014
000250 8e 4e 8b 3f c8 1d 4a 3f bb e1 4d 3f 10 b1 70 3f
       1.0883348 0.7895169 0.8042256 0.94020176
000260 52 df 6d 3f ff 0a 83 3f ad 6b 43 3f 03 e8 66 3f
       0.92918885 1.0237731 0.76336175 0.9019777
000270 16 dc 88 3f d4 63 57 3f 04 91 67 3f e7 19 21 3f
       1.0692165 0.841367 0.9045565 0.6293015
000280 9c d1 86 3f 5d 49 82 3f fc dd 4b 3f 68 46 28 3f
       1.0532718 1.0178639 0.79635596 0.6573243
000290 49 ce 29 3f 52 d8 36 3f ee c6 5e 3f 55 c1 51 3f
       0.6633039 0.7142383 0.8702229 0.81935626
0002a0 cd e3 6e 3f bc 02 8f 3f 6d 4c 37 3f 5e c4 30 3f
       0.93316346 1.117271 0.7160099 0.6904963
0002b0 ce 3f 6b 3f c2 e5 43 3f b7 86 1a 3f 56 01 22 3f
       0.91894233 0.7652246 0.6036181 0.6328329
0002c0 2d 0d 58 3f 6c bb 58 3f 8e 0b 4a 3f d0 14 7a 3f
       0.84395105 0.84660983 0.7892388 0.9768801
0002d0 bd 34 80 3f 04 0c 14 3f 1a 7a 7b 3f 80 67 52 3f
       1.0016094 0.57830834 0.9823319 0.8218918
0002e0 77 0e 6a 3f b5 2e 68 3f 2d d9 7c 3f 14 cb 2a 3f
       0.9142832 0.9069627 0.98768884 0.6671612
0002f0 b1 19 63 3f 17 bb 40 3f ca ad 4e 3f 62 cb 89 3f
       0.88711077 0.75285476 0.8073393 1.0765193
000300 65 da 86 3f e7 bb 22 3f 8e 2f 38 3f 51 f5 8b 3f
       1.0535399 0.63567966 0.7194756 1.093424
000310 5d 00 23 3f 45 b1 81 3f 46 65 89 3f 6d cb 2d 3f
       0.6367243 1.0132223 1.0734031 0.6788853
000320 e0 ca 7f 3f 11 18 2f 3f a6 e2 93 3f b6 a0 51 3f
       0.9991894 0.683961 1.1553543 0.8188585
000330 70 8e 58 3f 6d e9 30 3f 67 b4 32 3f a7 2a 36 3f
       0.8459234 0.6910618 0.6980652 0.7115883
000340 96 07 5c 3f ca 14 46 3f 4e 35 64 3f 4b d1 87 3f
       0.85949075 0.7737547 0.89143836 1.0610746
000350 7b e2 36 3f a6 90 60 3f da 65 51 3f 0a c4 1e 3f
       0.7143933 0.87720716 0.8179604 0.6201788
000360 be e3 32 3f 91 f2 60 3f 64 66 3f 3f c0 7b 41 3f
       0.69878757 0.87870127 0.7476561 0.7557945
000370 10 03 73 3f f4 2d 88 3f bc 8a 45 3f 9c f2 46 3f
       0.9492655 1.0639024 0.77164817 0.7771394
000380 b1 f2 63 3f 65 a1 83 3f b2 b0 35 3f 0c 14 52 3f
       0.8904219 1.0283629 0.7097274 0.8206184
000390 50 a1 6c 3f 32 eb 3e 3f 91 71 82 3f 3c 27 2d 3f
       0.92433643 0.7457763 1.0190908 0.6763799
0003a0 8a cd 8d 3f c7 c1 7d 3f 5d 3d 2a 3f 53 b5 72 3f
       1.107835 0.99123806 0.6649988 0.9480793
0003b0 48 f4 4d 3f cb 34 59 3f 0d c3 71 3f fe 59 6a 3f
       0.8045087 0.8484618 0.9443825 0.9154357
0003c0 3c 45 24 3f b3 8f 73 3f cc df 86 3f 0a 28 38 3f
       0.64168143 0.9514114 1.0537047 0.71936095
0003d0 ec cd 6e 3f 46 eb 24 3f 68 3c 55 3f e6 e1 35 3f
       0.9328296 0.644215 0.832953 0.7104782
0003e0 50 50 1b 3f 47 b9 28 3f d2 0c 5d 3f 58 a8 4c 3f
       0.6066942 0.6590771 0.8634769 0.7994437
0003f0 cc 5a 49 3f d9 99 91 3f 2d e9 38 3f 9b 80 97 3f
       0.7865417 1.1375076 0.722308 1.1836122

model.1.bias f4 [256]
000000 b0 b0 b7 be 51 d1 07 be 5e 97 6c be e0 44 c2 be
       -0.3587699 -0.13263442 -0.23104617 -0.37943172
000010 70 b2 0e be b0 5d f9 be b2 fe 03 be 73 af fb be
       -0.13935256 -0.4870429 -0.12890127 -0.49157295
000020 da 77 85 bd 74 e5 51 be 07 b7 b5 3e bf aa 00 3e
       -0.065170005 -0.20497686 0.354912 0.12565134
000030 16 7a 39 bf 28 46 a2 bd 85 03 21 3d 53 d6 21 3e
       -0.72451913 -0.079235375 0.039309997 0.15804414
000040 f4 5e 39 bf 18 b8 18 bf 21 4b 05 bf 98 5a 9b be
       -0.7241051 -0.59655905 -0.5206776 -0.30342555
000050 34 ac 0a bf 22 e9 22 bf 1a 3e 5d be df 49 a7 bc
       -0.5416901 -0.6363698 -0.21605721 -0.020420967
000060 4f cf f5 be 01 75 b4 be f2 4c 2a 3e 8e aa bc be
       -0.48009726 -0.35245517 0.16630915 -0.36848873
000070 b1 37 22 bf cd 1a 38 be da da 1d bf 08 08 6c bd
       -0.6336623 -0.17978974 -0.61662066 -0.057624847
000080 9f 7a 47 be 20 3c 75 3d 5c 67 b8 be f2 99 c3 be
       -0.1948037 0.059871793 -0.36016357 -0.38203388
000090 2d d0 9a be ff 75 29 be da 9f f7 be cf 60 93 be
       -0.3023695 -0.16548918 -0.48364145 -0.28784797
0000a0 36 62 07 bf 90 da df 3c 58 09 b4 be 81 60 2f be
       -0.52884233 0.027325898 -0.3516338 -0.17126657
0000b0 85 8a d3 be 20 2e 4a bf 66 8c fd bd 24 db b9 bd
       -0.4131662 -0.7897663 -0.123802945 -0.09075001
0000c0 c4 79 39 bf 52 1e a1 be c5 48 32 be ef 9b b9 3d
       -0.72451425 -0.31468445 -0.17410572 0.09062945
0000d0 7d 53 ce bd c6 61 15 bf 92 0c 9b be f1 21 12 bf
       -0.10074518 -0.58352315 -0.30283028 -0.5708304
0000e0 42 59 d1 be 82 bb aa be 2a db 0f bf 1f e9 ea be
       -0.4088841 -0.33346182 -0.5619379 -0.45880982
0000f0 2e 03 09 bf 68 6c 72 be 4d 5a 09 3d bc d7 94 be
       -0.53520477 -0.23674166 0.033533383 -0.29070842
000100 0e ec 8a bd 1a 77 19 bf e2 ca ce be 73 2f 95 be
       -0.06783305 -0.5994736 -0.40389162 -0.29137763
000110 7b aa 08 be ca 31 93 be 0c c5 05 be 22 35 ee be
       -0.13346283 -0.28748924 -0.13063449 -0.46524912
000120 80 72 86 be 8a e4 df be c0 b9 b3 3d fa 60 3c be
       -0.26259232 -0.4372905 0.087756634 -0.18396369
000130 b7 98 8d be 43 d0 92 3e b4 6e fc 3c c0 0e 7f be
       -0.27655575 0.28674516 0.030814506 -0.2490797
000140 3c 4c f6 bd e8 db 44 3e 7c a6 a6 3d 0e 58 34 be
       -0.12026259 0.19224513 0.08137223 -0.17611715
000150 9c 93 20 be 64 c9 ed be 23 5b 89 be a2 97 44 bf
       -0.15681309 -0.4644271 -0.26827344 -0.76793873
000160 54 68 21 bf cb 1d 52 be fa 7c 03 be 0e a6 89 be
       -0.6304982 -0.20519178 -0.12840644 -0.26884502
000170 fe 75 0f bf c4 a6 15 be 64 24 1c bf 32 31 05 bf
       -0.56039417 -0.14614397 -0.6099303 -0.5202819
000180 b6 76 69 be f3 87 e9 be 34 73 07 be d0 72 0c bf
       -0.22799191 -0.45611534 -0.1322754 -0.5486269
000190 5a 9f 2d bf 4c da 27 be ce 2e ca be 68 25 a5 be
       -0.67821276 -0.16391867 -0.39488834 -0.322551
0001a0 b3 4d ca be e9 38 e6 3d 99 a6 af be 11 b7 38 bf
       -0.39512405 0.112413235 -0.3430679 -0.7215434
0001b0 db c0 5f bf 1d 14 b9 be 24 f1 2a bc 57 cf 43 be
       -0.8740365 -0.36148158 -0.010433469 -0.19122063
0001c0 a7 be 36 be 00 a6 bd be 2a 27 f6 be a5 e6 70 be
       -0.17846166 -0.3704071 -0.48076755 -0.23525484
0001d0 5b fb 8a be b3 c8 ea be e4 cc 4f bf cb 8a 3b bf
       -0.27144894 -0.45856246 -0.81172013 -0.73258656
0001e0 4a 3c ea be cd ea 42 bf 78 27 42 bf f5 27 74 3e
       -0.45749122 -0.7613953 -0.75841475 0.23843367
0001f0 4e f0 b1 bd 4b a0 ca be c6 36 1b bf 7e c9 b3 bd
       -0.086884126 -0.3957542 -0.6063045 -0.08778666
000200 26 02 14 bf c5 bf 44 be 96 46 ae be 96 0d 8b 3b
       -0.5781578 -0.1921378 -0.34038228 0.004243563
000210 f7 47 c6 be 2e 5c b1 be a0 b3 44 bf b2 b4 f8 be
       -0.3872678 -0.3464064 -0.76836586 -0.4857536
000220 65 f4 0b be 6c 1f 9b 3d a4 cd f8 3c ba b6 a3 be
       -0.13667448 0.075743526 0.030371495 -0.31975347
000230 79 73 08 be ec 1d ed bd 43 87 c6 be 2f 8a 62 be
       -0.133253 -0.11577973 -0.38775072 -0.22123025
000240 80 b9 ce be 06 17 0a bf 17 7e e7 be d1 a4 c1 3c
       -0.403759 -0.5394138 -0.45213386 0.02363816
000250 66 84 1d bf 96 f2 1d be 44 e0 2a be 38 54 7c be
       -0.6153015 -0.1542457 -0.16687113 -0.24641502
000260 99 8b 6d be c3 74 aa be 1b 36 07 be 0f a9 5e be
       -0.23197784 -0.33292207 -0.13204233 -0.21744178
000270 46 38 b1 3d 9f 78 fa bd dd ac a0 be 3a 73 55 be
       0.086533114 -0.12230038 -0.31381884 -0.20844737
000280 8f a5 47 3c 7a 03 d9 be 76 a0 87 be 26 e4 38 be
       0.012185468 -0.42385465 -0.2648961 -0.18055782
000290 3e c7 25 be d2 03 c7 bd 6a 48 24 bf 99 63 27 bf
       -0.16189286 -0.097175255 -0.64172995 -0.6538635
0002a0 58 83 71 be e0 da b6 be c6 d2 15 bd 6e 09 9b bd
       -0.2358526 -0.35713863 -0.036577962 -0.07570158
0002b0 3a 20 fa be e5 62 8d be b4 04 e9 bd 7c 1c 36 be
       -0.48852712 -0.27614513 -0.1137785 -0.17784303
0002c0 35 63 2c be ac d9 4c be 63 79 da be ac 52 6b be
       -0.1683472 -0.2000491 -0.42670736 -0.22980756
0002d0 52 af 0b bf 50 6c 7f be c6 9a 3e bf 37 e3 19 be
       -0.5456439 -0.24943662 -0.74454916 -0.15028082
0002e0 ad d4 02 be 63 ae ba be af 84 e1 be ad fc 40 be
       -0.12776442 -0.36461172 -0.44046542 -0.18846388
0002f0 b3 11 6e be 80 d0 b7 3c cb f3 b5 be 9b ac 13 bf
       -0.23248939 0.022438288 -0.35537562 -0.5768525
000300 3a 1f 36 be 61 f3 5e be bf 5a cf be 9d e9 15 bf
       -0.1778535 -0.21772529 -0.4049892 -0.5855959
000310 63 66 49 be b4 63 3b bf 30 14 aa be f4 4e 5d be
       -0.19667964 -0.7319901 -0.33218527 -0.2161215
000320 4f 8e 51 bf c6 51 68 be 1b 83 c3 be d9 e3 a4 bd
       -0.8185777 -0.22687444 -0.38185963 -0.08051271
000330 1e 1a d5 be d7 57 9e bd ca 60 8e be 31 2c 4e be
       -0.41621488 -0.07731598 -0.2780822 -0.20134045
000340 2e a2 e9 bd 45 f7 f8 be 58 01 dd be 3b 52 ad be
       -0.114078864 -0.48626152 -0.43165088 -0.338518
000350 f8 45 0d bf 60 22 98 be 5e 88 5a be 3c 21 c0 be
       -0.5518489 -0.29713726 -0.21341082 -0.37525356
000360 ab 9e 27 be b0 d7 85 be c2 11 ba bd e1 2f 7c be
       -0.16369121 -0.2614112 -0.09085418 -0.2462764
000370 d6 08 23 bf 2b 24 23 be d2 f9 4e bc 12 20 0e bf
       -0.6368536 -0.15931766 -0.012632804 -0.55517685
000380 d2 02 0f be 6e 75 21 be 95 ed 24 be fd 8d a2 be
       -0.1396592 -0.15767452 -0.16106255 -0.31748953
000390 ed 36 64 3e 7a 55 4d 3d 8a 00 ab be 1c 75 a3 be
       0.22286578 0.050130345 -0.3339885 -0.31925285
0003a0 e2 a6 10 bf e1 35 57 bf c5 5c 9d be 69 66 55 be
       -0.5650464 -0.8406659 -0.3073484 -0.20839848
0003b0 4a 27 cc be 6c 38 e0 3d 65 9d cb be 80 c9 45 be
       -0.39873725 0.109482616 -0.3976852 -0.19315147
0003c0 9b ef 81 be 6a 37 1d bf 9f 0a 17 bf a1 42 56 be
       -0.25378117 -0.6141268 -0.5900058 -0.20923854
0003d0 79 d4 24 3e 97 45 a2 be 65 90 92 be 60 b4 9e be
       0.16096677 -0.31693718 -0.2862579 -0.3099699
0003e0 e1 39 89 be e9 94 0e be ab 28 e8 bd 16 32 2e bf
       -0.2680197 -0.13923992 -0.11335882 -0.68045175
0003f0 2e 12 01 be 08 75 39 be e6 1b c3 be af dc b5 be
       -0.12604591 -0.1811105 -0.38107222 -0.3551993

model.1.running_mean f4 [256]
000000 f0 f3 8a bd d2 5e 3c 3d 22 35 0b bd 02 c7 a1 3d
       -0.06784809 0.045988865 -0.03398622 0.07899286
000010 ce 07 bd bd b3 f8 99 3b 45 8c b2 bd fc eb 52 3b
       -0.09230004 0.0046988367 -0.087181605 0.0032184115
000020 07 76 27 3d 37 9f 40 3d 4a 46 cb bd 16 bd d4 bd
       0.040884044 0.04702684 -0.09925516 -0.10387628
000030 14 00 a6 bc 7f a6 6f 3d cb 36 47 bd 12 8f d6 3c
       -0.02026371 0.058508392 -0.04863624 0.026191268
000040 a5 44 1a 3d f1 32 e0 bd 80 32 8e bd 8e f5 6c 3d
       0.03766312 -0.10947216 -0.06943226 0.057851367
000050 4d 4f 2d 3d a6 b5 bf bd 70 c0 2e 3d 0a b6 6e bb
       0.042311955 -0.093608186 0.04266399 -0.0036424422
000060 58 9a 9c 3c 90 08 4b 3d 85 18 0b bd 75 2c b3 3d
       0.019116566 0.049568713 -0.03395893 0.08748714
000070 c3 5f 65 3d 5a a6 9e bd 08 5a e3 3b 6d 4c de 3c
       0.05599953 -0.07746573 0.006938223 0.027136052
000080 9a 87 3f bd a0 9c 63 bd fd db 28 3d 97 a0 9a 3c
       -0.04676018 -0.05556929 0.041225422 0.018875403
000090 53 bf 9d 3d 88 3e a4 3d 50 ac 07 bd 80 de ab 3d
       0.07702508 0.080197394 -0.033123314 0.08392048
0000a0 9b d6 8e 3c a5 9e d6 bb 36 a5 80 3d 8f 3c 92 3d
       0.017436316 -0.0065496736 0.062815115 0.07140457
0000b0 9f 73 4b 3c a2 e8 a9 3b d7 0a 90 bd bb 80 3b bd
       0.012417703 0.0051852027 -0.070333175 -0.045777064
0000c0 73 33 6b 3d dd b8 6b 3c 3f e0 9b bc 52 cc e9 bc
       0.057422113 0.014387337 -0.019027827 -0.02853981
0000d0 b1 d9 11 3d da fe b9 3d 46 5c d8 3c 75 ab 84 bb
       0.035607997 0.09081812 0.026411187 -0.0040487596
0000e0 f0 1f bf bd df fa b1 bd 60 4b 96 3c 57 96 de bc
       -0.093322635 -0.08690428 0.018346488 -0.027171297
0000f0 d8 30 bb 3c ce 59 52 bd 79 12 74 3c d8 d3 45 bd
       0.022850439 -0.051355176 0.014896982 -0.048297733
000100 9e 58 d2 bd b5 66 d0 bc 5a 18 d8 bc 7a a6 01 bc
       -0.10270809 -0.0254396 -0.0263788 -0.007913226
000110 be b3 84 3d 54 dc 8d bd 3e ae 07 3d 80 be 3f bd
       0.064795956 -0.0692679 0.033125155 -0.046812534
000120 e0 ce 98 3d 56 32 32 3d ce 4b f0 bd 36 78 1d bd
       0.07461333 0.043505035 -0.117332086 -0.03844472
000130 c9 16 35 bd 74 ec f7 bd d6 e3 73 bd 74 96 c0 bd
       -0.044211183 -0.12105647 -0.059543453 -0.09403697
000140 d5 a4 c1 bd f2 a3 33 3d d0 41 3d 3c 12 d2 c3 bb
       -0.09455267 0.043857522 0.011551335 -0.00597597
000150 76 ec f7 3c 59 bf d6 bc 92 6c a0 bd c6 b1 73 3b
       0.03026412 -0.026214289 -0.07833208 0.0037184819
000160 97 6d a0 3c c2 89 b3 bd a8 b5 85 3d fb 3e 91 bc
       0.019583507 -0.087665096 0.06528789 -0.017730227
000170 9e 4a 2e bc 6c 9b ea bd 69 77 a2 3d b8 51 67 3d
       -0.010637907 -0.114554256 0.07932932 0.056474417
000180 97 a4 8f 3c ba 19 91 bd 2d 31 77 3c c6 96 ef bd
       0.017534537 -0.07084985 0.015087408 -0.116986796
000190 d5 3d 0f 3c c1 c7 9e 3c 91 c9 ef 3c 16 99 55 bc
       0.008742769 0.01938236 0.029270919 -0.013036987
0001a0 37 44 c9 3c 6b 1b ce bc 10 bd f4 bc 0e e9 7d bd
       0.02456866 -0.025159558 -0.029875308 -0.061989836
0001b0 a8 c1 51 3d 76 48 a4 3d 61 be 85 3d 4a b5 20 bc
       0.051210076 0.08021633 0.065304525 -0.009808848
0001c0 28 db b6 bd d2 bc 52 bd ba d6 19 bb a1 bd 69 3c
       -0.089285195 -0.051449604 -0.0023473934 0.014266402
0001d0 d4 75 09 3c f4 12 6a bd ff b2 bd 3d 36 e3 0d 3d
       0.008389909 -0.05714698 0.092626564 0.034640513
0001e0 49 34 cc bc 19 e2 5e 3d 5f fb 92 3d 76 dc 70 bc
       -0.024927275 0.054414842 0.071768515 -0.0147009995
0001f0 95 c0 17 3d 73 98 94 bc 9a 23 70 bd 09 e6 05 bd
       0.037048895 -0.0181391 -0.058627702 -0.03269008
000200 58 69 06 bd 43 8f a4 bd 89 6f 9a bd 23 3f b8 bd
       -0.032815307 -0.080351375 -0.07540805 -0.089964174
000210 85 61 09 bd 69 e0 77 bc 32 83 ce bc 29 1b f3 bd
       -0.033540267 -0.015129187 -0.025209043 -0.11870415
000220 e3 0b 9a bd d6 fa 2b 3d 9c 87 72 bd 40 d5 9d bd
       -0.075217985 0.041987263 -0.05921136 -0.0770669
000230 b8 ba 43 3b 0a cb ed 3c f0 50 3e bd a5 9e 83 bc
       0.0029865932 0.02902748 -0.046463907 -0.016066859
000240 f2 a3 ae bd cc 09 ae 3b 2c d3 8c bd ba e1 9f bd
       -0.08527364 0.0053112265 -0.06876215 -0.07806726
000250 2c 5b e7 bc 46 02 35 3d 0a b3 10 bd 88 db 68 bc
       -0.028241716 0.04419162 -0.035326995 -0.014212497
000260 98 c0 96 3c a3 ec a0 bd 3a 81 29 bd c2 2e ad bd
       0.018402383 -0.07857635 -0.041383006 -0.08456184
000270 a0 9e a1 3c 1d 1a fe bc 8e 22 a4 bd 0a 19 23 3d
       0.019728959 -0.031018311 -0.08014403 0.0398188
000280 b2 00 7a 3d 1b 9c af 3d 5a 08 5c bd 22 72 b5 bd
       0.06103582 0.08574697 -0.053718902 -0.0885966
000290 a0 f7 1b 3d 30 7e 5e bd 2d 1b e0 3d d8 8f 9f bd
       0.03807795 -0.05431956 0.10942683 -0.07791108
0002a0 4c 6c c1 3c 1e 54 bb bd 4a 63 9c bd cc 23 81 bd
       0.02361121 -0.091469035 -0.076361254 -0.06305656
0002b0 49 77 89 3c 92 df 6f 3d 49 12 66 3d 0c 5e e0 3c
       0.016780512 0.058562823 0.05616978 0.027388595
0002c0 62 46 d6 3b 60 15 99 bd 72 bd ac 3d da 67 6e bc
       0.006539152 -0.0747478 0.08434571 -0.014551127
0002d0 c0 4a a1 38 a3 8f 8d bc 5a 9c 4c ba aa fa 88 3d
       7.6910015e-05 -0.017280405 -0.00078052806 0.066884354
0002e0 20 1c 3f bc 1b c1 98 3b f8 40 2a 3d 9d 45 a7 bc
       -0.01166442 0.004661692 0.041565865 -0.020418936
0002f0 7b 3e 67 3d e4 26 43 3c 36 0a 50 3d 08 4d 62 bc
       0.05645607 0.011911128 0.050790988 -0.013812311
000300 d1 93 14 3c 7c f5 cd bc a8 49 c2 bc 9d b0 fb 3c
       0.009068445 -0.02514147 -0.023716763 0.030723864
000310 b1 21 8d bd 60 8e 28 3d b4 7f 86 3d 2e 38 c8 bd
       -0.06891192 0.041151404 0.06567326 -0.097763404
000320 07 4b b9 3d 9f 12 83 bd a4 e8 c9 3b 80 43 43 3d
       0.090475135 -0.06400036 0.006161766 0.047671795
000330 d7 a3 14 bb ce 57 eb 3c 5e 45 fd bc 86 de e7 3c
       -0.0022680664 0.028728392 -0.030916866 0.02830435
000340 1d 7e b7 3c 9c ce c9 3c 36 7b 13 bd 53 1a 51 3d
       0.022399003 0.024634652 -0.036006175 0.051050495
000350 b3 76 21 3d 40 a2 26 3d b4 56 b4 3d 69 52 d2 3d
       0.03941984 0.040682077 0.088056 0.10269625
000360 bb ba a4 3d 9b 0d 93 3d bb 7d 67 bd 57 bb 35 3b
       0.080434285 0.071803294 -0.05651639 0.0027730071
000370 9c 50 24 bd c4 c2 75 bd 66 1a 6b 3d 92 42 77 ba
       -0.040115938 -0.060000196 0.057398222 -0.0009432222
000380 56 78 a5 3d c3 6d 5b 3d 9c 2d 25 3d 16 da c3 bd
       0.08079593 0.053571474 0.0403267 -0.09563081
000390 18 53 08 3c bc c6 ca bd eb a5 a6 bd 1c c4 73 bd
       0.008320592 -0.09901187 -0.08137115 -0.059513196
0003a0 38 97 af bb ce 51 73 3d a6 10 8b 3d 79 6c 27 bd
       -0.005358603 0.059404187 0.06790285 -0.040874932
0003b0 ea 07 16 bd 33 dd 91 3b 14 b6 49 3d 10 20 c5 bd
       -0.03662864 0.004451418 0.04924591 -0.09625256
0003c0 36 5b bb bc d5 9f 94 3d 1e f8 d1 3d e2 c4 54 3c
       -0.022870641 0.07257048 0.10252403 0.012986394
0003d0 f9 45 66 bd f5 70 bc bb 6e 06 87 3d 17 ac 6e bc
       -0.056219075 -0.00575077 0.06593023 -0.014567397
0003e0 14 16 88 3c 1d 64 18 bd 55 f4 c5 bd 94 2c 5d bd
       0.01661209 -0.03720485 -0.09665743 -0.05399759
0003f0 01 ab a7 bc 9d 23 73 bc 88 13 53 3d 5e 45 9f bd
       -0.020467283 -0.014840034 0.0515323 -0.077769026

model.1.running_var f4 [256]
000000 b8 4c 7b 3e 12 0f 71 3e 23 5d 64 3e 10 5e 8e 3e
       0.24540985 0.23540905 0.22301154 0.2780614
000010 fa 21 67 3e 8e 28 4f 3e a6 94 6f 3e 7f f0 87 3e
       0.22571555 0.20230314 0.23396549 0.2655067
000020 83 12 51 3e a4 f7 9a 3e 53 b4 ac 3d 20 b6 d5 3d
       0.20417218 0.3026706 0.084328316 0.10435128
000030 60 64 75 3e 42 9b 86 3e e1 93 f2 3d 40 51 df 3d
       0.23964071 0.26290327 0.11844612 0.10904169
000040 2f 18 79 3e 6e c1 7e 3e e1 b5 84 3e 16 7d 17 3e
       0.24325632 0.24878475 0.25920013 0.1479381
000050 e9 77 85 3e 1e de 81 3e 0f 1e 5a 3e 38 7d 48 3e
       0.26068047 0.25364774 0.21300529 0.19579017
000060 40 02 a0 3e 40 19 49 3e 74 bd d5 3d 0b 0f 32 3e
       0.31251717 0.19638538 0.10436526 0.17388551
000070 94 b9 87 3e 8a c4 83 3e ba 73 87 3e d0 e6 77 3e
       0.26508772 0.25735885 0.2645548 0.24209142
000080 5d d0 8e 3e 27 7b 17 3e 57 8b 7a 3e 16 e3 70 3e
       0.27893344 0.14793073 0.24467216 0.23524126
000090 18 96 85 3e 05 8d 83 3e fe 3b 93 3e 7c 8d 81 3e
       0.26091075 0.25693527 0.28756708 0.25303257
0000a0 e6 93 8d 3e 00 51 a8 3d 2b 15 91 3e 83 00 82 3e
       0.276519 0.082185745 0.28336462 0.25391015
0000b0 38 a8 52 3e 6f f7 7c 3e c1 d9 8a 3e 80 51 26 3e
       0.20571983 0.24703763 0.27119258 0.16242027
0000c0 de a9 90 3e 07 e3 91 3e aa 7a 7b 3e 5f 35 27 3e
       0.28254598 0.2849352 0.24558511 0.16328953
0000d0 00 66 4a 3e 73 97 84 3e 20 3c 7f 3e 68 52 75 3e
       0.19765472 0.25896797 0.2492528 0.23957217
0000e0 c1 31 5f 3e 60 bd 8e 3e 00 49 92 3e 5f 66 82 3e
       0.21796323 0.27878857 0.2857132 0.25468728
0000f0 95 0f 90 3e f2 cd 8e 3e e9 03 18 3e 62 00 88 3e
       0.28136888 0.278915 0.14845242 0.26562792
000100 eb 80 84 3e e0 aa 9b 3e f0 d7 4e 3e 17 84 b0 3e
       0.25879607 0.30403805 0.20199561 0.34475777
000110 46 a9 8e 3e d8 61 87 3e 89 8a 62 3e b8 6c 75 3e
       0.2786352 0.26441836 0.2212316 0.23967254
000120 42 ef 6a 3e 5e 7f 89 3e 74 ca d2 3d 42 49 94 3e
       0.22942832 0.26854986 0.10292521 0.2896214
000130 ef 89 35 3e 79 a8 b1 3d 46 4d 47 3e 86 01 8a 3e
       0.17728399 0.08674712 0.19463071 0.26954287
000140 a2 a2 3c 3e 09 3f 98 3d 7a 36 ac 3d 2e 0f 72 3e
       0.18421414 0.07433898 0.08408828 0.23638603
000150 34 03 72 3e bc 6e 84 3e 70 0b 55 3e 33 39 8e 3e
       0.23634034 0.25865734 0.20805144 0.27778015
000160 c0 55 97 3e 1a 8b 95 3e 38 79 93 3e d9 7a 61 3e
       0.2955761 0.2920769 0.2880342 0.22019519
000170 11 fc 8a 3e 19 d3 01 3e d5 81 9d 3e fa a1 82 3e
       0.27145436 0.12678184 0.30763116 0.25514203
000180 0e 18 83 3e 60 0a 2e 3e 86 a4 6c 3e b1 5b 61 3e
       0.2560429 0.16996145 0.23109636 0.22007634
000190 c5 eb 87 3e 0e 10 53 3e 31 03 98 3e be 83 25 3e
       0.26547065 0.20611593 0.29689935 0.16163537
0001a0 06 3d 8c 3e 95 d1 de 3d 3c db 66 3e 8b 4a 88 3e
       0.27390307 0.10879818 0.22544569 0.26619372
0001b0 f5 9f a3 3e a0 a3 8e 3e 64 04 77 3e b3 9b 4e 3e
       0.31957975 0.2785921 0.24122769 0.20176582
0001c0 b2 d9 8a 3e e7 c8 b1 3e 0c 01 9b 3e a8 49 78 3e
       0.27119213 0.3472359 0.30274236 0.24246848
0001d0 98 a8 ad 3e 19 25 3d 3e 02 f3 66 3e f2 f7 88 3e
       0.3391769 0.18471183 0.22553638 0.26751667
0001e0 d4 9d 93 3e 00 74 87 3e 6d 90 a7 3e 0d e8 d4 3d
       0.2883135 0.26455688 0.32727376 0.10395823
0001f0 a2 01 90 3e cc 73 98 3e b2 34 88 3e 30 ea 34 3e
       0.28126246 0.29775846 0.26602703 0.1766746
000200 d3 df 92 3e ae a7 8f 3e 8b 4a 99 3e e2 f0 3a 3e
       0.2868639 0.28057617 0.29939684 0.18255952
000210 9e 46 8c 3e 4b 07 8b 3e a1 c7 62 3e d8 32 81 3e
       0.27397627 0.27154002 0.22146465 0.25234103
000220 8b 66 4f 3e f4 50 4b 3e 86 5f bd 3d 2e b5 98 3e
       0.20253961 0.198551 0.09246735 0.2982573
000230 bc ef 67 3e 30 52 6d 3e 65 e2 81 3e b9 31 97 3e
       0.22650045 0.23175883 0.25368038 0.29530123
000240 20 33 82 3e 17 0b 82 3e 6d ec 99 3e 3f 86 75 3e
       0.2542963 0.25399086 0.3006319 0.23976992
000250 d6 73 88 3e db 1f 7e 3e 3c a0 99 3e 5d a0 88 3e
       0.26650876 0.2481684 0.30005062 0.26684847
000260 34 b8 75 3e e7 39 87 3e 94 52 8d 3e 31 55 53 3e
       0.23996049 0.26411363 0.27602065 0.20637967
000270 78 80 0d 3e 3e 9e 4d 3e a5 a1 89 3e ae ac b5 3e
       0.13818538 0.20079896 0.26881137 0.35483307
000280 57 a1 75 3e 02 5d 83 3e 12 50 4b 3e 07 cb 39 3e
       0.23987328 0.25656897 0.19854763 0.18143855
000290 fc fa 64 3e 4c 22 54 3e 1b 62 84 3e 5a 0b 80 3e
       0.22361368 0.20716208 0.258561 0.2500866
0002a0 ff 22 66 3e 71 67 b3 3e e9 b2 3a 3e 90 90 1e 3e
       0.22474287 0.35039857 0.18232311 0.15484834
0002b0 0e f3 8d 3e 5b 3a 8d 3e 5e 66 5e 3e e0 b6 64 3e
       0.277245 0.27583584 0.21718737 0.22335386
0002c0 2f 5e 80 3e 08 a6 44 3e c7 df 70 3e 5b 13 8f 3e
       0.25071856 0.19203961 0.23522864 0.27944455
0002d0 12 af 8a 3e 78 77 85 3e 69 f3 96 3e 29 af 80 3e
       0.27086693 0.2606771 0.29482582 0.25133637
0002e0 de 0f 84 3e 68 a0 67 3e f5 aa 89 3e 65 12 6e 3e
       0.25793356 0.22619784 0.26888242 0.23249204
0002f0 4f 41 83 3e 46 7b ac 3d d0 f6 83 3e 2f e8 8e 3e
       0.25635764 0.0842195 0.2577424 0.27911517
000300 38 35 70 3e 31 68 88 3e c8 1c 7d 3e 02 bd 71 3e
       0.23457801 0.26641992 0.2471801 0.23607257
000310 14 8f 59 3e 30 55 8a 3e 7d 91 95 3e fb e6 4f 3e
       0.21245986 0.27018118 0.2921256 0.20302956
000320 62 a8 8d 3e 89 d6 76 3e e6 d4 7f 3e e7 d6 f3 3d
       0.27667528 0.24105276 0.24983558 0.11906224
000330 8b 83 a9 3e 0c 11 5c 3e 88 5d 87 3e 6d fc 72 3e
       0.33108172 0.21490878 0.26438546 0.23729105
000340 90 5c 64 3e 82 d5 94 3e c2 bc a3 3e 5b 4d a6 3e
       0.22300935 0.29069144 0.31979948 0.32480893
000350 87 41 8c 3e c0 95 77 3e 5d f8 91 3e 4a c5 ac 3e
       0.27393743 0.24178219 0.285098 0.3374427
000360 96 1f 7a 3e dc 4d 7d 3e d7 5e 51 3e dd 2d 91 3e
       0.24426112 0.24736732 0.20446335 0.28355303
000370 20 a6 82 3e 84 c8 84 3e cf 35 47 3e 77 a7 7f 3e
       0.25517368 0.2593423 0.1945412 0.24966227
000380 e1 5c 7b 3e ad 7f 82 3e 3e 68 38 3e 6f 41 90 3e
       0.24547149 0.25488034 0.18008515 0.28174922
000390 d4 9f fb 3d da 13 d9 3d ce 81 74 3e 07 8f 68 3e
       0.12286344 0.105994895 0.23877642 0.2271081
0003a0 90 65 53 3e 85 16 91 3e d0 85 6b 3e 4a 65 a1 3e
       0.20644212 0.28337494 0.23000264 0.3152259
0003b0 85 db 96 3e 4d 81 5d 3e 18 11 78 3e 6d 3a e0 3d
       0.29464355 0.21631356 0.24225271 0.10948644
0003c0 f3 23 86 3e ec 4c 87 3e 08 d0 88 3e 8a 3d 87 3e
       0.26199302 0.26425874 0.26721215 0.26414138
0003d0 6d 8c b4 3d 8c b5 87 3e b1 34 92 3e 14 8b a8 3e
       0.088158466 0.26505697 0.28555825 0.32918608
0003e0 b3 67 8f 3e 51 c7 80 3e 58 a1 56 3e 2e ad 9f 3e
       0.28008804 0.25152066 0.20959985 0.31186813
0003f0 30 7f 87 3e 0b df 77 3e c6 b3 9f 3e a1 64 2e 3e
       0.26464224 0.24206178 0.31191844 0.17030574

model.3.weight f4 [512, 256]
000000 af bc f4 bc db c2 b2 3c fa 0a 75 3c 31 a7 70 bc
       -0.029875128 0.02182143 0.01495623 -0.014688299
000010 59 b8 e0 3b 4a 86 fe 3c b6 7d 84 3c 4e 42 94 bd
       0.0068579135 0.031069893 0.016173225 -0.07239209
000020 b8 84 05 3d 0b 24 4f 3b c9 4a b8 bc 68 60 24 bc
       0.032597274 0.0031607177 -0.022496598 -0.010032751
000030 c0 70 c7 bd 58 e7 90 3d ae 4f 2c bc ad 14 07 3c
       -0.09738302 0.07075375 -0.010517044 0.008244676
000040 42 09 10 be 92 58 72 bd ce 4b 56 bd cf c3 53 bc
       -0.14066032 -0.0591665 -0.052318387 -0.012925102
000050 08 3a f2 bc 20 1a 90 bc 5c 6c 1d bb ca ac 09 3c
       -0.029568687 -0.017590582 -0.0024020886 0.0084030125
000060 b0 a0 ae bd 55 8f f3 3c cc 50 90 bb 52 1c 04 3d
       -0.085267425 0.029731432 -0.004404163 0.03225357
000070 ed 0a 5e bd 38 35 1b 3b a3 f6 ed 3b 0b bd 74 3c
       -0.05420964 0.0023682844 0.0072620674 0.0149376495
000080 98 aa 5e 3c 6e 6c b3 3b fc a4 fe 3b 61 6b 52 bc
       0.013590477 0.0054755723 0.0077711325 -0.012842984
000090 09 a6 20 3d 24 2f 8b 3d 25 3e f3 bd 91 39 e1 3d
       0.039220843 0.06796101 -0.118770875 0.10997308
0000a0 9e 9b 21 bd 16 8a 9e 3c d8 62 a6 bd 46 57 fb ba
       -0.03945505 0.019352954 -0.08124322 -0.001917579
0000b0 62 a1 7d bc 06 6e 11 3d 93 48 1d 3b c7 23 dd 3c
       -0.015480371 0.035505317 0.0023999556 0.026994599
0000c0 db 69 f8 3b 83 f4 16 3d 67 5d 7d bb 4a 71 af bc
       0.0075809783 0.03685428 -0.0038660408 -0.021416325
0000d0 0d c3 78 3c 36 fa 29 bd e7 2f b4 3b bc 3e 6a 3a
       0.0151832225 -0.041498385 0.0054988745 0.000893574
0000e0 19 fc 71 bc 30 8f b1 3b 25 5c d6 3c 31 5c ad bd
       -0.014769577 0.0054186806 0.026166985 -0.0846485
0000f0 f2 00 cc bd 06 14 51 bb 8c 99 b1 3c a4 b7 ac 3b
       -0.09961118 -0.0031902804 0.021679662 0.005270915
000100 73 a4 eb bc 64 c0 e9 bc 40 c6 f8 bb 24 8b 01 bc
       -0.028764939 -0.028534122 -0.0075919926 -0.007906709
000110 44 36 a1 3d f2 78 18 bd 3c 0b aa bc d1 81 a2 bb
       0.078716785 -0.037224717 -0.02075731 -0.004959323
000120 95 00 5e 3b dc de 21 bc ba 7c 97 bc d6 51 b7 3c
       0.0033874859 -0.009879794 -0.018492091 0.02237789
000130 45 74 d4 3c be fd f8 bc 3a 8e d7 bc 90 1b fa 3c
       0.025934348 -0.030394431 -0.026312936 0.030530721
000140 dc 41 06 bc b6 27 ed bc 1e b6 f2 3b 45 07 3f bc
       -0.008194413 -0.0289496 0.007406964 -0.011659448
000150 c5 62 c1 3c 14 bf be bc 90 b9 8d b9 28 e5 26 be
       0.023606667 -0.023284473 -0.0002703187 -0.16298354
000160 6c 98 1e 3d be b8 96 bb e4 8f ad ba f6 77 5d 3c
       0.03871958 -0.0045996597 -0.0013241735 0.01351737
000170 fb 5d 93 bd 48 58 07 bb 0c 33 ba bc dd e6 25 bb
       -0.0719566 -0.0020651985 -0.02272942 -0.0025314607
000180 da 45 27 3d 40 4d ad b8 f1 f6 86 3c f1 d6 5c bc
       0.0408381 -8.263672e-05 0.016475173 -0.01347898
000190 a7 2f 43 be 1a d5 a2 3b 4b ed e1 39 32 1c e3 3c
       -0.19061147 0.0049692513 0.0004309214 0.027723406
0001a0 de 15 06 be 21 bd 0c bc fe 9a 30 3c 2f 23 a0 bc
       -0.13094279 -0.008590014 0.0107791405 -0.019548027
0001b0 a2 c4 c4 bc 14 68 4d 3d c5 54 2d 3d 63 81 b3 3a
       -0.024019543 0.050148085 0.04231717 0.0013695176
0001c0 34 7d cf bc c1 a5 06 3d 98 02 06 3d a3 4a 92 3d
       -0.025328256 0.03287292 0.032717317 0.07143142
0001d0 89 4a 1f bd 3d c7 ad bd 10 3e 4e be 04 0a cf bd
       -0.03888944 -0.08485267 -0.20140862 -0.10109332
0001e0 dc 62 81 3b 2d d3 6b bd de 5b 42 bd a2 5e 80 bc
       0.0039485525 -0.05757444 -0.047450893 -0.015670124
0001f0 aa 83 8c 3d 5d 82 ca 3c 59 9d 07 be 3d b8 85 bb
       0.068610504 0.024720365 -0.13243617 -0.004080801
000200 f4 fb 8f bd 59 cf 55 3d dc e5 90 3c d1 8d 55 bc
       -0.07030478 0.052199695 0.01768773 -0.0130343
000210 d5 59 45 bc 47 2c ac 3a 9a f8 eb bd bf dc 4e bd
       -0.012045343 0.0013135754 -0.11522026 -0.05050349
000220 02 13 68 bc 3a 96 5d bc 87 fe b0 bb 38 ea fa 3b
       -0.014164688 -0.013524586 -0.005401436 0.0076573156
000230 fe 4e 5f 3d 58 30 24 3d b8 2a 0a 3d ee b3 8f 3c
       0.054518692 0.040085167 0.033732146 0.017541852
000240 51 df 02 3d 84 0e 99 3d 6e c9 b4 3b ce 34 2a bc
       0.031951252 0.07473472 0.0055171764 -0.010388566
000250 ea dd f1 bc 82 30 34 bc b7 73 5f bc 7a 2c 16 bb
       -0.029524762 -0.010997893 -0.013638428 -0.0022914694
000260 d8 f4 43 bd c9 5f fc bc ee d5 d3 3c aa 83 31 3c
       -0.047840923 -0.030807393 0.025858846 0.010834614
000270 02 ef be bc 97 ad fc 3c ae 2a 98 3b b6 8a db 3c
       -0.023307327 0.030844493 0.0046437597 0.026799541
000280 9c be 82 3b 82 ba 90 bb 63 a0 43 3b 81 39 e6 3b
       0.0039900076 -0.0044167647 0.0029850237 0.007025898
000290 b3 09 09 3c 6f 55 e5 ba 78 48 b0 bd ba 02 02 bd
       0.008364129 -0.0017496775 -0.08607572 -0.03174088
0002a0 ef c1 ef 3c d7 01 88 3c 26 50 00 bc 2a e2 48 3c
       0.02926728 0.01660244 -0.007831609 0.012260953
0002b0 51 24 55 bd 99 36 93 3b ab 8a 07 3c ca f2 ed 3c
       -0.052036587 0.0044925925 0.008272807 0.029046435
0002c0 3a ef 19 3d ae bb 0b 3d 24 17 8d 3c 96 f4 1b bd
       0.03758166 0.034114532 0.017222948 -0.038075052
0002d0 6e 85 96 bc 1c 25 3d 3d f8 77 af bd 1c c3 d9 3b
       -0.018374171 0.04617797 -0.08567804 0.0066455733
0002e0 fb ea 23 3d 99 d0 22 bd bd a7 d7 3c b3 47 df 3c
       0.040019017 -0.039749715 0.026325101 0.027255869
0002f0 82 2f 20 bd 27 36 91 bc 7a 8c e9 3c 6f 6d 8f bd
       -0.039107807 -0.017726017 0.028509367 -0.07003295
000300 d6 24 34 3d 92 a8 ba 3b 9d c9 21 3b fe 0b 83 bc
       0.043980442 0.0056963647 0.0024686821 -0.01599693
000310 cc 71 ae bc 4d 39 4e be ac d9 c7 3c d0 71 3c bc
       -0.021294497 -0.20139046 0.024395786 -0.011501744
000320 9d 6b b7 bd 90 48 bb 3c 98 d9 ea 3d 2c 81 9f bc
       -0.089560725 0.022861749 0.11467284 -0.019470774
000330 6c 2c fd bc 5d b6 de 3b 13 56 59 3d 47 9d 24 3d
       -0.030904971 0.0067966417 0.053060602 0.040189054
000340 fe fe 34 bb 7c ca b9 3c 52 5f f3 3a ce c3 5d 3c
       -0.0027617808 0.02267956 0.0018567836 0.013535453
000350 36 b1 05 3c 90 b8 1b 3c cb 92 2f 3c 73 ea 5f 3c
       0.008159926 0.009504452 0.0107161505 0.013666737
000360 c0 47 5b 3c a3 22 82 3d 24 95 06 3b 29 53 78 3c
       0.013383806 0.06354263 0.0020535672 0.015156546
000370 4b ac 15 be 88 97 c0 3c c1 ed 97 3c ec 26 74 bc
       -0.14616506 0.023509756 0.018545987 -0.014901858
000380 4e 16 49 3c 9c 7b 95 3c 98 b2 0a 3d 90 47 f4 3c
       0.012273384 0.018247418 0.033861727 0.02981928
000390 1b 8b df bc 90 55 45 ba 9f ae ec bc 78 b1 11 3c
       -0.02728801 -0.00075277034 -0.02889186 0.0088924095
0003a0 67 bd ac 3b 35 77 f8 bd 16 ac 07 3c 05 c3 17 bb
       0.005271602 -0.12132112 0.008280775 -0.0023157012
0003b0 7c 78 83 3b 37 b1 3f 3c dd ff d3 3c df dd ae 3c
       0.0040121656 0.011699966 0.025878841 0.02134603
0003c0 a7 2d 3d 3c a3 e3 34 3d 66 34 2e bc 2b d3 2d 3d
       0.011546529 0.044162404 -0.01063261 0.042437714
0003d0 60 22 68 bc 3d 35 da 3c 6b 14 b7 3c eb d4 64 3c
       -0.014168352 0.026636714 0.022348603 0.013966779
0003e0 55 46 77 3a b9 38 86 3c 02 e9 8f bc 5e df 42 3c
       0.00094327825 0.01638447 -0.017567161 0.011894075
0003f0 0a 61 a3 3c 6e bc a2 3d 9b b3 a7 3c 55 b2 35 bc
       0.019943733 0.07946096 0.020471385 -0.011089881
