pythorch saved models/fed_discriminator_cgan_ssl3.pth (torch, 707600 bytes, 5 tensors)

model.0.weight f4 [512, 86]
00000000: dfda 0cbb 06e3 c53b 18d4 59bd f240 9abd
00000010: fb77 473d 3172 3c3b 667e bcbc 5f5a 873c
00000020: 5a34 2abd b69f 3f3b a473 87bc bc43 27bd
00000030: e1a4 a7bd 104d c4bc 0ca1 5cbd fda8 99bb
00000040: ff03 063d c402 75bd 4287 523d 7473 883e
00000050: 1c23 573b a2cd 44bc 6b69 1e3d c632 44bd
00000060: 1a3e 363d d027 84bb 4725 fd3c 3dda 43ba
00000070: 41a6 82bc a310 d7bc b295 86bd b8b3 b53d
00000080: 58d0 2d3e 3c2c 153d 2cf7 633d 3ba3 79bd
00000090: 2ec8 bfbb dbcd a5bd b104 4f3d 5e88 9ebb
000000a0: 54ba 143e 3f74 99bc f0c4 943d 625f 183e
000000b0: 65fa 0b3e 6a84 b03e c6cd 7d3c 2526 53bb
000000c0: 1d95 c43d 99dd 713d bf79 973d 3c81 6dbc
000000d0: ad90 083e 640d f13b 535f 0cbe 6d5e 75bd
000000e0: f060 85be 2dd8 0dbe a2f8 bdbd 572b 6e3d
000000f0: 7f0c e13d 4e60 f83b ce95 51bd b0ff 80bd
00000100: 94c5 44bb 2dd5 013b b851 3b3c 204d b9bb
00000110: a50c 1b3d c677 f5bd 46c5 363c f80e b73d
00000120: 92b4 cb3d 8a5a fb3d 476b d03d 66b8 bf3c
00000130: 9c70 a93d d23a 5b3d 1275 ee3c 9c64 0e3e
00000140: e32f cf3d c441 fa3d 9814 c73d 3036 46bc
00000150: c084 0c3e 357a c93d a957 263b e588 81bc
00000160: 8d1d 553d 20ce 94bd 111d f1bc e172 6b3c
00000170: b560 d03c e6c1 44bd 3e98 92bd 077e 07be
00000180: 8e0c 7f3b 8bd0 fbbd 6e25 dc3d 3020 cd3d
00000190: 763f bc3d 5b56 043e 5d7f 34be b3d1 e7bd
000001a0: 6db5 3cbd 4be6 9f3c ad1e dfbc 5836 97bd
000001b0: cf79 c5bc 3b04 903d 28d5 773c 4fe0 d93b
000001c0: 46b7 f8bc 1e6a 5ebd 94c3 ec3d 1eb5 0abe
000001d0: 6a3a adbc 95e7 1ebd 31e5 753d ce6c 1d3d
000001e0: 5bb5 cdbd 5975 593d 00ec bfbc 23b7 3fbc
000001f0: c5d4 86bd 1284 f73c f011 2fbe 01a3 023e
00000200: 44b5 d63d db2d 17bd 5b35 11bd a623 aebc
00000210: 0785 bfbd b064 b0bd 4a45 f3bd 9a85 2cbd
00000220: 38bb 043d 98cc 003d ef76 98bb 6159 c43d
00000230: bf21 393d 9dea 1e3e 3cb0 16be eed9 c1bc
00000240: 9e5d 82bd 2101 b53d 5467 4bbd a445 7a3b
00000250: 90f1 143d 25d2 593d 6a4b 9d3d ca6b 3f3d
00000260: 03c4 9d3d 49c4 fd3d 5834 a23d d0f0 db3a
00000270: c85c 1abd 6c27 8fbd 22bf b63c 9b21 903c
00000280: b65c 493b 97b0 b7bd f0b5 9cbd 7b2f 32bc
00000290: 16d8 aabc 4e6c 2dbe b48f 5cbc 7a1b 02bd
000002a0: 2640 5dbd 840f b43d 302a a5bd 1ac7 eb3c
000002b0: a796 43bd ba71 f53a 1876 b53b fd03 253c
000002c0: ec83 b43d 4ec7 4bbd 4920 c83d 8bc4 76bd
000002d0: 79b8 373d 36d1 adbc 0a71 a63d 3bf2 463e
000002e0: 0db2 8bbd f632 843d f209 f4bd c405 43bc
000002f0: ef02 87bd a378 e9ba f18a 8abd c574 003e
00000300: 3601 263e 28f6 2ebe f411 913d 0fbf ad3c
00000310: 105b a9bd 4d24 6b3d c331 b4bc c06d b6bd
00000320: b94c 00bd d665 59bd d55a a9bc be59 b03d
00000330: 64df 3f3d 47b1 5dbd d8cd 2fbd a072 78bd
00000340: 6838 e53d 4712 3abe c450 753c 20ef 5c3d
00000350: 1464 3cbd ef66 eabd 4cdf d1bb b77b 26bc
00000360: bcca 0bbb c9d8 e73d ae95 bf3c f548 523d
00000370: a047 0fbe 92d4 9fbd 69d8 e5bc 260a f3bd
00000380: 9e04 a53d bda5 a33d c8e4 42bd 5dd2 18bd
00000390: b8ad aebd 4068 7d3d acc6 1c3d 2434 533c
000003a0: 4837 94bd 83bd 983c 4c0d 1ebd ecf6 52be
000003b0: fb37 15bc 6294 ffbd d316 a0bb 9dc8 94bd
000003c0: f545 cb3a 685b 0abe fc2b eabc 4dfd 6d3b
000003d0: fb80 43be d29f 9cbc d633 ecbd b08e 78bd
000003e0: 8dd3 0cbe cad0 47be 5683 a8bd f97a f0bd
000003f0: 4889 1e3c 26bd 5abd 6b8d 80bd b8be eabc
-0.0021492762 0.006039026 -0.053180784 -0.075319186 0.048698407 0.0028754587 -0.02300949 0.016522584
-0.041553833 0.0029239482 -0.016534634 -0.04083608 -0.08185745 -0.023962528 -0.053864524 -0.0046893344
0.032718655 -0.05981709 0.051398523 0.26650584 0.0032827323 -0.012011917 0.038674753 -0.047899984
0.04449282 -0.0040330663 0.030901564 -0.00074711797 -0.015948417 -0.02625305 -0.06571521 0.08872169
0.16974008 0.03641914 0.055655643 -0.060946684 -0.0058527207 -0.080959044 0.050541583 -0.0048380336
0.14524204 -0.018732188 0.07264125 0.14880136 0.13669737 0.34476024 0.015490955 -0.003221878
0.095987536 0.059049223 0.07396268 -0.014496144 0.1333644 0.0073563326 -0.13708238 -0.059904505
-0.2605052 -0.13851996 -0.092759386 0.0581468 0.109887116 0.00757984 -0.051168256 -0.062987685
-0.0030024992 0.00198109 0.0114330575 -0.005654946 0.037853856 -0.119857356 0.011155432 0.08938402
0.099465504 0.12273128 0.101767115 0.023403358 0.08273432 0.053522892 0.029108558 0.13905567
0.101165555 0.12219575 0.09720725 -0.01209788 0.13722515 0.09837762 0.002538184 -0.015812347
0.052030135 -0.07265878 -0.029432805 0.014370651 0.025436739 -0.04803648 -0.07157944 -0.1323167
0.0038917395 -0.12295636 0.10749327 0.10015905 0.09191792 0.12923567 -0.1762671 -0.11319294
-0.04607146 0.019518992 -0.027236307 -0.07383412 -0.024105934 0.07032057 0.015126504 0.006649054
-0.03036083 -0.05430042 0.11560741 -0.13545653 -0.021146018 -0.038795073 0.060033027 0.038433842
-0.100443564 0.053090427 -0.023427963 -0.011701378 -0.06583551 0.030214343 -0.17096686 0.12757494
0.104837924 -0.036908966 -0.035451274 -0.021257233 -0.09351545 -0.086129546 -0.1187845 -0.0421196
0.03240511 0.031445116 -0.00465285 0.0958736 0.0451982 0.15519185 -0.14715666 -0.023663487
-0.06365512 0.08838106 -0.04965909 0.0038188482 0.036363184 0.053178925 0.076804 0.046733655
0.07703402 0.12390954 0.0792014 0.0016780142 -0.03768614 -0.06989941 0.022307936 0.01759415
0.0030725426 -0.08969229 -0.07651889 -0.010875578 -0.02085499 -0.16935846 -0.013461996 -0.031764485
-0.054016255 0.08792022 -0.08064687 0.028781462 -0.047751095 0.001872591 0.0055377595 0.010071752
0.088142246 -0.04975062 0.09771783 -0.06024603 0.04485366 -0.021217924 0.08127029 0.19428341
-0.0682107 0.064550325 -0.119159594 -0.01190323 -0.065923564 -0.0017812442 -0.06764782 0.12544544
0.162114 -0.17086089 0.070835024 0.021209268 -0.08269322 0.057407666 -0.021996384 -0.08907652
-0.03132317 -0.053075634 -0.020673195 0.08610867 0.0468439 -0.054124143 -0.042920917 -0.06065619
0.11192399 -0.18171035 0.014972869 0.053938985 -0.04599388 -0.11445414 -0.006404793 -0.010161332
-0.0021330556 0.11320645 0.023386803 0.05133911 -0.13992167 -0.078042164 -0.028057294 -0.1186717
0.08057521 0.079905964 -0.047581464 -0.037309993 -0.08529228 0.061867 0.038275406 0.012890849
-0.072371066 0.018645054 -0.0385869 -0.20602006 -0.009107585 -0.12479474 -0.0048855334 -0.072648264
0.001550852 -0.13511431 -0.028585427 0.003631431 -0.19092171 -0.019119177 -0.115333244 -0.060682952
-0.13752575 -0.1951324 -0.08228175 -0.11742205 0.009676285 -0.053403042 -0.06276973 -0.028655395

model.0.bias f4 [512]
00000000: b4d9 f93d 8f85 03be a464 9dbd 449f f4bd
00000010: 488c 2d3d 020d 5a3a a37c c6bd c4ee 3bbe
00000020: 92df c4bc c487 b9bd 4276 22be cb61 32be
00000030: d2be 17be 2e3a e53a 70bf 05bd b945 87be
00000040: dcc2 c5bd f9d9 a2bd 2391 823c 665e 353c
00000050: a48c 99bc a933 b9bd 3dcb 1fbe 7453 2dbe
00000060: 473d 6abe 8c06 853e 8ab7 2ebe 1c0c eebc
00000070: f014 67bd 39a5 ad3d 21c5 25be cc33 11be
00000080: 141c 82ba 3b29 f9bd abe6 07be 3082 93bd
00000090: deff 03be 00ed 12be da9e 60bd 9faf 6abe
000000a0: 65b1 173e c128 09be 3ed2 41be eee6 25be
000000b0: c815 9ebd e651 ccbd 20cb 54be b370 e33c
000000c0: ab9d 03be 2650 743d 6ea3 73be b0eb ed3d
000000d0: 7af0 e838 d8ef 35be eaf9 2dbe 86e2 15be
000000e0: 2c97 70be 43b9 15be e5be cd3d fc7c 9ebd
000000f0: 32a6 0ebd d235 ecbd acca 17be 6fb2 16bd
00000100: 30fa 2abe 3858 c2bd 3467 ce3d b27d 19be
00000110: 9965 adbd 57b6 3bbe a588 fdbd 2ab3 b63c
00000120: daae 47be 7c76 afbd f1f4 28be d689 ad3d
00000130: 4336 62be 019b 4d3d 72f9 ab3d cb7e 3ebe
00000140: ee18 a4bd 94a5 12be fe02 25be 4ec7 bfbd
00000150: b4c2 a83d 10f9 1abe 4996 80be aa49 273d
00000160: 35ee 14be 006c 34be f263 bbbd b07c 08be
00000170: 3553 eebd 70b1 223d 4a77 eb3d a525 b93d
00000180: e253 5cbe 114c c0bd ecdc c8bd 5c9d 8cbd
00000190: 2c88 f3bd f001 02be b52b f4bd 3a20 33bd
000001a0: 4d2e c0bd 4b76 2abe 3f21 b9bd 8fa5 46bd
000001b0: ea95 61be dff9 2fbe 7ae4 923d 66a6 e0bd
000001c0: a6bc 8cbd 6ac0 64be bff8 03be e8be f7bd
000001d0: 5676 82bd c2da 5cbd 1f6e bbbd eaca 85bd
000001e0: 7cdf 443d 9bb0 dabd fdfc 37be 63d4 0bbe
000001f0: fb43 173c 140b 5ebe 260a 50be 01fa 39bd
00000200: f03e a33d d48d a4bc d111 61be de55 bfbd
00000210: f1d1 57be d04a 11be 9fc4 cbbd 25ce 3dbd
00000220: 0094 ecbd da86 bcbd dc46 45be a171 2f3c
00000230: e2a0 83bd 1acd 66bd baca 86bc 5524 4abe
00000240: e260 d0bd b614 29be 78f9 2fbd 59a4 e3bd
00000250: 98dc 0bbe e41c 443e 80dc 5cbe fbf5 40bd
00000260: 307c 4abe 1cf7 7abd 1d7b d9bb df4a 16be
00000270: 6795 d8bd 4281 43bd a41a a53d 68fb 07be
00000280: 9e2f a13c f62d 04bc 3f71 02be de64 1ebd
00000290: b4ab 22be 9d51 30be b4da 1bbe d1c2 7cbd
000002a0: e082 cdbd 033e 1abe ecd3 a93b 9334 95bd
000002b0: 8e01 c1bd 9a26 643d 666f b8bc c966 c0bd
000002c0: cb2e bbbd 6a02 e0bd 942e 17be 0347 bcbd
000002d0: 8c55 e8bd d2f5 4a3d b235 84bc a3fe f83c
000002e0: 5538 52be 16c4 953b aaa7 94bd 3106 18bd
000002f0: 8830 2dbe 625b 3ebe c880 b1bc 9e48 36be
00000300: 5ebf db3b 398a 18be e139 22be ce80 d7bd
00000310: a67a f2bd a653 6ebe b867 783d aaa1 04be
00000320: 9a4b 69be 5479 d9bd 6eb4 a7bd cd29 e9bc
00000330: 4d1b 083e 8afd e4bd 015b 54bd 788d 0bbe
00000340: a938 353c 0782 09bd da5f 36be 8649 fc3d
00000350: e454 1cbe caf4 15be ea20 03be 6fbe 4fbc
00000360: ffc7 78bc c70e f4ba 5768 173d 9794 d6bd
00000370: 457a bd3d 0430 41be 2c14 273d 2bc4 313d
00000380: 8154 83be 1515 9d3d 22cb d13d dbd1 523d
00000390: 8c31 00be ceec 1fbe d7a2 10be 90d8 84bd
000003a0: 42a2 54bd 93c8 5bbe 5073 49be faef a13d
000003b0: 2e23 943d 83b3 2abe 1a97 92bd 2dba 9d3d
000003c0: d76d 7abd fd86 1b3e 2ff0 32be 7349 21be
000003d0: 8fd9 87bd b24b 2abe 9736 6bbe 537c f43c
000003e0: 5354 58be 8f65 0abe 0a86 02bd 2aae febb
000003f0: 614b 7dbd 8c46 fd3d 397e 87bd ca82 00bd
0.12199727 -0.12843917 -0.07685211 -0.1194444 0.04237011 0.00083179784 -0.09691741 -0.183528
-0.024032388 -0.09059098 -0.15865424 -0.17420118 -0.14818886 0.0017488652 -0.032653272 -0.26420382
-0.09656307 -0.07951731 0.015938347 0.01106987 -0.01874382 -0.090430565 -0.15604873 -0.16926366
-0.22874938 0.25981557 -0.17062202 -0.029058509 -0.056416452 0.08478779 -0.1618848 -0.14179915
-0.0009926581 -0.12166067 -0.13271587 -0.07202566 -0.12890574 -0.14348221 -0.054838993 -0.22918557
0.14813764 -0.13394453 -0.18927857 -0.16201374 -0.07718998 -0.099765584 -0.20780611 0.0277637
-0.12853114 0.059646748 -0.23792812 0.116172194 0.00011107414 -0.17767274 -0.16989866 -0.14637193
-0.23495167 -0.14621453 0.10046176 -0.07738683 -0.034826465 -0.11533703 -0.14823407 -0.03679126
-0.16697001 -0.09489483 0.10078278 -0.14989355 -0.08466644 -0.18331276 -0.123795785 0.022302229
-0.19500294 -0.08567521 -0.16499688 0.08473556 -0.22091012 0.05019665 0.08397187 -0.18603055
-0.080125675 -0.14320976 -0.16114423 -0.09364186 0.08240262 -0.15134072 -0.25114658 0.040841736
-0.14543994 -0.17619324 -0.091499224 -0.13328815 -0.11636964 0.03972 0.11497362 0.09040383
-0.21516374 -0.093895085 -0.098077625 -0.068659514 -0.11891207 -0.12696052 -0.11922399 -0.043731906
-0.09383831 -0.16646688 -0.09039544 -0.048497733 -0.22029844 -0.17185162 0.07172485 -0.10969238
-0.06871919 -0.22339025 -0.12887858 -0.12096959 -0.06370227 -0.05391956 -0.09151863 -0.065328434
0.048064694 -0.10678216 -0.17967601 -0.13655238 0.009232516 -0.21683913 -0.20316371 -0.045404438
0.07970989 -0.02008716 -0.21979453 -0.0934255 -0.2107618 -0.14188695 -0.09949612 -0.046339173
-0.11551666 -0.092054084 -0.19265312 0.010708244 -0.0642717 -0.056347944 -0.01645409 -0.19740422
-0.10174729 -0.16511807 -0.04296252 -0.11115331 -0.13658369 0.19151646 -0.21568489 -0.047109585
-0.19773936 -0.061270818 -0.0066369907 -0.14676999 -0.10575371 -0.04773069 0.08061722 -0.13279498
0.019676026 -0.008067599 -0.12738512 -0.038670413 -0.15885812 -0.17218633 -0.15220147 -0.06170923
-0.10034728 -0.15062718 0.0051827338 -0.07285418 -0.09424125 0.055700876 -0.022514056 -0.09394605
-0.091397844 -0.109379604 -0.14763862 -0.09193232 -0.11344442 0.04955084 -0.016138885 0.030394858
-0.20529301 0.0045704944 -0.07258542 -0.03711528 -0.16913044 -0.18589547 -0.021667853 -0.17801139
0.0067061624 -0.14896478 -0.15842392 -0.105226144 -0.118397996 -0.23274097 0.06064579 -0.12952295
-0.22782746 -0.10618845 -0.08188711 -0.028462315 0.13291664 -0.11181171 -0.0518446 -0.13628185
0.011060872 -0.03357127 -0.17810002 0.12318711 -0.15266758 -0.14644161 -0.12805524 -0.01267968
-0.015184402 -0.0018620127 0.03696474 -0.1047756 0.09251837 -0.18865973 0.04079072 0.04339997
-0.2565041 0.07670037 0.10243823 0.051469665 -0.125189 -0.15617678 -0.14124618 -0.064866185
-0.051912554 -0.21463232 -0.19672894 0.079071 0.072332725 -0.16670041 -0.071577266 0.07701526
-0.061139908 0.15188213 -0.17474435 -0.15750675 -0.06633293 -0.16630438 -0.22970043 0.029844439
-0.21125917 -0.13515304 -0.03186611 -0.007772227 -0.061839465 0.123669714 -0.06615872 -0.03137473

model.3.weight f4 [256, 512]
00000000: 850a b93c b32b f9bc 9023 05bc dda4 8d3c
00000010: 2569 373d 58ec 483c 7ec7 03be f920 2dbc
00000020: aa5c 283d 46b7 43bd d8ac fe3d 413c d23b
00000030: 8250 803d be93 38bd 629b e8bc 947b 91bd
00000040: 06e1 63bd f8be d23c 0877 72bd f839 d23c
00000050: 914a 09bc a6f6 af3b db44 f0bc b492 abbc
00000060: f616 913c fb55 aebc 8cdb 8a3d d2ad f3bc
00000070: 472b 74bd 4866 863d 5db2 bbbc 02d4 dfbc
00000080: 9a34 873d 64a2 c03c e886 13bd 6eb0 ac3d
00000090: f651 ccbc 81ab 5fbc 8f6d 5ebc 01cd 063d
000000a0: ae8d 2abc 4ef0 e03c 46c3 053d 85a3 1cbd
000000b0: f635 eabc e816 2c3d 467b d4bc 24f8 c0bc
000000c0: 4827 8fbc 5402 dcbc 3a89 2fbd f8fd 8cbc
000000d0: 8e9e b5bd 8e2c be3c 35f8 c5bc 9084 6f3d
000000e0: 78b2 253d de56 f5bc aa4f b73b e2b5 1c3c
000000f0: e238 2e3c 54fa 0fbd 6419 16bd de2c 90bc
00000100: 5606 c6bd 56b0 87bd d9a7 b1bc 156f fbbb
00000110: 9faf 943d 4894 81bd 8737 673b b0a4 34bc
00000120: f9c5 2bbd 2071 a43d b8b8 033d 898b 05bd
00000130: fd63 a03c 4292 90bc 5699 be3c ca1a c7bc
00000140: cdfd 54bc 5b45 50bd 4547 94bd e46f 5fbd
00000150: 801a aabd 3cae a6bc 68f2 95bc 5c64 84bc
00000160: d844 8fbc 640f 0ebd 2205 64bc 6f95 b7bc
00000170: 978e a7bc 78b7 e03b c6d0 4cbd c951 db3c
00000180: 9836 19bd 54e2 6c3d cd54 41bc bd7c e0bd
00000190: 5db4 b2bd 020a ef3c 25d4 4b3d e088 09bd
000001a0: 07bf 7fbb ac12 4fbc 1e1d 7cbc 5a79 b73c
000001b0: 6ee3 f8bc a48b 69bd f20d 83bd a78a fabc
000001c0: 895a 49bc 4461 97bc c815 0abd 6aca 01bb
000001d0: 26f8 fe3c 78f0 89bb 8fe0 72bd 8f51 c9bd
000001e0: 7a0a 5ebd 209b 1b3d fc8d f3bc e0ec e03c
000001f0: e7af cabc 101b f5bb 1044 82bd 6960 1dbd
00000200: 4c3b 333d e730 c6bd aef2 48ba 7008 9c3c
00000210: 1016 4ebc d708 85bd 1856 bd3d 2728 11bd
00000220: 9a36 9b3c 88dc 8dbc a750 4e3d 8c90 e93c
00000230: 36c6 babc ae48 60bc 43fd 07bd 343f d7bd
00000240: 5303 88bd 9d2f 90bd a985 aa3b 2cd9 a63c
00000250: 7eb9 dcba 26fe b6bc ce0b 483b 90e0 8a39
00000260: 26a6 673c f4ae d2bd 0f71 3a3d 077b 9e3d
00000270: cf1d 453c 1a82 aabd 4e09 0a3c e9d1 783d
00000280: 0ccb a3bc 30fe 4b3d 5b88 50bc 97da 32bc
00000290: 545f db3c fe0b 0e3a c023 153d d9c0 1bbd
000002a0: a5b0 0a3d fadb 84bc ca03 2a3d b2cc 83bd
000002b0: 3c84 bbbd b7d7 533d 868a 213d d5d0 a33d
000002c0: 4ed9 83bd d6e6 e83c 450f 1fbd aae1 a23b
000002d0: 6059 6abd 6d95 9abc 9e83 6e3c 4ac7 263d
000002e0: 115c 00bc d854 80bd a69c 573c dd98 80bd
000002f0: 49bd a23d 2a3c 5fbc b666 23bd eac1 e7bc
00000300: 3867 0dbc caa9 a6bd 9604 433c 9dca 91bd
00000310: 11c5 4dbc a62c 05bd 36c3 e73c 21c5 153c
00000320: 39a1 6abd a6c8 d13d ad48 113d 6617 ebbc
00000330: 92a4 8db9 8c1e 8e3c 7868 753c 4224 0a3d
00000340: 2920 18bc dae5 0f3d c6e0 55bc 00ae 8bbc
00000350: f071 3abd aa07 14bc 8291 9ebc 9f32 b7bc
00000360: 42cd d3bc 27ad 24bd 820d c23c 48d9 bd3c
00000370: 570a 0cbd 026d 52bd a805 1fbd aea1 8bbc
00000380: 5b6f 103d 696f cebc 0fe5 e0bc 5290 05bd
00000390: 7c0b eebc 06bc 62bd 8163 febc 09a4 543d
000003a0: ae61 243d 6c2a 5fbc c6c5 14bb 6ee2 443d
000003b0: 1c44 50bd ff53 3ebd de9a 86bd bfe9 44bd
000003c0: dce7 c83c af16 483c b5f7 843d 3a1a 2fbd
000003d0: cff5 14bd 727a 6bbd 0aff afbd 49a0 293a
000003e0: 9601 04bd 1c45 f8bc 84d2 48bc 1548 e1bb
000003f0: 718f 2c3c 2c2a 8bbd a3a9 10bc f824 393d
0.022588024 -0.030416345 -0.008126155 0.017290527 0.044778008 0.01226338 -0.12869069 -0.010566943
0.041103996 -0.047782205 0.12435311 0.006415874 0.06265356 -0.045062773 -0.028394405 -0.07103649
-0.05563452 0.025725827 -0.05919555 0.025662407 -0.008379594 0.005369979 -0.029329708 -0.020943977
0.017711144 -0.021281233 0.067801565 -0.02974597 -0.059611585 0.06562477 -0.022912199 -0.027322773
0.0660183 0.023514934 -0.03601733 0.08432089 -0.024941426 -0.01365173 -0.0135759255 0.03291035
-0.010409756 0.027458336 0.03265693 -0.038241882 -0.028590184 0.042014033 -0.025937688 -0.023555823
-0.017474785 -0.026856579 -0.04285548 -0.017210945 -0.088681325 0.023214605 -0.024166206 0.05847603
0.040453404 -0.029948648 0.0055942135 0.009564849 0.010633679 -0.03515084 -0.036645308 -0.01759952
-0.09669177 -0.0662543 -0.021686481 -0.007673154 0.072600596 -0.063271105 0.00352809 -0.011025593
-0.04193685 0.080293894 0.032158583 -0.032603774 0.019578928 -0.017647866 0.023266476 -0.024304766
-0.012999964 -0.050847393 -0.07240156 -0.054550067 -0.08305836 -0.020346753 -0.018304065 -0.016161136
-0.017488882 -0.034682646 -0.013917239 -0.022410123 -0.020453734 0.0068578087 -0.05000379 0.026772397
-0.03740558 0.05783303 -0.011800003 -0.10961292 -0.08725808 0.029179577 0.049762864 -0.0335778
-0.0039023773 -0.012638729 -0.015387801 0.022396732 -0.030381884 -0.057017937 -0.06399144 -0.030583693
-0.012289652 -0.018478997 -0.03371218 -0.0019804486 0.031124186 -0.0042095743 -0.059296187 -0.09830009
-0.05420921 0.037989736 -0.02973079 0.0274567 -0.02474208 -0.0074800327 -0.06360638 -0.038422022
0.04375772 -0.09677296 -0.00076655566 0.019046992 -0.012578502 -0.06495827 0.09244937 -0.035438683
0.018946934 -0.017317072 0.050369885 0.028511308 -0.022799592 -0.013689203 -0.033200514 -0.10510102
-0.06641259 -0.070403315 0.005203922 0.020367227 -0.0016839949 -0.022337984 0.0030524614 0.00026488723
0.014138734 -0.10287276 0.045517977 0.07738309 0.012031033 -0.08325596 0.00842507 0.06074706
-0.019994281 0.04980296 -0.012727822 -0.010916374 0.026778854 0.0005418657 0.036411047 -0.03802571
0.033859868 -0.016218174 0.04150752 -0.06435527 -0.09156081 0.051719394 0.039438747 0.07998816
-0.06437932 0.028430384 -0.03883292 0.004970749 -0.05721414 -0.01887008 0.014557747 0.0407174
-0.00783445 -0.06266183 0.0131599065 -0.06279156 0.079462595 -0.013625184 -0.039892875 -0.028290708
-0.008630566 -0.081378534 0.011902949 -0.071187235 -0.012559191 -0.032513283 0.028291326 0.0091412375
-0.05728266 0.10243349 0.0354697 -0.02869768 -0.0002701623 0.01734855 0.014978521 0.033725984
-0.009285011 0.035131313 -0.013054078 -0.017050743 -0.045518816 -0.00903503 -0.019356493 -0.022363005
-0.02585471 -0.040204193 0.023688082 0.023174897 -0.03418955 -0.05137349 -0.038823754 -0.017044868
0.035262447 -0.025199609 -0.027452974 -0.032608338 -0.02905821 -0.055355094 -0.031053307 0.05191425
0.040132217 -0.013620954 -0.002270089 0.048067503 -0.050846204 -0.046466824 -0.06572507 -0.04807448
0.024524622 0.012212439 0.06492559 -0.04274962 -0.036367234 -0.05748982 -0.08593567 0.0006470723
-0.032228075 -0.030306391 -0.012257222 -0.006875048 0.010532246 -0.06795153 -0.008829507 0.04520127

model.3.bias f4 [256]
00000000: 7676 ca3d 1958 f23d 8107 8c3d 5694 82bc
00000010: 1e47 7abc 5ae2 bc3c 123c c13d efc5 8b3d
00000020: f4b3 e9bb 8b59 893d 9373 543e cc9f 14be
00000030: 66da ac3d 4dca 85bd 51c1 103e d917 f93c
00000040: 3d5c 5b3e f813 43bd f839 22be 3230 883c
00000050: 52b6 5abb 29be e13d 68ce 643d 8cc0 0b3e
00000060: fd4c 053c c6fd 5f3e bfe4 853c bc81 c73d
00000070: ddc3 9f3d a095 5b3e 5abd 793e bd6f fbbd
00000080: 3e4e c63c 66e3 153c 2864 453d 6fb3 acbd
00000090: c126 f93d a24c 413d e7cf 173d cbac 473e
000000a0: 14f5 073e 6a5b c63d fb4f 423c 2870 953c
000000b0: 675e 33bd 2854 ab3d 38d3 f6bb 6e8b 0e3d
000000c0: a830 d23c 2b4c 4ebd 6e8e cf3b d42f 38be
000000d0: da78 9cbc 9fcd ea3d cadb dcbd 224e 793d
000000e0: d335 9a3d 8e49 213e 8b49 553e 57ed 3e3e
000000f0: b040 32bd d6d4 1a3d 1c30 443e 604a 323e
00000100: 35a4 803d b0a4 c83d b896 463d 4833 473e
00000110: 36bd 0f3d f3f9 ed3d 02c6 c33c bcb9 b7bd
00000120: 7550 483d c314 c1bc 48ba 28bd 5348 873e
00000130: e02d 043b d769 3a3e c648 af3c 9b46 fc39
00000140: 438d 35be 67da 6bbc c230 0abd 2ad7 b93d
00000150: b8da 333e 0297 f2bb 92c1 8ebd 1924 6fbd
00000160: 6237 e1bc 97a1 91bd 7b87 ecbd 1003 e73d
00000170: fe6a ee3b be4b fc3c 1283 afbc 882b f53b
00000180: 2f61 983c 3ca3 ecbd 933b e93d 80a9 923d
00000190: afc8 283d 7326 8fbc 2cc9 d13d 039a d93d
000001a0: 2aeb bd3c 5dc6 233e 9993 683d dc01 ea3d
000001b0: f026 5f3e c2ac d8bd 78da eebd d605 adb9
000001c0: 617f efbd 23a6 b73d ceb8 d7bd 766f 803c
000001d0: f459 b53d d8c4 083e 7a9d 043c 34e3 763d
000001e0: 0f00 d33c 6831 8b3d 993e 393d 8e8b 9dbc
000001f0: 95f2 3f3d 3ae5 273d f7b4 9b3a b109 423e
00000200: 0755 21bd 84e6 f13c 5a04 9ebd 5170 e53d
00000210: 36e0 cebb 7268 f8bd 3fa7 40bd be8f e13d
00000220: 8a50 e63d 44c7 543d 95f3 4a3d 1442 a83c
00000230: 9269 1c3e ef58 42bc a2db 1c3d d719 04bc
00000240: 9956 8c3c 2eac 893b 0603 bbbc 472d 0e3e
00000250: 4a28 56bd 6f80 aa3b d708 913e 5e59 aa3c
00000260: f104 e43c e075 e1bb f7dd aabb 4ec2 8a3d
00000270: 0250 d8bd f231 ea3d d6fe 2fbc 3173 f83b
00000280: 1144 c93d a3b6 123d 3855 c2bd 39df 4e3e
00000290: 8834 443d dd6d 3839 ec15 6bbd 6d5a 30bd
000002a0: ba0d 2a3e f343 fbbb 0295 063c 1fb9 9d3b
000002b0: 88b7 88bd 4c74 813d f4b5 aa3d 1a97 883d
000002c0: 66ea 133e a830 d4bb 6153 143d e77c 7abd
000002d0: 2282 0f3e a489 543e 0497 b1bb c443 aabd
000002e0: e890 783e 32ee 0bbd 6925 293e da73 de3b
000002f0: c7e5 173d b1f8 b4bc dbae 20bc 5c45 0bbe
00000300: 4ad4 093e d05a 433e b4c2 4e3e c364 d03c
00000310: 33b9 b63c 07b1 83bd f68d 8bbb 3084 e43d
00000320: 2c10 203e 715f 3d3e 9815 823b 1884 853a
00000330: a767 2d3d 9b31 cebd 5cf2 453c 9651 7bbd
00000340: ac65 233e 7dc3 6e3e a9b2 1dbc 3a43 3bbd
00000350: 9699 883c 5f13 203e b65e c43d 5489 4c3e
00000360: 5cc9 423e b430 963d 8b02 31be 3eea 223e
00000370: b717 45bc 2a04 bfbd 3743 113d f788 013d
00000380: bc0f 903d d363 033d 56bf 593d 7a6f fdbc
00000390: bcde 393e a328 053e 6d7c 9fbd e190 a9bb
000003a0: a025 143c c7cd 023e 7f3f 3dbc 1fd9 363e
000003b0: 889a 63bc 1476 c63d 5606 85bd 3087 0f3d
000003c0: 2817 033d 4d51 ba3d 287a 9b3d 0610 4d3e
000003d0: 91d1 173d b63e 233e a5f5 743e f223 873c
000003e0: b229 093e 0648 563e 5850 9639 88f2 ff3d
000003f0: 6806 053d ae58 313e 6465 20bd b7e4 b83d
0.09885876 0.118332095 0.06837369 -0.015939873 -0.015275745 0.023057152 0.09435286 0.06824862
-0.007132048 0.06706532 0.20747213 -0.14514083 0.08440094 -0.065327264 0.14136244 0.03040688
0.21421905 -0.047626466 -0.15842426 0.016624544 -0.0033372832 0.11022598 0.055860907 0.1364767
0.008136031 0.2187415 0.016344426 0.09741542 0.0780103 0.21443796 0.24388638 -0.12277172
0.02420723 0.009148454 0.04819122 -0.08432662 0.12165595 0.047192223 0.037063506 0.19499509
0.13277084 0.096854046 0.011859889 0.018241957 -0.0437912 0.08365661 -0.0075325035 0.03480094
0.025657967 -0.05036561 0.0063341176 -0.17986995 -0.019100595 0.11465 -0.10784109 0.06086553
0.075297974 0.15750715 0.20828836 0.18645225 -0.043518722 0.037800632 0.19158977 0.17411184
0.0628132 0.09797037 0.04848358 0.19453156 0.035092555 0.1161994 0.023898128 -0.08970973
0.048904855 -0.02356947 -0.041193277 0.26422366 0.0020168945 0.18204437 0.021397006 0.0004811779
-0.17729668 -0.014395333 -0.033737905 0.090742424 0.17563903 -0.0074032554 -0.06970514 -0.058384035
-0.027492229 -0.07110899 -0.11549278 0.11279881 0.007275938 0.030797835 -0.021424804 0.007481996
0.018601028 -0.11554572 0.11388316 0.07161236 0.04120701 -0.017474389 0.102434486 0.106250785
0.023183424 0.15993638 0.056781385 0.11426136 0.21792197 -0.10579826 -0.11662763 -0.0003300148
-0.116942175 0.08967235 -0.105332956 0.015678149 0.08855048 0.1335634 0.008094186 0.06027527
0.025756864 0.06796533 0.045225713 -0.019231584 0.046862204 0.04099009 0.0011879493 0.1894901
-0.03938773 0.029528864 -0.07715674 0.11203063 -0.006313349 -0.12129296 -0.0470345 0.11013745
0.1124583 0.051947847 0.049548704 0.020539321 0.15274647 -0.011862024 0.038295396 -0.008062801
0.017131137 0.0042014336 -0.02282859 0.1388446 -0.052284516 0.0052032988 0.28327057 0.020794567
0.027834387 -0.006880507 -0.0052144486 0.06775342 -0.10562135 0.114353076 -0.01074191 0.0075820913
0.09827436 0.035818707 -0.094889104 0.2020234 0.04790166 0.00017588535 -0.057393953 -0.043054987
0.16606799 -0.0076680123 0.008214237 0.004813328 -0.06675631 0.0632101 0.08335486 0.06669445
0.14444885 -0.006475527 0.03621233 -0.061154272 0.14014485 0.2075563 -0.005419614 -0.083137065
0.24274027 -0.034162708 0.16518177 0.006788713 0.037084367 -0.022091242 -0.009807314 -0.13600677
0.13459888 0.19077611 0.20191461 0.025438672 0.022305107 -0.0643025 -0.0042588664 0.11158025
0.15631169 0.1849344 0.0039698593 0.0010186462 0.04233518 -0.10068055 0.012081709 -0.061357103
0.15956753 0.2331676 -0.009625115 -0.04571841 0.016674798 0.1563239 0.09588377 0.19974262
0.19022125 0.07333508 -0.17286126 0.15909669 -0.01202958 -0.09326966 0.03546449 0.03162476
0.07034251 0.03207762 0.053160988 -0.030936945 0.18151373 0.13003783 -0.07787404 -0.0051747416
0.009042174 0.1277381 -0.011550783 0.17856263 -0.013891824 0.0969049 -0.06495349 0.035041034
0.032004505 0.09097538 0.07591659 0.20025644 0.037065092 0.15941891 0.23921831 0.016496632
0.13394812 0.20925912 0.0002867009 0.12497431 0.032476813 0.17318985 -0.039159194 0.09027999

model.6.weight f4 [1, 256]
00000000: 7c95 51bb b106 f7bd fb16 17be 05cf 303e
00000010: 8752 e0bd fb43 683e e248 4bbd b6b0 f4bd
00000020: 0d11 3bbe 9785 cfbd 8197 fcbd 4436 77be
00000030: f201 32be 2896 8a3e 8287 c7bd f7b9 8e3e
00000040: b5c6 1bbe 9f1b 42be 9e23 383e a9b3 873e
00000050: 781c 513e 2d84 26be cdef dfbd 6b58 16be
00000060: 44ee 10be 0624 59be 62a8 21be 700c 11be
00000070: 16e6 bbbd 2184 86be ec60 f2bc 62e7 5a3e
00000080: 6297 693e 5567 713e da8a 17be 3e1f 2e3e
00000090: 9c19 febd 58b8 2abe 9d20 993e 4b0a 41be
000000a0: 4066 52be 2143 bfbd d8aa 4e3e 8dcc fabd
000000b0: c5d0 333e ab2b 00be b5b0 12be e93a 893e
000000c0: 7206 8d3e 8ca6 733e c685 8e3e 9803 583e
000000d0: 358a 6e3e 3053 13be 4e96 2c3e b1a8 00be
000000e0: da40 edbd 1c90 e5bd c0aa 2cbe 3cbe 0cbe
000000f0: 2e06 263e 7d5a 56be ddf1 47be ae8a 3dbe
00000100: c0cd 97bd d168 04be ccd0 37be 1858 37be
00000110: 21a3 923e 9a2b 79bd ef0f 423e a68f 45be
00000120: 022c cf3d 16cb 3d3e e6b3 1fbe 421f 72be
00000130: c778 0cbe b1d0 1ebe 8403 a93e 8668 363e
00000140: e2a9 97be ca2f 7a3e 0e7f 6a3e 2730 9dbd
00000150: fc61 4fbe 9643 383e 9cb2 78be ca43 30be
00000160: 7e4e 843e f2a8 34be 3726 8bbe ba46 45be
00000170: ecd2 00be 1fdc 8d3e c1aa c53d 39f4 25be
00000180: 107c 813e 3059 483e 9874 3fbe 2e4f 20be
00000190: 211b 1abd e284 193e 3d1a 38be cdaf c5bd
000001a0: 9418 f9bd 4434 d9bd d7d0 933e a7fc 80bd
000001b0: fbf6 e6bd 647f 05be 460f 84be 6a97 1cbe
000001c0: 47e1 143e 06cf 34be 5282 843e 8e4c 3c3e
000001d0: 80f0 953e c0aa efbd ce94 0dbe bf2b b83e
000001e0: 38d8 9fbd 0815 20be 52e0 b23d ec16 6e3e
000001f0: 3078 d8bd 7222 673e 1e13 14be f8ba 1fbe
00000200: b7f2 183e 5352 8abd 3422 493e 43e2 13be
00000210: d3a5 c5bd dd76 fb3d fc94 21be a600 2ebe
00000220: d4ca a9bd 2255 6b3e fbbd 05be e851 513e
00000230: c98a 2abd dee7 223e e01c 5f3e 9a66 4ebe
00000240: 3428 583e 2393 7d3e 805d 773e a447 1fbe
00000250: 28e3 353e 6b66 5c3e e675 26be 5c45 943e
00000260: 1ffc 8d3e 6f07 413e 62e3 913e cf67 a3bd
00000270: 32bc aabe 0251 1dbe 8ec8 1e3d 4677 813e
00000280: 38f5 b9bd 2a35 a8bd 700a 7e3e 835a 6abe
00000290: 8ade 6d3e 9362 bbbd 4c49 283e 92b2 5fbe
000002a0: 3c75 4abe eb95 4c3e a08a 923e 993f 873e
000002b0: fd06 4b3e 9a0b 023e b0fe dcbd 76b4 1abe
000002c0: db4e 3dbe f6e1 2e3e a73a a93e 1b03 71be
000002d0: 3223 c7bd 7a10 31be 6b8e 773e 61f7 74be
000002e0: aca0 1fbe be12 e33d 9ec1 16be cc62 05be
000002f0: 3eb4 f3bd 9230 473e d2c5 09be 8491 603e
00000300: 53d0 1abe 1e09 6dbe 8ace 2dbe fe41 9e3e
00000310: e328 ae3e 70ed 453e 904e 413e a4b2 74bc
00000320: 2cd4 04be d0e4 06be e4e0 143e f8af 2b3e
00000330: 5ec5 dcbd 77cc 0f3d 400b af3e 15ce 8ebe
00000340: 18c9 51be ccad 4ebe 7a9a f3bb fd5c 4bbe
00000350: e278 ae3e c99f 6abe 3b49 0cbe fe51 2ebe
00000360: f642 3ebe 9856 0dbe bacb 5e3e b30c 17be
00000370: bfb3 4d3e 4493 5fbe 6a23 253e f5e5 393e
00000380: a1c6 fabd 1462 31be 4ea7 73bd e149 303e
00000390: dc2d 10be dd05 06be 4e70 47be 8a96 5b3e
000003a0: 7b12 ffbd c4d1 b9bd bce6 56be e893 01be
000003b0: 18ff 6a3e fa3a e8bd 2be2 0c3e b825 a93e
000003c0: 0341 503e 8e8b e6bd 1de2 1f3e 1060 febd
000003d0: b46c dbbd 8c7c 2bbe 5482 72be d4a7 713e
000003e0: 4ce5 13be 5dae bfbd 50d0 633e cbb8 58bd
000003f0: 6940 9e3e 48c7 fbbd 259c 02be 9ee3 eebd
-0.0031979969 -0.12061823 -0.1475486 0.17266472 -0.10953241 0.22682182 -0.049630053 -0.119477674
-0.18268223 -0.10132902 -0.123335846 -0.24141794 -0.17383555 0.27067685 -0.09742643 0.27876255
-0.1521252 -0.18955849 0.17982337 0.26504257 0.20421016 -0.16261359 -0.1093441 -0.14682166
-0.14153391 -0.21205148 -0.15786889 -0.14164901 -0.09174745 -0.2627268 -0.029587232 0.21377328
0.22811654 0.23574574 -0.14799061 0.17004105 -0.12407228 -0.16671884 0.29907694 -0.18851583
-0.20546818 -0.09338976 0.20182359 -0.12246046 0.17560108 -0.12516658 -0.14325221 0.26802757
0.2754398 0.23794001 0.27836436 0.21095121 0.2329491 -0.14387202 0.16854212 -0.1256435
-0.11584635 -0.11209127 -0.16862011 -0.13744444 0.16213295 -0.20932956 -0.19525857 -0.18509933
-0.074122906 -0.1293061 -0.17950743 -0.17904699 0.28640082 -0.060832597 0.1895139 -0.19293079
0.10115816 0.18534502 -0.1559597 -0.23644736 -0.13717948 -0.15509297 0.33010495 0.1781331
-0.29621798 0.24432293 0.2290003 -0.076752 -0.20252222 0.17994532 -0.24286884 -0.1721336
0.25841135 -0.17642573 -0.27177593 -0.19265261 -0.1258046 0.27707002 0.09651709 -0.16206445
0.25289965 0.19565272 -0.1869682 -0.15655205 -0.03762353 0.14992097 -0.17978759 -0.09652672
-0.12162891 -0.10605672 0.2887027 -0.062981896 -0.112775765 -0.13036877 -0.25792903 -0.15292135
0.14539061 -0.17657098 0.25880677 0.18388578 0.2928505 -0.1170249 -0.13826296 0.35970876
-0.07804912 -0.15633023 0.08734192 0.23250932 -0.10569799 0.22571734 -0.14460418 -0.15598667
0.14936338 -0.06753983 0.19641954 -0.14441781 -0.09650769 0.12278531 -0.1577949 -0.16992435
-0.082906395 0.22981694 -0.13060753 0.20441401 -0.041636262 0.15908763 0.21788359 -0.20156327
0.21109086 0.2476316 0.24156761 -0.15554672 0.17762434 0.21523444 -0.16255912 0.28959167
0.27731416 0.18850492 0.28493792 -0.07978784 -0.33346707 -0.15362933 0.038765483 0.2528631
-0.09079975 -0.08213265 0.24808669 -0.2288609 0.23229423 -0.09149661 0.1643421 -0.21845463
-0.19771284 0.19979064 0.28621387 0.2641571 0.19826885 0.12699738 -0.10790765 -0.15107903
-0.18487112 0.17078385 0.3305256 -0.23536341 -0.0972351 -0.17291442 0.24175422 -0.23922493
-0.15588635 0.11087559 -0.14722297 -0.1302597 -0.11899613 0.19452122 -0.13454369 0.2193051
-0.15118532 -0.23148009 -0.1697332 0.30909723 0.3401557 0.19328856 0.18877625 -0.014935169
-0.12971562 -0.13173223 0.14538914 0.16766346 -0.10779832 0.035107102 0.3418827 -0.27891603
-0.20486867 -0.20183486 -0.0074341865 -0.19859691 0.340766 -0.22912516 -0.1369981 -0.17023465
-0.18580231 -0.13802564 0.21757403 -0.14750938 0.20088099 -0.21833521 0.1612679 0.18154128
-0.12244917 -0.1732257 -0.059485726 0.17215683 -0.14079994 -0.13088174 -0.19476435 0.21444145
-0.12454697 -0.09073213 -0.20986456 -0.12654078 0.22948873 -0.11339374 0.13758151 0.3303659
0.203373 -0.11257087 0.15613599 -0.12420666 -0.10714093 -0.1674673 -0.23682529 0.23599178
-0.14442939 -0.09359429 0.22247434 -0.052910607 0.30908516 -0.12293869 -0.12754877 -0.11664508
