pythorch saved models/fed_discriminator_cgan_ssl.pth (torch, 707590 bytes, 5 tensors)

model.0.weight f4 [512, 86]
0.055338986 -0.093814425 0.11498776 -0.05186476 -0.115896106 0.046129286 -0.070679754 0.010244933
-0.07122607 -0.047858886 0.05601196 -0.105244026 0.11818934 0.04420339 0.02963955 -0.046525307
-0.02542748 0.029734172 0.024072368 -0.06348503 -0.07332623 0.00043778314 0.051657245 0.07584465
0.09049322 0.12473786 -0.07152249 -0.06937469 -0.063652806 -0.02842821 0.11958586 -0.026354823
-0.064934455 0.00503508 0.006597302 0.0105224755 -0.025821785 0.026481599 -0.041094042 -0.014197811
0.005592887 0.1707384 0.02003136 -0.007523976 -0.0693742 0.012266703 0.089018464 0.11664473
-0.07332355 0.08765373 -0.058969602 -0.08731055 -0.008898184 -0.06902448 0.11509298 0.03287073
0.046157856 0.037834946 0.039115675 0.16730653 0.14991334 0.045418948 -0.11047054 0.055559926
-0.04360123 -0.014536977 -0.0104171075 0.088494405 -0.00088818243 0.04701235 0.06639603 -0.110701375
-0.24362075 0.005604704 -0.00582054 0.13099995 -0.26075217 -0.13303283 0.051272735 0.21434641
0.06648843 -0.10342451 0.024609653 -0.2715139 0.1423686 0.04469659 -0.000407518 -0.011318359
0.11306226 -0.14682083 0.102584936 0.087799385 -0.0019401014 -0.088491395 0.059394352 -0.0101394495
-0.019156406 -0.008569811 -0.032523084 -0.015068464 0.16351146 0.074861825 0.0037636617 -0.013761684
0.016852269 0.2193476 0.014037762 0.018483732 -0.013850221 -0.0035484617 0.19794583 -0.0028708228
0.0076087434 0.0006571562 -0.00063113833 -0.08422783 -0.13132384 -0.24975646 -0.08651945 -0.20334634
-0.11549544 0.036210954 0.029395489 -0.045049578 0.035107616 -0.03127081 -0.08309382 -0.12592565
0.2598879 -0.05256154 0.31025124 0.06369634 -0.04691043 0.0021040319 0.03196013 -0.05087645
0.045050062 0.108500704 0.031303268 0.19018774 0.05238873 0.041966327 0.00056199636 -0.0018660368
-0.19273917 0.0009796182 -0.060604833 0.044449404 -0.03921274 0.08200455 0.07919041 -0.04676377
0.097848 -0.16016111 0.038799737 0.030245105 -0.0075602573 0.073835425 0.07626339 0.074025616
0.07349295 0.16416955 0.066254064 0.06657498 -0.00019268953 0.11356775 0.068443984 0.09691061
0.07583188 0.05532046 0.11360422 0.072237395 -0.007658334 0.0078077638 -0.028133824 -0.0042624203
0.053514957 0.07758094 0.056432392 -0.0028795674 -0.103567444 -0.056156307 -0.022740465 -0.060346477
-0.03914973 0.049931645 -0.18000728 -0.00936174 -0.025753625 -0.062417723 0.013284732 0.021996703
0.07499962 -0.00090798934 0.019983266 -0.012444457 -0.028978582 -0.01775324 0.06572663 -0.024678446
0.068066806 -0.12010028 -0.07394102 0.034703944 -0.09892674 -0.05568224 0.16416897 -0.20264624
-0.059533436 -0.05398874 0.073750794 -0.087231174 -0.036144637 0.020391176 -0.02413524 0.24050736
-0.022717144 0.033288244 -0.0067642694 0.02573529 0.13930705 0.123663455 -0.105861366 -0.043481987
-0.13636953 0.16746485 0.08454264 0.06903892 -0.015221049 0.0009123927 0.1263734 -0.0076784026
0.13712136 -0.030472353 -0.05879862 -0.045117475 0.012645507 0.06272544 -0.22445884 -0.06881159
-0.06156596 0.029958308 0.05939115 0.036495976 -0.08685832 -0.13264266 -0.0978692 -0.18817933
-0.10085671 -0.11135227 -0.0102862865 -0.15668058 -0.040543977 -0.14101988 -0.037219986 -0.020660665
00000000: 22ab 623d c721 c0bd b47e eb3d 2570 54bd
00000010: f05a edbd 10f2 3c3d 8cc0 90bd 5dda 273c
00000020: f9de 91bd ae07 44bd cc6c 653d 2e8a d7bd
00000030: 410d f23d 9d0e 353d a4ce f23c 5291 3ebd
00000040: 4a4d d0bc 1495 f33c 6a33 c53c 7004 82bd
00000050: 102c 96bd 4286 e539 8c96 533d 7154 9b3d
00000060: 8254 b93d 9076 ff3d 627a 92bd 5114 8ebd
00000070: 675c 82bd 47e2 e8bc 6ee9 f43d 12e6 d7bc
00000080: 5bfc 84bd 50fd a43b 2e2e d83b 7666 2c3c
00000090: 3588 d3bc f0ef d83c 3a52 28bd ef9d 68bc
000000a0: 8944 b73b 0cd6 2e3e cf18 a43c af8b f6bb
000000b0: 1014 8ebd 48fa 483c 504f b63d 6fe3 ee3d
000000c0: a82a 96bd cc83 b33d 1c8a 71bd e0cf b2bd
000000d0: b0c9 11bc b55c 8dbd deb5 eb3d 75a3 063d
000000e0: 0510 3d3d d1f8 1a3d c237 203d 6752 2b3e
000000f0: e282 193e 3809 3a3d 613e e2bd ce92 633d
00000100: 3497 32bd 802c 6ebc 84ac 2abc 8e3c b53d
00000110: ead4 68ba 0690 403d a4fa 873d 67b7 e2bd
00000120: b877 79be aaa7 b73b 3aba bebb da24 063e
00000130: 4f81 85be c239 08be 5c03 523d a07d 5b3e
00000140: 162b 883d 3bd0 d3bd 2f9a c93c df03 8bbe
00000150: 13c9 113e c613 373d 24a8 d5b9 a370 39bc
00000160: 308d e73d 3358 16be 0d18 d23d 2ad0 b33d
00000170: 004b feba fa3a b5bd 7e47 733d ef1f 26bc
00000180: e5ed 9cbc 6468 0cbc ed36 05bd b8e1 76bc
00000190: 8c6f 273e 2851 993d c4a7 763b b078 61bc
000001a0: c50d 8a3c a89c 603e a4fe 653c 326b 973c
000001b0: 0aec 62bc 4f8d 68bb 50b2 4a3e 6a24 3cbb
000001c0: c452 f93b 0245 2c3a fa72 25ba a47f acbd
000001d0: c279 06be 28c0 7fbe 1c31 b1bd 063a 50be
000001e0: e088 ecbd f051 143d cfce f03c e885 38bd
000001f0: 01cd 0f3d d215 00bd 182d aabd a7f2 00be
00000200: 0710 853e c54a 57bd 40d9 9e3e 3a73 823d
00000210: 2725 40bd cce3 093b a0e8 023d d363 50bd
00000220: 6a86 383d 9e35 de3d db37 003d 93c0 423e
00000230: 9195 563d e2e4 2b3d f052 133a ce95 f4ba
00000240: 6b5d 45be 8866 803a c63c 78bd 9410 363d
00000250: 8a9d 20bd 00f2 a73d 952e a23d 5e8b 3fbd
00000260: 8864 c83d 4601 24be 79ec 1e3d 95c4 f73c
00000270: 09bc f7bb 0737 973d fb2f 9c3d be9a 973d
00000280: 7983 963d 101c 283e 36b0 873d 7758 883d
00000290: b40c 4ab9 3596 e83d 5c2c 8c3d 1279 c63d
000002a0: bf4d 9b3d b597 623d 54a9 e83d 33f1 933d
000002b0: c3f2 fabb 45d8 ff3b e878 e6bc c6ab 8bbb
000002c0: 8032 5b3d c2e2 9e3d a725 673d 20b7 3cbb
000002d0: 2b1b d4bd 2804 66bd 364a babc de2d 77bd
000002e0: 785b 20bd 2085 4c3d d453 38be fc61 19bc
000002f0: 44f9 d2bc baa9 7fbd 34a8 593c 6e32 b43c
00000300: 6799 993d 2206 6eba f2b3 a33c d6e3 4bbc
00000310: 7e64 edbc 3e6f 91bc af9b 863d 742a cabc
00000320: 9c66 8b3d 23f7 f5bd 646e 97bd b925 0e3d
00000330: 1a9a cabd 0f13 64bd e91b 283e 7f82 4fbe
00000340: 55d9 73bd 4c23 5dbd a80a 973d 42a6 b2bd
00000350: 660c 14bd 650b a73c 44b7 c5bc 9047 763e
00000360: 4e19 babc 4159 083d cea6 ddbb d1d2 d23c
00000370: 82a6 0e3e 4443 fd3d d8cd d8bd 2b1a 32bd
00000380: 74a4 0bbe e87b 2b3e b124 ad3d 4764 8d3d
00000390: b561 79bc a32d 6f3a 0768 013e 1c9b fbbb
000003a0: 8b69 0c3e 28a1 f9bc d2d6 70bd 1acd 38bd
000003b0: 1a2f 4f3c 3276 803d 8ad8 65be 17ed 8cbd
000003c0: 972c 7cbd 206b f53c 2244 733d ce7c 153d
000003d0: c6e2 b1bd 7ad3 07be a66f c8bd 15b2 40be
000003e0: f68d cebd a90c e4bd d087 28bc e070 20be
000003f0: 7111 26bd 8467 10be fc73 18bd 8e40 a9bc

model.0.bias f4 [512]
-0.030563891 0.22300787 -0.15537873 0.11484745 -0.014135101 -0.0788517 -0.09030468 -0.17432557
0.059371013 -0.2256396 -0.13453898 -0.30529898 0.059960958 -0.18928415 0.018419534 0.016917594
-0.19878434 -0.111011796 -0.23971859 -0.1521918 -0.06974471 -0.041351974 -0.03481818 -0.037632123
-0.084563084 -0.0056200786 0.14037712 -0.16337861 -0.28659913 -0.16528077 -0.06354593 0.093677334
-0.06210427 -0.18620443 -0.17870906 -0.083740994 -0.16377082 -0.028309215 0.13329616 -0.06916666
-0.35697952 -0.04712685 -0.13837063 -0.1482682 -0.09734087 -0.05960622 -0.17377977 -0.025957167
0.0014593509 -0.17620602 0.12701075 -0.18351349 -0.08456875 -0.06042657 -0.073546626 0.023514211
-0.15893449 -0.02762431 -0.016002454 -0.25252193 -0.16348296 -0.15641542 0.103913836 -0.031266145
-0.15331379 -0.26235867 0.006983274 -0.010387079 -0.1813013 -0.08691839 0.025133966 0.16685757
-0.14130451 -0.14733088 -0.2397964 -0.2234928 -0.19657555 -0.20930511 -0.17107302 -0.15705311
-0.15061398 -0.10041132 -0.25281918 -0.17869908 -0.07288461 -0.15749976 -0.15900964 -0.14155112
-0.11087627 -0.13500279 -0.10423121 -0.2831244 -0.0026144306 0.018440764 -0.025074132 -0.18008204
-0.13488844 -0.117044546 0.0030402145 -0.17144684 0.10007402 -0.11075726 -0.07624152 -0.080473706
-0.28736636 -0.16385898 -0.0814917 -0.12346823 -0.15746167 -0.048778005 -0.21029189 0.17883231
-0.078865096 0.039954763 -0.017611941 -0.2547803 0.0048455293 0.080833375 -0.0070741624 -0.12097037
-0.047482807 -0.15391801 -0.13200673 -0.13420379 -0.119654536 -0.28464785 -0.122182146 0.02083308
-0.05709937 -0.12826468 0.07660255 -0.14740233 0.13396893 -0.21120532 -0.08231324 -0.09860556
-0.087998435 -0.1990475 -0.14805791 -0.16954045 -0.11220194 -0.07502964 -0.05057869 -0.14362457
-0.05070565 -0.12426621 -0.14414288 -0.0038545444 0.0109635405 -0.21149348 -0.19117129 -0.11053676
-0.250699 0.14754044 -0.046304632 -0.11951298 -0.16372728 -0.1552578 -0.18220334 -0.12122199
-0.14217311 -0.010372737 -0.10764877 -0.12280336 0.11467127 -0.12253778 0.17369314 -0.105226524
-0.0983928 -0.09787579 -0.020876937 -0.19023259 0.13580358 -0.13122714 -0.2922522 -0.2713979
-0.18833923 -0.17634094 -0.17777938 -0.10849732 -0.11197986 -0.05069145 -0.25830224 -0.080849
-0.13557419 0.0023693042 -0.123247124 -0.14896329 -0.12880646 -0.10816052 -0.07670334 -0.16123053
-0.011095219 -0.15429008 -0.12560661 -0.07107773 -0.25177798 0.0043555396 -0.20915452 -0.09854353
-0.082520045 0.10612182 -0.14592293 0.06794044 -0.21306297 -0.054135736 -0.28445086 -0.11491117
-0.1313111 -0.03426004 -0.09602068 0.008796515 -0.37440127 -0.007904696 -0.124088466 -0.21879414
-0.14027297 -0.21112218 0.029257368 0.045359205 -0.30480173 -0.2242724 -0.13563709 0.11795909
-0.13461985 -0.052672625 -0.16510478 -0.18880512 -0.20303717 -0.07925819 0.030532263 -0.008546989
-0.096911386 -0.196937 0.22538568 -0.010316459 -0.050829493 -0.0019773657 -0.19541651 -0.12594262
-0.18623978 -0.057984132 -0.04673487 -0.1570355 -0.07151725 -0.1031854 -0.16257353 0.03385351
-0.26297748 -0.13091777 -0.040392242 -0.07946397 -0.085051805 -0.042494513 -0.20359284 0.09441471
00000000: 2061 fabc 2d5c 643e 9a1b 1fbe 2435 eb3d
00000010: e996 67bc 007d a1bd a9f1 b8bd 6782 32be
00000020: 052f 733d 110e 67be 96c4 09be 2650 9cbe
00000030: 9f99 753d b4d3 41be 90e4 963c c496 8a3c
00000040: 1f8e 4bbe 275a e3bd ca78 75be 2bd8 1bbe
00000050: 51d6 8ebd b060 29bd 829d 0ebd 2424 1abd
00000060: 692f adbd a328 b8bb 05bf 0f3e b94c 27be
00000070: 1fbd 92be 5d3f 29be 5e24 82bd e7d9 bf3d
00000080: 0c61 7ebd 60ac 3ebe 82ff 36be 6680 abbd
00000090: 8ab3 27be bae8 e7bc ca7e 083e 40a7 8dbd
000000a0: 05c6 b6be 1508 41bd 08b1 0dbe 9ed3 17be
000000b0: a65a c7bd a725 74bd 53f3 31be 20a4 d4bc
000000c0: b147 bf3a 5a6f 34be 1b0f 023e f6ea 3bbe
000000d0: 6132 adbd da81 77bd 9d9f 96bd e0a0 c03c
000000e0: b9bf 22be 614c e2bc 9417 83bc 8e4a 81be
000000f0: 1468 27be 5d2b 20be c7d0 d43d ee10 00bd
00000100: 4afe 1cbe e053 86be f3d3 e43b 912e 2abc
00000110: 0ca7 39be 4502 b2bd bfe5 cd3c b6dc 2a3e
00000120: 21b2 10be e8dd 16be 308d 75be 4cdb 64be
00000130: 1a4b 49be 1454 56be c42d 2fbe 88d2 20be
00000140: 8d3a 1abe 73a4 cdbd 8471 81be e4fc 36be
00000150: 8744 95bd 9e47 21be 6cd3 22be c7f2 10be
00000160: 1913 e3bd 2c3e 0abe 2c77 d5bd aef5 90be
00000170: de56 2bbb 1611 973c 4468 cdbc 6d67 38be
00000180: 3220 0abe 0db5 efbd 563e 473b c38f 2fbe
00000190: 9cf3 cc3d b4d4 e2bd 8424 9cbd 66cf a4bd
000001a0: af21 93be a6ca 27be 1fe5 a6bd e9dc fcbd
000001b0: a23d 21be 72cb 47bd c256 57be d11f 373e
000001c0: 0684 a1bd 9ba7 233d eb46 90bc 9072 82be
000001d0: 3fc7 9e3b f88b a53d 60ce e7bb 50bf f7bd
000001e0: 557d 42bd af9c 1dbe c62c 07be b86c 09be
000001f0: 700d f5bd 5dbd 91be a23a fabd 23aa aa3c
00000200: 07e1 69bd d157 03be cce1 9c3d a3f0 16be
00000210: 272f 093e 3546 58be d893 a8bd b6f1 c9bd
00000220: 8638 b4bd 1cd3 4bbe 7e9c 17be 039c 2dbe
00000230: 21ca e5bd 24a9 99bd 9a2b 4fbd 5212 13be
00000240: bab0 4fbd 487f febd 319a 13be 869c 7cbb
00000250: 6ca0 333c bf91 58be 68c2 43be 1961 e2bd
00000260: 9f5b 80be d714 173e eda9 3dbd 39c3 f4bd
00000270: 20a8 27be e7fb 1ebe 8393 3abe 3c43 f8bd
00000280: d495 11be 6af2 29bc f576 dcbd 5480 fbbd
00000290: c5d8 ea3d 16f5 fabd 9ddc 313e 0181 d7bd
000002a0: 2a82 c9bd 1a73 c8bd 1c06 abbc 55cc 42be
000002b0: 1810 0b3e 6860 06be 15a2 95be aaf4 8abe
000002c0: 00dc 40be b892 34be cc0b 36be d833 debd
000002d0: b255 e5bd d6a1 4fbd 3140 84be 2994 a5bd
000002e0: f6d3 0abe 5446 1b3b fd68 fcbd d589 18be
000002f0: d7e5 03be 4383 ddbd a416 9dbd 9e19 25be
00000300: b9c8 35bc 38fe 1dbe 059f 00be 3391 91bd
00000310: 0be9 80be eab8 8e3b 9a2c 56be 31d1 c9bd
00000320: 4500 a9bd 6656 d93d d26c 15be 5b24 8b3d
00000330: 2e2d 5abe 6fbd 5dbd 8ba3 91be 8c56 ebbd
00000340: 6b76 06be 4154 0cbd 7ea6 c4bd 421f 103c
00000350: 86b1 bfbe b382 01bc 1822 febd 920b 60be
00000360: b8a3 0fbe 6a30 58be 26ad ef3c 93ca 393d
00000370: f90e 9cbe aaa7 65be 73e4 0abe 8994 f13d
00000380: c9d9 09be 40bf 57bd 3a11 29be 2156 41be
00000390: fae8 4fbe 1e52 a2bd cc1e fa3c ac08 0cbc
000003a0: 7a79 c6bd daa9 49be 81cb 663e 5e06 29bc
000003b0: 9632 50bd b196 01bb 441b 48be 1af7 00be
000003c0: a4b5 3ebe c580 6dbd 106d 3fbd eacd 20be
000003d0: a377 92bd de52 d3bd ad79 26be faa9 0a3d
000003e0: fca4 86be 4f0f 06be 5672 25bd 02be a2bd
000003f0: a42f aebd ba0e 2ebd a47a 50be 805c c13d

model.3.weight f4 [256, 512]
0.07694331 0.024491418 -0.009502895 -0.022407245 -0.037476797 -0.042103343 0.07995963 0.04704898
0.017766384 -0.104406014 -0.022687828 0.01058322 0.028547512 -0.12747961 -0.006500346 0.054629177
-0.058250546 -0.121827975 0.09561409 -0.060480993 0.115546234 0.61296076 -0.004374872 -0.011689931
-0.03521856 0.01590519 -0.002022488 -0.03382646 0.01251011 -0.020938506 0.071330115 0.03756746
-0.0625473 0.034934122 -0.12723544 0.015608415 0.00093198766 -0.073013164 -0.022423988 0.026853323
-0.059851184 0.01774611 0.0016670702 -0.042429805 -0.065162435 -0.0740254 -0.00750137 -0.027976079
0.020103477 0.14597906 -0.04113106 -0.0060723675 -0.09578814 -0.057195127 -0.0005472921 -0.13129134
-0.063556306 0.05358921 -0.012837825 -0.050692927 0.0022897564 -0.009349233 0.049421996 -0.07323803
0.085921764 0.2982897 0.008181389 0.11848101 -0.06243948 -0.03228435 -0.0008643184 -0.06544599
-0.013051028 0.0048498996 0.08115938 0.06512069 -0.067151085 -0.035080384 -0.0676962 -0.12683953
-0.02856072 0.02101183 0.050700333 0.17185438 0.07108514 0.08324978 -0.035494722 -0.012084311
-0.0035608024 0.010306613 -0.050830223 0.027803661 -0.15631612 -0.015872862 0.038012646 0.108551666
-0.09215158 0.037550148 0.09727636 0.028593013 -0.03409401 0.036414698 -0.067953974 -0.010102267
0.001548437 0.0509141 0.027204584 0.1788369 0.021172386 0.033469506 0.004517208 0.04829119
0.10517435 0.040218003 -0.11537627 -0.006279966 -0.031004513 -0.04536458 0.67923594 0.042219266
0.0021886094 -0.04034753 -0.05404769 0.07335733 0.030662937 0.091335386 0.15805534 -0.07391698
-0.006887898 -0.052581243 0.053274028 -0.065924466 0.027209748 0.027884651 0.022895722 -0.14437325
0.011525205 -0.065334246 0.037439473 0.0005930731 0.035344746 -0.07064483 0.03523499 0.069479324
0.032730523 0.045144647 0.007377656 0.11970484 0.015560016 -0.043422375 -0.06326332 -0.038345866
0.070611425 0.01526344 0.008968413 -0.10428041 -0.1425004 0.12396703 -0.104717985 0.05055982
0.0403624 0.021702176 0.029207557 -0.035967343 -0.0010163252 -0.019118853 -0.019672606 0.018466981
0.012025921 0.0107583525 0.019547846 -0.004732592 0.06726685 -0.014825221 -0.06853008 -0.14002362
0.04173173 -0.08429486 -0.13939664 0.015795937 0.016766457 0.060757287 0.012816961 0.019032415
0.15307638 0.0011033167 -0.048343815 -0.0336049 0.04749033 0.038538277 0.092472464 -0.042182434
0.040301614 0.39547873 -0.027279321 0.0055722725 -0.0709312 -0.014001122 -0.01900021 0.069623254
0.0075262166 -0.049561474 0.050769903 0.03612925 -0.031093165 0.05725883 -0.042057738 0.055348963
0.030075336 0.018785806 0.041758172 0.012598213 0.102351226 0.003244613 0.16458698 -0.015814874
0.05549327 -0.09501547 -0.028660282 -0.02568264 0.08079955 -0.0033997744 0.043151554 -0.034020506
0.05011145 -0.013769152 -0.019188961 -0.022957487 -0.1237507 0.076988116 -0.052833103 0.03522145
0.017895563 0.045640424 -0.013765977 0.013776865 0.015273724 0.11913322 -0.016492402 -0.049197722
0.031936727 0.07467934 -0.02376816 0.031625036 0.12560019 0.04225427 0.038903177 -0.06578187
0.0365837 0.117461756 0.018258093 0.0044041257 -0.06404457 -0.12566024 0.028828908 -0.09736551
00000000: 7494 9d3d 3aa2 c83c 08b2 1bbc 668f b7bc
00000010: 4581 19bd 8e74 2cbd e0c1 a33d 6eb6 403d
00000020: cf8a 913c d2d2 d5bd d3db b9bc 3e65 2d3c
00000030: 79dc e93c 048a 02be db00 d5bb d8c2 5f3d
00000040: 2098 6ebd f280 f9bd 52d1 c33d ebba 77bd
00000050: 81a3 ec3d ffea 1c3f 165b 8fbb 2087 3fbc
00000060: 5641 10bd 9a4b 823c b88b 04bb 9d8d 0abd
00000070: 34f7 4c3c 3b87 abbc 8615 923d 56e0 193d
00000080: cc18 80bd 1517 0f3d 024a 02be 70ba 7f3c
00000090: a250 743a ed87 95bd 83b2 b7bc 80fb db3c
000000a0: 8426 75bd 4a60 913c 9881 da3a e0ca 2dbd
000000b0: e273 85bd a19a 97bd 0dce f5bb 172e e5bc
000000c0: 0cb0 a43c 897b 153e 0b79 28bd b6fa c6bb
000000d0: 932c c4bd 7045 6abd 2778 0fba 3d71 06be
000000e0: cf29 82bd 5c80 5b3d be55 52bc 63a3 4fbd
000000f0: bd0f 163b 862d 19bc b86e 4a3d d2fd 95bd
00000100: c0f7 af3d 6db9 983e 3c0b 063c 2ca6 f23d
00000110: 8ac0 7fbd 983c 04bd 6d93 62ba 8c08 86bd
00000120: fbd3 55bc e8eb 9e3b e436 a63d ff5d 853d
00000130: 8286 89bd 73b0 0fbd 4ea4 8abd 39e2 01be
00000140: 2cf8 e9bc 0021 ac3c 27ab 4f3d 98fa 2f3e
00000150: 1695 913d dc7e aa3d ea62 11bd 46fd 45bc
00000160: 5a5c 69bb 11dd 283c 5a33 50bd 81c4 e33c
00000170: 5511 20be ce07 82bc 26b3 1b3d 5650 de3d
00000180: f8b9 bcbd 2fce 193d d438 c73d e53b ea3c
00000190: 29a6 0bbd 9427 153d 742b 8bbd fb83 25bc
000001a0: edf4 ca3a 4e8b 503d 26dc de3c 0521 373e
000001b0: b671 ad3c 5217 093d 1605 943b fccc 453d
000001c0: a665 d73d a2bb 243d 654a ecbd 2cc8 cdbb
000001d0: 2dfd fdbc 36d0 39bd 68e2 2d3f 1cee 2c3d
000001e0: c66e 0f3b 7443 25bd 1c61 5dbd 5e3c 963d
000001f0: d730 fb3c 0c0e bb3d 42d9 213e c961 97bd
00000200: e0b3 e1bb 6e5f 57bd de35 5a3d 6803 87bd
00000210: fae6 de3c 5a6e e43c cf8f bb3c 95d6 13be
00000220: 37d4 3c3c f6cd 85bd 225a 193d 7678 1b3a
00000230: a7c5 103d 3dae 90bd 9152 103d 2d4b 8e3d
00000240: 7110 063d 98e9 383d 44c0 f13b d027 f53d
00000250: 70ef 7e3c a9db 31bd 3390 81bd 8e10 1dbd
00000260: b99c 903d 8213 7a3c 40f0 123c f890 d5bd
00000270: a0eb 11be 6de2 fd3d 6276 d6bd d017 4f3d
00000280: 0b53 253d c3c8 b13c b044 ef3c 7e52 13bd
00000290: 3736 85ba 249f 9cbc 7228 a1bc 1148 973c
000002a0: 5e08 453c cd43 303c ce22 a03c dc13 9bbb
000002b0: 34c3 893d 7ce5 72bc 8059 8cbd 5a62 0fbe
000002c0: e4ee 2a3d c9a2 acbd febd 0ebe 7b66 813c
000002d0: cf59 893c a2dc 783d 3bfe 513c dee9 9b3c
000002e0: 0ec0 1c3e 2a9d 903a 2a04 46bd 4ba5 09bd
000002f0: 3885 423d 50da 1d3d 3462 bd3d 7dc7 2cbd
00000300: 4e13 253d 307c ca3e e278 dfbc 9c97 b63b
00000310: 6144 91bd f664 65bc 54a6 9bbc a396 8e3d
00000320: 7b9e f63b f900 4bbd 1af4 4f3d 44fc 133d
00000330: 18b7 febc 3c88 6a3d bc44 2cbd 98b5 623d
00000340: 8d60 f63c b1e4 993c 9e0a 2b3d bc68 4e3c
00000350: 859d d13d 93a3 543b 7d89 283e 328e 81bc
00000360: e94c 633d 7997 c2bd f8c8 eabc 6664 d2bc
00000370: 3c7a a53d c0ce 5ebb afbf 303d 1659 0bbd
00000380: aa41 4d3d 0298 61bc 2b32 9dbc 5711 bcbc
00000390: 0271 fdbd f2ab 9d3d 8667 58bd 5e44 103d
000003a0: b799 923c 74f1 3a3d b18a 61bc 5cb8 613c
000003b0: a43e 7a3c 1efc f33d 131b 87bc 8d83 49bd
000003c0: 16d0 023d 7bf1 983d 72b5 c2bc 4189 013d
000003d0: 569d 003e d012 2d3d f058 1f3d a5b8 86bd
000003e0: cad8 153d ca8f f03d ff91 953c 7c50 903b
000003f0: cd29 83bd 14ad 00be 9a2a ec3c 9267 c7bd

model.3.bias f4 [256]
0.014335363 0.17403989 0.03425216 0.0041935137 -0.015762154 0.0083262995 0.17252246 -0.04559219
0.056010935 -0.06689136 0.08291437 -0.06714044 0.025259601 -0.119089335 0.17655194 0.08610854
-0.029634219 -0.021370616 0.15896516 0.014993632 0.016940838 0.15652286 0.036913145 -0.05481374
0.061952204 0.1422391 0.07286706 0.04372169 0.028627723 0.101394996 -0.12808762 0.025435455
0.05721134 0.025159637 0.06615785 -0.008270833 0.015545275 -0.09023581 -0.016885174 0.025202738
-0.2409286 -0.02266258 0.1998615 0.11407571 -0.054386325 0.1148263 0.11252633 0.102561064
-0.08243409 0.05157855 0.005576101 0.05939194 -0.071317345 0.049002744 -0.08115282 0.1470367
0.05971422 0.19421835 -0.06636164 -0.1565025 0.080641635 0.24327436 -0.058697596 0.09187785
0.051448822 0.13857277 -0.16957287 0.11324441 -0.0249426 -0.006085672 -0.018848475 0.04494659
0.06495656 -0.049701914 0.09343895 -0.036359716 0.0432024 -0.14965662 0.1658839 -0.0692025
-0.04423876 0.064244695 0.21823578 -0.04459562 0.057421423 0.03262529 0.08481932 0.061170787
0.16110669 -0.038741678 0.15385441 0.032948326 0.14274597 0.04491569 -0.115527645 0.07515373
-0.041197456 0.03705108 0.051246848 0.017876266 0.04468147 0.018193446 0.15957291 -0.14932649
-0.017960584 -0.06732566 0.037049703 -0.18176268 -0.0063054943 0.109856635 0.16999304 0.20779645
-0.04896067 0.052331056 0.07465616 0.026939858 0.05858723 -0.004728643 0.050928857 0.01883948
-0.03552817 0.1324178 -0.12613845 0.22053649 0.097619146 -0.026712554 -0.04545676 0.02038505
0.08681981 0.037208643 -0.05174365 0.11095537 0.012308783 0.08886883 0.04995745 -0.009141374
0.16113843 0.0529027 0.009638742 0.10037159 -0.016437521 0.03227241 -0.07013688 0.08874053
-0.04673067 -0.09827665 0.06327959 -0.108824 -0.0025145041 -0.09232219 0.033698842 0.044786967
-0.0024178813 0.022658093 -0.1426104 -0.15686648 0.009948174 0.10147446 0.022765517 0.009261807
0.07523906 0.10174053 0.112771735 0.016314944 0.006154547 0.014025438 0.14931494 0.04476977
-0.074332 -0.011698963 0.06355688 0.015593129 0.06708631 -0.0013909527 -0.22087246 0.04098717
0.19872428 0.022967579 -0.03310193 -0.017221611 0.082284845 0.06585838 0.023011316 0.013860597
-0.08300337 0.11786787 0.048929345 0.13760473 0.13063982 -0.04265919 -0.09910029 -0.10916368
0.10157328 0.021199502 0.14303154 0.1448414 0.14490488 0.02881826 0.055366486 -0.11334428
-0.010113142 0.056934677 0.08866571 0.1839203 0.122229144 -0.14988986 0.049967054 0.06599657
-0.05520612 -0.118648484 0.09223622 -0.12954755 0.06592978 0.07448817 0.057072155 0.0361639
0.06322101 0.08814511 0.0701995 0.17932922 0.06326712 0.008812897 0.06266522 0.06528089
0.07181923 0.0653188 0.032627612 -0.06962888 0.06491409 -0.1803864 0.00599477 -0.047429495
-0.006121799 0.110481344 0.013426473 0.10769604 -0.05540574 -0.02681427 0.032440342 0.07008798
0.07289058 -0.009088716 0.049574234 0.11738239 -0.03588723 -0.015472353 -0.21383058 0.04845032
-0.090558425 0.15515353 0.017571252 0.068871334 0.017055742 0.06390732 -0.08145246 -0.060277034
00000000: dfde 6a3c 8337 323e fe4b 0c3d be69 893b
00000010: a21f 81bc 086b 083c baa9 303e e0be 3abd
00000020: b96b 653d 56fe 88bd 02cf a93d ed80 89bd
00000030: 39ed ce3c 1ce5 f3bd 08ca 343e ad59 b03d
00000040: 76c3 f2bc 6e11 afbc c3c7 223e daa7 753c
00000050: 83c7 8a3c 8747 203e 3d32 173d 5f84 60bd
00000060: 98c1 7d3d 20a7 113e 533b 953d 8415 333d
00000070: b084 ea3c 2ea8 cf3d 6729 03be 045e d03c
00000080: 7056 6a3d 951b ce3c c47d 873d 6382 07bc
00000090: 9cb1 7e3c 8dcd b8bd c752 8abc f975 ce3c
000000a0: fdb5 76be e0a6 b9bc 7ea8 4c3e 87a0 e93d
000000b0: 32c4 5ebd 0d2a eb3d 3474 e63d 890b d23d
000000c0: 34d3 a8bd 0844 533d bab7 b63b f644 733d
000000d0: d40e 92bd 1ab7 483d 7333 a6bd ca90 163e
000000e0: e696 743d 2de1 463e 9de8 87bd 3142 20be
000000f0: 7127 a53d ea1c 793e e46c 70bd 742a bc3d
00000100: 00bc 523d 05e6 0d3e 83a4 2dbe afec e73d
00000110: 6c54 ccbc 516a c7bb 1e68 9abc ea19 383d
00000120: f207 853d 3c94 4bbd ec5c bf3d eded 14bd
00000130: 00f5 303d 963f 19be 78dd 293e 0aba 8dbd
00000140: b433 35bd b992 833d 3379 5f3e e6a9 36bd
00000150: ba32 6b3d 19a2 053d c0b5 ad3d 388e 7a3d
00000160: 27f9 243e 98af 1ebd 038c 1d3e d3f4 063d
00000170: 002c 123e 84f9 373d c299 ecbd 33ea 993d
00000180: aabe 28bd e0c2 173d 37e8 513d 3f71 923c
00000190: eb03 373d 6c0a 953c 1567 233e 0be9 18be
000001a0: 1322 93bc 09e2 89bd 6ec1 173d ff1f 3abe
000001b0: 529e cebb 84fc e03d a812 2e3e 98c8 543e
000001c0: fc8a 48bd 1759 563d 54e5 983d fab0 dc3c
000001d0: 2af9 6f3d bcf2 9abb c79a 503d 4155 9a3c
000001e0: fd85 11bd 8898 073e 702a 01be 51d4 613e
000001f0: 8cec c73d 49d4 dabc de30 3abd 8cfe a63c
00000200: 96ce b13d 1768 183d 26f1 53bd 923c e33d
00000210: c7aa 493c dc00 b63d 2fa0 4c3d b4c5 15bc
00000220: 7901 253e 80b0 583d d0eb 1d3c 9f8f cd3d
00000230: fba7 86bc 1330 043d eda3 8fbd 98bd b53d
00000240: a968 3fbd 4545 c9bd bb98 813d 1edf debd
00000250: 61ca 24bb 6b13 bdbd cc07 0a3d 8a72 373d
00000260: 5175 1ebb 779d b93c 7608 12be 9ba1 20be
00000270: aafd 223c d7d1 cf3d c07e ba3c d6be 173c
00000280: f016 9a3d 575d d03d def4 e63d eba6 853c
00000290: 15ac c93b f3ca 653c 04e6 183e 8260 373d
000002a0: 603b 98bd 02ad 3fbc 1c2a 823d 537a 7f3c
000002b0: 8c64 893d a150 b6ba 642c 62be 2ae2 273d
000002c0: 617e 4b3e 8126 bc3c e495 07bd 5614 8dbc
000002d0: f584 a83d c2e0 863d 3a82 bc3c 8f17 633c
000002e0: acfd a9bd b664 f13d 236a 483d 41e8 0c3e
000002f0: 72c6 053e 67bb 2ebd 18f5 cabd 3591 dfbd
00000300: a705 d03d 94aa ad3c dc76 123e 4e51 143e
00000310: f261 143e 4614 ec3c f8c7 623d 0c21 e8bd
00000320: 98b1 25bc 5634 693d 5e96 b53d 9a55 3c3e
00000330: 4653 fa3d ba7c 19be 41aa 4c3d 3629 873d
00000340: d01f 62bd fafd f2bd 58e6 bc3d 1da8 04be
00000350: 3106 873d 418d 983d 7ec4 693d 9920 143d
00000360: 047a 813d 6c85 b43d c1c4 8f3d 14a2 373e
00000370: 3192 813d f863 103c 9f56 803d fdb1 853d
00000380: f615 933d ddc5 853d 88a4 053d 9699 8ebd
00000390: aef1 843d 36b7 38be c76f c43b 6e45 42bd
000003a0: 5f99 c8bb 0b44 e23d b6fa 5b3c be8f dc3d
000003b0: 21f1 62bd 9aa9 dbbc 2ae0 043d 498a 8f3d
000003c0: a847 953d d6e8 14bc 5a0e 4b3d 2e66 f03d
000003d0: 7dfe 12bd c17f 7dbc 67f6 5abe d873 463d
000003e0: b276 b9bd 91e0 1e3e 96f1 8f3c 6a0c 8d3d
000003f0: 7cb8 8b3c d7e1 823d 8cd0 a6bd 0de5 76bd

model.6.weight f4 [1, 256]
-0.17764872 -0.26962864 0.2878301 -0.17672744 -0.14190353 0.25710252 -0.3253664 -0.30944282
0.3645425 -0.25370914 0.23954596 0.21598157 -0.13660832 -0.29019743 -0.33525744 -0.13947366
0.2068814 -0.2326097 -0.29500932 -0.12999392 0.17086229 -0.038714338 -0.08391872 -0.14160162
0.24230403 0.14143285 -0.29167795 0.34639686 0.34590548 -0.3538 -0.36917245 -0.1872789
0.35224867 -0.39115784 0.3121918 0.17912212 0.2564892 -0.22853464 -0.14143269 0.3283438
-0.42131948 0.1925234 -0.26915506 -0.36868206 -0.27546293 -0.32753265 0.14438525 -0.30863518
-0.27574587 0.2400987 0.22865736 -0.29928178 -0.2807261 -0.15318465 -0.16794884 -0.035313513
0.19766538 -0.28048307 0.20188159 -0.37200835 -0.16484445 -0.31276494 0.20364302 -0.18227872
-0.1846744 -0.32911888 0.20626552 -0.28045806 0.24470675 -0.0836194 -0.11500356 -0.2787374
0.23046894 0.13224377 -0.30156425 -0.18665832 -0.19879965 -0.24210581 -0.29630122 0.25983077
-0.09921234 0.26647097 -0.22422527 0.22520572 0.15203688 0.18086803 -0.0009803949 -0.20517726
-0.27844933 -0.23142001 -0.3015901 0.15693447 -0.119585745 0.19664614 0.15252446 -0.07008133
-0.18262294 -0.11582442 0.2772925 -0.1375815 -0.24868637 -0.20466971 -0.40365016 -0.44198832
-0.1638972 -0.3249331 -0.34645224 -0.3620964 -0.14146395 -0.21076411 -0.14910036 -0.32465032
-0.23692791 -0.18135539 0.3238693 -0.23782341 0.31783298 0.23181929 0.23781042 0.15271768
-0.13774025 -0.21859446 -0.33724943 -0.27590472 -0.20548889 -0.25454968 0.22787815 -0.34530973
-0.28380647 0.27755415 0.2032979 -0.28826946 -0.14814365 0.33607882 -0.18962368 -0.14975235
-0.16038197 -0.2762191 -0.21107866 -0.19193292 0.20578082 -0.13821198 0.18894541 0.32594252
0.20897262 -0.19220692 0.26894277 0.22110017 -0.14662558 -0.2286585 0.27026078 0.21016985
-0.23136015 0.31483024 0.18465582 -0.4203299 0.28013322 0.34747687 -0.27905864 -0.17133418
0.22568858 -0.18440354 -0.38667017 -0.16166985 -0.11822102 0.17115162 -0.42413387 0.18108395
0.20563318 -0.25421715 0.117263086 0.32612175 -0.1899252 -0.16582042 -0.43253016 -0.11218664
-0.33555558 -0.1625801 0.19360174 -0.15843086 -0.21201703 0.33958927 -0.15412237 -0.09438624
0.27079457 -0.20847538 0.2907354 -0.2871041 0.33270407 0.1316205 -0.4666988 -0.28371873
-0.25443587 0.24004385 -0.50096387 -0.2467362 -0.30776662 -0.15512335 -0.19962445 0.24950725
0.21505845 0.2227637 -0.169901 -0.28436226 -0.20636234 -0.25089952 -0.031466126 -0.16150707
-0.2502338 -0.33320832 -0.3140744 0.03791586 0.33980355 0.34393603 0.33747625 -0.32760188
0.3298296 0.2349062 0.2725882 -0.28150812 -0.23963486 0.21390921 -0.1495508 0.24650002
0.14485328 -0.08727978 0.21265307 -0.30268043 -0.20757928 0.18996742 0.303629 -0.24515262
-0.14412372 -0.22092298 0.12857366 -0.32807824 -0.09813655 -0.1428695 0.26567864 0.33710903
0.3594081 0.255679 0.32162574 -0.30212557 0.18460792 0.19523107 -0.3608892 0.1849949
0.24750568 -0.100246795 0.24187039 -0.37316757 0.25576398 -0.09722126 -0.26201552 -0.22918999
00000000: 8ce9 35be c40c 8abe 785e 933e 0af8 34be
00000010: 294f 11be f1a2 833e 6d96 a6be 4a6f 9ebe
00000020: 51a5 ba3e 2ae6 81be 894b 753e 462a 5d3e
00000030: 0de3 0bbe c294 94be dda6 abbe 2fd2 0ebe
00000040: b8d8 533e 3d31 6ebe 760b 97be 201d 05be
00000050: 86f6 2e3e ed92 1ebd 94dd abbd 0400 11be
00000060: 8c1e 783e c6d3 103e d056 95be ee5a b13e
00000070: 861a b13e 4625 b5be 2c04 bdbe 0ac6 3fbe
00000080: f059 b43e d745 c8be 9bd7 9f3e ca6b 373e
00000090: 8d52 833e fc04 6abe bbd3 10be ae1c a83e
000000a0: 30b7 d7be db24 453e b1ce 89be e5c3 bcbe
000000b0: 7a09 8dbe 5cb2 a7be bad9 133e 6e05 9ebe
000000c0: 902e 8dbe 6fdc 753e 2825 6a3e 763b 99be
000000d0: 55bb 8fbe 70dc 1cbe c8fa 2bbe e7a4 10bd
000000e0: cb68 4a3e 7a9b 8fbe 0cba 4e3e e177 bebe
000000f0: fccc 28be ba22 a0be cc87 503e 46a7 3abe
00000100: 491b 3dbe 4582 a8be 4537 533e 3398 8fbe
00000110: 6894 7a3e a640 abbd fd86 ebbd abb6 8ebe
00000120: 0d00 6c3e e96a 073e a166 9abe 5c23 3fbe
00000130: 2392 4bbe 96ea 77be cbb4 97be 8a08 853e
00000140: d72f cbbd e26e 883e 4f9b 65be 549c 663e
00000150: 8eaf 1b3e 7835 393e 9880 80ba fd19 52be
00000160: e990 8ebe 5ef9 6cbe 056a 9abe 6eb3 203e
00000170: 5fe9 f4bd 9b5d 493e 5f2f 1c3e cd86 8fbd
00000180: 8201 3bbe 5a35 edbd 48f9 8d3e 2ae2 0cbe
00000190: a4a7 7ebe f094 51be 3cab cebe 4b4c e2be
000001a0: abd4 27be a25d a6be 3062 b1be b364 b9be
000001b0: eddb 10be 8cd2 57be c4ad 18be 9138 a6be
000001c0: 3b9d 72be 3ab5 39be 32d2 a53e fb87 73be
000001d0: 01bb a23e 0962 6d3e 9384 733e 0662 1c3e
000001e0: c80b 0dbe 3ad7 5fbe f5ab acbe 6243 8dbe
000001f0: ae6b 52be 5654 82be e458 693e 70cc b0be
00000200: 154f 91be 941b 8e3e 532d 503e 0e98 93be
00000210: f8b2 17be 8612 ac3e b62c 42be ae58 19be
00000220: 2c3b 24be 976c 8dbe 0125 58be 108a 44be
00000230: 35b8 523e 7187 0dbe e87a 413e f0e1 a63e
00000240: ebfc 553e e4d1 44be deb2 893e 1568 623e
00000250: 0425 16be 7425 6abe 9f5f 8a3e c436 573e
00000260: ade9 6cbe 6e31 a13e 6a16 3d3e 7b35 d7be
00000270: 9f6d 8f3e 7de8 b13e c6e0 8ebe 3a72 2fbe
00000280: e81a 673e 48d4 3cbe a2f9 c5be c88c 25be
00000290: dd1d f2bd 5f42 2f3e 1328 d9be 126e 393e
000002a0: 8191 523e c028 82be a127 f03d 6ef9 a63e
000002b0: c07b 42be d4cc 29be 9874 ddbe 1cc2 e5bd
000002c0: f1cd abbe 667b 26be 893f 463e b33b 22be
000002d0: fe1a 59be a5de ad3e 41d2 1dbe 934d c1bd
000002e0: 96a5 8a3e 927a 55be 45db 943e 4fff 92be
000002f0: 3058 aa3e 86c7 063e 25f3 eebe 9543 91be
00000300: 6b45 82be 0ece 753e 2b3f 00bf 6aa8 7cbe
00000310: 9693 9dbe a8d8 1ebe 5a6a 4cbe d47e 7f3e
00000320: 4838 5c3e 2b1c 643e 87fa 2dbe ee97 91be
00000330: a650 53be e775 80be a0e2 00bd 1c62 25be
00000340: a51e 80be 489a aabe 5cce a0be a94d 1b3d
00000350: bbfa ad3e 6218 b03e b0c9 ac3e 6fbb a7be
00000360: 6ddf a83e 408b 703e ae90 8b3e d521 90be
00000370: d762 75be 040b 5b3e d823 19be 806a 7c3e
00000380: 6b54 143e bebf b2bd bac1 593e eef8 9abe
00000390: aa8f 54be d286 423e 4375 9b3e 4a09 7bbe
000003a0: 2b95 13be a239 62be d0a8 033e dff9 a7be
000003b0: d1fb c8bd 624c 12be 0807 883e 8e99 ac3e
000003c0: 5704 b83e 5ce8 823e 21ac a43e 34b0 9abe
000003d0: dc09 3d3e a7ea 473e 78c6 b8be 4e6f 3d3e
000003e0: 2172 7d3e 314e cdbd dfac 773e d20f bfbe
000003f0: 7ff3 823e f11b c7bd e626 86be c8b0 6abe
