pythorch saved models/fed_generator_cgan_ssl3.pth (torch, 807014 bytes, 14 tensors)

model.0.weight f4 [256, 117]
-0.02424024 -0.026920175 0.025439978 -0.035760723 0.04730303 0.058011632 -0.0001234606 -0.0058066864
-0.017716907 -0.062155183 -0.0314384 -0.028377617 -0.036967922 -0.010293303 0.0750501 -0.011529646
-0.022784658 -0.14268556 -0.016748292 -0.030356515 -0.066455476 -0.0649156 0.0046063033 0.006041226
0.08108018 -0.027946748 -0.008430249 0.002568319 0.010543166 -0.102932066 0.03208231 -0.020951685
0.061048336 -0.021620221 0.04708772 -0.014739711 0.055078562 -0.00014102852 -0.06728947 -0.015362995
-0.07862341 -0.081994124 0.004156926 0.021041144 -0.047460206 -0.13404112 0.016340448 0.07779626
0.057593998 0.019420225 -0.064728186 -0.023578629 0.058097817 -0.04279958 -0.07144902 0.05397602
0.07204971 -0.0034410586 -0.0015385362 0.038188655 -0.014244882 0.07130112 -0.016591165 0.011967875
-0.024247706 -0.012700009 -0.036648404 0.011983249 -0.036634937 -0.0008105603 -0.030471407 0.0438823
0.13812059 0.03475949 0.036702327 0.014956825 0.04457912 0.0041805706 -0.018063122 -0.075535655
-0.050593782 -0.001136142 0.07746412 -0.062106393 0.055728614 -0.1362168 -0.03496555 -0.025613982
0.039462976 -0.030778976 -0.0039619487 -0.05713713 -0.0052395444 0.06971497 -0.12838507 -0.019169776
-0.005045233 -0.007158078 -0.07173441 0.045598403 -0.010277124 -0.0044064205 -0.022985931 0.03172405
-0.0044711716 0.024885006 0.062762715 -0.058210887 0.13054667 -0.13801934 0.08116605 -0.09757887
-0.036023155 -0.08665795 0.21973902 0.02794041 -0.07435432 0.0438885 -0.0023854342 0.03227651
-0.045203995 0.03085924 0.09737074 -0.01777555 -0.015391732 -0.044225663 -0.017978838 0.05610008
-0.016147953 -0.028358543 -0.0054251873 0.05647663 -0.038042825 -0.0052441494 -0.12795332 0.008555078
-0.027818289 -0.06924478 -0.009404516 0.0039418605 0.012922834 0.05297432 -0.056807373 -0.062100872
-0.043022886 0.040678058 -0.11704911 0.046007633 -0.031228354 0.06131673 0.009250412 0.0625237
0.023074243 0.07999284 -0.034167625 -0.041223317 0.024969107 -0.006224095 -0.012046548 -0.0038562983
0.009435461 -0.015261266 -0.054703794 -0.020714255 0.029826984 0.07167988 0.04313898 -0.06738621
0.042675216 0.022693923 -0.06480086 -0.060538992 0.06559017 0.095100515 -0.03709452 0.0023580696
0.042290896 0.00459945 0.09975585 0.029317008 0.0074093333 0.011305584 -0.067935355 -0.034442924
-0.0400218 -0.06401786 -0.028952584 -0.030184612 0.06567055 0.107290626 0.0027943545 0.054333713
0.024090244 0.050848715 -0.016510112 -0.050830618 -0.06616646 -0.053526424 0.0062854 0.12677747
-0.058874935 0.0791316 -0.09299289 -0.03799233 -0.007517408 0.03324551 -0.054350626 -0.0012584499
-0.07272183 0.016615734 -0.004500755 -0.14708868 -0.049368825 -0.030902145 0.0008508429 -0.08430879
0.05341745 0.03043303 -0.08154453 -0.047372833 0.049735166 0.019380013 0.02963616 -0.02060299
-0.026076563 0.24916205 -0.020811934 -0.0555114 -0.061717592 -0.08903752 -0.034919187 -0.017275123
-0.083125606 0.0943909 -0.006141111 -0.074242264 -0.045183465 0.04765054 0.07901105 0.036194902
-0.01931591 -0.09166561 -0.0838217 -0.08663991 0.0029698522 0.015921742 -0.037823286 0.019362088
0.06409134 -0.018484863 -0.101615064 -0.054093137 0.03331904 0.005757742 -0.055004902 -0.027297765
00000000: 7893 c6bc b387 dcbc 8067 d03c d679 12bd
00000010: d2c0 413d 9b9d 6d3d 3475 01b9 0446 bebb
00000020: 0c23 91bc 6f96 7ebd 8dc5 00bd 2d78 e8bc
00000030: ad6b 17bd 3ea5 28bc deb3 993d d7e6 3cbc
00000040: e4a6 babc 2a1c 12be b733 89bc 3aae f8bc
00000050: cf19 88bd 78f2 84bd 79f0 963b 7af5 c53b
00000060: 5e0d a63d 94f0 e4bc 071f 0abc 3e51 283b
00000070: 3ebd 2c3c 0cce d2bd be68 033d dea2 abbc
00000080: d20d 7a3d e41c b1bc 0edf 403d d47e 71bc
00000090: 0f9a 613d 0ee1 13b9 10cf 89bd 12b5 7bbc
000000a0: 4f05 a1bd 89ec a7bd d336 883b 7a5e ac3c
000000b0: a265 42bd 1342 09be 67dc 853c a553 9f3d
000000c0: afe7 6b3d 2a17 9f3c 3690 84bd f827 c1bc
000000d0: faf7 6d3d 9d4e 2fbd dd53 92bd f615 5d3d
000000e0: cc8e 933d 6283 61bb b5a8 c9ba b56b 1c3d
000000f0: 5e63 69bc 5206 923d 32ea 87bc e814 443c
00000100: 20a3 c6bc b313 50bc a31c 16bd 6455 443c
00000110: 840e 16bd c87b 54ba 2c9f f9bc edbd 333d
00000120: 7c6f 0d3e f85f 0e3d 2e55 163d 790d 753c
00000130: 9898 363d 2bfd 883b 1df9 93bc 70b2 9abd
00000140: 6d3b 4fbd 99ea 94ba 82a5 9e3d 4663 7ebd
00000150: b043 643d 6b7c 0bbe 0938 0fbd 6ad4 d1bc
00000160: eea3 213d 3124 fcbc 3cd3 81bb a008 6abd
00000170: 7cb0 abbb b9c6 8e3d 6077 03be ef09 9dbc
00000180: 7b52 a5bb 4f8e eabb 7ee9 92bd 64c5 3a3d
00000190: 6261 28bc bc63 90bb fe4c bcbc 14f1 013d
000001a0: e882 92bb a4db cb3c bd89 803d 8a6e 6ebd
000001b0: 07ae 053e f154 0dbe 633a a63d 6ed7 c7bd
000001c0: 048d 13bd b979 b1bd 4403 613e 49e3 e43c
000001d0: 1447 98bd 6ec4 333d f254 1cbb 6034 043d
000001e0: d327 39bd 84cc fc3c 4f6a c73d 089e 91bc
000001f0: 9a2d 7cbc f825 35bd 5b48 93bc 33c9 653d
00000200: b648 84bc 2d50 e8bc c5c5 b1bb 0a54 673d
00000210: cbd2 1bbd 1dd7 abbb 3206 03be 992a 0c3c
00000220: 2ee3 e3bc 35d0 8dbd 6615 1abc b92a 813b
00000230: 4bba 533c 9afb 583d d9ae 68bd 7c5d 7ebd
00000240: c438 30bd 099e 263d 72b7 efbd 8072 3c3d
00000250: 9bd2 ffbc 4027 7b3d 0a8f 173c 6d0c 803d
00000260: 3206 bd3c 49d3 a33d 5af3 0bbd c8d9 28bd
00000270: 038c cc3c 7ef3 cbbb e25e 45bc f3b9 7cbb
00000280: 3197 1a3c 640a 7abc 1611 60bd f1b0 a9bc
00000290: b857 f43c e7cc 923d 80b2 303d c801 8abd
000002a0: 35cc 2e3d 9be8 b93c 50b6 84bd bcf7 77bd
000002b0: 2454 863d 0fc4 c23d 6cf0 17bd d889 1a3b
000002c0: 3839 2d3d fcb6 963b cc4c cc3d 392a f03c
000002d0: fec9 f23b 0e3b 393c b121 8bbd 0614 0dbd
000002e0: e6ed 23bd cc1b 83bd f82d edbc b845 f7bc
000002f0: 487e 863d 30bb db3d 7d21 373b 078d 5e3d
00000300: e758 c53c be46 503d 3740 87bc c433 50bd
00000310: 4882 87bd 863e 5bbd c2f5 cd3b f4d1 013e
00000320: d826 71bd c00f a23d 0e73 bebd d89d 1bbd
00000330: 9754 f6bb 722c 083d c39e 5ebd 92f2 a4ba
00000340: 2fef 94bd b81d 883c 127b 93bb 6a9e 16be
00000350: f736 4abd 7f26 fdbc 1a0b 5f3a 16aa acbd
00000360: 42cc 5a3d b14e f93c d200 a7bd 040a 42bd
00000370: 1ab7 4b3d d5c2 9e3c 88c7 f23c 9ac7 a8bc
00000380: 849e d5bc 5624 7f3e ca7d aabc ec5f 63bd
00000390: 96cb 7cbd 4e59 b6bd 6c07 0fbd 8f84 8dbc
000003a0: c23d aabd 0450 c13d 5f3b c9bb 540c 98bd
000003b0: 4c12 39bd 362d 433d 8cd0 a13d 1b41 143d
000003c0: 663c 9ebc 2ebb bbbd b6aa abbd 4470 b1bd
000003d0: daa1 423b 506e 823c 97ec 1abd 3e9d 9e3c
000003e0: 5242 833d 916d 97bc 8f1b d0bd c490 5dbd
000003f0: 8c79 083d 71ab bc3b d24c 61bd 909f dfbc

model.0.bias f4 [256]
-0.040226243 0.048080668 -0.018022396 -0.088144846 0.09121879 -0.07679768 -0.08780926 -0.026481902
-0.0063384883 -0.057229422 -0.03880496 -0.03350953 0.03485061 -0.07558724 -0.015344429 0.09075791
-0.062495384 -0.06985007 -0.027845917 0.07758823 0.01845782 -0.03149329 -0.07301026 0.021435207
0.05533385 0.010677601 0.08679785 0.062888406 0.029979521 0.0051466865 0.0019492749 -0.054686975
0.07548692 -0.023163565 0.04582556 0.0025396189 -0.074781395 0.0053010425 0.039673373 0.038528986
0.07879108 -0.024962272 -0.0016410876 -0.090100035 -0.06462567 -0.06232731 -0.009607838 -0.013670731
0.066904895 0.089354865 -0.0009261685 -0.0006583233 0.05375714 -0.065369815 0.011184084 -0.05823333
-0.058418322 -0.061620273 0.00025033092 -0.08857831 -0.08780857 -0.014886884 0.03105107 -0.061301686
-0.011511741 0.06526591 -0.0482595 0.07108932 0.07570667 -0.0046246536 0.08091409 -0.069295526
0.090243995 0.017612848 0.051211186 -0.07164727 -0.003368559 -0.08837406 -0.08632776 -0.089830324
-0.032911208 -0.052609272 -0.041919854 0.010095957 0.017746411 -0.07232566 -0.020323968 0.013210351
-0.012634013 0.07069242 0.013619592 -0.076479524 0.041114144 0.03546672 0.027695421 0.06763288
0.06756542 0.086723685 0.07322979 0.08586632 -0.032651477 0.08307394 -0.07998891 -0.032640707
0.028854467 0.07091066 0.07638644 -0.010194122 -0.0036425893 -0.067252204 0.03825538 -0.04362068
0.008038765 -0.045215502 -0.022676531 0.053365875 -0.03259609 0.06562273 0.0023278433 0.050040413
-0.06709394 0.017652087 0.012016885 0.04967807 0.035828397 0.00073545513 -0.010130936 -0.05425447
-0.0039979955 -0.022459967 -0.024889162 -0.07462978 -0.0710108 0.02316313 -0.06361471 0.08839043
0.066135615 0.07875387 0.039949924 -0.035276163 -0.04369165 0.06599514 -0.068744704 0.07059725
-0.045503452 0.053368594 0.024719965 -0.03901796 -0.062027976 0.051374245 0.005877534 0.012231229
-0.041443884 -0.037007127 0.07968628 0.048327573 0.038736798 -0.056385424 -0.08335308 -0.0121715935
0.061194856 -0.029084817 -0.024868798 0.018052295 0.03684199 0.010801686 0.027546534 0.0029808402
-0.056178775 -0.018453434 0.052588936 -0.069923 -0.028990291 0.018552473 -0.0035078463 -0.06167758
-0.034389086 -0.039150912 -0.066813156 0.03203403 -0.090550706 -0.08632376 0.022602845 0.06681685
-0.012636806 0.08193946 -0.09050989 -0.0007196248 0.024924789 0.07816192 -0.08443761 -0.08938649
0.059091974 -0.0261988 -0.051660854 0.0490864 0.03469553 -0.08972572 -0.0045599374 0.06457102
0.015181893 -0.010779323 -0.057489403 -0.020090932 -0.0020562222 -0.08973979 -0.06911873 0.051228732
0.08619281 0.030941581 0.06696585 -0.07143437 -0.050187863 0.046006106 -0.029857578 0.040737048
-0.08808014 0.04144821 0.027922563 -0.047310464 0.08240715 0.03606735 0.06279139 0.039402317
-0.08599249 -0.009553229 0.011155262 0.089364015 -0.009868197 0.0043462613 0.0059444113 -0.03462932
0.025482327 -0.0523247 0.0123551935 0.01975134 0.0069133947 0.071260825 0.018036658 0.038715616
-0.07449754 0.012630647 -0.062083587 0.08534595 0.046813972 -0.046311118 0.027530696 0.04352098
0.055886984 -0.08217223 -0.044850457 -0.02555055 0.03827492 0.061117966 0.0891144 -0.014131402
00000000: 46c4 24bd 3cf0 443d b4a3 93bc 4985 b4bd
00000010: ebd0 ba3d 1a48 9dbd 57d5 b3bd 93f0 d8bc
00000020: 18b3 cfbb 6669 6abd f3f1 1ebd 4a41 09bd
00000030: 83bf 0e3d 7ccd 9abd 3367 7bbc 48df b93d
00000040: 29fb 7fbd 8e0d 8fbd 1f1d e4bc 94e6 9e3d
00000050: db34 973c 1cff 00bd 6786 95bd e398 af3c
00000060: bfa5 623d 1bf1 2e3c 12c3 b13d a3cb 803d
00000070: 9d97 f53c 89a5 a83b d07e ff3a 73ff 5fbd
00000080: e398 9a3d 84c1 bdbc 95b3 3b3d bc6f 263b
00000090: fd26 99bd 5eb4 ad3b 8c80 223d 92d0 1d3d
000000a0: 385d a13d ae7d ccbc c319 d7ba 5e86 b8bd
000000b0: 775a 84bd ec4a 7fbd 316a 1dbc 34fb 5fbc
000000c0: 6f05 893d afff b63d 1eca 72ba 5493 2cba
000000d0: 7230 5c3d 9ce0 85bd 733d 373c 1286 6ebd
000000e0: 0d48 6fbd 8a65 7cbd d93e 8339 8c68 b5bd
000000f0: fbd4 b3bd 1ee8 73bc d05e fe3c 7a17 7bbd
00000100: be9b 3cbc 22aa 853d c1ab 45bd 4797 913d
00000110: 190c 9b3d 688a 97bb 49b6 a53d d0ea 8dbd
00000120: d8d1 b83d d248 903c d2c2 513d cebb 92bd
00000130: 0bc3 5cbb 76fd b4bd 9ccc b0bd f6f8 b7bd
00000140: e7cd 06bd d27c 57bd 27b4 2bbd 8369 253c
00000150: ec60 913c 7a1f 94bd 737e a6bc 3a70 583c
00000160: e4fe 4ebc 30c7 903d b624 5f3c 4ca1 9cbd
00000170: 4e67 283d 8d45 113d 82e1 e23c 1b83 8a3d
00000180: bd5f 8a3d 309c b13d 80f9 953d aeda af3d
00000190: 8ebd 05bd ab22 aa3d 3ad1 a3bd 43b2 05bd
000001a0: 3460 ec3c 9c39 913d 7e70 9c3d 3f05 27bc
000001b0: 82b8 6ebb 86bb 89bd acb1 1c3d 99ab 32bd
000001c0: 06b5 033c e433 39bd 22c4 b9bc 2d96 5a3d
000001d0: 7a83 05bd 3665 863d bb8e 183b 2df7 4c3d
000001e0: 8c68 89bd 1c9b 903c 78e2 443c 3b7b 4b3d
000001f0: ccc0 123d 8fcb 403a 3afc 25bc ef39 5ebd
00000200: 9e01 83bb f7fd b7bc 5be4 cbbc 80d7 98bd
00000210: 1c6e 91bd 9bc0 bd3c 6e48 82bd 0b06 b53d
00000220: 1c72 873d b649 a13d 88a2 233d bd7d 10bd
00000230: 04f6 32bd 7628 873d 06ca 8cbd 4a95 903d
00000240: d461 3abd 0799 5a3d 8681 ca3c 4cd1 1fbd
00000250: 0c11 7ebd cd6d 523d 5498 c03b 7e65 483c
00000260: 10c1 29bd c994 17bd 8f32 a33d 22f3 453d
00000270: 7aaa 1e3d 67f4 66bd 05b5 aabd 5d6b 47bc
00000280: 75a7 7a3d 4843 eebc a6b9 cbbc 68e2 933c
00000290: a0e7 163d 8ef9 303c 45a9 e13c 335a 433b
000002a0: b71b 66bd a82b 97bc 7f67 573d ca33 8fbd
000002b0: 0c7d edbc 5bfb 973c e5e3 65bb a1a1 7cbd
000002c0: 92db 0cbd b55c 20bd 56d5 88bd 1d36 033d
000002d0: a672 b9bd 83ca b0bd 9a29 b93c 46d7 883d
000002e0: 9b0a 4fbc e0cf a73d 405d b9bd 34a5 3cba
000002f0: 122f cc3c 5b13 a03d a0ed acbd 4410 b7bd
00000300: 6d0a 723d de9e d6bc 559a 53bd d20e 493d
00000310: e61c 0e3d 1ec2 b7bd 876b 95bb d03d 843d
00000320: 79bd 783c c29b 30bc 027a 6bbd bd95 a4bc
00000330: afc1 06bb 7fc9 b7bd 1f8e 8dbd 38d5 513d
00000340: db85 b03d 3379 fd3c 6425 893d 2f4c 92bd
00000350: ca91 4dbd e670 3c3d e197 f4bc e4db 263d
00000360: 5c63 b4bd 99c5 293d dcbd e43c 9ec8 41bd
00000370: 14c5 a83d 5cbb 133d c698 803d 5364 213d
00000380: d51c b0bd 2685 1cbc 8fc4 363c 7b04 b73d
00000390: 38ae 21bc 156b 8e3b 56c9 c23b 79d7 0dbd
000003a0: 50c0 d03c 6d52 56bd 706d 4a3c 90cd a13c
000003b0: c289 e23b 32f1 913d 9dc1 933c 4494 1e3d
000003c0: 2b92 98bd c6f0 4e3c 5c4b 7ebd dcc9 ae3d
000003d0: 02c0 3f3d bab0 3dbd 0e88 e13c 0e43 323d
000003e0: c0e9 643d ea49 a8bd 1db5 37bd 634f d1bc
000003f0: 2ac6 1c3d d556 7a3d 9c81 b63d 6587 67bc

model.1.weight f4 [256]
0.9372718 0.79736984 0.7569741 0.8666103 0.836604 1.0177336 0.77479464 0.8692061
0.7872444 0.86481977 0.97195935 0.93017423 1.104721 0.7468927 0.8701075 0.9331365
0.89167583 0.86356163 1.1603885 1.0763576 1.3209513 0.9690156 1.0494108 0.76861376
0.91615224 0.93003803 0.94243824 0.80368537 0.85988253 0.7915151 0.7730902 0.95064723
0.8475361 0.851248 0.8918145 0.90642744 1.0108817 0.8203929 0.855228 0.83699906
0.7509168 1.1095835 0.7584563 0.87884146 1.1371162 0.90073514 0.91188866 0.8872964
0.95632815 0.836259 1.0691321 1.2731444 0.8732431 0.79846025 0.9609128 0.8376635
0.75578415 0.8637657 0.88447803 1.0865939 0.7857474 0.8994274 0.9426834 0.77699566
1.0815016 0.91164625 0.8386295 0.84406614 0.7910665 1.1835167 0.77196985 0.9099165
0.82260007 0.7727822 0.9129192 0.9505043 0.78688264 0.87452364 0.9498292 1.1694298
0.9846028 0.83050257 0.76506907 0.8186007 0.98771054 0.91931224 1.0502439 0.8769193
1.075772 0.84427756 1.3475218 0.9538895 1.1532648 0.9715653 0.9557739 0.9094995
0.8234964 0.7420766 0.8832631 1.0442955 0.7713396 0.9706714 0.8227085 1.0026348
0.7945902 0.95904243 1.028413 0.8569723 0.98012084 1.0459945 0.8049002 0.8188578
0.97942793 0.9137326 1.0104971 0.8552084 0.88227105 0.9817714 1.0725687 1.0539744
1.0323604 1.050447 0.76461613 0.89071774 0.9074476 1.0883728 1.0113736 1.105177
0.7395098 1.0407779 1.0183527 0.8144483 0.88913155 1.1033821 1.0939213 1.025027
0.9696425 0.9351602 0.81735843 0.8027551 0.89122415 0.87623644 1.1980734 0.9514263
0.9334127 0.94553494 0.8650078 0.8491948 0.83257854 0.81005836 0.9666555 0.85968643
1.1761469 0.8212394 0.92317045 1.2658334 0.8839742 1.1571915 1.0645881 0.8077046
0.96831304 0.9478264 0.80576825 0.86604923 1.0446075 0.90202534 0.9347575 0.9633827
0.98651963 0.78751487 0.8178862 1.0092751 1.0330406 0.8536711 0.9709279 1.0033079
0.7813758 0.8081287 0.83564085 1.0550126 0.8710107 1.0368143 0.9776473 0.9121422
0.9907137 0.8244178 0.8718399 0.89956963 1.0884004 1.0715796 0.9001253 0.9411228
0.7230009 1.0544187 0.9871091 0.79641503 0.9191093 1.0638127 0.9141655 0.9491105
0.924017 0.88053685 0.7645511 0.8259133 0.8169124 0.93612796 0.9463612 1.0062417
0.9649658 1.0471991 1.1142513 1.1839992 0.81911415 1.123543 1.1984229 0.9340983
1.1037785 0.8565586 0.8818802 1.040984 1.1139319 0.8674531 0.9189156 0.88634515
1.0546265 0.86130214 1.0040711 0.7891245 0.80656624 0.88076454 0.8875873 0.9168097
0.98085326 0.8984726 0.87912464 0.8685997 0.73944736 0.9219992 0.8982166 0.92412406
1.1796842 0.89363134 0.8925622 0.777245 0.83286834 0.99482673 1.0022601 0.82269716
0.9816315 0.9813026 0.8288995 0.9557999 0.940545 0.77126265 0.8086851 1.1760402
00000000: 0bf1 6f3f 6e20 4c3f 0ec9 413f 2cda 5d3f
00000010: ae2b 563f 1845 823f f158 463f 4a84 5e3f
00000020: d988 493f d464 5d3f 54d2 783f e61f 6e3f
00000030: 7f67 8d3f 5c34 3f3f 5dbf 5e3f 09e2 6e3f
00000040: de44 643f 6012 5d3f 9c87 943f 16c6 893f
00000050: ef14 a93f 6811 783f 1853 863f dfc3 443f
00000060: f488 6a3f f916 6e3f a243 713f 53be 4d3f
00000070: 4321 5c3f bca0 4a3f 3de9 453f 9e5d 733f
00000080: 20f8 583f 64eb 593f f44d 643f a10b 683f
00000090: 9264 813f 4505 523f 39f0 5a3f 9245 563f
000000a0: 153c 403f d506 8e3f 312a 423f c1fb 603f
000000b0: 068d 913f 9496 663f 8971 693f db25 633f
000000c0: ecd1 743f 1215 563f 52d9 883f 65f6 a23f
000000d0: dc8c 5f3f e467 4c3f 62fe 753f 1d71 563f
000000e0: 127b 413f c01f 5d3f 276d 623f 8215 8b3f
000000f0: be26 493f e040 663f b353 713f 30e9 463f
00000100: a56e 8a3f a661 693f 6cb0 563f b814 583f
00000110: 5683 4a3f 7a7d 973f d19f 453f 4af0 683f
00000120: eb95 523f 0ed5 453f 13b5 693f 4054 733f
00000130: 2471 493f c8e0 5f3f 0228 733f e0af 953f
00000140: ee0e 7c3f d19b 543f 91db 433f d18f 513f
00000150: 99da 7c3f 0c58 6b3f 646e 863f c97d 603f
00000160: e6b2 893f 9322 583f 987b ac3f 1a32 743f
00000170: 2e9e 933f 81b8 783f 99ad 743f f6d4 683f
00000180: a9d0 523f bbf8 3d3f 881d 623f 7aab 853f
00000190: 8376 453f ec7d 783f 069d 523f 5656 803f
000001a0: 436a 4b3f ce83 753f 0aa3 833f 8962 5b3f
000001b0: 33e9 7a3f 26e3 853f f10d 4e3f aaa0 513f
000001c0: cabb 7a3f 61ea 693f f857 813f f0ee 5a3f
000001d0: 84dc 613f 5f55 7b3f ee49 893f a2e8 863f
000001e0: 6324 843f 0c75 863f e2bd 433f 1406 643f
000001f0: 7c4e 683f cd4f 8b3f b174 813f 7176 8d3f
00000200: 8450 3d3f 3638 853f 6259 823f af7f 503f
00000210: 209e 633f a03b 8d3f 9d05 8c3f 1634 833f
00000220: 7e3a 783f a966 6f3f 673e 513f 5c81 4d3f
00000230: 4427 643f 0851 603f 785a 993f ad90 733f
00000240: 22f4 6e3f 940e 723f 2771 5d3f d564 593f
00000250: de23 553f fc5f 4f3f bc76 773f 6914 5c3f
00000260: fb8b 963f bf3c 523f e654 6c3f d406 a23f
00000270: 224c 623f da1e 943f 6c44 883f bbc5 4e3f
00000280: 5de3 773f c0a4 723f d446 4e3f 67b5 5d3f
00000290: b3b5 853f 22eb 663f 444c 6f3f 40a0 763f
000002a0: 8d8c 7c3f 939a 493f fd60 513f ed2f 813f
000002b0: ad3a 843f 308a 5a3f bb8e 783f 656c 803f
000002c0: 3f08 483f 86e1 4e3f 8fec 553f a70a 873f
000002d0: 8ffa 5e3f 55b6 843f 1847 7a3f 2782 693f
000002e0: 6a9f 7d3f 0c0d 533f e630 5f3f 324a 663f
000002f0: b450 8b3f 8529 893f 9d6e 663f 6ced 703f
00000300: 9616 393f 31f7 863f 2fb3 7c3f dbe1 4b3f
00000310: bf4a 6b3f 042b 883f c006 6a3f e8f8 723f
00000320: 618c 6c3f dd6a 613f 9fb9 433f 0e6f 533f
00000330: 2c21 513f 15a6 6f3f ba44 723f 87cc 803f
00000340: 0008 773f 9f0a 863f c99f 8e3f 498d 973f
00000350: 77b1 513f 42d0 8f3f ec65 993f 1121 6f3f
00000360: 9d48 8d3f 6d47 5b3f e7c2 613f f73e 853f
00000370: 5295 8e3f 6811 5e3f 0e3e 6b3f 84e7 623f
00000380: 00fe 863f 4c7e 5c3f 6785 803f 1004 4a3f
00000390: 207b 4e3f c979 613f ec38 633f 0ab4 6a3f
000003a0: 3319 7b3f 4d02 663f 500e 613f 8d5c 5e3f
000003b0: 6c4c 3d3f 2408 6c3f 86f1 653f 6593 6c3f
000003c0: e4ff 963f 06c5 643f f57e 643f 87f9 463f
000003d0: dc36 553f f7ac 7e3f 0f4a 803f 489c 523f
000003e0: 344c 7b3f a636 7b3f c232 543f 4daf 743f
000003f0: 8fc7 703f 7871 453f fd05 4f3f 7c88 963f

model.1.bias f4 [256]
-0.3723917 -0.33448735 -0.25251502 0.07951634 -0.09625894 -0.6382379 -0.09921719 -0.050557107
-0.022732487 -0.13043289 -0.53633744 -0.4392804 -0.07446326 -0.15453897 -0.114730455 -0.03773683
-0.31893456 -0.060702946 -0.40499848 -0.040429685 -0.46879727 -0.1286997 -0.22329026 -0.11776736
-0.36976773 -0.17600577 -0.19358447 -0.11473787 0.0096024815 -0.13493021 -0.05399794 -0.15000606
0.07251505 0.03669127 -0.21824045 -0.17654915 0.13312532 -0.32542133 0.0057923007 -0.18173185
-0.14082107 -0.59958136 -0.100148365 -0.06871321 -0.44523215 -0.14465234 -0.16743533 -0.19129859
-0.29250935 -0.0699725 -0.5462666 -0.48533785 0.013355041 -0.101332724 -0.43718114 -0.023519607
-0.19319251 -0.25057822 -0.14868155 -0.30465114 -0.08706225 -0.23494112 -0.10708539 -0.13915488
-0.27290255 -0.28200564 -0.19296017 -0.101009674 -0.15737636 -0.3178405 -0.15321368 -0.1005467
-0.1647866 -0.061469197 -0.49774957 -0.037597008 -0.31851286 0.14499761 -0.17602465 -0.17876293
-0.39198142 -0.25563508 -0.16023326 -0.12528089 -0.24869412 -0.34853417 -0.46592018 -0.19141084
-0.48660558 -0.26326895 -0.3239505 0.09604529 -0.056482423 -0.12542331 -0.51667905 -0.1186505
-0.25337207 -0.13648188 -0.1960432 -0.15290636 -0.1089752 0.092432216 0.012096761 0.007979543
-0.12975556 -0.31025177 -0.20747262 -0.12364188 -0.19457409 0.25892624 -0.15585878 -0.13052043
-0.44278252 -0.47830826 0.0066124736 -0.12792042 0.0314801 -0.31066412 -0.58123857 -0.16173686
-0.46632245 -0.21030143 -0.05838116 -0.35959482 -0.19219995 -0.5173021 -0.38626748 -0.64955276
-0.22900948 -0.40022355 -0.42924887 7.9200894e-05 -0.0538246 -0.25468573 -0.28129467 -0.19649285
-0.31780672 0.11280952 -0.20872042 -0.1474178 -0.12263347 -0.12901263 -0.46787784 -0.2651679
-0.17512538 -0.3458296 -0.24661031 -0.10436206 -0.2005678 -0.09597822 -0.45398933 -0.03987806
-0.28216198 -0.14454462 -0.3658684 -0.4843172 -0.04959973 -0.486258 -0.5261084 -0.044333242
-0.16463001 -0.17262061 -0.0063800924 -0.06629627 -0.44261885 0.023704216 -0.15601294 -0.14133655
0.04984538 -0.17971882 -0.14200096 -0.49867418 0.043595467 -0.019071203 -0.10281451 -0.05408328
-0.039736122 -0.19288231 -0.23530355 -0.29653683 -0.12658766 -0.30825266 -0.56557333 -0.31164527
-0.3761735 -0.2929753 -0.13265535 -0.29250425 -0.08989914 -0.140747 -0.36113286 -0.4944496
-0.12591156 -0.32648504 -0.25184315 -0.10190653 -0.14744388 -0.2705929 0.16581343 -0.42380676
-0.14466459 -0.16004921 -0.1908125 -0.15633917 -0.3426213 -0.38767403 -0.15306675 0.20563713
-0.2653164 -0.114739686 -0.3435188 -0.26065984 -0.1564375 -0.14406444 -0.039292656 -0.19117287
-0.36051345 -0.28127828 0.031216744 -0.3758306 -0.5136408 -0.03758085 -0.26307973 -0.05606812
-0.33427048 0.012805964 -0.34532452 -0.053792536 -0.11688627 -0.44874415 -0.113878936 0.098234564
-0.2325235 -0.16394755 -0.24011672 -0.04101281 -0.13574134 -0.056138467 -0.1243447 0.04991457
0.107231244 -0.10638763 -0.13119198 -0.2059417 -0.047594562 -0.5260965 -0.3657611 -0.31993327
-0.069883555 -0.2717603 -0.13985147 -0.2777405 -0.24532366 -0.1290152 -0.15960385 -0.43740222
00000000: 20aa bebe ed41 abbe a649 81be 76d9 a23d
00000010: 6823 c5bd 8f63 23bf 6232 cbbd f814 4fbd
00000020: 7b39 babc 3390 05be 694d 09bf 5ce9 e0be
00000030: 3280 98bd 773f 1ebe cdf7 eabd ef91 1abd
00000040: 644b a3be a7a3 78bd f65b cfbe 9999 25bd
00000050: 3206 f0be dbc9 03be 34a6 64be 0330 f1bd
00000060: 3252 bdbe db3a 34be 023b 46be b0fb eabd
00000070: ba53 1d3c 252b 0abe f22c 5dbd 309b 19be
00000080: c582 943d 9649 163d 6d7a 5fbe 4dc9 34be
00000090: 0152 083e a09d a6be 57cd bd3b ea17 3abe
000000a0: 6633 10be 2a7e 19bf 961a cdbd 83b9 8cbd
000000b0: 78f5 e3be be1f 14be 2b74 2bbe c7e3 43be
000000c0: c9c3 95be be4d 8fbd 21d8 0bbf 347e f8be
000000d0: 1acf 5a3c 8887 cfbd 35d6 dfbe 31ac c0bc
000000e0: 42d4 45be ca4b 80be fa3f 18be 3cfb 9bbe
000000f0: b14d b2bd 6894 70be 964f dbbd 9e7e 0ebe
00000100: e2b9 8bbe 0b63 90be 5a97 45be 29de cebd
00000110: 4527 21be fdbb a2be 0ce4 1cbe 6eeb cdbd
00000120: d2bd 28be 20c7 7bbd 08d9 febe 52ff 19bd
00000130: 1e14 a3be 417a 143e ce3f 34be a10d 37be
00000140: cab1 c8be 9ae2 82be 3014 24be a249 00be
00000150: aca9 7ebe 1273 b2be 178d eebe 3401 44be
00000160: 5e24 f9be 30cb 86be d7dc a5be 65b3 c43d
00000170: 1d5a 67bd f86e 00be 1445 04bf 09ff f2bd
00000180: fcb9 81be e8c1 0bbe 8cbf 48be 7c93 1cbe
00000190: 642e dfbd 1a4d bd3d 7e31 463c a1bc 023c
000001a0: a4de 04be 52d9 9ebe b473 54be f437 fdbd
000001b0: 6e3e 47be fb91 843e 7299 1fbe 26a7 05be
000001c0: 64b4 e2be d2e4 f4be 73ad d83b 92fd 02be
000001d0: 47f1 003d 5e0f 9fbe 0dcc 14bf 599e 25be
000001e0: d1c1 eebe 4259 57be 1521 6fbd d01c b8be
000001f0: 10d0 44be e96d 04bf dac4 c5be 1749 26bf
00000200: 7681 6abe 1aea ccbe 82c6 dbbe a818 a638
00000210: 2f77 5cbd 2b66 82be db05 90be 6c35 49be
00000220: 90b7 a2be ad08 e73d ceba 55be b1f4 16be
00000230: 4227 fbbd e31b 04be af8d efbe 16c4 87be
00000240: 1154 33be 9410 b1be 6a87 7cbe c7bb d5bd
00000250: a561 4dbe 3b90 c4bd 4a71 e8be 2d57 23bd
00000260: 8977 90be 8103 14be 1a53 bbbe 6df8 f7be
00000270: 1629 4bbd cff6 f8be 0aaf 06bf c696 35bd
00000280: c594 28be 75c3 30be 1810 d1bb 57c6 87bd
00000290: f09e e2be 582f c23c dbc1 1fbe 87ba 10be
000002a0: ab2a 4c3d 3608 38be b368 11be 3952 ffbe
000002b0: 2991 323d 363b 9cbc 6a90 d2bd 6e86 5dbd
000002c0: 58c2 22bd f182 45be 6af3 70be add3 97be
000002d0: 32a0 01be 4bd3 9dbe 6ac9 10bf f88f 9fbe
000002e0: d099 c0be dc00 96be ced6 07be 1ec3 95be
000002f0: 0a1d b8bd fb1f 10be 68e6 b8be 7f28 fdbe
00000300: f6ee 00be 0c29 a7be 96f1 80be 5fb4 d0bd
00000310: 87fb 16be 278b 8abe ffca 293e 33fd d8be
00000320: f422 14be f1e3 23be 5a64 43be 6017 20be
00000330: 0f6c afbe 367d c6be 88bd 1cbe 8a92 523e
00000340: 8dd7 87be a4fc eabd b2e1 afbe 3575 85be
00000350: 2731 20be a185 13be 56f1 20bd d2c2 43be
00000360: 3895 b8be b503 90be 42ba ff3c de6c c0be
00000370: f77d 03bf 61ee 19bd 63b2 86be afa7 65bd
00000380: 8025 abbe 1bd0 513c 60ce b0be 9055 5cbd
00000390: 1262 efbd cbc1 e5be 5c39 e9bd 342f c93d
000003a0: a41a 6ebe dee1 27be 28e1 75be 0cfd 27bd
000003b0: c7ff 0abe 73f1 65bd 6fa8 febd 3873 4c3d
000003c0: 0e9c db3d c2e1 d9bd 3157 06be 62e2 52be
000003d0: 84f2 42bd 43ae 06bf 0a45 bbbe 4bce a3be
000003e0: 1c1f 8fbd 2b24 8bbe 3935 0fbe 0134 8ebe
000003f0: 2036 7bbe 901c 04be 316f 23be 2ff3 dfbe

model.1.running_mean f4 [256]
-0.043795884 0.03344459 -0.024045182 -0.10436921 0.08830324 -0.09285787 -0.10509955 -0.051870517
0.015727116 -0.04512838 -0.029163405 -0.028440261 0.0016795602 -0.10449299 -0.032050166 0.08981479
-0.08169113 -0.10486402 -0.060273197 0.061259277 -0.0048740827 -0.03809239 -0.08625006 0.009939828
0.041021965 -0.024399022 0.09525595 0.021746155 -0.0041178064 -0.024502797 -0.018216461 -0.07430789
0.0833231 -0.06643865 0.023061158 -0.00068893493 -0.10411068 -0.012457293 0.020373395 0.0090070665
0.03714705 -0.017201306 -0.0070728054 -0.105152816 -0.084007785 -0.06418299 -0.038424805 -0.02908989
0.04702729 0.08547707 0.0102274995 -0.025587799 0.042565186 -0.09639928 0.026799541 -0.052402537
-0.09014629 -0.063494846 -0.012377178 -0.08980618 -0.11431102 -0.03268901 -0.009273525 -0.08804598
-0.01280009 0.045500524 -0.070354044 0.05485013 0.069652274 -0.0233862 0.06457602 -0.073574215
0.06553372 0.002346043 0.042542763 -0.09808019 0.0035294874 -0.12990806 -0.11767817 -0.092057616
-0.04819773 -0.06139794 -0.044358477 -0.027213704 0.0046589356 -0.08192083 -0.03436818 -0.012930898
-0.025089724 0.019869136 0.0034679417 -0.10107287 0.019641776 0.021760538 0.031690344 0.021853786
0.051296707 0.063458085 0.017025335 0.071046695 -0.075912304 0.07105327 -0.07602437 -0.067115806
0.004723289 0.06594594 0.058236446 -0.01920305 0.0011965879 -0.11540866 0.009423301 -0.066864476
0.02129053 -0.056244105 -0.046651326 0.027555406 -0.07648571 0.04557518 -0.010164991 0.0340782
-0.058321115 0.016671304 0.0042727697 0.05070958 0.026448993 -0.005118332 -0.02439471 -0.066079915
-0.027827758 -0.017170046 -0.05629547 -0.103071466 -0.11353904 0.019474514 -0.088490546 0.07347574
0.04315075 0.044367526 0.016051019 -0.050688423 -0.056070507 0.026187869 -0.08514654 0.043067068
-0.057540983 0.04336247 0.013218472 -0.06252856 -0.07557791 0.019874144 0.0011549211 0.0028898357
-0.078299895 -0.046068132 0.057939433 0.05922537 0.023088085 -0.073306754 -0.10008129 -0.034199737
0.0446142 -0.013442071 -0.04046821 -0.011881842 0.025178976 -0.001631285 0.040039636 -0.016579572
-0.091614954 -0.021285461 0.032428056 -0.06492903 -0.07830126 -0.013432166 -0.04816465 -0.11539298
-0.054264918 -0.037163015 -0.10214476 0.006009526 -0.10019945 -0.08708556 0.009188188 0.038948692
-0.03760492 0.059701018 -0.11895199 0.0035274085 0.023711696 0.07964279 -0.08907975 -0.08174104
0.055056136 -0.045239583 -0.049524497 0.031972297 0.011148764 -0.09509437 -0.059642754 0.050587438
-0.018409546 -0.00858678 -0.067962736 -0.032374293 -0.01616637 -0.10976453 -0.08518726 0.028063353
0.073703334 0.020928465 0.059969336 -0.09498085 -0.057585187 0.024092454 -0.044649657 0.024787748
-0.119803116 0.014667929 0.022735616 -0.07097849 0.06878089 0.025626795 0.035471734 0.005576512
-0.10284278 -0.035403006 -0.014904977 0.061736815 -0.025002677 0.012569223 -0.02745721 -0.070183255
0.011137359 -0.097848855 0.015763354 -0.015742775 -0.0016830884 0.10137331 0.0039982134 0.01151327
-0.09314622 -0.030117366 -0.0724659 0.06250192 0.013729727 -0.045409188 0.02205871 0.027513638
0.06281975 -0.10147871 -0.056814793 -0.042484824 0.030476497 0.027036583 0.070291 -0.03057798
00000000: 5063 33bd 32fd 083d 67fa c4bc 86bf d5bd
00000010: 54d8 b43d 442c bebd 6f3e d7bd 2e76 54bd
00000020: 27d6 803c 89d8 38bd 18e8 eebc 8dfb e8bc
00000030: b024 dc3a 6c00 d6bd 0947 03bd d1f0 b73d
00000040: ae4d a7bd f3c2 d6bd 07e1 76bd 02eb 7a3d
00000050: c5b6 9fbb c406 1cbd dfa3 b0bd a9da 223c
00000060: a606 283d 75e0 c7bc 8d15 c33d fe24 b23c
00000070: aaee 86bb 17ba c8bc b03a 95bc bc2e 98bd
00000080: 4da5 aa3d fd10 88bd c1ea bc3c a499 34ba
00000090: fb37 d5bd ad19 4cbc 1be6 a63c 6092 133c
000000a0: 8127 183d c1e9 8cbc fec2 e7bb 5c5a d7bd
000000b0: 460c acbd 5f72 83bd 5463 1dbd ec4d eebc
000000c0: b09f 403d 9a0e af3d 3e91 273c 819d d1bc
000000d0: d558 2e3d fc6c c5bd b68a db3c 0ba4 56bd
000000e0: 9e9e b8bd 9609 82bd a6c9 4abc 4dec b7bd
000000f0: e51b eabd e9e4 05bd fcef 17bc 7351 b4bd
00000100: 78b7 51bc c25e 3a3d c815 90bd 88aa 603d
00000110: daa5 8e3d 6b94 bfbc 6f40 843d 14ae 96bd
00000120: 8b36 863d 12c0 193b 5241 2e3d 44de c8bd
00000130: f94e 673b 9e06 05be 4101 f1bd b488 bcbd
00000140: fc6a 45bd 687c 7bbd 3cb1 35bd 46ef debc
00000150: fca9 983b 1cc6 a7bd a6c5 0cbd 1edc 53bc
00000160: f788 cdbc 99c4 a23c 6846 633b 4bff cebd
00000170: cae7 a03c 2843 b23c bccd 013d b606 b33c
00000180: 7f1c 523d 50f6 813d b778 8b3c ee80 913d
00000190: e977 9bbd 6084 913d aab2 9bbd 0374 89bd
000001a0: d2c5 9a3b aa0e 873d 5789 6e3d b74f 9dbc
000001b0: d4d6 9c3a 605b ecbd 3064 1a3c 3ef0 88bd
000001c0: 7a69 ae3c 3860 66bd 7615 3fbd e0bb e13c
000001d0: 8aa4 9cbd 0aad 3a3d 108b 26bc 9595 0b3d
000001e0: 1fe2 6ebd 4292 883c 9702 8c3b d9b4 4f3d
000001f0: 8fab d83c aeb7 a7bb 6ad7 c7bc e854 87bd
00000200: 0af7 e3bc 32a8 8cbc 1496 66bd 2217 d3bd
00000210: 2887 e8bd 0489 9f3c 883a b5bd 737a 963d
00000220: d7be 303d b9ba 353d 6d7d 833c aa9e 4fbd
00000230: 30aa 65bd f187 d63c 4f61 aebd 1867 303d
00000240: 18b0 6bbd d89c 313d 4a92 583c f90e 80bd
00000250: 97c8 9abd 1acf a23c b960 973a 6663 3d3b
00000260: b25b a0bd f0b1 3cbd e651 6d3d 4d96 723d
00000270: 3923 bd3c da21 96bd 6bf7 ccbd 0615 0cbd
00000280: 61bd 363d 223c 5cbc fec1 25bd 0fac 42bc
00000290: 2444 ce3c d7d0 d5ba 9a00 243d e2d1 87bc
000002a0: 9fa0 bbbd d95e aebc 48d3 043d 83f9 84bd
000002b0: 695c a0bd 9612 5cbc 4c48 45bd 2853 ecbd
000002c0: e444 5ebd 3f38 18bd 4631 d1bd 8feb c43b
000002d0: 5f35 cdbd ea59 b2bd 0e8a 163c aa88 1f3d
000002e0: 9e07 1abd 0e89 743d 1a9d f3bd 182c 673b
000002f0: 083f c23c c21b a33d 726f b6bd d967 a7bd
00000300: 8b82 613d 244d 39bd 33da 4abd 62f5 023d
00000310: 4ea9 363c d6c0 c2bd f64b 74bd c634 4f3d
00000320: 9ecf 96bc 91af 0cbc 0c30 8bbd e89a 04bd
00000330: 566f 84bc 3acc e0bd a876 aebd 1ee5 e53c
00000340: c6f1 963d 2c72 ab3c 68a2 753d 5285 c2bd
00000350: 72de 6bbd 8a5d c53c 8fe2 36bd ad0f cb3c
00000360: 565b f5bd c151 703c 0b40 ba3c 2c5d 91bd
00000370: ffdc 8c3d 49ef d13c cf4a 113d 2cbb b63b
00000380: 3c9f d2bd be02 11bd 0134 74bc bedf 7c3d
00000390: 6ad2 ccbc 24ef 4d3c f1ed e0bc 3dbc 8fbd
000003a0: 7879 363c fb64 c8bd 2622 813c fef6 80bc
000003b0: 139b dcba cf9c cf3d 7203 833b 28a2 3c3c
000003c0: 72c3 bebd b2b8 f6bc 0069 94bd 0201 803d
000003d0: a6f2 603c fcfe 39bd 78b4 b43c 4864 e13c
000003e0: a4a7 803d 12d4 cfbd a1b6 68bd 9104 2ebd
000003f0: d9a9 f93c d37b dd3c baf4 8f3d ac7e fabc

model.1.running_var f4 [256]
0.27656457 0.28982612 0.27270064 0.109943606 0.25255257 0.2897917 0.3080873 0.23491007
0.19957921 0.24224284 0.28175607 0.31077123 0.1982832 0.26492244 0.27231404 0.23073465
0.24980617 0.20279631 0.21951145 0.24463041 0.2476412 0.22515878 0.2889137 0.22005081
0.2830478 0.2535803 0.24799277 0.2569788 0.19303459 0.21546628 0.20689908 0.29457718
0.18187243 0.18227017 0.26914555 0.2857487 0.15403986 0.26108482 0.22674517 0.29694924
0.31129128 0.2783244 0.30184633 0.20114453 0.25945276 0.24993907 0.23877011 0.26860216
0.29227063 0.27726093 0.3033672 0.24787043 0.25456274 0.25767988 0.25848028 0.23885715
0.30297244 0.29721487 0.23970698 0.26778877 0.20711794 0.2623857 0.31055868 0.31525803
0.25621945 0.27692235 0.3174238 0.2712266 0.3148276 0.23007937 0.28339377 0.2074966
0.25065124 0.23569167 0.23898673 0.2582068 0.29147303 0.108412564 0.23069482 0.26284093
0.26939097 0.32866275 0.30406868 0.23274983 0.22740453 0.26509792 0.30782294 0.24746248
0.25106642 0.21796352 0.2884579 0.281704 0.2186031 0.29643568 0.28266197 0.25149295
0.26101175 0.2725498 0.24308671 0.21474746 0.2055306 0.21655227 0.22699401 0.20669307
0.2951299 0.30427322 0.21746053 0.22849184 0.26194572 0.06510651 0.26119548 0.21797746
0.27142614 0.29160172 0.17476861 0.21247488 0.17989488 0.24296288 0.28266054 0.25659502
0.26160526 0.29969695 0.23758906 0.27263698 0.28112996 0.2642023 0.3040124 0.2906255
0.34229723 0.26041973 0.30063668 0.16877767 0.17605549 0.21168527 0.22468999 0.21446757
0.28055394 0.14366874 0.26572156 0.2423346 0.24653725 0.23016499 0.26355606 0.24604362
0.2942799 0.24193917 0.26114398 0.28213945 0.28535533 0.24108146 0.26091254 0.2620752
0.26446196 0.2545148 0.28645486 0.27704644 0.24346626 0.24796642 0.31136388 0.2650434
0.2839825 0.28742433 0.23112601 0.26990956 0.2718331 0.25210613 0.26612347 0.27904722
0.11735034 0.27277598 0.2963001 0.23793443 0.16740128 0.18033707 0.30031002 0.22985238
0.25548267 0.31335536 0.26484412 0.29124847 0.244715 0.23694594 0.26708204 0.26127705
0.2620288 0.3126436 0.2536447 0.24998647 0.2535243 0.29223502 0.26723477 0.26660648
0.2524357 0.23024462 0.25881562 0.21473241 0.2143378 0.28222424 0.09509566 0.2411637
0.24905278 0.2726707 0.24113336 0.27873293 0.30482683 0.27949306 0.29159027 0.24819663
0.25064877 0.19431663 0.21566467 0.22189696 0.26846522 0.19803119 0.204936 0.27863526
0.22354606 0.28315452 0.18198459 0.23728962 0.2731091 0.21471673 0.25919744 0.20860022
0.28161988 0.13085121 0.22840579 0.27127612 0.24396136 0.23742376 0.28934962 0.15980843
0.26112616 0.25847694 0.22913386 0.30917245 0.31923768 0.23200843 0.2589993 0.19243695
0.18839315 0.26687837 0.3138402 0.2376547 0.25262064 0.32519174 0.24932934 0.29665986
0.19689837 0.30521435 0.24114242 0.29507822 0.21403602 0.2784255 0.29843366 0.27600962
00000000: df99 8d3e 1764 943e 6b9f 8b3e 1d2a e13d
00000010: 924e 813e 945f 943e 9ebd 9d3e 448c 703e
00000020: 7e5e 4c3e 820e 783e 5542 903e 681d 9f3e
00000030: c00a 4b3e eaa3 873e bf6c 8b3e b445 6c3e
00000040: 30cd 7f3e d6a9 4f3e 9cc7 603e 6580 7a3e
00000050: a895 7d3e 0690 663e 7fec 933e 0055 613e
00000060: a4eb 903e 47d5 813e d1f1 7d3e ba92 833e
00000070: dcaa 453e 31a3 5c3e 5add 533e d2d2 963e
00000080: c43c 3a3e 08a5 3a3e 72cd 893e a74d 923e
00000090: a0bc 1d3e e9ac 853e e32f 683e bb09 983e
000000a0: 9261 9f3e 8980 8e3e 9a8b 9a3e d5f8 4d3e
000000b0: fed6 843e 07f0 7f3e 2780 743e 3986 893e
000000c0: 7fa4 953e 25f5 8d3e f252 9b3e bfd1 7d3e
000000d0: 0c56 823e 9eee 833e 8757 843e f896 743e
000000e0: 341f 9b3e 8c2c 983e bf75 753e 9c1b 893e
000000f0: ba16 543e 6b57 863e 8c01 9f3e 8069 a13e
00000100: 322f 833e c4c8 8d3e 5f85 a23e 37de 8a3e
00000110: 1531 a13e ed99 6b3e fd18 913e fd79 543e
00000120: 5c55 803e 2859 713e f0b8 743e af33 843e
00000130: f43b 953e 6807 de3d 433b 6c3e 1693 863e
00000140: 9ded 893e 7c46 a83e e4ae 9b3e f955 6e3e
00000150: bcdc 683e eaba 873e f89a 9d3e ce66 7d3e
00000160: c78b 803e d431 5f3e c1b0 933e 823b 903e
00000170: 7ed9 5f3e 6bc6 973e 12b9 903e afc3 803e
00000180: 55a3 853e a68b 8b3e b9eb 783e c2e6 5b3e
00000190: 9d76 523e e1bf 5d3e 1e71 683e 59a7 533e
000001a0: 441b 973e b3c9 9b3e f9ad 5e3e c4f9 693e
000001b0: c01d 863e 9056 853d 6abb 853e 7c35 5f3e
000001c0: 5ef8 8a3e d24c 953e 8bf6 323e 0493 593e
000001d0: 5d36 383e 43cb 783e e2b8 903e 6c60 833e
000001e0: 20f1 853e e171 993e 8c4a 733e 1397 8b3e
000001f0: 44f0 8f3e 8645 873e 83a7 9b3e decc 943e
00000200: 9541 af3e bc55 853e 0ded 993e 0ed4 2c3e
00000210: e447 343e 06c4 583e 2215 663e 639d 5b3e
00000220: c4a4 8f3e e61d 133e a80c 883e 9026 783e
00000230: 4374 7c3e 5fb0 6b3e d2f0 863e dcf2 7b3e
00000240: dbab 963e e7be 773e aab4 853e 9574 903e
00000250: 181a 923e 0fde 763e 5496 853e b82e 863e
00000260: 8f67 873e c44f 823e 36aa 923e 08d9 8d3e
00000270: 384f 793e e9ea 7d3e 166b 9f3e c5b3 873e
00000280: 2766 913e 4829 933e 4cac 6c3e 9631 8a3e
00000290: b52d 8b3e 0e14 813e 5641 883e 47df 8e3e
000002a0: 6055 f03d 4ba9 8b3e a6b4 973e 15a5 733e
000002b0: 3e6b 2b3e 48aa 383e 3cc2 993e 6c5e 6b3e
000002c0: a0ce 823e 1d70 a03e a699 873e 851e 953e
000002d0: 9296 7a3e f5a1 723e fabe 883e 1bc6 853e
000002e0: a428 863e d212 a03e b8dd 813e 74fc 7f3e
000002f0: f0cd 813e d49f 953e ffd2 883e a580 883e
00000300: 413f 813e 3fc5 6b3e 7b83 843e d0e2 5b3e
00000310: 5e7b 5b3e b27f 903e 83c1 c23d 9ef3 763e
00000320: b107 7f3e 7e9b 8b3e aaeb 763e 15b6 8e3e
00000330: 4312 9c3e b719 8f3e 524b 953e 4227 7e3e
00000340: 0955 803e f0fa 463e 33d7 5c3e f538 633e
00000350: 4674 893e b0c8 4a3e beda 513e 48a9 8e3e
00000360: 42e9 643e a1f9 903e 2b5a 3a3e 0dfc 723e
00000370: f5d4 8b3e b4de 5b3e 87b5 843e 4c9b 553e
00000380: 7b30 903e dcfd 053e 35e3 693e b4e4 8a3e
00000390: 02d1 793e 371f 733e a225 943e d2a4 233e
000003a0: 54b2 853e 1757 843e 11a2 6a3e da4b 9e3e
000003b0: 1f73 a33e 9e93 6d3e 8e9b 843e 310e 453e
000003c0: 22ea 403e 48a4 883e aaaf a03e c15b 733e
000003d0: 7e57 813e 887f a63e 3150 7f3e cde3 973e
000003e0: ba9f 493e 0e45 9c3e 0aee 763e 7e14 973e
000003f0: 422c 5b3e ca8d 8e3e 4ccc 983e 2251 8d3e

model.3.weight f4 [512, 256]
0.058221526 0.04462871 0.0413426 0.05344536 0.0021495516 0.14413263 0.018735653 0.030181885
0.00982492 0.032735273 -0.032742128 0.03690614 -0.04420322 -0.03056106 -0.0145689715 -0.032653898
0.035330124 -0.029312998 -0.12044271 -0.041940767 -0.07212696 -0.058165394 -0.033779558 0.007244876
0.008120552 -0.052635916 -0.022407938 -0.043310873 -0.0079636695 0.020801958 0.0015941905 -0.03941138
-0.0062245447 -0.030045912 -0.043451875 0.040290207 0.005536021 0.024910964 -0.007048319 -0.011611776
-0.018799352 -0.114363536 0.00014681557 0.028944435 -0.11289909 -0.00094555825 -0.0520616 -0.0043402724
0.076156124 -0.0026371158 0.035386547 -0.18438326 -0.010243829 -0.00019341923 0.02498557 0.035813376
-0.03392891 -0.034369946 -0.035069488 0.048015125 -0.025225913 0.09471149 0.040955383 -0.025294803
0.023579398 -0.02370606 0.030419756 -0.02119284 -0.023880597 -0.059316464 0.021310594 0.001993522
-0.0500189 -0.03037828 -0.048183683 -0.00785788 -0.010926119 -0.0029816604 -0.034909345 -0.007412663
-0.004384554 -0.02454733 -0.039628066 -0.027152533 -0.027976587 0.048865862 -0.057966094 0.059338517
-0.16702564 0.037312683 -0.11624725 -0.010303477 -0.04319058 0.0047146482 0.09277419 0.04142545
0.036260482 -0.034529343 -0.022830267 0.06000816 -0.046165023 0.01835197 0.00012468349 -0.029331565
0.011202447 -0.10109452 -0.014104387 0.0031525926 -0.02415724 0.022166707 -0.02720761 0.010723609
0.059437215 0.05030927 0.009973412 -0.02417782 -0.005807384 -0.07177434 0.056831107 0.011886933
-0.07179412 0.049489822 -0.0017828908 0.027661605 0.013983032 0.031572133 -0.053481624 -0.039134394
0.042175174 -0.021105275 0.019343594 0.0075470787 0.030802324 -0.024967898 -0.08011663 -0.044186633
0.0018101911 0.02458288 0.05084327 0.040580206 0.01759125 -0.03650721 -0.090650655 -0.025297223
-0.03167967 0.027640032 0.0067331945 0.039683785 -0.024354696 0.014247991 -0.10413323 0.040478155
-0.07456157 -0.016890457 -0.014878783 -0.1317779 0.058404952 -0.054507196 0.02522376 -0.016856939
0.011581441 0.03878131 0.016581131 -0.037288904 0.0047056107 0.066284075 -0.010311058 0.07594867
-0.05917058 0.031593744 0.0050920956 -0.013637295 0.041377407 -0.009268465 0.05423756 -0.069021344
0.006975245 -0.019454101 0.002812681 -0.011246079 -0.043248877 0.022817986 0.07983346 -0.032732245
-0.039991714 0.032643948 -0.033377454 -0.026522854 -0.0141463075 0.0056480477 0.033108383 0.08412069
-0.015678542 -0.0310455 0.04679975 -0.00064019323 -0.040786736 -0.02574066 -0.05836062 0.03054396
0.028215729 -0.034806974 0.024101872 0.03924274 -0.030097373 -0.032546762 0.010371754 0.07253885
0.012109219 -0.001788755 -0.06857697 -0.06288234 -0.0012789211 0.0138106635 -0.042091627 0.020967893
-0.09813842 0.02322242 -0.022760732 0.027833618 -0.117665395 0.027845541 -0.035011828 -0.0037260992
0.068708844 0.013032312 -0.026220933 0.017651225 0.02263479 0.09307679 -0.0148986075 0.055123486
-0.046517644 0.014805816 -0.036508184 -0.015768753 0.027541347 -2.624758e-05 0.018658163 0.038434558
0.049850844 -0.0022579897 -0.011918317 -0.010690814 0.021698155 0.09007475 -0.056512155 -0.0036637532
0.039844293 0.0149378525 -0.013397533 0.03125211 0.040989496 -0.027645556 -0.03755567 -0.06283146
00000000: b279 6e3d 98cc 363d dc56 293d 86e9 5a3d
00000010: 7edf 0c3b 8197 133e 837b 993c 0040 f73c
00000020: b4f8 203c 6c15 063d 9c1c 06bd e52a 173d
00000030: 700e 35bd 305b fabc b2b2 6ebc 18c0 05bd
00000040: 52b6 103d d021 f0bc abaa f6bd 15ca 2bbd
00000050: 4db7 93bd d63e 6ebd 6f5c 0abd 6d66 ed3b
00000060: 100c 053c c298 57bd da90 b7bc be66 31bd
00000070: 0d7a 02bc de68 aa3c 28f4 d03a d46d 21bd
00000080: 44f7 cbbb d822 f6bc 98fa 31bd 5807 253d
00000090: 8367 b53b 1412 cc3c 96f5 e6bb 523f 3ebc
000000a0: 1901 9abc 6e37 eabd 81f2 1939 e11c ed3c
000000b0: a337 e7bd 57df 77ba 8b3e 55bd d838 8ebb
000000c0: bef7 9b3d 76d3 2cbb 7cf1 103d f7ce 3cbe
000000d0: bcd5 27bc 94d0 4ab9 8aae cc3c 0cb1 123d
000000e0: 0af9 0abd 80c7 0cbd 06a5 0fbd 82ab 443d
000000f0: 93a6 cebc 19f8 c13d d5c0 273d 0c37 cfbc
00000100: 9529 c13c 3633 c2bc da32 f93c 9b9c adbc
00000110: 3ea1 c3bc d2f5 72bd 8e93 ae3c c0a5 023b
00000120: 9ee0 4cbd dfdb f8bc 415c 45bd 56be 00bc
00000130: 7703 33bc f667 43bb 1afd 0ebd ede5 f2bb
00000140: 4eac 8fbb 7b17 c9bc 0a51 22bd fd6e debc
00000150: 282f e5bc 9227 483d db6d 6dbd f20c 733d
00000160: c508 2bbe 2fd5 183d 0a13 eebd eacf 28bc
00000170: 9be8 30bd 567d 9a3b 6500 be3d bcad 293d
00000180: df85 143d a46e 0dbd 8a06 bbbc 1ecb 753d
00000190: 8917 3dbd df56 963c 78bd 0239 c048 f0bc
000001a0: 788a 373c a50a cfbd 1616 67bc ba9b 4e3b
000001b0: 67e5 c5bc f496 b53c 7ee2 debc 13b2 2f3c
000001c0: 7074 733d 1811 4e3d 8667 233c 9010 c6bc
000001d0: de4b bebb 6dfe 92bd bcc7 683d 69c1 423c
000001e0: cc08 93bd d7b5 4a3d e3af e9ba 979a e23c
000001f0: 1619 653c c851 013d 8c0f 5bbd 634b 20bd
00000200: e0bf 2c3d f8e4 acbc 7576 9e3c 7c4d f73b
00000210: 2855 fc3c 7a89 ccbc 3014 a4bd 0bfd 34bd
00000220: ef43 ed3a 0962 c93c 0841 503d 6e37 263d
00000230: 861b 903c 9688 15bd 0da7 b9bd 1f3c cfbc
00000240: 8bc2 01bd 596d e23c 21a2 dc3b 778b 223d
00000250: 8083 c7bc 6870 693c ce43 d5bd 6ccc 253d
00000260: bdb3 98bd db5d 8abc 24c6 73bc c9f0 06be
00000270: 083a 6f3d f042 5fbd 0fa2 ce3c 9017 8abc
00000280: 16c0 3d3c 27d9 1e3d 27d5 873c 40bc 18bd
00000290: 8631 9a3b f2bf 873d b6ef 28bc fa8a 9b3d
000002a0: da5c 72bd 7168 013d 98db a63b f66e 5fbc
000002b0: 5b7b 293d c3da 17bc 3428 5e3d 105b 8dbd
000002c0: 9990 e43b 355e 9fbc f554 383b 7941 38bc
000002d0: bc25 31bd c9ec ba3c ba7f a33d 3f12 06bd
000002e0: 5ace 23bd a9b5 053d ccb6 08bd 7546 d9bc
000002f0: eac5 67bc 4213 b93b a89c 073d 7847 ac3d
00000300: 4970 80bc 2253 febc 18b1 3f3d a4d2 27ba
00000310: fe0f 27bd 14de d2bc 8c0b 6fbd 5437 fa3c
00000320: ac24 e73c c291 0ebd 4a71 c53c ffbc 203d
00000330: c48e f6bc c14f 05bd 4aee 293c 408f 943d
00000340: bf65 463c a874 eaba 1572 8cbd 75c8 80bd
00000350: 79a1 a7ba 1f46 623c 4568 2cbd dcc4 ab3c
00000360: ccfc c8bd f23c be3c b774 babc 5403 e43c
00000370: 8efa f0bd 551c e43c 9068 0fbd 9231 74bb
00000380: 39b7 8c3d 7a85 553c 48cd d6bc 4d99 903c
00000390: 986c b93c 0b9f be3d 4a19 74bc 2ac9 613d
000003a0: 4989 3ebd 1894 723c 9b89 15bd 792d 81bc
000003b0: 649e e13c 402e dcb7 01d9 983c 8e6d 1d3d
000003c0: 6630 4c3d c8fa 13bb 0b45 43bc 8628 2fbc
000003d0: 54c0 b13c 1c79 b83d 4a79 67bd 941b 70bb
000003e0: c533 233d e5bd 743c 5481 5bbc 3602 003d
000003f0: 9ae4 273d ef78 e2bc f9d3 19bd c8ad 80bd

model.3.bias f4 [512]
-0.043620188 0.064156406 -0.02191267 0.0466682 0.040540002 0.06004942 0.028694477 0.022420662
-0.0052185236 0.014780276 0.015690418 -0.020815803 0.040319413 -0.03454062 0.014826059 0.042124912
0.04321718 -0.019197484 -0.03866324 -0.038763262 0.037711196 0.029356468 0.023210889 -0.032204468
-0.018456707 0.031001206 -0.033981767 0.039809186 0.058322284 -0.044906452 0.059074357 0.033957835
-0.024734864 -0.058192402 -0.00010512346 0.00206237 0.0308628 -0.04224557 -0.014987115 0.0097603295
0.03811871 -0.048741814 -0.050370574 0.046140842 0.0025495444 0.039918672 0.03598243 0.032233328
0.01743456 -0.018387651 0.0012511702 0.05673351 -0.018194564 -0.028902926 0.03355621 0.030383721
0.021305796 -0.032867372 0.012645925 -0.05673141 0.007312178 0.06078416 -0.021755757 -0.04300262
-0.046311125 -0.03904576 -0.0449447 -0.038821153 0.045940552 -0.016701445 -0.009369663 -0.005374813
0.046027087 0.030643169 0.009347227 -0.017235957 0.012936182 0.028949259 -0.009605093 -0.005253716
0.032745384 -0.0024703026 -0.03141135 -0.021841276 0.008997884 -0.0015128268 -0.040378317 -0.063721426
-0.022471685 -0.013277875 0.06796565 0.019318644 -0.01809924 -0.013537092 -0.0123867 -0.039979033
0.013133088 0.02870062 0.039483707 -0.021336868 -0.0034212468 0.010209772 0.05930142 -0.040264104
0.03370504 0.013858875 -0.039116446 0.025423875 -0.032112677 -0.0030089132 0.045684233 0.055486586
-0.03685505 -0.021270193 0.00928718 -0.01186737 -0.018222049 -0.026546547 0.05841881 -0.0412315
0.050125137 -0.03415699 -0.006844878 0.058787823 -0.02964156 0.050632235 -0.051436394 -0.045366727
0.04228472 0.025497293 -0.0442883 -0.04676809 0.055113327 0.04021792 0.054067217 -0.023503546
-0.039033253 -0.020664036 -0.004398416 0.013018208 0.0037870153 0.028479863 0.045213133 0.029320337
-0.0514076 -0.047739446 0.04731136 0.06378352 -0.046289872 0.014685155 -0.01972007 0.052539613
-0.0023316026 0.005256633 -0.038546912 -0.00027145483 -0.016262472 -0.006850211 -0.054636486 -0.05126401
-0.026111946 0.0103823785 0.039494246 0.029138053 -0.0031245984 -0.026902953 0.030492645 -0.047560535
-0.045272805 0.048291903 0.019566182 0.05092908 -0.027346015 -0.019479565 0.036495455 -0.04307654
0.055416144 -0.037025362 -0.035531256 0.030134153 0.061342325 -0.046817508 0.009372462 -0.034546614
-0.0064557204 0.06322696 -0.004310344 -0.03738378 0.023605924 0.020348657 0.023048004 0.01424295
-0.02086227 0.008066045 -0.003359579 -0.007890177 -0.011510108 -0.016777422 0.043401577 -0.030452631
0.012793343 -0.04003898 -0.044748843 -0.0049520805 0.021767948 0.050506096 -0.012289672 -0.019464247
0.054395407 0.04796512 -0.051987544 -0.032109004 0.044666737 0.06311422 0.049009748 0.039299443
-0.04734977 0.04801424 0.037163604 -0.019722799 0.032721 0.022961015 0.031366527 0.024247706
-0.05498886 0.0086314315 0.024707424 0.060015325 0.061366353 -0.015943745 -0.0009027027 0.019523244
-0.018638346 0.06927439 0.05442047 0.0037556374 0.033122722 0.055604674 0.0032384633 -0.037365764
0.043267608 -0.034714356 0.054234937 -0.05263492 0.059408337 0.0048297867 -0.03972196 -0.0013645143
-0.02859597 -0.035799265 -0.012318929 0.0016215843 -0.0030901835 -0.03855506 0.03825476 0.0003174449
00000000: 15ab 32bd 6f64 833d 3382 b3bc 2827 3f3d
00000010: 460d 263d 61f6 753d ae10 eb3c 89ab b73c
00000020: 2600 abbb f928 723c 3189 803c e785 aabc
00000030: f825 253d 777a 0dbd 00e9 723c 2c8b 2c3d
00000040: 7f04 313d 0b44 9dbc 585d 1ebd 3ac6 1ebd
00000050: 0e77 1a3d fa7c f03c c324 be3c d5e8 03bd
00000060: 8532 97bc 3ef6 fd3c 7730 0bbd f50e 233d
00000070: 59e3 6e3d d4ef 37bd f4f7 713d 5f17 0b3d
00000080: c5a0 cabc 285b 6ebd ba75 dcb8 d428 073b
00000090: fcd3 fc3c b109 2dbd 848c 75bc cae9 1f3c
000000a0: 5d22 1c3d 7fa5 47bd 6051 4ebd 2efe 3c3d
000000b0: 4216 273b c381 233d 5062 133d 1807 043d
000000c0: ecd2 8e3c b3a1 96bc 4efe a33a 6661 683d
000000d0: c40c 95bc d4c5 ecbc 3d72 093d 48e7 f83c
000000e0: 7e89 ae3c f09f 06bd db30 4f3c 325f 68bd
000000f0: ff9a ef3b d0f8 783d 2139 b2bc 8423 30bd
00000100: bcb0 3dbd 72ee 1fbd ef17 38bd ee02 1fbd
00000110: 292c 3c3d 78d1 88bc 3783 19bc 331f b0bb
00000120: e686 3c3d 6207 fb3c 1d25 193c 6c32 8dbc
00000130: 48f2 533c ff26 ed3c ae5e 1dbc 5d27 acbb
00000140: 0620 063d cde4 21bb 30a9 00bd 7aec b2bc
00000150: dc6b 133c 0b4a c6ba bc63 25bd 6180 82bd
00000160: 8a16 b8bc 728b 59bc 9331 8b3d 2242 9e3c
00000170: db44 94bc aeca 5dbc 96f1 4abc 0ec1 23bd
00000180: 2a2c 573c 901d eb3c abb9 213d a8ca aebc
00000190: ff36 60bb e346 273c 0ce6 723d f9eb 24bd
000001a0: 4c0e 0a3d 5610 633c 9138 20bd bb45 d03c
000001b0: 9588 03bd 3031 45bb 641f 3b3d e745 633d
000001c0: 52f5 16bd d43e aebc 4229 183c 5c6f 42bc
000001d0: 6846 95bc 2578 d9bc 9048 6f3d 5de2 28bd
000001e0: 0450 4d3d 33e8 0bbd 004b e0bb 80cb 703d
000001f0: dbd2 f2bc bf63 4f3d f8ae 52bd 76d2 39bd
00000200: be32 2d3d b3df d03c a667 35bd e68f 3fbd
00000210: 83be 613d 8cbb 243d 9675 5d3d 828a c0bc
00000220: 55e1 1fbd a047 a9bc 9620 90bb 524a 553c
00000230: 932f 783b 9a4e e93c 6831 393d 3431 f03c
00000240: c790 52bd 708a 43bd 8ec9 413d efa0 823d
00000250: 739a 3dbd 019a 703c fc8b a1bc c733 573d
00000260: cdcd 18bb d53f ac3b 5ee3 1dbd 0d52 8eb9
00000270: e038 85bc bc77 e0bb 82ca 5fbd 36fa 51bd
00000280: b8e8 d5bc da1a 2a3c b8c4 213d edb2 ee3c
00000290: 10c6 4cbb 9563 dcbc b6cb f93c d6ce 42bd
000002a0: fa6f 39bd bbcd 453d 4249 a03c 039b 503d
000002b0: c004 e0bc 9c93 9fbc 427c 153d 0771 30bd
000002c0: 0afc 623d e8a7 17bd 3989 11bd e6db f63c
000002d0: 1742 7b3d b7c3 3fbd f48e 193c c080 0dbd
000002e0: 828a d3bb 237d 813d c93d 8dbb bc1f 19bd
000002f0: 3661 c13c 3ab2 a63c 2bcf bc3c 435b 693c
00000300: 5ae7 aabc 7227 043c 622c 5cbb cd45 01bc
00000310: e494 3cbc ce70 89bc dac5 313d cc77 f9bc
00000320: 2b9b 513c eaff 23bd 904a 37bd 1045 a2bb
00000330: b252 b23c 7bdf 4e3d 9f5a 49bc 7c73 9fbc
00000340: b8cd 5e3d 1377 443d e4f0 54bd bb84 03bd
00000350: 78f4 363d 0742 813d 72be 483d 74f8 203d
00000360: d5f1 41bd 94aa 443d dd38 183d b591 a1bc
00000370: 7506 063d bd18 bc3c 307a 003d 20a3 c63c
00000380: 003c 61bd d96a 0d3c 3967 ca3c a1d2 753d
00000390: 495b 7b3d 759c 82bc 5aa3 6cba 36ef 9f3c
000003a0: 72af 98bc bbdf 8d3d 00e8 5e3d 2421 763b
000003b0: b1ab 073d bac1 633d 663c 543b d80c 19bd
000003c0: 6039 313d a430 0ebd 7425 5e3d b797 57bd
000003d0: 2856 733d 3043 9e3b 7eb3 22bd 81d9 b2ba
000003e0: 1842 eabc 40a2 12bd 55d5 49bc 578b d43a
000003f0: ad84 4abb e9eb 1dbd 06b1 1c3d bc6e a639
