pythorch saved models/fed_discriminator_cgan_ssl2.pth (torch, 707600 bytes, 5 tensors)

model.0.weight f4 [512, 86]
0	0x3abe7fd3	0.0014533944
1	0x3cdce48c	0.026964448
2	0x3d9dd285	0.07706169
3	0x3d062656	0.032751404
4	0x3d7eb496	0.06218394
5	0x3d80d7db	0.06291171
6	0xbd62f83a	-0.05541251
7	0x3d105599	0.035237882
8	0x3d60b84d	0.054863263
9	0xbc60e19d	-0.013725665
10	0xbd9fd594	-0.07804409
11	0x3d3e6b21	0.046488885
12	0xbd173126	-0.036912106
13	0xbd5d3926	-0.05400958
14	0x3cc4fe4b	0.024047038
15	0x3de020c2	0.10943748
16	0xbd110058	-0.03540072
17	0x3ce1f92e	0.027584638
18	0x3b84f483	0.0040574684
19	0x3deaf918	0.11473292
20	0xbca6ad4d	-0.020346308
21	0x3c9321d4	0.017960466
22	0x3d933966	0.07188682
23	0xbd4b65dc	-0.049657688
24	0x39a49a96	0.00031395693
25	0xbb018a5d	-0.0019766309
26	0xbca6caa8	-0.020360306
27	0xbc0cd333	-0.008595276
28	0x3d60d74e	0.05489283
29	0x3d8c8c0c	0.06862649
30	0x3df1e99b	0.11812135
31	0x3d7b0486	0.06128361
32	0xbc6aa4d8	-0.014321528
33	0x3cb40843	0.021976596
34	0x3db4594d	0.08806095
35	0x3cfbe5f8	0.030749306
36	0x3de5d567	0.11222344
37	0xbd4d189a	-0.05007229
38	0x3a11d9a8	0.00055637443
39	0x3d742d62	0.059613593
40	0xbba99804	-0.0051755924
41	0xbdba8486	-0.09107308
42	0x3d13e8df	0.036110755
43	0x3d7b7994	0.061395243
44	0x3d1c590e	0.038170867
45	0xbc7a7fb1	-0.015289233
46	0xbddef429	-0.108864136
47	0x3c5600cf	0.013061716
48	0xbc849db4	-0.01618848
49	0xbd13c76d	-0.03607886
50	0x3d6715f3	0.056417417
51	0xbc469c9e	-0.012122301
52	0xbcd692d3	-0.026193058
53	0x3cd4cc51	0.025976332
54	0xbd733b72	-0.059382863
55	0xbceb5827	-0.028728558
56	0x3e4a1c09	0.19737257
57	0x3d4d7aff	0.050166126
58	0x3e007fe2	0.12548783
59	0x3f181f0c	0.59422374
60	0xbbb673c4	-0.0055679996
61	0x3ca8da8f	0.02061203
62	0x3d4c644a	0.04990033
63	0x3d993f47	0.07482772
64	0x3da3997a	0.07988258
65	0xbbb627de	-0.0055589518
66	0xbd956e70	-0.07296455
67	0xbd5f7f32	-0.054564662
68	0x3a501526	0.00079377217
69	0xbcfe2074	-0.031021334
70	0xbd41f38c	-0.047351405
71	0xbd8613bc	-0.06546733
72	0xbe2f28f7	-0.1710547
73	0xbdbd0f7b	-0.09231468
74	0xbda7ae94	-0.08187595
75	0xbccf7692	-0.025325093
76	0xbe385f12	-0.18005016
77	0xbe584c1a	-0.2112278
78	0xbc0c1747	-0.008550472
79	0xbcdf4e92	-0.027259145
80	0xbd5cccb5	-0.05390616
81	0xbdb8d1dc	-0.090244025
82	0xbda5716f	-0.08078276
83	0xbd9dc712	-0.07703985
84	0xbdaf30e5	-0.08554248
85	0xbde5b6f0	-0.11216533
86	0xbbecf34b	-0.007231151
87	0x3d265078	0.040604085
88	0x3d97db9e	0.074149355
89	0x3c2125e2	0.009835692
90	0x3da571ad	0.080783226
91	0xbdafa072	-0.085755244
92	0x3c187292	0.009304659
93	0xbbe73cf5	-0.007056827
94	0x3d19f1ee	0.037584238
95	0xbc6a852b	-0.014313976
96	0x3d0706da	0.03296552
97	0x3c214f70	0.0098455995
98	0xbcc52ff6	-0.024070721
99	0x3d5c795a	0.053826667
100	0x3dbcafc1	0.0921321
101	0x3dd15e34	0.10223046
102	0xbd66dd4c	-0.05636339
103	0x3d076e20	0.033064008
104	0xbc8fc9fb	-0.017552366
105	0x3c98150b	0.018564722
106	0xbcd0e966	-0.025501918
107	0x3d868e76	0.06570141
108	0xbcb717ce	-0.022350218
109	0x3ccae937	0.024769409
110	0xbda12a40	-0.07869387
111	0xbb57dd4e	-0.0032938304
112	0xbb8e0db3	-0.004335129
113	0x3d6d2b22	0.057902463
114	0xbcc70490	-0.024294168
115	0x3d0ff1d7	0.035142746
116	0xbd260e93	-0.040541243
117	0xbcecb46e	-0.02889463
118	0x3d9ae833	0.0756382
119	0x3d993b43	0.074820064
120	0x3d19d540	0.037556887
121	0xbd79c4a8	-0.06097856
122	0x3d138840	0.03601861
123	0xbc86063e	-0.016360398
124	0xbdc3c91c	-0.09559843
125	0xbd3e50ff	-0.046463963
126	0x3cbc34b2	0.022974346
127	0xbc9bcdee	-0.019019093
128	0xbd0bee88	-0.034163028
129	0x3e81afd6	0.25329465
130	0xbe99dcaf	-0.3005118
131	0xbdf70a82	-0.12062551
132	0x3d4ab747	0.049491193
133	0x3cb47242	0.022027139
134	0x3daf3498	0.08554953
135	0xbd5d3de6	-0.05401411
136	0xbcc92ab8	-0.024556503
137	0xbd50a2dd	-0.05093657
138	0xbc0b5974	-0.008505214
139	0x3e012b9c	0.12614292
140	0xbdc69e42	-0.09698154
141	0x3c1b9790	0.009496585
142	0xbc387bfc	-0.011260029
143	0x3b2be6b3	0.0026230037
144	0xbd24f912	-0.040276594
145	0x3c88b949	0.016689913
146	0x3cd57bc2	0.026059989
147	0xbb5fa1cf	-0.0034123545
148	0x3c2eb23a	0.01066261
149	0x3c935e74	0.017989375
150	0xbcbf4cea	-0.023352105
151	0x3c8760cd	0.01652565
152	0x3d22e19e	0.039765947
153	0xbd35ee9d	-0.044417012
154	0x3c4c7610	0.01247932
155	0xbdc49d76	-0.09600346
156	0xbe2421a1	-0.16028453
157	0xbda44593	-0.08021083
158	0xbd684cb5	-0.05671378
159	0xbe14effe	-0.14544675
160	0xbd9e0908	-0.07716566
161	0xbcce6678	-0.025195345
162	0xbdd5b0e8	-0.10434133
163	0xbe034c29	-0.12822022
164	0xbe15010d	-0.14551182
165	0xbd056280	-0.03256464
166	0xbd99f328	-0.075170815
167	0xbdfe2c52	-0.12410797
168	0xbdb7ec0e	-0.08980571
169	0xbcfe4810	-0.031040221
170	0xbd1a5434	-0.03767796
171	0xbd98ab97	-0.07454603
172	0xbbc395c6	-0.005968782
173	0x3de70bc6	0.112815425
174	0x3a525d20	0.0008024741
175	0x3cb401e7	0.021973563
176	0xbd9ae6b5	-0.07563535
177	0x3ce9a5c0	0.028521419
178	0xbd29e16e	-0.041474752
179	0x3c20f13c	0.00982314
180	0x3dca6e0c	0.09884271
181	0xbc548212	-0.012970464
182	0xbdffc010	-0.12487805
183	0x3df6fd44	0.12060025
184	0xbda30825	-0.07960538
185	0xbdf7ce57	-0.12099903
186	0x3da1e48c	0.0790492
187	0x3e05256a	0.13002554
188	0xbe08db9b	-0.13365023
189	0x3b0c0ef3	0.0021371215
190	0xbdb01033	-0.0859684
191	0x3d5480fb	0.051880818
192	0x3c4925bd	0.012277064
193	0x3d5397be	0.051658385
194	0x3d3d772a	0.04625622
195	0x3b8d970d	0.004320985
196	0xbd9e6175	-0.07733432
197	0xbc65a900	-0.0140173435
198	0xbd28f6fc	-0.041251168
199	0xbd64d56a	-0.05586759
200	0xbc124c3d	-0.008929309
201	0xbdda084e	-0.10646115
202	0x3e284d8c	0.16435832
203	0xbdef7612	-0.11692442
204	0xbd71ea48	-0.05906132
205	0xbdf43e30	-0.11925924
206	0x3e082d77	0.13298593
207	0xbd61c7c4	-0.055122152
208	0xbd225192	-0.039628573
209	0x3cbd946e	0.023142066
210	0xbbb7c566	-0.0056082485
211	0xbd492ea8	-0.04911676
212	0xbda1418c	-0.0787383
213	0x3e29414a	0.16528812
214	0x3de77e4b	0.11303385
215	0x3e0cacfe	0.13737866
216	0xbe53fe98	-0.20702589
217	0x3dc6d3b5	0.09708349
218	0xbda029f4	-0.07820502
219	0xbc95d9d2	-0.018292341
220	0xbd009de3	-0.031400573
221	0x3c53da62	0.0129304845
222	0x3c990a0e	0.018681552
223	0x3d35c8b0	0.044380844
224	0xbcd91f72	-0.026504252
225	0xbc661401	-0.014042855
226	0xbdd3a2dc	-0.10333797
227	0xbcee019e	-0.029053506
228	0x3a48efd0	0.00076651294
229	0x3cb36eea	0.021903474
230	0xbdd6a931	-0.104814894
231	0x3c94b493	0.01815251
232	0xbe566d47	-0.20940123
233	0xbd5a7ec0	-0.053343534
234	0xbbbdffd4	-0.0057983194
235	0xbde00d69	-0.10940058
236	0x3cb15266	0.021645736
237	0x3d170a3f	0.036875006
238	0x3d81864f	0.063244455
239	0xbbe9d1ae	-0.0071355915
240	0xbcef879a	-0.029239465
241	0xbd416794	-0.04721792
242	0x3d370154	0.044679
243	0xbd8b0fec	-0.06790146
244	0xbd92cd8c	-0.07168111
245	0xbddf163c	-0.10892913
246	0xbdc38896	-0.09547536
247	0xbe500cb4	-0.20317346
248	0xbd24f4fd	-0.0402727
249	0xbc8cb940	-0.017178178
250	0xbda45fc6	-0.0802608
251	0xbd83254f	-0.064036004
252	0xbddebf48	-0.10876328
253	0xbdc0f544	-0.09421781
254	0xbd87509c	-0.06607172
255	0xbc9a1780	-0.018810034

model.0.bias f4 [512]
0	0xbe0197ca	-0.12655559
1	0xbe88c1f2	-0.2671047
2	0xbe6121a0	-0.21985483
3	0xbdd618da	-0.10453959
4	0xba190055	-0.00058365363
5	0xbdbbb140	-0.09164667
6	0xbd1202ff	-0.03564739
7	0xbd887edc	-0.066648215
8	0xbe84207a	-0.25806028
9	0x3da89df6	0.08233254
10	0x3e157cfc	0.14598459
11	0xbe23f2d8	-0.16010606
12	0xbe75d5be	-0.24007317
13	0xbe6f4a35	-0.23368151
14	0xbdbe8dfe	-0.093044266
15	0xbdb360a7	-0.08758669
16	0xbe1734ac	-0.14766186
17	0xbe2ea38e	-0.17054579
18	0xbdd17a8e	-0.102284536
19	0xbe3aec21	-0.18254139
20	0xbe0fbe05	-0.1403733
21	0xbe741700	-0.23836899
22	0xbe069cd3	-0.13145761
23	0xbe2de36d	-0.16981287
24	0xbe0f4075	-0.13989432
25	0xbd9311d5	-0.071811356
26	0xbcfa88f4	-0.030582882
27	0x3e0810ac	0.1328761
28	0x3c2e1406	0.010624891
29	0xbe79218f	-0.24329208
30	0xbca1a068	-0.019729808
31	0xbd9b4045	-0.07580618
32	0xbe51fb18	-0.20505941
33	0xbdc7c16a	-0.09753688
34	0xbe13dc21	-0.14439441
35	0xbc8ce805	-0.01720048
36	0xbdff00e4	-0.12451342
37	0xbdb430e4	-0.08798388
38	0xbde2f869	-0.11082537
39	0xbce96bd9	-0.028493809
40	0xbdc08f09	-0.09402282
41	0xbe307e89	-0.1723577
42	0xbd9f12f2	-0.077672854
43	0x3c8d0d28	0.017218187
44	0xbe37816e	-0.17920467
45	0xbe736901	-0.23770525
46	0xbd974e6c	-0.07388005
47	0xbdceb420	-0.1009295
48	0xbcc24c94	-0.023718156
49	0xbdf926c6	-0.121655986
50	0xbe3ef7f5	-0.18649276
51	0xbe7624c8	-0.24037468
52	0x3d3c89ed	0.046029974
53	0xbe12a772	-0.14321688
54	0xbe834530	-0.25638723
55	0x3d9056cf	0.070478074
56	0xbe3ea504	-0.18617636
57	0xbe7865eb	-0.24257629
58	0xbdb05d53	-0.0861155
59	0xbe469c0a	-0.19395462
60	0xbe280921	-0.16409732
61	0xbd7621ec	-0.060090944
62	0xbd462cd0	-0.04838258
63	0xbe91bc16	-0.2846381
64	0xbd98009b	-0.074219905
65	0xbe43f275	-0.19135459
66	0x3d7ca54a	0.06168107
67	0xbe0768c1	-0.13223554
68	0xbe488bd2	-0.19584587
69	0xbdecd6f2	-0.11564435
70	0xbe091936	-0.13388523
71	0xbdff9ff8	-0.124816835
72	0xbe671110	-0.22565103
73	0xbe53653e	-0.2064409
74	0x3ddf455c	0.10901901
75	0xbd8c280b	-0.06843575
76	0x3d45eab8	0.04831955
77	0xbdfc019a	-0.12304993
78	0xbe7a3d67	-0.24437486
79	0x3d45d24e	0.048296265
80	0xbe997250	-0.29970026
81	0xbe2c082e	-0.16799995
82	0xbcda74aa	-0.026666958
83	0xbdff47b0	-0.12464845
84	0xbe3d6b70	-0.18498015
85	0xbccdf027	-0.025138928
86	0xbe297f06	-0.16552362
87	0xbdfdb000	-0.12387085
88	0xbdf30968	-0.118670285
89	0xbe702cc6	-0.2345458
90	0xbe3bd239	-0.18341912
91	0xbe17ddc6	-0.14830694
92	0xbdc95019	-0.098297305
93	0xbdf0795a	-0.11741896
94	0xbd79d7a4	-0.060996667
95	0x3a77f0a8	0.0009458163
96	0xbd6a001f	-0.05712902
97	0xbd0520ec	-0.0325021
98	0xbe4dce48	-0.20098221
99	0x3d998d41	0.07497645
100	0xbea12777	-0.31475422
101	0x3b2ad953	0.0026069477
102	0xbe0c721f	-0.13715409
103	0xbc99c3bc	-0.018770091
104	0x3c21cdb4	0.009875704
105	0xbdba64df	-0.09101271
106	0xbe00616d	-0.12537165
107	0xbe741191	-0.23834826
108	0xbda961b3	-0.08270588
109	0xbe82a561	-0.255168
110	0xbdde64ea	-0.108590916
111	0xbd317448	-0.043323785
112	0xbe146224	-0.14490563
113	0xbe0a09dd	-0.13480325
114	0x3d8c63d9	0.06854982
115	0xbd92845c	-0.07154152
116	0x3ca04304	0.019563206
117	0xbe6f08e5	-0.23343237
118	0xbe4db106	-0.2008706
119	0x3d93c079	0.072144456
120	0xbe2c505a	-0.16827527
121	0x3da19ea2	0.07891585
122	0x3cc316f0	0.023814648
123	0xbc6be732	-0.014398383
124	0xbdb3dcd8	-0.08782357
125	0xbe5d9db8	-0.21642196
126	0xbe17f656	-0.14840063
127	0xbe8f87e7	-0.28033373
128	0xbe81706f	-0.25281093
129	0xbe29decf	-0.16588901
130	0xbe0074c1	-0.12544538
131	0xbe046184	-0.12927824
132	0xbd172763	-0.036902796
133	0x3e2b096e	0.16702816
134	0xbc751257	-0.014957986
135	0xbe2cb240	-0.16864872
136	0xbe3c3f88	-0.1838361
137	0xbe101499	-0.14070357
138	0xbd63f67a	-0.05565498
139	0xbe7731f8	-0.24140155
140	0xbc86a5ba	-0.016436446
141	0xbe0f133c	-0.13972181
142	0x3d8be5b4	0.06830922
143	0xbb993d55	-0.004676501
144	0xbe5d5e3a	-0.21617976
145	0xbdfa02a0	-0.12207532
146	0xbdff8432	-0.12476386
147	0xbe15abac	-0.14616269
148	0xbe328151	-0.17432143
149	0xbda9a840	-0.08284044
150	0xbe0f782a	-0.14010683
151	0xbe906fda	-0.28210336
152	0xbdf5d675	-0.12003795
153	0x3e0e434a	0.13892856
154	0xbd8254fe	-0.06363867
155	0xbe12e6c2	-0.1434584
156	0xbda96d78	-0.08272833
157	0xbd79d834	-0.060997203
158	0xbe96520b	-0.2935947
159	0xbe2d0514	-0.16896468
160	0xbe02d9cb	-0.12778394
161	0xbdee120a	-0.116245344
162	0xbdabb391	-0.08383859
163	0xbd5b1fb2	-0.053497024
164	0xbdd68e70	-0.104763865
165	0x3e3e12e2	0.1856189
166	0x3e4d00dd	0.2001986
167	0xbe646df0	-0.22307563
168	0x3d963243	0.073338054
169	0xbe42ce7f	-0.19024085
170	0xbe012b6e	-0.12614223
171	0xbe75b8d8	-0.23996294
172	0xbd937706	-0.07200436
173	0xbe6ecd0f	-0.23320411
174	0xbcb5e931	-0.02220592
175	0x3e68c772	0.22732332
176	0xbdef3d52	-0.11681618
177	0xbeb74997	-0.35798332
178	0xbc3dff1e	-0.011596469
179	0xbdd86e6f	-0.105679385
180	0xbe18c747	-0.14919768
181	0x3cac37dc	0.02102273
182	0xbe92d3ad	-0.2867712
183	0xbe58106b	-0.21100013
184	0xbd3998e5	-0.045311827
185	0xbe53aa82	-0.20670512
186	0xbdbb3355	-0.0914065
187	0xbe4efba5	-0.20213182
188	0xbd89cc2a	-0.06728394
189	0xbe15c245	-0.14624889
190	0xbd9da327	-0.076971345
191	0x3d03d1f4	0.03218265
192	0xbe37c5f3	-0.17946605
193	0xbe8386b4	-0.25688708
194	0xbd869fb6	-0.06573431
195	0x3d85c38a	0.06531437
196	0xbc0946b2	-0.0083786715
197	0xbded6a3e	-0.1159253
198	0xbdc96519	-0.09833736
199	0xbe00c41f	-0.12574814
200	0xbd4ee17a	-0.050508
201	0x3e069fdd	0.1314692
202	0x3db5ed80	0.0888319
203	0xbd16ed1a	-0.03684721
204	0xbd818d08	-0.06325728
205	0xbe0ec768	-0.13943255
206	0x3cc5fc32	0.024168108
207	0xbd83c8ac	-0.064347595
208	0x3b9cf49a	0.004789901
209	0x3d8041d1	0.062625535
210	0xbdb75e40	-0.08953524
211	0xbe68d17c	-0.22736162
212	0xbd951ac9	-0.072804995
213	0xbe5fa6b6	-0.21840939
214	0xbdfb3844	-0.12266591
215	0xbe736a98	-0.23771131
216	0xbe56b1c6	-0.20966253
217	0x3dd685e2	0.10474755
218	0xbdba07d5	-0.09083525
219	0xbe02b4c2	-0.12764266
220	0xbe7be9ad	-0.24600859
221	0x3d0f791d	0.035027612
222	0xbe80097e	-0.25007242
223	0x3cf87cee	0.030333009
224	0xbd3107f9	-0.043220494
225	0xbe4224f0	-0.18959403
226	0xbe025910	-0.12729287
227	0x3e7524a2	0.23939756
228	0xbddf4be6	-0.10903148
229	0xbd8ae829	-0.06782562
230	0xbe2943a8	-0.16529715
231	0xbebd73b2	-0.3700233
232	0xbe94978f	-0.2902188
233	0xbe41d4c8	-0.18928826
234	0xbd92db06	-0.07170682
235	0xbe339515	-0.17537339
236	0xbe405266	-0.18781433
237	0xbe161a25	-0.14658411
238	0xbdfd6590	-0.12372887
239	0xbd826eb8	-0.06368774
240	0xbdc27dd1	-0.09496654
241	0xbb95a31c	-0.0045665633
242	0x3a14ecd3	0.00056810415
243	0xbd85dab6	-0.065358564
244	0x3ddd28c1	0.10798789
245	0xbe325d16	-0.17418322
246	0x3dc03aae	0.09386192
247	0xbe145bed	-0.14488192
248	0x3e3c5b99	0.18394317
249	0xbe532a57	-0.2062162
250	0x3d2a01f9	0.041505788
251	0xbc0a4db3	-0.0084413765
252	0x3e118a39	0.14212884
253	0xbde41375	-0.11136524
254	0xbdee5bb6	-0.11638586
255	0xbc1fb3c4	-0.009747449

model.3.weight f4 [256, 512]
0	0xbe2dfb66	-0.16990432
1	0xbd33b8de	-0.043877475
2	0x3cfd66bc	0.030932777
3	0xbd8d219d	-0.06891177
4	0xbc8fd192	-0.017555986
5	0x3dd0c2d6	0.10193412
6	0x3d954b8f	0.07289802
7	0x3e264230	0.16236186
8	0xbca1a3a7	-0.019731356
9	0xbb14df36	-0.0022716052
10	0x3d2bd43d	0.041950453
11	0x3d6153e9	0.055011664
12	0xbda5e6c2	-0.08100654
13	0xbd9acceb	-0.07558616
14	0x3da118d8	0.07866067
15	0xbb111566	-0.0022137999
16	0xbd50fbb2	-0.051021285
17	0xbd936dbb	-0.07198664
18	0x3c1c4ce8	0.00953982
19	0x3d60089f	0.05469572
20	0xbccbc78c	-0.024875425
21	0xbd3644d2	-0.044499226
22	0x3d7f8121	0.062379006
23	0xbc2eafca	-0.010662029
24	0xbe360e5d	-0.17778917
25	0xbdc7760d	-0.09739313
26	0x3d483060	0.04887426
27	0xbc86bc24	-0.016447134
28	0xbc5f20f0	-0.013618693
29	0xbe7e0be1	-0.24809219
30	0x3c38cdfa	0.011279577
31	0xbe2d5a51	-0.16928984
32	0xbd059ffe	-0.032623284
33	0x3c9fc6fc	0.019504063
34	0xbd20cb4c	-0.03925638
35	0xbde99baa	-0.11406644
36	0x3bcd5e88	0.0062673725
37	0xbb0b20ea	-0.0021229335
38	0xbd12b322	-0.035815366
39	0xbd7ce39f	-0.061740514
40	0xbd112e20	-0.03544438
41	0x3c2ab781	0.010419727
42	0xbdba2e53	-0.09090867
43	0x3be1447e	0.00687462
44	0xbe349ab1	-0.17637135
45	0xbd2afd3c	-0.04174541
46	0xbbf4b6f8	-0.0074681006
47	0xbc46caf5	-0.01213335
48	0xbd0d495c	-0.03449379
49	0xbd242d57	-0.040082302
50	0xbcb91b90	-0.02259615
51	0x3c944654	0.018099941
52	0x3de22e2e	0.11043964
53	0xbdbf2d7f	-0.093348496
54	0xbd9df2de	-0.07712339
55	0x3bba3679	0.005682763
56	0xbcd2228b	-0.025651237
57	0xbd7667ef	-0.060157713
58	0xbaab5e6d	-0.0013074406
59	0x3dce4320	0.10071397
60	0xbbedda04	-0.0072586555
61	0x3c05ebcc	0.008173894
62	0xbc6eaed5	-0.01456805
63	0xbca9224d	-0.020646239
64	0x3da83bb3	0.08214512
65	0xbd184792	-0.03717763
66	0xbcef3468	-0.029199794
67	0xbcd3f8f4	-0.025875546
68	0xbc8e29b4	-0.01735387
69	0x3b8e2eb1	0.004339062
70	0xbb753bf0	-0.0037419759
71	0xba8309de	-0.0009997447
72	0xbcd0c86c	-0.025486194
73	0xbe152b66	-0.14567336
74	0xbc8e119f	-0.017342387
75	0x3d118528	0.03552738
76	0xbccee763	-0.025256818
77	0xbd08e247	-0.03341892
78	0xbdd0e91d	-0.10200713
79	0xbc4df229	-0.0125699425
80	0xbe52bf8c	-0.20580882
81	0xbc2a9ec8	-0.010413833
82	0x3d37153f	0.044697996
83	0x39eb9bfa	0.00044938904
84	0xbce14b9c	-0.027501874
85	0xbb742cd4	-0.0037258165
86	0x3d35dd11	0.04440028
87	0xbd99b46f	-0.07505118
88	0xbe179a35	-0.14804919
89	0xbd9404bc	-0.072274655
90	0xbe13f18b	-0.1444761
91	0x3d92b448	0.07163292
92	0x3cc33b47	0.023831977
93	0xbac76500	-0.0015212595
94	0x3c51c7bd	0.012803969
95	0x3c7b9434	0.015355159
96	0x3c97f6f6	0.018550377
97	0xbc33deb5	-0.01097839
98	0xbc9ec36e	-0.019380298
99	0x3c5c4089	0.013443121
100	0xbdc70ddf	-0.097194426
101	0x3bad98da	0.0052977623
102	0x3d8a15eb	0.06742462
103	0x3ca9db12	0.020734344
104	0xbda03557	-0.07822674
105	0xbde3b1d4	-0.111179024
106	0x3c86ae3d	0.016440505
107	0xbca015d8	-0.019541666
108	0x3b92af34	0.0044764522
109	0x3cd4dc5c	0.025983982
110	0xbd9631e6	-0.07333736
111	0xbde13282	-0.10995962
112	0x3d6a7d66	0.057248496
113	0xbc9383a3	-0.018007105
114	0xbc72afe6	-0.014812445
115	0xbd92b8e7	-0.071641736
116	0xbdd7e2bb	-0.10541292
117	0xbcbcabf0	-0.023031205
118	0xbcf8a322	-0.030351225
119	0x3d54ff0e	0.05200105
120	0xbd53ab27	-0.051676895
121	0xbd07f89e	-0.033196084
122	0x3df1f28b	0.118138395
123	0xbc9158f4	-0.017742611
124	0x3d8fa4b3	0.07013836
125	0x3c222fa9	0.009899058
126	0x3cb514e8	0.022104695
127	0x3d4c076e	0.049811773
128	0x3d70c8d7	0.058785286
129	0xbc95367e	-0.01821446
130	0xbd24413b	-0.04010127
131	0x3ce3783d	0.027767295
132	0xbc9b4ae6	-0.018956613
133	0x3d9ac474	0.07557002
134	0xbd94196a	-0.0723141
135	0x3d13d008	0.036087066
136	0x3c9a3731	0.018825145
137	0xbd05ee88	-0.032698184
138	0x3c91c437	0.017793758
139	0xbd38673c	-0.045020327
140	0x3bbd175a	0.005770606
141	0x3c8c1d1b	0.017103722
142	0x3de4b565	0.11167411
143	0x3aab50ff	0.0013070403
144	0xbd4b6b8f	-0.049663123
145	0x3c43318e	0.01191367
146	0x3d418801	0.047248844
147	0xbd121de6	-0.035673045
148	0xbdf7e989	-0.1210509
149	0xbc33a012	-0.010963457
150	0x3da760d0	0.081727624
151	0xbb45c29f	-0.0030175818
152	0xbcd8c806	-0.026462566
153	0x3d439406	0.047748588
154	0xbd3a62ae	-0.045504265
155	0x3a9dbb77	0.0012034018
156	0xbc81b311	-0.015832456
157	0xbd7eb239	-0.062181685
158	0xbdf97c32	-0.121818915
159	0xbd7f1946	-0.062279962
160	0xbc59146e	-0.0132495
161	0xbd3ed2cf	-0.04658776
162	0xbc150c19	-0.009097123
163	0xbd20ddc6	-0.039274
164	0x3cc68180	0.024231672
165	0x3b3d49aa	0.0028883019
166	0x3c2894ee	0.010289414
167	0xbdbb7913	-0.091539524
168	0x3dbc5d92	0.091975346
169	0x3db78e14	0.08962646
170	0xbd007fba	-0.03137181
171	0xbd36effd	-0.044662464
172	0xbdddcf1f	-0.10830521
173	0xbdd4f3f1	-0.10398091
174	0x3df14972	0.11781587
175	0x3cf318de	0.029674944
176	0xbd3189ff	-0.043344494
177	0xbd164fb5	-0.03669711
178	0xbcb8047a	-0.022463072
179	0xbc23e6a5	-0.01000372
180	0x3d335ad4	0.043787792
181	0x3c48f4e9	0.012265422
182	0x3cf85780	0.03031516
183	0xbe4b8a8e	-0.19877073
184	0xbdab8dbf	-0.08376645
185	0xbdf61032	-0.12014808
186	0xbcaee8d5	-0.021351257
187	0xbcb90856	-0.022586983
188	0x3c122fe8	0.008922555
189	0xbe539726	-0.20663127
190	0x3e86c5fb	0.26322922
191	0x3cb8dca9	0.022566156
192	0xbd2f41c1	-0.042787317
193	0x3c319b24	0.010840211
194	0xbc3bf706	-0.011472469
195	0x3d85c990	0.065325856
196	0x3cebbf3b	0.02877771
197	0xbe1f5bc1	-0.15562345
198	0x3cff8d20	0.031195223
199	0xbc1c59f2	-0.009542929
200	0xbce31e01	-0.027724268
201	0x3da14b09	0.0787564
202	0xbd4b9c5c	-0.049709663
203	0xbd69f222	-0.05711568
204	0xbdedb964	-0.11607626
205	0xbdb450d2	-0.08804478
206	0xbd0f10da	-0.03492818
207	0xbce2a6ff	-0.02766752
208	0x3da1739e	0.0788338
209	0xbdf50bba	-0.11965127
210	0xbc92841e	-0.017885264
211	0x3d522280	0.051302433
212	0x3c159457	0.009129605
213	0xbcd1ad39	-0.025595294
214	0x3d7b311b	0.061326127
215	0xbd08005b	-0.033203464
216	0xbe12bb9b	-0.14329378
217	0xbcf63254	-0.030053295
218	0xbde1493b	-0.11000296
219	0x3cc26176	0.023728114
220	0xbda52fc3	-0.080657504
221	0xbc8d5578	-0.017252669
222	0xbb7168c2	-0.0036836122
223	0xbbff9ba8	-0.007800538
224	0x3d0ff10b	0.035141986
225	0xbd1310f8	-0.035904855
226	0xbd7a3566	-0.06108608
227	0x3d0f42b3	0.03497572
228	0xbd3eafe2	-0.046554454
229	0xbe2903b7	-0.16505323
230	0x3cb0b3c1	0.021570088
231	0xbcdc2dd0	-0.026877314
232	0xbdaafc4a	-0.083489016
233	0xbd372308	-0.044711143
234	0xbc0cd97b	-0.008596773
235	0xbcafd631	-0.02146444
236	0xbd2f104a	-0.042740144
237	0x3d939306	0.07205777
238	0xbe045981	-0.12924768
239	0x3ca29890	0.019848138
240	0x3cdd1ed2	0.026992235
241	0x3d0710cf	0.032975014
242	0x3c0d4828	0.00862316
243	0x3c224d86	0.009906178
244	0x3c92a196	0.017899316
245	0x3c200d68	0.009768821
246	0x3c319de6	0.010840869
247	0xbd092835	-0.03348561
248	0x3cac38ce	0.02102318
249	0xbd9ee172	-0.07757844
250	0xbd1d764c	-0.038442895
251	0x3c9b0a44	0.018925793
252	0x3d6e616c	0.058198377
253	0xbd22db86	-0.039760135
254	0x3d87c240	0.06628847
255	0xbd51b688	-0.051199466

model.3.bias f4 [256]
0	0x3d7183ff	0.058963772
1	0xbd1ec526	-0.038762234
2	0x3b9cea58	0.004788678
3	0xbd756878	-0.059914082
4	0xbde1c168	-0.110232174
5	0x3e243f72	0.16039827
6	0x3d558b1e	0.052134626
7	0xbdba73a6	-0.091040894
8	0x3ddfd332	0.10928954
9	0xbdc7bcb4	-0.09752789
10	0xbd3a60cf	-0.04550248
11	0x3da60c85	0.08107857
12	0xbd952052	-0.07281555
13	0x3dbab303	0.09116175
14	0xbcc348a1	-0.023838343
15	0xbdb9ce2a	-0.09072526
16	0x3cee956b	0.029123982
17	0x3d0d6191	0.034516875
18	0x3d3a19ee	0.045434885
19	0xbd9c6fd9	-0.07638521
20	0x3d9f44bf	0.07776784
21	0x393dba48	0.0001809384
22	0x3d9e594f	0.07731878
23	0x3da8a35c	0.08234283
24	0x3dc0cc7b	0.094140016
25	0x3c2ff7af	0.010740205
26	0x3d552e5c	0.052046165
27	0xbd15cacc	-0.036570355
28	0xbd200608	-0.03906825
29	0x3dfc34d0	0.12314761
30	0x3e0e17cf	0.1387627
31	0xbcb29cf2	-0.021803353
32	0xbca4f47e	-0.020136114
33	0xbc3cb1de	-0.011517016
34	0x3e27fa2a	0.16404024
35	0xbc0f4aa6	-0.008745825
36	0x3e1e2a38	0.15445793
37	0x3d3ea8c2	0.04654766
38	0x3e6fb7a8	0.23409903
39	0x3d010cdc	0.031506404
40	0x3e2ca980	0.16861534
41	0x3d417a15	0.047235567
42	0x3db1a48a	0.086739615
43	0x3dee1114	0.11624351
44	0x3dd849ce	0.10560952
45	0xbd2a566d	-0.04158633
46	0x3e417c1b	0.18894999
47	0x3d426f75	0.047469575
48	0x3d877d2a	0.0661567
49	0x3c78c5ae	0.015183849
50	0x3d056bc6	0.032573484
51	0x3db87217	0.09006136
52	0x3da18697	0.07886999
53	0x3cc2b037	0.023765666
54	0x3bb4994d	0.005511439
55	0x3daedeb3	0.0853857
56	0x3e2ba9f8	0.16764057
57	0x3debe9fa	0.11519237
58	0x3c084cc9	0.008319088
59	0x3d8658d3	0.065599106
60	0x3d8f8824	0.07008389
61	0xbd8b9d8a	-0.068171576
62	0xbe43ca37	-0.19120108
63	0x3db7a6c4	0.08967355
64	0x3d5fea12	0.054666586
65	0x3d12575c	0.035727844
66	0x3d838291	0.06421388
67	0x3d4ae6c2	0.049536474
68	0x3d81e554	0.06342569
69	0x3c53f27a	0.012936229
70	0x3d1f5a85	0.038904686
71	0x3be5014a	0.006988679
72	0xbd3cb939	-0.04607508
73	0xbd803ce8	-0.06261617
74	0xbd747178	-0.059678525
75	0x3d4a65ac	0.049413368
76	0x3deea084	0.1165171
77	0x3d1e4432	0.038639255
78	0x3ce09676	0.027415495
79	0xbd60f431	-0.05492038
80	0x3d8ab461	0.06772686
81	0x3ca534ec	0.020166837
82	0x3d9667e1	0.07344032
83	0x3e1b65a2	0.15175489
84	0x3d0bf194	0.034165934
85	0x3dca3c9f	0.09874844
86	0xbe06953b	-0.13142864
87	0x3a2f8dae	0.0006696832
88	0x3e20961c	0.15682262
89	0x3c3f93d5	0.011692961
90	0xbcaf8b06	-0.021428596
91	0x3d49c905	0.049263973
92	0x3d7f2317	0.062289324
93	0x3d7356bf	0.0594089
94	0x3cc7221b	0.024308255
95	0x3de3327b	0.11093613
96	0x3c340d31	0.010989473
97	0xba508f4f	-0.0007955925
98	0x3d10f82a	0.035392918
99	0xbbacf49f	-0.0052781845
100	0x3d58d9de	0.05294215
101	0x3d788676	0.060675107
102	0x3caebca4	0.021330185
103	0x3db134c0	0.086526394
104	0xbcb666d8	-0.022265837
105	0x3d8addaa	0.0678056
106	0xbc0450d5	-0.0080759125
107	0xbe2f5650	-0.1712277
108	0x3e16e75e	0.14736697
109	0xbd5fab8f	-0.05460697
110	0x3ccbc864	0.024875827
111	0x3dd47814	0.103744656
112	0x3d158181	0.036500458
113	0xbd6064cf	-0.05478364
114	0x3ddef73a	0.108869985
115	0xbd4525a5	-0.048131604
116	0x3c23acf0	0.009989962
117	0x3e4620a6	0.19348392
118	0x3b2f7802	0.002677441
119	0x3d748a08	0.05970195
120	0xbad6365f	-0.0016343108
121	0xbd6f6a36	-0.0584509
122	0x3d41d318	0.047320455
123	0x3d7ca41e	0.06167995
124	0x39e8f200	0.00044430792
125	0x3ddff102	0.109346405
126	0xbd1ff3e4	-0.03905095
127	0x3c24a95e	0.010050146
128	0x3bcf5f4d	0.0063284994
129	0x3d80211d	0.06256316
130	0x3dc83b17	0.097768955
131	0x3d7a845b	0.06116138
132	0x3e0b0257	0.13575111
133	0x3cd27e6e	0.025695052
134	0x3d12b678	0.035818547
135	0xbe077638	-0.1322869
136	0x3e22b12c	0.15887898
137	0x3e0a5868	0.13510287
138	0xbe356d7e	-0.17717549
139	0x3dfb8c4d	0.122826196
140	0x3dee30a8	0.11630374
141	0xbcd06e88	-0.02544333
142	0x3dda2fec	0.106536716
143	0x3d5cfbed	0.053951193
144	0x3d5e0aff	0.054209705
145	0x3dfe678f	0.12422096
146	0xbd89466f	-0.06702887
147	0x3cf095e0	0.029368341
148	0x3dbe0e6c	0.092800945
149	0x3da38752	0.07984795
150	0x3d862fba	0.06552072
151	0xbd8a14ac	-0.06742224
152	0x3d3b2134	0.04568596
153	0xbdc28923	-0.09498813
154	0x3e3fcb63	0.1872993
155	0x3db3c403	0.08777621
156	0xbd6f4993	-0.058419775
157	0x3e07c842	0.13259986
158	0x3e09417a	0.13403884
159	0x3d32e1dc	0.043672428
160	0x3dd9d92f	0.106371276
161	0xbc6d9569	-0.014500954
162	0x3cf55ed5	0.029952446
163	0xbcb6caee	-0.022313561
164	0x3d5adfa8	0.05343595
165	0xbcf54264	-0.029938884
166	0x3d26abbe	0.04069113
167	0x3dacd0bd	0.08438251
168	0x3d322b40	0.043498278
169	0xbcc19319	-0.023629712
170	0x3e65ad0b	0.22429292
171	0x3e1d4f9e	0.15362403
172	0xb9e7466a	-0.00044112216
173	0xbce82b5f	-0.028340993
174	0xbdb8c437	-0.090218
175	0xbd2b6b6e	-0.0418505
176	0x3c4c510e	0.012470497
177	0xbc6d6343	-0.014488998
178	0x3c4fdcb4	0.012686897
179	0x3d8c3057	0.068451576
180	0x3dabfd06	0.0839787
181	0x3c03bee1	0.008041115
182	0xbc4fcff6	-0.012683859
183	0xbe0026be	-0.12514779
184	0xbc4b6930	-0.012415215
185	0x3d8f11ab	0.06985792
186	0xbc8490da	-0.016182352
187	0x3dca98f6	0.09892456
188	0x3defc4fc	0.11707494
189	0xbc6e5687	-0.014546997
190	0x3e206aee	0.1566579
191	0xbd04636b	-0.032321375
192	0x3c0a2457	0.008431516
193	0xbdb820da	-0.08990641
194	0x3c2e87a0	0.010652453
195	0xbd0f12e2	-0.034930117
196	0x3c8ee8a5	0.017444918
197	0xbda5fd66	-0.081049725
198	0x3d313522	0.043263562
199	0x3e0fc9dc	0.14041847
200	0xba828f92	-0.0009961
201	0x3d1164bc	0.03549646
202	0xbac505a3	-0.0015031587
203	0x3d6390ba	0.055557944
204	0x3cec1178	0.028816923
205	0xbc70dbe6	-0.014700865
206	0x3e2914e4	0.16511875
207	0x3de94d0b	0.11391648
208	0xbe18247a	-0.14857665
209	0x3c150d93	0.009097475
210	0x3d2fd57e	0.04292821
211	0xbcc0970c	-0.023509525
212	0x3d97740c	0.07395181
213	0xbe0f571d	-0.13998075
214	0x3e1c8980	0.15286827
215	0x3e206aca	0.15665737
216	0xbdba1040	-0.09085131
217	0xbc90a23b	-0.017655483
218	0xbd7f2e9e	-0.062300317
219	0xbb0950b8	-0.0020952653
220	0xbc13fbbb	-0.009032185
221	0xbe2dfdda	-0.16991368
222	0xbdb52967	-0.088457875
223	0x3d36d786	0.044639133
224	0x3d7f8d4f	0.06239062
225	0x3db1011d	0.086427905
226	0x3e3112cc	0.17292327
227	0x3d8923e7	0.06696301
228	0x3bad5567	0.005289722
229	0x3e6b6b7e	0.22990224
230	0xbd881b57	-0.0664584
231	0x3d0d797b	0.03453968
232	0xbceed6f3	-0.02915523
233	0xbb94d0be	-0.0045414856
234	0x3d254040	0.040344477
235	0x3b1ce98d	0.0023942918
236	0x3c87ce6b	0.01657792
237	0x3e25a7b7	0.1617726
238	0xbd6801c6	-0.056642316
239	0x3a920a98	0.0011142073
240	0x3d507b50	0.05089885
241	0xbd9207c2	-0.07130386
242	0x3c89447a	0.016756285
243	0xbbc2dea0	-0.005946949
244	0x3d920b32	0.071310416
245	0x3df57c64	0.11986616
246	0xbe1043b0	-0.1408832
247	0xbcc780b4	-0.024353363
248	0x3d66c9b2	0.056344695
249	0x3dd9d905	0.10637096
250	0xbd13f9de	-0.036126964
251	0xbd81ae17	-0.06332033
252	0x3d95cc08	0.073143065
253	0x3d8e3dcf	0.06945383
254	0x3e151009	0.14556898
255	0x3defee3d	0.11715362

model.6.weight f4 [1, 256]
0	0xbe8bfd27	-0.27341577
1	0xbe1d500a	-0.15362564
2	0x3e6452c4	0.22297198
3	0xbe3b4d35	-0.18291171
4	0xbeb1b38c	-0.34707296
5	0xbe9bac1f	-0.30404755
6	0xbe8e50fd	-0.27796164
7	0x3e8d460e	0.2759251
8	0xbd5dc89d	-0.054146398
9	0xbe97cda8	-0.2964909
10	0x3e6e1f2a	0.23254076
11	0xbe27984e	-0.16366693
12	0x3e6274d8	0.22114885
13	0xbec88a11	-0.39167836
14	0xbe5aeaf9	-0.21378697
15	0x3e74e211	0.23914362
16	0x3e17edff	0.14836882
17	0x3e8419a6	0.25800818
18	0xbe367d9c	-0.17821354
19	0xbe316a08	-0.17325604
20	0xbe2ca1b4	-0.1685856
21	0x3e462ed1	0.19353797
22	0x3e9e6b4c	0.30941236
23	0x3ea0c658	0.31401324
24	0x3eaa47fd	0.33258048
25	0x3e2b091e	0.16702697
26	0x3e8997ad	0.26873532
27	0xbe6e02ea	-0.23243299
28	0x3e71a3aa	0.23597589
29	0xbe71046d	-0.23536845
30	0xbe9772fe	-0.2957992
31	0xbdc6a5c4	-0.09699586
32	0x3e40261b	0.18764536
33	0xbded4443	-0.115852855
34	0xbe5e15c3	-0.21687989
35	0x3e35b41d	0.17744489
36	0xbe88a43d	-0.26687804
37	0xbe85dc93	-0.26144847
38	0xbe84546c	-0.2584566
39	0x3e854125	0.26026264
40	0xbebe643f	-0.37185857
41	0x3ea15092	0.31506783
42	0x3e917ed6	0.2841708
43	0xbe39b1d6	-0.18134245
44	0x3ea58f9d	0.3233613
45	0x3e5e18f5	0.21689208
46	0xbe21e5ec	-0.15810364
47	0x3e62b1e3	0.22138171
48	0xbea8535f	-0.32876107
49	0xbe754f1a	-0.23955956
50	0x3e89298e	0.26789516
51	0x3eaaef7c	0.33385837
52	0xbe9aeee2	-0.30260378
53	0x3eab32bd	0.33437148
54	0xbe24a02d	-0.16076727
55	0xbe5d4c25	-0.21611078
56	0xbe8e172a	-0.27752048
57	0xbd28b73b	-0.041190367
58	0x3e7a8218	0.2446369
59	0xbe2c6704	-0.16836172
60	0x3e52a138	0.20569313
61	0xbe326b19	-0.17423667
62	0xbf016f26	-0.50560224
63	0xbe10b6e9	-0.14132275
64	0xbe9cb5c4	-0.30607426
65	0x3e563bb4	0.20921212
66	0x3e62a37e	0.2213268
67	0xbe1ba902	-0.1520119
68	0x3ea4bce7	0.3217537
69	0x3e7b019d	0.24512334
70	0x3e9c7c6a	0.3056367
71	0x3e7ed7e7	0.24887048
72	0x3e5eac04	0.21745306
73	0x3e577fe3	0.21044879
74	0x3e48d345	0.19611843
75	0x3e8334fc	0.2562636
76	0xbe854626	-0.26030082
77	0x3e2107ef	0.15725683
78	0xbe3cd7c2	-0.1844168
79	0x3e63c4a1	0.22242977
80	0xbdb15e4e	-0.08660565
81	0xbdfa5622	-0.1222346
82	0xbdfc983b	-0.12333723
83	0xbe3b2a67	-0.18277894
84	0x3e9fbcb8	0.31198668
85	0x3ec35cf1	0.38156846
86	0x3e81ad19	0.25327376
87	0x3e473e4d	0.1945736
88	0xbe905576	-0.28190202
89	0x3e7e1600	0.2481308
90	0xbe18e165	-0.14929731
91	0xbe181df7	-0.1485518
92	0x3ea6e860	0.32599163
93	0xbdef2e72	-0.116787806
94	0x3e8a5cfc	0.27024066
95	0xbeab5d94	-0.33469832
96	0xbe43e986	-0.19132051
97	0x3e3a89da	0.18216649
98	0x3eabdf9d	0.3356904
99	0xbe800b69	-0.25008705
100	0x3e909181	0.2823601
101	0xbe91319f	-0.2835817
102	0xbe38df36	-0.18053898
103	0xbe0a0fb3	-0.13482551
104	0x3e84e2be	0.2595424
105	0x3e8cd1fc	0.27503955
106	0xbe0d5410	-0.13801599
107	0xbea69ff2	-0.32543904
108	0xbe8fb59a	-0.28068238
109	0xbe3b095d	-0.1826529
110	0xbe19c86f	-0.15017866
111	0xbeb7cc24	-0.35897934
112	0x3e86195d	0.26191226
113	0x3e73be58	0.23803079
114	0x3eb42500	0.3518448
115	0xbeafb622	-0.34318644
116	0x3e5d4ae4	0.216106
117	0xbe88a12e	-0.2668547
118	0xbe489fd6	-0.19592223
119	0xbeb80f87	-0.35949346
120	0xbe028214	-0.12744933
121	0xbe592121	-0.21204044
122	0x3e8b5e0b	0.27220187
123	0x3eaeb12c	0.34119546
124	0xbe08a542	-0.13344291
125	0xbe6c880e	-0.23098776
126	0xbe5d0d41	-0.21587087
127	0x3e74dd19	0.23912467
128	0xbe2e0634	-0.16994554
129	0x3e794e09	0.24346174
130	0xbecc57db	-0.39910778
131	0x3e869d95	0.262921
132	0xbea1bb2b	-0.3158811
133	0xbe3d961b	-0.18514292
134	0x3e9ab724	0.3021785
135	0xbeb8daf2	-0.36104542
136	0xbe6f1c93	-0.23350744
137	0xbe6abfde	-0.22924754
138	0x3e5c0a6b	0.21488349
139	0xbe76af90	-0.2409041
140	0xbeb9f336	-0.36318368
141	0xbe91ad15	-0.28452364
142	0xbebf0daa	-0.37315112
143	0x3e9915e9	0.2989953
144	0x3e97f26b	0.29677138
145	0xbd3b2d63	-0.04569758
146	0x3e1a23c1	0.15052702
147	0xbe3dfd40	-0.18553638
148	0xbde913d2	-0.113807335
149	0xbe4950d8	-0.19659746
150	0x3e617070	0.22015548
151	0x3e794e26	0.24346218
152	0x3ea0c9df	0.31404015
153	0xbe696084	-0.22790724
154	0xbe73bb58	-0.23801935
155	0x3e8e261f	0.2776346
156	0x3e5b2e33	0.21404342
157	0xbea8e53a	-0.32987386
158	0xbe568946	-0.20950803
159	0xbe953b6b	-0.29146895
160	0xbe432d30	-0.19060206
161	0x3e56f649	0.20992388
162	0x3e996189	0.29957226
163	0x3e5ec3a0	0.21754313
164	0x3e7baf89	0.2457868
165	0xbe967855	-0.2938868
166	0xbebe0362	-0.37111956
167	0xbebaefe4	-0.36511147
168	0xbe33646c	-0.17518777
169	0x3e7bd258	0.24591959
170	0xbe8acde1	-0.27110198
171	0xbe939fb9	-0.28832796
172	0xbe282da6	-0.16423663
173	0xbddf3482	-0.10898687
174	0x3e779282	0.24176982
175	0xbe1e8cf7	-0.15483461
176	0x3e623efc	0.22094339
177	0xbe27ca04	-0.16385657
178	0x3e84e60a	0.25956756
179	0xbde5b738	-0.11216587
180	0x3eab7a7c	0.33491886
181	0x3e17c9e8	0.14823115
182	0x3e8d7ef5	0.27635923
183	0xbe095766	-0.13412246
184	0xbe55218b	-0.20813577
185	0xbe643b38	-0.22288215
186	0xbe269eab	-0.16271465
187	0xbe0f79e3	-0.1401134
188	0xbe43266c	-0.19057626
189	0xbe184c1c	-0.14872783
190	0xbe8a7d26	-0.27048606
191	0xbe35216f	-0.17688535
192	0x3e04959c	0.12947696
193	0xbeb19c86	-0.3468973
194	0xbdd6ed1c	-0.10494444
195	0xbe5fc2cd	-0.21851654
196	0xbdd07671	-0.10178841
197	0xbe028dda	-0.12749425
198	0x3e455ba8	0.19273245
199	0xbe795750	-0.24349713
200	0x3e59b1d5	0.21259244
201	0x3e660cad	0.22465773
202	0xbebc4b9d	-0.36776438
203	0xbe71a4c0	-0.23598003
204	0x3e844cfa	0.25839978
205	0xbe10db31	-0.14146115
206	0xbea7644e	-0.32693714
207	0x3e64b07b	0.22332947
208	0xbe54eaa2	-0.2079263
209	0xbe19d31f	-0.15021943
210	0xbe052f8c	-0.13006419
211	0xbdd2952a	-0.10282357
212	0x3e97e80b	0.29669222
213	0xbea20f1a	-0.31652147
214	0xbe3d21ff	-0.1847
215	0xbe2be227	-0.16785489
216	0xbea281a2	-0.31739527
217	0x3e72fe1a	0.23729745
218	0xbe079d9d	-0.13243718
219	0xbe24d724	-0.16097695
220	0xbde9639f	-0.11395954
221	0xbe4aa2a0	-0.19788599
222	0x3e80b207	0.25135824
223	0x3e9121e5	0.28346172
224	0xbe044fee	-0.12921116
225	0x3ea80f52	0.32824188
226	0xbe4f5f66	-0.20251235
227	0xbe6257fc	-0.22103876
228	0xbe06ffda	-0.13183537
229	0xbe8f9298	-0.2804153
230	0xbe3ee0f3	-0.18640499
231	0xbdd9ddbc	-0.106379956
232	0xbe45821b	-0.19287913
233	0xbe0b8e11	-0.13628413
234	0xbdda00a5	-0.10644654
235	0x3e680582	0.22658351
236	0x3e0a3258	0.13495767
237	0xbebaa810	-0.36456347
238	0xbe4a542c	-0.19758672
239	0xbde682b6	-0.112554
240	0x3e6ff377	0.23432718
241	0xbeac99a1	-0.3371096
242	0x3e5c8a64	0.21537167
243	0x3e5dd00b	0.21661393
244	0xbe04eac4	-0.12980181
245	0xbe866fa4	-0.2625705
246	0xbe59b676	-0.2126101
247	0xbde68c3d	-0.11257217
248	0x3e86fc20	0.2636423
249	0x3eaab7d0	0.33343363
250	0xbea78756	-0.3272044
251	0xbe84dc52	-0.2594934
252	0xbe164a4c	-0.1467678
253	0x3e519c6e	0.2046983
254	0xbe8240d2	-0.2544008
255	0xbeb3e927	-0.3513882
