pythorch saved models/fed_classifier_cgan_ssl3.pth (torch, 831452 bytes, 20 tensors)

net.0.weight f4 [512, 69]
00000000: 1ea6 92be 3a59 193e 4b90 0a3d 820f 76bd
00000010: 841b 4ebd 7e41 dabd b2c6 9a3d 8a70 9fbe
00000020: 74d2 c93d c8a7 a43d cbfe b2bd 0721 3fbe
00000030: 9c0b 833e 1260 813e d85a 4ebe 020c e13d
00000040: 15db 093c 1632 153e 849f 1b3e 1bb2 b23d
00000050: b1cc 0ebe d9b8 23be 3a03 98bd 35fb 3abc
00000060: 1a04 1e3e 8e53 173e 6aef 883d 6510 3b3c
00000070: 4a4d 30bb c70a 273d 96da e8bc 2158 edbc
00000080: 07be 913c 4d4a bebd 73e7 b4bd 1938 9fba
00000090: c33e 4abc 14f6 003d 9c4c f7bd ed2a 2dbe
000000a0: e9be b73d 2c01 ffbc 7d16 863c 7bb6 88bc
000000b0: 3132 59be 78f5 98bf 37b6 8bbc b5b7 a5bf
000000c0: 98f5 bbbe 605c 863c bec2 743e b351 c4bd
000000d0: 46f9 eebd 163f b13c 63c0 0a3e 692f 173d
000000e0: 9d90 d8bd 810c a23d c282 91bd 56b5 5e3e
000000f0: efed 30be 01ab 3cbe 9270 8dbd 5b37 1abe
00000100: 0851 2cbc 2aed e5bd 7123 78bd d310 3dbd
00000110: 68b1 cfbe da33 213d e72c 9c3d c188 5f3b
00000120: 6da6 5d3d 78fa b53d db6a 67be 9f0e 92bf
00000130: 4ce4 ae3e 6554 4a3c e592 32be bf03 c73c
00000140: a824 18bf 7875 9a3d afd7 a03d df68 1dbd
00000150: b580 cd3c 278a e6bd d0ee 31be 90de 8dbe
00000160: f5e7 a93d f83a d53e e451 c7bd 6b8d 7d3d
00000170: 56e8 c73d 2bf6 033d 93a7 093e b9d6 b6be
00000180: 5844 37be d036 303e 74b7 ec3c da44 b2be
00000190: 3dbb 543e 3cf2 a1bd e09a 573d 0220 18bd
000001a0: 1727 3dbe 69bb 6d3d 2a38 9a3d 8b75 243e
000001b0: c133 17be aebd 83be d626 82be 856e 713d
000001c0: f13b 003e 4939 dabd 170d 653d f5e3 843c
000001d0: 11d9 6ebc e9f9 56bd 769e 5b3e e235 bc3d
000001e0: e93d babd b12e 06be 79d5 e93d f71d 43bd
000001f0: 5bbb f03d 77ef 1bbd 6c0a 213c 409c f33a
00000200: df4f c13d 7dbb a7bd efca 64be 1146 6bbe
00000210: 26c4 cd3d cc3c 1dbe f97a 6f3c 0484 4d3d
00000220: 02c0 85bc ee12 aebe a56e 29bc df67 13bd
00000230: b747 04be f66a bebd 2c4f a73c ec18 173d
00000240: 2bac 0dbe 2a52 553b f816 06bd bd2a b13d
00000250: 8daf b33d 8674 c3bc ce37 233e 79c9 a6bd
00000260: b455 18bc e4bc c0bd fd7c 3bbd 5223 4fba
00000270: b8d0 8d3c 3bf2 7e3c b39f b23d d727 f9bc
00000280: 3c43 483e 32f2 a0bd 973c ac3d 98dd 53bb
00000290: beab b5bd 2821 c53d 3c2a 6bbd bf37 a63d
000002a0: a80b c0bd d560 80bd d982 e5bd 38cc 783d
000002b0: b8ce 563d 0510 8cbc 2de5 e93c df39 983d
000002c0: c826 7bbe f95c 1abe de36 c93c 11d0 4c3d
000002d0: b31c 91bd 300a d93d e66b 59be 206f 373e
000002e0: 1cd6 113e 7ef2 1fbd 39f8 b33d 9a46 94bd
000002f0: 3797 dc3d 734b 093e dd7f 773d e8ae 28bd
00000300: 6c3b bb3c 4205 31bd 964d 73bd d0df 6dbb
00000310: 082d bdbb 6f66 fa3d 9e6e 27be 64f1 163d
00000320: 1490 d3bd a588 f03d 7a7d 0cbe 813b 40bd
00000330: 01b2 7d3c 9002 d6bc 930d 0940 4d7d f4bd
00000340: a82c 1d3e 182e 36bd d658 483e 210e 8cbd
00000350: 65cd db3d 9a55 a23e b315 ec3d befa bbbc
00000360: 0a43 64be a8c4 213e 7dbe 893e 7d11 503e
00000370: 61be 5cbe c22d e03d b2c6 57be ea15 723e
00000380: ef14 12be 607a c43b 6766 50bd 766e 1bbe
00000390: e8ae 68bd 50f7 2b3d 9b28 36be f63a f43d
000003a0: f85c 113e 0eba 9bbd 15e2 3fbd a1db 3cbe
000003b0: 2481 cdbd 7af4 c5bd 8b7d 34bd 72f5 35be
000003c0: e6a8 30be f2dc 1d3e 4470 14bc 07e1 22bd
000003d0: 6114 543e 1332 18be cae4 90bd 8cbb 85be
000003e0: f49d d1bc aab4 5bbe 1b20 253e 51e9 07bd
000003f0: cf73 c93d be00 423e b16b 07bd 0182 89bc
-0.28642362 0.14975443 0.033829015 -0.060073383 -0.05031921 -0.10657023 0.075574294 -0.31140548
0.09854594 0.08039814 -0.08740004 -0.18664943 0.25594795 0.25268608 -0.20151842 0.109886184
0.00841405 0.14569888 0.15197569 0.08725377 -0.13945271 -0.15988483 -0.074224904 -0.0114124315
0.15431252 0.14777967 0.066862896 0.011417483 -0.0026901537 0.040781762 -0.028424542 -0.028972687
0.017790807 -0.092915155 -0.08833208 -0.0012147456 -0.012344065 0.03148468 -0.12075159 -0.16910906
0.0897196 -0.031128488 0.016368145 -0.016688576 -0.21210553 -1.1949911 -0.01705466 -1.2946688
-0.3671081 0.01640147 0.23902413 -0.095858954 -0.11668639 0.021636527 0.13549952 0.03691045
-0.10574458 0.07912541 -0.07105018 0.21748862 -0.17278264 -0.18424608 -0.06906237 -0.15060179
-0.010517366 -0.11226876 -0.060580675 -0.046158623 -0.40565038 0.03935609 0.07625752 0.0034108611
0.054113794 0.08885664 -0.22599356 -1.1410712 0.34158552 0.012349223 -0.17438848 0.024293778
-0.59430933 0.07541937 0.078536384 -0.03843009 0.025085786 -0.11256819 -0.17376256 -0.27708864
0.082961954 0.41646552 -0.09732416 0.061902445 0.097611114 0.032217186 0.1344283 -0.35710695
-0.17897165 0.1720841 0.028896071 -0.34818155 0.2077455 -0.07907531 0.052637935 -0.0371399
-0.18471943 0.058040056 0.07530244 0.16060464 -0.14765836 -0.25730652 -0.25420254 0.05894329
0.12522866 -0.106554575 0.055920687 0.01622198 -0.01457812 -0.052484427 0.21447167 0.09189965
-0.0909384 -0.13103749 0.1141767 -0.047636 0.11754485 -0.03807017 0.009829145 0.0018585995
0.09439062 -0.081900574 -0.22343038 -0.22975947 0.10047178 -0.15355223 0.014616721 0.050174728
-0.016326908 -0.33998817 -0.010341321 -0.03598773 -0.12917982 -0.09297745 0.020423494 0.036889
-0.13835208 0.0032550194 -0.03273675 0.0865073 0.08773718 -0.023859274 0.15939257 -0.081438966
-0.009297777 -0.09411028 -0.045773495 -0.00079016865 0.017311439 0.015560682 0.087218665 -0.030414505
0.19556898 -0.07858695 0.08409994 -0.0032328125 -0.08870648 0.09625465 -0.057413325 0.081161015
-0.09377223 -0.06268469 -0.11206598 0.060741633 0.052443236 -0.017097482 0.028551662 0.07432913
-0.24526513 -0.15074529 0.024562296 0.050003115 -0.07085552 0.10597646 -0.21232566 0.17913485
0.14241832 -0.039049618 0.08787579 -0.07240029 0.107710294 0.13407688 0.060424674 -0.04118243
0.022855483 -0.043217905 -0.059400164 -0.0036296733 -0.0057731904 0.12226569 -0.16350791 0.0368513
-0.10330215 0.11744813 -0.1371974 -0.046931747 0.015484334 -0.026124269 2.1414535 -0.11937962
0.15349066 -0.044477552 0.19565138 -0.068386324 0.10732535 0.31705934 0.11527576 -0.022946712
-0.22291198 0.15797675 0.26903144 0.20319171 -0.21556999 0.109462276 -0.2107189 0.23641172
-0.14265798 0.0059960335 -0.05087891 -0.15178856 -0.05680743 0.041983902 -0.17788927 0.119253084
0.14195621 -0.076038465 -0.046846468 -0.18443157 -0.10034397 -0.09665771 -0.04406504 -0.17769411
-0.1725193 0.15416315 -0.009059969 -0.039765384 0.20710899 -0.14862852 -0.07074888 -0.2611965
-0.025588013 -0.21455637 0.16125529 -0.033181492 0.09836542 0.18945596 -0.033061687 -0.016785624

net.0.bias f4 [512]
00000000: 60c8 023d 6dbf 8c3d c18f 903d 4355 2c3d
00000010: 9b64 5dbd d427 b8bd 4ceb 93bc 7d26 cfbd
00000020: 0b5f b83b d943 acbc 6590 683d 2075 c73d
00000030: e6a2 d23d 5f50 e63d dd59 c4bd ae3d 613c
00000040: 4316 9cbd 6a5c db3c fcd0 54bd 91ce 333d
00000050: 00a0 3cbd fd6b 70bc 1bc0 88bd 92b2 59bd
00000060: 0035 cd3d ffdc e8bd 4b5e fe3c d781 5bbd
00000070: d1cd b73d 96cf 67bc dc63 ce3d 643a b2bd
00000080: eb7b af3c 67d0 cbbd 9e5b 9f3c 949d 033e
00000090: 9ae5 86bd 5eb9 913c 2179 30bd 4673 c5bd
000000a0: c47e 8c3d 1903 03bd b14b 71bd eef0 f0bb
000000b0: bfd7 513d 3b6a b83c 17c5 1abd ab4a 903d
000000c0: f7dc ab3d 9945 b1bd f602 fbbc 8c14 3fbd
000000d0: 39d6 ec3d adf5 fabb ace4 813c 6940 a3bd
000000e0: cbaf ffbc 782a be3d bbf5 d43c 9f26 49bd
000000f0: a33c ba3d 7e53 b13b fb84 cd3d 80c3 963d
00000100: eea7 bd3d 7ddb c3bd 3753 aebd 21c2 853c
00000110: 6f93 28bd 2795 95bd 7300 903d 769e a8bb
00000120: f0cd 9f3d d41d f43d 1152 57bd b49c 7ebd
00000130: cd7f 22bd 7e19 1abd 453a f0bd a9f9 aebc
00000140: 96d6 633c 96b0 c83d 199f 5c3c 0ae3 443c
00000150: c141 80bd 7b6d 35bc 71f3 913c 3353 2e3b
00000160: 46a1 713d 4cbd 743d 1345 d1bb 1e88 aa3d
00000170: 754b c3bd e9f7 afbd 64c3 a8bd aafd 99bd
00000180: d0f8 e93c 1d7e e4bd 0a41 9dbc f2a7 55bd
00000190: 3f70 e2bd 419f 8b3d bb04 16bd 0f1b dabd
000001a0: 384b b73d 266a 913d f049 7cbd b80f cbbc
000001b0: 4c2e 0ebd 260d 0abe 74be 4e3c 291c a33d
000001c0: 6c9c 3abd 5a2c ce3d 58e1 e13d 4b33 403d
000001d0: 0ce2 993d ff47 47bc 1c96 cf3b 950a 99bd
000001e0: a2bf 4d3c e075 8ebb 3180 e2bc 7b7b f8bd
000001f0: ec03 e0bd 5308 ca3d d179 583d eeb0 d3bd
00000200: 6a7a d3bd 95dc adbd 73d4 5b3d e0a7 573d
00000210: f45d 66bd ba47 823d c005 fcbc eb3d 66bd
00000220: 8db5 ba3c a1e6 a6bd 8d07 673d 9c27 823d
00000230: c115 393d b9a7 443c 43a8 403d aa09 bc3c
00000240: db46 6fbb b00b f1bd a98c 27bd 62f6 41bb
00000250: 232c fdbc 4259 a03d a360 eebd e7b3 b6bd
00000260: 2afb a4bd ed47 17bd 3c08 c1bd 0bd7 7ebd
00000270: 861d 233d fb00 1e3d aa37 9d3d 9556 783b
00000280: ca06 b03c 683e 843d c8fd 24bd 439b 3f3d
00000290: 3870 57bd a99a 24bd 54ed f5bb 283e a9bc
000002a0: d316 a5bc 9a2d 9d3d a12c 583b 7423 d2bc
000002b0: ce31 c73d 2732 ba3d 67e6 6dbb d3ec a7bd
000002c0: db51 d8bd 1bb5 2fbd b13f d53b efb5 ddbd
000002d0: dbbf 7fbb 01db 6ebc e683 1c3c e243 dfbd
000002e0: 87c1 00be 9722 dfbd 8a91 f3bc c29c e1bd
000002f0: e333 933d 611c 573d b208 c33d 6a96 8ebd
00000300: 88c5 cf3d a729 b63d e8b5 04bd 5e36 693d
00000310: a039 64bd 1703 a2bd 34e0 e6bc 2cc2 0d3d
00000320: 50f7 d23c ba94 86bd d6f4 db3c 5c11 2fbd
00000330: dcf2 8e3d ee76 42bc 0116 0fbc 5494 e13d
00000340: bb16 833d d9cf b23d e110 043d 3e91 afbd
00000350: 210d abbd 71ca f7bb 22e1 9d3c ad74 cbbc
00000360: d6b5 a73d 3f61 debd 8772 463d 02a1 0d3d
00000370: a232 893d 2ce0 eabc 9421 c13d 672a 98bd
00000380: 71d8 9cbc 4029 c4bd 9725 e33d 3dbf d7bd
00000390: bd86 b5bd 38ff 98bd b472 a23c a70a c13d
000003a0: bea9 3bbc 324d 89bd 6543 dd3c 2798 293d
000003b0: 3304 d13d 7dc0 2d3d 6c86 91bd 9bb9 483d
000003c0: f691 d33d ba84 bc3d 3940 36bd 0113 a13d
000003d0: ad8e f13c 16df 17bd e0fa 0dbd 29b5 14bd
000003e0: fed8 29bd 5488 1fbd b7b2 85bd 8379 82bd
000003f0: b060 bd3d 7ddd dbbd 922e 893d 311a ccbd
0.031929374 0.06872449 0.07058669 0.0420735 -0.054051023 -0.089919716 -0.018056534 -0.10114763
0.0056265644 -0.021028446 0.05677833 0.09739137 0.10284977 0.11245798 -0.095874526 0.013747616
-0.076214336 0.026777465 -0.051957116 0.04389817 -0.046051025 -0.014674184 -0.06677266 -0.053148814
0.100198746 -0.11370277 0.031050822 -0.05359062 0.08974803 -0.014148613 0.100776404 -0.087025434
0.021421393 -0.09951859 0.019452866 0.1285308 -0.06586762 0.017788585 -0.043084268 -0.09641127
0.06860116 -0.031985376 -0.058910076 -0.00735294 0.051231142 0.022511592 -0.037785616 0.07045492
0.08391755 -0.08655853 -0.03064106 -0.046650454 0.11564297 -0.0076586814 0.01585611 -0.0797127
-0.031211754 0.09285444 0.02599608 -0.049109098 0.09093597 0.0054115644 0.1003513 0.073615074
0.09260546 -0.095633484 -0.08511966 0.01632792 -0.04115623 -0.07303839 0.07031336 -0.005145843
0.07802951 0.11919752 -0.0525685 -0.062161162 -0.03967266 -0.037621967 -0.11729864 -0.021359282
0.013906142 0.09799306 0.013465666 0.012017021 -0.062625416 -0.011073465 0.017816277 0.0026599884
0.058991693 0.05975084 -0.006386408 0.083267435 -0.09535877 -0.08592207 -0.08240393 -0.07519086
0.028561026 -0.11156867 -0.019196052 -0.05216212 -0.110565655 0.06817485 -0.036625605 -0.10649692
0.08949894 0.07100324 -0.06159395 -0.024787769 -0.03471212 -0.13481578 0.01261865 0.079643555
-0.04555933 0.10067053 0.11029309 0.046923917 0.07513818 -0.012163161 0.006335033 -0.074727215
0.012557896 -0.004347548 -0.027649017 -0.12132927 -0.10938248 0.09864869 0.05285055 -0.10336481
-0.10326083 -0.08489338 0.053669404 0.052650332 -0.056241944 0.06361337 -0.03076446 -0.056211393
0.022791648 -0.08149458 0.056403685 0.06355211 0.04518676 0.012002879 0.047035467 0.022953827
-0.003651074 -0.11769807 -0.04090563 -0.0029596318 -0.030904835 0.078295246 -0.11639526 -0.089210324
-0.08055718 -0.03693383 -0.09425399 -0.0622168 0.039823078 0.038575154 0.07676633 0.0037893404
0.021487612 0.064572155 -0.040281087 0.04677893 -0.052597255 -0.040186558 -0.0075050984 -0.020659521
-0.020152485 0.076747134 0.0032985585 -0.025651671 0.09726296 0.09091597 -0.003630066 -0.081994675
-0.10562488 -0.042897325 0.0065078367 -0.10825717 -0.0039024267 -0.014578582 0.009552931 -0.109016195
-0.12573825 -0.10895269 -0.029732484 -0.11016227 0.07187631 0.0525173 0.09523143 -0.06962283
0.10145098 0.08894663 -0.03240004 0.056936614 -0.055719018 -0.079107456 -0.02818308 0.034609005
0.025752693 -0.06571336 0.026850145 -0.042741165 0.069799155 -0.011869175 -0.0087332735 0.110146195
0.0640082 0.0873105 0.03224266 -0.085726246 -0.083521135 -0.0075619747 0.01927239 -0.024835909
0.08188979 -0.10858392 0.048449066 0.034577377 0.066991106 -0.028671347 0.09430233 -0.074299626
-0.019146176 -0.0957818 0.11091154 -0.10534523 -0.0886359 -0.07470554 0.019830085 0.0942586
-0.011454044 -0.06704177 0.027009675 0.04140487 0.10205879 0.0424199 -0.07105717 0.049005132
0.10330574 0.09205003 -0.04449484 0.07864953 0.029486978 -0.037077986 -0.03466308 -0.03630558
-0.041466706 -0.038948372 -0.06528228 -0.06370833 0.09246957 -0.10735605 0.06698336 -0.09965933

net.1.weight f4 [512]
00000000: 11fa 3f3f 8f9f 5d3f 5e36 9c3f 13f5 433f
00000010: d964 513f e51b 9d3f 20c1 453f d674 633f
00000020: 6672 473f 887a 633f 8571 7a3f 1281 513f
00000030: 817b 423f 7783 9e3f 9153 4c3f 053e 7a3f
00000040: a18c 503f 5880 773f c198 633f 287e 413f
00000050: 1d93 ae3f b961 5d3f b302 563f 46da 843f
00000060: 854c 5e3f dd3a 6c3f 2df9 6e3f c812 943f
00000070: b304 183f c242 8b3f 8a3b 413f babc 393f
00000080: 5eec a33f 0f1b 493f 626c 593f 9008 843f
00000090: 05f2 7f3f 887d 5d3f 72d1 c93f fac0 403f
000000a0: 72c7 683f ae37 4d3f a718 313f c36e 443f
000000b0: a931 953f 85f0 3a3f 5db9 903f a926 603f
000000c0: bf29 623f 9bb8 2c3f fcfc 7e3f 2332 a93f
000000d0: 37fa 533f 4d7e 3b3f 99b0 463f 2472 383f
000000e0: 3915 233f c382 5e3f 4862 793f f08d 8e3f
000000f0: 58b4 753f 1bfa 2f3f d73f 903f ffcc a33f
00000100: 715a 6e3f 59b7 513f 975b 453f 9b0c 403f
00000110: 9ef3 793f 9408 623f c0e2 153f dd0e 753f
00000120: 8138 3e3f 4175 5c3f c7aa 473f daf4 993f
00000130: 0e16 d93f 10c6 4c3f 7208 863f 4f77 393f
00000140: 4af5 a03f 1468 4b3f 6fc1 843f 4df1 553f
00000150: 5194 5b3f 3c51 8f3f c492 913f 422f 533f
00000160: a7e3 7b3f 7be5 473f 795b 053f 8dd0 a13f
00000170: e11e 853f 8bef 393f 4e44 443f b218 933f
00000180: 3bc7 453f 7d62 553f ca1f 943f cbfb 643f
00000190: 743c 783f d7a6 b63f 46e9 a23f e7e9 7f3f
000001a0: 0d61 3e3f 963a 653f bcb2 5a3f 8d57 4a3f
000001b0: dd73 533f bfca 953f e197 643f e0bb 0c3f
000001c0: 6efe 6a3f 6a3d a93f 4470 403f 79a0 6c3f
000001d0: d203 623f e2c9 583f 8ebb 393f fabe 723f
000001e0: f8ac 5f3f d0d8 4e3f cdac 4a3f 4881 483f
000001f0: 23ea 463f 5d5e 553f 62a2 713f afa8 643f
00000200: b3cb 623f 29f9 883f 7032 083f 6db7 913f
00000210: d2d5 773f b6fb 583f 13cf 703f fe84 443f
00000220: 44ed 823f 9207 493f c4e6 863f dd61 033f
00000230: 2a3d 813f c007 2b3f c015 6c3f c01b 4d3f
00000240: 5abb 703f 37e0 4e3f 1947 783f 0136 2a3f
00000250: 73ac 783f c5b1 503f e0fa 773f 3ddb 423f
00000260: 9374 503f 7a82 353f c44a 733f 7f33 ac3f
00000270: 1e62 c23f 07bd 453f fede 703f 2be8 3f3f
00000280: 3e94 833f 4524 253f 90b0 733f bf22 823f
00000290: 01da 6e3f 9998 653f 797b a73f af56 6a3f
000002a0: 820d 6a3f 3966 223f c437 523f 4960 543f
000002b0: 039a 8a3f 1d20 863f 77c6 483f 316c 673f
000002c0: d93a 813f 16be 743f 5c88 6b3f 9280 613f
000002d0: cefd 9e3f 7832 893f bbc3 893f 0128 ee3e
000002e0: 1471 353f ad72 663f aa90 3d3f f046 693f
000002f0: 87ce 2b3f 0500 683f 049a 8d3f 3ee3 453f
00000300: b0b6 6a3f 1233 623f 99e6 f83e d937 743f
00000310: 195b 803f 0165 5f3f 3642 933f 3ed9 8c3f
00000320: ae83 523f b6c4 673f 103d a33f 09aa 523f
00000330: c9fb 553f 550b 8a3f 8fa3 783f e25c 813f
00000340: ecb5 a53f c3a9 763f 872a 6f3f d1c8 903f
00000350: c628 313f 5812 723f 94d4 543f 0289 363f
00000360: 75aa 583f 0a80 5c3f 8d65 983f b689 843f
00000370: 7e28 503f 545f 413f 7b12 c13e 2d36 4b3f
00000380: 97ec 6e3f d4b3 6c3f 00d4 543f a930 aa3f
00000390: 9f9e 2b3f ecf7 803f dbc9 403f 58e3 923f
000003a0: b319 2f3f f42d 533f 5722 8f3f fc21 733f
000003b0: 393e 873f 74f8 883f 56e1 bd3e 9bc5 9f3f
000003c0: 8828 233f 2da3 983f cbef 403f 1e80 363f
000003d0: 775f d73f 58f3 413f 67fb 983f fda6 4e3f
000003e0: af2d 543f 120a 093f 8688 613f 806b 8d3f
000003f0: e547 7d3f 58da 283f 6948 f73e 904d 493f
0.74990946 0.8657159 1.2204092 0.7654583 0.81794506 1.2274138 0.7724781 0.8885015
0.77908933 0.8885884 0.9782947 0.8183757 0.759697 1.238387 0.7981501 0.97750884
0.8146458 0.9668021 0.8890496 0.75583124 1.3638645 0.8647724 0.8359787 1.0379112
0.8683551 0.9227732 0.9334896 1.1568232 0.5938217 1.0879748 0.75481474 0.725536
1.2806509 0.78556913 0.84931004 1.0315113 0.9997867 0.8651967 1.5767043 0.7529446
0.9092933 0.80163085 0.6917824 0.7673151 1.165578 0.73023254 1.1306568 0.8755899
0.8834495 0.67469186 0.99604774 1.3218426 0.8280367 0.73239595 0.77613217 0.72049165
0.6370426 0.86918277 0.9741559 1.1137066 0.9597831 0.68741006 1.1269482 1.2796935
0.9310675 0.8192039 0.7709288 0.75019234 0.97637355 0.8829434 0.5854912 0.95725805
0.7430497 0.86116415 0.7799496 1.2027848 1.6959856 0.7998972 1.0471327 0.72447675
1.2574856 0.79455686 1.0371531 0.8357132 0.8577319 1.1196666 1.1372914 0.82493985
0.98394245 0.78084534 0.520927 1.264177 1.0400048 0.7263114 0.76666725 1.1491911
0.77257127 0.83353406 1.1572201 0.89446706 0.96967244 1.4269665 1.2727439 0.9996628
0.7436684 0.8954252 0.85428977 0.7903984 0.8259867 1.1702498 0.8929425 0.54974174
0.9179448 1.3221867 0.75171304 0.9243236 0.8828708 0.8468305 0.7255181 0.9482266
0.87373304 0.8079958 0.79169923 0.7832227 0.77701014 0.8334711 0.943884 0.8931989
0.8859207 1.0701038 0.5320196 1.1384102 0.9681064 0.8475908 0.9406597 0.7676543
1.0228658 0.78527176 1.0539174 0.513212 1.0096791 0.668087 0.9222069 0.8012047
0.94035876 0.80810875 0.96983486 0.66488653 0.97138137 0.81521255 0.9686718 0.7611578
0.8142788 0.70902216 0.9503596 1.3453215 1.5186193 0.7724156 0.9409026 0.74963635
1.0279615 0.6450847 0.9519129 1.0166854 0.933014 0.8968597 1.3084556 0.9153852
0.9142686 0.6343723 0.8211634 0.8295942 1.0828251 1.047855 0.78427833 0.9039946
1.0096084 0.9560255 0.9200494 0.8808681 1.2421205 1.0718527 1.0762857 0.46514896
0.7087567 0.9001873 0.74048865 0.9112387 0.6711201 0.9062503 1.1062627 0.7729987
0.9168501 0.8835918 0.48613432 0.95397717 1.0027801 0.87263495 1.1504581 1.1003797
0.8223218 0.9053453 1.275301 0.82290703 0.8358732 1.0784708 0.9712457 1.010647
1.2946143 0.96352786 0.93424267 1.1311284 0.6920284 0.9455924 0.8313687 0.7130281
0.84635097 0.8613287 1.1905991 1.0354526 0.81311786 0.75536084 0.37709412 0.7937954
0.9332976 0.92461896 0.83135986 1.32961 0.6703891 1.007566 0.75308007 1.147563
0.6839859 0.82491994 1.1182355 0.9497373 1.0565864 1.0700822 0.3708598 1.2482179
0.6373372 1.1924797 0.75365895 0.7128924 1.6826009 0.7576194 1.1951722 0.80723554
0.8288221 0.5353099 0.88098943 1.1048431 0.9893783 0.65958166 0.48297432 0.78633976

net.1.bias f4 [512]
00000000: 3e37 f0be 50cc 1dbe 6f6c e4be 9e4f e1be
00000010: 7101 14bf 6d8e 793e 2613 9bbe bd51 acbd
00000020: ce45 04bf a511 8fbe a5f0 18bf bac2 c9be
00000030: 6f21 62be fd22 a6be d120 c5be 0734 03bf
00000040: d87a c8bd 5f76 633e b102 18bf 5cef 93be
00000050: ee7c 1e3e 3b8a d5be 04ac f7be 96da fabe
00000060: d3fe 643e ed02 0fbf 237b 90be 579b 2fbf
00000070: 87bf 13bf ca45 babe c629 0fbf 7297 9dbe
00000080: f6e8 0abf 0c3c 16bf d645 dabe 6477 a0be
00000090: 6276 dfbe 1779 dabe 3dbf d9be 56b4 45be
000000a0: 88bd 5abe dac9 a2be 7c5e 50be 728b 4bbe
000000b0: b774 e5be b73f 0dbf d04d 613e ef4c aebe
000000c0: ff73 04bf b1c2 4dbd 8256 413e f9ec e7be
000000d0: e3ee 92be e0c7 e8bd f43d 95be 9dec 00bf
000000e0: 4ea9 f4be c36f d9be d4d1 dd3d 1dc3 e7be
000000f0: 0f14 fcbe c657 95be eb8a 8bbe b51a 343e
00000100: 83d4 abbe ec2f 53be 0a91 fcbe 3d71 a9be
00000110: a75e 5c3e b974 fcbe ccac 96bd 717e babe
00000120: ee8e f1be a752 38be 885c 4fbe 66e7 853e
00000130: 4618 0dbf 50e1 323e 670d 483e 07bd 05bf
00000140: eed8 b0be 4f33 d5be 1f1b 41bf 86b8 fabe
00000150: 8ca4 d1be 2eeb 04bf 1c57 09bf e633 acbe
00000160: 4b77 fd3d 1877 c6be 50af abbe a33f 033e
00000170: 189f aebe 9a5b acbe 6cb7 b3be f161 17bf
00000180: 9209 00bf d668 29be 19b4 683e c7ee 70bd
00000190: e014 27bf 991e 20bf 6941 883e 66ed 633e
000001a0: 06a9 c83d 0266 abbe 0f38 74be 996b 25bf
000001b0: 0efb 8fbe c4ef 873e 96ba 18bf b594 a5be
000001c0: d629 27bf ef6a b9be 4331 d8be ad6b 9bbe
000001d0: 19b8 d0be 5f7f c1be cc77 f03d f235 3a3e
000001e0: 1a26 7dbe 4aff ffbe 009b 41be 93a3 5abe
000001f0: 70ab 27bf 1dc1 6dbe f04e 14bf 2ee1 d2be
00000200: f01b d4be d927 163e 12ab 9dbe cc77 4d3e
00000210: 84fc ecbe 6431 73be 6dfc 8cbe 06e6 a7be
00000220: 2e75 e8be b6a9 d3be defb 0bbf 7481 02bf
00000230: 3d82 19bf 8d5b a6bc 66e0 7f3e 0d51 eabe
00000240: 1616 553e dd37 cabe 66ed c9be 9b67 01bf
00000250: cec7 ccbe 52fe 9cbe 28a2 40bf 78ab bcbd
00000260: a6f3 553e 4cbc 08bf ce14 2abf 07be fcbe
00000270: 948d 38bf 5678 56bf 5162 fabe ab4b 23bf
00000280: 67a4 8ebe c032 05bf df09 b43d 6fc4 b0be
00000290: 4b13 2ebf 1fc6 95be 8a0e dabe bfec e5be
000002a0: 58e2 afbe cb94 d9be f44a a4be 7148 9abd
000002b0: ee31 743e 9ae5 a3be b0a3 8ebd 2a6d b5be
000002c0: 7fc0 5d3e 2c8b 7e3e 9548 6b3e 89a0 97be
000002d0: 7874 27bf 76f0 cabe b1d7 95be 2bdc c1be
000002e0: 0dbb 79bf f04d 82be 9848 a0be a8e2 c0be
000002f0: 3a4f 62be c054 cbbe b66d d33d abc7 ffbe
00000300: e729 f6be 7b5e 55be f589 61bf 368a 06bf
00000310: b5bc 92be 7603 b8be 098e 11bf 6677 7c3e
00000320: 9894 0dbf 238d 5cbe a5da 84be 0bbc 133e
00000330: da3d 6cbe 3b98 5a3e 5df4 c3be 0ff5 063e
00000340: 50ba 223e ec73 37bf 6e72 493e 4445 dc3d
00000350: 658f 24be 252b 72bf f6be d0be 7b4a 9bbe
00000360: 43f4 d8be 21ba d2be 2308 14bf e789 09bf
00000370: b6f0 db3d 87ac 8dbe 2459 d8be 1efd 0cba
00000380: 3703 18bf 3ff3 fabe 83a6 dbbe 973d 2abf
00000390: 6169 e4be 0e17 7a3e cbce bbbd c854 38be
000003a0: 391c adbe 31e1 c1be 4c86 7b3e a68d 77be
000003b0: 3325 12bf c707 0abf f655 0cbf bcf9 723e
000003c0: f7c4 0f3e 7884 763e bb6d a5be 1a27 e3be
000003d0: 7410 2bbf fa84 09bf a586 c23d 4a58 41be
000003e0: f584 78be 44b8 fabe 7f59 11bf 72de 8cbe
000003f0: af7c 01bf da1a f4be 9ae5 17bf 0505 e1be
-0.46917146 -0.1540997 -0.44613978 -0.44006056 -0.578147 0.24370737 -0.30288047 -0.08414028
-0.51669014 -0.2794315 -0.59742194 -0.39406377 -0.22083066 -0.3244857 -0.385016 -0.5125126
-0.097890556 0.22213124 -0.59379107 -0.28893554 0.15477344 -0.41707024 -0.48373425 -0.48994893
0.22362833 -0.5586384 -0.28218946 -0.68596405 -0.5771412 -0.3638137 -0.55923116 -0.30779606
-0.5426172 -0.58685374 -0.42631406 -0.31341088 -0.43645006 -0.4267051 -0.42528716 -0.19307074
-0.21361363 -0.31794626 -0.20348543 -0.19877413 -0.4481561 -0.55175346 0.2200234 -0.3404307
-0.51739496 -0.0502345 0.18880656 -0.45297983 -0.2869788 -0.11366248 -0.2914883 -0.50361043
-0.4778542 -0.4246808 0.10831037 -0.45266047 -0.49234053 -0.29168528 -0.27254423 0.17588313
-0.3356057 -0.2062375 -0.49329406 -0.33094206 0.21520482 -0.49307802 -0.07357177 -0.36424592
-0.4717936 -0.1800028 -0.20250142 0.26153105 -0.55115163 0.17468762 0.19536363 -0.5224156
-0.34540504 -0.41640708 -0.7543201 -0.48968905 -0.40945852 -0.51921356 -0.53648543 -0.33633345
0.12376269 -0.38762736 -0.3353219 0.12817244 -0.34105754 -0.33663636 -0.35100877 -0.5913382
-0.50014603 -0.16543898 0.22724952 -0.058821466 -0.6526623 -0.6254669 0.26612404 0.22258529
0.09797864 -0.33476263 -0.2384951 -0.64617306 -0.28121227 0.26550114 -0.5965971 -0.32340017
-0.6529821 -0.36214396 -0.42225084 -0.30355588 -0.40765455 -0.3779249 0.117415994 0.18184641
-0.24721566 -0.49999458 -0.18906784 -0.21351461 -0.6549597 -0.23218198 -0.5793295 -0.41187423
-0.41427565 0.14663638 -0.3079458 0.2006523 -0.46286404 -0.2374931 -0.27536336 -0.3279268
-0.454019 -0.41340417 -0.54681194 -0.5097878 -0.5996435 -0.020307327 0.24987945 -0.45764962
0.20809206 -0.39495745 -0.39438933 -0.50548714 -0.3999619 -0.3066278 -0.7524743 -0.092123926
0.20893726 -0.5341232 -0.66437995 -0.4936373 -0.7209103 -0.8377737 -0.48903134 -0.63787335
-0.27859804 -0.52030563 0.08790945 -0.34524867 -0.6799819 -0.29252717 -0.42589217 -0.44907185
-0.34352374 -0.42496333 -0.32088435 -0.07533348 0.23847172 -0.3201111 -0.06964815 -0.35434848
0.21655463 0.24857777 0.22976907 -0.29614666 -0.6541209 -0.39636582 -0.29266122 -0.37863287
-0.9755104 -0.25450087 -0.31305385 -0.37672925 -0.22100535 -0.39713097 0.1032366 -0.49957022
-0.48078844 -0.20836823 -0.8810113 -0.52554643 -0.28659597 -0.3594014 -0.56857353 0.24654922
-0.5530486 -0.21538214 -0.25948063 0.14427201 -0.2307047 0.21347134 -0.38272372 0.1317942
0.15891385 -0.7166126 0.19672558 0.10755399 -0.16070326 -0.94597083 -0.40770692 -0.30330262
-0.42373857 -0.4115763 -0.57824916 -0.5372605 0.10739271 -0.2767069 -0.4225551 -0.00053782936
-0.59379905 -0.49013707 -0.42900476 -0.6650023 -0.44611648 0.24422857 -0.09170302 -0.18001091
-0.33810595 -0.3786712 0.24562949 -0.24175128 -0.5708801 -0.5391812 -0.54818666 0.23728079
0.1403998 0.2407397 -0.3231028 -0.4436577 -0.6682198 -0.5371853 0.09498338 -0.18881336
-0.24269469 -0.4896871 -0.56777185 -0.27513462 -0.5058088 -0.47676736 -0.5933472 -0.43949142

net.1.running_mean f4 [512]
00000000: 7841 073d 831e b23a f8ed caba 6d30 69bd
00000010: ef12 873d 8054 60be 8136 323d 79ee d5bc
00000020: ea1a 933d 7421 75bd 96e9 06bc b34e 613d
00000030: 1094 c9bd 3e10 6a3d 514f b2bd f508 74bb
00000040: e3a7 45bc 9e19 173e 930a 88bd 4c70 a63c
00000050: 5e0a 2dbe 53e3 31bc 7cd1 87bb 2590 44bd
00000060: e680 513e 33c9 e0bd 4062 8839 3461 063b
00000070: 931d 973d dae2 753c c883 343e 4381 e7bd
00000080: e069 e43b 2add 9cbd 284a 8bbb 293b b33d
00000090: db35 a6bd ed1a 2c3d 250e 4c3c 1521 14be
000000a0: 6aa0 5fbd e962 923c e76e 67bd 0cfe a7bb
000000b0: 915b 933c 4aaf 443c 87f5 2fbe 4f17 b3bd
000000c0: e68c 0d3e e2d5 d7bc 1e41 f23d 1bc9 8dbd
000000d0: 1d42 dcbc 62c8 3cbe ea41 d6bc 120e 11bd
000000e0: 0b85 553c 6f48 693d 80ac 83bd 44fb 1dbd
000000f0: 0da6 353d f5d1 35bc 685a fa3d 4940 13bd
00000100: 5f69 ab3d efb3 01be 9df3 94bd 99ba 3b3b
00000110: 49c9 cb3d 7e07 08be 0e25 033e 8804 91bd
00000120: 35f5 573d cad1 3d3e b5e4 1cbe cfe2 4cbe
00000130: 0efa e7bd 645c 1f3d fdc9 66be 8871 57bc
00000140: 7066 7bbd 74af 7a3d 08b5 00bd d531 a13c
00000150: a993 8cbd 5316 623c 355b 463d 9647 10bd
00000160: 8cc9 093e 25e7 f13d b245 abbd a6dc 10bd
00000170: 96f4 fabd 38b5 823c 12e8 7bbd 2ca9 07be
00000180: a616 6a3c dcb0 12bd cb6f 20be ea40 cabc
00000190: b563 96bd 2b7b 8d3c e16b 38be cb00 033d
000001a0: 9461 223d d567 c93d 5a23 b1bd d3c7 60bc
000001b0: d414 3dbd 81e3 8fbe d074 b83c 7a41 9f3d
000001c0: 4078 1a3c f521 183e da5d 06bc e1f6 ebbd
000001d0: e104 043d 3050 943d ca5f 943d 6aef c9bc
000001e0: d146 08be 681b 99bc 043a f3bd 922b 87be
000001f0: a24a 5ebd 6475 6dbd 21d5 cfbc f693 02be
00000200: 54f4 fabd 4775 3c3d 46a4 55bd 9760 85bd
00000210: dba6 a8bd 71d4 b33c 4158 8ebd f61f 5fbd
00000220: fda9 a1bd 3343 a1bd b6fe 193d 8276 583e
00000230: db4c 5c3d f27a 90bc d1ed 223e 8f7a c1bd
00000240: fd4a dabd b2fa edbd 8c91 89bd 5353 0c3d
00000250: 7ccb 1f3a c923 fd3c 07f0 d4bd ff43 71bd
00000260: d03d 2a3d 1779 06bd 88a0 093c eec8 19bd
00000270: 1c9f 42bb 5879 693c a992 c8bc 0073 033d
00000280: 1985 18bd 6930 db3d cf5d f0bd 7f84 3e3d
00000290: c795 c6bd a386 96bd 4da5 10bd 5cc4 a6bc
000002a0: a7d0 08be db07 243d 26f5 18be 7cfe a3bd
000002b0: d423 37bd 152e d0bc 3a12 14be 5402 b7bd
000002c0: a7ee 75be 102f c93d 7d01 063e 4d6a abbd
000002d0: c2af c83d f3be 29bd aae1 49bd 8477 6bbe
000002e0: e28d 33be eb63 14be 3134 e3bd a080 fbbd
000002f0: 5543 f43c 7232 9c3d 5396 7a3e 851b 68bd
00000300: 29fb c93d 93ad ce3c 6941 f83d bae7 513d
00000310: 9420 f9bd 41c2 eabd c72b b7bd 6341 b7bd
00000320: aa4c 92bb 38d2 14bd 9917 803d b524 ae3d
00000330: 029a 453d 0bb3 013e 689e 3e3b 9029 803e
00000340: 7d86 84bd 73a1 873d 549e 283e ef8d 663d
00000350: fcb5 0bbe a532 ba3c d30e 71bd 4ce0 e639
00000360: f6d8 2a3e 8ae0 8dbd 5614 31bb cfb5 af3d
00000370: 61a4 363e 2416 8c3a b0c3 d0ba aaa0 55bd
00000380: 75a6 02bd a647 40bd f791 6f3d 3dbb 18be
00000390: 3b50 91bd 0823 903d a1fc 7bbd 4715 103e
000003a0: beb3 6ebd 77f9 babc 8c3c f4bd 12bc a3bb
000003b0: 882c 86bc bc27 583d 0f3b 0abd 6ad7 bfbd
000003c0: d671 183e e65e 4cbd e2f9 a9bd 3efd ed3c
000003d0: 7c16 b1bc 1f83 debd ef35 a73d bf0e 5abd
000003e0: a283 47bc 8550 a7bc b1dd cdbd a455 7dbc
000003f0: ac0f 3f3e 46a1 c6bd 3948 293e 5e88 14be
0.03302142 0.0013589415 -0.0015482297 -0.056930948 0.06595408 -0.21907234 0.04350901 -0.02611469
0.07182868 -0.059846357 -0.008234402 0.055006694 -0.09842694 0.057144396 -0.08706535 -0.0037236784
-0.012063953 0.14755866 -0.06642642 0.02031722 -0.16898486 -0.010857421 -0.0041448455 -0.04798903
0.20459327 -0.10975876 0.00026013143 0.0020504715 0.07378688 0.015007699 0.17628396 -0.113039516
0.006970629 -0.07659371 -0.0042507835 0.08751518 -0.08115741 0.042017866 0.012454544 -0.14465745
-0.054596342 0.01786943 -0.05650225 -0.0051267203 0.017987998 0.012004683 -0.17183505 -0.0874468
0.1382328 -0.026347104 0.11828826 -0.069231234 -0.026886994 -0.18435815 -0.026154477 -0.03541381
0.013032208 0.056953844 -0.06429386 -0.038569704 0.04434781 -0.011097421 0.12224275 -0.03594998
0.08369707 -0.12666295 -0.07273028 0.0028645156 0.099505015 -0.13284108 0.12807104 -0.070809424
0.052724082 0.1853706 -0.1532162 -0.20008396 -0.11326991 0.03890647 -0.2253799 -0.013149627
-0.06137699 0.06120248 -0.031422645 0.019677082 -0.068641014 0.013799268 0.048426826 -0.03522452
0.1345579 0.118116654 -0.08362903 -0.035366677 -0.12253682 0.015955552 -0.061500616 -0.13248128
0.014287626 -0.035813197 -0.15667646 -0.024689157 -0.07343236 0.017270645 -0.18009903 0.031983178
0.03964384 0.098342575 -0.08649321 -0.013719517 -0.04616244 -0.2810326 0.022516638 0.077761605
0.009428084 0.14856704 -0.008201087 -0.11521698 0.032231215 0.07241857 0.07244833 -0.024650294
-0.13308264 -0.018689826 -0.118763 -0.2640043 -0.054270394 -0.05797328 -0.025370182 -0.12751755
-0.12253633 0.046010282 -0.052158616 -0.06512564 -0.0823495 0.021951886 -0.06950427 -0.05447384
-0.07893751 -0.07874145 0.037596427 0.21138957 0.053784233 -0.01763675 0.15911032 -0.09447204
-0.10658834 -0.11620082 -0.06717214 0.03425915 0.000609569 0.030900853 -0.10397344 -0.058902737
0.041562855 -0.032830324 0.00840009 -0.037545137 -0.0029696887 0.014250122 -0.024483996 0.032092094
-0.037236307 0.10702593 -0.117366426 0.046513077 -0.096965365 -0.07349899 -0.035313893 -0.020357303
-0.13360845 0.040046554 -0.14937267 -0.080075234 -0.044711903 -0.025412599 -0.14460078 -0.08935991
-0.2401682 0.098234296 0.13086505 -0.08369885 0.09799148 -0.04144187 -0.049287476 -0.2299481
-0.17534593 -0.1449124 -0.11093939 -0.12280393 0.029817263 0.07626809 0.24471407 -0.05666687
0.09862358 0.025229251 0.12121851 0.051246382 -0.12164417 -0.11462832 -0.08943897 -0.089480184
-0.0044647055 -0.036333293 0.06254501 0.08503095 0.048242576 0.12665956 0.0029086117 0.2503171
-0.06470964 0.06622591 0.16466647 0.056287702 -0.1364364 0.022729227 -0.058852028 0.00044036133
0.16684327 -0.06927593 -0.0027020178 0.08579599 0.17836143 0.0010687751 -0.001592746 -0.052155174
-0.031897027 -0.04694333 0.058488812 -0.14915176 -0.07095381 0.07037932 -0.061520223 0.14070617
-0.058276884 -0.022824032 -0.11925611 -0.004996785 -0.016378656 0.05277227 -0.03374773 -0.09367259
0.14887175 -0.04989519 -0.082996145 0.02905142 -0.021617167 -0.10864853 0.08164584 -0.05323672
-0.01217738 -0.020424137 -0.1005205 -0.015462313 0.18658322 -0.09698729 0.16531457 -0.14505145

net.1.running_var f4 [512]
00000000: ea99 a240 219d 4040 e759 af40 93c5 8640
00000010: 0a88 be40 47eb 0d42 098f 3841 eb10 1441
00000020: f74b 6a40 42ac 7e40 6e15 1c40 84fe b140
00000030: ff3d 0341 f241 b740 10e8 de3f 5091 5f40
00000040: 50be 1a40 e25f d641 3928 1c40 07b8 6940
00000050: 7a80 0442 dc3a 1c40 c4c0 ac40 dd80 d83f
00000060: 2507 bc41 5a32 2d40 5727 4340 bc82 2041
00000070: 6676 7540 15f5 7d40 4a33 1a41 3ff1 2e40
00000080: 7efc 893f b227 5740 c5a0 3b40 9743 a03f
00000090: 4f8d 3740 31dc e240 486e fb40 92f6 8940
000000a0: 886f ef40 f032 b23f 9abf 8d40 c4b7 9540
000000b0: eaf6 ea3f ea7e 3140 a23b 1f42 66d2 c940
000000c0: 904f 9a40 1759 d740 10e6 1942 5c5b e63f
000000d0: 8366 d240 ac85 2341 dccf 8240 00a7 c940
000000e0: 8301 9840 1cea 3e40 6f03 8e41 364c d13f
000000f0: 4570 9540 eb98 ab40 98a4 0a40 89f7 c441
00000100: 4d03 e740 7d36 1540 74ab ca40 5ec1 d33f
00000110: 3b42 0c42 f978 7340 261c 4340 444c bd40
00000120: c05d e83f 1dd9 fa40 9049 0941 32f8 0942
00000130: 09fa ce40 cacd 8241 172a df41 df3a 4740
00000140: c861 e940 b141 5b40 67a1 2f40 5cae 3e40
00000150: c329 9a40 157b 0f40 4c30 e540 4eb8 6e40
00000160: 9f5a a041 271f 4940 5cad 6440 a60a eb41
00000170: 788d dd40 85c4 af40 715c a640 f304 4140
00000180: c215 3040 27b1 4140 7f8f 0742 49f1 c940
00000190: a252 b740 d8a4 d240 80a8 1942 98d1 ff41
000001a0: d78e 1e41 9b19 d840 5632 d242 a5e8 ae40
000001b0: 5392 2340 2946 1942 3754 2140 f0ea 3440
000001c0: f472 4640 2df8 cb40 4b65 ce40 8782 7f41
000001d0: 3344 7f40 fcf5 ce40 02e4 1441 c33c 4f41
000001e0: 2906 1f41 5556 5140 d8ff ea40 a8b3 2a41
000001f0: 3f99 1441 1af3 3441 7e9d 2c40 c7de 6e40
00000200: 4f9d 0041 588f 0242 b719 ea40 9767 f341
00000210: fa7e e13f 0abb dd40 af99 fa40 925c 2c40
00000220: 5281 9340 de39 9440 a946 0e40 2ed2 1a41
00000230: e155 2d40 7bce 1641 6abd d141 f772 7e41
00000240: eaf2 e341 5322 7b40 bb94 ea3f 4374 2340
00000250: 315b 8940 81ab ab40 99a7 6d40 3bc2 ad40
00000260: ba5e d541 03eb 0140 7151 9c40 b530 863f
00000270: 8d33 6940 daee 3340 47fa 1641 a1e1 8e40
00000280: fff5 f540 18e6 5040 bcf0 7241 b816 d240
00000290: b132 7040 6e2d 2340 7fe7 943f 5234 1440
000002a0: ac59 1941 09df 7140 3c50 2141 6ed5 ae40
000002b0: 3448 0e42 23c4 0941 d835 fe40 a467 8440
000002c0: a0f6 0b42 8805 1742 7fde c941 950e 3c40
000002d0: c824 4041 fee7 2540 9a8a fc40 5576 0e41
000002e0: 80f6 7340 a437 cf3f 569d 7b40 820c 8c40
000002f0: dec5 0841 5dbf ea40 284d 0342 51ae 3040
00000300: 5f46 3240 381a 5140 2f23 1c41 5a83 3240
00000310: 5ead 1441 72c7 1c41 0a0b 8540 0ceb eb41
00000320: 5408 0040 3d1f 2a41 735f 4440 b74c e141
00000330: 2052 5c40 80c5 0a42 4a7b a340 59cf fd41
00000340: aefd 0442 d8b9 d93f 95c5 ee41 b312 e741
00000350: b818 c640 5579 5b40 f7a3 8140 de3f 9540
00000360: 37a2 2d41 f7e7 5940 818b 5b40 cdc2 6640
00000370: 54b9 9d41 d936 c640 62db 6c41 dac5 4441
00000380: 4990 8540 9b9e 6b40 7eac 0440 abd6 6440
00000390: 03ba 1540 6c2e 1b42 1b79 e840 4d17 3640
000003a0: 5dbf 4840 5c55 6f40 c47f 1b42 4ec3 9640
000003b0: e4ed 9540 2088 3540 4906 e640 6756 1a42
000003c0: ac5a e740 4ea6 2442 e270 9340 84a9 4840
000003d0: b0ec d740 7330 8c40 6219 d141 6fb3 9e40
000003e0: 7789 8440 75c5 4f41 7b45 7740 cf5b 2e40
000003f0: 1c9f 7940 63cf c340 2257 3041 9cb5 6240
5.0812883 3.0095904 5.4797244 4.211618 5.9541063 35.479763 11.534921 9.25413
3.6608865 3.9792638 2.438808 5.562319 8.202636 5.7268 1.741457 3.4932442
2.4178658 26.796818 2.439955 3.6518571 33.125465 2.4410925 5.398531 1.6914326
23.503489 2.7061982 3.049276 10.031918 3.8353515 3.9680836 9.637522 2.7334745
1.078018 3.3617978 2.9316876 1.2520627 2.8679998 7.089379 7.857212 4.311349
7.4823647 1.3921795 4.429639 4.6786823 1.8356602 2.7733712 39.808235 6.3069334
4.822212 6.729625 38.47467 1.7996631 6.5750136 10.220135 4.0878735 6.3016357
4.7501845 2.983039 17.751677 1.6351383 4.669955 5.3624167 2.166296 24.620867
7.219153 2.3314507 6.3334293 1.6543386 35.06468 3.8042586 3.048593 5.91556
1.815361 7.839003 8.58046 34.49238 6.468022 16.350483 27.895552 3.1129682
7.293186 3.4258845 2.7442262 2.979392 4.817598 2.2418873 7.1621456 3.729999
20.044249 3.1425264 3.573081 29.3802 6.923519 5.492739 5.1987844 3.015927
2.751328 3.0264375 33.890133 6.3107038 5.728837 6.5826225 38.41455 31.97734
9.909873 6.7531257 105.09831 5.465899 2.555806 38.318516 2.520765 2.8268394
3.1007662 6.374045 6.449865 15.969367 3.9885375 6.4675274 9.305666 12.952334
9.939004 3.2708943 7.343731 10.668861 9.287414 11.309351 2.6971126 3.7323472
8.038405 32.639984 7.315639 30.425581 1.7616875 6.929082 7.83126 2.69315
4.609536 4.632064 2.2230628 9.676313 2.7083666 9.42541 26.217487 15.903068
28.49361 3.92397 1.8326639 2.553971 4.292382 5.3646855 3.7133543 5.42996
26.671253 2.029969 4.8849416 1.0483614 3.6437714 2.8114533 9.436103 4.4650426
7.686279 3.2640438 15.183773 6.5652733 3.753094 2.5496478 1.1633147 2.3156934
9.584393 3.779238 10.082088 5.4635534 35.57051 8.610385 7.9440727 4.1376514
34.990845 37.7554 25.23364 2.93839 12.00898 2.5922847 7.891919 8.90389
3.8119202 1.6188855 3.931478 4.376527 8.548307 7.33586 32.825348 2.7606394
2.785545 3.2672253 9.75859 2.789267 9.292326 9.798693 4.1575975 29.489769
2.0005083 10.632627 3.0683258 28.162458 3.4425125 34.69287 5.1088 31.726244
33.247734 1.700984 29.846476 28.88413 6.1905174 3.4292805 4.0512652 4.6640463
10.852103 3.404783 3.4303896 3.6056397 19.715492 6.1941953 14.80356 12.298304
4.173863 3.6815555 2.073028 3.5756023 2.3394783 38.795334 7.2647834 2.8451722
3.13668 3.739585 38.87477 4.711341 4.6852894 2.8364334 7.188267 38.584377
7.2298183 41.162407 4.6075296 3.1353464 6.7476425 4.380914 26.137394 4.9594035
4.1417804 12.985707 3.8636158 2.7243536 3.9003363 6.1190658 11.021273 3.5423346

net.4.weight f4 [256, 512]
00000000: 308a 0f3e 9381 2cbf 994f babc 3ed1 df3d
00000010: 841d 0dbe e3d0 30bd 4e17 d3be d691 79be
00000020: 8c21 32be feb9 133e 8a91 ab3e 2f3f 283e
00000030: 1806 8fbe 74f5 8c3d b360 fbbe 2adc e33d
00000040: 7853 e4bc b7e8 c2bd 631f 93bd 92c1 b2be
00000050: a5ba 87bd 0632 c13d c5e5 f1bd ff1d 8fbe
00000060: 053a e3bd 222f b7bc 5081 43bd 9ff3 9dbe
00000070: 2694 1e3e df88 f53c e9ea 0cbe df62 c83e
00000080: 160a a13d 0992 82bd 2992 db3d 6a7f bbbd
00000090: ee2f a8be 8616 03bf 7b2f 243e e717 0e3e
000000a0: ba22 143e 3203 b7bc 555a d63d b435 13bf
000000b0: c9d3 33be 4b2a 6bbd 8cd3 fa3a b9e6 94be
000000c0: 36c6 5ebc 7bc6 0abe d614 363b e978 cbbe
000000d0: 8471 bbbd 092b 7b3d 4980 cbbd 2b78 6cbe
000000e0: 6a99 783d ac14 963e ce8a 5abd 4975 3ebe
000000f0: 7f01 bdbd 774c aabc cf20 f0bd 11f5 14be
00000100: 1561 553e e45d 25bf d7c2 6ebe 78e8 5dbe
00000110: 499e 0dbc b99a cfbd a037 20bd 0086 163f
00000120: 2219 9d3e 7461 67be 2afa 81bd cf91 2dbd
00000130: 2c51 36bc cf48 3dbe e0dc 373d f585 afbd
00000140: df11 743c 3e45 be3d 470e f63e 64c8 5d3d
00000150: afc9 b2be e076 463e 8e99 1dbf 7ad0 b93c
00000160: 82ad aabc a331 05be 9245 4dbd db4d 58bc
00000170: 51bd f9be 523a f3bc 7397 523d b17a 3f3e
00000180: 8fdf 9e3e 101b b2bc 70bd 41bd 2686 1e3e
00000190: db07 23bc 003e 9d3c ae03 84bd 7ad3 18be
000001a0: 44d8 17bc e6b7 113e 1b39 973e 3645 ce3d
000001b0: 676c 83be dd87 24bd 4f04 ef3b a299 f33d
000001c0: 08fb 2ebe d117 50bc 8118 8fbe ee29 31bc
000001d0: 2f30 90be 7965 a4be 2235 8dbd 8491 e3bd
000001e0: 1882 373d 2971 94bb 376f 883d 7d92 05bd
000001f0: c41f 72be 92cd 253e 7b49 263e 7930 da3e
00000200: 7421 813c a16f 69be 8d52 4dbe 33fa 5a3c
00000210: e7c9 783d 75de 283e 8a0c b3bd c4fc 21be
00000220: f094 bb3d 6434 59be 87b2 243e e8b6 c7bc
00000230: f0b7 ab3b 577d f43d bfab 7bbe 1d93 7abd
00000240: 9f89 b5bd 9cbc cf3e 9f93 5a3e 8e0f 39be
00000250: e59f fbbd 5b9a d8bd 802f 053f 71a9 3bbe
00000260: 362f 61be f5ca 233e fa4d ab3d 10fc 83be
00000270: 8f47 32bd 5fab e23e ab8a d3be 51b0 2abe
00000280: 438c 073e 2f45 793e 2c8f 79bd 60fd dfbe
00000290: 56b4 bc3d d9e8 c13d 6d69 e0bd 7350 55be
000002a0: e2f3 323e 8572 e23d 27f8 4e3e 233b 04bd
000002b0: 01b3 8cbd de46 443e 3df2 be3d de53 babe
000002c0: cab8 adbd 81da b9bd 34c8 4cbd e373 d8be
000002d0: 60b8 1cbf 647a b9be 5114 b2be 7d7a c6ba
000002e0: 5037 023f a805 11be d1c5 ad3d 3e1a 46be
000002f0: d9c0 593c 72fa e6bd 946f 3abe c949 10be
00000300: c003 62be 9f8f b2be 2a4a 24be 001d 933e
00000310: bd36 d6be 1995 99be 833e c33e 297c 10bc
00000320: fdea 843d be36 f8bc 2bdc 97bc a50b e0bd
00000330: baf0 afbd 915b 24be 921d 51be f121 123d
00000340: 3f00 66bd 2a65 553e fc77 4abe 5988 06be
00000350: 12e3 053e ea93 9b3d 40c6 5f3b ae26 4b3c
00000360: 511d 03bf d08e ccbe da69 123e ee2c a4be
00000370: 0f49 acbe 208b 123e b226 57bd 9572 0fbe
00000380: 9653 2c3f b6d1 0c3e 901b f23d aa4e fc3c
00000390: 075c 9a3e 5e13 d7bc 7483 b03d 8dcc 733c
000003a0: d3a8 a0bd 5649 f13d 1a11 77bd 1a8d 383e
000003b0: 579d 90be 982a 7d3d 758e 5cbe a860 7dbd
000003c0: 6d67 56be cd94 c53d a19e a03e dc25 88bd
000003d0: 9945 423c 0e93 563a 407f 42be 63a7 983e
000003e0: 1b5d e4bd 1b6b 9f3d b52a 92be 1532 5c3d
000003f0: 5793 58be 9f7c fc3d f811 85be a0d7 6f3e
0.14017558 -0.67385215 -0.022743033 0.10928582 -0.1378079 -0.04316796 -0.41228718 -0.24372038
-0.1739561 0.14426419 0.33509475 0.16430353 -0.27934337 0.06882754 -0.49097213 0.11125977
-0.027871832 -0.09517043 -0.07183721 -0.34913307 -0.066273965 0.09433369 -0.11811403 -0.27952573
-0.11095051 -0.022361342 -0.047730744 -0.3084993 0.15486202 0.029972492 -0.13761486 0.39137933
0.07863252 -0.0637551 0.10721237 -0.09155162 -0.32849067 -0.51206243 0.16033737 0.13876306
0.14466372 -0.02234039 0.10466448 -0.5750382 -0.17561258 -0.05741338 0.0019136532 -0.29082277
-0.013597062 -0.13552277 0.0027783415 -0.39740685 -0.09152511 0.06132034 -0.09936578 -0.23092715
0.060693182 0.29312646 -0.05335503 -0.18599428 -0.09228801 -0.020788414 -0.11725008 -0.1454661
0.20837815 -0.6459639 -0.23316513 -0.21670711 -0.008643695 -0.10136933 -0.039115548 0.5879822
0.30683237 -0.22595769 -0.06346543 -0.042375382 -0.011127751 -0.18484806 0.044888377 -0.08570472
0.014896839 0.09290551 0.48057768 0.054146186 -0.34919497 0.19381285 -0.6156243 0.022682417
-0.020834688 -0.13007216 -0.050115176 -0.013202156 -0.4877725 -0.029690895 0.051413964 0.18699147
0.31029937 -0.02174142 -0.047299802 0.15480861 -0.009950603 0.019194603 -0.06446014 -0.14924422
-0.00926787 0.14230308 0.29535756 0.10071795 -0.25668642 -0.04016863 0.007294215 0.118945375
-0.17087948 -0.012700991 -0.27948382 -0.0108132195 -0.2816176 -0.32108667 -0.068949 -0.11111739
0.0448018 -0.0045300913 0.066618375 -0.032610405 -0.2364493 0.161917 0.16238968 0.42615107
0.015763022 -0.2279649 -0.20051022 0.013365316 0.060739424 0.1649111 -0.08742626 -0.15819079
0.09159267 -0.21211392 0.16083728 -0.024379209 0.005240433 0.11937969 -0.24577235 -0.061175454
-0.0886414 0.40573585 0.21345375 -0.1807234 -0.12286357 -0.10576316 0.52025604 -0.18326356
-0.21990666 0.1599539 0.08364482 -0.25778246 -0.043525275 0.4427137 -0.41316733 -0.16668822
0.132371 0.24342798 -0.060927555 -0.43747997 0.09214084 0.0946824 -0.10957608 -0.2083147
0.17475846 0.11056999 0.2021185 -0.03228296 -0.0687008 0.19167659 0.09323547 -0.3639211
-0.08482511 -0.090748794 -0.049995616 -0.42275915 -0.61218834 -0.3622619 -0.34781125 -0.0015142706
0.5086565 -0.14162314 0.08484996 -0.19345948 0.013290607 -0.112782374 -0.18206626 -0.14090647
-0.22071743 -0.348752 -0.16043916 0.28733063 -0.41838637 -0.29996565 0.3813363 -0.008818665
0.06490133 -0.03029954 -0.018537601 -0.10939721 -0.08590837 -0.16050555 -0.20421436 0.0356769
-0.05615258 0.20839372 -0.19772333 -0.1313795 0.13074902 0.07596572 0.0034145266 0.012399359
-0.5121661 -0.39952707 0.14298192 -0.3206553 -0.3364949 0.14310884 -0.052527137 -0.14008553
0.6731504 0.13751873 0.118216634 0.030799229 0.30148336 -0.026254352 0.08618823 0.014880312
-0.07844701 0.11781566 -0.060319044 0.18022576 -0.2824504 0.0618082 -0.21538718 -0.061859757
-0.20937891 0.09647522 0.31371024 -0.06647846 0.011857414 0.0008185365 -0.18993855 0.29815206
-0.11150571 0.077841006 -0.28548208 0.0537587 -0.21149956 0.12328457 -0.25990272 0.23422098

net.4.bias f4 [256]
00000000: 45f5 77bc 135b a43b 077f 37bc a1ee 053d
00000010: 466c c6bc 0d4e 45bc 89ba d83c fb94 063d
00000020: 85f0 0ebd 82f0 e83c 02f6 d2bc c2f0 f9bc
00000030: a4e6 04bc 6f33 3cbb bfce c4bc ec1b 22bc
00000040: b82b e13c ac3e 843c 2ecc 513c 8ec5 0fbd
00000050: 5f9f 163d 63bf 03bd 5b38 d0bb d599 9b3c
00000060: 3c6e ea3c dbd8 0ebb 04ef 3ebc 5364 25bd
00000070: d3ff ffbc b20d d7bc 34ca eabc 08c4 ebbc
00000080: bf2d 1ebd e612 2c3d a63e 913c b426 0abd
00000090: 7ab0 663b 743c 66bc 0a01 1c3c edf5 6b3b
000000a0: bf5f 51bd bee4 1a3d 932c bcbc 6d3b da3c
000000b0: f95f d0bb 616e a23c 2612 853c c524 193c
000000c0: ee35 d23c 5a9a 86bc a44a 543c 50a1 b9bb
000000d0: 7a07 84bc 2c92 053d a8cb ae3b 8830 b4bc
000000e0: 1919 80bc 08b7 e13c b494 1b3d 9432 183d
000000f0: 9a4e b73c 3c1e 25bd 66c2 5fbc 17e8 a2bc
00000100: bc67 85bc e7f6 96bc f494 06bd e75b fdbc
00000110: c247 103c 4916 9e3c 9751 173d c6be 20bd
00000120: 8a4f 2ebd 651d 2cbc 419f 02bd b3b8 8c3a
00000130: ae5f 813c abcb ec3c 2222 96bc dd97 013c
00000140: bbe3 cb3c 7612 353c 1e81 893c 67fe 41bc
00000150: 26ba 073d 69af 1bbd 0d18 0e3b 21cb 493c
00000160: 8cda 183d 1deb 05bd 5daa 0f3d e7f4 dfbc
00000170: a7d4 1dbd 231f 35bd 7b3d 26bc e8b7 813c
00000180: aac8 b03c 636a 09bc b5c3 40bc 1d78 dabc
00000190: e6e4 aabc 522f 32bc 54f9 6cbc 9229 e23b
000001a0: 6c56 14bd 76c0 19bd 0d08 eebc 9dc0 d13c
000001b0: 1fa7 323c cdf0 adba 1349 bb3c 7f9a 873c
000001c0: f9a1 90bc cf3f eebc 7811 d83c 5bbd 5f3a
000001d0: 35f4 873c 8990 fabc 9412 2bbd 67d0 d03c
000001e0: f2ca 003d 2490 0abd 708f 19bd f9f4 3abc
000001f0: 6c5c 233c 7121 09bd d0b1 053c bfed b23b
00000200: 2422 bf3a 9acd 10bd 4d6d 93bc 4032 4cbb
00000210: c657 b73c 4f48 043d b534 e0bc 466b d33c
00000220: 9bcc 5c3b 351a 103d cbfc 813c ec26 de3c
00000230: af90 3ebc bfc3 1fbd 4912 12bd 290c 813c
00000240: 3a23 6cbc 10bb 95bb 6afe c4bc c896 363c
00000250: bca4 bcba db1e c93c 798d 763c 027c b13c
00000260: 6234 88bc cb19 d3bc 5b84 d2bc 5a5f 50bc
00000270: ef5b 433c d272 253d 8fe9 29ba e6ea 223c
00000280: 2063 da3b 392c 203d e88d 0d3d 070f fb3b
00000290: 8ce4 78bb 76ce 003b cf4c b8bc f249 ef3c
000002a0: 7b7b 10bd faa8 b0bc 9992 0b3d 34f6 de3c
000002b0: a6c5 1dbd c94b 093d e200 0d3c 7ffd b93c
000002c0: c4e8 153d 9c5a 283c 9ef3 2cbd 2d22 c23c
000002d0: 81af 19bc fcbe 87bc c4ef 4f3c ad4c c53c
000002e0: e0ba c6ba 54a0 203d d4cb f3bb 7465 3a3d
000002f0: 4455 0d3c 4ce6 01bb d1fe ec3c 051e 01bd
00000300: f05b f03c 691c 0dbd 7388 423d 59d2 96bc
00000310: c6cb e83c 6893 1a3c a560 083d a41f 1f3c
00000320: c50b 4ebc 719a a83c cddd 33bd 7128 3bbd
00000330: 06c8 b3bc 93a9 c6bb 3351 c3bc 40bb e6bc
00000340: e650 cf3c 6dde 313d 55c8 193d e186 333d
00000350: f3aa b0bb ab3b c5bc 5f15 653c 9e8d 20bd
00000360: 3e32 c2bc bf38 d13c c996 9d3c a4fd 2c3d
00000370: 7667 813c 003a 28bd d2c2 3abb c1a7 14bd
00000380: f285 7dbb c089 0dbd 6ec0 8f3c 2cef 713c
00000390: 79ac 47bc 2969 793b f747 1fbd 9792 19bd
000003a0: c0ee ec39 3e19 fe3b 1ff1 87bc 9107 3dbb
000003b0: 557e 0abd 0caa aa3b df1c 123b 1ab6 bebc
000003c0: a02c 083d 8e74 c0bc b2bc 9b3c 5b3e f13c
000003d0: 41d8 11bd 765a 7cb5 b03d ff3b 779d c13b
000003e0: 3400 ffbc 97bd 7e3c ceaa a63c f289 483d
000003f0: af33 15bd 118f 213d 2245 d03c 7e03 62bc
-0.01513416 0.0050157397 -0.011199719 0.032698277 -0.02422155 -0.012042535 0.026456134 0.032856923
-0.034897346 0.028434996 -0.025752071 -0.03051031 -0.00811163 -0.002871718 -0.024024365 -0.009894352
0.027486667 0.016143166 0.012805028 -0.035100512 0.036773082 -0.032164942 -0.0063543743 0.018994251
0.028617017 -0.0021796736 -0.011653665 -0.04037888 -0.031249916 -0.026251648 -0.028660871 -0.028779998
-0.038617846 0.04201021 0.017730068 -0.033728316 0.0035200403 -0.014052499 0.009521732 0.0036004737
-0.0511167 0.0378158 -0.022970473 0.026639665 -0.006359097 0.019828023 0.016244005 0.009347145
0.025660481 -0.016431022 0.012957249 -0.005664982 -0.016116846 0.032610103 0.0053343363 -0.021995798
-0.015636967 0.027553096 0.03798361 0.03715761 0.022376347 -0.040312037 -0.013657188 -0.01988606
-0.016284816 -0.01842828 -0.032856897 -0.030927612 0.008806171 0.019297736 0.036943045 -0.039244436
-0.042556323 -0.010505055 -0.031890158 0.0010736197 0.015792694 0.02890571 -0.018326823 0.007909742
0.024888864 0.011051765 0.0167852 -0.011840439 0.03313651 -0.03800908 0.0021681816 0.012316496
0.037317798 -0.032694925 0.03507458 -0.027338458 -0.03853288 -0.044219147 -0.010146494 0.015834764
0.02158006 -0.008387181 -0.01176541 -0.026668603 -0.0208611 -0.01087554 -0.014463741 0.006901928
-0.03621523 -0.03753706 -0.029056573 0.02560454 0.010904103 -0.0013270617 0.022861993 0.016553162
-0.01765536 -0.02908316 0.026375517 0.0008534991 0.01659594 -0.030586498 -0.041765764 0.025489999
0.031443544 -0.03382887 -0.03749031 -0.011410945 0.009970766 -0.033479158 0.00816007 0.0054604704
0.0014582318 -0.035352327 -0.017996455 -0.003115788 0.02238072 0.03229552 -0.027368883 0.025807988
0.003369129 0.035181243 0.015867611 0.027118169 -0.011631175 -0.039005037 -0.03566197 0.015752869
-0.014412696 -0.0045694187 -0.024047095 0.0111443475 -0.0014392356 0.024550846 0.015048378 0.021665577
-0.01662654 -0.025769135 -0.025697878 -0.012718046 0.011923774 0.040392704 -0.00064816413 0.009943699
0.0066646487 0.039104674 0.03455916 0.0076617035 -0.0037978021 0.001965431 -0.022497563 0.029210065
-0.03527401 -0.02156495 0.034075353 0.027217008 -0.03851857 0.03351954 0.0086061675 0.022703884
0.036598936 0.010275509 -0.04222452 0.023697937 -0.009380222 -0.01657056 0.012691442 0.024084413
-0.0015161894 0.0392154 -0.0074400697 0.04550691 0.008626286 -0.0019821106 0.0289301 -0.03152277
0.029340714 -0.034450922 0.04749341 -0.018410848 0.02841748 0.009434558 0.033295292 0.009712134
-0.012576048 0.020581456 -0.043912698 -0.045692865 -0.021945965 -0.0060626953 -0.02384243 -0.02816546
0.02530713 0.043425012 0.037544567 0.043829802 -0.0053914725 -0.024076303 0.013982146 -0.039197557
-0.023705598 0.025539754 0.019236939 0.042234078 0.015796404 -0.041070938 -0.002849747 -0.036292795
-0.0038684574 -0.034555197 0.017547812 0.014766496 -0.012187117 0.0038057065 -0.03888699 -0.037493315
0.0004519131 0.007754474 -0.016594468 -0.0028843621 -0.033811886 0.0052082594 0.002229504 -0.023280192
0.033245683 -0.023493078 0.019010875 0.029448679 -0.035606626 -9.4008954e-07 0.007789336 0.005908664
-0.031128027 0.015548131 0.020345118 0.04895968 -0.036426242 0.03944308 0.02542359 -0.013794778
