pythorch saved models/fgan2_generator_fm.pth (torch, 806850 bytes, 14 tensors)

model.0.weight f4 [256, 117]
00000000: 8da5 4e3d bf09 e4bc fc58 303d a7d9 98bd
00000010: 47f1 ae3d f068 643d 34fe 6a3c 96dd 22bd
00000020: d459 3a3d 8faf 5bbd f395 0ebd 191e 99bb
00000030: 8a54 2d3d 2a45 473d 0e2d 2f3d e281 2c3d
00000040: 54b8 b5bc ccb6 113d 019c d0bb 76b6 edbc
00000050: b42e 093b a778 bb3c 531d f3bb dcb0 9fbd
00000060: a484 cbbd e80d 9338 0788 02bd 6b95 8abd
00000070: 5da3 0c3d 4466 2dbd 6eca d73c be03 253d
00000080: b88e 42bc 3c47 d5bc 47a0 13bc 36b0 473c
00000090: b3d4 8bbc a3c0 af3c f33a 023d beec a6bd
000000a0: 9948 d23c 91d9 d73d 20ae c23b c0c2 0e3d
000000b0: 7968 903d 763e 5e3d 309b 4cbd fc2a 88bd
000000c0: a064 b03d c61f 2bbc 7a70 1bbd b8d1 42bd
000000d0: c7a6 e43c e5a7 3f3d 94b4 c2bc d675 583d
000000e0: 0a92 b0bd a390 0f3d 698e 9cbc 1f0e 0b3d
000000f0: d1ff 0f3d aa46 7c3d b5f4 833d faf6 c3bd
00000100: c5cc f73c 4cf6 22bc 0bfd 32bd 482a 0f3b
00000110: 464b 873d d198 e4bb bd85 f43c 3fe8 27bd
00000120: f2f7 973d 451a 83bc e5d6 96bd 8a04 c73c
00000130: f2df 823d 4546 0fbd 7fd1 35bd b2f2 bebc
00000140: c28d debb dbef 91bc 1a2f 2abc 48ff 57bd
00000150: 9e59 473d 998c 64bd 0674 253d a53a 323c
00000160: 4e36 d6bb e8f3 c13d 1954 a63c aa8e 8bbb
00000170: 2e5b 9cbd d69c 2fbd c613 5a3d a247 bcbc
00000180: 66a2 d93c 3518 a43d fcc3 7cbc 9e99 6cbc
00000190: 0f28 1d3e 8f4a ac3e efb8 fe3c f0bc e8bd
000001a0: da6e c8bd 74a0 a5bd e5c6 52be bea5 143e
000001b0: abbf efbd fb63 8c3e dcf9 90bd c897 153d
000001c0: 3b7f 0ebe 42a8 a3bd eea6 b0bd 49e6 69bd
000001d0: 741c b6bd d2cd abbc ea00 bebd 53cd c93c
000001e0: 501b d23c 64af 543c a988 fb3c 27d8 80bc
000001f0: b638 643d 9530 243b 17c5 dabc 0636 53bc
00000200: 802d ddbd e292 1f3d 75d1 493d 98e8 ed3a
00000210: 6eb5 9d3c d7d8 8bbc 28e5 563d 561b cebc
00000220: 8c67 9d3d c6e3 7cbd d65d 803d 0023 25bd
00000230: 16a0 08bd 1cdc 3b3c b651 ef3c 4b3e d53c
00000240: 51dd c73c 9770 86bc 75d1 18bd 8b32 0dbd
00000250: 6d3c a5bb 00bf 8e3d 00f3 23bc 0f62 303d
00000260: 79d8 8a3c 80e0 6bbc a006 78bd 337b b43c
00000270: 1c60 aebd 7e13 79bc a53b ed3c c3c3 d1bd
00000280: aed5 84bd 390d 783d 3945 d13d 8b67 1f3d
00000290: c8a9 403d eda3 f23c dceb 673d 387b a53c
000002a0: 2705 8f3d 1e1d 0d3d 9b85 b73c 4740 e73c
000002b0: 1b46 23bc 3a83 063d 5999 293d 2a3d c8bc
000002c0: 7520 90bc 8cc7 1d3d ac99 383b b6dc 08bd
000002d0: d293 77bd 3f24 7cbd 7317 24bd 2402 febb
000002e0: dc03 b43b 5867 6ebd 74c1 e8bc 5c5a 4abd
000002f0: 8ede 843d 49a9 b5ba 904f 32bd c880 933d
00000300: 7be0 2dbc 209e 6cbd 26c8 94bd 52c9 cd3d
00000310: 8cf9 673d 1b70 53bd 7f60 e6bc 62c9 dc3d
00000320: 4881 2cbd 76dd ba3d 635e 993d 3638 a8bd
00000330: d07f 8cbc f82e eabc 4b40 e73c 2509 f03c
00000340: d88e 23bd bf33 fcbc e4a6 05bd 904a 3b3c
00000350: 2603 23bd b419 713c 4250 5b3d 58c7 0c3d
00000360: 5c5d 7dbc 8f79 e93c 8516 a9bd e06b 10be
00000370: fe12 b03e 95e2 31be 8ab4 a9bd 2538 8c3d
00000380: b5f6 0ebe 05dc 75be 43da 1bbd 51fb 2b3e
00000390: 74c5 f5bc c13f d13d 7a0d 0c3d 885a a1be
000003a0: 578c c23d a12f 8ebc b75c 503d 7117 063d
000003b0: c678 023c c29c 84bd c24d 38bd 416e 313d
000003c0: f0db 5a3d 8b00 853c b0b8 a23d aa79 c43c
000003d0: c963 1abd 57fe d03d ef91 cebd e2d3 953d
000003e0: 886d 073d cc7e 83bd 9e95 30bd 382a a8bd
000003f0: 4c00 8b3c f890 d5bd f4f7 0e3c 6ee2 673b
0.05045085 -0.027836679 0.043053612 -0.07463389 0.08542114 0.05576414 0.014342833 -0.039762102
0.045495823 -0.053634223 -0.03481097 -0.0046727774 0.04231695 0.048649944 0.042767577 0.042116053
-0.022182621 0.03557472 -0.0063662534 -0.029017668 0.0020932378 0.02288468 -0.007419267 -0.07797405
-0.099374086 7.0120965e-05 -0.031868007 -0.067667805 0.034335483 -0.042333856 0.026341643 0.040286772
-0.011874847 -0.026034944 -0.009010381 0.012188008 -0.017069196 0.021454161 0.0317945 -0.08150624
0.025669383 0.105395444 0.0059411675 0.034853697 0.070511766 0.054258786 -0.049952686 -0.066488236
0.08612943 -0.010444587 -0.037949063 -0.047563285 0.027911557 0.046790976 -0.023767747 0.052846752
-0.08621605 0.035050046 -0.019110875 0.033949014 0.035156075 0.061590828 0.064431585 -0.095685914
0.030249009 -0.009946417 -0.04369835 0.002184527 0.06606154 -0.006976225 0.029848928 -0.04099297
0.07420339 -0.016003737 -0.07365207 0.024294157 0.063903704 -0.034979124 -0.044389244 -0.023309086
-0.006791801 -0.017814567 -0.010387206 -0.05273369 0.04866945 -0.055798147 0.04039385 0.01087824
-0.0065372353 0.094703496 0.020303773 -0.0042589502 -0.07634579 -0.04287418 0.053241514 -0.022983376
0.026566695 0.080124296 -0.015427586 -0.014440922 0.15347312 0.33650634 0.031094043 -0.11364162
-0.09786768 -0.08087245 -0.20583685 0.1451635 -0.1170648 0.2742003 -0.07078907 0.036521703
-0.13915722 -0.07991077 -0.08625589 -0.057104383 -0.08892146 -0.020972166 -0.09277518 0.024634039
0.02564779 0.0129812695 0.030704813 -0.01572807 0.055718146 0.0025053371 -0.026705308 -0.012891298
-0.10799694 0.038958438 0.04927202 0.0018150983 0.019251551 -0.01707117 0.052464634 -0.02515952
0.076857656 -0.06174066 0.06267898 -0.04031658 -0.033355795 0.011466052 0.029213767 0.02603068
0.024397524 -0.016411109 -0.03730913 -0.03447203 -0.0050426037 0.06970024 -0.010006666 0.043062266
0.016948925 -0.014396787 -0.060553193 0.022031402 -0.08514425 -0.015202401 0.028959105 -0.10242417
-0.06486069 0.060559485 0.10218281 0.038917106 0.047036916 0.029619182 0.056621417 0.020200357
0.069834046 0.034451596 0.022402575 0.028228892 -0.009965445 0.03283999 0.04140601 -0.024443228
-0.017593602 0.03852038 0.0028167767 -0.03341361 -0.060443707 -0.061558004 -0.040061425 -0.00775172
0.005493624 -0.058204025 -0.028412558 -0.04940258 0.064877614 -0.0013859655 -0.043532908 0.072022974
-0.010612602 -0.057767987 -0.07264738 0.100481644 0.05663447 -0.051620584 -0.028122185 0.10780598
-0.04211548 0.091242716 0.07488706 -0.082138464 -0.01715079 -0.02858685 0.0282289 0.029301235
-0.03993115 -0.030786393 -0.032629862 0.011431351 -0.039797924 0.014715601 0.053543337 0.034369797
-0.015464153 0.028500346 -0.082562484 -0.14103651 0.3438949 -0.1737159 -0.08286388 0.06846646
-0.13961299 -0.24009712 -0.038049947 0.16795088 -0.03000138 0.10217238 0.03419254 -0.31514382
0.09499424 -0.017356696 0.05086967 0.0327372 0.007963365 -0.06475212 -0.04499603 0.043318037
0.053432405 0.01623561 0.079453826 0.023983795 -0.03769282 0.102047615 -0.100864284 0.07315804
0.03306344 -0.06420669 -0.043111436 -0.082111776 0.016967915 -0.10428041 0.008726109 0.0035382765

model.0.bias f4 [256]
00000000: 248a bb3d 0812 6bbd 1832 04bb 0ea5 78bd
00000010: 9104 d4bb 461b 693c 0d38 2a3d 5bc1 853d
00000020: c1d7 71bd d969 883c 52a7 88bd 4369 aebc
00000030: ab31 62bd 78a6 a2bd 8fdc 26bc 5881 68bd
00000040: 9ae9 9abd 46d2 0e3c c805 81bc 62be a5bd
00000050: 6aaf a2bd 0e23 29bc e6cf 4e3c f228 e5bc
00000060: 6809 af3d 137c 1d3d 4a45 0ebc 684e b0bd
00000070: a642 bd3d 50d4 8dbb 73bf acbd 6b77 833d
00000080: 155f b13d 88c0 933d af73 153d 9cf4 ba3b
00000090: 1fab 343d ec48 873d 6db6 473c 879d bcbc
000000a0: 48a8 353d 28a3 44bd 4fa6 abbc bd53 dcbc
000000b0: 9afb f53c b50b 4b3d a59e ac3a 34f3 83bc
000000c0: 10bd c63c e4d9 553d 0314 813d c841 733d
000000d0: 697c b53b dab5 ed3c d414 713d 16ce 3dbd
000000e0: 5137 213d b95c 883a dce5 923d c61b 23bc
000000f0: be6d 913d e84e 233b 0877 103d 99c5 b43d
00000100: 7110 df3c 6fdd 163d 5374 b9bc 480e 313d
00000110: 1066 d43b 0bb7 bc3d 9c04 f93c 4264 b9bd
00000120: 9ab2 1d3d f858 20bd ac13 433a f745 983b
00000130: 5f0f 4dbb 8cd5 8a3d eefa 7b3d 6a9d 093c
00000140: ab06 483c 66bf a4bd 75f2 2fbc af2a 833d
00000150: b571 5bbd 499a 84bd 1842 723c da07 323d
00000160: d99c 7fbd 9893 ab3d 6709 b13c 83de a4bd
00000170: 76a7 89bd 36a1 afbd 9939 863d 8706 01bd
00000180: 348f f83c 0d64 483d 4581 9d3c 2c7d 33bd
00000190: 1443 70bd ae81 80bd 0806 ef3b d890 343c
000001a0: 8d12 693d d7a4 843d 0adc 1e39 43c8 2e3d
000001b0: 076b ad3d 6c15 5f3d fcc9 1abd 9adf b53d
000001c0: af85 a13c 2c53 b8bd 8c40 813d 7d28 35bc
000001d0: 58b9 a93d 3fd9 973d e8fe 4fbc b036 febc
000001e0: b818 cb3c e0e8 693d c034 e7bc 71a2 733d
000001f0: 7222 a8bd f46d 26bd 20f8 a6bd fd66 8dbd
00000200: 73b2 bf3c c58d 163a dc26 5bbd cba3 473d
00000210: 215d 783d cd14 bebc f06c afbd d1ea 9e3d
00000220: 98f3 96bd 25ce c93c 3542 ea3c 262f 81bb
00000230: 7e37 98bd fcd0 1ebd a72d 7c3d 0cb7 85bd
00000240: 2495 eabc ef52 a6bd fa41 853d d45c 863b
00000250: be88 a4bd f7ec 0dbd 5b20 343d 60fb 62bd
00000260: feaa 91bd 820d dfbc b8aa ba3d bed8 b93c
00000270: 20d2 81bd 95d1 26bc 66c7 14bd 3028 b03d
00000280: 2fef 733d 3a63 59bd 4055 a5bb a419 7dbd
00000290: 4c97 7cbd 3a64 513d 9e58 c53c 7244 2dbb
000002a0: 8d8e 65bc 9e8d c93b 2635 533d 63a2 90bd
000002b0: 74a5 703b b9e1 973d 471a 7f3b f978 0fbd
000002c0: 4ee1 0ebd 4ff0 eabc 64a2 a73d 1f1f 78bd
000002d0: 0cfc 18bd 6a49 853d aee8 8a3d b902 b6bd
000002e0: b89d a93d 45a1 a23d d76f 533d 30bf 73bd
000002f0: ee4b 78bd 48d9 a33d 9c1e 80bc 5a40 88bd
00000300: dbc5 543d b0f1 63bd 6c4e fb3c 070e 773d
00000310: 1a1f ac3d e860 97bb 49a9 8cbd 70c1 54bd
00000320: fb7d 83bd bf8e 47bd a1bd 15bc 66ed d13b
00000330: 1cf2 a73c 5adf b0bd a246 cb3c 76b6 34bb
00000340: 7537 9fbb 4aa3 7d3d bfce 283c 89ac 193d
00000350: a2e0 1dbc ca2a 6dbd 84ff d2bc 74b3 923d
00000360: a85e 94bc 51bc 07bc 0fa5 7f3b 4f8e 103d
00000370: fd88 2dbc cc35 b43c 1b20 553c faa9 26bd
00000380: cd25 69bd b4ba 50bd 5d76 9abd 9da2 45bc
00000390: c41d 7ebc 3ae8 35bd f669 89bb ab72 5d3c
000003a0: 8d8b d1bc 441f 89bd 444c 8fbc 8502 86bd
000003b0: a68f 80bc 5a1a bcbc 6f0f b93d f9ff ab3d
000003c0: f8c7 bc3d 4501 abbd 7e91 b3bd 88cb 333d
000003d0: 6303 9cbd 1801 aebd 9839 683d a622 a9bd
000003e0: a823 843d 9392 de3c 6359 55bd 0504 acbd
000003f0: fadf 853d 0c29 a1bd 96a1 943d ce9b f43c
0.091572076 -0.057390243 -0.002017146 -0.060704283 -0.006470271 0.014227694 0.04155736 0.0653102
-0.05904365 0.016652035 -0.06672539 -0.021290427 -0.05522315 -0.07941908 -0.010184421 -0.056763977
-0.07564087 0.008717125 -0.015749827 -0.08092953 -0.07943614 -0.010323299 0.012622809 -0.027973626
0.08546716 0.038448405 -0.008683512 -0.08608705 0.09241228 -0.004328288 -0.084349535 0.064192615
0.086607136 0.07214457 0.036487278 0.0057054292 0.044108506 0.066057056 0.01218949 -0.023024334
0.04434994 -0.04800716 -0.020953326 -0.026895398 0.0300272 0.04957171 0.0013169838 -0.01610718
0.024260074 0.05220975 0.06302645 0.059388906 0.0055385125 0.029017378 0.058857754 -0.046339117
0.039359394 0.001040361 0.071727484 -0.009955352 0.0710101 0.0024918858 0.035269767 0.08826751
0.02722952 0.03683227 -0.022638476 0.04322651 0.0064818934 0.092146 0.030397706 -0.09052326
0.038500406 -0.039147347 0.0007441591 0.0046470123 -0.003128968 0.06779012 0.061518602 0.008399347
0.012208621 -0.08044319 -0.010738959 0.064046256 -0.053575236 -0.0647474 0.014786266 0.04346452
-0.06240544 0.08377761 0.021610929 -0.08050253 -0.06721394 -0.085756704 0.06553955 -0.031500366
0.030341722 0.04892354 0.01922668 -0.043820545 -0.05865772 -0.062747344 0.00729442 0.011020862
0.056902457 0.06476753 0.00015150025 0.042671453 0.084676795 0.05446379 -0.037790284 0.08880539
0.019717066 -0.09000239 0.063111395 -0.011057016 0.08287305 0.07414483 -0.012695052 -0.031031936
0.02479206 0.057106853 -0.028223395 0.059481088 -0.08209695 -0.040632203 -0.08152795 -0.06904409
0.02340052 0.0005743171 -0.053503856 0.04874019 0.06063569 -0.023203278 -0.085657 0.077596314
-0.073706806 0.02463443 0.028596023 -0.003942388 -0.07432459 -0.03877352 0.061566975 -0.06529054
-0.028635569 -0.08121287 0.06506725 0.0041004214 -0.08033894 -0.034649815 0.04397617 -0.05541551
-0.07112692 -0.02722812 0.09114593 0.022686359 -0.06338906 -0.010181804 -0.036322974 0.08601415
0.059554275 -0.053073145 -0.005045563 -0.06179203 -0.061667725 0.051120974 0.024090108 -0.0026438502
-0.014011038 0.0061509153 0.05156436 -0.07062223 0.0036719711 0.074161 0.0038925575 -0.035027478
-0.034882836 -0.028679041 0.081852704 -0.060576554 -0.037349746 0.06508143 0.067826614 -0.08887238
0.082820356 0.07940916 0.05162033 -0.059508502 -0.060619287 0.080004275 -0.015639596 -0.06652899
0.051946502 -0.055650413 0.030677043 0.060316112 0.0840437 -0.0046197064 -0.06868226 -0.05194229
-0.06420513 -0.048720118 -0.009139449 0.006406474 0.020501189 -0.08636351 0.024813954 -0.0027574576
-0.004858906 0.061923303 0.010303198 0.037518058 -0.009636076 -0.057902135 -0.025756605 0.07163134
-0.018111542 -0.008284644 0.0039008295 0.035291966 -0.010591743 0.021998309 0.013008143 -0.040689446
-0.056920815 -0.050959304 -0.07542107 -0.012062696 -0.015510026 -0.04441092 -0.0041935397 0.0135161085
-0.025579238 -0.066954166 -0.017492421 -0.06543449 -0.015693497 -0.022961784 0.09036147 0.08398432
0.092178285 -0.083498515 -0.08767985 0.043895274 -0.076178335 -0.08496302 0.05669555 -0.08258562
0.064521134 0.027169501 -0.0520872 -0.08399204 0.06536861 -0.07869157 0.072573826 0.02985945

model.1.weight f4 [256]
00000000: bc05 563f 6540 5b3f 620a 6a3f a47e 673f
00000010: 939a 5d3f 0751 783f 8359 5f3f a339 793f
00000020: 5450 7b3f bb07 9c3f b92d 903f 7b8f 5a3f
00000030: ef84 4e3f cfd1 763f 727e 5f3f 8466 843f
00000040: 6cf4 5c3f 5ed8 453f 3a4d 6d3f 3614 593f
00000050: 40b0 673f a793 6d3f e678 7c3f a2c9 623f
00000060: f2ba 483f 4918 803f bf8e 843f 2961 4f3f
00000070: e13f 793f d4b3 813f d7e0 633f 3036 3d3f
00000080: 0b64 783f 8583 573f 3ac1 833f 7f20 813f
00000090: 678f 713f 9a8e 7e3f 4a4d 523f 60cb 703f
000000a0: 6e6d 4a3f 5948 683f e720 553f 424a 453f
000000b0: 3707 4a3f 4667 5c3f ba17 663f 52a6 763f
000000c0: b1f5 813f e9dc 543f b093 6c3f a772 663f
000000d0: d5cd 4c3f ae05 783f 6ebe 7e3f 92db 873f
000000e0: 10f5 713f ae16 603f a989 7c3f cc46 833f
000000f0: 4a5f 883f ef43 733f c06c 703f 0e9d 6e3f
00000100: f9dc 463f 9e0d 4b3f f577 543f 03f6 6c3f
00000110: 9025 633f 2c54 663f 6243 673f 1896 7a3f
00000120: 2526 6e3f afae 903f b69c 633f a09b 5f3f
00000130: 1623 753f ac88 873f 6b0d 733f 4327 513f
00000140: ef24 5b3f e89b 373f 57b7 763f 384d 573f
00000150: 286c 4c3f 6483 913f 7e59 593f 8617 603f
00000160: aa04 713f 9a25 763f 0f0c 843f c87a 803f
00000170: 69e8 6a3f 6968 8b3f 3cbb 663f d626 5d3f
00000180: 2bfc 4a3f 6376 953f 0e5a 503f c301 463f
00000190: de02 4f3f 4fa0 573f 198a 4b3f 1d72 8e3f
000001a0: 84fd 5d3f 9f08 5c3f 4592 703f 395f 6b3f
000001b0: 026a 4b3f beb6 673f a075 543f b2e2 713f
000001c0: ef6d 7c3f 241c 8a3f 302c 733f 2953 883f
000001d0: 18d3 653f a506 8d3f dbe0 803f c82d 673f
000001e0: 404c 4e3f f61d 843f fbf7 4b3f 64a8 8b3f
000001f0: 47d5 8d3f 1644 813f d8a2 513f db3d 813f
00000200: 5c64 813f da8d 7c3f ae3b 893f 0c9f 6b3f
00000210: f650 733f 4423 643f 80cf 613f 2665 583f
00000220: 4bcb 573f a604 933f ca18 673f 4cb8 503f
00000230: 3043 713f 4a7d 733f eaba 613f 5586 463f
00000240: 642e 5e3f 0adc 433f da2b 623f bbcf 4a3f
00000250: 3b10 423f 5209 643f be51 613f e77e 633f
00000260: f338 4d3f 3271 7f3f 4208 653f f880 5c3f
00000270: 047d 803f acd4 5e3f 6eb3 493f de4d 7e3f
00000280: bad5 423f c436 883f 821f 7c3f 8c95 813f
00000290: 2ca5 753f 1987 5b3f 3da0 8f3f 2616 443f
000002a0: 8e4f 803f ac98 a43f 4256 4c3f e47d 863f
000002b0: 448d 643f 406c 913f 5476 543f 37cf 7e3f
000002c0: 5ab7 723f 3877 5c3f b21d 673f 38bd 813f
000002d0: 4d13 853f 74d7 443f 6086 533f 956f 3f3f
000002e0: 8c2b 953f 2291 893f 862c 683f 4661 7d3f
000002f0: 60be 803f 4233 763f a359 5d3f 9e56 733f
00000300: 4e28 503f 322f 8d3f dbc5 883f 8338 373f
00000310: 54d0 533f b72e 883f 1f6c 6c3f e7aa 8a3f
00000320: 2c93 4a3f 796f 643f a50e c03f b534 4b3f
00000330: fe13 713f e00c 853f b411 393f 16f5 4b3f
00000340: 2fb0 843f 95cf 863f 17d0 6c3f e0bd 583f
00000350: f3be 813f 79f6 7b3f 1bf3 483f ff05 5a3f
00000360: 7065 553f c0ff 733f 0fa3 803f bb11 743f
00000370: 1eae 753f b56d 7a3f 6019 4d3f 7a7e 493f
00000380: 7c5e 703f fd6a 5e3f fd07 673f f65f 573f
00000390: d9c7 863f 9a29 713f 6c29 823f e87d 873f
000003a0: cb9f 803f a625 5f3f 377d 483f 8c30 663f
000003b0: e8ac 813f 44c4 7e3f 28f4 603f 003c 883f
000003c0: 34e4 773f b45c 8a3f 3828 6c3f 53d1 573f
000003d0: 7524 483f 3a22 533f b67d 8a3f 489e 783f
000003e0: 1f59 853f 1d14 5c3f 65b8 473f f261 893f
000003f0: 288a 5d3f f40f 6f3f 91b2 753f dce2 5c3f
0.836025 0.85645133 0.9142209 0.90427613 0.86563987 0.9699864 0.8724596 0.9735357
0.98169446 1.2189859 1.1263953 0.85375184 0.8067159 0.9641389 0.87302315 1.0343785
0.8631046 0.77283275 0.92695963 0.84796464 0.9050331 0.92803425 0.98621976 0.8858892
0.78410256 1.0007411 1.0356063 0.8100763 0.97363096 1.0133004 0.89014953 0.7391081
0.97027653 0.8418506 1.0293343 1.0088042 0.9435944 0.9943634 0.82149184 0.94060326
0.79073226 0.90735394 0.8325333 0.77066433 0.7891726 0.8609508 0.89879954 0.96347535
1.0153104 0.8314958 0.92412853 0.90018696 0.80001575 0.96883667 0.9950932 1.0613883
0.9451456 0.87534606 0.9864755 1.025598 1.065408 0.95025533 0.9391594 0.93208396
0.7768093 0.79317653 0.8299554 0.92562884 0.8872919 0.89972186 0.90337193 0.97885275
0.93026954 1.1303309 0.88910997 0.8734684 0.9575666 1.0588584 0.9494235 0.81700534
0.8560323 0.7172227 0.96373504 0.841022 0.79852533 1.1368222 0.8490218 0.87535894
0.9414774 0.96151125 1.031618 1.003747 0.9176088 1.0891238 0.90129447 0.86387384
0.7929103 1.1676754 0.8138741 0.7734644 0.8086375 0.84228987 0.79507595 1.1128575
0.8671496 0.85950655 0.9397319 0.91942173 0.7945863 0.9051322 0.8299198 0.94486535
0.98605245 1.0789838 0.949893 1.0650378 0.8977523 1.1017653 1.006862 0.9030423
0.805851 1.0321643 0.79675263 1.0910764 1.1080712 1.0098903 0.81889105 1.0097002
1.0108752 0.9865395 1.0721338 0.9203956 0.9504541 0.8911631 0.88207245 0.8452934
0.84294575 1.1485794 0.902722 0.81531215 0.94243145 0.9511305 0.88175833 0.77548724
0.86789536 0.7650763 0.8834816 0.7922322 0.75806016 0.8907672 0.88015354 0.8886551
0.8016502 0.997821 0.89465725 0.8613429 1.0038152 0.8704326 0.7878941 0.99337566
0.7610737 1.0641713 0.9848558 1.0123763 0.9595516 0.8575302 1.1220776 0.76596296
1.0024278 1.2859092 0.7981912 1.0507169 0.89278054 1.136116 0.82993054 0.99534935
0.9481102 0.86119413 0.90279686 1.013587 1.0396515 0.76891255 0.82626915 0.74779636
1.1653914 1.0747416 0.9069294 0.9897655 1.0058098 0.96171963 0.864649 0.9505404
0.813115 1.1030028 1.0685381 0.71570605 0.8273976 1.0639256 0.9235248 1.0833405
0.79130816 0.89232594 1.5004469 0.793773 0.9417113 1.0394554 0.7229264 0.79670846
1.0366267 1.0532099 0.9250502 0.84664726 1.0136398 0.9842296 0.7849595 0.851654
0.83357906 0.9531212 1.0049762 0.95339555 0.95968807 0.9782365 0.80116844 0.7870861
0.9389417 0.86882 0.90246564 0.841308 1.0529739 0.94204104 1.0168891 1.0585299
1.0048765 0.8716682 0.7831606 0.89917827 1.0130892 0.9951823 0.8787255 1.064331
0.96832585 1.0809541 0.9224887 0.8430378 0.7818063 0.824741 1.0819614 0.9711652
1.0417823 0.8596819 0.7801574 1.0733016 0.86538935 0.9338372 0.95975596 0.8628366

model.1.bias f4 [256]
00000000: 195f 8b3d 414c a8bc 4fae 7c3d 0fee ef3d
00000010: ef5d f7bd 4039 cabe e416 5cbe 14b7 9d3b
00000020: 3c57 f7bd 00f2 c9be ef76 93be fe44 4dbd
00000030: 5fbd 7b3b 74b5 32be 7864 c7ba 3e6a 9cbe
00000040: 05d4 23be 114e b3bd d06a 97be fe90 66be
00000050: 0c29 20be 3885 a83d 8ea9 9bbe e6c2 6dbe
00000060: f0e9 04be 93ec 8dbe d333 06be 4e21 f0bd
00000070: f3c7 99be 640d 2fbd 4013 25be aa77 27be
00000080: 974b 9ebd d687 d0bb a66d 8cbe c36c 7cbe
00000090: fdb3 37be 54c7 95be 12bb e23d 6c36 2fbe
000000a0: 857c 8fbd 66d1 023c d20b e3bb 6cc3 9dbd
000000b0: 1aeb d3bd ef01 943d 1dd9 ae3d 8e02 abbe
000000c0: fe75 03bf 0fbe c7bd d201 3ebe ffd9 a1bd
000000d0: 9430 44bc d0b5 76be 54e6 a3be 0662 bcbe
000000e0: 74c5 afbe fc24 4bbe eb9f a9be d531 64be
000000f0: e631 2ebe 82ad 62be 6d7a 87be 327c 6f3d
00000100: 9a12 4fbd 5e8c d6bb 7669 0ebe c273 56be
00000110: 141c 003e 835b 5bbe 7802 d1bd e001 9fbe
00000120: b23b debd 8a84 7bbd 50f6 23be 5072 0ebe
00000130: 45d1 0fbe c4cf 81be 2d43 073d c7f8 a23c
00000140: 2226 0abe 908f 3ebd 349f b4be f074 59be
00000150: 192a f6bd 4484 24be 2224 d0bd 16ef 453d
00000160: d35e 23be ed35 75be e1ae a3be 4b51 84be
00000170: ca09 89be 4af4 e8be 6dec 15be 06f4 2abe
00000180: 9467 bbbc 74aa c4be 3d73 06be 4b9b 2cbe
00000190: 8837 313c 2fc5 13be 9769 5cbe a7dd 9ebd
000001a0: 1cef 8cbd d5ed 82be 8dc9 97be bef8 b8be
000001b0: c118 e2bd bd19 2fbd bdad 03be c86e 11be
000001c0: 7c01 97be 74cd c53c 5ed0 19bd 25b0 373d
000001d0: 652a 30be 455f 80bd 1347 cdbe 960a 23bd
000001e0: 8524 81bd 701c 80be 5fd9 8ebc ad50 2abe
000001f0: f168 973e 509f f5be a42e 45bc 6914 86be
00000200: 5a48 7d3e f062 b8be f5b2 7bbe 46ad 57be
00000210: a90f a6be e266 84be a728 933d 15ed 41be
00000220: 7b45 2ebd dce1 80be 0f9b 1bbd 15ef 12be
00000230: 2ed7 debe e099 0c3e ad12 1ebd d623 44bd
00000240: f849 c1bd 0b9e f8bd cebd 18be 46df 0cbe
00000250: 7f12 05be 8572 0dbe 7e5c 45be 637d 5fbd
00000260: 20a7 99bc e7a6 ccbe feb0 afbc 1a94 35be
00000270: c9f9 3dbe 6c29 3cbd 2a26 0bbe 0c5c 83be
00000280: 8cd5 5dbd 2d2c 0cbe 8e54 99be 98b6 92be
00000290: 0395 45be 7318 a03d 0570 82be 1022 43be
000002a0: fadd cbbe 3d37 37be f72c 37bd 74d9 0d3b
000002b0: 04d4 c8bd 9685 fabe fa70 353e d444 12be
000002c0: a0c6 efbd 8121 773d 0074 babe 8afb 88be
000002d0: 261b 8cbe a5c1 a0bd dd2c d03d 7bce c7ba
000002e0: 2841 bfbe 99e1 aabe 7240 acbe 5ce9 dcbe
000002f0: ce2d 06bf 6778 9bbd c386 3ebe aa79 afbe
00000300: 2fda a43c 91d5 efbd cf7a 6cbe ba9d b1bd
00000310: ea4f 1abe 3453 7ebd 208d 68be 9010 85be
00000320: 0bea 98bd d05d 42be f451 3fbe b834 f93c
00000330: f719 96be fa1d 9dbe a910 a7bd 4fe7 91bd
00000340: 7c58 8ebe 7582 6dbe 4ae5 1abe b846 e4bd
00000350: 5c23 a4be 663b 80be 5ea9 87bd 6478 4e3d
00000360: 8a91 afbd 5132 adbe 2bcd 74be 2238 903d
00000370: 38e8 31be d3f8 7abe b15b 61be a781 393a
00000380: 99e8 29be 749b f93d eb4e 6ebe 6f02 2ebe
00000390: 0db9 a1be 0915 70be 7a0c adbe 73ec 44be
000003a0: 5671 47be f242 ee3c 3afa 5ebd d6f7 60be
000003b0: f18f 86be 7280 80be 9ad8 2bbe ebf8 0d3d
000003c0: 3a59 d1be bcbe 78be 83db 11be e20c 24be
000003d0: 7c9f f1bd 689a 59be a462 8dbc 943a 9bbd
000003e0: 0bcb 49be d0f7 c03d 0b1f babc d71e 92be
000003f0: 9f97 193e 1d03 44be 3873 7abe 1a54 cebd
0.06805248 -0.020544173 0.06168967 0.11715328 -0.12078463 -0.39496803 -0.21493107 0.0048130844
-0.120771855 -0.39442444 -0.28801677 -0.050114624 0.0038412435 -0.17452031 -0.0015212437 -0.30549806
-0.15998848 -0.08755124 -0.2957368 -0.22516248 -0.15640658 0.082285345 -0.30402797 -0.23218879
-0.12979865 -0.27719554 -0.13105707 -0.11725102 -0.30035362 -0.04273738 -0.16120625 -0.16354242
-0.07729261 -0.006363849 -0.27427405 -0.24650864 -0.17939754 -0.29253638 0.11070837 -0.17110604
-0.07006172 0.007984495 -0.0069288993 -0.077032894 -0.103475764 0.07226931 0.08537505 -0.33400387
-0.51351917 -0.09753048 -0.18555382 -0.079029076 -0.011974473 -0.24092793 -0.32011664 -0.36793536
-0.34330332 -0.19838327 -0.3312982 -0.22284634 -0.17011222 -0.221365 -0.2646059 0.05846805
-0.05055485 -0.006547495 -0.13907418 -0.20942596 0.12510711 -0.21421628 -0.10205549 -0.31056118
-0.1085123 -0.061405696 -0.1601193 -0.13910794 -0.14044674 -0.25353825 0.03302305 0.019894017
-0.13491109 -0.04652363 -0.35277712 -0.21236014 -0.12019748 -0.1606608 -0.10163142 0.048323713
-0.15954141 -0.23946352 -0.3196936 -0.25843272 -0.2676528 -0.45498878 -0.1464097 -0.1669465
-0.022876538 -0.38411295 -0.13129897 -0.16856115 0.010816462 -0.14430688 -0.21524654 -0.077571206
-0.06881544 -0.25572076 -0.2964596 -0.36127275 -0.11039878 -0.042749155 -0.12859245 -0.14202416
-0.2949332 0.02414582 -0.03755223 0.04484572 -0.17203672 -0.06268171 -0.40093288 -0.039805017
-0.06305794 -0.25021696 -0.017437635 -0.16632338 0.2957225 -0.47973108 -0.012035046 -0.26187447
0.24734631 -0.36012983 -0.24579985 -0.21062192 -0.32433823 -0.25859743 0.07185488 -0.18938096
-0.04254673 -0.25172317 -0.037989672 -0.14349015 -0.43523544 0.13730574 -0.03859203 -0.04788574
-0.094379365 -0.12139519 -0.14916155 -0.13757047 -0.12995337 -0.13813217 -0.19273564 -0.054562937
-0.01875645 -0.39971086 -0.021446701 -0.17732278 -0.18552317 -0.04593794 -0.13588777 -0.25656164
-0.054158732 -0.13688727 -0.29947323 -0.28654933 -0.19295125 0.07817163 -0.2547609 -0.19055963
-0.39817792 -0.17892165 -0.044720616 0.0021644505 -0.09806064 -0.48930043 0.17718878 -0.14284068
-0.117078066 0.060334686 -0.36416626 -0.2675441 -0.27364463 -0.07849435 0.10164807 -0.0015244031
-0.37354398 -0.33375242 -0.33642918 -0.4314679 -0.5241364 -0.07591324 -0.18606095 -0.3427251
0.02012357 -0.117106564 -0.23093723 -0.08672662 -0.15069547 -0.062091067 -0.22710085 -0.259892
-0.07466515 -0.18981099 -0.18683606 0.030420646 -0.29316685 -0.30686933 -0.081574745 -0.07124197
-0.27801883 -0.23194297 -0.1512653 -0.11146301 -0.32058227 -0.25045317 -0.06624101 0.050407782
-0.08572681 -0.3382745 -0.2390639 0.070419565 -0.1737374 -0.24508981 -0.22007634 0.00070765096
-0.16592635 0.121878535 -0.23272292 -0.16993116 -0.31586495 -0.23445524 -0.3379858 -0.19230823
-0.19476828 0.029084656 -0.054437853 -0.21969542 -0.26281694 -0.25097996 -0.16781846 0.034661215
-0.40888387 -0.2429151 -0.14243893 -0.1602054 -0.11797997 -0.21250308 -0.01725895 -0.07579532
-0.19706361 0.094222665 -0.02271988 -0.28539154 0.14999245 -0.19141813 -0.24458015 -0.10074635

model.1.running_mean f4 [256]
00000000: e9cd 9d3d 1cf5 98bd 0c0b cfbb 94b4 bbbd
00000010: 2ce6 13bc 6c95 acbc cd8d ab3c c87e 1f3d
00000020: 8b5a debc cb1e bb3b c4f9 18bd 320a 58bc
00000030: 7a23 92bd a473 97bd fadf 1bbd 1239 ecbd
00000040: d86b adbd 305c 2bbc 7ca3 f6bc da8b 85bd
00000050: a482 02be e199 39bd e70f 213c 6fa6 89bd
00000060: 022b f53d b92e 9f3c ec3a fe3c c1e0 0fbd
00000070: f3f2 e83d 5370 213c e44f 79bd 5397 b63d
00000080: fa6d a83d 07c1 8a3d 01ce da3c 0b04 153d
00000090: 8d26 393d 19f3 6c3d 6023 a5bc 0fbd cfbc
000000a0: 6557 2b3d bcbf 2fbd e78d 32bb 2ec4 08bd
000000b0: 8be1 633d 9667 653d 4fdf d9bc 7c85 c63b
000000c0: b9ab 953c 9d54 9d3d bd78 7b3d 5521 5b3d
000000d0: 0533 803c 14f2 e73c 27fd 523d 9e40 44bd
000000e0: 6167 483d 943c af3c db3c 9c3d c61d 36bd
000000f0: 5666 b43d ce55 ac3c 67f1 573d af73 a43d
00000100: 40d1 7f3d 82a8 f43c f529 d3bc 840a 843d
00000110: a43d 54bd 319b b13d 4fee cd3a 8513 d6bd
00000120: a144 153d e769 60bd 59d6 d1bc 70bd 603c
00000130: 9285 6c3c 37a7 993d 007d 643d 1edc f1bc
00000140: abb1 5b3c ab34 cabd 24b3 14bd 5efa 6d3d
00000150: ce98 a6bd b9a2 8ebd c7ac 053d dc30 573b
00000160: ef4c 9fbd 1198 653d 3712 2e3b 7647 dbbd
00000170: 1081 95bd 275b 9fbd 075f b23d 5d7c efbc
00000180: 1dea 3f3c cab3 803d a12b aebb f01d b8bc
00000190: 1e53 51bd dcf3 85bd 6e99 f63c 1595 263b
000001a0: e12b a23d e6d8 853d 0d2f 8fbc 5e1e c73c
000001b0: f56f fc3d 1e21 4a3d 3677 24bd 0bde b73d
000001c0: aa8e bc3c 4827 70bd c71a ab3d 5d4f 1cbd
000001d0: 2a14 b03d 1633 013d 6531 67bc 06dc d3bc
000001e0: 2ee5 5b3c f5c6 9a3d 9c7f 0fbd 848a 253d
000001f0: 09f4 95bd c950 1dbd 840c 7bbd 9059 85bd
00000200: 3f02 553b a331 b63c a383 07bd e500 223d
00000210: 02db 2d3d e744 73bd c14d dfbd d349 a53d
00000220: 5210 57bd b6eb a13c 5309 51bb eb41 d9bc
00000230: 0869 ddbd b0c3 86bd 309a 5c3d 0db7 7ebd
00000240: 0841 cebc 8105 d3bd 3416 4a3d ee8f 4d3c
00000250: 871c f3bd 9316 4fbd d7d1 523d 22c3 68bd
00000260: 2f78 32bd a5d1 74bd 2599 c23d 4309 4f3d
00000270: 0ea0 a5bd 7755 52bc d133 33bd 331c 8f3d
00000280: 4e9c 833d 0615 b1bd 4304 a3bc c738 d5bd
00000290: 9821 b5bd 3a5c 2b3d ca1c da39 44f3 65bc
000002a0: 29a7 d8b9 3f3b 2f3c 8849 c23c 2feb 75bd
000002b0: 0f16 c2bb d877 b13d 2eac 18bd 0b56 10bd
000002c0: ebab b6bc b035 65bd 893d a13d 18d6 8abd
000002d0: 897f dabc 2b95 553d 06fb 863d 7b81 e1bd
000002e0: 92d6 ae3d 32ab 413d d5cc 943d d8c4 afbd
000002f0: 84b7 93bd 33a8 763d c36c 5a37 3160 b6bd
00000300: b28e 953d ce17 8ebd 6cec 5c3d 7eca 723d
00000310: de18 8a3d b7f5 04bd cb3d 8ebd 06d1 8dbd
00000320: bae6 2bbd 7e4f bebb d19d c5bc d8bc 9bbc
00000330: ffe7 353b adb6 8cbd 2d63 09bd a6ef 31bb
00000340: dc8b 18bc 0c33 463d 0186 333c 46c9 993c
00000350: 69e3 643c 80c8 79bd ce40 f9bc c463 a03d
00000360: 017d 82bb 8739 eebb 4f20 45bb 206c 213d
00000370: ada2 913c 5000 e23c 53fa 053d c9b6 51bd
00000380: 5496 23bd 4d42 59bd cfc0 c6bd b48f 3fbc
00000390: 2d45 203a 7df4 8cbd 3469 83bb a433 f53b
000003a0: 3066 87bd f67a e0bc b2b4 03bd 0f7c 88bd
000003b0: 2a34 473c 0fcb 01bd bbd3 9c3d f333 a23d
000003c0: c27b 9e3d 9c00 a2bd 77a0 a2bd 2540 f53c
000003d0: 8c9a c2bd 55e6 fbbd b93a ec3c 5fd0 6dbd
000003e0: 7b4f b03d 60c5 023c a326 b8bd 8028 8cbd
000003f0: c00a 463d 0f81 76bd 5bf5 ae3d 0ee3 5e3d
0.0770529 -0.07468626 -0.0063184556 -0.09165302 -0.009027045 -0.021067344 0.02094164 0.038939267
-0.027142784 0.005710458 -0.03734757 -0.0131860245 -0.07135673 -0.073951036 -0.038055398 -0.11534323
-0.08467835 -0.010458991 -0.030107252 -0.06520815 -0.12745148 -0.045312766 0.009830452 -0.06721198
0.11971094 0.019431459 0.031033956 -0.03512645 0.11374464 0.00985344 -0.060867205 0.089155816
0.08224101 0.06775098 0.026709558 0.03638081 0.04520278 0.057849023 -0.02015847 -0.025358705
0.041831393 -0.04290746 -0.0027245225 -0.033390217 0.055635016 0.05600699 -0.02659574 0.006058393
0.01827036 0.07682154 0.061394442 0.053498585 0.015649328 0.028313674 0.051510956 -0.047913186
0.048926715 0.02139119 0.07628795 -0.044461988 0.088085815 0.021037009 0.052720454 0.080298774
0.062455416 0.029865507 -0.025776843 0.06447318 -0.051816598 0.086721785 0.001571128 -0.10452942
0.036442403 -0.054788496 -0.025614904 0.01371704 0.0144361425 0.07502597 0.05578327 -0.029523905
0.013409059 -0.09873327 -0.036303654 0.058100097 -0.08134614 -0.06964631 0.032635476 0.003283552
-0.07778346 0.056053225 0.002656115 -0.107069895 -0.07300007 -0.07781058 0.08709531 -0.029234106
0.011713532 0.06284292 -0.0053152596 -0.022475213 -0.051104657 -0.06540653 0.030102458 0.002541845
0.079185255 0.06535511 -0.01747849 0.024306472 0.123260416 0.04934799 -0.04015275 0.08977898
0.023017246 -0.05863121 0.08354717 -0.038161624 0.08597596 0.03154286 -0.014110898 -0.025861751
0.01342134 0.07557479 -0.035033807 0.040415302 -0.07321937 -0.03840712 -0.061291233 -0.06511223
0.003250256 0.022240466 -0.033084523 0.039551634 0.04244519 -0.059391882 -0.10903502 0.080707215
-0.0525058 0.019765716 -0.0031896427 -0.02652069 -0.10811049 -0.06580293 0.053857982 -0.06218629
-0.025177494 -0.10303784 0.04933758 0.012546523 -0.118706755 -0.050558638 0.05146965 -0.05682672
-0.043571647 -0.059770245 0.09501866 0.050545942 -0.08087169 -0.012837759 -0.043750588 0.069878004
0.06426297 -0.08646588 -0.019899493 -0.1041122 -0.08844298 0.041836 0.0004160165 -0.01403505
-0.00041323274 0.010695278 0.023716703 -0.06003874 -0.0059230397 0.086654365 -0.03727358 -0.035238307
-0.022298774 -0.055959404 0.07873065 -0.067791164 -0.026672142 0.05214421 0.06590848 -0.110110246
0.0853702 0.047282405 0.07265631 -0.08582467 -0.07212737 0.060219 1.3019136e-05 -0.08905066
0.073026076 -0.06938134 0.053936407 0.059275143 0.06743024 -0.032460894 -0.0694538 -0.06924634
-0.041968085 -0.005807816 -0.024123104 -0.019010946 0.0027756689 -0.0687078 -0.033541847 -0.0027150898
-0.009310689 0.048388526 0.010957242 0.018772732 0.013970234 -0.060982227 -0.03042641 0.07831529
-0.003982187 -0.0072700414 -0.0030079072 0.039409757 0.017777765 0.02758804 0.03270943 -0.051199708
-0.039938286 -0.053041745 -0.09704744 -0.011691976 0.00061138236 -0.0688257 -0.004010344 0.0074829627
-0.066112876 -0.027402382 -0.032154746 -0.06664287 0.012158433 -0.031687792 0.07657572 0.07920065
0.07738449 -0.079102725 -0.079407625 0.029937813 -0.09502134 -0.12299792 0.028836595 -0.058060046
0.0860891 0.007981628 -0.08991744 -0.06843662 0.048350096 -0.060181674 0.085428916 0.054415755

model.1.running_var f4 [256]
00000000: c5e8 813e 25c4 743e 5631 833e 9540 4b3e
00000010: ea39 5a3e ba5c 2c3e 61c9 923e fb9f 903e
00000020: bfd9 753e 5214 843e 575d 213e 8abb 703e
00000030: d011 743e 608f 7f3e aa43 293e 7b4f 243e
00000040: f752 8b3e fa6b 8d3e 3d7d 953e 09c4 883e
00000050: 2836 303e 445f 443e 7040 823e fa2b 6a3e
00000060: 2514 4b3e 0bc8 4a3e 2ade 923e 891b 8e3e
00000070: c7d3 8b3e fc39 8c3e 8437 8c3e 1769 913e
00000080: c347 1c3e 2520 9c3e 0d56 783e 2116 883e
00000090: b1e5 713e 933e 703e 8e6f 043e 0645 553e
000000a0: 6b0e 523e 7071 8e3e 2af5 8c3e afd7 633e
000000b0: 1593 6c3e b3bb 383e e401 373e 298f 863e
000000c0: 8e48 8b3e 7626 8b3e f73a 953e ac20 8e3e
000000d0: 585c 913e 8211 663e c2a1 5d3e a096 4b3e
000000e0: 5e46 8e3e 45e8 993e 7c4f 373e 392c 863e
000000f0: ac41 4c3e 2051 633e 8003 8f3e 039c 573e
00000100: bfa3 5f3e a072 5f3e 70ad 1b3e 20bb 633e
00000110: 2485 563e b0b7 263e 5f9e 5b3e b155 763e
00000120: ef1a 683e d495 8c3e a3e5 493e e273 4e3e
00000130: 122f 4a3e 3518 843e 9c2b 753e 8df3 553e
00000140: bdd0 643e ef2f 6b3e a143 873e 9569 7a3e
00000150: 0f8a 893e df58 343e d629 673e d294 363e
00000160: 3245 543e da01 843e f643 573e 2b61 513e
00000170: 6219 373e 85c5 8f3e 1475 933e 9b0c 7f3e
00000180: 1ce0 453e 768d 033e 2d90 7a3e 9b2a 763e
00000190: 0d7f 873e aefb a03e 2744 873e d310 963e
000001a0: c1bf 633e 470c 8d3e 21ac 8b3e 9b1a 983e
000001b0: 652a 663e e6b2 553e 2452 893e e705 873e
000001c0: 5130 873e 51fc 803e feef 823e 79be 723e
000001d0: 5045 3e3e 4aa9 1d3e 7773 863e cb60 7d3e
000001e0: ab05 6f3e 40a6 993e e752 4e3e 7d14 4c3e
000001f0: a889 6b3e 755e 933e d57f 793e 066c 5c3e
00000200: 032b 383e 16b6 b43e 9943 923e d93b 783e
00000210: 7f67 a53e 1b75 6b3e 57f8 0e3e d09e 823e
00000220: 3337 763e 5523 8e3e efa7 393e f7ee 753e
00000230: 6f41 8b3e 954c 533e bc35 333e 893e a43e
00000240: 4d9b 5f3e bd40 7c3e 6d10 793e 8208 913e
00000250: cda1 903e e4f2 4a3e 3e67 703e 723b 763e
00000260: 4f06 813e 0a59 0c3e e4b6 813e cf9d 963e
00000270: b56f 873e 692e 363e 91f4 7d3e 0d7d 9b3e
00000280: ac00 6d3e 3447 5f3e 207b 1c3e ba48 853e
00000290: c74e 823e f194 923e 769a 473e 73ad 843e
000002a0: f67c 803e 97d4 453e dfb1 8c3e 107c 8d3e
000002b0: b4ce 6c3e 401e 643e 2de2 093e 4e2a 853e
000002c0: 37a3 5e3e 9754 513e e047 953e 3e71 683e
000002d0: 5198 933e ed96 a93e 2047 2d3e dfc0 703e
000002e0: c905 1e3e 1b67 023e b3cf a23e 5a7b 963e
000002f0: 4087 473e b965 523e 1124 943e a317 863e
00000300: 037e 813e 7f2f 7c3e cb55 7c3e c65b 813e
00000310: 2403 933e 70a7 ae3e c2a6 923e e575 6e3e
00000320: 2454 5f3e d2c0 953e b92d 833e 5eae 473e
00000330: 1cf8 973e 2104 853e 285d 603e 4242 a63e
00000340: 9160 873e cb61 8a3e a150 7b3e bfbb 383e
00000350: f219 813e c394 723e a828 943e 9653 903e
00000360: 7aa1 503e 12bd 7f3e 2625 833e ada0 7a3e
00000370: 0cea 913e 5285 853e 10c1 973e b45d 523e
00000380: 8545 973e 810b 863e 5d3c 7e3e fe7b 673e
00000390: 9bb3 873e b588 633e 1bc9 833e 7e6b 703e
000003a0: 6006 813e a517 943e 6893 733e 8d8a 903e
000003b0: 87d3 743e 95b1 513e ebd0 813e af8b 963e
000003c0: 60b3 973e fdf8 903e 8bb8 843e cc33 773e
000003d0: c157 7f3e c085 5b3e 5b10 583e 8ab1 9b3e
000003e0: fbe6 6a3e 934b 2a3e f61c 5f3e 76c1 623e
000003f0: ddd5 003e 2821 853e 7538 5f3e 053c 853e
0.25372902 0.23902948 0.25623578 0.19848855 0.21311155 0.16832247 0.28669265 0.28247055
0.24008845 0.25796753 0.15758263 0.2350904 0.2383492 0.24957037 0.16529718 0.16045944
0.27211735 0.27621442 0.29197112 0.26712063 0.17208159 0.19176966 0.25439787 0.22868338
0.19831903 0.19802873 0.28685123 0.27755383 0.2731001 0.2738799 0.27386105 0.2840049
0.1526175 0.30493274 0.24251576 0.26579383 0.23622777 0.2346137 0.1293318 0.20827112
0.20513313 0.2782092 0.27530795 0.22250246 0.23102982 0.18040352 0.17871815 0.26281098
0.27203792 0.2717778 0.2914655 0.27759302 0.28390765 0.22467616 0.21643737 0.19881678
0.2778806 0.3006002 0.17901415 0.26205614 0.19946927 0.22198915 0.27932358 0.21055607
0.21839808 0.2182107 0.1520288 0.22239351 0.20949227 0.16281009 0.21447133 0.24056126
0.22666524 0.2745806 0.19716506 0.20161393 0.19744518 0.25799718 0.23942417 0.20893688
0.22345252 0.22967504 0.26418784 0.24454339 0.26863143 0.17612027 0.22574553 0.17830208
0.20729521 0.25782663 0.21022019 0.20447223 0.17880777 0.28080383 0.2880026 0.24907152
0.19323772 0.12846932 0.24469061 0.2403969 0.2646412 0.31442016 0.26419184 0.2930971
0.22241117 0.2754843 0.2727976 0.29707798 0.2247711 0.20869026 0.2682048 0.2637169
0.2640405 0.25192502 0.25573725 0.23705472 0.18581128 0.1539661 0.26259968 0.24743955
0.23342006 0.3000965 0.20148812 0.1992969 0.2300173 0.28783002 0.2436517 0.21525583
0.17985158 0.3529517 0.28567198 0.2424158 0.32305524 0.22993891 0.13961922 0.2551179
0.24044494 0.2776133 0.18130468 0.24016939 0.2719836 0.20634682 0.17500967 0.3207896
0.21836586 0.2463407 0.24322672 0.28326803 0.28248444 0.19819218 0.23476884 0.24046114
0.25200126 0.1370584 0.25334847 0.29417273 0.26452413 0.17791142 0.24800326 0.30368844
0.23144788 0.21804506 0.15281343 0.26032048 0.25450727 0.28629258 0.19492516 0.2591358
0.25095338 0.19319378 0.27479455 0.27633715 0.23125726 0.22277164 0.13465185 0.26008838
0.21741949 0.20442425 0.291564 0.22699448 0.28827146 0.3312296 0.16921663 0.23511074
0.15431894 0.12734644 0.31799087 0.29390985 0.19485188 0.20546617 0.28933766 0.26189908
0.25291452 0.24627493 0.24642102 0.2526533 0.28713334 0.3411212 0.2864285 0.2328716
0.21809441 0.29248673 0.2562082 0.1950011 0.2968148 0.25979713 0.21910536 0.32472426
0.26440862 0.27027735 0.24542476 0.1804037 0.25215107 0.2368956 0.28937268 0.2818877
0.20374098 0.24974468 0.2561428 0.24475355 0.28498876 0.26078278 0.29639482 0.20543557
0.29545227 0.26180652 0.24827714 0.22605893 0.26504216 0.22220118 0.2573937 0.23478505
0.25200176 0.2892429 0.237867 0.28230706 0.23908816 0.20477898 0.25354704 0.29403445
0.2962904 0.28314963 0.25922045 0.24140853 0.24935819 0.2143774 0.21099989 0.3040889
0.22939675 0.16630392 0.21788391 0.22144112 0.12581582 0.2600186 0.2179888 0.26022354

model.3.weight f4 [512, 256]
00000000: 7a3f 04bd dd02 75bc be2d d13c 3003 9fbc
00000010: 2183 2cbd 7dcc 413d 36a6 94bc 7544 303c
00000020: 22c9 783c 722a db3c 27c2 033d e219 37bc
00000030: 60a3 b2bb 3c01 e9bc 35dc 1bbd c506 aa3b
00000040: b8a4 67bd 4b32 0d3d 91fa 8fbb b65e 06bc
00000050: 62f9 763a 79a1 a83c 91ea 52bd babb 6c3c
00000060: 3218 f8ba ecab 66bd fb59 0fbd 6b6b 1ebd
00000070: 610f 803d fcd9 ebbc e139 853c 8b8f 9d3c
00000080: cdeb 963d 1677 38bc 35e1 1a3d 8bff da3c
00000090: 85d4 9cbb 721f 90bd a221 23bc fb8a 813c
000000a0: 0939 f6bc ff93 2b3c 9c8b 26bd f0ae 60bd
000000b0: a244 2abd 394b 113c 9e05 203d 95dc 07bd
000000c0: e635 45bd d56a fdbc bcd7 55bd 2c67 b63c
000000d0: 85f7 0abd fa36 60bd aabb 72bb 2fe1 fabd
000000e0: 06fa 8cbc 5dfb fa3b 00fd adbc 70bd 17bc
000000f0: 7417 603d ea99 e33a cc45 b93c 5a6f 72bc
00000100: 2c13 00bd 743d 00ba 3958 24bb 867f 8ebc
00000110: 0b27 0f3c 5edc f63c cc69 58bd 6c4b d3bc
00000120: 9fe0 be3c ca78 3f3d 61b7 b63c 9102 2e3b
00000130: 7c4f 8c3c 18eb 67bd 6ea2 aab9 7fe6 febb
00000140: 4202 b13b 27f2 e8bc 47d7 b9bc abed d3bc
00000150: 4cf4 dbbb d945 7b3d cf3d d53c 79bd 063c
00000160: 9aed cfbc c526 19bd 5514 d53d 44a8 19bc
00000170: 4066 66bd 1b1f 783c 7d34 203d 7d30 35bd
00000180: bef7 b3bc 84bf cf3d 70ed 20bc 5386 61ba
00000190: b0a4 f73c 86f8 063b 9137 2cbb f555 87bb
000001a0: 2d90 2ebd 32a4 37bd f217 7bbd 6e05 0fbd
000001b0: 1c04 95bc c527 c23c cdde 003b bc47 58bd
000001c0: c0c6 a33c 82d7 933a db7e 463b 1180 0c3d
000001d0: 6ca8 48bd c2e5 893d 776e 843d d2db efba
000001e0: 6c50 bf3c e491 023c a86d cb3c 57c1 c43b
000001f0: 08d1 27bd fd6e 3f3d 8093 c8bc d153 9b3c
00000200: 9e86 8f3c 7158 9abc 1e2a e33d 04cf c2bb
00000210: be54 9fbc 1262 2f3d e4f8 f43c b12e 01bc
00000220: 13f2 63bc 910d 353c c6e0 31bd be45 d4bc
00000230: 3e0f 63bd 9098 15bd 0e56 eebc dccd f8bb
00000240: 7f0b 923c 1065 29bb a771 61ba a233 513c
00000250: c48f 013d 2d54 df3a 198e 613d 79fa 8abd
00000260: 068e eb3b 2614 a63d 3f10 58bd 0b29 03bc
00000270: 5785 cf3c 8542 06bd a6a8 f63b 1680 b23d
00000280: 267d 0c3d f19d c3bc e8e2 7e3d 8bb3 0e3d
00000290: 4a27 dabc 167f 38bd a4bd 673c 662a fabb
000002a0: 307c 80bd 5926 043e feea 303d b617 a23c
000002b0: 94b9 a23c d2fe 3fbc e9a3 883b 5d79 8c3b
000002c0: 4cb2 453b 5ee6 27bd 42cb 1fbd 161f abbd
000002d0: d006 2a38 a206 c7bc ebc4 783b 63a2 9f3a
000002e0: 935e 9cbd 505f 843d 33a1 a13c 4d29 aa3b
000002f0: 8bc4 e2bd 2694 063d 49bb 6abc 6e8a a93d
00000300: 5eb5 02bc 7ad1 8b3d 0270 223d 694a 93bc
00000310: 33f8 53bb 2ea4 0cbc 314f 103d 4aaa 613a
00000320: 5958 a83c 4697 8f3c 75b6 4fbd 951b 193d
00000330: c813 f13c 3ce0 f23c 05da 1dbd 4db1 563a
00000340: ba8b 9fbd ddf3 583c a897 44bd 64ee ce3b
00000350: 3343 363d 48b4 873d 663b 45bc 2778 bd3c
00000360: c71c db3c 6571 a8bb e096 593a 4c22 bcbc
00000370: a83f 07bd 7f5c e03b 74a8 533c 803d ab3c
00000380: 1207 203d ec3b 513a b287 69bc f224 563c
00000390: a689 cabd b9f9 393d 5e79 243d 9986 933d
000003a0: beaf 9c3c 24bc ba3c 7652 2fbd 8cbe a33c
000003b0: f946 073d 8cce 18bd 4b8d eb3c de2a 6eba
000003c0: bea9 07bd d52f c53d a854 a9bb 029a fb3a
000003d0: 4b3b 3a3d 3bd8 dcbb 90ed 3abc fb0b 43bd
000003e0: fa3d 283d 8e46 8bbb c58d 3a3d ab89 f2bc
000003f0: d723 05bd 04ac 443d f9a1 9d3c 84f9 833d
-0.0322871 -0.014954296 0.025534507 -0.0194107 -0.04211724 0.047314156 -0.018145662 0.010758509
0.015184673 0.026753638 0.03216758 -0.011175605 -0.0054516047 -0.028442971 -0.038051803 0.0051887953
-0.056553572 0.03447179 -0.0043938835 -0.008201292 0.0009421316 0.020584809 -0.05149323 0.014449054
-0.0018928109 -0.0563163 -0.03499792 -0.03867666 0.06252933 -0.028790466 0.01626295 0.019233486
0.07369194 -0.011258861 0.03781243 0.02673318 -0.0047860765 -0.07037248 -0.009956749 0.015813341
-0.030056493 0.010472297 -0.040660486 -0.054854333 -0.04156936 0.008868032 0.039067857 -0.033169348
-0.048147105 -0.03093473 -0.052207693 0.022265993 -0.03392746 -0.05473993 -0.0037038126 -0.122499816
-0.017209064 0.0076593594 -0.021238804 -0.009261474 0.054709867 0.0017364596 0.02261629 -0.014797056
-0.031268284 -0.000489197 -0.0025077 -0.017394792 0.008737336 0.030134376 -0.05283527 -0.0257928
0.023300467 0.046746053 0.022304239 0.0026551823 0.017127745 -0.056620687 -0.00032545946 -0.007778942
0.0054018805 -0.02843578 -0.02268566 -0.025870165 -0.006712472 0.06134591 0.02603045 0.008223885
-0.025381852 -0.03739049 0.10404269 -0.009378497 -0.056249857 0.015144135 0.039112557 -0.044235695
-0.021968719 0.101439506 -0.0098222345 -0.0008603085 0.030229896 0.002059491 -0.0026278237 -0.00413012
-0.042617965 -0.044834323 -0.061302133 -0.034917288 -0.018190436 0.023700604 0.001966405 -0.052802786
0.019992232 0.0011279436 0.0030288014 0.03430182 -0.048988745 0.06733276 0.06466382 -0.0018299764
0.023353778 0.007969353 0.024832562 0.006004493 -0.040970832 0.046736706 -0.024484396 0.018960865
0.017520245 -0.018841 0.110920176 -0.0059450883 -0.019449588 0.042818137 0.029903837 -0.007884667
-0.013912695 0.011050598 -0.04342725 -0.025912162 -0.055434458 -0.036522448 -0.029093768 -0.0075928997
0.017827747 -0.0025847591 -0.00086000044 0.012768658 0.031631246 0.0017038636 0.055067156 -0.06786055
0.0071885614 0.08109312 -0.05274987 -0.008005391 0.025332136 -0.03277828 0.0075274287 0.08715837
0.03429904 -0.023879023 0.062228113 0.034839194 -0.026630063 -0.045043074 0.014144335 -0.007634449
-0.06273687 0.12905253 0.043192856 0.019786697 0.019863881 -0.011718469 0.0041699302 0.0042869286
0.0030166088 -0.04099118 -0.0390122 -0.083555385 4.0537503e-05 -0.024295155 0.003795917 0.0012179132
-0.07635226 0.06463492 0.019730186 0.0051929117 -0.11072644 0.03285613 -0.014326879 0.082783565
-0.007977812 0.06827064 0.0396576 -0.017979817 -0.0032343983 -0.008584065 0.035231773 0.0008608444
0.02054994 0.017528187 -0.050711114 0.03737982 0.029428378 0.029647939 -0.038537998 0.0008189872
-0.077903226 0.013241735 -0.047996193 0.0063150395 0.04449768 0.06626183 -0.0120380875 0.023128582
0.02674712 -0.005140471 0.0008300375 -0.022965573 -0.03301969 0.006846964 0.01291858 0.020903349
0.039069243 0.00079816463 -0.014253544 0.013070332 -0.098895356 0.04540417 0.040154807 0.07203407
0.01912677 0.02279479 -0.04280325 0.01998832 0.03302667 -0.037306353 0.028753897 -0.0009085367
-0.033120863 0.09628264 -0.0051675625 0.0019195678 0.045466702 -0.006739644 -0.011409178 -0.047618847
0.04107473 -0.004250354 0.04554536 -0.02960666 -0.032504883 0.04801561 0.019242274 0.06444076

model.3.bias f4 [512]
00000000: c691 fdba 860e d73c 04d8 353d 6f78 613d
00000010: 4130 2dbd 7a68 23bd b208 3ebd a51c f0bc
00000020: 80cf 6dbd 3ad4 f4bc f8bb 433d 7252 083d
00000030: faec bc3c 9e40 25bb b8d2 b03c 008f 023d
00000040: 150f 7c3d 499b 68bd 4600 0fbd 12aa 08bd
00000050: f252 2cbd f10b 7ebd 483e ccbc 3352 9e3c
00000060: eaf7 ef3c 38a9 6abc 5aa9 6f3d 59b8 763d
00000070: b4d1 533b 79a0 1d3d f68d 343d 33e5 ddbc
00000080: 3c69 46bd 6c18 b3bc 9345 4e3d de7f be3c
00000090: b353 ffbc bd8c e6bb 652e eb3c 1055 61bd
000000a0: 46d8 30bd 26dd 2ebc ac3f 393c d4a5 053d
000000b0: 8c0e c4bc fd22 223d ecc2 ad3c ded8 78bd
000000c0: c9b9 1cbd f279 d03b 9a62 7fbd 440a 3a3c
000000d0: 8a7b 26bd 90fd 373d 8f78 0bbd c552 b9bc
000000e0: c2d4 cebb 2316 143d baea 6cbd a6a2 b2bc
000000f0: 0643 34bd 940b 843c 41b5 44bb 8760 93bc
00000100: 4c90 1e3d b791 f3bc f4a2 e6bc af6b 80bc
00000110: 3e93 c13b 7d92 60bd 5867 203d f990 b9bc
00000120: 4215 ab3b 2e64 b33a 2db4 c1bc 9b6b 1f3b
00000130: 9f28 0d3d f583 78bb fa96 74bc 1b9d 3abd
00000140: a667 9a3c b33c b03b 5687 7bbd 647e 8ebc
00000150: bf85 b73b 51dd 4c3c aaa0 2bbd 50ab cf3c
00000160: 1c08 5a3b 7277 213c 16af 373d f768 5c3d
00000170: 7d17 1e3d ffd9 7cbd 7497 d03c cde8 73bd
00000180: 4ca9 4bbd 2c91 153d b4b4 303d 4acf c03c
00000190: 36bf 333d ba71 aebc bef4 c2bb d7fa 7dbd
000001a0: cec2 163d 4b34 03bd 4946 103c 5191 75bd
000001b0: 4d4e 73bd ee43 33bd 0a41 44bd 93d7 b33c
000001c0: ff4f 873c 272e 67bd 704d 99bc c84c 283d
000001d0: 136d c2bc d174 6e3d e65c 1a3d cc99 7b3d
000001e0: 96e9 7abc b55f ca3c b9a1 6d3d bb45 66bd
000001f0: 334f e6bc 6410 4b3d 7621 6dbd ce79 523d
00000200: 1092 93bc 9465 11bd 7aeb ee3c ab72 463d
00000210: 075c 3c3d d95c 88bc 1041 123d 1c13 32bd
00000220: 3616 583d 0e19 273d f8b0 23bd 20a0 c53b
00000230: 9fa8 af3c b803 503c 8fdf 74bd a48a 3cbd
00000240: 01c4 43bd dad9 373d da9e 19bd 48cb 47bd
00000250: 44f7 af3c 85c3 0abd 8e28 633d d0e0 8ebc
00000260: 794b 1fbc a8e7 26bb d4cf 623d 2403 5abd
00000270: 24cf 5b3d 2b6f 85bb bc54 223c 1481 f7bc
00000280: 27ce 0d3c b557 333d e9d2 2d3b 3940 25bd
00000290: 0ea8 c43c a68e d1bb e91d 51bd 4d5a 20bc
000002a0: 1802 423d 4d39 fe3c d034 54bd 9a2b 97bc
000002b0: 52e4 5b3d 9e29 3abd ed5e 9bbc a5f8 693d
000002c0: 6372 a7bc 09f6 163d f46d a5bc de23 203d
000002d0: 007c 023d e671 5c3d de24 67bd 4ec9 20bd
000002e0: 76e1 5f3d c827 5e3c ec74 f03c b594 3fbc
000002f0: 8804 3cbc 0a23 31bb 683b 673c e944 333d
00000300: a9d7 2bbc 0543 12bd dcba 243a 3798 a2bc
00000310: 1389 c7bc dc4d 5c3d f613 e83c b8c7 45bc
00000320: 338f e9bc aac4 5b3d c0b6 3fbd 3875 4c3c
00000330: e611 65bd 7bc4 2fbc d135 3b3c 247b 60bd
00000340: 5032 1f3d b150 3bbd 800a 42bc 8dcb 783d
00000350: c769 8fbc a828 e03c 35db 74bc 2555 5cbd
00000360: 8f87 a53c b98f 4d3d d7e0 6bbb c40c 3ebd
00000370: 5cba 89bb a8a2 443d f4a6 7f3d 88f4 36bc
00000380: 2d98 7cbd 2ec2 70bd 0580 7cbd 3565 a73c
00000390: aff1 0e3d f2ff b6bb f299 163d 26bb 6d3d
000003a0: 5e8b 23bd 3c5b 7b3d 7239 db3c 3014 663d
000003b0: 900f 3cbd b34c e63c 468c f6bc e7e8 563d
000003c0: dc8a 49bc a076 d7bb 8e81 e3bb d53d 783c
000003d0: b6b4 153d a5c6 33bd 9881 60bd a4d3 333d
000003e0: d000 49bb b681 31bc 6f32 67bd 1470 42bd
000003f0: 6b29 a83c 06d8 f43c d5c0 fe3b f6f5 4db9
-0.0019345812 0.026252043 0.04439546 0.055046495 -0.042282347 -0.03989456 -0.04639501 -0.029310534
-0.058059216 -0.029886354 0.047786683 0.03328175 0.023062218 -0.0025215517 0.021584854 0.031874657
0.06153782 -0.056788716 -0.03491237 -0.033365317 -0.04207129 -0.062023107 -0.024932042 0.019326305
0.02929302 -0.014322571 0.058511116 0.0602344 0.0032321038 0.038483117 0.044080697 -0.02708683
-0.048440203 -0.021862231 0.05035932 0.023254331 -0.03116784 -0.0070358203 0.028708646 -0.055012763
-0.043175004 -0.010672843 0.011306684 0.03262885 -0.023932718 0.03958415 0.02121111 -0.060753696
-0.038263116 0.0063621933 -0.062349893 0.011354987 -0.04064516 0.04491955 -0.03405052 -0.022622475
-0.006311984 0.036153924 -0.05784104 -0.021806072 -0.04400923 0.016118802 -0.0030015262 -0.017990364
0.03871183 -0.029732568 -0.028153874 -0.015676348 0.005907445 -0.054827202 0.039161056 -0.022652136
0.00522104 0.0013686472 -0.023645485 0.0024325612 0.034462567 -0.003792045 -0.014928574 -0.045559984
0.018848252 0.0053783297 -0.061408363 -0.017394252 0.0056006606 0.012503938 -0.041901268 0.025350243
0.0033268994 0.009855138 0.04484471 0.05381104 0.03859662 -0.061731335 0.025462843 -0.059548188
-0.049722 0.0365154 0.043141082 0.023536343 0.043883525 -0.021294463 -0.0059495857 -0.062006798
0.036806874 -0.032032292 0.00880582 -0.059953038 -0.059400845 -0.043765955 -0.04791359 0.02195338
0.016517637 -0.0564405 -0.018713683 0.04108885 -0.023733651 0.058216874 0.03768625 0.06142597
-0.01531448 0.02470384 0.05801556 -0.056218844 -0.028113937 0.04957618 -0.05789324 0.051385693
-0.018013984 -0.035497263 0.029165018 0.0484492 0.0459862 -0.016645836 0.03570658 -0.043475255
0.052755557 0.04079538 -0.039963692 0.0060310513 0.02144271 0.012696199 -0.059783515 -0.046030656
-0.047794346 0.044885494 -0.03750501 -0.04877785 0.02148021 -0.03387787 0.055458598 -0.017441183
-0.009722584 -0.0025467668 0.05537398 -0.05322565 0.05366434 -0.00407209 0.009907898 -0.030212916
0.008655108 0.043784816 0.0026523417 -0.04034445 0.024005916 -0.006395179 -0.051053915 -0.009787154
0.047365278 0.031033183 -0.05180818 -0.018453408 0.05368454 -0.045449845 -0.018966163 0.05712189
-0.020440286 0.03685573 -0.020194031 0.039096706 0.031856537 0.05381956 -0.056431644 -0.03925448
0.054658376 0.013559289 0.029352628 -0.011693169 -0.01147569 -0.0027028942 0.014113285 0.04376689
-0.010488429 -0.035708446 0.0006283948 -0.019847972 -0.024357354 0.05378519 0.02832983 -0.012071542
-0.028510666 0.05365435 -0.046805143 0.012479119 -0.055925272 -0.010727997 0.011426405 -0.054804936
0.03886634 -0.04573125 -0.011843324 0.060740996 -0.017506493 0.027363136 -0.014944841 -0.053792138
0.020206241 0.050185893 -0.003599217 -0.046398893 -0.004203124 0.048006684 0.06241508 -0.011166699
-0.061668564 -0.058778934 -0.061645526 0.020434001 0.034898456 -0.0055847103 0.036767907 0.058039807
-0.039927833 0.061366305 0.02676079 0.056171596 -0.04591328 0.028112745 -0.030096184 0.052468207
-0.012301173 -0.0065754205 -0.0069429344 0.015151461 0.036549293 -0.043890614 -0.05481109 0.043903008
-0.003067065 -0.010834148 -0.05644458 -0.047470167 0.020527562 0.029888164 0.007774452 -0.00019641951
