pythorch saved models/fgan2_classifier_fm.pth (torch, 831253 bytes, 20 tensors)

net.0.weight f4 [512, 69]
00000000: 993f 9c3d 6285 413e 811b d4bf 9d43 84bf
00000010: b20f 1dc0 5a7f a7bf 65d1 23bd 9c5c 873c
00000020: 9875 50be 615b e23e b9e5 2f3e 579e 93be
00000030: 76d5 31be 67ea 2c3f 9ade efbd 50c4 34be
00000040: 9904 d3bd 997c 09be 73ab 84be 4e1d 22be
00000050: d4e5 f63e 6485 953c 3f9f d33d 4724 61be
00000060: 8d0d d93c 1217 aa3e 2ace 113c 134a ae3a
00000070: 5764 41be aa88 95bd c7a8 0bbe 79ec 07c0
00000080: 07b6 e6bf ba7c 50bd 046c 593d 7710 34be
00000090: 4926 ebbc 6084 453d 245b bc3e db4d 0fbd
000000a0: 20ef a33e 212b 2ebe 27ce d5bf 8264 1abf
000000b0: 63fc c53e cd18 e1be 207b 22c0 fe17 c43e
000000c0: d5d6 dfbc afec 1ebe a73e ffbd 16ad 17c0
000000d0: 2b31 2ac0 62b1 0bc0 8fd8 90bf 2135 98bf
000000e0: 939c 1a3e 6267 5ac0 c418 0ec0 33cf fe3d
000000f0: 0657 c93d 510c 6b3d 5d07 29bd 00b8 b1bd
00000100: a59c 643d 6a11 8cbc 8bda 58be 123e c8be
00000110: d732 4abf 5a69 6fbd d6ab 4ebf 0730 db3e
00000120: 332b dabe 8620 a03e 05a4 91bf 48c7 46be
00000130: d21d 2d3e ca21 4ebd 2360 533e 9eb0 bebd
00000140: ed4f b9bf 8b11 88be f905 ca3e 158f d1be
00000150: 20bc ac3e fa4b 383e be9a c53e b1ee 9c3e
00000160: 50f4 f43c 306c 81bf 1fa7 693d fb06 443e
00000170: 7b7c 5d3c bc3e 8c3e 77ea e5be 5eb4 acbe
00000180: f226 f03e 5895 da3d cd66 cdbf 16db f23d
00000190: c1d9 cbbf 039e 8cbf 23c1 3fbd 023c 96be
000001a0: fa4f e2bf 71fb 04bf 51a8 4dbe ffc9 973e
000001b0: 954e 163b cd76 18c0 5a37 0fbe 2a67 f63d
000001c0: c49a aabd b9b7 843d 7672 db3d 3806 48bd
000001d0: 604f 05bd 4827 f2be ba9c 363e 0c03 7bbe
000001e0: cde0 b3bf 97aa 8f3f 54b4 81bf 0a9f 43bf
000001f0: 4f72 06c0 ff70 0d3b 955e 133d fa56 b73f
00000200: 79f5 cabc 50ca 07bd c766 2dc0 d8bf 80bf
00000210: 9a52 643f d7a4 ec3d eca5 a1bf 4d4a 883d
00000220: e9d7 863e 5680 9ebe 79ee b83c 0570 783e
00000230: 9d77 26be 09d1 23be 2c90 5abe 0eb1 68bd
00000240: 310d 7d3e 1fc2 ed3d 2542 87bd 792d 66be
00000250: f203 7e3d 2056 663e 6cbb 853e 1988 c1be
00000260: f577 3b3e 1572 433c 625a 3cbe abe8 8fbc
00000270: 90da bdbe a176 a6be f3e8 18be c417 093e
00000280: 3454 653e d0dd e1bc bd58 b93d f093 8c3d
00000290: a748 e7bc 96be 873e bc63 8bbd 60ed 123e
000002a0: 15a0 33bf e609 a93e e477 87bd 7fa0 c8bc
000002b0: beed 9bbe bb07 86bd 50b0 d3bd 774c dbba
000002c0: 1584 babe aab4 223e 1fad 81bc c43f 83be
000002d0: f647 cebf 9230 613d 6829 6c3e 7324 79bd
000002e0: d6e4 54bf 2977 603c 61a6 7d3e 4d33 0abe
000002f0: 8960 1d3e 2ae3 dc3e f318 9fbd a3f0 9b3e
00000300: 6910 7c3d d203 6cbd 3d15 1f3e 075e 8fbd
00000310: 87cc 58bf 1faf 8ebb 04f4 eb3c b7b7 cf3e
00000320: 023a 713d 851b dfbe 76a5 bf3e 0617 3e3c
00000330: 23eb 8dbe ed37 80be 1c72 343e 953c e8bc
00000340: d408 eb3c 39b6 24be c583 dc3e f95a 283e
00000350: fbe1 0d3e dee7 c13e 8871 89be 45c7 60be
00000360: f029 473e f694 d4bc b09b 913d c608 3b3e
00000370: d4dc c63d c308 523c 6c60 8ebe 2b60 5fbe
00000380: 0566 5cbe e0a0 98bd b143 763e 6004 a4bd
00000390: c435 ef3d 0b4d 813e 303a 86bd f2ed 91bc
000003a0: 9ff8 bb3c a471 963d cf32 e83d b8d8 63bd
000003b0: e11d d4bd 77df 313d 768c 88bd 6441 a6bd
000003c0: 6ab1 c93d 4931 fe3d ef53 ba3d 4649 c53e
000003d0: 2a48 33be d71b abbc 67e5 c13d 2cc8 df3d
000003e0: c294 ae3c d360 9abc 40e8 8fbe 5c85 0a3e
000003f0: 001e da3e 0eb5 323e 06d9 e23a 3520 08be
0.07629318 0.18898538 -1.6570894 -1.0333134 -2.454083 -1.308574 -0.039994616 0.016523652
-0.20357358 0.44210342 0.17177476 -0.2883174 -0.17366585 0.6754517 -0.1171238 -0.17653012
-0.10303611 -0.13426436 -0.25912055 -0.15831491 0.4822222 0.018252082 0.10333108 -0.21986495
0.02649572 0.33220726 0.008899251 0.0013297222 -0.18885933 -0.07301457 -0.13638602 -2.1238081
-1.80243 -0.0509002 0.053081527 -0.17584406 -0.02870478 0.048221946 0.36788285 -0.034986358
0.32018375 -0.1700864 -1.6703538 -0.6030961 0.38669118 -0.43964234 -2.538765 0.38299555
-0.02732412 -0.15519975 -0.12463122 -2.3699393 -2.659251 -2.1827016 -1.1316088 -1.1891214
0.15098791 -3.41256 -2.2202616 0.12441864 0.098310515 0.057384793 -0.041266788 -0.08677673
0.05581345 -0.017098147 -0.21177118 -0.39109856 -0.78983825 -0.05845008 -0.8073095 0.4281008
-0.42611083 0.31274813 -1.137818 -0.19411957 0.16905907 -0.050325193 0.20642142 -0.09311031
-1.4477516 -0.26575884 0.39457682 -0.40929475 0.33737278 0.17997733 0.3859462 0.30650857
0.029901654 -1.0111141 0.057044145 0.19143288 0.013518448 0.27391613 -0.44905445 -0.3373136
0.46904713 0.10673016 -1.6046997 0.118581936 -1.5925828 -1.0985721 -0.04681505 -0.29342657
-1.7680657 -0.5194617 -0.20083739 0.29646298 0.0022935022 -2.382251 -0.13985959 0.12031396
-0.083303005 0.06480355 0.10715191 -0.048834056 -0.0325464 -0.47295594 0.17833224 -0.24512881
-1.4052979 1.1223935 -1.0133157 -0.7641455 -2.1007268 0.0021582243 0.035978872 1.4323418
-0.024775254 -0.033151925 -2.709398 -1.0058546 0.8918854 0.11554878 -1.262876 0.06654797
0.263366 -0.30957288 0.02257465 0.24261482 -0.16256566 -0.1599771 -0.2134406 -0.056809478
0.24712063 0.11609291 -0.06604413 -0.22478284 0.06201548 0.22493792 0.26119554 -0.37799147
0.18307479 0.011929055 -0.18393853 -0.017567 -0.37080812 -0.32512382 -0.14932613 0.13387972
0.22395402 -0.027571589 0.090501286 0.06864154 -0.028232886 0.26512593 -0.06806132 0.14348364
-0.7016614 0.33015364 -0.06614664 -0.024490593 -0.3045482 -0.06544443 -0.10336363 -0.0016731162
-0.36428896 0.1588923 -0.01582962 -0.25634587 -1.6115711 0.05497796 0.2306267 -0.060825776
-0.83161676 0.013700285 0.247705 -0.13496132 0.15368856 0.43142062 -0.077684306 0.3045703
0.061539087 -0.05762083 0.15535446 -0.07000356 -0.84687084 -0.004354372 0.02880288 0.4056985
0.05889321 -0.43575683 0.37430924 0.011602169 -0.27718458 -0.25042668 0.17621654 -0.0283492
0.028690733 -0.16085137 0.43069282 0.16440953 0.13855736 0.37872213 -0.2684443 -0.21951015
0.19449592 -0.025949936 0.07109773 0.18265066 0.09710088 0.012819472 -0.2780794 -0.21814029
-0.21523292 -0.074525595 0.2404926 -0.08008647 0.11680177 0.25254092 -0.06554067 -0.017813656
0.0229457 0.07345894 0.11337816 -0.0556266 -0.103572614 0.043426003 -0.06667416 -0.08117941
0.09848292 0.12411744 0.0909804 0.38532466 -0.17507997 -0.020887299 0.09467583 0.10926852
0.021311168 -0.018844998 -0.2810688 0.13527435 0.42601013 0.1745188 0.001730711 -0.13293536

net.0.bias f4 [512]
00000000: abd5 3e40 c9ba e83f 81b1 10bf 1118 3dbf
00000010: 6a6e da3f b4e3 b8bf 8cc2 6cbf 65e9 aa3f
00000020: 715b 193f 5096 d53e 15f7 5340 be1a 0340
00000030: af72 403f aac7 873f 84b8 8bbd 8a0d aa3f
00000040: 3156 9d3f c72d 7c3f b434 0640 7b09 9a3f
00000050: 007d 5340 ce29 f43e fd48 0a40 bc92 74bf
00000060: dca0 0840 741a 0640 2835 3abf 09a0 543f
00000070: 0a73 2f40 c65b 15bf 003f 6340 32e6 1bbc
00000080: 592f 733f 9b9e 5640 cb38 f53e 8e56 913f
00000090: 0575 8040 4771 ca3c 4843 4e3f f331 093c
000000a0: 44cf 05bf 7926 c03f fbe2 fb3f 8378 acbf
000000b0: 04c1 2dbf e0bb 8cbf e442 3f3f dc57 6540
000000c0: d590 f3bf 5095 e3be 684b 013e 0d21 5abe
000000d0: a0e2 963d ed2c 1340 a121 0c3e 60af c83f
000000e0: 1469 2140 8d66 4f40 816d b7bf fafb 7cbf
000000f0: 781e 59bf e6ab da3f 6253 f0be 6d0c 6fbf
00000100: 1d45 f43f 8da5 95bd 25c6 0440 59d7 85bf
00000110: 1ee1 9fbf 6c15 853f a90a f13f e25a 24bf
00000120: d9c2 54bf 1623 4d40 48ef 113f ee23 8dbe
00000130: c897 eb3f a998 03be 2b5b 6e40 a513 3abf
00000140: 2233 e63f f9d3 7a3e cfd9 7b3f 48f8 a8bf
00000150: bfce 0e40 4fae e43f bea0 f63e 98ce b43d
00000160: 1748 a93e 05a1 d33f 54be 3740 8c93 c1bf
00000170: 8a77 9fbf 1015 f6be 4a75 88bf 028f b8bd
00000180: 4ede b33f 4913 4940 ca50 aa3f d791 1640
00000190: 1edb 843f 3dec c3bf 67cc 84bf 429d edbe
000001a0: fcab 1940 d230 0abf 0244 1840 7732 bc3f
000001b0: 5aaa 76be 8cc4 21be 6d1e 963e 7ecd e83f
000001c0: a655 ed3f 832d 433f 28d4 2340 a743 89bf
000001d0: 81ae 0640 6f2a 833e 4ac4 a6bf c98c b3be
000001e0: 9fad 0240 8574 2340 6257 72be 5dbe 89bf
000001f0: fb73 b7be 5b2a 83bf c2ee 23bf 46e8 ab3f
00000200: 5fd7 4540 1787 a53e 9071 4d3f 7fea 68bf
00000210: 5894 0b3f ca36 69bf 45e9 1740 6991 6bbe
00000220: d022 2c40 6816 a5bf 5ecd 6abf 2f2c 6f3c
00000230: 3018 8a3f 1bb8 a5bf 62ba a0be 1ff8 eb3f
00000240: 5041 f43f 0d00 14be eb91 ccbd f393 81bf
00000250: 6227 f33f 3fb4 1840 3dcc 4940 a62f c93f
00000260: 5079 55bf 44f3 3b3f 4ac3 bfbf fbd4 3f3f
00000270: f961 c9bf d3f3 b93f acc5 123f 0766 c43f
00000280: 28a1 1c40 2f03 d33f 34fe 29bf d6fe 4240
00000290: c627 783e 0e1e d73f 52e1 df3c 93a2 4d3f
000002a0: dcb8 9b3f 0fd2 af3f 6f93 1340 c39d 82bf
000002b0: ff8c 17bd 8a7a 993f 0453 0340 2da4 cc3e
000002c0: 560c debf 5e1b f83f 641a ed3e 151d cd3f
000002d0: e513 bb3f a40b d43f c817 1abe 6a31 4440
000002e0: 9ae5 673e d0ec c03f 8c76 07bf 3c5f 58bf
000002f0: bdc1 b73e 39d0 d0bf 9c99 8fbe 758d 58bf
00000300: 1b20 3640 9935 0a40 5f4f 183f c6a5 ee3f
00000310: 3643 14bf 84a0 de3f 504c b1bf 6d58 943f
00000320: 0b68 69bf a55b 593f 861c 80bf 0c76 df3f
00000330: 06b9 42bf cc68 ba3e 5455 c2be 9bcd b03f
00000340: a400 d83f 0608 a2bf decc 003f 30a2 8bbf
00000350: d639 b8be 39d8 aabe 4899 293e 5f2c 8ebf
00000360: c5c0 2a40 e1c9 e63f c27f e73f 4652 cd3f
00000370: 3bdf 9e3f 202d 823f 5a98 b73a 50a1 0d40
00000380: 5e0b c93f 8833 3ebf eab0 953e 221f 9f3f
00000390: a7f7 a3be 8244 af3f 912a 773f ddb6 1040
000003a0: cb34 a5bf c571 c3bd f948 a23f 4c0a 993e
000003b0: 2061 883e 4534 4dbf 9b70 cd3f 4e8d ec3f
000003c0: 81bd 033f 6a5c 983f 248f 92bf 903f 37bf
000003d0: 274e 9a3f 3dee 15bf 37bd e0bf 3e8a 54bf
000003e0: 5356 2540 dfae 1bbf b56a 1240 d7b2 893e
000003f0: 006a 3040 6919 ba3f a34c 433f 2dec 9c3f
2.9817913 1.8182002 -0.5652085 -0.7386485 1.7064946 -1.444449 -0.92484355 1.3352476
0.59905154 0.41716242 3.3119557 2.0485072 0.75174993 1.0607808 -0.06822303 1.3285382
1.2291929 0.9850735 2.0969667 1.2034143 3.3045044 0.47688144 2.1607049 -0.955364
2.134818 2.0953646 -0.7273736 0.83056694 2.7413964 -0.5834316 3.5507202 -0.009515332
0.9499412 3.3534305 0.47894892 1.1354539 4.0142846 0.024712218 0.80571413 0.008373725
-0.5226939 1.5011741 1.9678644 -1.3474277 -0.67872643 -1.0994835 0.7471144 3.5834875
-1.9028574 -0.44449854 0.12626421 -0.2130167 0.07367444 2.299617 0.13684703 1.567852
2.5220385 3.2406342 -1.4330293 -0.98821986 -0.84812117 1.7083709 -0.46938616 -0.93378335
1.9083592 -0.07306967 2.0745938 -1.0456344 -1.2490575 1.0397162 1.8831378 -0.64201176
-0.83109814 3.2052665 0.5700574 -0.27566475 1.8405695 -0.12851204 3.7243145 -0.72686225
1.7984354 0.24494924 0.98379225 -1.320077 2.2313688 1.7865695 0.48169512 0.08828467
0.33062813 1.6533514 2.8709917 -1.5123153 -1.2458355 -0.48062944 -1.0660794 -0.090116516
1.4052217 3.141802 1.3305905 2.3526514 1.0379369 -1.5306469 -1.0374879 -0.4640904
2.401122 -0.53980744 2.3791509 1.4702901 -0.24088421 -0.15797633 0.29320088 1.8187711
1.8541763 0.7624132 2.559824 -1.0723771 2.1044009 0.25618312 -1.3028653 -0.35068348
2.041847 2.5539868 -0.23666146 -1.0761219 -0.35830674 -1.0247301 -0.6403619 1.3430259
3.0912702 0.32329628 0.8025141 -0.9098281 0.5452323 -0.91099226 2.3736126 -0.23004688
2.6896248 -1.2897463 -0.91719615 0.0145979365 1.0788631 -1.294681 -0.313922 1.8435096
1.9082432 -0.14453144 -0.09988769 -1.0123276 1.8996394 2.3860013 3.1530907 1.5717666
-0.83388233 0.7341807 -1.4981472 0.7493436 -1.5733024 1.4527534 0.57332873 1.5343636
2.4473362 1.6485347 -0.6640351 3.046804 0.24233922 1.6806047 0.02732912 0.80326194
1.216579 1.373598 2.3058736 -1.0204395 -0.0369997 1.1990521 2.0519419 0.39969006
-1.7347515 1.9383352 0.46309197 1.60245 1.4615446 1.6566052 -0.15048134 3.065516
0.2264618 1.507227 -0.52915263 -0.84520316 0.35889998 -1.6313545 -0.28046882 -0.84590846
2.8457096 2.1595213 0.5949611 1.864434 -0.57915056 1.7392735 -1.3851414 1.1589485
-0.9117438 0.84905463 -1.0008705 1.74579 -0.76063573 0.3640808 -0.37955725 1.3812746
1.6875196 -1.2658699 0.503126 -1.0908871 -0.35981625 -0.3336809 0.16562378 -1.1107291
2.6680157 1.8030359 1.8085864 1.6040733 1.2411875 1.0170021 0.0014007196 2.2129707
1.5706594 -0.7429738 0.29236537 1.2431376 -0.3202488 1.3692782 0.96549326 2.261161
-1.2906736 -0.09543184 1.267852 0.29890668 0.266366 -0.8015788 1.604999 1.8480623
0.51461035 1.1903203 -1.1449933 -0.71581364 1.20551 -0.5856665 -1.7557744 -0.8302344
2.5833938 -0.6081371 2.2877629 0.26894256 2.7564697 1.4539005 0.76288813 1.2259575

net.1.weight f4 [512]
00000000: 2f8d eb3f a842 0440 5111 c23f a0c6 b73f
00000010: a7fd ea3f 7162 1140 44f0 bc3f f2b3 5640
00000020: 8227 ed3f 82b6 d43f 8a80 db3f 8fde c73f
00000030: 30b8 3d40 4865 c73f 973e cc3f 72ec 4b40
00000040: 763c c23f ded9 ba3f 7b7c f73f 8635 e13f
00000050: 6a07 e73f abfe 923f d4ce cd3f d584 be3f
00000060: 2fca cf3f c6f0 0e40 a6c5 f23f f55b d63f
00000070: 30b1 983f 2521 c13f c368 b03f fc25 1a40
00000080: cdfb d43f 3f13 ca3f 528a a33f 9ad4 db3f
00000090: 7e1f bb3f 528f 6240 e04f b63f 085a d33f
000000a0: bddb f93f 57af ed3f e422 0840 26ce de3f
000000b0: 7b50 c73f ba8c c23f 329b c83f f4a4 3a3f
000000c0: 0905 1a40 c596 be3f 5672 5940 1b8c cb3f
000000d0: c4a9 d83f 2e2c e93f 93b6 5240 0218 d03f
000000e0: 02e3 1740 0f24 863f f957 fe3f 8e0a 0140
000000f0: f5b1 bf3f 56ed f93f 063f cc3f 4ffe 1540
00000100: d47d e13f af48 2d40 8aa1 f23f 479f b93f
00000110: 00a7 fa3f 597a bc3f 5660 e73f 3d5f ab3f
00000120: 340a c23f 3553 dd3f a5c6 0740 a3a9 a53f
00000130: 3107 e03f df31 ee3f 9f18 b73f 44f9 993f
00000140: e797 d53f e7c8 2040 b67d 9c3f 5836 de3f
00000150: eaea c43f 6263 d33f 3ed6 6840 fb11 ba3f
00000160: d290 5140 0c44 e03f 72ae 8f3f 7226 df3f
00000170: ff40 c83f e137 c53f 6ccd af3f f8ec f13f
00000180: d2bb 0c40 09ad 0640 6885 c03f 77f2 1040
00000190: 361b d93f 40b9 b23f 5b82 9a3f 3678 4940
000001a0: 602f 0c40 7432 de3f c21b ea3f 0869 f53f
000001b0: 79d9 d63f 33d5 8b3f 93e3 ad3f 6d1d d93f
000001c0: 0299 b03f 8732 df3f 219c ef3f 5aa7 b53f
000001d0: 9ee3 df3f 091d 1f40 e5b3 ba3f 9723 3740
000001e0: bc06 da3f 3551 9f3f bdac 0140 ae3e c03f
000001f0: bbe1 b83f c509 b73f 0876 b83f ddbc 8140
00000200: 437c a63f a368 c83f ce73 e23f 0dff c43f
00000210: 76c5 0b40 6546 c23f ec55 0640 19a4 e93f
00000220: bab1 af3f ee4a c73f 78ce bd3f d0df 2440
00000230: 304a 0040 718b c23f b2d4 0840 d65b 9d3f
00000240: 06d2 b23f 6c23 4340 9af4 3940 c077 d13f
00000250: 2c9c 0440 e36c 823f 6cbd da3f 9563 d03f
00000260: c6e5 ca3f 2aa9 be3f d89f ef3f 4e45 c03f
00000270: 47ee d33f 7377 de3f c11a b43f c8b9 0040
00000280: 0de7 d33f d287 0340 430d cb3f 284a b43f
00000290: 6ae0 4b40 0276 d73f 8a6d 1d40 3af8 ea3f
000002a0: 6f69 b53f ec9a c63f 5042 be3f 8362 c53f
000002b0: 27e0 fd3f 16e1 aa3f 3062 e03f e43d 5740
000002c0: bd5a e03f 92e9 e03f b44d 4c40 3c66 923f
000002d0: f0a6 d93f c4f2 bd3f 625d e63f b93b c83f
000002e0: 122b 0740 e578 fd3f 8546 db3f ed15 ad3f
000002f0: d42d b23f 736a ca3f ff32 3340 c868 c33f
00000300: ab0d cd3f 5b28 de3f 69bb 3d40 4c72 ff3f
00000310: d864 ea3f 68df db3f 441a c83f c336 d23f
00000320: 90fa 0a40 21b3 b83f 9a43 d53f 2839 e93f
00000330: 8bd2 be3f 2ec1 af3f 26e3 b93f fbee eb3f
00000340: 711e ef3f 7920 c03f f8c1 ee3f 2169 893f
00000350: 3079 b03f d1a6 b83f 401b b63f 3604 b43f
00000360: 0475 d63f d71c d43f c47d bc3f 380e d03f
00000370: 94b1 d03f 5289 f43f 29f0 943f 504e a13f
00000380: 4819 c43f c291 0b40 1584 b13f 53cc 2b40
00000390: 08d8 3240 be47 d23f 72ad a73f ecd7 c13f
000003a0: e99c b93f 64a6 e13f 4f2b ec3f b6fa aa3f
000003b0: 00f9 ad3f d655 cf3f f9bc 0140 d7c3 ff3f
000003c0: 17ac 4240 90da 5b40 cbc4 a93f 950b c43f
000003d0: 9f31 5540 6b52 c63f 0578 f43f 5d55 e33f
000003e0: f265 d13f bbfa e83f fbb9 c93f 31be 4a40
000003f0: 3c30 f23f 67ca b83f 2a44 2540 3a00 e33f
1.8402461 2.0665684 1.5161535 1.435749 1.8358659 2.2716334 1.4760823 3.354733
1.8527682 1.6618197 1.7148602 1.5614794 2.964367 1.5577784 1.5956601 3.1863065
1.5174701 1.4597738 1.9334863 1.7594459 1.8049138 1.1483968 1.6078744 1.4884287
1.6233577 2.2334456 1.8966568 1.6746813 1.1929073 1.508824 1.3781971 2.4085684
1.6639344 1.5787123 1.2776587 1.7174256 1.4618986 3.5399976 1.4243126 1.651185
1.9520184 1.8569134 2.1271296 1.7406662 1.5571436 1.5199196 1.5672362 0.7290795
2.4065573 1.4889761 3.3976035 1.5902132 1.6926808 1.8216608 3.2923934 1.6257327
2.3732305 1.0479754 1.9870597 2.0162692 1.4976183 1.9525554 1.5956733 2.3436468
1.7616525 2.7075613 1.8955548 1.4501733 1.9582214 1.4724838 1.8076274 1.338844
1.5159364 1.7291018 2.1214993 1.2942394 1.7502195 1.860897 1.4304389 1.2029195
1.6686982 2.512262 1.2225864 1.7360334 1.538419 1.6514704 3.6380763 1.4536737
3.2744641 1.7520766 1.1225111 1.7433608 1.5644835 1.5407678 1.3734565 1.8900442
2.1989636 2.1043112 1.5040712 2.2647989 1.6961429 1.3962784 1.2071031 3.147962
2.1903915 1.7359147 1.8289721 1.9172678 1.6785117 1.0924438 1.3585075 1.6962105
1.3796694 1.7437295 1.8719522 1.4191697 1.7491338 2.4861472 1.458615 2.8615472
1.7033305 1.2446657 2.026168 1.5019128 1.4443887 1.4299856 1.441102 4.0543046
1.3006672 1.5656933 1.7691591 1.5390335 2.183927 1.5177733 2.0989943 1.8253204
1.3726113 1.5569742 1.4828634 2.5761604 2.004528 1.5198804 2.137982 1.2293651
1.3970344 3.049037 2.9055543 1.636467 2.072032 1.018948 1.7089057 1.628039
1.5851371 1.4895375 1.8720655 1.502115 1.6557091 1.7380203 1.4070665 2.0113392
1.6554886 2.0551648 1.5863422 1.4085131 3.1855721 1.6832888 2.4598107 1.8357003
1.4172801 1.5516028 1.4863987 1.5420688 1.9834031 1.3349941 1.7529964 3.3631525
1.7527691 1.757128 3.1922426 1.143745 1.700407 1.4839711 1.7997248 1.5643226
2.1120038 1.9802519 1.7130896 1.3522316 1.3920236 1.5813736 2.7999876 1.5266352
1.6019796 1.7356066 2.9645636 1.9956756 1.8312025 1.7177553 1.5633016 1.6422962
2.1715431 1.4429666 1.6661255 1.8220568 1.4908003 1.3730829 1.4522445 1.8432306
1.8681165 1.500991 1.8652945 1.0735208 1.3786983 1.4425908 1.4227066 1.4063785
1.675446 1.6571301 1.4725881 1.6254339 1.6304193 1.9104407 1.1635791 1.2602024
1.5320215 2.1807714 1.3868433 2.684346 2.7944355 1.6428144 1.3099806 1.5144019
1.450101 1.7628903 1.8450717 1.3357761 1.3591614 1.619807 2.027159 1.998164
3.0417535 3.435215 1.3263181 1.5316035 3.3311536 1.5493902 1.9099127 1.7760426
1.6359236 1.8201517 1.5759882 3.1678584 1.892097 1.4436768 2.5822854 1.7734444

net.1.bias f4 [512]
00000000: c6c7 123f 76b0 4fbe d2a5 fabe 8ec0 49bf
00000010: 41e2 9d3c 7b9f 75bf 8fdd 33bf 12cb 443e
00000020: fdca 16bf fdde 813e b0ab 5a3f 974d 8dbd
00000030: c788 d03e e0a9 cabe 4c06 eebe 7529 4fbd
00000040: 4227 583c fb44 b6be 5bbe 3e3e 7def e23d
00000050: a0dc d13e 7352 1cbe 505e f5be 49fe 13bf
00000060: 03c5 be3e e485 0dbe af2c 33bf aa1a 0dbf
00000070: 5d04 db3e 1ec7 50bf 523c 803f a4b9 803e
00000080: a258 35be 63d2 5f3f 7314 e5be 2c2f ab3a
00000090: 688c 9d3f 9f0d 113f 57fd 4fbe 7362 3ebf
000000a0: b3ad a4be 060d 96be 7b7f 1ebe 3ea1 01bf
000000b0: a755 77bf f0c6 52bf f3ce 40bf 3901 973f
000000c0: 78f5 34bf cb05 02bf 3a3f 1c3f 3850 c13e
000000d0: 2890 68bf dfa1 d5bd f715 113f 4aa6 5dbe
000000e0: 5a49 0cbd 32f1 543f 4637 4bbf 4ed6 09bf
000000f0: 6dff 9ebe 0dcb 933c 6cbd 11bf 1cc8 60bf
00000100: cdca a53e dcb6 cb3e 5ed2 9ebc e98b d8be
00000110: 1e3c 1bbf ad9e 80bd fe29 a8be ea74 29bf
00000120: df40 0bbf 60c9 333f d809 bcbe d761 2bbe
00000130: 077f 21be a12e 2abe f568 833f 3999 12bf
00000140: b682 41bd dcdd f73e fe6d 883d f9ff 32bf
00000150: b311 5d3e 26d3 4d3f 37ff 063f c671 4ebe
00000160: 1192 043f 1779 3ebd b5d2 513f ad84 50bf
00000170: 430d 11bf 12a7 abbe 5e4b 46bf bd55 c1be
00000180: 63ac 81be a0da 833e 55c0 3abe b635 35bd
00000190: 8745 7cbe ac6f 14bf 557e 82bf 9777 0c3f
000001a0: 9b8a 8d3d 7b5f 61be 8a2d c73e db6b 703c
000001b0: 5cf5 663e 48cd 6dbf 2ccf 9bbe fee4 c63d
000001c0: ac69 11be f668 94be 9c5e 46bd e5bb 1cbf
000001d0: a72d a63d 0483 113f 9742 63bf b299 923e
000001e0: 8f20 3a3e 1abb 783c 078f e8be e505 8dbe
000001f0: f828 d8be 18fe 3bbf 43de 0abf 843f 443e
00000200: 2354 5d3f a96c a03d a9d9 a4be 178e 0dbf
00000210: a4ce ae3e 224a 0ebf 7fda 85be 18bf 19bf
00000220: 21aa e83e b65c a5be 8b93 18bf 64bc eb3e
00000230: a664 a9be 6610 4bbf 3edd 133e b131 ef3e
00000240: 61a9 b2bd d992 fc3e e619 f93e dc8d 9ebf
00000250: acb8 50be 4809 2f3e e591 be3e d746 233e
00000260: 3ef2 5fbf b020 19be 7297 76bf 5454 8cbe
00000270: 5c47 2dbf ac1a bebe 0eac 49be be46 3fbe
00000280: 83c5 283e 5c7f 47bc 3665 35bf 26fe 553f
00000290: 28b3 0b3f 1d22 d4bc 2e80 c13e d602 cabe
000002a0: 0cd6 a0bd ab91 85be f600 9e3e e603 44bf
000002b0: 97f8 a8be 803c 7e3e 82d5 8abd a9b1 8e3e
000002c0: 0683 38bf 302f adbe 69f1 b53e fb56 e23e
000002d0: 953c 083f 24b6 24be 5612 e438 ad7f 443f
000002e0: 02b9 4b3e fab2 9d3c dd05 1bbf 3fcd 75bf
000002f0: 645c febe daba 6bbf 36f0 9e3e f9f8 b23c
00000300: 8836 da3e 1e54 a23a 30c1 e13e e339 833e
00000310: 26c0 14bf 5bdf e5bd c5ca 35be 3a74 17be
00000320: f49e 25bf 4480 09bd dc5e bebe 7dc5 593a
00000330: 8ba5 76be aae3 45be fa10 81be e39b a83d
00000340: c115 90be 9afb d7be f0d4 8b3e 88ab 5cbf
00000350: d234 c9be 01e9 e9be 98de e4bd d983 9cbf
00000360: d1a7 8c3e 3431 0fbd a7a9 a73e 5358 303e
00000370: 0293 68be 0c9e da3e a44b 24be 1f5a 583f
00000380: 4c23 6b3e 5088 b9be f8a8 bcbe 26d9 95bd
00000390: 2c1e f93e d7df 0abe 34df c0be 059c 0b3f
000003a0: ae94 5cbf 1d22 68be 0e79 cdbe 2e1b 95be
000003b0: d65a 723e 97e5 07bf f4de c83d d5c4 243e
000003c0: d786 d93e 600e 833e fca8 3cbf 8460 f2be
000003d0: b5cb 993e abba 50bf 7d91 3dbf bc71 64bf
000003e0: 8634 f93e b0c6 5cbf cf4b ef3d dbbe f33e
000003f0: 4bb5 863e e33a 373d e9dd 673e 1143 c0bd
0.5733608 -0.20282158 -0.48954636 -0.7880944 0.019272925 -0.9594647 -0.70259947 0.1921809
-0.58903486 0.2536544 0.85418224 -0.06899565 0.40729353 -0.3958273 -0.4648918 -0.050576646
0.013192954 -0.35599503 0.18627302 0.11080835 0.40988636 -0.15265827 -0.47923517 -0.57809883
0.37259683 -0.13820606 -0.69990057 -0.5511881 0.42776766 -0.8155383 1.0018408 0.25141633
-0.17709592 0.874304 -0.44742164 0.0013060323 1.2308474 0.5666141 -0.20311485 -0.7436897
-0.32163772 -0.2930681 -0.15478317 -0.5063666 -0.9661507 -0.82334805 -0.7531578 1.1797248
-0.70687056 -0.5079009 0.61033976 0.37756515 -0.90844965 -0.10431265 0.5667414 -0.21645465
-0.03424964 0.83180535 -0.79381216 -0.5384263 -0.3105425 0.018041158 -0.5692966 -0.8780534
0.32381287 0.39787948 -0.01938742 -0.42294243 -0.60638607 -0.06280265 -0.32844537 -0.6619402
-0.5439586 0.7022915 -0.3672626 -0.16736542 -0.15771113 -0.1661935 1.0266405 -0.5726505
-0.047243796 0.48411453 0.06661604 -0.69921833 0.21588783 0.8040031 0.52733177 -0.20160589
0.5178538 -0.0465022 0.8196214 -0.8145245 -0.5666086 -0.33525902 -0.7745875 -0.37760726
-0.25326833 0.25752735 -0.18237431 -0.044240676 -0.24635898 -0.579829 -1.0194803 0.5486998
0.069112025 -0.22009079 0.3890193 0.014674152 0.22554535 -0.9289136 -0.30431497 0.097116455
-0.14200467 -0.2898633 -0.04843007 -0.61224204 0.08114176 0.5684054 -0.88773483 0.28632885
0.18176483 0.015181327 -0.4542162 -0.2754356 -0.42218757 -0.7343459 -0.54245394 0.19164854
0.8645651 0.07833225 -0.32197312 -0.55294937 0.3414203 -0.5558187 -0.26143262 -0.6005721
0.45442298 -0.32297295 -0.5960013 0.46042168 -0.330846 -0.793219 0.14439866 0.467176
-0.08723713 0.49330786 0.4865257 -1.2387042 -0.20382947 0.17093384 0.37220684 0.15944992
-0.8747901 -0.14953876 -0.9632484 -0.27408087 -0.6768701 -0.37129724 -0.1969454 -0.1867933
0.16481595 -0.012176361 -0.7085756 0.83590925 0.54570246 -0.025895173 0.37793106 -0.3945529
-0.07853326 -0.26087698 0.30860108 -0.7656845 -0.3300216 0.24827766 -0.06779005 0.2786992
-0.72074926 -0.33825064 0.35535744 0.44206986 0.5321744 -0.16085106 0.000108753025 0.7675732
0.19894794 0.019250382 -0.6055582 -0.96016306 -0.49679863 -0.9208199 0.3104264 0.021847235
0.4261973 0.0012384688 0.44092703 0.25630102 -0.58105695 -0.11224242 -0.17753132 -0.1479043
-0.6469567 -0.03356959 -0.37181747 0.0008307321 -0.24086587 -0.19325128 -0.25208265 0.08232858
-0.28141597 -0.42184144 0.27310896 -0.86199236 -0.3929811 -0.4568558 -0.11175269 -1.2227737
0.27471784 -0.034959033 0.32746622 0.17221193 -0.22712329 0.42698705 -0.1604448 0.84512514
0.22962683 -0.3623681 -0.36847663 -0.073168084 0.48655832 -0.1356195 -0.3767029 0.5453494
-0.8616437 -0.22669263 -0.4013142 -0.291223 0.23667464 -0.530847 0.0980815 0.1609071
0.42485687 0.25596905 -0.7369535 -0.4733926 0.3003823 -0.8153483 -0.7405012 -0.89236045
0.48672885 -0.86240673 0.11684381 0.4760655 0.2631019 0.044733893 0.22643246 -0.09387792

net.1.running_mean f4 [512]
00000000: d474 2540 20da d73f 8513 01bf be99 41bf
00000010: 5cfd a73f 5326 b9bf 7f30 66bf 07e4 a13f
00000020: 7999 133f f6f6 a63e 8884 4e40 b93c 0140
00000030: cf7d 473f 646d 463f dc0f 733d 117f 9c3f
00000040: 1199 a33f 1a25 5c3f 0453 0d40 fd82 893f
00000050: f4dc 2d40 f7c3 133f 4e98 eb3f ce31 6abf
00000060: 1e43 0940 62d8 0240 1f2e 48bf 351e 613f
00000070: 192f 3940 e0ee 10bf b920 6a40 c9bc b93d
00000080: 7dbb 5a3f 359e 5240 b9d9 5a3e 9755 823f
00000090: 24e4 7b40 cdaa f53d bc74 283f aba8 0ebe
000000a0: 3aeb e8be c3b0 ad3f 4985 0340 e955 a2bf
000000b0: 0ddf 1bbf ce52 82bf 9889 5b3f 52df 6140
000000c0: cca1 e4bf 0e89 d7be 865e 223d 1b21 68be
000000d0: 17fb 9c3d 7d3e 1a40 095c 443d 3ae5 af3f
000000e0: 7cf2 2840 7a01 4040 3c9b adbf 6ce8 68bf
000000f0: cf87 2abf b3a2 c63f 7bc7 efbe 7983 60bf
00000100: 6dd5 ed3f bf6c 15bd 371c 2340 8511 93bf
00000110: 881b 93bf 81d1 6b3f 5196 0440 a39c 24bf
00000120: 9ea7 52bf 0d4a 4240 e0db 0d3f 008e b5be
00000130: a2a8 cc3f 935c 1abe 5ac7 5540 d358 32bf
00000140: def8 0440 a2dd 193e 8a18 4a3f 635a a1bf
00000150: f2fb 1f40 9fd9 ce3f a078 133f 0a29 dd3d
00000160: 7e6f 803e d5dd e23f 3be2 2c40 5ab5 acbf
00000170: cde4 93bf 463a ffbe bcff 8fbf 7339 a3bd
00000180: 3ca3 9e3f 7a88 3940 7e94 a93f 5fbd 0840
00000190: 684f 8c3f a03e c2bf ce6b 75bf a603 babe
000001a0: c364 2140 14d1 f1be f419 0940 4572 b73f
000001b0: 5478 87be 9d73 d0bd 7f17 343e d70b df3f
000001c0: 6959 cb3f e4ca 4e3f ce79 1740 c692 8dbf
000001d0: dfd4 d13f 1de0 ef3d bd10 a1bf 7c69 59be
000001e0: 78cd ee3f 49ef 2340 457e 39be 533d 8bbf
000001f0: 52aa c5be 4c9f 80bf 788b 2fbf c589 a13f
00000200: dfd0 2e40 2015 933e 1cb6 423f 96e8 4dbf
00000210: bc40 e53e dbbf 5dbf 5a56 1c40 fbe1 7dbe
00000220: a01b 3040 a0d0 99bf 0229 7ebf 906e 78bd
00000230: 699b b43f 67a4 9fbf f5ce 9abe 75f2 dc3f
00000240: 96e4 df3f e6ae 93bd b763 32bc 5603 65bf
00000250: ca1e e03f 281e 3340 1be2 3e40 99a9 9d3f
00000260: 01c6 42bf 7c8f 583f 6e7f bdbf e710 263f
00000270: 1a37 ccbf 6dc1 c83f 3d67 103f 8910 a73f
00000280: 7807 2740 95d6 a33f 2eb9 1fbf 2638 3f40
00000290: 122b 2f3e a71e c93f 8ffa 3c3d 4a7c 253f
000002a0: 0129 b03f baaf b03f 63c9 1040 142c 85bf
000002b0: 8317 28be ce88 883f 2e2c ee3f 1abf a43e
000002c0: 220a d8bf e775 df3f b5f0 e63e 3d3e b13f
000002d0: 5685 b83f 697b c03f 8cf9 72be 75f5 2940
000002e0: 671d c53d 1816 ca3f a8db 0abf 51e4 60bf
000002f0: 351e 633e 6a68 c6bf 2b46 93be 0f45 67bf
00000300: e2aa 3840 bb6e fa3f 1015 0e3f afe3 0940
00000310: 2d6b 11bf d5ee ba3f ac3b acbf 13f3 8d3f
00000320: 7220 6abf 7932 343f e5e7 6abf 69c5 d43f
00000330: 14e6 36bf 4498 823e e78d e7be ae67 be3f
00000340: 329c db3f 63bb 98bf 602b 193f 1023 87bf
00000350: 38cd b9be 09c7 a1be 0384 743d 6d22 92bf
00000360: 93d1 3740 d14f c73f 8e6a d13f 8f37 b93f
00000370: a217 c83f df4b 7c3f 90ee 8cbd 10c7 0640
00000380: aec4 b83f 4a82 20bf e8ce 453e 9044 8e3f
00000390: e04a 80be a0ca b23f c64a 483f 5135 0e40
000003a0: b61d a4bf b50b 10be a536 a53f 06d1 b13e
000003b0: 34b9 f03c 4717 59bf 80a2 cd3f 3afd f93f
000003c0: e2c4 a03e 5c8b 923f 3654 91bf dae4 3ebf
000003d0: 6cbf a23f dc50 16bf f30b dcbf 132f 4dbf
000003e0: a07b 1540 10e0 18bf 15ed 1040 ab81 bc3e
000003f0: 9087 1f40 e424 b43f 6f29 143f 0253 a03f
2.5852556 1.6863441 -0.5042041 -0.75625217 1.3124194 -1.4464821 -0.8991775 1.2647713
0.57656056 0.3261029 3.226839 2.0193312 0.77926344 0.77510667 0.059341297 1.2226278
1.2781087 0.8599411 2.2081919 1.07431 2.716611 0.57720894 1.8405855 -0.91482246
2.1447215 2.044457 -0.78195375 0.8793672 2.8934996 -0.56614494 3.6582472 0.09069211
0.85442334 3.2909062 0.21372117 1.018237 3.9357996 0.11995468 0.6580312 -0.13931529
-0.45491964 1.3569568 2.05501 -1.2682468 -0.60887223 -1.018152 0.85756826 3.5292554
-1.7861876 -0.42096752 0.039640926 -0.22668879 0.07665079 2.410064 0.047939334 1.3741829
2.6398 3.0000901 -1.3562999 -0.9097965 -0.6661348 1.5518402 -0.4683188 -0.8770061
1.8580757 -0.03648066 2.548597 -1.1489722 -1.1492777 0.9211655 2.0716746 -0.6430151
-0.82287014 3.0357697 0.5541363 -0.354599 1.5988963 -0.15074377 3.3402925 -0.69666785
2.0776896 0.15025952 0.78943694 -1.2605709 2.4997525 1.6160163 0.57605934 0.10798843
0.25085062 1.7723948 2.701308 -1.3492844 -1.15542 -0.49849147 -1.1249919 -0.07969942
1.2393565 2.8989549 1.3248441 2.1365583 1.0961733 -1.5175362 -0.9586762 -0.3633091
2.521775 -0.47229826 2.142209 1.4331747 -0.2645899 -0.101783015 0.17587088 1.7425488
1.5886661 0.80778337 2.3668094 -1.1060417 1.6393088 0.11712668 -1.2583233 -0.21231645
1.8656454 2.5614798 -0.18114574 -1.087809 -0.38606507 -1.0048614 -0.6857219 1.2620169
2.7314985 0.28727055 0.76059127 -0.8043302 0.4477595 -0.86620873 2.4427705 -0.24793236
2.751686 -1.2016792 -0.9928132 -0.060652316 1.4109927 -1.2472047 -0.3023602 1.7261492
1.7491634 -0.072110936 -0.010888032 -0.89458215 1.7509396 2.7987156 2.9825504 1.2317382
-0.7608338 0.8459394 -1.4804513 0.6486954 -1.5954316 1.5684029 0.5640753 1.3051921
2.6098309 1.279986 -0.62391937 2.987802 0.17106274 1.5712479 0.04613739 0.64642775
1.3762513 1.3803627 2.2622917 -1.0404077 -0.16415219 1.066675 1.8607233 0.3217705
-1.6878092 1.7457856 0.4510552 1.3847119 1.4415691 1.5037662 -0.23728007 2.6556065
0.09624749 1.5787992 -0.5424142 -0.87848383 0.22179492 -1.5500615 -0.2876447 -0.9033975
2.8854299 1.9565042 0.5550089 2.1545217 -0.5680416 1.4604136 -1.345571 1.1089805
-0.9145576 0.70389515 -0.9176009 1.6622745 -0.7144482 0.25506794 -0.4522545 1.487539
1.7157042 -1.1932186 0.5983181 -1.0557575 -0.36289382 -0.31597164 0.05969621 -1.1416756
2.8721664 1.5571233 1.6360643 1.447008 1.5632212 0.9855327 -0.0688144 2.1058998
1.4435022 -0.62698805 0.1931721 1.1114674 -0.25057125 1.3968086 0.78239095 2.2220042
-1.2821567 -0.14066966 1.2907301 0.34729785 0.029385187 -0.84801143 1.6065216 1.9530404
0.3140021 1.1448779 -1.1353824 -0.7456795 1.2714667 -0.5871713 -1.7191147 -0.80149955
2.3356705 -0.5971689 2.2644703 0.3681768 2.492649 1.4073758 0.5787572 1.2525332

net.1.running_var f4 [512]
00000000: 7841 d042 6111 2042 42b3 0640 4832 0240
00000010: d609 ad42 4bfa 0840 5508 2b40 09f0 b142
00000020: 1c82 2141 ad56 a241 c258 2e43 3a3e 9342
00000030: b5f9 9242 1020 0442 09ab 9240 3e27 8542
00000040: 8642 a541 ddaa 1841 28a6 1542 4ee5 b941
00000050: ed3f f943 9fb7 c840 7a4b 2342 9e48 bd3f
00000060: 5f83 6a41 b992 e541 5de2 2541 ec35 dd40
00000070: 07d9 af41 a2d1 9c3f 10b9 6843 3b04 0f42
00000080: 1bdf 8e41 8632 7843 a223 a741 1a28 c741
00000090: f1ee f343 75e5 d742 1e28 6141 83a6 b240
000000a0: 0be7 ef40 7869 0e42 0de6 3142 3a38 2340
000000b0: f0b7 9b3f bd22 713f ba0f 2741 4599 8343
000000c0: 5e7a 543f e35b 3c3f d65e bf42 7620 9041
000000d0: 805a fc3f 47bc e642 6581 d042 436c 1342
000000e0: 218a 0c42 1b25 b243 3db1 183e a8bf 5f40
000000f0: 8a4d b840 0b39 5e41 2a2d 2640 7bb8 8140
00000100: e985 0541 3f56 1e42 799f 5642 3bc0 0340
00000110: 2485 5040 b862 8a41 aefd e741 49f2 613f
00000120: 3b35 9f3f 360f 8243 405b 1d40 515b a13f
00000130: d528 ad41 34c1 b93f 45c6 d343 840b 5040
00000140: aa35 b041 e680 9f42 b7f3 4e41 2885 953e
00000150: 34f7 6c42 f267 3640 89f2 ce42 58db 4c40
00000160: ba80 b642 a1eb e341 f022 3e43 d735 0940
00000170: eb6f 723f 80a6 0a41 fd57 ac3f 3a85 1741
00000180: f334 d240 1e7a 2b43 2c2c 4c41 4939 3042
00000190: 3fe0 3642 956b 433f c377 673f 6ffa b842
000001a0: 5178 2642 b0ae 9d40 b10f 1541 90d9 9941
000001b0: b38e 8441 870b 8940 e1cf f840 2ea5 ed41
000001c0: 7c15 bd41 9b27 3241 4610 9542 a976 8b3f
000001d0: 6e8d 3c43 62a0 9742 ff1a cf3e dbfe 3a42
000001e0: e070 2942 5c94 a143 d484 f440 fece e93f
000001f0: dd38 1240 9782 8b3f 53c7 1c40 af43 bb42
00000200: 1059 be42 3ce0 ed40 f4cb 2740 568d 6440
00000210: efbc 8b42 3756 9d3f c5b3 3242 e147 ff40
00000220: 32f1 0e44 2d5b 033f 5dbd 973f d344 6242
00000230: 747f c641 2283 043f 2869 2841 0950 a541
00000240: 3a34 2042 665f a542 bf84 ab42 45ce 3040
00000250: af81 5642 29ee 2d43 9378 8143 c572 6242
00000260: 70d7 1740 f1bd dc41 640f e83f b7e0 c440
00000270: 6183 933f 623f 8042 8542 7040 7992 9542
00000280: 07ff 3242 1af4 0d42 af98 8540 e5eb 1e43
00000290: 317c c242 5d0c c042 47e4 0c42 af6b 2f41
000002a0: d279 ae41 a9be 8141 7567 a141 8566 a23f
000002b0: baaa 4740 c330 e640 db4c 3d43 8aed a642
000002c0: 1e4d 223e c153 9342 7903 9742 386a 0843
000002d0: 677f 7e41 222a 4343 c992 e041 65b1 4b44
000002e0: 951b 0542 b07c d640 6413 b240 5b75 bb3f
000002f0: e437 5a40 bf9d 483e 7bd0 0242 bc33 d73f
00000300: 429b bb43 01f2 9642 cbc7 9842 4981 7041
00000310: edcf db40 7635 4342 4b56 5e3f 828a e940
00000320: 0e31 c93f 4eed aa41 b9b1 8740 313e be41
00000330: 98ac 463f 54dd 2c40 85aa a73f 40f3 b241
00000340: 5aed 3542 997a 4f3f 1ba1 893f 2426 b33f
00000350: d957 dc40 d205 1940 57c6 8e40 11df d43f
00000360: e68f 0d43 1fa0 4043 b437 7041 7beb 3442
00000370: 3896 1643 0083 8a40 4d77 d23f aadd 4442
00000380: e470 5441 9e5a 9540 8067 fd40 3a3b 9642
00000390: 2fdb 9b42 8a6c b341 3b33 0b42 7dc8 bf40
000003a0: c79b f33e 0a91 7f40 57eb a641 8cc8 bb40
000003b0: ff8b a63f c796 1140 362c cc41 30c5 b741
000003c0: 4fb5 a842 94e1 a042 3414 d23f 108c 2940
000003d0: 17b2 9b42 826d 5140 56df 653f 8bc3 1140
000003e0: d2f8 6842 0c29 6240 25a6 ce43 ab8f b742
000003f0: 781d 1343 ef56 6141 e04c 9742 e1bf 2841
104.12787 40.01697 2.104691 2.034319 86.51921 2.1402767 2.6723835 88.96882
10.094265 20.292322 174.34671 73.62154 73.48771 33.03131 4.5833783 66.576645
20.657482 9.541715 37.412262 23.236965 498.49942 6.2724147 40.823708 1.4787786
14.657073 28.696642 10.367764 6.9128323 21.98097 1.2251475 232.7229 35.75413
17.858938 248.19736 20.892399 24.89458 487.86673 107.94816 14.072294 5.582826
7.4969535 35.602997 44.47466 2.5503068 1.2165508 0.9419363 10.4413395 263.19742
0.8299922 0.7357771 95.68523 18.01585 1.9715118 115.36773 104.25272 36.855724
35.13489 356.2899 0.14911361 3.4960728 5.759465 13.8889265 2.5965066 4.0537696
8.345193 39.584225 53.655735 2.0586078 3.2581263 17.298203 28.998867 0.8826032
1.243812 260.11884 2.4586945 1.2605993 21.644938 1.4512086 423.54898 3.2507029
22.026203 79.751755 12.934501 0.29203153 59.24141 2.8500943 103.4737 3.2008877
91.25142 28.490053 190.13647 2.1439111 0.94702023 8.665649 1.3464352 9.470026
6.5689635 171.47702 12.760784 44.055943 45.71899 0.7633603 0.90417117 92.48913
41.617496 4.927574 9.316331 19.231232 16.569677 4.282657 7.775376 29.705654
23.63549 11.134669 74.531784 1.0895587 188.55246 75.81325 0.40450284 46.748882
42.36023 323.15906 7.6412144 1.8266294 2.2847207 1.0899228 2.4496658 93.632195
95.17395 7.4336224 2.6218233 3.5711265 69.86901 1.2291936 44.675556 7.9775243
571.7687 0.51311 1.1854664 56.56721 24.812233 0.5176259 10.525673 20.66408
40.051003 82.686325 85.75927 2.7625897 53.626644 173.93031 258.942 56.61208
2.3725243 27.592745 1.8129697 6.152431 1.1524469 64.123795 3.75406 74.78608
44.74905 35.48838 4.174888 158.92146 97.24256 96.02415 35.222927 10.96379
21.809483 16.218096 20.175516 1.2687536 3.1197953 7.1934524 189.30022 83.46394
0.1584973 73.66358 75.50678 136.41492 15.906104 195.16458 28.071672 814.7718
33.276936 6.7027206 5.564867 1.4645189 3.4096613 0.19591425 32.703594 1.6812663
375.21295 75.472664 76.39022 15.031564 6.8691316 48.802208 0.8685042 7.2981577
1.5718095 21.365871 4.2404447 23.780367 0.7760711 2.7010088 1.3098913 22.368774
45.48179 0.81046444 1.075229 1.3996015 6.8857236 2.3909802 4.4617114 1.6630574
141.5621 192.62547 15.013599 45.22996 150.58679 4.328491 1.6442658 49.21647
13.277561 4.6673117 7.9188843 75.11568 77.92809 22.427998 34.80003 5.9932237
0.47579786 3.9932275 20.864912 5.868231 1.3011473 2.2748277 25.521587 22.971283
84.35412 80.44058 1.6412416 2.6491737 77.84783 3.2723088 0.8979391 2.27756
58.24299 3.5337553 413.298 91.7806 147.11511 14.083724 75.65015 10.546845

net.4.weight f4 [256, 512]
00000000: 3743 883f 5e0b 4f3f 76a3 963e 414d 73be
00000010: 5066 7f3f 09de 00c0 8763 2f3f 89f1 2440
00000020: fa68 143f 4093 c73f b35a d03f 9d84 5b3f
00000030: 8fea 0d40 0c0f 813f 38f8 483f 23d2 1840
00000040: cc65 293f 5bb4 473f 3ae3 803f d6c5 843f
00000050: 74e0 953f 02bb ae3e d942 813f 58a1 ca3e
00000060: d01f a53f de9f ad3f b7d1 6ebe 3d75 bb3f
00000070: e090 c43e c6d3 ad3e 1ff9 bd3f 7b49 efbf
00000080: 3655 ae3f d9dd 9c3f b279 8e3f f6d0 853f
00000090: 5d3f ae3f c04e 3fc0 b7b7 9f3f aeaf 253f
000000a0: 156f efbf 03f8 8a3f 0ac7 ee3e 70b2 2abf
000000b0: 7178 08be 3968 8ebf a12d c43e 0888 ac3f
000000c0: 0050 0abf 5ff6 09bf e00e 0440 8fc5 6cbf
000000d0: 7837 893f 5713 883f 8c2f ff3f f637 963f
000000e0: c9a0 e33f a369 853f 26fa 19bf 3757 033f
000000f0: 7771 14be a5af 6b3f 82fc 4d3e f62c 94bf
00000100: 35b9 5b3f ab1f ffbf 8fef 8e3f 4fb6 d13e
00000110: f3cf 67bf cd12 3b3f 8317 a43f 4bc5 8f3e
00000120: c38c 983e 1f9b d03f d893 6d3f 606b dc3e
00000130: 3e0d 803e 4057 183f b9e4 b03f 3521 ea3e
00000140: 68e9 b03f a40e 0240 ae53 713f f4b7 a2be
00000150: 024e 6e3f 6b85 853f ef7c 53c0 b39b e53e
00000160: 5ab7 0540 1389 6e3f e2e1 943f 737c 31bf
00000170: 0ad5 6fbf 90b9 333f ab09 47be 5f69 673f
00000180: ff7e b23f a2d0 a63f a35a 943f 574d bf3f
00000190: 4cec 3b3f f10b c8be c2de e53d 6a6e 2dc0
000001a0: 391c d73f 975f 5fbf ec04 853f da03 733f
000001b0: fac4 b73f dd44 fa3e c270 3d3f 042b ab3f
000001c0: 60f1 1d3f f1cb 3c3f c645 a73f 5c72 db3e
000001d0: 2001 753f 8580 0140 8566 06bf baca 0fc0
000001e0: cfc6 a33f 9607 bf3f 882d 7d3f 6b03 acbd
000001f0: ae6e e03d c08f acbd 635a 99be c384 1140
00000200: 827b 953f cc42 4abe 5302 8a3f 4e43 3e3e
00000210: 5a14 0d40 aca0 b3be 5453 8a3f f8dc 2d3f
00000220: 707e a33f 844f 86bd 3f50 893e 7f7b ed3f
00000230: f665 383f c1eb 143e 49c0 963f 0423 8a3f
00000240: 68b5 963f 60d0 2bc0 734d 11c0 5513 78be
00000250: 22c8 d23f 99bd 993f f0b2 8d3f 542a 983f
00000260: 6bbd dbbe d23f 2b3f 6468 75bf 0072 3e3f
00000270: 6aae 4dbf a545 143f 1732 293e e804 873f
00000280: 99cc 703f 89d3 793f 3d5c f9bd d5aa 9a3f
00000290: 3ca2 0640 ed97 5f3f 6ba2 c7bf 778a 2e3f
000002a0: 5b8b 033f 1ff9 af3f bd94 943f b101 ebbe
000002b0: 6067 af3f f7e9 993f 2be9 763f 0675 1740
000002c0: 6555 1ebf 7be7 713f a288 33c0 e73e a33f
000002d0: e590 6f3e 2b45 b33f 9365 f43f 4ed5 853f
000002e0: abed ee3f cba2 623f e0bc 833e c3b5 e33d
000002f0: 0297 b93e c6bf aebe 5909 17c0 d212 9e3d
00000300: 6457 833f 1b56 5a3f 54f7 0540 b66a 9e3f
00000310: 0b1c 273d d957 f33e 3337 993d e275 803f
00000320: 6df2 d03e 9796 233f a4e8 babf 2eb8 103f
00000330: 2a94 0e3f becb 903f f814 ea3e e129 783f
00000340: 20be 9c3f 4c10 8dbe 478f 103f f37f 96be
00000350: 164e 7b3f efd4 333f 4b50 473f 756e 81bf
00000360: c234 8f3f 7e16 f33e 9c7a e63e 8917 173f
00000370: 3a7d 873f 2c97 bd3f c683 0e3f 3c88 853f
00000380: da17 8a3f 4b23 0c3e 5264 423f 2594 1840
00000390: 1c08 1ec0 d23a 343f 955e 3a3f f6ba 953f
000003a0: 9854 b2be 4979 653f 9237 753f bad7 2e3f
000003b0: faaf 6e3f bfec 81be 8a74 c73f 6a95 b73f
000003c0: dfff 1140 a066 1840 f3b2 b83d 602a 923e
000003d0: 62b0 53c0 7a74 0d3f 01a3 e4be 7c86 3b3e
000003e0: cfdb 973f 9c97 0b3f eaf3 973f 908c 3bc0
000003f0: c191 a43f eacc 823f ecaa 1040 e0f5 813f
1.0645512 0.8087672 0.29421586 -0.23759939 0.9976549 -2.013552 0.6851124 2.5772421
0.5797268 1.5591812 1.6277679 0.85749227 2.2174413 1.0082717 0.7850375 2.3878257
0.66170955 0.78009576 1.0069344 1.0372875 1.1709123 0.3412705 1.0098525 0.3957622
1.2900333 1.3564413 -0.23322187 1.4645153 0.3839178 0.33950633 1.4841651 -1.86943
1.3619754 1.2255203 1.1130888 1.0454395 1.3613087 -2.9891815 1.247794 0.6472119
-1.8705775 1.0856937 0.4663623 -0.66678524 -0.13327195 -1.1125556 0.38316062 1.3479013
-0.5402832 -0.5389156 2.063408 -0.9248895 1.0720053 1.0630902 1.9936385 1.1735828
1.7783443 1.0422863 -0.6014732 0.51304954 -0.14496408 0.9206489 0.20115855 -1.1576221
0.8582948 -1.9931539 1.1166857 0.40959403 -0.9055168 0.7307556 1.2819675 0.2808021
0.29794893 1.6297339 0.92803717 0.4305067 0.25010103 0.5950813 1.3819801 0.4572846
1.382123 2.0321436 0.9426831 -0.3178097 0.9308778 1.0431341 -3.3045003 0.44845352
2.089316 0.9317791 1.1631434 -0.6933052 -0.93684447 0.7020502 -0.19437282 0.9039516
1.3945006 1.303242 1.159016 1.4945477 0.73407435 -0.3907161 0.11224128 -2.7098641
1.6805488 -0.87255234 1.0392127 0.9492775 1.4356987 0.48880664 0.7400018 1.3372502
0.61696434 0.7374869 1.3068168 0.42860687 0.9570484 2.0234692 -0.5250018 -2.2467484
1.2795047 1.492419 0.988976 -0.083990894 0.109586105 -0.08425856 -0.29951772 2.2737281
1.1678317 -0.19752043 1.0781959 0.18580362 2.2043672 -0.3508352 1.080668 0.67915297
1.2772961 -0.06558135 0.26819035 1.8553313 0.7203058 0.14543058 1.1777431 1.0791936
1.1774111 -2.6845932 -2.2703521 -0.24226125 1.6467326 1.2010986 1.1070232 1.1887918
-0.42917952 0.6689426 -0.9586241 0.743927 -0.8034426 0.5791877 0.16523014 1.0548372
0.9406219 0.975884 -0.12175796 1.2083384 2.103652 0.87341195 -1.5596441 0.6818003
0.51384515 1.3747901 1.1607891 -0.45899728 1.3703423 1.2024525 0.96449536 2.3665175
-0.6184905 0.94493836 -2.8052144 1.2753571 0.23395117 1.4005483 1.9093498 1.045572
1.866628 0.8852965 0.25730038 0.11118653 0.36248022 -0.34130687 -2.3599455 0.077184334
1.0261045 0.85287637 2.0932207 1.2376316 0.04079823 0.4752796 0.074812315 1.0035975
0.40809956 0.63901657 -1.4602246 0.56531036 0.5569483 1.1312177 0.45719123 0.969389
1.2245522 -0.27551496 0.56468624 -0.29394493 0.98166025 0.70246786 0.7785689 -1.0111834
1.1187975 0.47478098 0.4501542 0.59020287 1.0585091 1.4811759 0.5566982 1.04322
1.0788529 0.13685338 0.75934327 2.384042 -2.469245 0.7040225 0.7280057 1.1697681
-0.34830165 0.8963819 0.9578792 0.6829792 0.9323727 -0.25375935 1.558244 1.4342473
2.2812421 2.3812637 0.09018507 0.28547955 -3.3076406 0.55255854 -0.44655612 0.1831302
1.1863955 0.5452821 1.1871312 -2.9304543 1.285698 1.0218785 2.2604322 1.015316

net.4.bias f4 [256]
00000000: 21c4 f73f 8947 353f e1f0 e73b fad7 0340
00000010: 8fed b03f ba61 d43f a733 e63f 697a 343e
00000020: edaa 9b3f b29a 21bc f531 103f cf17 af3d
00000030: b537 a53f a182 e13f b74d a03f fada 37be
00000040: 84f4 223f 0ce3 8e3b 5007 da3c d224 ccbd
00000050: 5668 5e3e e8f3 2a3f fc64 373f 768f 813f
00000060: 271f f6be 74b8 8bbe 0afc 193f 02ac cbbe
00000070: 3307 abbd 907e 863f 4401 e43f e260 b03f
00000080: 21e6 273e c11d 25bf b6d7 24bf d8c3 0a3f
00000090: 88e4 9e3f 6e19 d9be dff4 d13f 22f3 f93f
000000a0: c278 28bf 51c9 093b 4998 fb3f 7fbc 80be
000000b0: 1e3d aa3d 85c9 1cbf fb55 d23f a579 dc3f
000000c0: 07b5 c1be 4108 223f aa20 0d40 a848 ec3f
000000d0: 6986 9c3f 9b2e 9f3e a51f e53f d276 663f
000000e0: 9dc7 53be d44f 7d3f cc9d 893e 6c77 19bf
000000f0: cd9f fbbe 829a cb3b 3d80 39bf bda3 e8be
00000100: 7f99 c73e dd6b 87be b2e2 eb3e 38b2 263e
00000110: e47b b93f d39e 9c3f 3774 eb3f 5124 0c3f
00000120: edf9 64be 3995 bd3f c5d2 e53f 5fe0 e13d
00000130: bd19 f43f c16d f8be 1412 8a3f 9cfa ec3f
00000140: 513f e43e 8e60 cc3f c36e 0040 6e7d cf3f
00000150: 499a 203e e99f 1d3e 6e67 34be dc1a cb3f
00000160: 9155 93be e884 c13c e259 ac3f c51f 9e3f
00000170: ce43 283e 7130 823f c097 06bf cfa2 e43f
00000180: ae88 fa3f 6050 d9be 2959 fb3f fee5 65bf
00000190: 33fe f53f b29c a7be 832a cf3f 215d da3f
000001a0: 5415 d73f 9985 03bf 32f3 b63f caa5 21be
000001b0: cf99 dc3f edf2 4e3f 9e70 d13f 5d5f ff3f
000001c0: 7ca1 383f 261d db3f 475c a83e 8bdb c03f
000001d0: 5a1f ef3f 0f99 893f 81e4 d03f 2d10 1fbe
000001e0: 04c4 c33c 48fc 863e 3fd2 7ebf fbe2 7e3f
000001f0: 2245 0640 142f 0540 573b 733f 457d f33f
00000200: 9986 833f 76c3 0640 5cc1 d43e 864a a13f
00000210: 9060 25bf 219f 60bf c3eb 0440 40d9 efbe
00000220: 99a7 823f ccce ec3f 66ed c73f 3db1 47bf
00000230: 4926 7db9 a953 903f 98a9 2abf 0d3e 4c3f
00000240: af7e 0940 84fd 90bd a883 e53d 877a b43f
00000250: a1ec 47bf bc7e a13f 31ce d43f 0c81 7f3f
00000260: ec6e ce3f 4031 d63f 4dde c2be c1ca 08bf
00000270: 152b 18bf dffa a43f cb2b 06bf adf8 de3f
00000280: 97cb 4c3f 02f8 cc3f 6d3b 9d3f dd97 d33f
00000290: 957e fc3f a015 fa3e 22c3 f7be 322a fa3f
000002a0: d38d 1b3f a1e9 0540 14c3 b6be 4329 1fbe
000002b0: b39c 653f ad25 ccbe 6600 7dbe e759 a93f
000002c0: 0b9e 973f c187 edbe d1cb 293f 309f 01bf
000002d0: 3ccc d83f 2604 dd3b 792d f33d 7b0b aabe
000002e0: 6245 c33f 07d6 1f3e 44fa 333f f302 403d
000002f0: 4b62 b0be 00d9 943f 3572 6d3e c221 1dbf
00000300: 21c6 c63f 8490 d43f 81d6 053e 16c7 cb3f
00000310: 3c5e 723f 1988 93be d948 0640 9de9 613f
00000320: 72de ee3f 7e93 0340 6085 cd3d d965 0d3f
00000330: d112 b03e c207 fc3f 0cd4 743e c2b0 c63f
00000340: 082a 6f3e b9f2 eb3f 9ff0 4cbe 4c14 5cbf
00000350: f5eb 7d3e 17e4 2ebf 3a6c 683f cdc3 efbe
00000360: bf46 873d e9c5 d2be ee7e c23f 4f8a 2abf
00000370: 8fdd 9f3f 8048 e63f d45f f3be 08f6 b4be
00000380: 79ea c23d 7ae8 9dbd 3586 26bf 4d11 fb3f
00000390: b00c f53f 7b8c c6be fc77 52bf edbd f93f
000003a0: 0235 df3f 7d1f 5e3f 47c8 973f 8268 d63f
000003b0: 5f56 e83e 16d1 f13f 9a86 023d fd86 de3e
000003c0: 0f17 af3f d023 913e 8a01 0cbf 1f87 69bf
000003d0: 8609 b83f 68da 3d3f 667b fa3f 7e85 e43f
000003e0: 92ba e03f 832d 3c3f 884b 1e3f 94c2 ec3f
000003f0: 5b71 0640 5299 803d 538b 18bf 8551 403f
1.9356729 0.7081228 0.0070782756 2.0600572 1.3822497 1.6592324 1.7984513 0.17624821
1.2161537 -0.009863542 0.5632623 0.08549463 1.2907625 1.761799 1.2523717 -0.17954627
0.6365435 0.004360562 0.026614815 -0.099679604 0.21719489 0.6677842 0.71638465 1.0121906
-0.48070642 -0.27289164 0.60150206 -0.3977967 -0.083509825 1.0507374 1.7812886 1.3779566
0.16396381 -0.64498526 -0.6439165 0.54205084 1.2413492 -0.42402214 1.6402854 1.9527323
-0.6580926 0.0021024535 1.9655849 -0.2514381 0.083124384 -0.61244994 1.6432489 1.7224623
-0.37833425 0.63293844 2.2051187 1.8459673 1.2228519 0.31090245 1.7900282 0.90025055
-0.20681615 0.98949933 0.26878202 -0.5994785 -0.49145356 0.006213487 -0.724613 -0.45437422
0.38984296 -0.2644948 0.46071392 0.16278923 1.4490933 1.2235969 1.8394841 0.54742914
-0.22360964 1.4811164 1.7954947 0.110291235 1.9070355 -0.48521236 1.0786767 1.851398
0.44579557 1.5966966 2.0067604 1.6210153 0.15683855 0.15393032 -0.1761758 1.5867572
-0.2877622 0.023622945 1.346493 1.2353445 0.16432115 1.0171033 -0.525753 1.7862185
1.9572961 -0.42444134 1.9636585 -0.89804065 1.92182 -0.32736737 1.6184849 1.7059671
1.6803384 -0.5137573 1.4292967 -0.157859 1.7234439 0.80839425 1.6362493 1.9950978
0.72121406 1.711827 0.32882902 1.5066999 1.8681443 1.0749835 1.6319734 -0.15533514
0.023897178 0.2636435 -0.9953956 0.99565095 2.0979695 2.0809984 0.9501242 1.9022604
1.0275451 2.10568 0.41553771 1.2600868 -0.6460047 -0.8774281 2.0768898 -0.46845436
1.0207397 1.8500609 1.5619323 -0.7800482 -0.00024142223 1.1275531 -0.6666503 0.7978218
2.1483572 -0.07079604 0.11206752 1.4099892 -0.7809544 1.2616801 1.6625425 0.99806285
1.6127601 1.673378 -0.38060227 -0.5343438 -0.5944074 1.288906 -0.5241057 1.741964
0.79998153 1.6013186 1.228376 1.653072 1.972613 0.48844624 -0.48391062 1.9544127
0.6076328 2.0923846 -0.35695708 -0.15543084 0.8969223 -0.39872494 -0.24707183 1.3230561
1.1845106 -0.46392635 0.66326624 -0.50633526 1.6937327 0.0067448793 0.118739076 -0.33211884
1.5255549 0.15608989 0.7030375 0.046877813 -0.34449992 1.1628723 0.23188098 -0.61379635
1.5529214 1.6606603 0.13070108 1.5920131 0.9467504 -0.28814772 2.0981963 0.8824709
1.8661635 2.0558772 0.10035205 0.5523353 0.34389356 1.9689867 0.23909014 1.5522692
0.23355877 1.8433448 -0.20013665 -0.8596847 0.24797042 -0.6831679 0.9079014 -0.46829072
0.066052906 -0.41166618 1.5194986 -0.6661729 1.2489489 1.7990875 -0.4753405 -0.35343957
0.09517378 -0.07710357 -0.65048534 1.9614655 1.9144497 -0.38779053 -0.8221433 1.9511086
1.7438052 0.867668 1.1857995 1.6750643 0.45378396 1.8891933 0.031866647 0.43462363
1.3678912 0.28347635 -0.5468985 -0.91221803 1.4377906 0.74161386 1.9568908 1.7853239
1.7556937 0.73506945 0.61834 1.849688 2.1006687 0.062792435 -0.5958759 0.7512439
