pythorch saved models/fgan1_generator.pth (torch, 806726 bytes, 14 tensors)

model.0.weight f4 [256, 117]
00000000: bffe d43b 663e 32bd c574 99bd a651 923d
00000010: fbf1 57bd 7725 abbd 7326 873b 564b c4bd
00000020: e0c1 b0bd 47f3 25bd c313 473d dab2 babd
00000030: 3aa6 8f3d 57e3 963d f6e1 c93c 34eb 66bd
00000040: 83bf 1cbd 317f 84bb c6d1 9bbd d9a1 c1bc
00000050: 5d30 5cbd d404 aa3d a134 923d 6ed5 2c3b
00000060: 3ba0 58bd c5fc 1dbd e6ab acbd cf5a 9cbc
00000070: 1a43 1b3d 8667 383d 326f 92bd 0d70 c9bc
00000080: 18a0 a2bc c284 a3bd d219 de3c 4259 1b3d
00000090: f5bb debc e1b1 1b3d 06d5 8f3d 56e9 823d
000000a0: bc84 83bd 8cb5 30bd 7124 6bbd 295b 763d
000000b0: 503b 87bd 414f 94bd 0c74 ebbc 9b35 ab3d
000000c0: 8b25 8bbb 1190 443d 3412 41bd 6182 a03c
000000d0: c150 7cbd 144d b6bd 1753 d63a 9b40 ae3d
000000e0: 807e 563c b9d6 75bd 54da 443c 8ab2 47bd
000000f0: 2fc3 c5bc 1b33 f6bb fbce ad3d 6e76 4b3a
00000100: 2dca 61bd a6ee ab3d cb1e 66bc 7f04 91bd
00000110: 45a7 87bd 6fea 673d 3062 1b3d 0fdf 513d
00000120: b192 593d f6da 7abd 7b3c 4abd 7820 833d
00000130: 18a2 453d 7e2e 37bb ceee b93d adec 3ebd
00000140: d792 78bd dc45 0ebd c43e 9fbd d35c 71bd
00000150: 94ec a1bd 48a3 863d b17a 28bc fd46 44bd
00000160: d79c 58bd d9c1 9bbd e921 423d 18e0 b8bc
00000170: ec1c 0ebd be43 57bd 178b fbbc 4235 82bd
00000180: 8c16 1f3c 1d23 f7bc 4320 aabd 633b 813d
00000190: db9a a23d b436 103c 3c12 91bd c9e5 843d
000001a0: 9a84 3bbd 67a1 c73b 86c9 b7bd ae40 253d
000001b0: 8dc6 8bbd 2d66 55bd ca5e 9cbc 856e a7bd
000001c0: e09f 143d 3bab dcbc db6a a73d 52af 353d
000001d0: 4361 40bd e65b 76bd 92f5 8dbd 1a9d 693d
000001e0: d7fd 3e3d 5903 a93d 0623 a2bc 4369 80bd
000001f0: 9ccb 393a 8333 a4bd a078 c9bd 53a0 133d
00000200: f09b fe3c 63e2 483d 173c 183d 1202 8b3d
00000210: 2aa9 9fbd 05ef b1bd d1bb 67bc 3bc6 063c
00000220: 8b54 5ebd 446b 76bd c374 bd3d 916c 2f3d
00000230: e192 50bd 58c3 d83c 5de6 b5bd db2e 02bc
00000240: 54fb c6bc 4ab7 f23c 391b fa3c 909d 02bc
00000250: 7e58 333d 1ebf 09bd ee3e 2ebd 1763 39bd
00000260: ae33 7c3d 9752 ea3b e070 2cbd 999c 603c
00000270: fe4f b9bd 4bd1 96bd 9194 e7bc 921a 203d
00000280: 38e3 ee3c 78e9 0b3d 48ea 233d 849e 093d
00000290: 48e1 9a3d ab76 9bbd b578 a03d 6269 a0bd
000002a0: 3fb5 5b3d b978 3cbd a808 893c 9ca2 29bd
000002b0: 79bd ae3d f979 af3d f65f 7f3d 67ca 0fbd
000002c0: 724d 2abd 8049 4fbc c34d 8e3c b37e f9bc
000002d0: 3a37 7fbd 2851 8d3d c0c6 28bd c367 9ebd
000002e0: e805 133d 9eb3 a5bb 37c6 8cbd 2040 25bd
000002f0: fd66 af3d 7015 813d ef03 573d a58f 153d
00000300: 26fb 38bd 08ed 563d 4128 fc3c 7c15 5cbd
00000310: d028 dcbc 6eb2 7dbc 193b a4bd d07a acbd
00000320: 2e49 2a3c 9cdd a03d 768c 73bd e59c 83bd
00000330: 919b 99bd 20bf e13c 21c9 6a3b e075 2f3d
00000340: d1e8 a2bd 6e27 97bd fd30 bebc 9748 ccbc
00000350: 1f5e a73d 75fa cdbc 711a 96bd 1e81 b23b
00000360: 004f bdbc c2e5 9639 f5f9 a03c 4c50 403b
00000370: 6a0a b4bd 86e8 babd 496d 39bd 5f65 a7ba
00000380: 79be 1e3d 8b97 ff3c 97ed 1c3d d8ca 5fbd
00000390: 585f 083c 3bf5 a9bd 12dc b2bd 6725 d1bc
000003a0: 055c b33d 4bcd e83c 693e f53c 80b3 47bc
000003b0: 79ff ae3c 4287 b9bc 7612 81bd 56a7 a03d
000003c0: ad65 753d da43 61bd 338e a03d de9b d0bc
000003d0: 57e7 a53d 9ba1 87bc 6b95 783c dc7c 41bd
000003e0: d402 cdbb b291 183d 88a5 afbb aa5e c3bd
000003f0: 0607 6e3c 7d4d 1b3c 8abd 07bd 6a7c 91bd
0.0065000947 -0.04351654 -0.07492975 0.071444795 -0.052721005 -0.08356755 0.0041244566 -0.09584682
-0.08630729 -0.04051521 0.04860283 -0.091161445 0.07014127 0.073675804 0.02464388 -0.05637665
-0.038268577 -0.0040434827 -0.076083705 -0.023636745 -0.05375706 0.08301702 0.071389444 0.0026372331
-0.052887183 -0.038571138 -0.084312245 -0.01908627 0.03790579 0.045020603 -0.07150115 -0.024589563
-0.01985173 -0.07984306 0.027111921 0.03792692 -0.027189234 0.038011435 0.07023053 0.063921615
-0.064218014 -0.043141887 -0.0574078 0.06014553 -0.0660311 -0.07241679 -0.028741859 0.08359834
-0.004246419 0.047988955 -0.0471365 0.01959342 -0.06160045 -0.0890142 0.0016351667 0.08508416
0.013091683 -0.06001923 0.012014944 -0.048754252 -0.024140922 -0.0075134165 0.08486744 0.0007761483
-0.05512445 0.08395128 -0.014045428 -0.07080936 -0.06623701 0.056620058 0.037935436 0.051238116
0.05311841 -0.061243974 -0.049374085 0.06402677 0.048250288 -0.0027951295 0.090787515 -0.04661243
-0.060686912 -0.03473459 -0.077756435 -0.058926415 -0.07906452 0.06574112 -0.010283158 -0.047919262
-0.05288395 -0.07605333 0.04739562 -0.022567794 -0.03469555 -0.05255484 -0.030705972 -0.06357814
0.009709965 -0.03016811 -0.08306935 0.06310155 0.079396926 0.008802105 -0.07083556 0.064891405
-0.045780756 0.0060922387 -0.089739844 0.040344886 -0.0682498 -0.052099396 -0.019088168 -0.08175377
0.03628528 -0.026937118 0.08174678 0.04435665 -0.046967756 -0.060146235 -0.069316044 0.05703459
0.0466288 0.08252592 -0.019792091 -0.06270077 0.000708753 -0.080176376 -0.098374605 0.03604157
0.031080216 0.049044024 0.03716668 0.06787504 -0.07795937 -0.086881675 -0.0141439 0.008225973
-0.054279845 -0.06016089 0.09250786 0.042828146 -0.050921325 0.026460335 -0.08881829 -0.0079457415
-0.024289764 0.029628415 0.030530559 -0.007972136 0.043785565 -0.03362953 -0.042540483 -0.045260515
0.061572723 0.0071509588 -0.042099833 0.013709211 -0.090484604 -0.07364138 -0.028269084 0.03908784
0.02916108 0.0341582 0.04001835 0.033598438 0.075625 -0.075909935 0.07835523 -0.078326
0.053639647 -0.046013568 0.01672776 -0.041414842 0.08532233 0.08568186 0.062347375 -0.035105135
-0.041577764 -0.012651801 0.017371064 -0.030455923 -0.062308528 0.06900245 -0.041205168 -0.07734635
0.035894305 -0.0050568124 -0.06873744 -0.040344357 0.08564565 0.06302917 0.052493986 0.036513943
-0.04516139 0.052472144 0.030780913 -0.053731427 -0.02687493 -0.0154844355 -0.080190845 -0.08421862
0.010393424 0.07854769 -0.059460126 -0.0642641 -0.07500375 0.027556956 0.0035825449 0.042837024
-0.079545625 -0.073805675 -0.023216719 -0.024936957 0.08172249 -0.025143841 -0.07329262 0.005447521
-0.02310896 0.00028781412 0.019650439 0.0029344736 -0.08791049 -0.091263816 -0.045270238 -0.00127713
0.038755868 0.031200191 0.03831252 -0.054636806 0.008323513 -0.08298727 -0.08733381 -0.02553053
0.08757786 0.028418204 0.029936986 -0.012188792 0.021362053 -0.022647504 -0.06302349 0.07844417
0.05991142 -0.05499635 0.07839622 -0.025464948 0.08100765 -0.016556552 0.015172343 -0.047238216
-0.0062564407 0.03724832 -0.005360309 -0.0953954 0.014528042 0.009478924 -0.033139743 -0.07103808

model.0.bias f4 [256]
00000000: bef3 473d 26f9 83bc b1f2 af3d 00b5 713d
00000010: 98c2 613d ec76 7cbd 9779 b3bc 68f6 ab3d
00000020: 9b1b f8bc e1ee 3fbd 9a78 afbd 892d a8bd
00000030: 7ca4 f53c ba10 82bd 77bb 0fbd 8419 65bd
00000040: dc8e a43c 36c1 813d 0656 973d 7a05 b93d
00000050: 9ce2 a3bd ff72 493c b24a b1bd e0f9 7ebd
00000060: 492e acbd 7b2e 22bd 36a0 1a3b d396 2e3d
00000070: 6c31 843d 68b5 a1bd 34c2 98bd 88e1 9abc
00000080: bc2b c63c b4fb b3bd 1319 5bbd b347 a2bd
00000090: 0cbb b0bd 70bd 0f3d 2834 583d da45 76bd
000000a0: 3582 913c 3d5b 783d 16d7 693d 15cf 44bd
000000b0: 33bb e83a 89b6 b1bd 53c7 b83d 99aa 50bd
000000c0: 2f79 e4bc ab21 babd 1850 223d 7d8b f43c
000000d0: a206 4c3d 2095 61bd 03f5 76bd f6e5 3b3c
000000e0: d181 9ebd f56b bdbd 984b 7dbd 56be 9e3d
000000f0: 837e 4cbd 8490 05bd 9d7c 983c e539 913d
00000100: f84e bdbd 6e3e bcbb c609 843d 9b71 903d
00000110: 7202 b7bc 90ac 28bd ccc5 c6bb d1e7 7b3d
00000120: 7742 babd 1c88 843d 7ce1 b63d 9d8a 213d
00000130: 3947 9e3d f58d 873d 9dd3 8cbd 09e0 06bb
00000140: 01a5 663d c6a4 74bd ce46 4fbc 4d9a 153d
00000150: d5aa e6bc d636 9dbc 1bc2 bf3c f160 bb3d
00000160: 18e9 f9bc c9a2 0ebc c697 93bd fae5 d8bc
00000170: b17c a53d 6fd9 5fbc 6e05 82bd 66c9 43bb
00000180: 8c5b 8c3d bc41 ca3c cb6a bdbc 8ad2 28bd
00000190: 0418 85bd d98d 283d 6210 8f3d 2523 bc3d
000001a0: 3660 62bd b044 91bd b353 88bd e442 cf3b
000001b0: ffc9 32bd d828 1ebd da8a 35bd 7e33 84bd
000001c0: c3b3 913d 34c1 bf3b 8283 04ba df60 c7bc
000001d0: c42f 63bd 36ac fbbb 2eeb 76bd 0a80 273d
000001e0: b4c5 18bd 5829 343d 46ca fa3c 2d17 553d
000001f0: 7dd8 19bd 5e3e 90bd 6f98 72bd 1b3c dc3c
00000200: 37f5 38bd 5261 d03c 2f1f 4d3d 47e0 983a
00000210: d38f 6d3d ce48 d63c fc2f c6bb 67da e23c
00000220: f3ef 583b 7419 a5bd 298a 3a3c 6f57 943b
00000230: ff4c 61bc f767 a43d 39fb 013c 8b22 a83d
00000240: afda bcbd a8ae 35bd f762 9ebd 3c73 1bbd
00000250: 37ad 8f3d 7d21 8e3a 5409 763d 29fe 6b3d
00000260: 986b d43c 4ffd 063d 819d 9f3d 6719 b2bd
00000270: fd9f a3bb e0c5 603d ab76 a23b c79d 49bc
00000280: 1cd9 9e3d e14d 0e3d 8d2c 5dbd 5798 89bd
00000290: c1dd b73d 2564 333d 43d1 aa3d fe46 3f3c
000002a0: 1305 7ebd 7a5f bbbd 5c0e 7abd c986 8ebd
000002b0: b136 a33c 0729 65bd efe3 4e3d 9516 61bd
000002c0: aa5e babd 9bab 8d3d e6f3 b73d 7947 ea3c
000002d0: e08f 8abd 55ac 7abd c56d 2a3d 578a b73d
000002e0: 76fb 82bd 42d5 f0bc fd12 a93d 96d1 1c3c
000002f0: 6bac 29bb 9125 adbd c110 903d 12f1 49bd
00000300: fa19 e33b 074b 9bbd 6e88 abbd 2f47 9c3d
00000310: d26f 8cbd 82b3 a7bd 94c1 a4bd 96e1 a0bd
00000320: d51d 963c 4261 a53d 26c2 b23d 527e aa3c
00000330: 44f9 ac3c 9434 9c3c 44b6 9f3d 13f1 c0bc
00000340: 2b25 8fbd 74a7 17bd 146e 30bd 6f40 28bd
00000350: 6d9f 953c e697 0b3d fbb8 a03d 7d31 123d
00000360: 5e13 8c3c 182b 1b3d 5e6b 9cbd fe39 abbd
00000370: 11a6 babd de7f 323d 8ab9 763d 1751 50bc
00000380: 7ae6 c8bc ce53 893c 3f56 983d 0f84 bebc
00000390: 2645 7e3d 4410 89bc 9a54 463b e298 0dbd
000003a0: 84a9 343d a67b 0fbd c485 c1bc 3253 e4bb
000003b0: 2b33 90bd 2165 a8bd 3170 2a3d 5b88 ee3b
000003c0: f09c 2d3c ae93 863d a4db 243d 9475 2bbd
000003d0: 3ba8 afbc 3abd 8e3d b428 ebba 1820 40bd
000003e0: 58e6 9c3d 2d98 713d 2066 84bd df8c cdbc
000003f0: b7c1 79bc d322 da3c d8f7 95bd 5b08 81bd
0.048816435 -0.016110014 0.085912116 0.059010506 0.05511722 -0.06163685 -0.021908564 0.08396608
-0.0302866 -0.046858672 -0.08567925 -0.0821181 0.029985659 -0.063508466 -0.03509089 -0.055932537
0.020087652 0.0633568 0.073894545 0.09034248 -0.08002207 0.012295484 -0.08656825 -0.062250018
-0.08407266 -0.03959511 0.0023594028 0.042624306 0.06454739 -0.078959286 -0.07458916 -0.01890637
0.024190776 -0.08788243 -0.05349071 -0.07923832 -0.08629426 0.03509277 0.052784115 -0.06012521
0.017762283 0.060633887 0.057089888 -0.04804905 0.0017755985 -0.08677394 0.09022393 -0.050943945
-0.027889816 -0.09088453 0.039627165 0.02985167 0.049811013 -0.055073857 -0.060292255 0.011468401
-0.07739604 -0.09249107 -0.06183967 0.077511474 -0.04992534 -0.032608524 0.018614108 0.07091121
-0.09243578 -0.005744747 0.06447177 0.070529185 -0.022340033 -0.041180193 -0.0060660597 0.061500374
-0.090947084 0.06471273 0.089297265 0.039438833 0.077284284 0.06618873 -0.068762995 -0.0020580313
0.056309704 -0.059727453 -0.0126511585 0.036524106 -0.028157631 -0.019191187 0.023407986 0.091493495
-0.030506656 -0.008705803 -0.07206683 -0.026476849 0.080804236 -0.01366268 -0.06348692 -0.0029874681
0.06853399 0.024689548 -0.023122212 -0.04121641 -0.06498721 0.0411509 0.06985547 0.09186391
-0.055267535 -0.07093179 -0.06656589 0.0063251127 -0.04364967 -0.03861317 -0.044321872 -0.06455134
0.07114365 0.005851889 -0.00050549966 -0.024338184 -0.055465475 -0.0076804413 -0.06028288 0.040893592
-0.03729792 0.04398474 0.03061403 0.052024055 -0.037559975 -0.070431456 -0.059227403 0.02688413
-0.04515573 0.025437031 0.050078567 0.001166352 0.05799849 0.026157763 -0.0060482007 0.027692033
0.0033102005 -0.080614954 0.011385479 0.0045270245 -0.013751267 0.08027642 0.007933431 0.082097135
-0.09221398 -0.04435602 -0.0773372 -0.037951693 0.0701546 0.001084372 0.06006749 0.057615433
0.025930211 0.032956418 0.07793713 -0.08696251 -0.0049934373 0.05487621 0.004957994 -0.012305683
0.07756254 0.03474224 -0.053997565 -0.0671851 0.08977843 0.043796677 0.08340695 0.011674641
-0.062016558 -0.0914907 -0.06104885 -0.06959302 0.01992354 -0.05594733 0.050510343 -0.054953177
-0.09100087 0.06917497 0.08982067 0.028598534 -0.06765723 -0.061199505 0.04160859 0.08961933
-0.063956186 -0.029398564 0.08255575 0.009571454 -0.0025890123 -0.08454431 0.070344456 -0.04930217
0.006930587 -0.0758267 -0.08375631 0.07630765 -0.068572655 -0.08188535 -0.080447346 -0.07855527
0.018324772 0.08075191 0.08728437 0.020812187 0.021114953 0.01906804 0.07798436 -0.023552453
-0.06989511 -0.03702493 -0.04307373 -0.041077074 0.018264497 0.03408041 0.07847782 0.035691727
0.017099079 0.037882894 -0.07637666 -0.083606705 -0.09113706 0.043578975 0.060235538 -0.012714646
-0.024523962 0.016763594 0.07438325 -0.02325633 0.062077664 -0.016731389 0.0030262829 -0.03456963
0.044106975 -0.03503003 -0.023623355 -0.0069679255 -0.070410095 -0.08222414 0.0416109 0.0072794384
0.010596499 0.065711364 0.040248528 -0.041860178 -0.021442523 0.06969686 -0.0017941208 -0.046905607
0.07661122 0.058983017 -0.06464791 -0.025091587 -0.015243939 0.026627934 -0.07322663 -0.06300422

model.1.weight f4 [256]
00000000: 8f3d 803f ca02 7f3f 6a88 7e3f fb70 7f3f
00000010: 7aae 803f eafc 803f e47f 7e3f 8ab4 7f3f
00000020: a845 7f3f 0562 803f 9dde 7f3f 93a0 7f3f
00000030: a4ef 803f b992 7f3f 1e58 823f ef28 803f
00000040: dbae 7f3f ae81 7f3f a625 803f 9de4 7e3f
00000050: 7203 7f3f 9237 7e3f 5ffb 7d3f f467 7e3f
00000060: c4d6 7e3f 5635 803f cb0d 803f 990e 813f
00000070: 640a 7f3f 8fcc 7f3f 869a 803f a55c 7f3f
00000080: 832e 7f3f cca4 7f3f 7dc6 803f 4e07 803f
00000090: f4e8 7f3f eb6b 803f 1e03 803f 0c63 7f3f
000000a0: cc26 803f 05b9 803f 1cb1 7f3f 2fdf 7f3f
000000b0: cd07 803f 1a0d 7f3f 3a73 7e3f b49f 7e3f
000000c0: 7519 7f3f e275 7d3f 10d5 7e3f 8db4 803f
000000d0: 6a91 7f3f fa37 7f3f c80f 813f c275 7f3f
000000e0: ba09 813f d1be 803f c009 803f 7f59 7f3f
000000f0: 0d20 803f 2741 803f 18d1 7e3f 3931 7f3f
00000100: dc36 803f 00ed 7e3f ddd0 7f3f f3b9 7f3f
00000110: bdaf 803f dee8 7e3f c2e4 7f3f 3d96 7f3f
00000120: 29bd 7f3f 20ae 7f3f e1c2 813f 81e4 7e3f
00000130: 8e45 813f 6e43 7e3f 8386 7f3f 7317 803f
00000140: 9a90 803f 0123 803f a8aa 7f3f 0132 803f
00000150: 138e 813f fb07 803f d678 803f ed4f 803f
00000160: 4ade 803f 1d8f 7f3f a03e 7f3f e51b 803f
00000170: 3b83 813f dafe 7e3f bd03 7f3f d074 7d3f
00000180: 6709 7f3f fea5 7e3f 28e5 7f3f 0e58 7f3f
00000190: b813 7f3f 1756 803f ece5 7d3f 478c 7f3f
000001a0: ef9d 7f3f 3861 7e3f 8e85 803f 2676 803f
000001b0: d0bf 7f3f 0565 7e3f 270a 803f 0575 803f
000001c0: 9d37 803f dcd9 7e3f 777d 7f3f 835e 7f3f
000001d0: 5539 7f3f 5117 7f3f 8719 803f 4374 7e3f
000001e0: 0d26 7f3f f5c0 7f3f b1d1 7e3f 7edb 7f3f
000001f0: f26e 803f f7e8 803f 72c7 803f c014 7f3f
00000200: 206a 7f3f 0f3b 7f3f 064a 803f 41c1 7e3f
00000210: 521d 7e3f 5b07 803f 5cdc 7d3f 88e9 7f3f
00000220: 80f1 7e3f fe2d 803f 36f9 7e3f fa32 813f
00000230: 1f63 803f 4537 803f e2f2 7e3f fd6c 803f
00000240: a44f 7e3f b0d0 7e3f e8b9 7f3f 089c 7f3f
00000250: 2946 803f ddaa 803f 1a75 803f 0654 7f3f
00000260: 741a 7f3f b2bf 7f3f 4f5c 7f3f 24fc 7e3f
00000270: 9a67 803f 34f3 7e3f ce0e 803f ef60 803f
00000280: b3b1 7f3f 76ab 803f 89d8 7f3f 820b 803f
00000290: 0f3e 803f 55be 803f 6ac7 813f e8c8 803f
000002a0: 299a 7f3f 1794 7f3f e472 803f 844e 803f
000002b0: c854 803f ad6b 7f3f 6819 7e3f ee30 803f
000002c0: c099 7f3f d86b 803f e6fb 7f3f 9af7 7f3f
000002d0: 8617 803f a067 813f d5f6 7f3f 02c4 803f
000002e0: 9823 803f 9c3a 7f3f 1d90 7f3f e8e1 7f3f
000002f0: 0e40 7f3f b033 7f3f bafa 7f3f 7237 7f3f
00000300: 0019 813f b654 7d3f 599c 7e3f cbde 803f
00000310: bd20 7f3f 251f 7f3f 7b51 7f3f e125 7f3f
00000320: 2955 7e3f c26b 7e3f d8fe 7f3f d476 7f3f
00000330: a466 7e3f 849d 813f 906e 7f3f b633 7f3f
00000340: fe90 803f 8fef 7f3f 61de 803f a20d 803f
00000350: 762f 803f d616 803f dd29 803f 28c3 803f
00000360: ba83 7f3f 95a0 803f abf8 7c3f 2db7 7f3f
00000370: 226b 7f3f 5a74 7e3f 596f 813f 91b3 7e3f
00000380: 3115 7f3f 7585 7f3f 8cec 7d3f 51fa 7f3f
00000390: 894d 813f 6bfd 803f 690e 803f 3135 803f
000003a0: 05bc 7e3f 17f8 7f3f 047e 7d3f 5994 7e3f
000003b0: cca1 7f3f 57c2 7e3f fb67 7e3f 4c93 813f
000003c0: 3911 803f d930 803f 3d15 803f f81e 7f3f
000003d0: 8a12 813f c3bd 803f e4e6 7e3f 76f1 7c3f
000003e0: ed70 803f 477a 803f d97a 7f3f 4ccf 803f
000003f0: d217 823f d4d4 7f3f f61c 7f3f db75 7f3f
1.0018786 0.9961363 0.994269 0.9978177 1.0053246 1.0077183 0.99413896 0.99884856
0.9971566 1.0029913 0.99949056 0.9985439 1.0073133 0.99833256 1.0183141 1.0012492
0.99876183 0.9980725 1.0011489 0.99567586 0.9961463 0.99303544 0.99211687 0.9937737
0.99546456 1.0016277 1.0004209 1.008258 0.9962523 0.99921507 1.0047157 0.9975074
0.99680346 0.99860835 1.0060574 1.0002229 0.99964833 1.0032934 1.0000951 0.9976051
1.001184 1.0056463 0.9987962 0.99949926 1.0002381 0.99629366 0.9939457 0.9946244
0.9964822 0.99008 0.9954386 1.00551 0.9983126 0.9969479 1.0082941 0.9978906
1.0081093 1.0058233 1.0002975 0.99745935 1.0009781 1.0019883 0.995378 0.9968448
1.0016742 0.99580383 0.99928075 0.9989311 1.0053631 0.9957408 0.9995843 0.9983862
0.9989801 0.9987507 1.0137597 0.9956742 1.0099351 0.9932164 0.99814624 1.0007156
1.0044129 1.0010682 0.99869776 1.001526 1.0121483 1.0002435 1.0036876 1.0024391
1.0067837 0.9982775 0.99704933 1.0008513 1.0118173 0.9960762 0.9961508 0.99006367
0.9962372 0.99472034 0.9995904 0.99743736 0.99639463 1.0026273 0.9917896 0.9982342
0.9985036 0.99367094 1.0040758 1.0036056 0.9990206 0.99372894 1.0003098 1.0035712
1.0016972 0.9955118 0.9980082 0.9975359 0.99696857 0.99644953 1.000779 0.9939615
0.99667436 0.99903804 0.99538714 0.99944293 1.0033858 1.0071095 1.0060866 0.99641037
0.9977131 0.9969949 1.002259 0.9951363 0.9926349 1.0002245 0.99164367 0.99965715
0.9958725 1.0014036 0.99599016 1.0093682 1.0030249 1.0016867 0.9958936 1.003326
0.9934027 0.9953718 0.99893045 0.9984746 1.0021411 1.0052143 1.0035737 0.99737585
0.9964974 0.9990188 0.99750227 0.99603486 1.0031617 0.9958985 1.0004518 1.0029582
0.9988052 1.0052326 0.9993978 1.0003512 1.0018939 1.0058085 1.0138981 1.0061312
0.99844605 0.9983534 1.0035062 1.0023961 1.0025873 0.99773675 0.99257517 1.0014932
0.9984398 1.0032911 0.9999374 0.99987185 1.0007179 1.0109749 0.9998601 1.0059817
1.0010862 0.99698806 0.99829274 0.9995408 0.99707115 0.99688244 0.99991953 0.9969398
1.0085754 0.98957384 0.9945732 1.0067991 0.9965933 0.996569 0.99733704 0.99667174
0.99348694 0.99383175 0.99998236 0.9979069 0.9937537 1.0126195 0.9977808 0.9968828
1.0044248 0.9997491 1.0067865 1.000416 1.0014484 1.0006969 1.0012776 1.0059557
0.99810374 1.0049006 0.9881694 0.9988888 0.99772847 0.9939629 1.0112106 0.99492747
0.9964171 0.99813014 0.99189067 0.9999133 1.0101787 1.0077337 1.0004398 1.0016233
0.99505645 0.9998793 0.9902041 0.9944511 0.9985626 0.9951529 0.9937741 1.0123076
1.0005256 1.0014907 1.0006481 0.9965663 1.0083783 1.0057911 0.9957106 0.9880594
1.0034462 1.0037316 0.99796826 1.0063262 1.0163519 0.99934125 0.99653566 0.9978921

model.1.bias f4 [256]
00000000: 45d5 693b 9bca 93b9 d21b a7bb 7297 ba3a
00000010: 7285 503b cdf6 453b d8e2 aabb d6d8 82bb
00000020: 301d 8bbb 68dd ab3b 8808 81b9 e36e 43bb
00000030: 2e4c 0f3c c06c caba 24a4 7e3c 5e33 9f3b
00000040: 6391 7b3a 5946 733a fbe0 5c3b bd8c 95bb
00000050: 9ee7 c9bb 5b6e 4ebb 470c ddbb 2155 e1bb
00000060: 98c4 38bb 4158 333b 1372 5cbb fddb 923b
00000070: b664 ddba 23d1 8dbb 9c00 6e3b 67ec 09bb
00000080: f516 a4ba 9d22 a13b 3c3a 143c 9e63 cc3a
00000090: 3651 973a 979d 513b df5a 03ba d4da f2bb
000000a0: 1e4f 603b 7c38 033c 7f4d 2c3b 6a15 7cbb
000000b0: 69b3 2a3b d10d 2f3b 01c8 86bb 5d5e 3dbb
000000c0: d6e3 b1bb 22d7 fabb 7ee5 88bb 0cd5 bf3b
000000d0: be9d ccbb e24a 01bb 9f8f 9c3b f87b cb3a
000000e0: 199c 103b b01b 2e3b 3bae 2739 acaa 90ba
000000f0: 7d6c 42b9 9000 5a3b 3d37 86bb cf56 5fbb
00000100: 04ff 4f3b d1ee 90bb bbfd a23a 0740 8bbb
00000110: dde9 323b 90cf 08bb f7e7 6c3b f83c 8fbb
00000120: 9391 003b 058b 09bb 861c 693c 691c 9fbb
00000130: 09df 153c cf7b 0fbb d7ae aebb 9a35 c33b
00000140: 89a0 8d3b 262a 783b b0d5 9738 2819 173a
00000150: ea67 453c e154 17bb 2a69 cb3b 595e 85b9
00000160: 4d6b e33b 4fd6 aeba b875 5bba b421 903a
00000170: f788 143c 0080 daba 117d 73bb 76bb b7bb
00000180: 4722 39bb 43f6 873a 3f98 b5ba 56b2 70bb
00000190: 4b12 2ebb 4d5a 1a3b 77d0 cabb 5b13 fcb9
000001a0: ad4b f63a 9ed6 76bb 754f 6a3b 6300 113b
000001b0: 7c22 bab9 46d6 b1bb e208 76ba eb71 0e3b
000001c0: eae7 29b7 359d 80b9 abba bcba 6521 a5bb
000001d0: 0ffc 62bb 1467 35bb 4397 daba cc90 91bb
000001e0: 42df 923a af06 91ba 7e62 bcbb 1591 c23a
000001f0: b9e0 5e3b 99c2 513b 58fb 503a 53ec 81ba
00000200: 360a 71bb d1ef 0eba f05a 1e3b 00ed 483b
00000210: 3543 29bb 0ecb 5039 01c7 faba b35f 0ebb
00000220: 124c ceba 955d 913b d33d 283a 0c02 5c3c
00000230: 080d 6e3b 9e2e 28ba 0957 caba f29b e23b
00000240: 04c6 c5bb 405c 96bb 2cae 113a b825 a7bb
00000250: 583d 823b 8347 8e3b 232a 723a 810a 7dbb
00000260: 8ce3 7dbb 6c82 c6ba 4624 213b 6854 ceb9
00000270: fac6 09ba 731a edbb 6943 ec3a 2f02 003c
00000280: d34d 1cbb 5339 8e3b d06c 263a cd72 fab9
00000290: 665f cf3a 015c bd3b d151 1c3c 5bb0 833b
000002a0: 4434 0a3b 3f33 35ba 6c33 b43a 8d82 813b
000002b0: d8d2 a73b 7bf8 8ebb 9c8e 80bb e4ac 98ba
000002c0: 9b5c 223a 41f8 7c3b 3c10 3abb e3d8 60b9
000002d0: 675a 99ba 3ba3 1f3c 6799 203b b393 023c
000002e0: 9272 403a 2f16 20ba b226 03bb 8e2d 4e3b
000002f0: 7f6c 6339 c289 22bb dc7b a3ba 46e8 10bb
00000300: 2f3e 153c 6b48 babb a1bd e7bb 6e36 023b
00000310: 3be1 81bb 6cbc a0bb da71 063b ae05 98bb
00000320: fd05 16bc 4af2 7bbb 628d 1837 bc1f ad3a
00000330: 45ab 65bb 5a17 6e3c 3b3b 82bb f2e3 4bba
00000340: cbf5 cc3a af64 253b 770c 713b 1633 86bb
00000350: cd6a 923b dd1a 293b b60c 913b 52d4 3a3b
00000360: d52d 0f39 2839 7b3b 2107 1ebc 3e52 863a
00000370: 0847 41bb 78c5 aabb 888d 4d3c 6a90 47bb
00000380: 33f6 39bb 55b7 cd37 d5fb 9bbb 1d95 4339
00000390: fe5f 2f3c 07d9 9a3b 2f92 a43a ab3b 29b9
000003a0: 63bd b3bb bb2a 23bb 5d47 c7bb 8f7f f2bb
000003b0: a828 4fba b8a0 88bb 9f18 e4bb a8cc 253c
000003c0: b3c6 773b 7c1a 853b b3d8 8e39 848e b9ba
000003d0: a75a 2b3c 26fc c03b 01ce 72bb f94c 1cbc
000003e0: 19fc 883b b69e a03b 5364 33bb a67c 1f3c
000003f0: b206 2a3c 4e16 0f3b c305 e7ba a268 28bb
0.0035680097 -0.00028188978 -0.005099752 0.0014235808 0.003181782 0.003020692 -0.00521503 -0.003993134
-0.004245423 0.0052448995 -0.00024611154 -0.0029820732 0.00874619 -0.0015443787 0.015542064 0.0048584184
0.00095965544 0.0009280197 0.0033703435 -0.0045638965 -0.006161644 -0.0031498882 -0.0067458483 -0.0068766032
-0.002819335 0.0027365836 -0.003363733 0.004481791 -0.0016890976 -0.0043279096 0.0036316281 -0.0021045448
-0.0012519049 0.0049174563 0.009047087 0.0015593653 0.0011544588 0.00319848 -0.0005010794 -0.0074113403
0.0034226845 0.008009072 0.0026291308 -0.0038464912 0.0026046878 0.0026711116 -0.004113198 -0.0028895356
-0.0054287715 -0.0076550404 -0.004177748 0.0058542546 -0.0062443903 -0.0019728472 0.004777863 0.0015524616
0.0022065698 0.0026566796 0.00015991267 -0.0011037192 -0.00018541697 0.0033264495 -0.0040959404 -0.0034078842
0.0031737695 -0.0044230004 0.0012435237 -0.004249576 0.0027300038 -0.002087567 0.0036149004 -0.0043712817
0.001961802 -0.0020987403 0.014227992 -0.0048556817 0.009147414 -0.0021893864 -0.005330901 0.0059573175
0.004322116 0.003786692 7.2400435e-05 0.00057639414 0.012048701 -0.0023091363 0.006207605 -0.0002543803
0.0069402815 -0.0013339015 -0.00083717285 0.0010996372 0.009065858 -0.0016670227 -0.0037153403 -0.005607064
-0.002824919 0.0010373074 -0.0013854577 -0.003672739 -0.0026561196 0.0023552359 -0.0061894017 -0.00048079606
0.0018790864 -0.0037664543 0.0035752926 0.0022125475 -0.00035502377 -0.0054271547 -0.0009385479 0.002173538
-1.0127182e-05 -0.0002453119 -0.0014398893 -0.0050393813 -0.0034635102 -0.0027679848 -0.001667716 -0.00444231
0.0011205452 -0.0011064614 -0.005749046 0.0014844263 0.0034008457 0.0032006858 0.00079720234 -0.0009912349
-0.0036779768 -0.00054526055 0.002416309 0.003065884 -0.0025827412 0.0001991207 -0.0019132794 -0.0021724522
-0.0015739223 0.0044362047 0.0006417904 0.013428222 0.0036323685 -0.0006415638 -0.0015437315 0.006915563
-0.006035568 -0.004588634 0.00055572647 -0.005100932 0.003974598 0.004342021 0.0009237846 -0.0038610997
-0.0038740365 -0.001514507 0.002458827 -0.0003935427 -0.0005255785 -0.007235819 0.0018025461 0.007813021
-0.0023850098 0.0043403297 0.0006348612 -0.0004776925 0.0015821278 0.00577879 0.009540991 0.004018826
0.0021088282 -0.00069122383 0.0013748235 0.0039523304 0.00512157 -0.0043631173 -0.0039232504 -0.0011648205
0.0006193609 0.003860012 -0.0028391024 -0.00021443101 -0.0011699916 0.009743507 0.0024505497 0.007969785
0.0007341291 -0.0006106821 -0.0020012078 0.0031460258 0.00021688825 -0.0024801348 -0.0012472826 -0.0022111102
0.009109064 -0.0056849024 -0.007072166 0.0019868868 -0.003963617 -0.004905274 0.0020514638 -0.004639349
-0.009156701 -0.0038443976 9.092824e-06 0.001320831 -0.0035044712 0.014531935 -0.003974346 -0.0007777802
0.0015637217 0.0025237014 0.0036781111 -0.0040954454 0.004468298 0.0025803365 0.004426564 0.00285079
0.00013654616 0.0038333628 -0.009645254 0.0010247899 -0.00294918 -0.0052115284 0.012545951 -0.0030451068
-0.0028375506 2.4523275e-05 -0.0047602453 0.00018652198 0.010704039 0.0047255787 0.0012555773 -0.00016139324
-0.005485223 -0.0024897296 -0.006081505 -0.00740046 -0.00079024816 -0.00416955 -0.006960943 0.010119595
0.0037807643 0.004061995 0.00027245804 -0.0014156853 0.010458625 0.0058894334 -0.0037049057 -0.009539836
0.004180443 0.0049017323 -0.002737303 0.009734308 0.010377573 0.0021833363 -0.0017625618 -0.0025697132

model.1.running_mean f4 [256]
00000000: 27b3 463d 7c65 02bd e3e4 be3d 4ee7 823d
00000010: e926 4a3d 87c4 8fbd 2937 83bc bb99 753d
00000020: 7be8 023c 64da 0dbd ac00 4bbd 7341 9cbd
00000030: 6521 133d 31b8 74bd ac13 74bd 49a5 86bd
00000040: f765 f3bb 77d6 b43d b540 bf3d 52f0 ef3d
00000050: 9167 6cbd 21ec 043c 341d 83bd f10c 50bd
00000060: 1f74 89bd e52b 09bd 5234 3b3c 4ce3 5a3d
00000070: 5bd2 753d cb69 8cbd 075a 81bd 4902 4cbc
00000080: 4116 8cbb 9c52 cebd 5c00 abbd ffc9 8bbd
00000090: cdb3 d9bd fa72 223d 22ce 423d 95dd cbbc
000000a0: 4bb1 f53c 5222 bf3d 923c 083d 2048 8ebd
000000b0: 35bf 083b ed12 adbd 56be c43d 5ec5 78bb
000000c0: 3659 a9bc ca3e d6bd 034b 733d 5f95 b5bb
000000d0: 5b20 8b3d b7ac 2bbd 684a 89bd c3fc 033d
000000e0: 9df0 84bd edbb fabd 9d03 bfbd 726b ae3d
000000f0: 6f19 5ebb 6370 41bd fa29 8cbb 1c21 a43d
00000100: 3753 03be 874b dab9 f221 863d 0b34 793d
00000110: 0519 68bc cc1f 1bbd f5c9 283c d0be 733d
00000120: 1df6 b6bd 3a75 923d c689 ab3d e6b6 003d
00000130: 217c 783d 41ad 653d b0dc 88bd 842d b1bb
00000140: 6e02 0b3d e496 80bd b3f3 07bd ca5f db3c
00000150: a24b e0bc 8c69 ebbc b1fc ab3a c323 883d
00000160: 2ddd 71bc 463b e23c 44b9 81bd e34b fdbc
00000170: 0e9b f33c 2b6d a03c 2b65 53bd a1ad b53b
00000180: ece7 bf3d 5117 0a3d 2ce4 52bd a7b8 01bd
00000190: 5dd0 65bd 3684 833c 9133 a73d 98f5 cc3d
000001a0: e2bb 9dbd cc5f a0bd 2b24 96bd 96cf 4ebc
000001b0: 47c1 2bbd 461d 56bd 016a 98bd 848c 6cbd
000001c0: bca1 9e3d 768c d03c a002 fc39 966a 39bd
000001d0: 34f0 83bd cf98 2bbc b398 32bd d2b2 913d
000001e0: e685 f0bc e9b0 063d c15b 613b f0fd 853d
000001f0: 1ecc 9abc e575 b2bd a9ef 71bd ca50 2c3d
00000200: 7781 18bd 07de c83c 844c 863c 34b1 3c3b
00000210: 13a2 b33d 7858 0f3d 0a5e eebc 4cfc 333c
00000220: 28ef 15bd cfad c5bd 91d8 2fbc 0167 293b
00000230: d6ab 41bd ecd8 d93d aa00 ef3c 1ebb f63d
00000240: 8805 c8bd 57f9 bcbc 3ef3 adbd a751 70bd
00000250: 04f8 bd3d 0890 a1bc f457 aa3d 88a6 823d
00000260: 33d4 893b b55f e33c e6ae 803d a753 a2bd
00000270: 4af8 d23c 9b8a 643d e62e 5a3d af2b f7bb
00000280: 048a ae3d b33e 563a 69b0 35bd d4cb b2bd
00000290: 5dfb 833d ddcc 893d d8e3 b73d b3c1 173d
000002a0: 09a7 42bd a7ad bfbd 5a4d a2bd 9881 a7bd
000002b0: 1476 6c3c 7fa8 96bd 2c76 a83d 5058 84bd
000002c0: c96d 02be 9988 c23d 5086 cc3d 725f 683d
000002d0: 412f 16bd f99b 58bd bab7 403c 5c15 eb3d
000002e0: d163 5cbd 15f7 49bd 2e2b c13d 93c0 a63b
000002f0: e55a 7dbc 2f72 9abd a62a 9c3d 69e9 9cbc
00000300: 0ea5 813c e647 7abd c518 00be a2c7 073d
00000310: e987 a9bd ad01 88bd e997 c0bd 6a73 bfbd
00000320: 0a32 113d 88c8 ba3d 17d9 013e c8fe e93c
00000330: fe6f 1a3c a881 bf3c e57d b93d 3e1c 2fbd
00000340: 5d2c 8bbd 625f 12bd 412a ccbc 1b9e 4bbd
00000350: e952 553d 26a3 f73a 5b2f 863d ac7b d23c
00000360: bd92 dd3c d666 003d 5be0 d0bd 902a bebd
00000370: 504a 43bd 9aae 353d 59a6 8b3d fba4 7fbb
00000380: 5d72 84b9 8656 88bb 6979 8a3d a8bd 9abc
00000390: 71ee 8d3d 80bd d5bc 7b6d e83a 3c09 2bbc
000003a0: 6fd9 553d 03fe e2bc 05cc 45bd 499c e6bc
000003b0: 1c68 20bd 1e14 a1bd ecbc 943d a074 1bbd
000003c0: 7d77 2e3b cb21 913d ef23 713d 5e05 cabd
000003d0: d1f0 5e3b 3b88 d43d 36ba 603c 8f1d 27bd
000003e0: 9a19 c03d 245a 883d 6e83 9fbd 3809 643b
000003f0: d0cb e1bc 51fc e73b e0e8 e7bd fb32 4fbd
0.048510697 -0.031835064 0.093210004 0.06391774 0.049353514 -0.070199065 -0.016017513 0.059961062
0.007989998 -0.0346321 -0.049561188 -0.07629671 0.03592052 -0.05974597 -0.059589073 -0.065744944
-0.0074279266 0.088299684 0.09338514 0.11715759 -0.057715956 0.008112938 -0.064020544 -0.050793592
-0.067116015 -0.033489127 0.011426048 0.053439423 0.060015064 -0.06856116 -0.063159995 -0.012451717
-0.004275114 -0.1007435 -0.08349678 -0.06825637 -0.106299974 0.03966043 0.047559865 -0.024885932
0.029991766 0.09332718 0.03326089 -0.069473505 0.0020865921 -0.084508754 0.09606616 -0.0037959437
-0.020672422 -0.10461195 0.05939771 -0.005541488 0.06793281 -0.04191276 -0.06703645 0.032223474
-0.06491206 -0.12242875 -0.09326861 0.08516587 -0.0033889671 -0.04722632 -0.004277465 0.080141276
-0.12824713 -0.00041636472 0.06549443 0.060840648 -0.014166121 -0.03787212 0.010302057 0.059508145
-0.08933661 0.071512654 0.083758876 0.031424426 0.060665254 0.05607343 -0.06682718 -0.005407037
0.033937864 -0.0627878 -0.033191394 0.026779074 -0.027379815 -0.028736852 0.0013121573 0.06647446
-0.014762205 0.027616154 -0.06334165 -0.030919975 0.029737022 0.019583305 -0.051610153 0.00554438
0.093704075 0.033713643 -0.051487133 -0.03167024 -0.056106914 0.016054254 0.081641324 0.10007781
-0.077018514 -0.07830772 -0.07331117 -0.0126227345 -0.04193237 -0.05227401 -0.07442094 -0.057751194
0.07745692 0.025457602 0.0004806714 -0.045267664 -0.064422995 -0.010473444 -0.043602657 0.071141854
-0.029360723 0.03288356 0.0034386965 0.06542575 -0.018896159 -0.08713893 -0.05906645 0.042069234
-0.037232842 0.024519933 0.016393907 0.0028792145 0.087711476 0.03499648 -0.029097576 0.010985445
-0.03660503 -0.09652292 -0.010732786 0.0025848749 -0.047283016 0.10637078 0.029175121 0.120474085
-0.0976668 -0.023068113 -0.084936604 -0.05867162 0.09275821 -0.019722 0.08317557 0.063794196
0.0042062043 0.027755598 0.06283359 -0.07926112 0.02575316 0.055796247 0.053267382 -0.0075430493
0.08522418 0.0008172795 -0.04435769 -0.087302834 0.06444428 0.06728528 0.089790046 0.03704996
-0.04752258 -0.093592934 -0.0792491 -0.08179015 0.014432449 -0.07356357 0.082256645 -0.06462157
-0.12737192 0.0949871 0.099865556 0.05673165 -0.03666616 -0.052883122 0.011762554 0.11478683
-0.05380613 -0.0493079 0.09432064 0.0050888746 -0.0154635655 -0.0754131 0.07625322 -0.019154267
0.015825775 -0.061103724 -0.12509449 0.03314937 -0.08277876 -0.06640945 -0.094039746 -0.09348185
0.03544811 0.091202796 0.1268047 0.028563872 0.009426115 0.023377255 0.090572156 -0.042751543
-0.06795571 -0.035735495 -0.024922492 -0.049711328 0.052081022 0.0018893227 0.06552001 0.025693737
0.02704751 0.031348072 -0.101990424 -0.09285462 -0.04767829 0.044355966 0.06818838 -0.0039008248
-0.0002526221 -0.004160705 0.067614384 -0.018889263 0.06930245 -0.026091337 0.0017732823 -0.010439213
0.052209314 -0.027709013 -0.04829027 -0.028150694 -0.039161786 -0.07865165 0.072625965 -0.03795302
0.0026621514 0.070865236 0.05887216 -0.09864305 0.003401805 0.103775464 0.013716271 -0.040799674
0.09379883 0.06657818 -0.0778874 0.0034795534 -0.027563006 0.007079639 -0.11323714 -0.05058573

model.1.running_var f4 [256]
00000000: 2166 9b3e 33b9 9c3e c8fa a13e 05e1 ab3e
00000010: cbce 8e3e b884 8a3e eb36 883e 2d8d 7e3e
00000020: d28c ab3e 6817 b73e fcc3 983e 2a52 a03e
00000030: 3772 813e e32d 8e3e 11f7 7d3e 056e a73e
00000040: 5ea1 7e3e 7d35 a33e da7a 903e b877 923e
00000050: 2112 663e 6e38 b93e f0f9 803e 2d6f 9e3e
00000060: 6b2a 8d3e 0bcc b93e f75c 8c3e cd41 8a3e
00000070: 2acd 983e 97ed 923e 41f0 8a3e 14e6 a03e
00000080: 978e a13e d39d a53e aba5 953e 2775 873e
00000090: 9a37 923e c88e 853e 0964 993e 280b a43e
000000a0: 7f46 9e3e d0eb 8a3e f996 833e 8aef 973e
000000b0: 1985 a43e 6841 9a3e 5b28 8f3e bed3 9e3e
000000c0: bdda 903e 064b 983e 2e27 8c3e 1134 4b3e
000000d0: e118 a13e f4af 873e c778 ab3e 0404 a03e
000000e0: ca76 a33e 5860 9e3e 64fe 8d3e 2c6f 943e
000000f0: facb 863e b0bc 6d3e 830e 9d3e 3825 863e
00000100: d083 7f3e 6313 9e3e c92d 8e3e 71dd 903e
00000110: 32e3 813e 8305 9c3e c4e0 9b3e 2741 873e
00000120: f5c1 823e cb50 8e3e 229a 833e 4bf9 a13e
00000130: 5e30 8c3e b7c0 973e 0417 883e c672 973e
00000140: 9364 b13e 7103 8d3e be63 8b3e d0fa 9e3e
00000150: a0c9 9b3e da1d 9e3e 460c 943e 5cd1 8f3e
00000160: 7657 983e 154e bc3e 9588 9c3e ac26 813e
00000170: d7d5 543e 159c 983e f782 9a3e e9be 863e
00000180: 37f1 953e 3fda 963e 5355 803e b9fc a03e
00000190: 58fd a63e 140a 913e 6267 993e d78e aa3e
000001a0: 69b1 973e a5aa 6e3e c895 973e bf77 9b3e
000001b0: 0849 983e 8bc0 9e3e 14ef 9e3e c905 8d3e
000001c0: fa62 7b3e dbee 883e 29ce b13e f9ef 853e
000001d0: 8b56 7d3e 9fa1 8c3e cef0 923e 119d 813e
000001e0: 806c 9d3e fc14 973e 56b2 8f3e 588a 703e
000001f0: 9b16 823e be30 803e bc86 913e f086 803e
00000200: 0f02 883e e9e2 9c3e 4026 943e 92ff 9e3e
00000210: bdfd 973e 09d4 893e f7d4 973e ecad 993e
00000220: 2252 9c3e 3601 843e 9923 833e b228 933e
00000230: 57eb a03e 4bdd 863e 9ae3 993e a60f 893e
00000240: de2a a73e 618c 8e3e cfa3 8b3e 5f73 633e
00000250: 302b a13e 637b 883e 0a47 a73e 2072 783e
00000260: 43de ab3e 82cd 8b3e 822b 7d3e 0293 8d3e
00000270: 27bb 883e ebc6 b13e bd89 7b3e db59 8e3e
00000280: e472 aa3e 4119 b43e 6af0 883e 47af 973e
00000290: 6ced 913e 52bc 983e f45c 7a3e c659 8b3e
000002a0: 6be8 a83e 9cfb 873e c732 9c3e 387d 903e
000002b0: 20e0 8f3e 6d8c 983e bdf8 a33e abb4 a23e
000002c0: ad3a a53e 6a93 873e 7b72 953e 5260 833e
000002d0: dc6f 9a3e 00cd a43e 575c a73e 1c2d 883e
000002e0: c9fa a53e d06f 8f3e 895f 843e 29c5 9f3e
000002f0: 22e0 873e 9473 9e3e 8eec 9c3e ee1d 783e
00000300: ef09 a13e 19e9 ad3e 825a 803e fb8d 9b3e
00000310: e79e 863e faa5 973e 0a48 893e 9af9 943e
00000320: 4317 923e c424 883e 8e39 8b3e f232 913e
00000330: 628a 9c3e 4e8a 9d3e ace6 8b3e 9654 923e
00000340: 171a 913e e68f 893e cef0 9d3e f895 9e3e
00000350: 437f 943e ee55 8f3e 729e 9e3e 9451 923e
00000360: 9fe0 ab3e fc9e 963e f65f a63e c357 933e
00000370: b54a 8a3e eded 853e cdd9 993e 1678 8c3e
00000380: f62a 913e 45d8 993e aba2 8f3e 4a13 af3e
00000390: 59b8 9c3e 0888 9d3e 6705 893e 175d 953e
000003a0: 69b8 783e a682 8d3e 4ccd 8f3e c17b 923e
000003b0: e8ed 8d3e 5b85 8c3e aebd a73e a611 813e
000003c0: f413 a93e aaa0 853e 4b87 aa3e 1fae ab3e
000003d0: d69f 943e f837 893e b033 873e 9974 923e
000003e0: 74f6 883e 04ee 8d3e 4d62 a53e a3e3 a23e
000003f0: c1f5 c53e a1c2 6a3e f298 8a3e 99f0 7a3e
0.30351356 0.30610046 0.31636643 0.33570114 0.27892146 0.2705438 0.266044 0.24858542
0.33505875 0.35760045 0.29837024 0.31312686 0.25282452 0.27769384 0.2480128 0.32701126
0.24866244 0.31876746 0.28218728 0.28606963 0.22467853 0.36175865 0.25190687 0.30944195
0.27571425 0.36288485 0.27414677 0.27003327 0.29844028 0.28696892 0.27136424 0.31425536
0.315541 0.32346973 0.29227957 0.26456568 0.28558046 0.26085496 0.29959133 0.32039762
0.3091316 0.27133036 0.2570112 0.2967494 0.32132795 0.30128026 0.27960476 0.3102092
0.28291884 0.29744738 0.27373642 0.1984408 0.31464294 0.2650143 0.33490583 0.31253064
0.31926566 0.3093288 0.27733147 0.28991067 0.26327497 0.2321651 0.30675134 0.2620027
0.24952626 0.30874166 0.27769306 0.28293946 0.2536865 0.30472955 0.3044492 0.26416895
0.25538602 0.27796015 0.25703532 0.31635508 0.2738065 0.29639217 0.2658006 0.29579753
0.34647045 0.27541688 0.27224535 0.3105073 0.30427265 0.3088215 0.28915614 0.28089416
0.29754227 0.36778322 0.30572954 0.25224817 0.20784698 0.2980658 0.30178043 0.26317528
0.29285595 0.29463384 0.25065097 0.31442812 0.3261516 0.28328001 0.29961687 0.33312103
0.2962754 0.23307283 0.29606462 0.30364797 0.29743218 0.31006274 0.31041777 0.27543476
0.24549475 0.26744732 0.347276 0.26159647 0.24740045 0.27467057 0.28699344 0.25315145
0.3074684 0.29508197 0.28065747 0.23490274 0.25407872 0.25037187 0.28423107 0.2510295
0.2656407 0.3064187 0.28935432 0.3105436 0.29685774 0.26919582 0.29654667 0.30015504
0.30531412 0.25782174 0.25613096 0.28741986 0.3142955 0.26340708 0.3005646 0.2676975
0.32649893 0.27841476 0.27273414 0.2221198 0.31478262 0.26656637 0.32671386 0.24262285
0.3356801 0.27305228 0.24723628 0.2765122 0.26705286 0.34722075 0.24564262 0.2780293
0.3329078 0.35175517 0.2674592 0.29625914 0.2850145 0.29831177 0.24449521 0.2721693
0.3298982 0.2655915 0.3050749 0.28220534 0.2810068 0.29794636 0.3202571 0.31778464
0.3227133 0.26479656 0.29188904 0.25659424 0.30163467 0.32187653 0.32687637 0.26596916
0.32417896 0.28014994 0.25854138 0.3120511 0.26538187 0.30947554 0.30649227 0.24230167
0.3145289 0.33966902 0.25069052 0.3038176 0.26293108 0.29618818 0.26812774 0.2909668
0.28533372 0.2659055 0.27192348 0.2835918 0.30574328 0.3076958 0.27324426 0.2858016
0.28340217 0.26867598 0.30847782 0.30973792 0.29003343 0.27995247 0.3098026 0.28577864
0.3356981 0.2941817 0.32495087 0.28777894 0.27010122 0.26158085 0.3004898 0.27435368
0.2835309 0.30047813 0.28053793 0.34194404 0.30609396 0.30767846 0.26761934 0.29172584
0.24289097 0.2763874 0.28086317 0.28610042 0.2772057 0.27445492 0.32761902 0.25208777
0.33023036 0.2609914 0.33306345 0.3353128 0.29028195 0.26800513 0.26406622 0.28604582
0.2675053 0.27720654 0.3230156 0.31814298 0.38664058 0.22925808 0.27069813 0.24505843

model.3.weight f4 [512, 256]
00000000: 6738 c6bc 520d ddbc 008a d7bc 4b73 023c
00000010: 07c1 10bd 2fd5 da3c 61a2 3abd 78df 973c
00000020: 65d6 2f3d 2d88 ff3b a585 e23c f886 833d
00000030: e633 2b3d a53a 963c 2878 463c f0e0 60bd
00000040: 93ff 543d 7988 08bd 819a 7bbd 6db7 30bc
00000050: 9ef2 323d 71e3 9c3c e7bb d2bb fb3c 4c3d
00000060: 5d85 f63c 752b 55bd 675c bb3c f25c 36bc
00000070: 7f62 fe3c 3b63 1d3c d5d2 cd3c 3b88 4dbd
00000080: b26e 3cbd d3fb 683c 5b5e 57bd 87de a03c
00000090: a7ff 063a 3085 58bd a508 bb3c f967 5c3c
000000a0: f7b0 36bd 1e4b 35bd 09e6 333d 7151 c83c
000000b0: 4b20 9cbc f063 1cbb 40f8 a83c 21e4 94bc
000000c0: 231f 50bd f09f 03bc e469 65bc 34a7 2abd
000000d0: e493 7ebd 4c59 a0bb b60c 13bd 81a7 093d
000000e0: b8ad 22bd 237f 473d a394 23bc c4c7 523d
000000f0: 1107 2b3d 4c4f f2bc 5043 a3bc 0253 f0bc
00000100: 68c6 f33c 4ce1 a1bc a580 1fbc 7158 d9bc
00000110: c48c 3d3d 2844 45bd 2823 c7bc 6e31 3a3c
00000120: f995 813c 4aa0 64bc f48e 463d 7a23 0dbd
00000130: ff02 5d3d decf f03c 4ff0 e63c 3278 a63c
00000140: 34ba 4d3d 3cd7 aabb 65fa 05bd 427e 7ebc
00000150: bd31 7dbc e3a7 443d c0d5 16bd 4aae 9ebc
00000160: 1993 c0bc 6005 733d be3f 9abc e650 3a3d
00000170: b3ac 363c 16ba 62bd ea60 e339 2cab 693d
00000180: 0e7e b03b 4f05 7a3c 8492 38bd d302 0abd
00000190: 826d 23bc 448e 703d 16ce 4ebc dfaf b8bc
000001a0: 2e12 70bd 9182 1abd 0d30 95bc e888 30bd
000001b0: cb9e 0bbd c917 5fbd 68ed ce3b 5b5f 33bd
000001c0: 7bb8 493d 77e8 c1bc ac6b 213d 7ca1 d33c
000001d0: d487 02bd bc33 543c 6b67 d13c 102a f9ba
000001e0: ecd3 06bd 1489 18bd 3e5e d13c 25d3 06bd
000001f0: 894d 97ba 5505 963c ea9f 3a3d 2c88 c9bc
00000200: 317e 5cbc b6ce dab7 3db1 6e3b 52e2 8bbd
00000210: f380 273d 5139 a13c ac7f c43c 6f94 003a
00000220: e7a4 013d 36ad 14bc 43c0 6d3c 3438 2c3c
00000230: 2ae2 f6bc fb19 2fbd fbe6 893c c1a0 d1bc
00000240: 966b 70bd 49a5 e43c 89cd 333d 600e 1abc
00000250: 719f 21bd 1e3a 3f3c 01ea 2f3d 0ba7 68bc
00000260: c162 6abb adf9 e53c 8564 82bd c15f ff3c
00000270: f975 39ba bee6 5dbd 2a2e 0e3c 7502 40bb
00000280: 9906 44bd 3b5a 41bd 1074 d53c ddef 0a3a
00000290: 6762 a8bc efc2 ea3c 2a22 a93c 0092 82bd
000002a0: bd14 b6bc bf74 00bd ac30 1e3d b77a a73a
000002b0: eabd 8d3c fd31 623d 2b71 1c3c be09 79bd
000002c0: 95f1 ffbc ef1a 7a3d 653e 453d f66a ad3c
000002d0: 4cfc 923c da39 25bd b7e3 8c3c 3ca8 dc3c
000002e0: b1d3 253b 2345 67bd 6ba8 e73c 2907 4dbd
000002f0: 241a c0bc 44ce 71bc 8375 373c adc3 763d
00000300: a7ce 2bbb 78a4 803d a364 cabc 13bb 52bd
00000310: c2e5 10bd fed8 013c 545f 76bc 1619 cdbc
00000320: af4a 8e3c 425e 1fbd 5ad8 673d 62c5 14bd
00000330: 884a 65bd f9fb 9bbc 4294 423d 0b62 813d
00000340: 5e42 2abd 7e38 653d 75dd 4d3d 6014 c0bb
00000350: 5fc6 72bd 3ce6 723b fef4 35bd d3c0 a03c
00000360: 72f5 1b3d e5f0 66bd cb63 803b 67be cebc
00000370: 8269 383d 4896 003d db08 06bd 4320 1cbd
00000380: 1e42 bdbc 22b8 23bd 8bad 4f3c 2655 a3bc
00000390: fcee 8d3d a42d dd3c ac68 f2bc bbfd a1bc
000003a0: bd1d 79bd 44a3 2ebd f996 04bd e3a2 46bd
000003b0: 3fea a83c 3826 233d 5e3f 87bd 1f53 33bd
000003c0: 9d14 473d 7a48 c93c 29f1 3d3d d007 383d
000003d0: d710 28bd 78e8 49bd 2bf1 9ebc 22f8 b43c
000003e0: 1df0 42bd 5b04 85bd 9090 8f3b bdb1 293d
000003f0: 1872 b73c f69e 27bd 7e40 e2bc fc06 113d
-0.024196817 -0.02698389 -0.02631092 0.007962058 -0.035340335 0.026712982 -0.045565013 0.018539175
0.042929072 0.007798216 0.027651617 0.064222276 0.04179754 0.01833851 0.012113608 -0.054902017
0.052001547 -0.033333275 -0.061426643 -0.01078592 0.04368841 0.019151421 -0.006431091 0.049862843
0.03009289 -0.052043397 0.02287121 -0.011130558 0.031052826 0.009606178 0.025124947 -0.050178748
-0.046004005 0.014220196 -0.05258022 0.01963736 0.00051497895 -0.052861392 0.02283127 0.013452523
-0.04460236 -0.04426109 0.04392055 0.024452897 -0.019058367 -0.0023863278 0.020626187 -0.018175187
-0.050810944 -0.008033738 -0.014002297 -0.041663364 -0.06215276 -0.0048934575 -0.035900794 0.03360701
-0.039716452 0.04870523 -0.009984168 0.051460043 0.041754786 -0.029578827 -0.019929558 -0.029336456
0.029757693 -0.01976075 -0.009735261 -0.02653143 0.046276823 -0.048160702 -0.024308756 0.011364324
0.015818583 -0.0139542315 0.048476174 -0.03445766 0.053957935 0.029395994 0.02819076 0.020320985
0.050226405 -0.005213646 -0.032709498 -0.015533032 -0.015453753 0.04801167 -0.03682494 -0.019370217
-0.023507642 0.059331298 -0.018829223 0.045487307 0.011149573 -0.055353247 0.0004336902 0.057048008
0.0053861206 0.015260055 -0.045061603 -0.0336941 -0.009974839 0.058729425 -0.012622377 -0.0225448
-0.058611088 -0.037722174 -0.018211389 -0.043099314 -0.034086984 -0.054466043 0.006314922 -0.04379211
0.0492482 -0.023670418 0.039409325 0.025833838 -0.031867817 0.012951788 0.025562009 -0.0019009728
-0.03291695 -0.037240103 0.025557633 -0.032916207 -0.0011543493 0.01831309 0.045562662 -0.024601065
-0.013457821 -2.6083882e-05 0.003642156 -0.068302765 0.04089446 0.01968065 0.02398666 0.0004904931
0.031651404 -0.0090745 0.014511171 0.010511447 -0.03013714 -0.042749386 0.016833773 -0.025589349
-0.058696352 0.027910845 0.043897185 -0.009402841 -0.039458696 0.011671571 0.042947773 -0.014199982
-0.0035764428 0.028073156 -0.06366829 0.031173589 -0.0007074769 -0.05417513 0.008677999 -0.002929834
-0.047857855 -0.04720519 0.02605632 0.00053000246 -0.020554734 0.028657405 0.020646174 -0.063755035
-0.022226686 -0.031361338 0.038620636 0.0012777661 0.017302472 0.055223454 0.009548466 -0.060800306
-0.031243125 0.061060842 0.048155207 0.021169167 0.01794257 -0.040338375 0.017198427 0.02693569
0.002530318 -0.05646242 0.02827855 -0.050055657 -0.023449965 -0.01475865 0.011197451 0.060245205
-0.0026215704 0.0628137 -0.02470619 -0.05144794 -0.035375364 0.00792527 -0.015037376 -0.025036376
0.017369596 -0.03890825 0.056602813 -0.03632105 -0.05597928 -0.019041048 0.04750467 0.06317528
-0.0415672 0.05596208 0.050260026 -0.005861804 -0.059271213 0.00370635 -0.044423096 0.019623196
0.03807587 -0.05638208 0.0039181462 -0.025237275 0.045022495 0.03139332 -0.03272329 -0.038116705
-0.023102816 -0.039970525 0.012675653 -0.019938063 0.06930348 0.026999302 -0.029590927 -0.019774308
-0.060819376 -0.04263617 -0.03237054 -0.048495185 0.02061951 0.03983137 -0.06603883 -0.043780442
0.048603643 0.024570692 0.046372566 0.044929326 -0.041031685 -0.049293965 -0.019402107 0.022090975
-0.04759227 -0.06494971 0.004381247 0.04142927 0.022393271 -0.04092308 -0.027618643 0.03540705

model.3.bias f4 [512]
00000000: a967 eabb 9ea2 943c 64ff 6d3d e9dd b3bc
00000010: 3e57 ac3c f7c1 62bd f31e 1bbd 374e 3c3d
00000020: 5ecf 7cbd 4099 b03a 55ec 933b 9b58 1d3c
00000030: ad89 813c a66b 423d b3c4 013d 48ac dfbc
00000040: 6397 4ebd 7b39 e5bc 3986 b93c aa31 2f3d
00000050: 66ed 70bd 3f54 c23c 0307 703d e92f cb3c
00000060: c9f9 8aba 36e0 d83c c311 97b8 6823 273d
00000070: 306d ea3b 4223 943c 769c 203c d647 683c
00000080: e1ce 4f3d 0f65 53bd 2aa0 543d 658e e63c
00000090: 5a3c 39bd 81e1 dabc 202c 1c3c de27 6ebd
000000a0: ed20 243b acc4 4cba fd63 703d 6236 3cbd
000000b0: ee7f b3bb 003a 3dbd a93a 58ba 7cc8 60bd
000000c0: fb88 21bc 0a01 5dbd 5cee 43bd 762d 3e3d
000000d0: b33a 3c3c 3604 3cbd cabf 1dbd 132d a9bb
000000e0: d6b9 34bd 34b7 33bc 6679 a73c 2688 933c
000000f0: 637b d8bc 9550 42bd c2c6 913c dfdc 62bd
00000100: 8954 cbbc 71f9 35bd 57b6 53bc 3410 9bbb
00000110: 3b0c 3dbd 5876 3abd 9100 0f3d a4f4 a43c
00000120: 3d64 31bc 8063 06bd 2aa4 5fbd 0f13 c33c
00000130: a41b 693d 7895 98bb 850a 32bd f095 293d
00000140: 619f de3c c8db 423d 30e9 4abd 32c6 cdbc
00000150: d9ab b2bc 9232 08bd 136f 313d 8be1 4d3d
00000160: bbbc 823c bcbe a23c 480e ae3b c9e2 7abd
00000170: bef6 6ebd da5e 1dbc 9281 9dbb d516 4cbc
00000180: 206d 773c 5ccc 443d ca54 05bd 6dc8 763d
00000190: d1be 2bbc 8c4e 813d 3673 c73b b468 0dbd
000001a0: 53d7 2f3d 4c63 443c 283a 64bc de5d ce3c
000001b0: 6473 47bc f15e fc3c 5772 3c3c 2ee9 03bc
000001c0: f9c0 2d3d 1b04 b33b ecd8 cc3b 963d 34bd
000001d0: f98d 0a3c 5c74 48bd b84c 58bd 919b 5d3d
000001e0: bd6d c5bc 3910 fc3c 92b5 0e3d 83e2 0fbd
000001f0: 3682 ad3c 53e4 d43b 53a1 5ebc b26d 2b3d
00000200: 81f8 b53b 29e7 303d 0b74 223d 8321 763d
00000210: d7b1 febb 5373 8e3c 15c9 8b3c d76f 863c
00000220: 8cd5 713c f6b8 7dbc ad9e b93c 702c c9bc
00000230: 5623 bb3c 265f 433d 4f19 d73c 5c5c 23bd
00000240: 0792 073d 2451 533d b9eb 6fbc d8c8 413d
00000250: f881 03bc b9ea 20bd 544c 7bbd f874 d53c
00000260: b18f 413b 961a b5bc f1a4 3c3d 64af 1a3d
00000270: 4d08 5dbd 6740 85bb 023c 59bc 5e8b 0e3d
00000280: 0b3e 8abc 44b3 12bd 97b8 5b3d 7e49 883c
00000290: 0e95 2cbc ebaa 76bd f06b 28bd 8495 703d
000002a0: fbcc 773c d1a0 f03c c6c0 343d f022 aabc
000002b0: c8ed 28bd 6b7a 643c e193 61bd c4c6 e23c
000002c0: af1a 1c3d d2a9 c8bc 0c53 2ebc 39ef c1bc
000002d0: 71ab a6bc a675 153d 8773 693c 5863 76bc
000002e0: c528 7b3d 0d3c 0e3d 3ebe 233d 9322 35bc
000002f0: c1d3 2f3d 2a92 0fbd 9985 31bd e963 023d
00000300: 0e75 25bd a155 3c3d 58a1 62bd 1d27 e6bc
00000310: 5c8f 4ebd 8bd8 ae3b 5d8d 86bc f9e1 143d
00000320: 64e7 ecbb f033 a1bc 49e9 c73b efa9 243d
00000330: a804 0f3d 09d0 a73c 3e66 873c 001a 86bb
00000340: 6e74 b73c 3830 2d3d 661e 4a3c 7637 aebc
00000350: 67a0 953c 3b93 f23c 2870 8d3c 690f 9138
00000360: 103b 763c 448f d33c 4874 00bd fd56 2f3d
00000370: 2ef0 01bd d491 8a3b 383d 093d e3a7 69bd
00000380: 8fc8 fcbc 255c 04bd f4fc b93c 4828 82bd
00000390: ac27 e0bc 0a3c bf3c b71b 303d 5a82 d73c
000003a0: 92e4 56bd 1091 c03c 2670 c33c 37d2 073d
000003b0: 5b1a 1a3d 8056 36bc 8c54 6cbd e73d 2e3d
000003c0: ece4 9f3c 2638 143c 1e19 adbc 57cf 3bbd
000003d0: 594c 5cbd 7fcf b53c 820d 473d fe7a 4b3d
000003e0: 0151 6abd 957d 7e3d d71e 06bd fca2 4f3b
000003f0: cbf5 623d 7f6c 113d 2fbb c63b 00be 75bd
-0.0071534705 0.018143948 0.058104888 -0.021956401 0.021037694 -0.05536076 -0.037871312 0.04597303
-0.0617212 0.0013473406 0.004514257 0.009603645 0.01581272 0.047465943 0.031681728 -0.02730383
-0.050437342 -0.02798151 0.02264701 0.042771973 -0.05882015 0.023721812 0.058600437 0.024803119
-0.0010603006 0.0264741 -7.2035495e-05 0.04080525 0.0071541294 0.018083218 0.009802928 0.014177283
0.050734404 -0.05161005 0.051910557 0.02814407 -0.04522357 -0.026718857 0.009532005 -0.05814349
0.002504404 -0.0007811289 0.058689106 -0.0459503 -0.005477897 -0.04619789 -0.0008248487 -0.054878697
-0.009859319 -0.05395607 -0.04783474 0.046430074 0.011488604 -0.045902453 -0.038512982 -0.005162844
-0.04412254 -0.010968972 0.02044363 0.018009257 -0.026426023 -0.04744013 0.01779497 -0.05538642
-0.024820583 -0.04442734 -0.012921891 -0.004732156 -0.046154242 -0.045523018 0.03491265 0.020136185
-0.010827121 -0.032809734 -0.05459992 0.023812799 0.056911126 -0.00465649 -0.043467063 0.041402757
0.027175607 0.04757288 -0.04953879 -0.025118921 -0.021810459 -0.033251353 0.04331882 0.050263923
0.015959134 0.01986634 0.005311761 -0.061251435 -0.05834078 -0.009605134 -0.0048067058 -0.012456615
0.015101701 0.048046455 -0.032551564 0.060249735 -0.010482506 0.0631381 0.0060867323 -0.03452368
0.04292996 0.011986565 -0.013929881 0.025191244 -0.012173507 0.03080699 0.01150187 -0.0080512
0.04242036 0.005463136 0.006251445 -0.044004045 0.0084567005 -0.048939094 -0.05280754 0.054103438
-0.024100179 0.030769454 0.034841128 -0.035128128 0.021180253 0.006496945 -0.013588267 0.04185266
0.0055533056 0.0431892 0.03966145 0.060090553 -0.007772665 0.017388975 0.017063657 0.016410751
0.014760386 -0.015485993 0.02265867 -0.024557322 0.022843998 0.047698162 0.026257185 -0.039883003
0.033098247 0.051591054 -0.014643603 0.04731068 -0.008026592 -0.03928635 -0.06135209 0.026056752
0.002953511 -0.022107404 0.046055738 0.03776492 -0.053962994 -0.0040665152 -0.013258936 0.03480088
-0.016875288 -0.035815492 0.053642835 0.016636606 -0.010533584 -0.060221594 -0.041118562 0.05873634
0.015124555 0.029373558 0.044129156 -0.020768613 -0.04124239 0.013945202 -0.05507267 0.02768267
0.038111385 -0.02449504 -0.010639917 -0.02367364 -0.020345422 0.03648915 0.014248735 -0.015038334
0.061318178 0.034725238 0.03997635 -0.011055606 0.042926554 -0.035051502 -0.0433403 0.031833563
-0.040394835 0.0459801 -0.05532965 -0.028094823 -0.050429687 0.0053358725 -0.01642483 0.036348317
-0.0072297323 -0.019678086 0.006100808 0.040201124 0.03491655 0.020484941 0.016528245 -0.004092455
0.022394385 0.042282313 0.012336349 -0.02126668 0.018264962 0.02961122 0.017265394 6.917009e-05
0.01502873 0.02582515 -0.031360894 0.042807568 -0.031723194 0.00422881 0.03350565 -0.057044875
-0.030857353 -0.03231444 0.022703625 -0.06355339 -0.027362667 0.023344059 0.04299518 0.026307274
-0.052464075 0.023506671 0.023857187 0.03315946 0.03762279 -0.011129022 -0.057697818 0.042539503
0.019518338 0.00904659 -0.02113014 -0.04585203 -0.05378375 0.022193668 0.048596866 0.04967784
-0.057206158 0.062131483 -0.032744255 0.003168284 0.055410188 0.03550386 0.0060647945 -0.05999565
