pythorch saved models/fgan2_discriminator_dec.pth (torch, 707624 bytes, 5 tensors)

feature.0.weight f4 [512, 86]
0	0xba5c3518	-0.00084002456
1	0x3d3af264	0.045641318
2	0xbdb72f23	-0.089445375
3	0xbd4e2c2e	-0.0503351
4	0xbd9eb4e3	-0.07749345
5	0xbd84e855	-0.06489626
6	0xbd94c46e	-0.072640285
7	0xbc9da32c	-0.019242845
8	0x3d0204b1	0.031742755
9	0xbae1e174	-0.0017233328
10	0x3e08e9a0	0.13370371
11	0x3c2f3331	0.010693357
12	0xbdafbb71	-0.085806735
13	0xbd1a7aeb	-0.03771488
14	0x3d8192d5	0.06326834
15	0x3dc24fa5	0.09487847
16	0xbd2cb73a	-0.042166926
17	0x3bcdc874	0.0062799994
18	0x3d9a392b	0.07530435
19	0xbd53c844	-0.05170466
20	0xbd39714a	-0.045274056
21	0x3d3cfcca	0.046139516
22	0x3aa073a0	0.001224149
23	0xbd31e188	-0.043427974
24	0xbc20c41e	-0.009812383
25	0x3c09418d	0.008377445
26	0xbc9f3310	-0.019433528
27	0xbbb72801	-0.0055894856
28	0x3ce40adb	0.027837208
29	0x3c71d87f	0.014761089
30	0xbc5a44de	-0.013322083
31	0xbe406d05	-0.18791588
32	0xbcf72212	-0.030167613
33	0x3e3695fe	0.17830655
34	0xbd7a0f65	-0.061049838
35	0xbdbb1931	-0.09135664
36	0x3dc072b7	0.0939688
37	0x3d9f80df	0.07788252
38	0xbd11db79	-0.035609696
39	0xbcd89e3b	-0.026442638
40	0xbd5cad95	-0.05387648
41	0x3d1ec4c2	0.03876186
42	0x3dd56cf3	0.10421171
43	0x3d47dbb5	0.048793513
44	0x3d3c8766	0.046027564
45	0x3dd9c7bc	0.106337994
46	0xbdcd1590	-0.10013878
47	0x3d5140f2	0.051087327
48	0xbd0abe2f	-0.03387278
49	0x3cfae0e2	0.03062481
50	0x3bb8df85	0.00564188
51	0x3d88f294	0.06686893
52	0xbd921e11	-0.07134641
53	0x3e47c5a6	0.1950899
54	0x3ccbc476	0.024873953
55	0x3d064c0e	0.032787375
56	0x3c368ab3	0.011141467
57	0xbc456332	-0.012047576
58	0x3ce5f6c8	0.028071776
59	0x3c767faa	0.015045086
60	0xbe6a27c4	-0.22866732
61	0xbe877cbe	-0.26462358
62	0xbe853e5c	-0.2602414
63	0xbe3c3353	-0.18378954
64	0xbd8b4ff8	-0.06802362
65	0xbc4aba2e	-0.01237349
66	0x3d1e261f	0.038610574
67	0x3b1ed4cc	0.0024235724
68	0xbda4e96e	-0.08052336
69	0x3d25609b	0.040375333
70	0x3d744f28	0.0596458
71	0xbd1050c3	-0.03523327
72	0x3c45c3ae	0.012070579
73	0xbc332ed6	-0.0109364595
74	0xbd00ee8a	-0.03147749
75	0xbd6e5209	-0.058183704
76	0xbc078ccd	-0.008273316
77	0xbc3ae4a0	-0.0114070475
78	0x3e3aa5df	0.18227337
79	0xbc043cc0	-0.008071125
80	0xbd52abcd	-0.051433373
81	0xbddd7c6c	-0.10814747
82	0xbd96ea4a	-0.07368906
83	0x3d299b24	0.04140772
84	0xbe04a5ec	-0.12953919
85	0xbcd46a02	-0.025929455
86	0x3b525f65	0.0032100317
87	0x3def7bae	0.11693512
88	0x3d1e86fa	0.038702942
89	0xbc11e728	-0.00890521
90	0x3d6bbbec	0.057552263
91	0xbd62f40e	-0.05540853
92	0x3d0236b0	0.031790435
93	0x3c57d633	0.013173628
94	0x3dbd9dbc	0.09258601
95	0xbd8e58e7	-0.069505505
96	0x3d9e61b4	0.07733479
97	0xbe1549f6	-0.14578995
98	0x3d0c4b07	0.03425124
99	0xbdc1f58f	-0.09470665
100	0x3df511ec	0.11966309
101	0x3e098a47	0.13431655
102	0xbd45ffef	-0.04833978
103	0xbc880b9f	-0.016607104
104	0xbcde6420	-0.027147353
105	0x3d8e5ca7	0.06951266
106	0xbd1b6d51	-0.03794605
107	0xbe190b29	-0.14945664
108	0xbe15d41d	-0.14631696
109	0xbd95d6e7	-0.0731638
110	0x3beed2c4	0.007288309
111	0x3d9ac500	0.07557106
112	0xbdfbb9c0	-0.122912884
113	0xbcba6cec	-0.022757016
114	0xbd8a7e7b	-0.067624055
115	0x3d9b7cb2	0.07592143
116	0x3dab1b16	0.083547756
117	0x3cea603f	0.028610347
118	0x3cc1cc08	0.02365686
119	0x3c2fb1bc	0.0107235275
120	0x3d26f07c	0.040756688
121	0xbd8887fd	-0.06666563
122	0x3dce60ea	0.10077079
123	0xbdb3a3ba	-0.08771463
124	0xbcbb6dcc	-0.022879504
125	0x3dd7d980	0.10539532
126	0x3d965179	0.073397584
127	0x3d487f2d	0.04894941
128	0x3d0bbddc	0.03411661
129	0xbdc6225c	-0.09674522
130	0x3da43e50	0.08019698
131	0x3d7096b7	0.058737483
132	0x3d30b061	0.043136958
133	0x3c447cbb	0.011992629
134	0x3d57a489	0.052647147
135	0x3cd19e53	0.02558819
136	0x3ccb1c7c	0.024793856
137	0xbd777fb7	-0.060424533
138	0x3c05300f	0.008129134
139	0x3db06836	0.08613627
140	0x3d6be88e	0.05759483
141	0x3e1b9d8e	0.15196821
142	0x3cbf2945	0.023335109
143	0xbcdbbfdc	-0.026824884
144	0x3da94e7a	0.08266921
145	0x3c18fb08	0.009337194
146	0x3cd36d72	0.025809024
147	0x3e2b0a26	0.1670309
148	0x3c66fbf8	0.01409816
149	0xbd723f24	-0.059142247
150	0xbdac5a2b	-0.08415636
151	0x3d83be44	0.06432775
152	0xbdc141b8	-0.09436363
153	0xbdb4ace6	-0.0882204
154	0xbb621726	-0.003449866
155	0xbdd17a24	-0.102283746
156	0x3e009fb6	0.12560925
157	0xbe1a0423	-0.1504064
158	0xbd9e47f2	-0.07728566
159	0xbcffda0b	-0.0312319
160	0xbdd71719	-0.105024524
161	0x3d60fd4a	0.054929055
162	0xbd83ecd7	-0.06441658
163	0xbd88b017	-0.066742115
164	0xbcceb33c	-0.02523195
165	0xbde955b5	-0.113933004
166	0xbd5a1032	-0.0532381
167	0xbde8b2ce	-0.11362229
168	0xbd9a102c	-0.07522616
169	0xbd9b009e	-0.07568477
170	0xbd9772de	-0.07394956
171	0x3d8b8ee5	0.06814364
172	0xbce2f266	-0.027703475
173	0x3d8d407e	0.068970665
174	0xbd08f94a	-0.033440866
175	0x3cca3b4f	0.024686484
176	0x3bde603b	0.006786374
177	0x3dbe9e70	0.09307563
178	0xbdc34796	-0.09535138
179	0xbd0175af	-0.031606372
180	0x3c9534a0	0.01821357
181	0x3cfc4ed3	0.030799305
182	0x3db082e2	0.08618714
183	0xbd52c8b6	-0.051460944
184	0x3ddb4bed	0.10707841
185	0xbd8fca25	-0.07020978
186	0x3d4ae394	0.04953344
187	0xbe35e5be	-0.17763421
188	0x3a9556fb	0.001139372
189	0x3cf9fcb7	0.030516012
190	0xbbd55e40	-0.0065114796
191	0x3dac10e6	0.084016606
192	0xbdba5edc	-0.09100124
193	0xbc144821	-0.0090504
194	0xbc859cf9	-0.016310202
195	0x3cf08a08	0.029362693
196	0xbbbd2b08	-0.005772952
197	0xbd214f0a	-0.03938202
198	0x3ca65a15	0.020306626
199	0xbc930a93	-0.017949378
200	0x3d870a18	0.06593722
201	0xbce142cb	-0.02749767
202	0xbdef42ce	-0.11682664
203	0x3d8b750d	0.06809435
204	0xbda693cf	-0.08133661
205	0xbd3a7d3b	-0.045529585
206	0xbd4e3014	-0.05033882
207	0xbce98d90	-0.028509885
208	0xbd3197d5	-0.04335769
209	0xbd9800e6	-0.07422046
210	0xbd7eca80	-0.062204838
211	0xbd8a49e9	-0.067523785
212	0x3e0f40e3	0.13989596
213	0x3d3557db	0.04427324
214	0x3d6ab00d	0.0572968
215	0xbdc95e28	-0.09832412
216	0xbd852d28	-0.065027535
217	0xbee91b30	-0.45528555
218	0xbd480b42	-0.04883886
219	0x3bfa6b82	0.0076422105
220	0xbc1ea1df	-0.009682148
221	0x3d137c22	0.036007054
222	0x3d80cd76	0.062891886
223	0x3d37f3be	0.044910185
224	0x3cb65228	0.022255972
225	0xbb95e3de	-0.004574283
226	0x3d4dbd34	0.050229266
227	0xbd4a42f6	-0.049380265
228	0xbe0fc2ec	-0.140392
229	0xbd078454	-0.033085182
230	0x3d94b095	0.07260243
231	0x3bbb16be	0.005709498
232	0xbd0ad582	-0.033895023
233	0xbd8eb219	-0.06967563
234	0x3c4860bd	0.012230095
235	0xbdbdbc72	-0.09264459
236	0xbd60392f	-0.054742035
237	0xbbe8be46	-0.0071027605
238	0xbd93d8b0	-0.07219064
239	0x3cfe1673	0.031016564
240	0xbbda08d2	-0.0066538835
241	0xbd5a403f	-0.053283926
242	0xbc3ee0da	-0.0116502885
243	0xbd9fed9e	-0.07808994
244	0xbd295027	-0.041336205
245	0xbd00762d	-0.0313627
246	0x3d0bf0be	0.034165137
247	0xbd8011da	-0.06253405
248	0x3ce22f68	0.027610496
249	0xbcb07ab4	-0.021542884
250	0xbd965d0e	-0.073419675
251	0xbcd6b9ae	-0.026211586
252	0xbd519c61	-0.051174525
253	0xbcc3ad45	-0.023886332
254	0xbd1a2c93	-0.037640166
255	0xbd892744	-0.066969424

feature.0.bias f4 [512]
0	0xbcbedc05	-0.023298273
1	0xbe7a8605	-0.24465187
2	0xbc85ced9	-0.016333984
3	0xbe1442c2	-0.14478591
4	0x3e30a072	0.17248705
5	0xbd9b20a1	-0.07574583
6	0xbe2bd931	-0.1678207
7	0xbe06b004	-0.13153082
8	0x3bd2b5b7	0.0064303535
9	0xbc939b88	-0.018018499
10	0xbe06133f	-0.1309328
11	0xbd00d366	-0.031451605
12	0x3d9483a2	0.072516695
13	0xbe6f7f78	-0.23388469
14	0xbe17c6d7	-0.14821945
15	0xbe343622	-0.17598775
16	0x3e0fc84f	0.14041255
17	0xbd24ad50	-0.040204346
18	0xbe066baa	-0.13127008
19	0xbe4b204c	-0.19836539
20	0x3dae07ac	0.08497557
21	0xbc906ff4	-0.017631508
22	0xbd37552b	-0.044758957
23	0x3e45cac8	0.19315636
24	0xbe76ebde	-0.24113414
25	0xbdc82973	-0.09773531
26	0xbda98ff0	-0.08279407
27	0x3d849ff9	0.06475825
28	0x3d3282a4	0.04358162
29	0x3d7fb8de	0.062432162
30	0xbd253677	-0.040335145
31	0xbdca272e	-0.09870754
32	0xbd708f0a	-0.058730163
33	0x3df91d8a	0.12163837
34	0xbe02411a	-0.12720147
35	0x3e042672	0.1290529
36	0xbd988238	-0.07446712
37	0x3bb66cf8	0.0055671893
38	0x3e521f15	0.2051967
39	0xbd5f86da	-0.054571964
40	0xbe1595f7	-0.14607988
41	0xbde7a7fc	-0.11311337
42	0xbbd4fb65	-0.006499695
43	0xbe2d0306	-0.16895685
44	0xbe466732	-0.19375303
45	0x3e053b4a	0.13010898
46	0x3e14bf4b	0.14526097
47	0xbe275676	-0.16341576
48	0xbc010188	-0.0078739
49	0x3e1ccfb8	0.15313613
50	0xbe322a8e	-0.17399046
51	0xbe3f37e4	-0.18673664
52	0x3d2979d9	0.04137597
53	0xbe0cfe61	-0.13768913
54	0xbd68ec06	-0.056865714
55	0xbdabed5c	-0.08394882
56	0x3e5f6e79	0.21819486
57	0xbe37eff1	-0.17962624
58	0xbcd39b1f	-0.025830803
59	0xbd601026	-0.0547029
60	0xbce44f60	-0.02786988
61	0x3db3e2b6	0.08783476
62	0xbdf57529	-0.11985237
63	0xbd2036d6	-0.039114796
64	0x3e7e6cb6	0.24846157
65	0xbdd0a409	-0.10187537
66	0x3db3e34d	0.087835886
67	0xbdada31a	-0.08478375
68	0xbd6948e8	-0.056954294
69	0xbe008983	-0.12552457
70	0x3d9218e8	0.07133657
71	0xbdb68b3d	-0.08913276
72	0xbd5dc7b1	-0.05414552
73	0xbe392cc7	-0.18083487
74	0xbe1ebc38	-0.15501487
75	0x3e1f83fb	0.1557769
76	0xbe0c392a	-0.13693681
77	0xbe82388f	-0.25433776
78	0xbe0b7341	-0.13618185
79	0xbe521b94	-0.20518333
80	0xbcb83b9d	-0.022489363
81	0x3e1c52b1	0.1526592
82	0xbc6c354a	-0.014417002
83	0x3e13aa57	0.14420448
84	0xbde9d332	-0.114172354
85	0xbdddfd70	-0.10839355
86	0xbde150e3	-0.11001756
87	0xbd1aa760	-0.037757277
88	0xbceb9a82	-0.028760199
89	0x3db5dbc3	0.08879807
90	0xbd5c25cc	-0.053746983
91	0xbd0ec8ce	-0.03485947
92	0x3e519ec1	0.20470716
93	0x3debe5e2	0.11518456
94	0xbd753861	-0.05986822
95	0x3e29c3f9	0.16578664
96	0xbd865007	-0.06558233
97	0x3d7a9371	0.061175767
98	0xbe097a76	-0.13425621
99	0xbdf5c02d	-0.11999545
100	0xbda1c896	-0.07899587
101	0x3d839c22	0.06426264
102	0x3d9a8f10	0.07546818
103	0x3b3d9191	0.0028925876
104	0x3c9ab20f	0.018883733
105	0x3d4da74c	0.050208375
106	0xbc4a6896	-0.012354037
107	0xbdff3898	-0.12461966
108	0xbe07191b	-0.1319317
109	0xbe0a0e69	-0.1348206
110	0x3db99e3e	0.090633854
111	0xbe50b1e8	-0.20380366
112	0xbe5e15b9	-0.21687974
113	0xbc5829ac	-0.013193529
114	0x3de800cb	0.11328276
115	0xbe234cf8	-0.1594733
116	0xbd8d7cd0	-0.06908572
117	0xbd7229fe	-0.059122078
118	0x3dd05af1	0.10173596
119	0xbc9ec89b	-0.019382766
120	0xbe3cdc76	-0.18443474
121	0x3db626ff	0.08894157
122	0x3cd9574a	0.02653088
123	0x3e038920	0.12845278
124	0x3e0fd59d	0.14046331
125	0x3d83fc57	0.064446144
126	0xbe27dbf8	-0.16392505
127	0xbe39f8d4	-0.18161327
128	0x3d8503d8	0.06494874
129	0xbe047991	-0.12936999
130	0x3dd63836	0.1045994
131	0x3e2f4025	0.17114313
132	0xbdff9f69	-0.12481577
133	0x3e16d9cd	0.14731522
134	0x3e0501ec	0.12989014
135	0xbe090faf	-0.13384889
136	0xbe414623	-0.18874411
137	0xbde05fac	-0.10955748
138	0xbe5235fa	-0.20528403
139	0x3dcf8bd0	0.10134089
140	0x3d247566	0.040151022
141	0x3d014da4	0.031568184
142	0xbcbc3e79	-0.022979008
143	0xbaaf8f23	-0.0013394098
144	0xbd2f44d6	-0.042790256
145	0xbd86f028	-0.06588775
146	0x3d60cfb8	0.054885596
147	0x3db46b51	0.088095315
148	0xbdbcff06	-0.09228329
149	0x3db0e2e4	0.08637026
150	0x3dc7bcec	0.09752831
151	0x3dd317f0	0.103073
152	0xbd6e4dad	-0.058179546
153	0x3dc3cb48	0.09560257
154	0xbe2226ac	-0.15835065
155	0x3d0af42f	0.033924278
156	0x3d7c7174	0.061631635
157	0xbdd32700	-0.10310173
158	0xbdb91267	-0.09036713
159	0x3d84220f	0.06451809
160	0xbe8f566d	-0.27995625
161	0xbe2a0446	-0.16603193
162	0xbe4a2f70	-0.19744658
163	0x3da6bd7e	0.081416115
164	0xbe890a40	-0.26765633
165	0x3de99e9b	0.11407205
166	0x3e01ef24	0.12688881
167	0xbd50eea6	-0.051008843
168	0x3d9f2cc6	0.07772212
169	0xbe2e085d	-0.16995378
170	0x3e5d97c6	0.21639928
171	0xbde0af96	-0.1097099
172	0xbdb6a27c	-0.0891771
173	0x3e23bd63	0.15990214
174	0xbe0b90af	-0.13629411
175	0xbe35ea90	-0.1776526
176	0xbda1ab13	-0.07893958
177	0xbda1c464	-0.07898787
178	0x3e253978	0.16135204
179	0x3e220752	0.15823105
180	0xbc8c0c2f	-0.017095653
181	0xbd84ab86	-0.06478028
182	0x3d9db4a9	0.07700474
183	0xbdf5f9f9	-0.12010569
184	0xbe0bbacc	-0.13645476
185	0xbe2c7e15	-0.16844971
186	0x3e04045b	0.12892286
187	0xbe166e28	-0.14690459
188	0xbded8cb7	-0.11599105
189	0xbe4fe642	-0.2030268
190	0xbd1c26fd	-0.03812312
191	0x3cbe4b6a	0.02322932
192	0xbd9e17f8	-0.077194154
193	0xbe6e36f4	-0.2326315
194	0x3de362de	0.11102842
195	0xbbf0ca32	-0.0073483223
196	0xbe45d7c4	-0.1932059
197	0xba312bfd	-0.0006758569
198	0xbde7676b	-0.11299022
199	0xbd261fb0	-0.040557563
200	0xbd9cbca8	-0.07653171
201	0x3b736cbe	0.0037143673
202	0xbe52a538	-0.20570838
203	0x3d8bb941	0.06822444
204	0xbd18ec21	-0.037334565
205	0xba72529a	-0.0009243876
206	0x3d2ad27b	0.041704636
207	0xbc6a07c6	-0.01428408
208	0xbdf749e5	-0.12074641
209	0x3d98593b	0.07438894
210	0xbd20b6af	-0.03923672
211	0x3e04c540	0.1296587
212	0xbdaca6e8	-0.08430272
213	0xbc04cb92	-0.008105176
214	0xbde94644	-0.11390355
215	0x3da62431	0.08112372
216	0x3e41533c	0.18879408
217	0x3e461438	0.1934365
218	0x3d46e54f	0.04855853
219	0xbd7139be	-0.058892958
220	0xbd03e669	-0.032202158
221	0xbe12b249	-0.14325823
222	0xbe17bb38	-0.14817512
223	0xbd7b7903	-0.061394703
224	0xbd7be992	-0.061502047
225	0xbe3f7555	-0.18697102
226	0xbe160b0b	-0.1465265
227	0xbdd70d79	-0.105006166
228	0x3ca2c29f	0.019868193
229	0x3d75973d	0.059958685
230	0xbb0c8984	-0.002144427
231	0x3c5e4a69	0.013567545
232	0x3db43ee0	0.08801055
233	0xbe3ec9a2	-0.18631604
234	0xbe24dcf1	-0.16099907
235	0x3deeb543	0.11655667
236	0xbccf350a	-0.025293846
237	0xbd6814c2	-0.05666042
238	0x3d1fb072	0.03898663
239	0xbc05c186	-0.008163815
240	0x3d5984b9	0.05310509
241	0x3e18d5ae	0.14925262
242	0xbe4a0a4b	-0.19730489
243	0xbd6036bd	-0.054739702
244	0xbe3356fe	-0.17513654
245	0xbd4a72a5	-0.04942574
246	0xbe3d240b	-0.1847078
247	0x3e30e8a8	0.17276251
248	0xbd8bcef4	-0.068265826
249	0xbd317e62	-0.04333342
250	0xbd80be0f	-0.06286251
251	0xbc289121	-0.010288508
252	0xbd290f76	-0.04127451
253	0xbe6a8b8b	-0.22904794
254	0x3ba6b484	0.005087437
255	0xbe25cdb6	-0.16191754

feature.3.weight f4 [256, 512]
0	0x3d1b0236	0.037843905
1	0xbd7dc9c4	-0.061959997
2	0xbb6761e6	-0.0035306155
3	0xbda35729	-0.07975609
4	0x3d660e7a	0.05616615
5	0xbcc8c8ba	-0.024509776
6	0xbd1c2f30	-0.03813094
7	0xbd86a9ac	-0.06575331
8	0x3cebb154	0.02877108
9	0xbc0abc3b	-0.008467729
10	0xbd4d2d86	-0.050092243
11	0xbd237d18	-0.03991422
12	0xbd04cb52	-0.032420464
13	0xbcaeb4fe	-0.021326538
14	0xbd3fb655	-0.046804745
15	0xbcc932d8	-0.024560377
16	0x3b88c064	0.0041733254
17	0xbd093455	-0.033497173
18	0x3c86b922	0.0164457
19	0x3c3fa486	0.01169694
20	0xbd8afa6c	-0.067860454
21	0x3d2a9045	0.041641492
22	0xbc94e734	-0.018176652
23	0x3ab12081	0.0013513715
24	0xbdcfde53	-0.10149827
25	0xbc8c8ea6	-0.017157864
26	0xbd5ffc80	-0.054684162
27	0x3c7ad3e4	0.015309308
28	0xbd58bb96	-0.05291327
29	0xbc286900	-0.01027894
30	0xbca07d1f	-0.019590912
31	0x3d230ec9	0.039809022
32	0x3ba624f8	0.005070325
33	0x3c63f470	0.013913259
34	0xbc2c6976	-0.010523191
35	0xbd4cab92	-0.04996831
36	0xbcbd4888	-0.023105875
37	0x3d8730e1	0.0660112
38	0x3d5de808	0.05417636
39	0xbbb68d75	-0.005571062
40	0xbdb3baf7	-0.08775895
41	0xbcc55ffa	-0.024093617
42	0xbd4bc741	-0.04975057
43	0xbc2a3306	-0.0103881415
44	0xbbe49b97	-0.0069765556
45	0xbcdb714f	-0.026787428
46	0x3b4aaa68	0.0030924324
47	0xbc665ee4	-0.01406071
48	0xbbe178d9	-0.0068808612
49	0x3b91b0c3	0.0044461205
50	0xbd44f9de	-0.048089854
51	0xbd6e0bb0	-0.058116615
52	0x3cb34963	0.02188558
53	0xbd59502c	-0.053054973
54	0xbb6a9526	-0.0035794466
55	0x3d467a62	0.048456557
56	0xbc203be1	-0.009779901
57	0xbd76f04f	-0.06028777
58	0x3c90270b	0.017596742
59	0xbcd60701	-0.026126387
60	0x3c7d83db	0.015473331
61	0xbcf751f8	-0.030190453
62	0xbd1aa779	-0.03775737
63	0x3d93e428	0.07221252
64	0x3b28a03e	0.0025730277
65	0xbb91caa7	-0.004449207
66	0x3d0ea8a4	0.034828797
67	0xbd04f830	-0.032463253
68	0xbd16f573	-0.036855172
69	0x3d12a521	0.03580201
70	0x3ceaa252	0.028641853
71	0xbcb473aa	-0.02202781
72	0xbcd73e77	-0.026274903
73	0xbc9c9960	-0.019116104
74	0xbcb5e5f6	-0.02220438
75	0x3d363dc2	0.04449249
76	0xbbc576a2	-0.006026105
77	0x3b052d2a	0.002032111
78	0xbd6f9c9c	-0.058498964
79	0xbd8de08b	-0.06927594
80	0x3ca05b67	0.019574834
81	0xbcce695e	-0.025196727
82	0xbbbfe236	-0.005855824
83	0x3c316379	0.010826939
84	0xbd5f37b7	-0.054496493
85	0xbc05b420	-0.008160621
86	0xbd08ba03	-0.03338052
87	0xbca50734	-0.020145036
88	0x3c90077e	0.017581698
89	0xbc803e2a	-0.015654642
90	0x3c8f0cf3	0.01746223
91	0xbd4b468f	-0.049627837
92	0xbc368c00	-0.011141777
93	0x3ca8d17d	0.020607704
94	0xbd1e6a89	-0.03867582
95	0xbd260b2b	-0.040537994
96	0x3cf028ea	0.029316384
97	0x3c280d8c	0.010257136
98	0x3d65dfd7	0.056121673
99	0x3c7ea336	0.015541842
100	0xbdcf3229	-0.10116989
101	0xbb366b3a	-0.0027834908
102	0xbbd559a9	-0.0065109325
103	0x3d05d87f	0.03267717
104	0xbce4abae	-0.027913895
105	0xbc839bae	-0.016065445
106	0xbceacf7e	-0.028663393
107	0xbd7ec5c7	-0.062200334
108	0xbd1a5ead	-0.037687946
109	0x3c15d542	0.009145083
110	0x3d2f0edb	0.042738777
111	0x3c8586af	0.016299574
112	0x3cba0ad2	0.022710238
113	0xbbe9dd56	-0.007136981
114	0x3ccc8713	0.024966752
115	0x3c55c573	0.013047564
116	0xbbecd3dc	-0.007227404
117	0xbd264c70	-0.04060024
118	0x3d590e94	0.05299242
119	0xbbaac8d9	-0.005211931
120	0xbd2d2dea	-0.042280115
121	0xbd394c78	-0.045238942
122	0x3d5b0363	0.053470027
123	0xbc61310d	-0.013744605
124	0xbd687e66	-0.056761168
125	0x3c18c9d1	0.0093254605
126	0xbd203323	-0.039111268
127	0xbdd5b678	-0.10435194
128	0xbd22b6f2	-0.03972525
129	0xbd8b5615	-0.06803528
130	0x3d5732e7	0.05253878
131	0x3c9956aa	0.018718082
132	0xbd122c2c	-0.035686657
133	0x3d5f35ff	0.054494854
134	0xbdc1af47	-0.094572596
135	0x3c80c0d4	0.015716948
136	0xbdb6acea	-0.089196995
137	0x3c975946	0.018475186
138	0xbd7f7b05	-0.06237318
139	0x3d005777	0.031333413
140	0xbca3d4cf	-0.019998936
141	0xbd51e5c8	-0.051244527
142	0xbc9539a3	-0.01821596
143	0xbc513ad8	-0.012770377
144	0xbae3eac6	-0.0017388694
145	0x3d2afde2	0.041746028
146	0x3bab301a	0.00522424
147	0x3d20e1d7	0.039277878
148	0xbcbaf216	-0.022820514
149	0xbcc30db0	-0.023810238
150	0x3db6628e	0.089055166
151	0xbab06c9b	-0.0013460101
152	0xbd22eef4	-0.039778665
153	0xbcccf8b1	-0.025020929
154	0x3ca6da63	0.020367807
155	0x3b8e191c	0.0043364894
156	0x3d8e004c	0.069336504
157	0x3b2c4074	0.0026283534
158	0x3d7309a0	0.05933535
159	0x3d57f642	0.052725084
160	0xbd9b6464	-0.07587507
161	0xbd1752bf	-0.036944147
162	0xbcdaefe0	-0.02672571
163	0x3cb92d52	0.022604618
164	0xbd2c4040	-0.04205346
165	0xbca7bd52	-0.020476017
166	0x3cb07c44	0.02154363
167	0xbce93719	-0.028468655
168	0xbc9dda74	-0.019269206
169	0x3d2e8d22	0.042615063
170	0x3d3f1875	0.046654183
171	0x3dc72789	0.097243376
172	0xbd4cd524	-0.050007954
173	0x3cc23bcc	0.023710154
174	0xbdb1788a	-0.08665569
175	0xbd3ce356	-0.046115242
176	0xbd38fdfc	-0.045164093
177	0xbcfc5dec	-0.030806504
178	0x3d29817b	0.041383248
179	0x3d47f1c0	0.048814535
180	0xbc141d7c	-0.009040233
181	0xbb46dd98	-0.0030344483
182	0x3d44f0f4	0.048081353
183	0xbcb93fa5	-0.022613356
184	0x3d0b41bc	0.033998236
185	0xbb66c10e	-0.0035210284
186	0x3d609429	0.054828797
187	0xbc9c299c	-0.01906281
188	0xbd6bcc01	-0.0575676
189	0xbd1a0dc7	-0.037610795
190	0x3c88fa21	0.016720833
191	0xbd47ba38	-0.048761576
192	0xbdb93df8	-0.09045023
193	0xbcaebb48	-0.021329537
194	0x3bae7366	0.005323815
195	0xbd0becd6	-0.03416141
196	0xbd5136e8	-0.051077753
197	0xbb2e48a6	-0.0026593595
198	0xbd2fee63	-0.042951953
199	0x39fc9bfc	0.00048181403
200	0x3c97f9f8	0.018551812
201	0x3c5772b4	0.013149906
202	0xbbab668e	-0.0052307313
203	0x3d1dbf5f	0.038512584
204	0x3c6b9873	0.014379608
205	0xbd21d30e	-0.039507918
206	0x3c597624	0.013272796
207	0xbbc8745d	-0.006117387
208	0x3c75b641	0.014997066
209	0x3cc0e25b	0.023545435
210	0x3c76f7d0	0.015073732
211	0xbc1cb99a	-0.009565735
212	0xbd4f00af	-0.05053776
213	0xbca6c0f0	-0.020355672
214	0xbca9e05c	-0.020736866
215	0x3d385e7a	0.045011975
216	0x3d30ce69	0.043165598
217	0xba7109b3	-0.00091948657
218	0xbc63be90	-0.013900414
219	0xbd34e8d0	-0.04416734
220	0xbbcd1281	-0.0062583094
221	0x3c4ea30b	0.012612115
222	0xbcec513e	-0.028847333
223	0x3ac89db3	0.0015305787
224	0xbcbdfc4a	-0.02319159
225	0xbd8cb90c	-0.068712324
226	0x3d1b602d	0.037933517
227	0xba494d5a	-0.0007679068
228	0xbd75b5d2	-0.05998785
229	0xbbb2ef7c	-0.0054606777
230	0xbca6aa7a	-0.020344961
231	0x3d05be7e	0.03265237
232	0xbd0e074c	-0.034674928
233	0xbddde605	-0.10834888
234	0xbbb4b669	-0.005514909
235	0x3b81eec1	0.0039652293
236	0xbd4ae6e1	-0.04953659
237	0xbceb174b	-0.02869763
238	0x3b046306	0.0020200624
239	0x3d395542	0.045247324
240	0xbc7e7848	-0.015531607
241	0xbd37e6a0	-0.044897676
242	0xbccfaabc	-0.025349967
243	0xbd8efa06	-0.06981282
244	0xbd895324	-0.06705311
245	0x3dd06441	0.10175372
246	0xbd79f426	-0.061023854
247	0x3cf66c8e	0.03008106
248	0xbd97cc7a	-0.07412048
249	0x3d0d8621	0.034551743
250	0x3b820964	0.0039684046
251	0xbce3d821	-0.02781302
252	0xbcd0c5ba	-0.025484908
253	0xbd27c7e6	-0.040962122
254	0x3d1b3d64	0.037900344
255	0xbc26dcaf	-0.010184451

feature.3.bias f4 [256]
0	0x3da11aa0	0.078664064
1	0xbc12e276	-0.008965125
2	0xbd4ce47d	-0.05002259
3	0xbdd453a0	-0.10367513
4	0xbdc6de02	-0.097103134
5	0x3e4caaae	0.19986984
6	0xbbd5e24e	-0.0065272218
7	0xbc320be2	-0.010867091
8	0x3cc2e268	0.0237896
9	0xbb3bf3bc	-0.0028679213
10	0x3c63f6fb	0.013913865
11	0x3c0f5221	0.008747608
12	0x3dcfc35a	0.10144682
13	0x3c9e07a2	0.019290749
14	0x3c977236	0.018487077
15	0x3d51ddb8	0.051236838
16	0x3b02dabb	0.00199668
17	0x3d904fee	0.070464954
18	0xbe087d93	-0.13329153
19	0x3d1b9d02	0.03799153
20	0xbd41103b	-0.04713462
21	0x3db968dc	0.090532035
22	0xbc85e7d2	-0.016345892
23	0xbd8a2634	-0.06745568
24	0xbc1b8c12	-0.009493845
25	0x3db11dfe	0.08648299
26	0x3da1a85e	0.078934416
27	0x3cfabb37	0.03060685
28	0x3c91eca0	0.017813027
29	0xbd11c832	-0.03559131
30	0xbd49b2fc	-0.04924296
31	0xbd9bca39	-0.0760693
32	0xbcda9562	-0.02668256
33	0x3d9da816	0.076980755
34	0xbdc4a8cc	-0.09602508
35	0x3d4ef62c	0.050527737
36	0x3d386931	0.045022193
37	0x3e083733	0.13302307
38	0x3cd4f9e3	0.025998062
39	0x3d6ca056	0.057770096
40	0x3e02a15e	0.12756869
41	0xbd419a0f	-0.047266062
42	0x3dffb6ff	0.124860756
43	0x3e12e538	0.14345253
44	0x3d0578bd	0.032585848
45	0x3e02b8a3	0.12765746
46	0x3de8520b	0.113437735
47	0x38e010c8	0.00010684278
48	0x3d974ed4	0.07388082
49	0x3dd64054	0.10461488
50	0xbc36a262	-0.0111471135
51	0x3d8bf6a9	0.06834156
52	0x3d959825	0.0730441
53	0x3db5a125	0.088686265
54	0x3d33c0aa	0.04388491
55	0x3dabba41	0.083851345
56	0xbe134518	-0.14381826
57	0x3c98f94c	0.018673562
58	0xbd5fee76	-0.054670773
59	0x3dc80962	0.09767415
60	0xbccf5a4c	-0.025311612
61	0x3e06b739	0.13155831
62	0x3cfcc29a	0.030854512
63	0x3d3435b8	0.043996543
64	0x3c679c57	0.014136395
65	0xbe3ba1f0	-0.18323493
66	0xbdfeee92	-0.124478474
67	0x3d51b87e	0.051201336
68	0x3d028d88	0.031873256
69	0x3b106566	0.0022033094
70	0xbc036160	-0.0080188215
71	0xbe328bbf	-0.17436121
72	0xbe0ff16a	-0.14056936
73	0x3d2c4e95	0.04206713
74	0x3cf90334	0.030397035
75	0x3e3d1402	0.18464664
76	0x3d3b93b1	0.045795146
77	0x3aabafea	0.0013098691
78	0x3d7181a6	0.058961533
79	0x3d595d9c	0.05306779
80	0x3d821640	0.063519
81	0x3da39977	0.079882555
82	0x3ce8427c	0.028352015
83	0xbd0091c8	-0.031389028
84	0x3d44a98e	0.048013262
85	0x3d543fea	0.051818766
86	0x3e085309	0.13312925
87	0x3d7acc95	0.06123026
88	0xbd759056	-0.059952103
89	0x3d455fd1	0.04818708
90	0x3c210e18	0.00983002
91	0x3d96360e	0.07334529
92	0xbdb977bf	-0.09056043
93	0x3e0d96ce	0.13827059
94	0x3ccc13a5	0.024911711
95	0xbd532034	-0.051544383
96	0x3af89ae6	0.0018967062
97	0x3d95d1bf	0.073153965
98	0x3d8004d5	0.06250922
99	0x3cf73dc3	0.030180817
100	0x3db9798d	0.09056387
101	0xbe15d8bd	-0.1463346
102	0xbcbafc96	-0.02282552
103	0x3aa4c4fe	0.0012570915
104	0xbd986977	-0.07441991
105	0x3d8cdc0e	0.068779096
106	0x3d412694	0.04715593
107	0x3d947891	0.07249559
108	0x3d724f95	0.059157927
109	0xbb8580c8	-0.00407419
110	0xbdc14528	-0.09437019
111	0xbd8c8b9a	-0.068625644
112	0xbdf514b2	-0.11966838
113	0xbc695610	-0.01424171
114	0x3d2812bd	0.041033495
115	0x3dd2e2f6	0.102971956
116	0xbc3510e6	-0.011051392
117	0x3e278113	0.16357832
118	0xbe0c3a27	-0.13694058
119	0xbbeaebee	-0.0071692383
120	0xbd7dd0eb	-0.061966818
121	0xbd9dcf4f	-0.077055566
122	0xbded1c6b	-0.11577686
123	0x3c55ca8b	0.013048778
124	0x3d6bf8ef	0.05761045
125	0x3d3ed294	0.04658754
126	0xbca27ddf	-0.01983541
127	0xbe26fa95	-0.16306527
128	0x3dc3b11a	0.09555264
129	0xbe07818f	-0.13233016
130	0x3dd6d7f8	0.104904115
131	0xbbd14fe2	-0.0063876966
132	0x3d02aa97	0.03190097
133	0x3d0876a5	0.033316273
134	0x3dd66ebc	0.1047034
135	0x3d13b730	0.036063373
136	0x3bff6c4d	0.007794893
137	0x3d44baea	0.048029818
138	0x3cfd7812	0.030941043
139	0xbc99d71a	-0.018779326
140	0x3cf5223c	0.02992355
141	0xbddf5bf0	-0.109062076
142	0x3b6dc1c9	0.0036278835
143	0xbdee315f	-0.116305105
144	0x3ded0ea4	0.11575058
145	0x3cee0e9b	0.029059699
146	0x3deaa34c	0.11456928
147	0xbe0c6ae6	-0.13712654
148	0x3da10bc9	0.07863576
149	0x3e0cb9d2	0.1374276
150	0xbcfba77b	-0.03071951
151	0xbd7c0a32	-0.06153316
152	0x3c758965	0.014986371
153	0x3d4f0d82	0.05054999
154	0x3d319194	0.043351725
155	0xbc9c6272	-0.019089911
156	0x3d9a6c09	0.07540137
157	0xbd8e664a	-0.06953104
158	0x3d757070	0.059921682
159	0x3d4780f0	0.04870695
160	0xbd189a96	-0.0372568
161	0xbcb02d54	-0.02150599
162	0x3dfbb01e	0.12289451
163	0x3d1939c5	0.03740861
164	0x3e05c5f4	0.13063794
165	0x3d9006d0	0.070325494
166	0x3dd1a935	0.10237352
167	0x3b0b079f	0.002121426
168	0xbd0ee567	-0.034886744
169	0x3cdda2ea	0.027055223
170	0x3da12c9e	0.07869838
171	0xbd9e6d94	-0.07735744
172	0x3d0191e2	0.031633265
173	0x3ca9b286	0.02071501
174	0x3dc9af48	0.09847885
175	0x3d35d8fd	0.04439639
176	0x3d9ab8fc	0.07554814
177	0x3deb01c3	0.114749454
178	0xbd9b5cd1	-0.07586063
179	0x3da3631a	0.079778865
180	0x3dda3850	0.10655272
181	0x3d0ac842	0.033882387
182	0x3d2c3992	0.04204709
183	0x3d5181be	0.051149122
184	0xbd16dfd5	-0.036834557
185	0x3d90c3de	0.07068609
186	0x3db224ff	0.08698463
187	0xbd01cb74	-0.03168817
188	0x3d4cbd85	0.049985427
189	0x3c6bfb1d	0.014403132
190	0xbd29e91e	-0.041482083
191	0xba3aea91	-0.000713029
192	0x3d6efc0c	0.05834584
193	0xbddfd07d	-0.10928438
194	0x3d89741b	0.067115985
195	0x3cf018bf	0.029308675
196	0xbcb53af0	-0.02212283
197	0xb8a12b93	-7.6851946e-05
198	0x3da454c7	0.080239825
199	0x3deed381	0.11661435
200	0x3da2e208	0.07953268
201	0x3c614950	0.013750389
202	0x3d4cdde2	0.05001629
203	0x3e0a931d	0.13532682
204	0x3d69fc72	0.057125516
205	0xbd61e550	-0.05515033
206	0x3db7957a	0.08964057
207	0xbd40791a	-0.04699049
208	0xbd258d08	-0.0404177
209	0x3e26ddbd	0.16295524
210	0xbd30e441	-0.04318643
211	0x3e167020	0.1469121
212	0xbddc1750	-0.10746634
213	0x3ddc2527	0.10749274
214	0xbde283e4	-0.110603124
215	0x3d68856f	0.056767877
216	0x3e1da0a0	0.15393305
217	0x3d8b8da9	0.06814129
218	0x3d514b10	0.051096976
219	0x3b117501	0.0022194984
220	0xbdb530bc	-0.08847186
221	0xbbb4fc4c	-0.00552324
222	0xbdc5f185	-0.09665207
223	0x3dcc9d00	0.09990883
224	0x3b2cce6b	0.0026368152
225	0x3d0c00bb	0.034180384
226	0xbdc5212c	-0.09625468
227	0x3a8ba454	0.0010653832
228	0x3c9a5867	0.018840982
229	0x3d682d0c	0.056683585
230	0x3d252c74	0.040325597
231	0x3e1b06f4	0.15139371
232	0xbe048bb2	-0.12943915
233	0x3c547394	0.012967009
234	0x3db0b520	0.08628297
235	0xbc341b93	-0.010992902
236	0x3d8add43	0.067804836
237	0xbd4348c0	-0.0476768
238	0x3d80efcf	0.0629574
239	0xbdf2766a	-0.11838992
240	0x3d0ee4b9	0.034886096
241	0x3d4db0ef	0.050217565
242	0x3d3ab187	0.04557946
243	0xbdd41498	-0.103554904
244	0x3cfef74b	0.031123778
245	0xbcb0e254	-0.021592297
246	0x3c12defc	0.008964296
247	0x3d5aaba5	0.05338635
248	0xbcb7cab1	-0.022435518
249	0xbd24cb8d	-0.040233184
250	0x3cd02adc	0.025411062
251	0x3daee084	0.08538917
252	0xbe26fd89	-0.16307653
253	0x3da487c8	0.08033711
254	0x3d9f39d0	0.07774699
255	0x3de07cc2	0.10961296

classifier.0.weight f4 [1, 256]
0	0xbe6c0fc5	-0.2305289
1	0x3e5f152b	0.21785419
2	0x3e251703	0.1612206
3	0xbe13f02c	-0.14447087
4	0x3e272daf	0.1632602
5	0xbe83317f	-0.256237
6	0x3e3e1504	0.18562704
7	0x3e01365a	0.1261839
8	0xbe9a0694	-0.30083144
9	0xbded597a	-0.11589332
10	0x3e16d559	0.14729823
11	0x3e5defc0	0.21673489
12	0xbdd7ebe4	-0.105430394
13	0xbde46a0b	-0.111530386
14	0x3e3d679e	0.18496558
15	0xbddf63e9	-0.10907728
16	0x3de86f99	0.113494106
17	0xbe814c5a	-0.25253564
18	0x3e311b16	0.17295489
19	0x3e5187bd	0.20461936
20	0x3e0e34dc	0.13887352
21	0x3ea10c88	0.31454873
22	0x3e27cb1a	0.16386071
23	0x3e048ac6	0.12943563
24	0x3df424c4	0.11921075
25	0x3e8d6beb	0.27621397
26	0x3dfe5df7	0.12420266
27	0x3e660699	0.22463454
28	0xbd0cb501	-0.034352306
29	0x3da497ae	0.08036743
30	0xbe54d545	-0.20784481
31	0x3e3d9901	0.18515398
32	0x3e44b856	0.19210944
33	0xbdca9264	-0.09891203
34	0xbe96c29f	-0.2944536
35	0x3e912e5c	0.28355682
36	0xbe5a99ab	-0.21347682
37	0xbe99a7d6	-0.3001086
38	0xbde62f46	-0.112394854
39	0x3e9cb07e	0.30603403
40	0xbe85f9a4	-0.26167023
41	0x3e792478	0.24330318
42	0xbe29b7b4	-0.16573983
43	0xbda2f29e	-0.07956432
44	0x3e8f3d40	0.27976418
45	0xbdeb77cc	-0.11497459
46	0xbe03c13b	-0.1286668
47	0x3e15e2f8	0.14637363
48	0xbe2882f3	-0.16456203
49	0xbe0d693c	-0.13809675
50	0x3e196f1f	0.14983796
51	0xbe480af3	-0.19535427
52	0x3e3574ca	0.17720333
53	0xbe376210	-0.17908502
54	0xbe5759a4	-0.21030289
55	0x3e9f898d	0.3115963
56	0xbea9727c	-0.33095157
57	0x3e2b648c	0.16737574
58	0x3e433fd5	0.19067319
59	0xbd717ee8	-0.058958918
60	0xbdc08331	-0.09400023
61	0xbdf45557	-0.1193034
62	0x3e6f1dea	0.23351255
63	0xbd2e3490	-0.042530596
64	0x3e138f0f	0.14410041
65	0x3e3c344f	0.18379329
66	0x3e363059	0.1779188
67	0xbda3c8d2	-0.07997288
68	0xbddeda3a	-0.10881467
69	0xbe78baf2	-0.24290064
70	0xbe48b00e	-0.1959841
71	0xbe7698f7	-0.24081789
72	0xbe712b42	-0.23551658
73	0xbe0b32b5	-0.13593562
74	0xbe840fed	-0.257934
75	0xbe39261c	-0.18080944
76	0x3e674a61	0.22586967
77	0xbd6f7688	-0.05846265
78	0x3e54072a	0.20705858
79	0xbe439b12	-0.19102123
80	0xbd89ad99	-0.06722564
81	0x3e5856d8	0.21126878
82	0xbdfcb42e	-0.12339054
83	0x3e69e8ae	0.22842667
84	0xbdf9f8b0	-0.122056365
85	0x3e377840	0.17916965
86	0xbe810827	-0.25201532
87	0x3e9af8cc	0.30267942
88	0xbe81d50d	-0.25357857
89	0xbe18d765	-0.14925916
90	0xbcada828	-0.021198347
91	0x3e433138	0.19061744
92	0xbe50279a	-0.20327607
93	0xbe0edbd7	-0.1395105
94	0x3e6253b8	0.22102249
95	0x3e125340	0.1428957
96	0xbdd7045c	-0.10498878
97	0x3e78644a	0.24257007
98	0x3e04f34c	0.12983435
99	0x3e7c420c	0.2463457
100	0x3e9970c1	0.29968837
101	0x3e40af3c	0.18816847
102	0xbe687a54	-0.22702914
103	0x3e459f8d	0.19299145
104	0x3df02ef6	0.11727707
105	0x3e18c7ca	0.14919963
106	0x3e21e73a	0.15810862
107	0x3e3c1202	0.18366244
108	0xbe158a5a	-0.14603558
109	0x3e21e4df	0.15809964
110	0xbea7416a	-0.32667094
111	0xbe8cc6ae	-0.2749533
112	0xbe7842c5	-0.2424422
113	0xbe421bff	-0.18955992
114	0xbe5d314b	-0.21600835
115	0x3e912103	0.28345498
116	0x3e23790e	0.15964147
117	0xbe029676	-0.12752709
118	0xbec49c3b	-0.38400444
119	0xbe0878b9	-0.13327302
120	0xbe602000	-0.21887207
121	0x3e2016e0	0.15633726
122	0x3e0b6556	0.13612875
123	0xbe774548	-0.24147522
124	0xbdaab5b3	-0.083354376
125	0x3e839f40	0.25707436
126	0x3e571f67	0.21008073
127	0xbe9926aa	-0.2991231
128	0xbd869b61	-0.06572605
129	0xbe8e818e	-0.27833217
130	0xbe8a43c2	-0.2700482
131	0x3e2d77c7	0.16940223
132	0xbdf8a4f5	-0.12140838
133	0xbe18c391	-0.14918353
134	0xbde8cf44	-0.11367658
135	0xbe059e60	-0.13048697
136	0x3e0c0b88	0.13676274
137	0x3e5438d2	0.207248
138	0xbdd80290	-0.10547364
139	0x3e165a91	0.14682986
140	0xbe2b4c4e	-0.16728327
141	0x3e10d103	0.14142232
142	0x3e5032fc	0.20331949
143	0xbe7072c2	-0.23481277
144	0xbe58b07e	-0.21161076
145	0xbe748268	-0.23877871
146	0x3e5af166	0.21381149
147	0xbea729e0	-0.32649136
148	0xbdef61f1	-0.11688603
149	0xbe65b9e5	-0.22434194
150	0x3e0a0762	0.13479379
151	0x3de6de56	0.11272876
152	0x3e8c4793	0.27398357
153	0xbe46e263	-0.19422297
154	0xbe30a51d	-0.17250486
155	0x3df37832	0.1188816
156	0xbdb9d985	-0.09074692
157	0xbe7d2efa	-0.24724951
158	0x3e5c02db	0.21485464
159	0x3e8d0066	0.27539366
160	0xbe50b66c	-0.20382088
161	0x3e826ebe	0.25475115
162	0xbe5a0be5	-0.212936
163	0xbdc0dd64	-0.09417227
164	0xbe672657	-0.22573219
165	0x3e442ed5	0.1915849
166	0x3e35da41	0.17759039
167	0x3e757cb8	0.23973358
168	0xbdf33412	-0.11875166
169	0x3e08829c	0.13331074
170	0x3e3c0b94	0.18363792
171	0xbe9dc7b7	-0.30816433
172	0x3e132e91	0.14373232
173	0x3e92287d	0.28546515
174	0xbdf178fc	-0.11790654
175	0x3e2d45bf	0.16921137
176	0xbe835508	-0.2565081
177	0xbdb2c98a	-0.08729847
178	0xbe89de58	-0.26927447
179	0x3e254aef	0.16141866
180	0x3e5c0363	0.21485667
181	0x3e778118	0.24170339
182	0x3e20ed20	0.15715456
183	0x3e0ce20c	0.13758105
184	0xbe56bb5a	-0.20969906
185	0x3e768e2a	0.24077669
186	0x3e670d89	0.22563757
187	0x3e04cc9b	0.12968676
188	0x3e7b05ee	0.24513981
189	0x3e6a5d5f	0.22887181
190	0x3e57e48c	0.21083277
191	0x3e4221fd	0.18958278
192	0x3e42fbd6	0.1904138
193	0xbe6e63de	-0.23280284
194	0x3e694c29	0.22782959
195	0x3e2e9166	0.17047653
196	0xbdeec80f	-0.11659252
197	0xbe87d0fd	-0.26526633
198	0xbe30727f	-0.17231177
199	0xbe2bed4e	-0.16789743
200	0x3e10b584	0.14131743
201	0xbe4b9c68	-0.19883883
202	0x3e1ebd21	0.15501834
203	0xbea89826	-0.3292858
204	0xbe046ba9	-0.12931694
205	0x3e396395	0.18104394
206	0x3e8e76a8	0.27824903
207	0xbe8ccb5c	-0.274989
208	0x3dde7ab4	0.108632475
209	0xbe595035	-0.21222003
210	0xbe5e7ce1	-0.21727325
211	0xbdfb5d02	-0.12273599
212	0xbe8989b2	-0.26862866
213	0xbe179dcc	-0.14806288
214	0x3e079f79	0.13244428
215	0x3e3c13d0	0.18366933
216	0xbe9e141d	-0.3087472
217	0x3e19cb18	0.1501888
218	0x3e3e9e7d	0.18615146
219	0xbdc182c1	-0.094487675
220	0xbe62e6ea	-0.22158399
221	0x3e323875	0.17404349
222	0x3dfb5b2c	0.12273249
223	0xbdb209ac	-0.08693251
224	0x3e774ed4	0.24151164
225	0xbdc9c20e	-0.09851466
226	0xbe7fd2f8	-0.24982822
227	0x3e37ccf1	0.17949273
228	0xbe729376	-0.23689064
229	0x3e6105c4	0.21974856
230	0xbdda482a	-0.106582955
231	0xbe34b560	-0.17647314
232	0xbec31887	-0.3810465
233	0x3e74cd08	0.23906338
234	0xbdbd4ba4	-0.09242943
235	0x3e542c1b	0.2071995
236	0xbd9ff712	-0.07810797
237	0x3e055235	0.1301964
238	0xbdf00d3f	-0.117212765
239	0x3e1f3ee1	0.1555133
240	0x3e5fc349	0.21851839
241	0x3e5b06e6	0.2138935
242	0x3e251f0b	0.16125123
243	0xbe638074	-0.2221697
244	0xbe247229	-0.16059174
245	0xbe594394	-0.21217185
246	0x3e7463e4	0.2386623
247	0x3e55ba84	0.20871931
248	0x3e531308	0.20612729
249	0x3e481085	0.19537552
250	0xbdc34c20	-0.09536004
251	0xbd9adf28	-0.07562095
252	0xbed9375c	-0.42425048
253	0xbdfb9929	-0.12285072
254	0xbe145f89	-0.14489569
255	0x3e8da2c5	0.27663246
