pythorch saved models/fgan2_generator_dec.pth (torch, 806870 bytes, 14 tensors)

model.0.weight f4 [256, 117]
00000000: 9b37 37bc bc8e 18bd e44c f43c 2665 a5bd
00000010: b95e c33d 9e73 fc3c b666 22bd 7a22 b33c
00000020: bbbb 7abb 11cb 413c 84b1 8dbd 4653 633a
00000030: e606 e3b9 ed01 6abb 018d 053d 8758 143c
00000040: 3db2 b0bc fad5 333d 6f12 5a3d 0bcb 6bbd
00000050: c77a 26bd 3c39 97bd b0e1 1fbd 551f fcbc
00000060: edc4 403d 337c 58bd 6aca ebbc 9a4e 88bd
00000070: 2d71 0abd 8235 26bd 1e66 61bd 7add 4abc
00000080: 6f8f b03c c8ca 9839 8838 9e3c 65ac b8bc
00000090: 3f80 e73b d595 3a3d ee27 0b3b 8929 b43c
000000a0: 2b09 8dbd 6477 093d 5376 243d 4916 303c
000000b0: 8c01 38bc 3b2f b2bd 7ebb ebbc 02b7 00bc
000000c0: 8542 19bd 8be0 35bd 0eb7 14bd 85e2 8cbc
000000d0: c8a0 003b 080f 0e3d 4d80 0dbd 74c8 413d
000000e0: 364d b7ba 0976 a23c da85 8fbd 59bf 3e3d
000000f0: 87c1 adbd 82e0 a33b 9cf6 63bd 349b 6e3d
00000100: 44ec 1abd ae65 0fbd 6479 b1bb 7d2f 903c
00000110: 1e5c 6b3d a60f 883d 7635 43bd 6eab 5cbc
00000120: 70f8 4e3c c432 173c 6c6c f339 8ea6 c3bd
00000130: 2e32 fbbc a918 73bc 3483 b2bb b6db 35bc
00000140: 1089 80bd aba7 203d 5d30 713b 92b6 ab3c
00000150: dc0e c33b bdc3 973c 3a7d b03c 823a 1bbd
00000160: e5a5 3ebd ae24 ef3b 08f8 b93c 9a22 91bd
00000170: 05d2 823d 5da5 f83d c965 443d 7a7a 44bd
00000180: e419 fbbb 0134 2fbd b0ea 963c a2cd 63bd
00000190: 5ebd a23e 9c21 393e 685c 91bd 0aad ff39
000001a0: 7da5 c2bd bf38 213d 3a08 c0be 04aa f7bd
000001b0: 718c 8ebe ae8e da3e f93a 80be 83eb 613c
000001c0: 8ba9 e03d bdbe 26bd cc2a f33c a54d 05be
000001d0: 9e51 463d 88fd 15bd 9a13 5f3d d269 62bd
000001e0: 2685 2d3d 32ed 213c 30f1 393c 585a 0e3d
000001f0: f01d 88bc 5829 a33d c950 883d 0cb8 19bd
00000200: 22e8 95bd d08c 5abd ed2e c6bc 471a 5abc
00000210: 1650 d33c 58d5 b43c 44ca 9e3c 9401 0ebc
00000220: b49b 3d3d ede0 a63d 080a e53b ace6 713d
00000230: f8f8 cf3c 7f53 bf3c f11b c53d 904c 8abc
00000240: 87b3 1dbd 8e1e 25bd cee3 993c d087 bc3b
00000250: 1669 13bd 56e2 00ba 648a 423a 8140 3a3c
00000260: 2909 55bd 8a43 fd3c 6031 ca3a e405 dfbc
00000270: 24ac 08bc 66a3 6abd 0a01 be3d f96f f1bc
00000280: a49a af3c 5b8f 073d cd22 3a3b e5af 88bd
00000290: 8356 653d 388c b63c 0031 cb3c 11ef 85bd
000002a0: b8fc 823d c0d6 71bd 830f 83bd ec23 a3bd
000002b0: 4d5b ec3c 3248 2ebd 13a8 203d 18ed c83d
000002c0: 0829 d0bb ece3 32bd 7441 ee3c 6e31 a2bc
000002d0: 3ff6 c9bc 4a83 8e3d 585b 083d 0e5a 083c
000002e0: 01b7 afbd 8e05 573c 48c7 8fbd 0a7b 4abd
000002f0: 6bb8 923b 53ba 003c 2186 6c3d b601 56bd
00000300: 50e6 843d 2c84 303d a230 1d3c 2f04 9fbc
00000310: 0719 0a3d 9b9d 423d 9658 7dbb 0031 333a
00000320: 118a 88bc d822 3f3d 62dd 0cbd 4a07 01bd
00000330: e296 ba3a cda8 113d 2e95 873c c4f4 4abc
00000340: 7d27 023c 0f86 0e3d ee29 f93c 26c0 bb3c
00000350: 782c aabd 0ed4 aa3b c02d 3a3d 985f 19bd
00000360: fd19 cc3c fa58 763d 52e9 c43e ec90 34be
00000370: 6879 fc3c e859 873d 0e98 3fbc c13c 07be
00000380: 1e58 2d3e 62d6 043e e8ff bf3d 2997 2dbe
00000390: b408 ec3d 161c 2cbe cc00 9fbd 3f41 85be
000003a0: b00d 39be f94c 5ebd a291 923d 2543 2d3c
000003b0: 8808 5c3c f028 423d 2e1e e0bc 6672 81bd
000003c0: 7a15 413d 58c0 3e3b 4426 043d 607c 003c
000003d0: a50f c13d b91e 163d 786c a63d 1c9c 8c3d
000003e0: 8080 73bd 3d48 5c3c c0b3 45bb b8c6 b9bc
000003f0: e478 c73c c28d 6639 f25f 143d 48c7 643d
-0.011182691 -0.037245497 0.02982182 -0.08075933 0.09539551 0.03081685 -0.039648734 0.021867026
-0.0038258869 0.0118282 -0.06918624 0.00086717715 -0.00043301954 -0.0035706714 0.032605175 0.00905431
-0.021569366 0.043905236 0.053240236 -0.057566684 -0.040644433 -0.073839635 -0.03903359 -0.030776659
0.047062803 -0.05285282 -0.028783042 -0.06655617 -0.03379934 -0.040578373 -0.055029027 -0.012381906
0.02155277 0.00029142783 0.019314066 -0.022543142 0.0070648487 0.045553047 0.0021233517 0.021992462
-0.06886514 0.033561125 0.040151905 0.010747501 -0.011230838 -0.08700415 -0.028775927 -0.007856132
-0.037416954 -0.044403594 -0.036307387 -0.017197857 0.0019627083 0.034682304 -0.034546185 0.047310308
-0.0013984803 0.019831674 -0.07007952 0.046569202 -0.08484178 0.0050011287 -0.055655107 0.058253482
-0.037822977 -0.03500908 -0.005416082 0.01760077 0.057460897 0.0664361 -0.047658406 -0.013468606
0.012632474 0.009228412 0.00046429352 -0.09553252 -0.030663576 -0.014837422 -0.0054477695 -0.011099746
-0.062761426 0.0392224 0.0036802508 0.02096108 0.005952699 0.018525952 0.021544088 -0.037897594
-0.046544928 0.0072980737 0.022701278 -0.07086678 0.06387714 0.121409155 0.047948632 -0.047968365
-0.0076629985 -0.042774204 0.018422455 -0.05561603 0.317851 0.18079227 -0.07097703 0.00048766314
-0.09504221 0.039360758 -0.37506276 -0.12092975 -0.27841523 0.4268698 -0.25044993 0.0137890605
0.10969838 -0.040709246 0.029683493 -0.130179 0.04841768 -0.03661874 0.054462053 -0.0552767
0.04236331 0.009883212 0.0113490075 0.034754127 -0.016615838 0.0796687 0.066560335 -0.037529036
-0.073196664 -0.053356946 -0.024192298 -0.013311929 0.025795024 0.022074386 0.019383557 -0.008667368
0.04629107 0.0814837 0.006989721 0.059057876 0.025387272 0.023355244 0.0962447 -0.016882211
-0.03850129 -0.040312342 0.018785384 0.005753495 -0.03598889 -0.0004916539 0.00074211345 0.011367918
-0.05201069 0.030915994 0.0015426092 -0.027224489 -0.008341823 -0.057284735 0.09277542 -0.029472338
0.021436043 0.0330957 0.002840209 -0.06674174 0.055990707 0.022283658 0.024803638 -0.06539739
0.063958585 -0.059042692 -0.06399443 -0.07965836 0.02885213 -0.04254932 0.039222788 0.09810847
-0.0063525476 -0.043674394 0.029083945 -0.01979896 -0.024653552 0.06958635 0.033290237 0.008322252
-0.08579827 0.013123883 -0.07020432 -0.049433745 0.0044775507 0.007856923 0.057745103 -0.052247725
0.06489241 0.0430948 0.0095941145 -0.019411175 0.033715274 0.047513586 -0.0038657538 0.00068356097
-0.016667398 0.04666409 -0.034390815 -0.031501092 0.001423564 0.03556137 0.016550627 -0.012387458
0.007943985 0.034795817 0.030415501 0.022918772 -0.08309263 0.005213267 0.045453787 -0.03744468
0.024914736 0.06014345 0.3845926 -0.17633408 0.03081961 0.06608945 -0.0116939675 -0.1320677
0.16928145 0.12972406 0.09374982 -0.16952194 0.115250975 -0.16807589 -0.07763824 -0.2602634
-0.18071628 -0.054272626 0.071566835 0.010575091 0.013429768 0.047402322 -0.02735814 -0.06320648
0.047139622 0.0029106345 0.032263055 0.007842153 0.09426812 0.036650393 0.081261575 0.06865713
-0.05944872 0.013444957 -0.0030166954 -0.022677764 0.024349637 0.00021987318 0.036224313 0.055854112

model.0.bias f4 [256]
00000000: a0c2 bd3b a14b 803c c682 25bd 82b3 803d
00000010: 5056 15bc 0b57 9d3a 4ed8 12bd 6ce1 1bbd
00000020: 116c 7a3d e4f8 f13c 7dbf 263a 8d98 95bd
00000030: dc43 223d 6d10 9ebd d497 cf3c 46da 01bc
00000040: 7d86 86bd f668 4c3d c78e e9bc 5d6a 673c
00000050: abec c83b 6773 84bc b9cb e63c 77bb 53bd
00000060: 2310 cabc fdea 4d3d 26a0 6a3d 1828 e23c
00000070: 434d 9d3d c8e6 313d 884e 99bd abeb c8bc
00000080: 4f5f 793d 4b18 a33d 4e48 843d ce16 babd
00000090: e2ad e0bc ea8a afbd dc0e 6d3d 7fb0 babd
000000a0: 5ca1 fd3c d2d8 823d bcaa 94bd f8e0 4abd
000000b0: 432c 95bc 28fd 72bd 39d3 b53d 6cfc 18bb
000000c0: 7347 96bd 3ab6 79bd 6707 a4bc 8abe 09bd
000000d0: c655 9d3d e2ce 023b c432 b93b 429d 163d
000000e0: ee8e 25bd 60af 043c c684 0a3d e0ad a2bb
000000f0: 7e43 943d d7dd 313c 354f 97bd 7945 023b
00000100: 298d 6ebd c3f3 8cbd 71d2 5f3c 0cf8 603d
00000110: 46a4 b9bb ce71 8dbc 05d3 563d bae1 483c
00000120: bda3 03bd 76bb 19bd fbf9 8e3d 17d8 09bd
00000130: 4bbc 06bb de04 16bd d083 8e3d eefd 36bb
00000140: 8a8c 61bc 7106 64bd b69d ae3d 0a34 b0bd
00000150: 16a9 513c 9b45 bbbd b2d0 813d 3a55 68bd
00000160: 93df b0bc 9e1e e5bc 50bd 8fbd 4c53 313d
00000170: 14d1 813d e2dc 85bd cab5 34bd 78f0 a9bd
00000180: b27a 8b3d e9bf 4ebc a3de a43b 31a9 efbc
00000190: f8d3 8fbc a200 913c a6dc 63bd cd5e 973c
000001a0: bbb4 a33c 94b7 b23b 8c37 60bd 638e f6bc
000001b0: 540b 403d 5e64 b93d 8a07 9f3b f8a6 5fbd
000001c0: bc4c 953d c65c 693d 160c 133d c9d7 2cbb
000001d0: 74fd a73d ebe6 843c a6e2 9dba d81a 29bd
000001e0: 2289 20bc 18c8 003d d7b7 aabd 30cd abbc
000001f0: 559e 5e3d 2f4b 1d3c f727 96bd b08a 25bd
00000200: baee 01bd 2ded b3bc 8244 1fbc d211 84bd
00000210: 5a60 583d c1c1 5d3d c685 0b3c 8b3b 833d
00000220: 3017 713d 3ae0 803d 84eb 33bd ce34 853c
00000230: 67ff c63c 1595 b8bd 66fc aebc edb5 9ebd
00000240: 4832 61bb a099 2abd 265d 953c a8a1 a7bd
00000250: 29c6 7c3d 3126 d0bc 5da9 2f3d bcbb 733d
00000260: 9cb8 963d f416 f6bc ae0d 31bd a5f1 14bd
00000270: dc3e b13d 023d fe3c e3f2 883c 7b89 13bc
00000280: d6b2 5b3d af71 62bd c352 90bc 40ed 013d
00000290: f432 37bb 36e3 8c3d c4db acbd a965 b8bc
000002a0: aec5 4d3d f6f8 c13a 6aa8 603d 349f 29bc
000002b0: c726 8abd b30d 9b3d 32ce 4aba 77dd 1dbd
000002c0: b824 fc3a 85a7 09bc a8c1 15bc 828e 15bd
000002d0: 92af 95bd 1ee9 68bd c303 ba3d 5fb5 ba3c
000002e0: ddc4 3d3c e56e bb3d 9d4b 523c 1cb2 b03d
000002f0: 268a ae3c fcec 84b7 5af0 a43c a3c8 813b
00000300: d0dc 36bd e914 debc b8c0 a1bd 5107 683c
00000310: 2a4e 9fbd 63fb 89bd f6e3 5bbd 3a14 393d
00000320: aea5 623c eb53 7b3d 8a25 c33c 5afb 733d
00000330: c39f f3bb d079 b6bc 9aaf 9fbd eee9 d73b
00000340: c7ed 0a3d c2b3 763d 565d 02bd 5c52 363c
00000350: 9240 4d3d a2fd a8bd b853 82bd c3ff 48bc
00000360: ad54 353c 5abe 8cbc 45aa 94bd 7fa9 9bbb
00000370: c0eb 533d 34cb 03bd aefe 9b3b 85ed 073d
00000380: dff2 803d 21b7 873d ba02 1e3c f5ad f53c
00000390: e298 39bd 45b2 71bd c47c 443d 2450 69bd
000003a0: d587 243b e6cd a2bd 005e ca3c f0b1 a5bd
000003b0: 6c06 28bd a698 90bd 6ae6 43bd ae31 743c
000003c0: f214 b03c c476 483d 726c 2abc e9a0 a63b
000003d0: 7e50 2ebd 7b30 94bb 6e24 f13c c96d be3b
000003e0: 15a2 80bd 3623 80bd dec5 2bbd 4be6 9f3d
000003f0: ce68 86bd 6b98 bcbd be43 9fbd 6da8 35bc
0.0057910234 0.015661063 -0.04040792 0.062842384 -0.009114817 0.001200409 -0.035850815 -0.038056776
0.061138216 0.029537626 0.00063609314 -0.073044874 0.039615497 -0.07717977 0.025340952 -0.007925576
-0.0656862 0.049904786 -0.028510464 0.01412448 0.0061317286 -0.01616831 0.028173314 -0.051692452
-0.024665898 0.05027293 0.057281636 0.027607009 0.07680752 0.04343298 -0.07485682 -0.024526438
0.06088191 0.07963618 0.064591035 -0.09086381 -0.027426664 -0.08571418 0.0578755 -0.09115695
0.030960731 0.063890114 -0.072591275 -0.049530953 -0.018209582 -0.05932346 0.08878178 -0.0023343815
-0.073378466 -0.0609648 -0.020023061 -0.033628978 0.076823756 0.0019959738 0.0056518037 0.036771066
-0.04041951 0.008098453 0.03381803 -0.004964575 0.072394356 0.010856113 -0.073881544 0.0019877835
-0.05824009 -0.06882431 0.013661013 0.054924056 -0.005665335 -0.01726618 0.052447338 0.012260849
-0.032138575 -0.037532292 0.06981274 -0.033653345 -0.0020559009 -0.036625735 0.06958735 -0.002792235
-0.013766417 -0.055670206 0.08526175 -0.08603676 0.012796661 -0.091441356 0.063386336 -0.056721903
-0.021590983 -0.027968701 -0.0701853 0.04329233 0.063387066 -0.06536271 -0.04411868 -0.08297819
0.06810512 -0.012618997 0.005031423 -0.029255481 -0.01755713 0.017700497 -0.05563035 0.018477822
0.01998364 0.005454013 -0.054740474 -0.030097192 0.046885803 0.09052347 0.0048531936 -0.054602593
0.072900265 0.05697324 0.035900198 -0.0026373735 0.08202639 0.016223392 -0.0012045696 -0.041285366
-0.00979832 0.031440824 -0.08335846 -0.020971864 0.054350216 0.009600445 -0.073318414 -0.040415466
-0.031721808 -0.02196368 -0.009720923 -0.064487115 0.052826263 0.054139856 0.008515781 0.06407841
0.058860004 0.06292768 -0.043925777 0.01626053 0.024291707 -0.0901281 -0.021360587 -0.07749543
-0.0034362245 -0.041650414 0.018232893 -0.0818513 0.061712418 -0.025408836 0.042886127 0.05950521
0.0735943 -0.030040242 -0.043225937 -0.036363263 0.086545676 0.03103495 0.01671738 -0.009004946
0.053637348 -0.0552842 -0.017617589 0.0317204 -0.0027953954 0.068792745 -0.084403545 -0.022509413
0.05023735 0.0014798928 0.054848112 -0.010352898 -0.067456774 0.07570972 -0.0007736414 -0.038541283
0.0019237017 -0.008401756 -0.0091404095 -0.03651286 -0.07308878 -0.056862943 0.09082749 0.022791563
0.01158258 0.09152011 0.01283541 0.08627722 0.021306109 -1.584598e-05 0.02013414 0.0039606853
-0.044644177 -0.02710958 -0.07898086 0.014161901 -0.077785805 -0.06737401 -0.053684197 0.045185305
0.013833446 0.061359327 0.023821611 0.05956588 -0.0074348166 -0.022274882 -0.07797165 0.006589166
0.03391817 0.060230024 -0.031827293 0.011128034 0.050110407 -0.082515016 -0.06363624 -0.01226801
0.011067552 -0.01718061 -0.07259039 -0.00475043 0.0517385 -0.03217621 0.004760585 0.0331855
0.06296324 0.06626726 0.009644205 0.029990176 -0.045311816 -0.0590079 0.04797055 -0.056961194
0.0025105376 -0.07949428 0.024703026 -0.080905795 -0.04102175 -0.070603654 -0.04782716 0.014904423
0.021494363 0.04894139 -0.010401832 0.0050851 -0.042557232 -0.004522381 0.029436316 0.0058114273
-0.06280915 -0.06256716 -0.041936748 0.07807597 -0.06562959 -0.09208759 -0.07776593 -0.011087519

model.1.weight f4 [256]
00000000: 310e 633f d3a4 733f 9222 8f3f 63c9 8f3f
00000010: d940 643f ba97 4f3f 30a9 733f e449 693f
00000020: d3c0 5e3f 1bf8 7f3f baf8 7a3f 293d 843f
00000030: 7c0e ab3f 92ae 5a3f 6282 873f 31c0 7f3f
00000040: 462b 503f dc31 873f 06b5 843f 7a3f 6d3f
00000050: 20d4 653f ba4e 5a3f a5c8 583f 8fd9 8e3f
00000060: 3258 663f 0c0b 743f ada7 5e3f ca50 873f
00000070: fec1 713f e595 6e3f 8bc3 683f 878a 573f
00000080: 38b1 5c3f e4c8 7c3f 2202 613f 2943 6c3f
00000090: 10c8 603f 3a3e 813f 0035 443f 78b9 7e3f
000000a0: 4b95 6d3f 61ee 4b3f 679a 483f 031a 7a3f
000000b0: fb28 8f3f d3ba 863f ce95 743f 7d4f 643f
000000c0: 6f65 913f 8da6 823f 85a4 873f 3ace 593f
000000d0: e73b 8b3f 466c 7e3f 58c0 493f 4f4e 7e3f
000000e0: 2f5b 483f 65f3 703f a6d3 693f c054 6e3f
000000f0: bf39 893f 674b 5b3f b1f6 4f3f d2a4 873f
00000100: f51e 503f 5a77 573f d687 7c3f fca4 7d3f
00000110: 07f0 4b3f bd38 713f 3cef 783f 4640 723f
00000120: 0e28 4f3f 57ff 7e3f 0bcc 8a3f 3241 5f3f
00000130: 67bc 5d3f 9dee 4e3f 5e9f 5d3f 8a1a 5c3f
00000140: 3ea4 4a3f 7fdf 923f dcc6 733f e6f9 7e3f
00000150: d859 813f 7329 733f f7bf 843f 98e9 4d3f
00000160: 95c1 6c3f bf4a 623f 4cfd 353f c945 6d3f
00000170: 30c8 3e3f 6f92 3e3f 8258 463f 3ac0 453f
00000180: caae 7d3f 626d 563f 54ab af3f c847 683f
00000190: 9093 5d3f 91b0 683f 3d7b 413f 294f 833f
000001a0: fb2e 713f da62 7f3f cf0e 4d3f 1369 8c3f
000001b0: 0705 663f 6cb4 873f ca73 6a3f 60cd 493f
000001c0: d640 3b3f fd47 7f3f 96c5 5d3f 3216 913f
000001d0: f331 823f 82c7 4d3f 1e25 833f 9ee1 803f
000001e0: 6d9c 433f f671 6c3f cb71 803f ab62 663f
000001f0: 1653 4e3f a88a 7b3f b22f 703f 2637 463f
00000200: 2858 5a3f c8ce 3b3f b6f9 883f 780d 683f
00000210: da20 973f 7601 7c3f 2f3d 533f 80f8 7e3f
00000220: a625 6c3f 9f99 613f 87f8 853f 9ecb 573f
00000230: d018 6d3f 83e4 423f ea80 7b3f 2e8b 873f
00000240: eea6 403f 1afe 843f a03b 703f 648d 4f3f
00000250: 92d9 493f 8729 473f d489 513f 9874 7b3f
00000260: cbda 5d3f 7791 493f e411 713f 9012 663f
00000270: 4416 5f3f 90ab 4d3f 747f 7e3f c849 593f
00000280: a885 8d3f 34eb 8b3f 6267 4e3f 8396 923f
00000290: 0385 713f fa77 573f 63c9 8e3f 5bc6 7b3f
000002a0: 87cd 5a3f e663 913f 92cc 8b3f b4ae 4e3f
000002b0: 3d8b 8a3f 68f5 5f3f 6de6 653f af89 4a3f
000002c0: da46 5b3f 9797 863f 6e25 523f 8601 6e3f
000002d0: 2364 5a3f 25a1 433f 25b8 5f3f 5a87 703f
000002e0: 7f76 573f 0b11 6e3f c627 903f e54a 473f
000002f0: 3f4a 8a3f 2fe1 643f 0472 4b3f 4b69 7a3f
00000300: 5d1c 863f b316 653f d9d6 543f 4ec9 443f
00000310: cdd0 963f c9ac 493f ecca 723f 7efc 793f
00000320: b67e 573f 91cc 4d3f 595b 673f 961b 393f
00000330: 7917 503f 1cba 453f b6ba 5e3f fd30 583f
00000340: 1e43 523f 3a03 5b3f 3a63 863f 6e64 783f
00000350: 86a0 643f db20 523f cec6 713f fe2f 7f3f
00000360: 780d 553f b8f2 963f 0f75 6c3f d26d 4c3f
00000370: 8d1e 703f 7a45 4c3f a3b0 4a3f c5ff 683f
00000380: db1e 583f 7e07 813f ded7 7b3f 4cce 7c3f
00000390: c591 813f d00e 3f3f 41a8 643f 07b3 8e3f
000003a0: ed0b 943f da97 883f 56fd 463f 36b8 603f
000003b0: 1cc7 543f bdab 3f3f bba5 4d3f 2715 793f
000003c0: dbdf 493f 588c 5a3f 181e 503f 055f 763f
000003d0: a415 663f 829b 3c3f 43aa 943f 10c8 693f
000003e0: 1a16 6f3f c7ae 653f ee8b 713f 0cd1 853f
000003f0: a2b3 863f c26b 963f f2e9 643f 0d8e 6b3f
0.8869353 0.95173377 1.1182425 1.1233333 0.8916145 0.8109089 0.95180035 0.91128373
0.87012976 0.99987954 0.98035777 1.0331165 1.3363795 0.85422623 1.0586665 0.99902636
0.8131603 1.0562091 1.0367744 0.9267498 0.897768 0.8527638 0.8468116 1.1160144
0.89978325 0.95329356 0.869746 1.057153 0.94436634 0.9319747 0.90923375 0.8419575
0.86207914 0.98744035 0.8789388 0.9228998 0.8780527 1.0097115 0.7664337 0.9950175
0.9280593 0.7966061 0.783606 0.9769594 1.1184381 1.0525764 0.95541084 0.8918379
1.135908 1.0207077 1.0597082 0.850803 1.0877656 0.9938396 0.7880912 0.9933824
0.78264135 0.9412139 0.91338575 0.9309807 1.0720748 0.8566193 0.81235796 1.0597174
0.81297237 0.8416649 0.9864477 0.9907987 0.7966313 0.942272 0.9724004 0.94629323
0.80920494 0.9960837 1.0843519 0.87208855 0.86615604 0.80832845 0.865713 0.85977995
0.79156864 1.1474456 0.9522531 0.99600065 1.0105543 0.9498512 1.0371083 0.8043456
0.9248288 0.88395303 0.71089625 0.9268461 0.7452421 0.7444219 0.774788 0.7724644
0.9909483 0.83760655 1.372416 0.9073453 0.8655329 0.9089442 0.7557867 1.0258533
0.9421231 0.9976021 0.8010072 1.0969566 0.8985142 1.0601935 0.9158293 0.78829
0.73145807 0.9971922 0.8662962 1.1334898 1.0171493 0.8038255 1.0245702 1.0068853
0.7641056 0.9236139 1.0034727 0.89994305 0.8059553 0.9825845 0.9382278 0.774279
0.85290766 0.733624 1.0701206 0.9064555 1.18069 0.9843973 0.82515234 0.9959793
0.92244947 0.8812503 1.046647 0.8429507 0.92615986 0.7612993 0.9824358 1.0589349
0.75254714 1.0390046 0.9384098 0.8107512 0.7884761 0.7779774 0.81850934 0.9822478
0.86661977 0.78737587 0.94167924 0.89872074 0.8714335 0.8033991 0.9941323 0.84878206
1.1056414 1.0931153 0.806265 1.1452183 0.94343585 0.84167445 1.1155208 0.9834954
0.8546986 1.1358612 1.0921805 0.80735326 1.0823742 0.87483835 0.89804727 0.7911634
0.85654986 1.0515012 0.82088363 0.92971075 0.85309047 0.7641776 0.8739036 0.9395653
0.84165186 0.92994756 1.1262138 0.77848655 1.0803908 0.894061 0.7947085 0.97816914
1.0477406 0.8948776 0.8314033 0.76869667 1.1782471 0.78779274 0.94840884 0.976509
0.8417772 0.8039027 0.9037376 0.7230772 0.81285816 0.77237105 0.8700365 0.8444975
0.8213366 0.855518 1.0499032 0.97028244 0.8930744 0.82081383 0.94443977 0.99682605
0.83223677 1.1792822 0.9236612 0.7985507 0.93796617 0.7979351 0.79175776 0.91015273
0.8442208 1.0080411 0.9837626 0.98752284 1.012261 0.7463198 0.89319235 1.1148385
1.156614 1.0671341 0.7773031 0.87781084 0.83116317 0.74871427 0.8033101 0.972979
0.788572 0.853704 0.8129592 0.9623874 0.8987677 0.73674786 1.161446 0.91320896
0.933931 0.89719814 0.9435414 1.0454421 1.052357 1.1751635 0.8941947 0.9201363

model.1.bias f4 [256]
00000000: a88c cf3d 1db5 7cbe 167f 453d ab11 9abe
00000010: 79fb b5bc 0f43 84bd 3463 cabc fc17 adbe
00000020: 3ee3 5dbd 3a93 8bbe 947d 223d 7507 b8be
00000030: 1c66 f5bd 1f0d 8bbe 01e3 1dbd 5cad 8bbe
00000040: 1b7d 0abd 9c0e 843e 055f dcbe 88cf 883d
00000050: 5862 26be d0e4 54be 6f35 b0bd 3414 66be
00000060: f845 6bbe e44f 80be 35cf a63c 9f64 8cbe
00000070: e6b7 90be b116 9dbe b2b0 41be 6d97 bfbd
00000080: 403c 92bd b0f4 da3d 8b01 f43d a3c0 cc3b
00000090: 2235 0dbd a614 e1bd 39d4 cabd 4609 f9bd
000000a0: df1c 78bc 9fef 19be d88b 7cbd 2bc7 61be
000000b0: 3671 ccbe ca81 4fbe a8b6 90be 5da2 13be
000000c0: ab20 83be 21b9 2fbd ca77 75be 8c2a 11bd
000000d0: 468d 1e3e bc93 d2be 25c2 27be 8785 bbbe
000000e0: f08c 7bbd e930 86be d7b3 88be c532 62be
000000f0: 4257 85be cc27 60be a387 5ebd e255 aebd
00000100: 7c11 a8bd f1a7 3cbe f1da 94be a954 abbe
00000110: e0da 2dbd 5bc1 26be e748 113e fa2a c9bb
00000120: c396 1dbe b18f 8cbe ef4a dfbe c0eb d4bb
00000130: ba1f 83be 9c4b 013e 141a 32be 50f2 7fbe
00000140: 227d 47bd c7df bfbe c998 95be 0a4a a1be
00000150: ec7d 67bd 783e ebbe b6cf 143d 7fb5 833d
00000160: 1d13 233d b099 23be 6683 fdbd c8b8 66be
00000170: 2508 d9bc e667 df3a f0cf febd 5946 53be
00000180: acda edbd 1619 1dbe 2eb6 1bbe e9fd 2e3e
00000190: cb19 efbd a6cc 183e 8a16 d1bd 2040 c7be
000001a0: 960a 86be 7676 3cbe 37b3 01bd c2a8 55be
000001b0: f4fd 25be a5c3 0fbe 0a33 4b3b e258 efbd
000001c0: 2cc4 91bd b47d bdbe 743f 7ebe 5f3f 90be
000001d0: bb45 a9be ba7d 0abe cde7 36be 7b81 15be
000001e0: bb64 25be 8541 83be a0bd 6dbe 6a55 85be
000001f0: 3e51 9ebd a8eb b9be f7e7 c1bb 58bb d2bc
00000200: 7671 363c 5b58 90bd f008 8ebe 3cea 98be
00000210: c027 39be 034e 54bc 6c67 d7bb 2cf0 61be
00000220: 1c64 65be 784d 3b3d 53b6 22bb 199c 85bd
00000230: c7ce b83d 0866 25bd 340d 51bd 1c81 f4be
00000240: e91d 90bd 6388 8ebe 2ea9 a8be bfd4 bdbd
00000250: a499 23be 42bd 0bbe 122e 82bd 600e 11be
00000260: 00e1 e43d e75a 3cbe 1c55 8abe 3072 3bbe
00000270: b4eb 2dbe cb89 3b3d bc62 79be 3312 20be
00000280: 2b6e 61be b6eb f7be c851 b2bd 6d8b bcbe
00000290: fa9e 3ebd c466 0fbe 9f34 173d 8bbd 5ebe
000002a0: 4c55 f4bc 02f2 c1be 7254 0fbf e0b3 a6bd
000002b0: a2ff 94be 83c9 12be aa0e 69be 2206 783d
000002c0: a7cd b8bd d8a3 d1be e008 57be 7e1b 4bbe
000002d0: 447a 5fbd bc1a 11be b499 43bd c49a 46be
000002e0: f145 803c d92a 8ebe 6602 d1bd c0c3 e4bd
000002f0: b9b3 b9be 4e9d 42be 2a72 dbbc 9609 6dbe
00000300: b41c 94be 7ae8 4dbd 6458 07be 6e1b 27be
00000310: 74c1 c7be 2952 04be 724b 60be 3e07 433e
00000320: 236f adbb 9ff3 a7bd ccc5 1dbb 7b80 5ebd
00000330: faa4 93bb bd02 1ebe 6381 453c 387c 17be
00000340: 1e33 8c3d d778 09be 9dd6 25be d839 a0be
00000350: 5fbb b3bd cfd3 e3bd 92cb 3cbe 7f8c 74be
00000360: b8e5 04bd 25d3 a0be 94f6 d53c fa6b f1bc
00000370: 681b 54be a93d 86bc 08da 76bd c000 36be
00000380: c6c3 263d 6e7c d3be 2e07 84be aa33 81be
00000390: 1a9e 97be 7c51 0fbe 991b 8ebc 92c1 30be
000003a0: 07c7 7abe 3e76 bcbd e3de 04be cd4b fabd
000003b0: 781f 27be 3e86 85bd a967 a03a 1c8c 3abe
000003c0: 04f3 d1bd f76b a1bd eaa2 673d b004 76be
000003d0: eada b3be 847b dbbd 9a25 95be 2bb4 ec3c
000003e0: 3d4b e03d da03 22be 021b 8cbe 2c76 eebe
000003f0: cc70 eabe fecc bcbd 2cde 22be 824f 29be
0.1013425 -0.24678464 0.0482169 -0.30091605 -0.022214638 -0.06458103 -0.024705507 -0.3380736
-0.054171793 -0.27260762 0.039670542 -0.3594319 -0.119823664 -0.27158448 -0.038546566 -0.272807
-0.033810716 0.25792396 -0.43041244 0.066802084 -0.16248453 -0.2079041 -0.08603942 -0.22468644
-0.2297591 -0.25060952 0.020362476 -0.27420518 -0.28265303 -0.30681375 -0.1891506 -0.09355054
-0.07140398 0.10691202 0.11914357 0.00624855 -0.0344745 -0.109902665 -0.099037595 -0.12159972
-0.015143602 -0.15032814 -0.061656803 -0.22048633 -0.39930123 -0.20264354 -0.28264356 -0.14417405
-0.2561086 -0.042901162 -0.23971477 -0.035440966 0.15483579 -0.41128337 -0.16382654 -0.3662531
-0.061413705 -0.2620919 -0.26699707 -0.2208968 -0.26043135 -0.21890181 -0.054328572 -0.085124746
-0.0820646 -0.1842344 -0.2907329 -0.33463028 -0.042445064 -0.16284697 0.14187966 -0.0061391564
-0.15389542 -0.27453378 -0.43611857 -0.00649783 -0.25610143 0.12626499 -0.1739276 -0.24994779
-0.04870332 -0.37475416 -0.29218128 -0.315018 -0.056516573 -0.45946097 0.0363309 0.06431102
0.03981315 -0.15976596 -0.12378578 -0.22531426 -0.026493141 0.0017044514 -0.12442005 -0.20632304
-0.11613974 -0.15341601 -0.15206215 0.17089047 -0.116748415 0.14921817 -0.10209377 -0.3891611
-0.2617995 -0.18404564 -0.031665053 -0.20865157 -0.16210157 -0.14039476 0.0031005763 -0.11686875
-0.07117495 -0.37009966 -0.24828893 -0.28173348 -0.33061013 -0.13524523 -0.17861862 -0.14600174
-0.16151707 -0.25635925 -0.23216867 -0.26041728 -0.077303395 -0.36312604 -0.005917545 -0.025724098
0.01113545 -0.070481025 -0.27741194 -0.29866207 -0.1808157 -0.012958053 -0.006573608 -0.22064275
-0.2240147 0.045728177 -0.0024827912 -0.06523914 0.09023815 -0.040380508 -0.051037982 -0.47754753
-0.07036955 -0.2783843 -0.32941574 -0.09269094 -0.15976578 -0.13646415 -0.063564435 -0.1416564
0.11175728 -0.18394051 -0.27018058 -0.18305278 -0.16984445 0.045785706 -0.2435407 -0.15631942
-0.22014682 -0.4842202 -0.08707005 -0.36825123 -0.04653833 -0.14004046 0.036915418 -0.21751992
-0.029825829 -0.3787995 -0.5598823 -0.08139777 -0.29101282 -0.14334683 -0.227595 0.060552724
-0.090236 -0.40945315 -0.2099948 -0.19834706 -0.05455996 -0.14170355 -0.047754005 -0.19394976
0.01565835 -0.27767065 -0.102055356 -0.11170149 -0.3626993 -0.1900532 -0.026787836 -0.23148188
-0.2892815 -0.050270535 -0.13217312 -0.16319057 -0.3901478 -0.12921967 -0.2190378 0.19045731
-0.0052927895 -0.08200764 -0.0024074195 -0.054321747 -0.0045057507 -0.15430732 0.012054774 -0.1479348
0.06845687 -0.13425003 -0.1619515 -0.3129413 -0.087759726 -0.11124384 -0.18437031 -0.2388172
-0.03244564 -0.3141109 0.026118554 -0.029470433 -0.2071358 -0.016386824 -0.060266525 -0.17773724
0.040714048 -0.4130587 -0.25786728 -0.2523473 -0.2961281 -0.13995928 -0.017347144 -0.17261341
-0.24489985 -0.092022404 -0.1297565 -0.12221489 -0.16320598 -0.06519745 0.0012237924 -0.1821751
-0.1025143 -0.07881921 0.05655185 -0.24025226 -0.35127956 -0.10716918 -0.2913025 0.028894505
0.109518506 -0.15821782 -0.27364355 -0.46574533 -0.45789182 -0.09218787 -0.15905064 -0.16534236

model.1.running_mean f4 [256]
00000000: 5614 5dbb 083b 2dbc 5132 88bd eabf 4f3d
00000010: 569c 3ebc 04c4 9a3c 44df 92bd 2915 fdbc
00000020: c8a7 903d e760 333c 1b27 a3ba 188f bcbd
00000030: d87a 753d 0445 58bd 0345 e13c 4693 20bc
00000040: 4085 85bd 1c6b fe3c be4a 7cbd 6a08 ebbc
00000050: 876e c33c 5843 73bd e932 0b3d eb3e 45bd
00000060: bb17 bdbc 455c 573d b9a0 143d 909d 203d
00000070: e2bd 823d 8d01 053d 66dc a2bd 0cb3 edbc
00000080: 8496 aa3d 8c03 ba3d dac2 613d 9312 cebd
00000090: 060b afbc 44e6 d8bd 5e6a 533d 4504 adbd
000000a0: 30a0 b73c e342 773d 59fa c0bd efaf d1bc
000000b0: c712 bdbc 3216 85bd 3aff 353d 05a7 fcbc
000000c0: a254 abbd 2682 a0bd 0a81 27bd ade5 2ebd
000000d0: 34ca 803d 5264 e6bb 2d7b a6bc 4de0 ee3c
000000e0: 1b61 c8bd 5da1 efba fab9 e13c cf6c ccbc
000000f0: 3b1e 843c 5b51 453d 3e7f aebd 9e69 b5bc
00000100: e008 21bd 5297 85bd 66d8 a7bc 9e06 dd3c
00000110: bd7e 94bb 5231 13bd 098a b53c 4a3f 9e3c
00000120: 1c7c 29bc 9b7b 81bd 8d81 603d d0f3 18bd
00000130: ecc4 d63a ff06 50bd 65f2 8d3d 1c62 8bbc
00000140: 3613 1cbb a5af 93bd fadc d23d 8b50 d5bd
00000150: 7dc3 96bc 4ee8 dcbd 938c 3d3d 5712 e7bd
00000160: 0ac8 9dbc 91e8 c4bc a84c b4bc 7194 5f3c
00000170: 6f85 4e3d a42c adbd aab0 6ebd 5187 85bd
00000180: 04f4 733d cf14 703b 1cc8 323c 4438 0dbd
00000190: 4f5a edbc 45a6 d8bc 78e7 91bd bc64 353d
000001a0: fbb8 f83c 74f8 63bc bfb1 92bd 17c9 1bbd
000001b0: a3ec fa3c f82d ad3d 1970 b7bb 1f41 93bd
000001c0: fe1a 9a3d b520 6e3d 1b43 fc3c 36d8 2fbd
000001d0: 5a6f 603d 2b3f e4bb 27fb 29bc f22a 2dbd
000001e0: 72e3 11bc 06f9 1d3c f750 e0bd 25b5 d13b
000001f0: a811 0b3d 07ac bebc 78e4 91bd 01a2 22bd
00000200: f8b3 8ebc 60be 96bc 67a3 7e3b 753d 9abd
00000210: 7772 7b3d 85e9 1d3d c1e9 d13c 1243 133d
00000220: 3f45 933d e606 fd3c 49a1 9bbd 0107 b436
00000230: 2957 0a3c 8da7 06be 84ed 31bd fb7b bfbd
00000240: ac99 13bd 8c43 a1bd c38d 1d3d 1e0c c5bd
00000250: d418 803d 4f03 2abd f40a 103d 09a0 113d
00000260: c83e 7c3d db52 4cbd 9660 67bd 2a16 38bd
00000270: 75c1 833d ea10 0c3d 69fe 373d fd27 8cbc
00000280: dda1 0f3d 5563 95bd c636 0f3c fad9 b73c
00000290: eec6 3ebc ed47 883d 1c1d e1bd 4581 c7bc
000002a0: 6cbc 073d c17b 79bb ccbd 9d3d 6882 c7bc
000002b0: 32e5 86bd 0092 833d fd5c ff3b 6c03 48bd
000002c0: cf23 00bd 02dc 87bc 8953 46bc a971 46bb
000002d0: a276 bcbd f5c5 35bd fb21 cf3d 43fe dc3c
000002e0: eb35 efba 50c0 c63d 63fd 523c 987e 9c3d
000002f0: ac2d 12bd 834f 50bd e591 343c a2de 463c
00000300: bd76 8fbd d9ff 25bd e615 babd 4e39 3b3b
00000310: d28e ccbd b118 9cbd a7b7 b5bd 57b0 663d
00000320: 0020 6e3c fe2c a43d 43ea 943c 500b f23d
00000330: 9af5 b93c 3b3f bcbc 6b88 69bd 1ff8 223d
00000340: 894b 443d 3599 a13c 98d5 9fbd 3aba 90bb
00000350: 2805 433d 8a5f f2bd 91cf babd 8bf3 9cbc
00000360: a107 afbc f159 f9bc d3f3 bbbd add2 3c3a
00000370: 8760 ab3c 36ee 03bd 7fdd 12bc efe2 d73c
00000380: 6248 233d e826 a33d 62b1 713c a12f 51bc
00000390: 93c3 8ebd 8188 99bd fe13 b33c f7fa 8fbd
000003a0: 701c bdbc 6a7f 9fbd a949 9a3c d25d b3bd
000003b0: b582 18bd af48 a7bd 28f3 20bd 781e f63c
000003c0: 0fc5 d2bb a239 933d d609 86bd 594e dc3c
000003d0: 10df 7bbd e023 843c d4d0 ae3c 842a bb3a
000003e0: d137 5cbd cb82 7cbd b34e ebbc 3b96 923d
000003f0: 516d a6bd e012 e5bd 218d 13be 56c5 bbbc
-0.0033734045 -0.010573156 -0.06650222 0.050720133 -0.011633953 0.018892296 -0.07171491 -0.030893879
0.07063252 0.010948396 -0.0012447567 -0.092069805 0.059931606 -0.052800193 0.027498728 -0.009800738
-0.06519556 0.031056933 -0.061594717 -0.028690536 0.023856414 -0.059390396 0.0339841 -0.048155706
-0.023082605 0.05257823 0.03628609 0.039212763 0.063838735 0.032472182 -0.07952194 -0.02901604
0.0832949 0.09082708 0.055117466 -0.100621365 -0.021367561 -0.10590795 0.05161511 -0.0844808
0.02241525 0.060366523 -0.0942275 -0.025596587 -0.023080243 -0.06498374 0.044432856 -0.03084136
-0.08365752 -0.07837324 -0.040894546 -0.042699505 0.06288567 -0.007031002 -0.020322407 0.02915969
-0.097841464 -0.0018282343 0.0275545 -0.024954228 0.016127696 0.04817329 -0.08520363 -0.022145089
-0.039315104 -0.06523003 -0.020488929 0.026980694 -0.00453171 -0.035935707 0.022160547 0.019317288
-0.010344531 -0.06322404 0.05481105 -0.037341893 0.0016385592 -0.050787922 0.06930999 -0.017014556
-0.0023815162 -0.07211236 0.10296054 -0.10415753 -0.018403763 -0.10786496 0.04627664 -0.11282795
-0.019260425 -0.024036678 -0.022009209 0.013646231 0.05042022 -0.0845578 -0.05827395 -0.0651995
0.059558883 0.0036633497 0.010911968 -0.034477487 -0.028973727 -0.026446471 -0.07124227 0.04428552
0.030361643 -0.013914216 -0.071628086 -0.03803357 0.030630415 0.084560335 -0.00559808 -0.07190155
0.075246796 0.05813666 0.030793717 -0.042930804 0.054793693 -0.006965538 -0.010374821 -0.042277284
-0.008904325 0.009641891 -0.10952943 0.006399768 0.033952385 -0.023275388 -0.07123655 -0.03970528
-0.0174198 -0.018401325 0.003885472 -0.07531253 0.06138846 0.03855278 0.025624158 0.035952635
0.07190942 0.030887078 -0.07599122 5.3652334e-06 0.008443632 -0.13149853 -0.043439403 -0.09349819
-0.036035225 -0.07874212 0.038465273 -0.09621452 0.062547356 -0.04150706 0.035166696 0.035553012
0.06158331 -0.049883705 -0.056488596 -0.044943012 0.064333834 0.034195818 0.04492036 -0.017108912
0.035066474 -0.07294337 0.008741086 0.022442807 -0.011644108 0.06654344 -0.1099188 -0.024353633
0.033138677 -0.0038068148 0.077022165 -0.024354175 -0.06586684 0.06424332 0.0077930675 -0.04883139
-0.03128415 -0.0165844 -0.012104877 -0.003028015 -0.09202315 -0.04437824 0.10113903 0.02697671
-0.0018250322 0.097046494 0.012877795 0.07641333 -0.035688087 -0.05085708 0.011021112 0.012138041
-0.070050694 -0.0405272 -0.09086208 0.0028568092 -0.09988178 -0.07621897 -0.088729195 0.056320515
0.014533997 0.08016394 0.018178111 0.11818564 0.02270012 -0.02297937 -0.057014864 0.039787408
0.0479236 0.019726375 -0.07804412 -0.004416731 0.04761234 -0.11834629 -0.091216214 -0.0191591
-0.021365942 -0.030438395 -0.09177365 0.0007203024 0.020920051 -0.032209598 -0.008963942 0.026353328
0.03986395 0.07966405 0.014751764 -0.012767703 -0.069708966 -0.07496739 0.021860119 -0.070302896
-0.02308485 -0.07787974 0.018833952 -0.08758129 -0.037234027 -0.0816816 -0.039294392 0.030043826
-0.0064321826 0.07188727 -0.06544845 0.026892828 -0.061492026 0.016130388 0.021339811 0.0014279638
-0.05376417 -0.06164817 -0.02872405 0.071575604 -0.08126319 -0.11185241 -0.14409305 -0.022921246

model.1.running_var f4 [256]
00000000: 723a 6e3e 92eb 573e de47 8f3e a19e 403e
00000010: 6d4f aa3e e131 7c3e 7b0e 693e 3b5f 903e
00000020: 7b22 5e3e 7fb8 9a3e 99f6 873e d87f 703e
00000030: 6724 ad3e c618 963e 1a87 6f3e ad3a 623e
00000040: 84d4 8b3e 7143 2f3e 527f b23d 72c0 403e
00000050: 10eb 8a3e 2df2 563e eb3d 573e 63dc 513e
00000060: fa2a 833e 11b3 883e 16e6 853e 937d 433e
00000070: 2e6b 4a3e 9606 7a3e 8e13 653e 35a1 513e
00000080: 2909 883e 1751 533e dc98 393e cc77 833e
00000090: a1f6 413e ffcf 4f3e 1ef8 653e 9de8 993e
000000a0: 5951 903e 6441 863e 4068 8f3e 60cf 8d3e
000000b0: cd58 543e 8a8b 613e a7d6 323e ecc6 803e
000000c0: 02d1 343e a885 633e dade 823e 47f5 653e
000000d0: 28d8 963e 00ca 863e b52f 8e3e b7d0 8c3e
000000e0: eef0 923e 2937 9c3e 094b 8c3e c383 873e
000000f0: a423 393e 43af 8d3e e7ad 6a3e 0838 9b3e
00000100: ac4f 7c3e cc43 9a3e 9286 583e e5d0 6c3e
00000110: 5bb9 423e 2ee8 803e c094 ce3d 3318 913e
00000120: 4012 a63e 9dec 9c3e a2d0 283e f938 7c3e
00000130: d0f2 a53e 587d fe3d e503 923e 1694 783e
00000140: 0405 903e c10a 373e 226b 8c3e 723a 533e
00000150: 3d77 553e 9402 9a3e 8a08 613e b6cb 1c3e
00000160: bbfb 4a3e 9b9f 6c3e dc9b 883e c5b4 6b3e
00000170: f6af 673e c31c 6f3e 8115 843e 9c38 9e3e
00000180: c532 553e 3707 8f3e 6b10 823e e937 4c3e
00000190: 29a7 4b3e 3252 203e 4388 673e ea59 7e3e
000001a0: b4d0 473e ade0 8a3e a6e0 623e 7647 3f3e
000001b0: 61ca 893e fd85 7a3e e558 9f3e 41d6 553e
000001c0: 05f8 883e a3e4 7c3e 6174 833e 3954 823e
000001d0: 4620 6e3e 0c12 8d3e 6a6a 463e 5cea 813e
000001e0: e893 6f3e 7054 933e dfba 693e 598e 453e
000001f0: 3768 763e 089e 7a3e efab 883e 823b 863e
00000200: 2c35 3c3e 08b1 853e eb63 7f3e 97a5 823e
00000210: 5ed5 9d3e 97bc 993e 67be ab3e 44fd 7b3e
00000220: 8206 913e 7991 903e edab 833e a066 623e
00000230: dd1a 223e 6350 743e 33f3 803e aae4 683e
00000240: d533 993e 54fd 583e 5913 8e3e fe78 9e3e
00000250: a5fd 7f3e 9d38 953e aaea 7a3e 538c 643e
00000260: 20ba 843e 793a 943e 5e49 8d3e 0e28 be3e
00000270: e566 493e f292 683e 9655 7a3e 3cde 843e
00000280: ffe2 7a3e 87db 873e 86f4 8c3e e03d 1a3e
00000290: 58d3 8c3e c3cc 873e 1bee 733e 7ac2 433e
000002a0: 3260 913e 6698 6d3e 79b4 683e 1c08 813e
000002b0: 8aa5 633e a3dd 923e 1eb6 893e 854b 4c3e
000002c0: eb39 583e 0491 943e c810 833e d950 a33e
000002d0: 3709 833e 3e70 a23e fb33 4a3e baa0 8e3e
000002e0: 8ef1 9b3e a0c8 913e 46c0 8a3e dc66 893e
000002f0: 2fe4 3d3e bf35 5a3e fd05 6f3e 0f87 823e
00000300: ad20 013e fbbe 9c3e 396d 7b3e 8990 8c3e
00000310: 6436 243e ec46 913e 0f4e 633e 5f82 3e3e
00000320: 2fc4 913e e0b9 773e 6c3c 8c3e beac 643e
00000330: 77f1 763e 4e0e 8b3e 021c 933e 1e4b 8a3e
00000340: 5e13 0f3e da7e 753e 8a12 483e fffe 923e
00000350: 1f1c 893e 7964 383e d5c6 6f3e 4ce2 813e
00000360: d1a0 873e ee83 293e 334d 7f3e 4b28 2c3e
00000370: 88e1 573e a9c3 843e cbf6 963e ffbb 873e
00000380: 03aa 573e dcd8 863e a991 5c3e 4e2e 7a3e
00000390: 7843 733e fc4c 573e 4337 0f3e fa7e 753e
000003a0: 6866 293e 15c9 5a3e d437 8f3e 1a32 7c3e
000003b0: f789 473e 0b31 523e 652b 853e 0204 673e
000003c0: 1e73 633e e565 863e b0b2 313e 8f7c 4d3e
000003d0: 357f 713e d008 893e e19c 613e 1b4e 893e
000003e0: a548 793e d4c6 373e ffbb 893e ac68 a33e
000003f0: 5b7e 8f3e 6d28 873e d5b2 893e aba3 7e3e
0.23264483 0.21085957 0.27984518 0.18810512 0.33263722 0.24628402 0.2275943 0.28197655
0.21692841 0.30218884 0.26555327 0.23486269 0.33816835 0.29315776 0.23391381 0.22092696
0.27310574 0.1711557 0.08715691 0.18823412 0.27132463 0.2099082 0.21019714 0.20494227
0.25618726 0.26699117 0.26152104 0.19090872 0.19767448 0.24416575 0.22370741 0.20471652
0.2656949 0.20636402 0.18124717 0.25677335 0.18941738 0.20294188 0.2245793 0.30060282
0.28187063 0.26221764 0.28009224 0.27697277 0.20737 0.22025886 0.17464696 0.25151765
0.17657855 0.22218955 0.25560647 0.22456847 0.2946179 0.2632599 0.27770773 0.27502987
0.2869944 0.30510834 0.27400997 0.26467714 0.18080002 0.27672777 0.22917901 0.30316186
0.24639767 0.3012985 0.21145085 0.23126562 0.1901602 0.2517714 0.100869656 0.28338775
0.324358 0.30649272 0.16485837 0.24631108 0.32411814 0.12426251 0.28518596 0.2427524
0.28128827 0.17875196 0.27425486 0.20627764 0.20846267 0.30080092 0.21975914 0.15312085
0.1982259 0.2310776 0.2668141 0.23018177 0.22625718 0.23350815 0.25797656 0.30902565
0.20820148 0.27935192 0.2540315 0.19943203 0.19887985 0.15656355 0.22610573 0.24838987
0.19513208 0.2712454 0.22156009 0.18679604 0.26912215 0.24465175 0.3112251 0.20882513
0.26751724 0.24696593 0.25674728 0.25454882 0.23254499 0.2755283 0.19376531 0.25374115
0.23396266 0.28775358 0.22825192 0.19292583 0.24063192 0.24474347 0.26693675 0.26217276
0.18379658 0.26111627 0.2494046 0.2551696 0.3082685 0.30026695 0.33543703 0.24608332
0.28325278 0.28235987 0.25717106 0.22109461 0.1583056 0.2385879 0.25185546 0.22743478
0.29922357 0.21190387 0.27749136 0.30951685 0.24999101 0.29144755 0.2450358 0.22319154
0.25923252 0.2895086 0.27595037 0.37139934 0.19668157 0.22712305 0.24446711 0.259508
0.24500655 0.26534674 0.27530307 0.15062666 0.27504992 0.26523408 0.23821299 0.19117156
0.28393704 0.23202667 0.22725095 0.252015 0.22231117 0.2868472 0.26896757 0.19950683
0.21115844 0.29016888 0.2559874 0.3189762 0.25592968 0.3172626 0.19746391 0.27857
0.3045773 0.28473377 0.27099818 0.26836288 0.18544076 0.21309565 0.23342128 0.25493667
0.12610121 0.30614457 0.24553384 0.27454022 0.16036373 0.28374422 0.22197746 0.1860442
0.2846999 0.24192 0.27389848 0.22331521 0.24115549 0.2715935 0.28732306 0.27010435
0.13972232 0.23974171 0.19538322 0.28710172 0.26779267 0.18007077 0.23415692 0.25367963
0.2648988 0.16554233 0.24931793 0.16812246 0.21082127 0.25930527 0.29485163 0.26510617
0.21060948 0.26337326 0.2153994 0.24431726 0.23756206 0.21025461 0.13985924 0.23974219
0.16542971 0.21365769 0.2797228 0.24628487 0.19486223 0.20526521 0.2600967 0.22560123
0.22211882 0.26249614 0.1735332 0.20067047 0.23583682 0.26764536 0.22032501 0.26817402
0.24344118 0.1794694 0.26901242 0.31915796 0.2802609 0.2639803 0.2689425 0.24867122

model.3.weight f4 [512, 256]
00000000: 11e1 273c 2214 0abd e74b 79bd 2e3f 433d
00000010: e250 45bb 713d a5bc 401c 7f3c 4fdc d13c
00000020: f01c 0dbd 1acd 46bc 7839 86bd e89c ed3c
00000030: 70c9 33bd f446 b43c 9a97 28bd 18e1 b7bb
00000040: 0cc1 a03c 199a 183d ce1b a0bb 0d80 8fbc
00000050: 18b2 cd3d 1c74 49bd 45e6 0d3c a737 653d
00000060: 6434 2e3d 975d 7d3d 5025 5cbd e893 50bd
00000070: 2b4a 83ba c776 4dbd 48a2 213d 3945 a4bc
00000080: 3329 f2ba d07d 5d3c a228 2cbb 7583 2ebd
00000090: 84b8 d1bc 5b75 7b3d 5e19 c73c 6871 1f3c
000000a0: 6ed5 693c 2ed8 4b3d ed6a 11bd 312b 16bc
000000b0: a77e ccbc 3ba6 413c e15c 4d3d e1ce 983c
000000c0: fc8c 333c 38c5 14bd 4634 773a 8478 20bd
000000d0: a1b1 013c 8cc3 f3bd 28d4 d83c be80 99bc
000000e0: d5c4 43bb 4289 a1bb 5f26 463d da29 99ba
000000f0: 8680 94bc da29 28bb 209d 343d 8c5b 08bd
00000100: 92b0 59bc 4465 84bc fbd4 4ebd 880d 2f3c
00000110: 7670 c23a 5d4e 673d 7ea5 9f3c a319 c0bc
00000120: afa4 1ebd 34e1 583d 56e0 dfbb 488d 933c
00000130: 8523 943c ee1e de3b 225e 3fbd e0b3 1c3d
00000140: 6606 00bd bd4d 6b3d cf9c 08bd 21f3 323d
00000150: c5be d9bc d564 d43c 0ad2 3ebc 8f7a 463c
00000160: 054f 803c 3d74 1cbc 12aa 49bb c3e7 623d
00000170: a3cb 9fbc 86ab 24bd 8a48 413d 74b3 7bbc
00000180: 1986 013d e46a 703d 96d3 34bd a874 78bd
00000190: ad38 7cbc 0c75 75bc ab9f 76bb 8408 323c
000001a0: e0fc 0d3d 9691 443c 6c0a 37bc e2e0 e4bb
000001b0: a2a5 893c 54d4 303d 31ac f4bc 86ef 2f3d
000001c0: 0823 45bd b8db 993c b67f 9c3d 1439 df3d
000001d0: 0863 4ebd e06b c93c cf07 7b3d c3f7 9fbd
000001e0: 455a 993c 5df2 f0bb b698 693c 0744 373d
000001f0: a4c6 c93b 49da d13d e8da 4bbd 0898 a6bc
00000200: 0891 5c3a 3efd 853b 223b 3d3d 91cc 043d
00000210: cae8 2fbd e276 bdbc 5ff7 d5bc 319e 8ebc
00000220: fd98 44bd 4b05 cfbb 25cc 523c 9ac5 6fbd
00000230: 67f0 97bc 4303 a73c d31b a33b c798 01bd
00000240: 8b49 5f3b c872 ed3d fb93 e9bc ad37 ca3b
00000250: 48f7 113d b689 f73b 380f 16bd 993f 1fbd
00000260: b0f8 09bd a000 043d 6d72 7dbd 2346 c9bd
00000270: aa93 bdbb 9a18 82bb a083 8fbc bc19 ae3b
00000280: d27b fdbb 2763 8e3c 3d79 003b 2c40 e83c
00000290: 54ce 12bd cba8 bbbb cae5 9ebd 0044 2f3d
000002a0: 8071 0cbc e7f7 183b 0efa 8b3d 8e78 b8ba
000002b0: f0aa 4d3c e351 33bd b653 a3bc 26d7 e53c
000002c0: 8059 2f3d b2d4 cb3d 08c3 d93c 379c 463d
000002d0: 2af1 78bd 1216 00bd d28a ef3c 3831 17bd
000002e0: 5af4 d73b cb6a 003d 46d7 26bd 28e0 92bc
000002f0: f110 01bd 5820 a5b9 ecca 80bd 9084 6a3d
00000300: e8e4 073d f5d8 2e3d 7ccc ebbc 10b1 c2bb
00000310: 245a 993d e7d7 4c3d 18cf 833d 1ccc 41bc
00000320: 3eee 45bc 3a77 10bc c4a7 aabc 95c9 7b3d
00000330: bc59 9bbc cf72 163c 37a5 72bd 62e9 883c
00000340: 2e0c 69bb 93f3 40bc 21bf 20bc fb09 b73d
00000350: 5778 7cbd 180d 87bc 9bfe a4bb ec2e 683c
00000360: 785b 18bc f173 383d e6a9 3cbd 7d2f eabc
00000370: 5863 823d 323c 21bd 8e57 6f3c 10e1 84bc
00000380: 11de f53b 747b b4bd 0eb2 2cbd cc15 283d
00000390: a6a6 b33d 6bd1 53bc 205d 0b3d 4cee 913d
000003a0: 5c24 6d3d 7314 b3bd c29b 533d f4b8 473d
000003b0: 291a dc3c c164 8f3b c8ff 3e3d 7423 2c3d
000003c0: f06d 763c d70c 4cbd 79c0 eaba 4048 163d
000003d0: 93b0 3d3d 263f 54bd e785 3cbd 3473 1f3c
000003e0: 50b6 e53b acfd 063d e863 553c 5e2a 38bd
000003f0: a0fe 163d c1c7 b0bd e6be 023c 1a20 1e3c
0.010246531 -0.033710606 -0.0608634 0.047667675 -0.0030108024 -0.0201709 0.0155707 0.025617747
-0.034451425 -0.012133861 -0.0655393 0.029005483 -0.043893278 0.02200649 -0.041160204 -0.00561155
0.019623302 0.037256334 -0.004886127 -0.017517114 0.10043734 -0.049182996 0.008660858 0.055961277
0.042530432 0.061856832 -0.05374652 -0.050922304 -0.0010016611 -0.050162103 0.039461404 -0.02005254
-0.0018475413 0.013518766 -0.0026269336 -0.042605836 -0.02560068 0.061391216 0.024304088 0.009731628
0.014272077 0.049766712 -0.035502363 -0.009165571 -0.024962736 0.011819418 0.050137404 0.018653335
0.010958906 -0.036320895 0.00094300916 -0.039177433 0.007915885 -0.11902532 0.026468351 -0.018738147
-0.002987196 -0.0049296925 0.048376437 -0.0011685446 -0.018127691 -0.002565971 0.04409516 -0.03329043
-0.013286727 -0.016161568 -0.050496083 0.010684378 0.0014834541 0.056471217 0.019488093 -0.023449725
-0.038731273 0.052949145 -0.006832163 0.018011704 0.018083343 0.0067785894 -0.04672063 0.03825748
-0.031256102 0.057447184 -0.03335267 0.043688897 -0.026580224 0.025926987 -0.011646757 0.012114181
0.01566268 -0.009549198 -0.0030771536 0.055396806 -0.019506281 -0.04020264 0.04718832 -0.015362609
0.031622026 0.05869569 -0.044147097 -0.060658127 -0.015394372 -0.014981519 -0.003763179 0.010866288
0.03466499 0.011997601 -0.011171918 -0.006984816 0.016802613 0.043171242 -0.029867264 0.042953037
-0.04812911 0.018781528 0.076415464 0.10899559 -0.050387412 0.024587572 0.061286744 -0.07810929
0.018719802 -0.0073531107 0.0142576005 0.04474261 0.006157713 0.10246713 -0.049769312 -0.020336166
0.00084139453 0.0040890267 0.04619897 0.032421652 -0.042946614 -0.023127977 -0.026118932 -0.017409416
-0.047997463 -0.0063177696 0.012866055 -0.058538057 -0.01854725 0.020387297 0.004977682 -0.03163984
0.0034070935 0.115941584 -0.028512945 0.006171188 0.035636216 0.007554258 -0.036635607 -0.03887901
-0.033684433 0.03222716 -0.061876703 -0.09827831 -0.005785425 -0.003970218 -0.017518818 0.0053131264
-0.007735708 0.017381264 0.0019603514 0.028350912 -0.0358413 -0.005726909 -0.077586725 0.04278946
-0.008571982 0.002334112 0.068348035 -0.0014074014 0.012552962 -0.043779265 -0.019937377 0.028056692
0.042809963 0.09952678 0.026582256 0.04848882 -0.060776867 -0.031271048 0.029241 -0.036912173
0.0065904083 0.031351846 -0.040732644 -0.017929152 -0.031510297 -0.0003149535 -0.06288704 0.057255328
0.033177286 0.042687375 -0.02878403 -0.0059415177 0.07487896 0.050010588 0.064359844 -0.011828449
-0.012080727 -0.008817488 -0.02083195 0.06147154 -0.018963687 0.009182646 -0.059239592 0.016712848
-0.0035560238 -0.011776823 -0.009811194 0.089374505 -0.061638203 -0.016485736 -0.005035234 0.014171343
-0.009299152 0.045032445 -0.046060465 -0.028587097 0.063666046 -0.039364047 0.014608277 -0.0162206
0.007503279 -0.08812609 -0.042161994 0.041036412 0.0877202 -0.012928347 0.034024358 0.0712553
0.057896003 -0.08744135 0.051662214 0.04876037 0.026867943 0.0043760245 0.04663065 0.042026
0.01504086 -0.049816933 -0.0017910145 0.036689997 0.046310972 -0.051818036 -0.046026137 0.009732056
0.0070102587 0.032956764 0.013024308 -0.04496228 0.036863923 -0.0863185 0.007980084 0.009651208

model.3.bias f4 [512]
00000000: cacf 373d d508 ce3c 9a35 35bd 7ee7 2b3d
00000010: 64ac f6bb 11cf 103d a878 5fbd b4eb ef3c
00000020: 84b6 07bd 0154 1d3c 35d3 63bd 1893 713d
00000030: f617 4c3c 5b36 4abd d117 733c fe1c 45ba
00000040: fe5a 3bbd c45c 773d 4ad4 3f3d 6bd8 923c
00000050: 826e 41bb 18bd 29bd b493 4fbd 269a 753d
00000060: 8048 603d 827d 19bc aa52 343d 341c 213d
00000070: 505e 2dbd 30ea 053d 9497 3bbd 0f98 0f3c
00000080: 5fa1 ebbc 42a9 0cbd 0873 053d c707 7a3c
00000090: ca09 00bd 72c6 fc3c 751f 8d3c de27 16bc
000000a0: 4655 acbc 0d95 2c3d 95d0 313d 7408 22bc
000000b0: 2699 46bd c32f 9c3c 8fce 55bd de77 793c
000000c0: c368 653d 1aab a4bc f4d2 3d3d dd36 4bbd
000000d0: 8037 ff3c 6757 03bd 7291 21bd 10f0 fc3c
000000e0: 1a58 9fba 9f7e 463c 9d8c 853c b2e6 47bd
000000f0: b995 69bd 973c dcbb 3e2d 2c3c 27b6 3abd
00000100: 5aa2 793d afb5 733d 9096 1f3d e8f7 9c3c
00000110: d690 19bb 0a83 663d ced7 33bd 7da8 163d
00000120: 1ba2 5f3d 46ab 4fbd 3831 fabc d507 b63b
00000130: ce38 7d3c f949 7cbd 7072 59bd 5a83 903c
00000140: b90d ca3c 6407 1fbd f13c 4f3c bd25 703c
00000150: f6dd 4ebd 626a 283a d6b9 ef39 5c74 06bd
00000160: b7d5 76bc 9fbd 943c 4a66 1ebc 767e 03bd
00000170: f033 483d 473d 74bc de5d 92bc d314 623d
00000180: 43ab 283d 38ce d3bc 0590 79bb 026e c4bc
00000190: 55d6 ae3c 7324 05bc d620 6ebd da1e ef3c
000001a0: c949 653d eaf5 50bc 8270 923b c8ba e43c
000001b0: 4c4d 8c3b 293e f53b e1b8 23bd b053 643d
000001c0: bc7c 573d 8078 153d 711f d93c 1457 b7bb
000001d0: 56ed 5c3c 459d c1bc 39f3 cebb 9e27 523d
000001e0: bb21 953b b496 583d 5e30 fc3c 79ed 52bd
000001f0: de0a 3f3d 4a9a 5abd 9901 c0bc 85b1 79bd
00000200: 28d5 c8bb fb1f 0a3c 9674 25bc c7c7 183c
00000210: ede9 10bd aa7c 623d da91 b53b 7b6e 36bd
00000220: 94ce 1fbd a049 193c 20ee d5bc b42a d53b
00000230: 1305 3ebc 5280 a3ba ad66 3a3d f869 e9bc
00000240: ba3a 78bd 5f45 1dbc 0889 463c 58f9 4b3d
00000250: 1d37 373d 6c50 1b3d d7d4 c53c d445 fa3c
00000260: cd95 48bd 1b58 27bd e831 42bd 03b3 753c
00000270: 8f5f 4dbc b8ad 133c ecc0 09bd 4b2d 4f3d
00000280: 446f 34bd 40cd 6dbd 1e5e 2ebc c52f bb3c
00000290: b0a1 2f3d 5b52 7bbd bbae 89bc 1d2a 6ebd
000002a0: 9f27 203c f4cc 5e3b 6ad6 1abd 644b c1bc
000002b0: 019e 35bc 2a37 423c b6a5 efbc 5878 68bd
000002c0: 0dbd 9e3b 1a72 3a3c 2e09 f4bc b45c adbc
000002d0: a87d 623d c2f0 583c 8b29 5ebd d6b7 633c
000002e0: 7b00 2b3d 62f8 cbbc 7f3d 4dbd 963e 71bd
000002f0: 2100 053c bf08 633d fdac d03c 38e9 2cbc
00000300: fb45 793d 190d 413d b8eb a2bc c69d 1cba
00000310: 1265 4bbd b6f2 c9bb 1693 16bd 8850 613d
00000320: c113 24bd 32c5 64bd 2d83 503d a2d2 17bd
00000330: 1b75 0fbd d3d3 32bd de8d 383a 8212 943c
00000340: dc03 013d 8fc0 6a3d 3076 0a3d 448f 2fbd
00000350: c0eb 383d 8e6a 5dbc bb49 0f3b d40a 4b3d
00000360: c097 5fbd 323d 783d 1eec 8b3c 6df7 14bd
00000370: bc19 84bc 70ab 803c 2cb3 6a3d f119 013d
00000380: 409b 9b3c 8e7f d53c 2c16 903c 64b5 1fbd
00000390: 74e0 733d 0005 d93c 1e6b 4abd b401 ca3c
000003a0: befd 18bd 4e14 c4bc 752b 7ebb 44f4 713d
000003b0: f911 67bd dfcf 64bd 66c3 943c 24c8 1b3d
000003c0: 6148 4a3d 437d 293c fbba 6c3d e915 31bd
000003d0: 22c5 4abb c684 afbc 3d04 1cbc 1c20 4cbd
000003e0: 7817 5c3c 46c9 f539 42c4 83bc 4ec8 12bd
000003f0: d439 60bd 1825 15bd 74f3 733d 11c1 483d
0.044875897 0.025150696 -0.04424057 0.041968815 -0.007527875 0.035353724 -0.054558426 0.029287197
-0.033133045 0.009602548 -0.055621345 0.05897817 0.012456885 -0.049368244 0.014837221 -0.0007519274
-0.045741074 0.060391203 0.046833314 0.017925462 -0.002951533 -0.0414401 -0.05067797 0.05996146
0.05475664 -0.009368302 0.044024147 0.039333537 -0.04232627 0.03269404 -0.045798853 0.008764281
-0.028763471 -0.034341104 0.032580405 0.015260643 -0.031259336 0.030856345 0.017226914 -0.0091647785
-0.021036755 0.042134333 0.04341181 -0.009889711 -0.048485897 0.019065743 -0.052198943 0.0152263325
0.05600811 -0.020101119 0.04634376 -0.04961287 0.031154394 -0.032065775 -0.039445348 0.03087619
-0.0012156994 0.01211515 0.016302401 -0.048803993 -0.057027552 -0.00672109 0.010508833 -0.04558387
0.060945846 0.05949944 0.038961947 0.01916118 -0.0023432276 0.056277312 -0.04390698 0.036781777
0.054597955 -0.05070045 -0.030541047 0.005555133 0.015455438 -0.061593983 -0.05308765 0.017640758
0.024664747 -0.038825408 0.012648807 0.014657435 -0.050504647 0.00064245437 0.0004572409 -0.032825813
-0.015065602 0.018156825 -0.009667942 -0.032103024 0.048877656 -0.014907188 -0.017867025 0.05519564
0.041178953 -0.025855169 -0.0038080227 -0.023978237 0.021342436 -0.008126366 -0.058136784 0.029189516
0.05597857 -0.012753943 0.0044689784 0.027921095 0.0042816754 0.0074842167 -0.039971236 0.055743873
0.05260919 0.03649187 0.02650425 -0.0055950973 0.01348432 -0.023634562 -0.0063156155 0.051307313
0.00455114 0.052878097 0.030784782 -0.051496003 0.046641223 -0.053369798 -0.023438262 -0.06096031
-0.006128926 0.008430476 -0.010098597 0.009324974 -0.03537934 0.05529467 0.0055410685 -0.044538956
-0.039015368 0.0093559325 -0.026114523 0.0065053347 -0.0115978895 -0.0012474156 0.045508076 -0.028492913
-0.06060288 -0.009599059 0.012117632 0.04979834 0.044730294 0.037918493 0.024149342 0.030550875
-0.048970986 -0.04085551 -0.047410876 0.014996293 -0.01253499 0.009013586 -0.03363125 0.050580304
-0.044051424 -0.05805707 -0.0106425565 0.022849927 0.042878807 -0.061357837 -0.01680695 -0.05814563
0.009775071 0.0033996673 -0.037802137 -0.02359552 -0.011085034 0.011853972 -0.029253822 -0.056755394
0.004844314 0.011379743 -0.029789533 -0.021162368 0.055295616 0.013240995 -0.054238837 0.01389881
0.041748505 -0.024898712 -0.050107475 -0.058897577 0.0081177065 0.055428263 0.025473112 -0.010553651
0.060857754 0.04713163 -0.01988779 -0.0005974438 -0.049656935 -0.0061629666 -0.036761366 0.05500844
-0.0400579 -0.055852123 0.05090635 -0.03706611 -0.03502379 -0.043659043 0.0007040183 0.018075231
0.03149782 0.057312544 0.03380412 -0.042861238 0.045146704 -0.013514174 0.0021864015 0.049570873
-0.05458808 0.060605235 0.017080363 -0.036368776 -0.016125552 0.015706748 0.057299778 0.03151888
0.018994927 0.0260618 0.017588697 -0.038991347 0.059540227 0.026491642 -0.04941856 0.024659015
-0.037351362 -0.023935463 -0.0038783227 0.05907084 -0.056413624 -0.055862304 0.01815958 0.038032666
0.049385432 0.010344806 0.057795506 -0.043233786 -0.0030940254 -0.021425616 -0.009522495 -0.04983531
0.01343333 0.00046880002 -0.016084794 -0.035835557 -0.05474265 -0.03641233 0.059558347 0.049012247
