pythorch saved models/GAN_Discriminator_model.pt (torch, 38736 bytes, 3 tensors)

net.0.weight f4 [128, 69]
0	0x3d3b32b0	0.045702636
1	0x3b8c22c8	0.004276607
2	0x3de71bb2	0.11284579
3	0xbe9661b7	-0.29371426
4	0xbe53108c	-0.20611781
5	0xbe513ae5	-0.20432623
6	0xbd5f0791	-0.054450575
7	0xbe824b2d	-0.2544798
8	0xbeacbcce	-0.33737797
9	0xbdf9ea95	-0.12202946
10	0x3e161a25	0.14658411
11	0xbdc55707	-0.0963574
12	0xbc1c30fd	-0.009533164
13	0x3e132228	0.14368498
14	0xbe356127	-0.17712842
15	0x3d39ecf6	0.045392
16	0xbe914c2d	-0.2837843
17	0x3e1e981c	0.15487713
18	0xbc84b095	-0.016197482
19	0xbf086fb3	-0.5329544
20	0x3e0b35ee	0.13594791
21	0xbe4994b0	-0.19685626
22	0xbd15f60b	-0.036611598
23	0x3d727b8a	0.059199847
24	0xbedff7d7	-0.43743774
25	0xbc2bb392	-0.010479825
26	0xbd7adda7	-0.06124654
27	0x3e5dee91	0.21673037
28	0x3ccc4e85	0.024939785
29	0x3ad0be1e	0.00159258
30	0x3e664471	0.22487046
31	0x3e99f1c8	0.30067277
32	0xbe5b8e4a	-0.21440998
33	0x3e5f87b4	0.2182911
34	0x3d8a6ddd	0.06759236
35	0xbe4f2542	-0.20229056
36	0x3e2aa32e	0.1666381
37	0xbd8ac913	-0.06776633
38	0x3d3a7871	0.045525018
39	0x3e540aa3	0.20707183
40	0x3e3b34e4	0.18281895
41	0x3e6af277	0.22944055
42	0xbe89e5ba	-0.2693308
43	0xbe5722f3	-0.21009426
44	0xbcbdeaab	-0.023183187
45	0xbb59505d	-0.0033159473
46	0xbde0689e	-0.10957454
47	0x3d914ab4	0.070943266
48	0x3c91256a	0.017718036
49	0xbed035fc	-0.40666187
50	0x3dd70e5c	0.10500786
51	0x3e57ed73	0.21086673
52	0xbc1dcd93	-0.009631532
53	0x3d892082	0.066956535
54	0x3cb15d62	0.021650974
55	0xbe9a5af8	-0.3014753
56	0x3e3ec635	0.18630297
57	0xbed4e17e	-0.41578287
58	0x3cfba67d	0.030719036
59	0x3d2d6791	0.042335097
60	0xbe0ee569	-0.139547
61	0xbe04b6aa	-0.12960306
62	0x3dedb577	0.11606877
63	0x3d373678	0.04472968
64	0x3ceb6427	0.02873428
65	0xbf07a6ec	-0.5298908
66	0xbbd3dccd	-0.0064655305
67	0x3e142aa9	0.14469399
68	0x3d940c15	0.07228867
69	0x3b41d77c	0.0029577902
70	0x3d8552df	0.06509947
71	0x3e331848	0.17489731
72	0x3c343baa	0.011000553
73	0x3e17e6f4	0.14834195
74	0x3d1f4a2d	0.0388891
75	0xbd95e464	-0.07318953
76	0x3cffe026	0.031234812
77	0xbe2ce7be	-0.16885278
78	0x3e6f1d35	0.23350985
79	0xbe2cb0d1	-0.16864325
80	0xbde010dc	-0.10940716
81	0xbdccca50	-0.099995255
82	0x3d593e92	0.053038187
83	0x3e8462f7	0.25856754
84	0x3c469560	0.012120575
85	0xbda2dff0	-0.07952869
86	0xbd332b66	-0.04374256
87	0x3f058c37	0.52167076
88	0xbe9dafdf	-0.30798241
89	0x3e5c9eb0	0.2154491
90	0xbec6409e	-0.38721174
91	0x3f2fe035	0.6870149
92	0x3f498847	0.7872357
93	0x3e054aac	0.13016766
94	0xbd9d81ab	-0.07690748
95	0x3dd018ec	0.101610035
96	0xbda72d1b	-0.081629
97	0xbecc57dc	-0.3991078
98	0xbdbc3962	-0.091906324
99	0x3e0258b0	0.12729144
100	0xbe9523e3	-0.29128942
101	0xbd5ba3eb	-0.05362312
102	0xbcbb589a	-0.022869397
103	0x3e3495c0	0.1763525
104	0xbe7b123d	-0.24518676
105	0x3e13f340	0.14448261
106	0x3d9e7f6e	0.07739149
107	0xbce63ea4	-0.028106041
108	0x3d76b518	0.0602313
109	0xbe69fb11	-0.2284968
110	0xbd3111be	-0.04322981
111	0x3d92215b	0.07135268
112	0xbd4c47e2	-0.04987324
113	0xbd2cb54f	-0.042165097
114	0xbc146d47	-0.009059257
115	0xbc317205	-0.010830407
116	0xbcadc5c7	-0.021212472
117	0xbb26a50c	-0.0025427965
118	0xbc27263d	-0.010201988
119	0xb8089908	-3.256745e-05
120	0x3c960e12	0.018317256
121	0xbe24c752	-0.1609166
122	0x3e725f72	0.23669222
123	0xbe098ee4	-0.13433415
124	0x3e649da2	0.22325757
125	0x3d05cb7a	0.032664753
126	0xbe3662f4	-0.17811185
127	0x3c767ed2	0.015044885
128	0xbc65b6f6	-0.014020672
129	0xbee0ebb8	-0.4392984
130	0x3d04833c	0.032351717
131	0x3e4eb7d3	0.20187311
132	0xbe2ca751	-0.16860701
133	0xbec58fc9	-0.38586262
134	0xbcaba64b	-0.020953318
135	0xbf0a88cd	-0.5411499
136	0xbeb15f59	-0.34643057
137	0xbc2dc4d2	-0.010606008
138	0xba0d98a2	-0.0005401467
139	0x3cf797d6	0.030223768
140	0x3e20e520	0.15712404
141	0x3de77a1c	0.113025874
142	0xbd194ad5	-0.03742488
143	0x3bf9e1eb	0.0076258085
144	0x3d47bbe1	0.04876316
145	0x3e7cd88a	0.24691978
146	0xbcb08c7a	-0.02155136
147	0xbe97abaa	-0.29623157
148	0x3dd105a3	0.10206153
149	0x3da3a45b	0.07990333
150	0xbd35a9b9	-0.044351313
151	0x3e101435	0.14070208
152	0xbd8bb889	-0.06822307
153	0xbe4e1c14	-0.20127898
154	0xbd88cd12	-0.06679739
155	0xbc6abbb4	-0.0143269785
156	0x3cabcca4	0.020971604
157	0xbdfcaf7c	-0.123381585
158	0x3e0615f5	0.13094313
159	0xbe057000	-0.13031006
160	0x3de61d92	0.11236109
161	0xbb06833d	-0.0020525001
162	0xbe7558b2	-0.23959616
163	0x3e97e180	0.2966423
164	0xbe84906c	-0.25891435
165	0xbe9a5772	-0.3014484
166	0x3cd2bf0c	0.025725864
167	0xbc85b41a	-0.01632123
168	0xbf280dc4	-0.65646005
169	0x3d512668	0.051062018
170	0xbc17737f	-0.009243845
171	0xbde0d8db	-0.10978862
172	0xbd6d50ca	-0.057938375
173	0x3df6bc35	0.120476164
174	0x3db0f444	0.0864034
175	0x3daea10b	0.0852681
176	0xbe100e20	-0.14067888
177	0xbe65cc41	-0.22441198
178	0xbe7ee516	-0.24892077
179	0xbefb2b49	-0.4905646
180	0xbe4866af	-0.1957042
181	0xbd7a2d7b	-0.06107853
182	0x3e0f85f9	0.1401595
183	0xbd322004	-0.043487564
184	0xbe4136a8	-0.18868506
185	0xbc90ed04	-0.017691143
186	0x3e0ac5e1	0.13552047
187	0x3e170c21	0.1475072
188	0x3c12bd3b	0.008956249
189	0x3e24ff75	0.16113074
190	0xbd22958b	-0.039693397
191	0x3d00069e	0.03125631
192	0x3ce8bfd0	0.028411776
193	0x3dcb1d08	0.09917647
194	0x3a1c2ded	0.0005957771
195	0xbf2d6166	-0.67726743
196	0x3cd73903	0.026272302
197	0xbd866f46	-0.065641925
198	0xbda17121	-0.07882906
199	0x3e328db5	0.1743687
200	0x3e24f960	0.16110754
201	0xbccc72ad	-0.024957025
202	0x3d1da6c3	0.038489114
203	0xbf05a0f8	-0.52198744
204	0xbe0cbe72	-0.13744524
205	0x3dff5b16	0.12468545
206	0xbd1f118b	-0.03883509
207	0x3ce18947	0.02753128
208	0x3e896fdb	0.2684315
209	0x3ea10509	0.31449154
210	0xbcb73866	-0.02236576
211	0xbdc25444	-0.09488729
212	0x3de6a2ee	0.11261545
213	0xbe02faa2	-0.12790921
214	0x3ec7e51f	0.39041993
215	0x3cb19f38	0.021682367
216	0x3dabce6a	0.0838898
217	0x3da1c49e	0.0789883
218	0x3ea8147e	0.32828134
219	0x3da834c1	0.08213187
220	0xbe246158	-0.16052759
221	0x3e5dfb83	0.21677975
222	0xbea3a4cc	-0.31961668
223	0x3ed67675	0.4188725
224	0x3e96b7f8	0.29437232
225	0x3e585fb6	0.21130261
226	0xbd31244f	-0.043247517
227	0xbcf56043	-0.029953128
228	0x3e0ba2a7	0.13636266
229	0x3da55944	0.08073667
230	0xbb49db59	-0.0030800907
231	0x3e91e4ac	0.28494775
232	0x3e2f95e8	0.17147028
233	0x3e5c0539	0.21486367
234	0x3e54eb4c	0.20792884
235	0x3da86bc8	0.08223683
236	0x3e2dfa4f	0.16990016
237	0xbdae5c6d	-0.085137226
238	0x3e4d84ba	0.20070162
239	0x3e7a2817	0.24429356
240	0xbe1463f1	-0.1449125
241	0xbe7e3263	-0.24823909
242	0x3e4d61f1	0.20056893
243	0x3da30904	0.07960704
244	0x3e2c9f31	0.16857602
245	0xbdbd2e4c	-0.09237346
246	0x3e078672	0.1323488
247	0x3e577ce1	0.21043731
248	0xbaa86aaa	-0.0012849171
249	0xbc9ef0f4	-0.019402005
250	0xbd60de1d	-0.054899324
251	0x3e26d314	0.16291457
252	0xbd6dcf77	-0.058059182
253	0xbd4e9f30	-0.05044478
254	0x3c0c59fa	0.008566374
255	0x3e7068f0	0.2347753

net.0.bias f4 [128]
0	0x3e67624f	0.22596096
1	0x3e5df41c	0.21675152
2	0xbdc2ff49	-0.09521348
3	0x3da42123	0.08014133
4	0x3f25f330	0.648242
5	0x3f808309	1.0039989
6	0xbf72c1b6	-0.9482683
7	0xbebcf35b	-0.36904415
8	0xbf8cc353	-1.0997108
9	0x3e926bdf	0.28597924
10	0xbf4885f0	-0.7832937
11	0x3f70fd41	0.94136435
12	0x3e158ecc	0.14605254
13	0x3e703914	0.23459274
14	0xbc80f768	-0.015742972
15	0xbf39a286	-0.72513616
16	0x3df951a3	0.12173774
17	0xbf3254eb	-0.69660825
18	0xbe80f3dd	-0.25186053
19	0xbf29ee60	-0.66379356
20	0xbe25ec04	-0.16203314
21	0xbde4692e	-0.11152874
22	0x3ef9e62f	0.4880843
23	0xbe4eb1fc	-0.20185083
24	0xbea1cb01	-0.31600192
25	0xbe51bbae	-0.2048175
26	0xbf259be4	-0.64690995
27	0x3f0599ec	0.5218799
28	0x3e645b15	0.2230037
29	0xbf24a5c9	-0.6431547
30	0xbd8a377f	-0.06748866
31	0xbfe70edd	-1.8051411
32	0x3e155413	0.14582853
33	0xbd64f2c0	-0.055895567
34	0xbd3d4300	-0.046206474
35	0x3debae93	0.11507907
36	0xbd997eed	-0.07494912
37	0xbe12be23	-0.14330344
38	0xbe674ae3	-0.22587161
39	0xbe075cf1	-0.13219048
40	0x3f4cd325	0.8000968
41	0xbca597b8	-0.020213947
42	0xbd3c074d	-0.0459054
43	0xbed3765c	-0.4130124
44	0x3eb9cc2e	0.3628859
45	0x3e344094	0.1760276
46	0xbe94f4e4	-0.29093087
47	0xbf1cd2e6	-0.61259305
48	0x3d170588	0.03687051
49	0x3e106f13	0.14104871
50	0xbf15041a	-0.58209383
51	0xbf39d189	-0.7258535
52	0xbf02d56f	-0.51106924
53	0xbcfddb12	-0.03098825
54	0xbe7ce24e	-0.24695703
55	0x3e7731db	0.24140112
56	0xbf6ea046	-0.9321331
57	0xbe61b88a	-0.22043052
58	0x3de9f07f	0.11422824
59	0xbeb82236	-0.359636
60	0xbdfe8ff0	-0.12429798
61	0xbd97cfa8	-0.07412654
62	0xbe864796	-0.2622649
63	0xbf2ed9bb	-0.6830098
64	0x3d82122c	0.06351122
65	0x3ed3e59d	0.4138612
66	0xbde78cd5	-0.113061585
67	0xbecded3b	-0.40220055
68	0xbd7807ab	-0.060554188
69	0xbeb6510e	-0.35608715
70	0x3efca15b	0.49341854
71	0xbf95a69f	-1.1691474
72	0x3fcb8787	1.5900735
73	0xbd871fce	-0.06597863
74	0xbecb6f38	-0.3973329
75	0x3f669f46	0.9008678
76	0x3f7694f0	0.9632101
77	0x3f3dd4ae	0.7415265
78	0xbe2b4f36	-0.16729435
79	0xbf9e6b17	-1.2376431
80	0xbf5f1ea9	-0.8715616
81	0x3e06ef92	0.13177326
82	0xbe90d20c	-0.28285253
83	0xbf5d5eee	-0.86472976
84	0x3ed3d021	0.41369727
85	0x3e4903e0	0.19630384
86	0x3d615a45	0.05501773
87	0xbdcc0dfb	-0.09963604
88	0x3eb64232	0.35597378
89	0x3d84b61e	0.064800486
90	0xbe4d9176	-0.2007502
91	0xbeed5285	-0.4635202
92	0xbee2bef1	-0.44286302
93	0xbeb2986c	-0.34881914
94	0xbef6ec76	-0.4822728
95	0x3ec1b62c	0.378343
96	0x3f00f777	0.503776
97	0xbdf078ae	-0.11741768
98	0xbf195a83	-0.59903735
99	0xbea67168	-0.32508397
100	0x3df929ed	0.121662
101	0xbed25f33	-0.41088256
102	0xbf013ea0	-0.50486183
103	0xbefc41fe	-0.49269098
104	0xbf228085	-0.63477355
105	0x3e489b6b	0.19590537
106	0xbed7a5bc	-0.42118633
107	0xbe50f83e	-0.20407197
108	0x3e6199cc	0.22031325
109	0xbe57c13e	-0.2106981
110	0xbd37eff8	-0.044906586
111	0x3fc9e0bb	1.5771707
112	0x3e0f6044	0.14001566
113	0x3def965a	0.11698599
114	0xbf56dca6	-0.8393043
115	0xbe211002	-0.15728763
116	0xbd861482	-0.0654688
117	0xbe778736	-0.24172673
118	0x3ee555bb	0.4479197
119	0xbf3d37b3	-0.73913115
120	0x3b4c2bdc	0.0031154072
121	0xbf101f28	-0.5629754
122	0xbf275610	-0.65365696
123	0x3e730d84	0.23735625
124	0x3e440828	0.19143736
125	0xbf07c28a	-0.5303122
126	0xbe891c35	-0.26779333
127	0x3e22f966	0.1591545

net.2.weight f4 [1, 128]
0	0x3e6758fe	0.22592542
1	0xbf27f8db	-0.656141
2	0x3e8b7277	0.27235767
3	0x3e8c1e9b	0.273671
4	0xbf11dcc6	-0.569775
5	0xbf158c87	-0.5841755
6	0x3f43ffc8	0.76562166
7	0x3e8651a4	0.26234162
8	0xbf6bd815	-0.9212659
9	0xbf290f43	-0.6603891
10	0x3f94c3c9	1.1622249
11	0xbf22adfa	-0.6354672
12	0x3ed08c92	0.40732247
13	0x3f0e97d3	0.55700415
14	0x3f05004a	0.51953566
15	0x3ed40c9f	0.4141588
16	0x3f2561b2	0.64602196
17	0xbf3d7455	-0.74005634
18	0x3eb5fa69	0.3554261
19	0x3f4dba20	0.8036213
20	0xbf273e3d	-0.65329343
21	0x3f021feb	0.5082995
22	0xbf0a1950	-0.53944874
23	0xbf1ae942	-0.60512173
24	0x3e896358	0.26833606
25	0x3e8aa72e	0.27080673
26	0xbf3c42aa	-0.7353922
27	0xbf0cf661	-0.55063444
28	0xbee6c6c2	-0.45073515
29	0x3f2415fb	0.6409604
30	0xbf3a131a	-0.72685397
31	0xbff1b47e	-1.8883207
32	0xbf1b29ec	-0.6061084
33	0xbf0ca9e2	-0.5494672
34	0x3e1d42fd	0.15357585
35	0x3e8f17a0	0.27947712
36	0xbf08ac96	-0.53388345
37	0xbeee635c	-0.4656018
38	0xbf4be736	-0.79649675
39	0x3ea0f0b8	0.31433654
40	0x3eaef666	0.34172362
41	0x3edbf3a7	0.4295933
42	0xbf1ed677	-0.62046
43	0x3e869f93	0.2629362
44	0xbf140ae8	-0.5782914
45	0x3e855c02	0.2604676
46	0x3e4dd223	0.20099692
47	0x3ea91389	0.33022717
48	0xbf05f235	-0.52322704
49	0x3f0dd26a	0.5539919
50	0xbfe58097	-1.7929868
51	0xbfbde5a9	-1.4835712
52	0x3ecd5496	0.40103596
53	0x3e2a5fe6	0.16638145
54	0xbf0ee7e1	-0.5582257
55	0xbf0c82ed	-0.54887277
56	0x3f86ddc7	1.0536431
57	0xbf41b0a6	-0.7566017
58	0xbee3a2cd	-0.44460145
59	0x3e896780	0.26836777
60	0x3f3da44a	0.7407881
61	0x3f5cc5ed	0.8623951
62	0x3e237e82	0.15966228
63	0x3f1a155f	0.6018886
64	0x3fc3784c	1.5271087
65	0xbf346362	-0.70464146
66	0xbf1e1274	-0.6174691
67	0x3e342cdf	0.17595242
68	0x3f09b940	0.53798294
69	0x3f22c230	0.63577557
70	0x3eec89d3	0.46198902
71	0xbf6246fb	-0.8838956
72	0xbf261537	-0.6487612
73	0x3ea48b98	0.32137752
74	0xbf0b3892	-0.54383194
75	0xbed357c5	-0.412779
76	0xbf1dc033	-0.616214
77	0xbf117c39	-0.56830174
78	0x3f4ce086	0.80030096
79	0xbf99e398	-1.2022581
80	0xbf5837a5	-0.84459907
81	0xbec2d670	-0.38054228
82	0xbf261f25	-0.6489127
83	0xbfdedfbb	-1.7412027
84	0xbee0b3b1	-0.43887094
85	0xbece0a1a	-0.40242082
86	0xbeb3827b	-0.35060486
87	0x3f1b67da	0.6070534
88	0x3e6a9290	0.22907472
89	0xbefde2cc	-0.49587095
90	0xbf2dc622	-0.6788045
91	0x3f371729	0.71519715
92	0x3fac291d	1.3450047
93	0xbf04fb3b	-0.5194585
94	0x3eebf34e	0.46084064
95	0x3eefc4b5	0.46829763
96	0xbf0280ec	-0.5097797
97	0xbf3ef1e6	-0.7458786
98	0xbf6d5f2a	-0.92723334
99	0x3ed681f3	0.41896018
100	0x3e7231df	0.23651837
101	0xbf4353b6	-0.7629961
102	0xbf1e7e89	-0.6191183
103	0x3f204b50	0.6261492
104	0x3ee4a535	0.44657293
105	0x3f8832ce	1.0640504
106	0x3f02800c	0.50976634
107	0xbf1c2390	-0.60991764
108	0x3ef2b4f5	0.47403684
109	0x3f8c9849	1.0983974
110	0x3ea721c7	0.32642958
111	0xbf083b12	-0.53215134
112	0xbf069fcd	-0.52587587
113	0x3f29ffa7	0.6640572
114	0x3f17c9f8	0.59292555
115	0xbef93db7	-0.48679897
116	0x3ea70649	0.32621983
117	0x3ed63d42	0.4184361
118	0xbf273586	-0.65316045
119	0xbf49e6b7	-0.7886767
120	0xbf072893	-0.52796286
121	0xbf9c93e5	-1.2232634
122	0xbf916cfe	-1.1361387
123	0xbf20aab2	-0.6276046
124	0xbf12260e	-0.57089317
125	0xbfa91034	-1.320807
126	0xbf12acef	-0.57295126
127	0xbf053e91	-0.52048594
