pythorch saved models/gan_discriminator.pth (torch, 206828 bytes, 5 tensors)

feature_extractor.0.weight f4 [256, 69]
0.015447533 -0.23694581 0.2855939 0.3117883 0.07802752 -0.26926157 0.03502534 -0.010059668
-0.1791466 0.028674114 0.07481123 0.067049176 -0.070219755 -0.0022972166 -0.19772707 0.027647614
0.06451774 -0.07778881 0.19233711 0.046150792 0.10718291 0.0010639171 0.02829448 -0.08993752
-0.025311183 0.13609222 -0.24869885 0.23490772 -0.24420203 0.29263958 0.07171651 0.026319005
-0.0613394 0.110043295 -0.02332749 -0.30197036 -0.07841737 0.17946203 0.014131975 -0.123114206
0.28839248 -0.092508696 0.30060208 0.025289718 0.027468212 0.013674049 0.17832716 0.013307939
0.08267071 0.07447535 -0.17631683 0.10982364 -0.012379477 -0.17730954 -0.62149817 0.21092099
0.0059117405 0.014787314 0.023953937 -0.00052029843 0.1356693 0.040542476 -0.21030805 0.008282929
0.10770322 -0.014011345 0.09210994 -0.1626872 0.0037567702 0.010126024 0.08761861 -0.16093034
-0.04719635 0.10911868 -0.20561504 -0.0046095503 0.033384115 -0.064149715 -0.068286136 -0.17218523
-0.012085266 0.01096471 0.057977088 0.17633201 -0.11219361 0.1316161 -0.09158228 0.002069864
0.16461259 -0.17042921 0.052721094 -0.067649834 0.1129262 -0.08457051 -0.004916066 0.15407726
-0.0516215 -0.0054665185 -0.19850801 -0.002067705 -0.39677793 0.53617793 0.3212078 0.15928492
-0.07857043 0.145631 -0.04501437 -0.10451911 0.048505403 0.30752364 0.011671157 -0.11350482
-0.027917217 -0.025879137 0.00018793135 0.028208613 0.0010288387 0.027146244 0.15630354 -0.0062888465
0.23479035 0.42681518 -0.39872873 0.03230296 -0.07430967 -0.0012416618 0.06390735 -0.19942027
0.0058700615 0.34017798 0.011963245 -0.19174789 0.06986823 -0.277519 0.076458745 -0.015637122
0.1953231 0.0035148785 -0.0011248911 0.0886898 0.16184464 0.36604744 0.38523427 0.17052601
-0.1414896 0.03346654 0.0045946646 0.17931566 0.039748617 -0.13522193 0.073780246 -0.0009727119
0.15607095 -0.094327316 -0.19276741 -0.2817309 -0.07029816 0.04074894 0.06257549 0.27521908
0.0559301 0.040381785 -0.21635649 -0.08282072 0.2258742 0.065750755 0.10658708 -0.018593973
0.22148885 -0.026001878 -0.15746425 0.08082689 -0.123009436 -0.030493474 0.05383323 0.004518731
-0.0799827 0.0014538013 -0.012815187 -0.2126589 0.0825914 -0.05533225 -0.058805056 0.0009087656
-0.3472513 -0.002806348 -0.03476387 -0.06923361 0.0019109318 0.24062115 -0.5543184 -0.26740614
-0.1411558 -0.20819648 -0.0036013725 0.015313458 0.13913074 -0.0041013155 0.004129264 0.1020578
-0.08722907 -0.12381866 -0.034910318 -0.00049161096 -0.08044355 -0.177327 0.0047266316 -0.003975892
-0.14825177 -0.0338789 0.31839263 -0.12151524 0.07776244 -0.008686365 0.030834556 -0.1334932
0.010098028 0.004151027 -0.164707 -0.01586404 -0.009614144 -0.14645313 -0.21770127 0.02682749
-0.022224009 0.059109516 0.14588591 0.062332697 -0.13292924 -0.0011694313 0.026863748 0.0001438736
0.00040226465 0.15664338 -0.18363477 0.14039989 -0.06362798 -0.09253204 -0.05734044 0.1086731
0.18600285 0.07096576 -0.005499033 -0.016954646 -0.06231942 0.02393478 -0.004730529 -0.05156868
0.09302358 -0.23180547 -0.001949119 0.0033793633 -0.0019442968 -0.12148705 0.0016309579 0.078935504
00000000: a617 7d3c eca1 72be 5d39 923e b7a2 9f3e
00000010: e4cc 9f3d a7dc 89be bb76 0f3d 4ed1 24bc
00000020: 3572 37be fae5 ea3c a136 993d 1451 893d
00000030: 60cf 8fbd e68c 16bb f778 4abe 407d e23c
00000040: e021 843d bd4f 9fbd 05f4 443e 9d08 3d3d
00000050: b782 db3d 2273 8b3a d3c9 e73c 2a31 b8bd
00000060: 6659 cfbc c25b 0b3e e9aa 7ebe a68b 703e
00000070: 1910 7abe dbd4 953e 1be0 923d f49a d73c
00000080: 063f 7bbd 615e e13d 4b19 bfbc dc9b 9abe
00000090: 4999 a0bd e5c4 373e cd89 673c 4d23 fcbd
000000a0: 2ea8 933e 3375 bdbd 84e8 993e 622c cf3c
000000b0: 0405 e13c 1e09 603c 659b 363e 8b09 5a3c
000000c0: 434f a93d 8886 983d 668c 34be 37eb e03d
000000d0: 4ad3 4abc a290 35be 811a 1fbf acfb 573e
000000e0: 46b7 c13b 7e46 723c 0c3b c43c a364 08ba
000000f0: e5ec 0a3e de0f 263d fe5a 57be 1fb5 073c
00000100: 8193 dc3d d78f 65bc 23a4 bc3d 7997 26be
00000110: 2534 763b 9fe7 253c 6371 b33d ecca 24be
00000120: f650 41bd 9d79 df3d c08c 52be b60b 97bb
00000130: c8bd 083d ed60 83bd 9ad9 8bbd 5351 30be
00000140: 4801 46bc 54a5 333c 6279 6d3d 6190 343e
00000150: c3c5 e5bd 5fc6 063e 7e8f bbbd 8ea6 073b
00000160: 3490 283e ff84 2ebe 13f2 573d ff8b 8abd
00000170: da45 e73d 4e33 adbd f316 a1bb 6ec6 1d3e
00000180: 1171 53bd 7b20 b3bb af45 4bbe 5582 07bb
00000190: 7a26 cbbe f542 093f 5975 a43e 961b 233e
000001a0: 89e9 a0bd 4b20 153e fd60 38bd 1d0e d6bd
000001b0: 9aad 463d bd73 9d3e 6138 3f3c 3775 e8bd
000001c0: a6b2 e4bc 7c00 d4bc 700f 4539 c015 e73c
000001d0: 19da 863a cd61 de3c 090e 203e ab12 cebb
000001e0: e26c 703e 8587 da3e 2c26 ccbe 1c50 043d
000001f0: ab2f 98bd 42bf a2ba dbe1 823d d434 4cbe
00000200: a559 c03b cf2b ae3e 7d01 443c 8f59 44be
00000210: 1317 8f3d f816 8ebe 6796 9c3d 6c19 80bc
00000220: c702 483e e059 663b 1571 93ba ffa2 b53d
00000230: 9aba 253e 926a bb3e 6d3d c53e 5f9e 2e3e
00000240: a6e2 10be 3614 093d d78e 963b 869e 373e
00000250: 72cf 223d 9e77 0abe 191a 973d 97fd 7eba
00000260: 10d1 1f3e ae2e c1bd d264 45be 083f 90be
00000270: 7bf8 8fbd 5ce8 263d 9427 803d 84e9 8c3e
00000280: f616 653d 5f67 253d 8e8c 5dbe e99d a9bd
00000290: 914b 673e 55a8 863d 544a da3d 6352 98bc
000002a0: f9cd 623e e401 d5bc 4f3e 21be 9288 a53d
000002b0: 5fec fbbd 73cd f9bc 3c80 5c3d dd11 943b
000002c0: f8cd a3bd 7a8d be3a caf6 51bc 41c3 59be
000002d0: ae25 a93d 12a4 62bd 92dd 70bd 3a3a 6e3a
000002e0: ecca b1be b5ea 37bb 8f64 0ebd 5aca 8dbd
000002f0: 3b78 fa3a 6465 763e d0e7 0dbf 75e9 88be
00000300: 258b 10be 7531 55be 0105 6cbb 4ce5 7a3c
00000310: 4a78 0e3e 5464 86bb c74e 873b ae03 d13d
00000320: 28a5 b2bd a394 fdbd 1ffe 0ebd 74df 00ba
00000330: 97bf a4bd 3695 35be dce1 9a3b 3348 82bb
00000340: 50cf 17be 9ac4 0abd 5c04 a33e fbdc f8bd
00000350: ea41 9f3d 4151 0ebc c098 fc3c 71b2 08be
00000360: 3372 253c 5705 883b f4a8 28be 4ef5 81bc
00000370: a584 1dbc cff7 15be 15ed 5ebe 53c5 db3c
00000380: 200f b6bc d21c 723d 1e63 153e 9250 7f3d
00000390: 9a1e 08be 9a47 99ba 5d11 dc3c c7dc 1639
000003a0: 0ce7 d239 1f67 203e c10a 3cbe fdc4 0f3e
000003b0: 634f 82bd 7081 bdbd cfdd 6abd 0190 de3d
000003c0: 8877 3e3e 7f56 913d 3b31 b4bb 78e4 8abc
000003d0: a642 7fbd df12 c43c 8e02 9bbb ae39 53bd
000003e0: 2683 be3d 6a5e 6dbe 9579 ffba 4f78 5d3b
000003f0: c6d7 feba 34ce f8bd dec5 d53a f0a8 a13d

feature_extractor.0.bias f4 [256]
-0.044379387 0.06889028 -0.16869313 0.20670521 -0.25349933 -0.12566352 -0.27832147 -0.30544433
-0.20138587 -0.120554924 -0.06828415 -0.49724406 0.06332717 0.2849527 -0.15965122 -0.29550198
-0.27026752 -0.32222548 -0.016316941 -0.34756127 -0.29993874 0.13627559 -0.190597 -0.3270353
-0.017311295 -0.026278095 -0.14639567 -0.27320477 -0.3164922 -0.27906263 -0.43182534 -0.42988947
0.22396453 -0.32317933 -0.36710316 -0.29979363 -0.15369233 -0.15056984 -0.25415394 -0.35519564
-0.33603665 -0.2761635 -0.17983823 -0.3985559 0.05224807 -0.25745663 -0.30078283 -0.23834696
-0.08480206 -0.47683164 -0.2674996 -0.23945452 0.051755954 -0.18728022 -0.019187525 -0.213876
-0.12673025 -0.32040316 0.09157064 -0.38153762 -0.15964736 -0.30891773 -0.45429733 -0.34848547
-0.29187334 0.038750228 -0.04803318 -0.35990015 -0.3433676 -0.29352692 -0.33060408 -0.29949147
-0.0407362 -0.3443295 -0.3564787 -0.17711893 -0.2973684 -0.17594983 -0.22167096 -0.24988227
-0.22640763 -0.41836232 -0.33581185 -0.28071332 -0.18607649 -0.32963014 -0.43453205 -0.37155205
-0.18924749 -0.19210671 -0.13870354 0.050129376 -0.30752212 -0.34476417 0.36696416 -0.31862476
-0.18170808 -0.18578611 -0.30604243 -0.29139003 -0.19236566 -0.2552311 -0.14238603 -0.2523843
-0.43299532 -0.16789594 0.25702864 -0.009807556 0.1178832 -0.2250802 -0.21200837 0.016334698
-0.4414939 -0.37840465 -0.17218877 -0.20814517 -0.34603772 -0.40552077 -0.29664934 -0.35611358
-0.22088791 -0.2526532 -0.31630814 -0.42659664 -0.47469813 -0.008498507 -0.46623242 -0.118246004
-0.26792786 -0.32530645 -0.47161084 -0.23534694 -0.11899022 -0.21637544 -0.3195768 -0.3095774
-0.2587912 -0.39186826 -0.113710694 -0.11287732 -0.23496537 -0.2966876 -0.237615 -0.095837556
-0.2094935 -0.07041183 -0.40262344 0.20176308 -0.3715402 -0.045821205 -0.31068146 -0.289074
-0.10689885 -0.2250177 -0.31357327 -0.31941915 -0.21551894 -0.30819327 -0.1313638 -0.10491379
0.14019565 -0.025977602 -0.25824398 -0.23973568 0.0778938 0.17459932 0.26043543 0.05333677
-0.23258166 0.21859187 -0.20423771 -0.18793187 -0.29365838 -0.39542878 -0.3125646 0.04665247
-0.09827905 -0.4193163 -0.097622864 -0.20851304 -0.18361902 0.0018267194 -0.049721163 -0.17361788
-0.15319864 -0.20999682 -0.06334919 -0.2622232 -0.37840292 -0.31425372 -0.16308936 -0.35644692
0.1950519 -0.24653222 -0.43840715 -0.13604897 0.027527543 -0.018100554 -0.4132731 -0.34087646
0.06710738 -0.430725 -0.20358472 -0.5054954 -0.14749281 0.08614325 -0.17369838 -0.2888709
-0.31320712 -0.27584848 -0.25260666 -0.24327981 -0.14374073 -0.32748348 0.058446098 -0.22096945
-0.3385983 -0.23064354 -0.10512494 0.18330827 -0.21969023 -0.325037 -0.32936138 -0.35519007
-0.3022156 0.098674685 -0.16338325 -0.36737382 -0.1427107 -0.43422568 -0.2070595 -0.31493986
-0.19285151 -0.36463174 -0.27765152 -0.24878897 -0.04156839 -0.30778795 -0.09565418 -0.26231575
-0.36603838 -0.3495289 -0.2784571 -0.4432702 -0.049349952 -0.3978825 -0.40051547 -0.1271789
-0.13195053 -0.40422174 -0.12605911 -0.12824668 -0.2797346 -0.15744562 -0.18519026 0.038013633
00000000: 29c7 35bd 5916 8d3d e4bd 2cbe 88aa 533e
00000010: aaca 81be f0ad 00be 2780 8ebe 3363 9cbe
00000020: 1938 4ebe 80e5 f6bd 8fd8 8bbd c696 febe
00000030: adb1 813d 52e5 913e 9c7b 23be 094c 97be
00000040: 8160 8abe bdfa a4be 1bab 85bc 8df3 b1be
00000050: 9291 99be d48b 0b3e dc2b 43be 2c71 a7be
00000060: 6bd0 8dbc 2945 d7bc bfe8 15be 7fe1 8bbe
00000070: 440b a2be 4ce1 8ebe 3618 ddbe 791a dcbe
00000080: f556 653e c377 a5be f2f4 bbbe 8d7e 99be
00000090: 8661 1dbe fb2e 1abe 7720 82be 34dc b5be
000000a0: ff0c acbe 4d65 8dbe 8327 38be 850f ccbe
000000b0: 1202 563d 5bd1 83be 3500 9abe 3a11 74be
000000c0: b4ac adbd 4723 f4be b5f5 88be 9133 75be
000000d0: 0dfe 533d 63c6 3fbe 282f 9dbc 4f02 5bbe
000000e0: 93c5 01be e20b a4be 6389 bb3d e658 c3be
000000f0: 997a 23be 772a 9ebe a999 e8be b06c b2be
00000100: 6c70 95be 8fb8 1e3d 71be 44bd d544 b8be
00000110: e1cd afbe 2949 96be f044 a9be f256 99be
00000120: 00db 26bd f54b b0be 6084 b6be aa5e 35be
00000130: ac40 98be 312c 34be b6fd 62be 23e1 7fbe
00000140: 67d7 67be 9633 d6be 88ef abbe a8b9 8fbe
00000150: d68a 3ebe 48c5 a8be fc7a debe 123c bebe
00000160: 18ca 41be 9fb7 44be 4d08 0ebe 7654 4d3d
00000170: 8a73 9dbe ee84 b0be bae2 bb3e c922 a3be
00000180: af11 3abe b73e 3ebe 98b1 9cbe 1331 95be
00000190: 81fb 44be a7ad 82be a5cd 11be 8438 81be
000001a0: 90b1 ddbe eaec 2bbe 4299 833e dfaf 20bc
000001b0: bf6c f13d 6d7b 66be b918 59be 58d0 853c
000001c0: 7d0b e2be 41be c1be 4152 30be 0224 55be
000001d0: db2b b1be 6ba0 cfbe 6ce2 97be 8554 b6be
000001e0: 7130 62be c35b 81be 24f3 a1be e06a dabe
000001f0: a20b f3be 523d 0bbc 04b6 eebe f62a f2bd
00000200: d72d 89be 918e a6be fa76 f1be cafe 70be
00000210: 25b1 f3bd 8691 5dbe 929f a3be ee80 9ebe
00000220: 4880 84be f5a2 c8be 27e1 e8bd 392c e7bd
00000230: c39a 70be 70e7 97be 5951 73be 7b46 c4bd
00000240: 7785 56be 1434 90bd a924 cebe fb9a 4e3e
00000250: 843a bebe 04af 3bbd a411 9fbe 8201 94be
00000260: c9ed dabd 0a6b 66be ad8c a0be e88a a3be
00000270: ffb0 5cbe 82cb 9dbe 3b84 06be 0bdd d6bd
00000280: 738f 0f3e fbce d4bc 8e38 84be 457d 75be
00000290: c986 9f3d 2aca 323e cb57 853e a877 5a3d
000002a0: e329 6ebe 8cd6 5f3e b123 51be 3671 40be
000002b0: 645a 96be a475 cabe 7808 a0be a916 3f3d
000002c0: 8746 c9bd a0b0 d6be 7fee c7bd 7184 55be
000002d0: a006 3cbe 886e ef3a 6ba8 4bbd e3c8 31be
000002e0: 1be0 1cbe 6809 57be 38bd 81bd 1f42 86be
000002f0: 07be c1be dde5 a0be e600 27be 3680 b6be
00000300: afbb 473e f172 7cbe e776 e0be 6c50 0bbe
00000310: 7181 e13c 9d47 94bc 8898 d3be 5c87 aebe
00000320: 986f 893d fd87 dcbe 8378 50be 2668 01bf
00000330: 5b08 17be df6b b03d fddd 31be e3e6 93be
00000340: af5c a0be 033c 8dbe a955 81be 581e 79be
00000350: c530 13be eaab a7be 2d65 6f3d d145 62be
00000360: c25c adbe d22d 6cbe bf4b d7bd 2ab5 3b3e
00000370: 7af6 60be 406b a6be 0ea2 a8be 79db b5be
00000380: 01bc 9abe f415 ca3d f04d 27be 6c18 bcbe
00000390: c122 12be d452 debe 6807 54be cc3f a1be
000003a0: de7a 45be 03b1 babe 5728 8ebe 89c2 7ebe
000003b0: 9e43 2abd 6296 9dbe 57e6 c3bd 404e 86be
000003c0: 6269 bbbe 74f5 b2be ee91 8ebe 50f4 e2be
000003d0: 2d23 4abd 41b7 cbbe 5d10 cdbe 303b 02be
000003e0: 0a1e 07be 27f6 cebe a415 01be 1953 03be
000003f0: 6039 8fbe 6d39 21be 84a2 3dbe 2fb4 1b3d

feature_extractor.3.weight f4 [128, 256]
-0.08403022 0.037503053 -0.08120743 -0.07442631 -0.04953064 -0.084574886 0.048138153 -0.029546943
-0.07865824 0.04885688 -0.13158624 -0.08417751 0.22020143 -0.037036706 -0.0828142 0.07417516
-0.114478216 -0.19438536 -0.05239351 -0.113455914 -0.099031836 -0.13983056 -0.015213807 0.17493989
-0.024773736 -0.10325554 0.04658517 -0.046926063 0.14416367 -0.15775123 -0.05648855 -0.19710805
0.28329507 -0.06308734 -0.29490107 -0.007534327 -0.21203385 -0.24264722 0.055012506 -0.04979681
0.037310988 -0.22272955 -0.18009435 0.06572476 0.03168644 -0.20527573 -0.09408313 -0.08961313
-0.0622075 -0.044900116 -0.16755155 -0.10694743 -0.04916365 -0.08136447 -0.31167918 0.22856401
0.017466428 -0.009648247 -0.18667297 0.02553024 -0.16484372 -0.0017115795 0.04473416 0.09681742
0.025890667 0.061352834 0.14784981 -0.053225424 0.035000212 0.012028734 -0.07555166 0.13251476
0.05333213 -0.15250778 -0.08619219 0.05553378 -0.06293539 0.01999039 0.036279358 0.00023536864
-0.22184245 0.027755637 -0.25013795 0.0854014 -0.12402163 0.0065434887 0.11297292 0.071171455
0.29669198 -0.2764004 -0.17749356 -0.19558255 0.0043960665 0.010101565 0.08453957 0.020655992
-0.13600731 0.10804907 -0.17256187 -0.06820009 -0.08723268 -0.12034617 -0.016478354 -0.11836571
-0.013582743 0.02220433 0.025480935 0.11227043 0.036728334 -0.034313697 -0.09003911 0.20537488
0.022347532 0.02751507 -0.0262027 -0.3878379 0.029171092 -0.29431865 0.028088227 0.10659028
0.04761671 -0.0040845377 0.0055010333 0.04853312 -0.027353168 -0.20542186 -0.08902079 -0.16749501
0.09286719 -0.0027854517 -0.007326149 -0.08431153 0.024783017 -0.07840195 -0.02170201 -0.04963927
-0.1299041 0.015266924 -0.01929814 -0.22882949 0.016024338 0.11450005 -0.08328324 0.15805103
0.13114315 -0.0024054209 0.26296642 -0.16811074 0.18904401 -0.18819092 0.096193664 -0.23156118
0.00025765225 -0.18440528 0.013004586 0.037222892 -0.14170595 0.12829699 0.016725248 -0.03158113
-0.14815418 0.015376013 0.3420898 -0.027615262 -0.060835905 -0.07356922 -0.14486231 -0.005895838
0.071179815 0.16109402 -0.10404654 0.030384447 -0.1146522 -0.02843049 0.026218906 -0.10015774
-0.05631656 -0.018426534 -0.1591914 -0.08056054 0.00031387786 0.01674388 -0.13800076 0.15972525
0.04171465 0.010257484 -0.12697783 -0.15878294 -0.11004976 0.10979538 -0.057162564 0.08282385
-0.17855082 0.031620506 0.017259266 -0.10681362 -0.09388793 -0.030863881 0.12871729 -0.031270564
-0.07664029 0.16942349 0.12381838 -0.08127049 0.007700784 -0.14812653 -0.082820155 -0.05484912
-0.10034023 -0.020037822 0.05830548 -0.22687823 -0.1117506 0.022176951 -0.15684472 -0.073027164
-0.1389821 -0.07864812 0.062914476 -0.101824276 0.001344929 0.033266123 0.03362442 0.098093465
0.037925966 0.03595269 -0.04670419 0.075499594 -0.24797535 -0.11094476 0.08265695 -0.113895096
0.10325637 -0.17173159 0.06381412 0.01586194 0.19685455 -0.1530395 0.0500983 -0.11325337
-0.108966604 0.040665746 0.12589037 -0.111257024 -0.0036807011 -0.11207931 -0.009563935 -0.24205808
0.10680213 0.054131366 0.102194406 -0.111150526 0.11027693 -0.040940527 -0.115592465 -0.1251079
00000000: 0918 acbd cd9c 193d 1550 a6bd d26c 98bd
00000010: a4e0 4abd 9935 adbd 832c 453d 6e0c f2bc
00000020: 9217 a1bd 271e 483d 8bbe 06be 4265 acbd
00000030: 7c7c 613e cdb3 17bd 7e9a a9bd 25e9 973d
00000040: 8e73 eabd f50c 47be 949a 56bd 935b e8bd
00000050: 34d1 cabd be2f 0fbe 5543 79bc 7123 333e
00000060: 4af2 cabc a477 d3bd 17d0 3e3d 8b35 40bd
00000070: a49f 133e 8a89 21be 8a60 67bd b1d6 49be
00000080: 0d0c 913e ef33 81bd 46fd 96be 84e2 f6bb
00000090: 671f 59be 8378 78be cb54 613d bdf7 4bbd
000000a0: 68d3 183d 3713 64be a76a 38be b49a 863d
000000b0: a4c9 013d cd33 52be a8ae c0bd 1787 b7bd
000000c0: 4bcd 7ebd 2fe9 37bd a292 2bbe 4107 dbbd
000000d0: d35f 49bd 6aa2 a6bd 6a94 9fbe af0c 6a3e
000000e0: c115 8f3c ae13 1ebc 3327 3fbe cb24 d13c
000000f0: cbcc 28be 1457 e0ba 2b3b 373d 3648 c63d
00000100: aa18 d43c 1c4d 7b3d f165 173e e702 5abd
00000110: 625c 0f3d 2b14 453c d4ba 9abd f3b1 073e
00000120: cb72 5a3d 002b 1cbe 8885 b0bd 6477 633d
00000130: 45e4 80bd e3c2 a33c aa99 143d 4acd 7639
00000140: ab2a 63be ca5f e33c 1512 80be eee6 ae3d
00000150: 0dff fdbd c36a d63b 595e e73d 57c2 913d
00000160: 03e8 973e 5a84 8dbe dfc0 35be cb46 48be
00000170: e10c 903b 0981 253c 1523 ad3d c136 a93c
00000180: 8045 0bbe d548 dd3d 0fb4 30be 7dac 8bbd
00000190: 0ca7 b2bd 0e78 f6bd 9dfd 86bc b969 f2bd
000001a0: 278a 5ebc dbe5 b53c 65bd d03c 0aee e53d
000001b0: 7370 163d 858c 0cbd 6d66 b8bd cb4d 523e
000001c0: 2c12 b73c 4967 e13c 0ba7 d6bc b092 c6be
000001d0: 37f8 ee3c efb0 96be 4819 e63c 014c da3d
000001e0: bd09 433d 96d7 85bb 0342 b43b aaca 463d
000001f0: c013 e0bc 1c5a 52be 8850 b6bd d083 2bbe
00000200: 2731 be3d 208c 36bb 3110 f0bb 86ab acbd
00000210: c105 cb3c 3491 a0bd 6ac8 b1bc 8c52 4bbd
00000220: 9505 05be 1f22 7a3c 2217 9ebc 4752 6abe
00000230: 7945 833c 017f ea3d 6790 aabd 21d8 213e
00000240: 644a 063e 44a4 1dbb 89a3 863e 3925 2cbe
00000250: c194 413e 1fb5 40be 2f01 c53d 601e 6dbe
00000260: 8015 8739 bdd4 3cbe 3011 553c 0877 183d
00000270: 5d1b 11be 4960 033e 6303 893c 375b 01bd
00000280: bbb5 17be aceb 7b3c 6526 af3e 6739 e2bc
00000290: 122f 79bd 76ab 96bd c956 14be e031 c1bb
000002a0: b9c6 913d d5f5 243e 5a16 d5bd cee8 f83c
000002b0: c6ce eabd 0fe7 e8bc 08c9 d63c 801f cdbd
000002c0: 31ac 66bd 3ef3 96bc 1203 23be edfc a4bd
000002d0: f98f a439 762a 893c 1250 0dbe 048f 233e
000002e0: fbdc 2a3d 020f 283c 7a06 02be ff97 22be
000002f0: c561 e1bd 66dc e03d 4b23 6abd 8d9f a93d
00000300: 07d6 36be 8184 013d 4e63 8d3c 19c1 dabd
00000310: 5148 c0bd 40d6 fcbc 77ce 033e 9015 00bd
00000320: 96f5 9cbd 5a7d 2d3e 7e94 fd3d 2571 a6bd
00000330: dc56 fc3b 7bae 17be 9d9d a9bd 79a9 60bd
00000340: 2e7f cdbd 5c26 a4bc bad1 6e3d c452 68be
00000350: 80dd e4bd 70ac b53c e79b 20be 448f 95bd
00000360: 5351 0ebe 4412 a1bd 4ed9 803d 3f89 d0bd
00000370: 5448 b03a 0f42 083d c3b9 093d 3ae5 c83d
00000380: 4258 1b3d 2143 133d e54c 3fbd 889f 9a3d
00000390: 40ed 7dbe 0237 e3bd 0c48 a93d d541 e9bd
000003a0: 1378 d33d 68da 2fbe fab0 823d e6f0 813c
000003b0: 3d94 493e 63b6 1cbe e033 4d3d 62f1 e7bd
000003c0: e229 dfbd 2091 263d 68e9 003e b9da e3bd
000003d0: eb37 71bb d689 e5bd 0db2 1cbc 13de 77be
000003e0: 13bb da3d dab8 5d3d 4d4b d13d e3a2 e3bd
000003f0: dfd8 e13d 41b1 27bd bebb ecbd 491c 00be

feature_extractor.3.bias f4 [128]
-0.10302897 -0.0653225 -0.3883157 0.0036996063 -0.26127982 -0.02524244 -0.17651832 -0.16397688
0.012968533 -0.40351164 -0.07713954 0.13872784 0.10814171 0.23955873 -0.0013169094 0.005168272
0.102635235 0.14981692 -0.21534598 0.33256835 -0.14164509 0.14397669 -0.23804384 -0.37443817
0.10949522 0.074779876 -0.014069818 -0.00743202 -0.320806 0.09662315 0.06548298 0.09267994
-0.036576092 0.056609318 0.303235 0.03615095 0.002315231 -0.47440994 -0.08625032 0.10492437
0.023408044 0.105227366 0.1427208 0.049921677 0.10380351 -0.66503155 0.100143045 0.07855253
-0.04183198 -0.13128686 0.07743592 -0.20465554 0.08817028 0.13561162 0.08339501 0.23556976
-0.22591081 -0.3906255 0.05494122 0.04083994 0.05868328 0.11033131 -0.044435754 -0.49916992
0.14739601 -0.08595269 0.0603969 -0.3553837 -0.107573144 0.10994854 -0.05015793 -0.14506447
-0.17936237 0.008255454 -0.04589691 0.21718657 -0.33331645 -0.39010048 0.0033757563 -0.07654899
0.036963124 -0.26231933 -0.22297859 -0.2398917 -0.4083562 0.003247219 -0.06733035 -0.32509428
0.30501243 0.14592189 -0.46853805 -0.15313223 0.18570411 0.05219574 0.12201817 -0.09829476
0.16468978 0.011966961 0.06591461 0.08526168 0.0035668463 0.04608306 -0.006559252 0.20614652
0.07792389 0.017144348 0.08034082 0.035556696 0.018067997 0.025438737 0.21717069 0.042438082
0.050685428 0.05103752 -0.052459303 0.13222486 0.02298756 -0.176061 0.055912945 0.03285719
0.123371795 -0.037953623 -0.08939051 0.35585377 -0.12917167 -0.16881034 -0.009062488 0.06190178
00000000: da00 d3bd cec7 85bd 51d1 c6be 1875 723b
00000010: 78c6 85be 3cc9 cebc 38c1 34be 8ee9 27be
00000020: f879 543c 1499 cebe 56fb 9dbd ac0e 0e3e
00000030: 6779 dd3d e24e 753e 269c acba 9c5a a93b
00000040: 6c32 d23d 9b69 193e a883 5cbe 6646 aa3e
00000050: 690b 11be a06e 133e c4c1 73be 5cb6 bfbe
00000060: 083f e03d 3126 993d 1885 66bc 4d88 f3bb
00000070: af40 a4be 5ce2 c53d f11b 863d fbce bd3d
00000080: d0d0 15bd 2cdf 673d 9e41 9b3e 0513 143d
00000090: 21bb 173b dce5 f2be 02a4 b0bd 97e2 d63d
000000a0: 3ac2 bf3c 7281 d73d 6725 123e ac7a 4c3d
000000b0: ef96 d43d 823f 2abf cc17 cd3d 26e0 a03d
000000c0: 0358 2bbd 1070 06be b996 9e3d 3991 51be
000000d0: 9f92 b43d c6dd 0a3e 01cb aa3d 3339 713e
000000e0: 2a55 67be 1100 c8be 0b0a 613d c847 273d
000000f0: e15d 703d 62f5 e13d 4402 36bd 3393 ffbe
00000100: fbee 163e f707 b0bd bd62 773d daf4 b5be
00000110: 4f4f dcbd b32c e13d 6772 4dbd c88b 14be
00000120: c5aa 37be e241 073c 66fe 3bbd 2866 5e3e
00000130: 74a8 aabe 40bb c7be cb3b 5d3b b8c5 9cbd
00000140: a566 173d b84e 86be 8054 64be 2ba6 75be
00000150: 1014 d1be 4bcf 543b 7fe4 89bd c272 a6be
00000160: 972a 9c3e 8c6c 153e 38e4 efbe b2ce 1cbe
00000170: 3829 3e3e 33cb 553d aae4 f93d c34e c9bd
00000180: 70a4 283e 1311 443c 3dfe 863d ad9d ae3d
00000190: c0c1 693b 97c1 3c3d feee d6bb 1318 533e
000001a0: 8f96 9f3d 4e72 8c3c ba89 a43d e6a3 113d
000001b0: 5603 943c e664 d03c fe61 5e3e 8ed3 2d3d
000001c0: 869b 4f3d b80c 513d 91df 56bd f465 073e
000001d0: 6850 bc3c 5649 34be f904 653d 4395 063d
000001e0: 5aaa fc3d 4275 1bbd 5f12 b7bd 7732 b63e
000001f0: 9445 04be 9edc 2cbe d47a 14bc b98c 7d3d

adv_layer.weight f4 [1, 128]
0.20759398 0.20973666 -0.319855 -0.12919877 0.2205876 -0.12173592 0.16083458 -0.106281295
-0.058158554 -0.23318362 -0.09440577 -0.042489514 -0.048842777 -0.042892903 -0.05172425 0.17893648
0.25568917 -0.19068694 0.27139136 -0.28319472 -0.32871208 -0.041223936 0.2741957 -0.2596713
-0.05329972 -0.07959161 -0.06805812 -0.049352515 0.28155386 -0.26476693 -0.22556184 0.26622716
0.3114075 -0.07631462 -0.20116802 -0.061002593 0.1766494 -0.36169347 0.22163509 -0.12000524
0.18243396 -0.090242736 -0.17371672 0.24029616 -0.15877521 -0.36875796 -0.1310656 0.29789302
-0.124066256 0.1850038 0.22340715 -0.20649388 0.23799835 -0.031450037 0.2797956 -0.25725284
-0.2636687 -0.16939357 -0.10284831 -0.09210902 0.17134777 0.28205445 0.19495961 -0.25179636
-0.24813956 0.24658732 0.30301818 -0.30034947 0.26192555 0.23661691 0.20703071 -0.124442995
-0.19942054 -0.11508688 -0.11336086 -0.2236286 0.2977568 -0.38684964 0.2368041 -0.14352049
0.22877774 0.2865009 0.1641645 0.18525039 -0.3691866 0.21959108 -0.1421212 -0.2157572
-0.30091268 -0.17243321 -0.2500172 -0.2986186 -0.24644995 0.20224756 0.24993512 0.13692114
-0.26567537 0.23912999 -0.05673098 -0.17069776 0.20013079 -0.085275635 0.20792125 -0.10951175
0.27442247 0.24248391 0.22842216 0.1914005 0.26677504 0.21648324 -0.14763896 -0.19876689
0.2163343 -0.04257526 0.12142485 0.26019415 -0.0980983 0.24276523 -0.05049202 -0.13664736
-0.118121415 -0.100465685 0.21750104 -0.22785579 0.24560511 0.20624846 0.18822701 -0.08074496
00000000: 8493 543e 35c5 563e 09c4 a3be af4c 04be
00000010: b7e1 613e af50 f9bd d2b1 243e 02aa d9bd
00000020: aa37 6ebd b0c7 6ebe d057 c1bd 7c09 2ebd
00000030: 5d0f 48bd 78b0 2fbd cfdc 53bd 203b 373e
00000040: b1e9 823e 7043 43be cff3 8a3e e6fe 90be
00000050: f34c a8be 6eda 28bd 6163 8c3e a3f3 84be
00000060: cf50 5abd ed00 a3bd 0e62 8bbd dd25 4abd
00000070: d427 903e 888f 87be aff9 66be ed4e 883e
00000080: ce70 9f3e d74a 9cbd fdfe 4dbe dbdd 79bd
00000090: 95e3 343e e32f b9be 4ff4 623e 4fc5 f5bd
000000a0: f8cf 3a3e 2fd1 b8bd cce2 31be 3210 763e
000000b0: f895 22be d8cd bcbe 1036 06be 6f85 983e
000000c0: 7316 febd a371 3d3e d8c4 643e 2273 53be
000000d0: d7b5 733e c1d1 00bd 5e41 8f3e a5b6 83be
000000e0: 95ff 86be 8275 2dbe 22a2 d2bd a7a3 bcbd
000000f0: ca75 2f3e 7169 903e 7ea3 473e 74eb 80be
00000100: 4c18 7ebe 6381 7c3e 3325 9b3e 68c7 99be
00000110: 1b1b 863e b44b 723e dcff 533e f8db febd
00000120: e634 4cbe acb2 ebbd bd29 e8bd e5fe 64be
00000130: 9473 983e 2811 c6be c67c 723e 09f7 12be
00000140: b644 6a3e 3fb0 923e bd1a 283e 47b2 3d3e
00000150: 0706 bdbe 7cdc 603e 3888 11be 75ef 5cbe
00000160: 3a11 9abe 5592 30be 4102 80be 8ae4 98be
00000170: 605d 7cbe fc19 4f3e feee 7f3e 0e35 0c3e
00000180: 9a06 88be 7ede 743e be5e 68bd 65cb 2ebe
00000190: 16ef 4c3e fea4 aebd 4fe9 543e b247 e0bd
000001a0: 1a81 8c3e b44d 783e 80e7 693e 7efe 433e
000001b0: bd96 883e c8ad 5d3e ab2e 17be 8c89 4bbe
000001c0: bd86 5d3e 6563 2ebd 97ad f83d 2b38 853e
000001d0: c3e7 c8bd 7397 783e b8d0 4ebd 49ed 0bbe
000001e0: a4e9 f1bd f4c0 cdbd 98b8 5e3e 0753 69be
000001f0: e87f 7b3e cc32 533e 95be 403e 9d5d a5bd
