pythorch saved models/gan_generator.pth (torch, 257540 bytes, 6 tensors)

net.0.weight f4 [128, 100]
000000 50 d2 91 bd 78 90 35 3c f9 d5 22 bd c3 a9 ad 3d
       -0.07120192 0.011081807 -0.03975484 0.08479645
000010 65 ea 38 bd 11 14 8b bc 59 0c 59 3a 87 1c d7 bc
       -0.04514541 -0.016977342 0.0008279733 -0.02625872
000020 dc 57 60 bb fb 5c 82 bc a8 4a b1 bd dc c2 cd 3c
       -0.0034232056 -0.015913477 -0.08656818 0.02511733
000030 5b 8e 27 bd c4 7b 56 3c a7 e5 29 3d 6d c3 db bd
       -0.040907245 0.013091031 0.04147878 -0.10730634
000040 9c 49 cb 3d d4 46 27 3c 22 f1 26 3b 18 f9 ff 3c
       0.09926149 0.010209758 0.0025473316 0.031246707
000050 82 c0 09 bc e2 d7 9b bc 72 15 83 bb fc 1d bf 3c
       -0.008407714 -0.01902384 -0.004000359 0.023329727
000060 c1 5c bb 3c 41 a8 1b 3b b7 31 56 3d be 18 37 bc
       0.022871377 0.002375141 0.052293506 -0.011175333
000070 c1 14 aa 3c 92 5c 9e bb 4e e3 ed 3b 7c a9 fb 3b
       0.02076185 -0.0048328126 0.007259763 0.007680116
000080 90 63 aa bc 04 0c a1 3c 6d 6d 6d 3c 49 8c a8 3c
       -0.020799428 0.01965905 0.014491421 0.020574706
000090 9a 52 6e bc e0 cd 02 bd b2 45 87 bd 22 32 a7 3b
       -0.014546061 -0.03193462 -0.0660509 0.005102412
0000a0 33 ff 5f 3d 24 da cb bc ac 5f 16 3d 89 56 bd 3d
       0.054686736 -0.024884291 0.036712334 0.09245021
0000b0 7f ab db 3c f4 d7 5f 3d 6a d8 24 3d 3f c8 0a 3d
       0.026815174 0.05464931 0.04024545 0.033882376
0000c0 7f 29 f4 3b 1d 4e 28 3a e7 42 2d bd 04 c4 10 3d
       0.007451236 0.0006420331 -0.04230013 0.035343185
0000d0 f7 22 b5 3c 6c 67 ff bc d6 13 1f 3d ee 1c e1 bb
       0.0221114 -0.031177245 0.038837276 -0.0068699038
0000e0 ad 2c 03 bd 4b 36 1f 3d bc 65 09 3d 03 5b b2 3c
       -0.032025028 0.038870137 0.033544287 0.021771913
0000f0 80 7c 42 ba 76 3b ac bd c7 dd b7 3d a6 26 3c bd
       -0.00074190646 -0.08409779 0.089778475 -0.045935296
000100 ac eb a8 bb c6 5e cd bc f4 a0 86 bc 66 6f 3c bd
       -0.0051550474 -0.025069606 -0.01643417 -0.046004675
000110 54 0d b1 3c 27 07 78 bd d0 72 21 3d 9f 5c ad 3b
       0.0216128 -0.060553696 0.039416134 0.0052905823
000120 f1 51 64 3a 75 8d 17 3d 93 68 94 3d bd 26 01 bd
       0.000870972 0.03700014 0.072465084 -0.031531084
000130 2e e5 96 bd 62 48 47 bd 64 19 82 3d e4 84 82 3d
       -0.07367931 -0.048653014 0.06352499 0.06373003
000140 51 96 87 3d f0 88 f9 3c 1d 8b 11 3d ad 3c b4 3c
       0.066204675 0.030460805 0.03553306 0.022001589
000150 46 28 39 3d 48 3e 4a bd e0 0f e2 bc 02 b9 56 bd
       0.045204423 -0.049375802 -0.02759546 -0.05242253
000160 d9 37 b7 3c f9 37 ed 3b e3 27 86 3c db f6 a6 bc
       0.022365497 0.0072393385 0.016376441 -0.020381382
000170 f0 ee b7 3c 32 2c 38 3c e6 40 f1 bb fe 99 d3 bc
       0.022452801 0.011241006 -0.007362473 -0.025830265
000180 c1 c7 52 bd 08 57 da 3c fb 8b 0d bd fa fe c4 bc
       -0.05146003 0.026652828 -0.034557324 -0.024047364
000190 f0 f3 50 bd 0c a3 4c 3a cc 2b 12 3b 3f 4d a7 3c
       -0.051013887 0.00078062783 0.0022303937 0.020422576
0001a0 6e 05 30 3c e2 d0 49 3d f9 96 e7 3c 3e d9 46 bb
       0.010743482 0.04927147 0.028270232 -0.0030341889
0001b0 21 89 08 bd a5 aa 59 3d 05 77 bb 3c 8b 72 6c 3c
       -0.0333339 0.053141255 0.022883901 0.014431606
0001c0 2d 86 7c 3c d2 d6 bb 3c e4 5c d5 3b d2 d3 38 3d
       0.015412849 0.022929583 0.0065113176 0.045123883
0001d0 fb a8 00 bd 71 5b 44 3d d9 d8 a2 3c 8f 34 3e 3c
       -0.031411152 0.047938768 0.019878792 0.011609211
0001e0 65 02 32 bb 3b 8e a2 bb 5b 7f 9e bc f9 b7 29 3c
       -0.0027162072 -0.004960803 -0.019347837 0.010358804
0001f0 dd 57 c5 3c b7 b8 bd 3c ea 80 41 3d 57 9d 43 bd
       0.024089748 0.023159368 0.047242083 -0.047757473
000200 9a f6 91 bd 98 25 63 bd e3 25 4a 3b d4 d9 af bc
       -0.07127114 -0.055455774 0.0030845336 -0.021466173
000210 46 2b 2e bc e7 54 70 3d 2a e1 be 3b c6 71 bd ba
       -0.010630434 0.05867472 0.0058251815 -0.0014453463
000220 b1 c1 23 3d 47 36 49 3c 25 9f ee bc da 3f 61 3b
       0.03997964 0.012281007 -0.02912862 0.0034370334
000230 6f 34 59 3b a2 6d f6 3c d8 96 75 3c 69 5c 45 bd
       0.0033142825 0.030081574 0.014989577 -0.048183832
000240 4e 4c c7 bc 75 f6 36 3d 57 e0 4d 3a 20 ea 5d 3d
       -0.024328377 0.044668633 0.00078535586 0.054178357
000250 fd 9b 56 ba d8 89 80 3c 35 ce 09 bd 3e c2 58 3b
       -0.0008186696 0.015690729 -0.03364392 0.0033074762
000260 24 af 54 3b 31 20 61 bd 08 fc 0f bd 44 cb 51 bd
       0.0032453025 -0.05496234 -0.035152465 -0.05121924
000270 d9 5c 07 3d 26 f9 a2 3b 5f 36 09 3d 44 e8 0e 3d
       0.03304753 0.0049735485 0.033499118 0.034889475
000280 9c 1d 14 3c 59 87 0c 3d 57 48 66 3b 0a f2 ef bb
       0.009040263 0.034308765 0.0035138333 -0.0073225545
000290 db 97 c4 3c 0b 06 1f bc 5a c5 27 3d 89 d5 43 3d
       0.023998192 -0.009706031 0.040959693 0.047811065
0002a0 cc dd 01 3d 3b fe 0b 3d 63 a0 6c bd 26 40 8e 3c
       0.031705663 0.034178 -0.057770144 0.017364573
0002b0 f9 67 94 3c 33 d6 9a 3d f6 4f d4 bc c3 4a 47 3d
       0.018115984 0.075603865 -0.025917035 0.048655283
0002c0 58 c3 c7 bc ac da 75 bd 1f 4d be bc 3e de 22 bd
       -0.02438514 -0.060022995 -0.023230134 -0.039762728
0002d0 49 a2 b0 bc 04 e1 cb bc 81 1e f9 3c 5b 25 69 bc
       -0.021561759 -0.02488757 0.030410053 -0.014230098
0002e0 62 1f c5 3c 06 b7 2b 3d a1 04 c2 ba 95 8b 32 3b
       0.024062816 0.04192259 -0.0014802405 0.0027243842
0002f0 f2 d0 88 bc 60 f6 c2 3c cd 45 35 bc 0e a5 20 bd
       -0.016701195 0.023799121 -0.011064005 -0.03921991
000300 d5 de 39 bc 6c cc 76 bc 59 41 17 bd 09 d3 ed 3b
       -0.011344631 -0.015063386 -0.036927555 0.0072578234
000310 68 5d a3 bc 5a 8f 46 39 a1 3a 46 bd 3e 8b 75 bd
       -0.019942 0.00018936154 -0.048395757 -0.059947245
000320 25 63 78 bd 68 c5 28 bc a1 83 68 bd 19 89 89 3c
       -0.060641427 -0.010300972 -0.056766156 0.016789006
000330 f5 14 34 bd a4 ab 32 bc b0 9d 61 bd db d4 eb bc
       -0.0439653 -0.01090518 -0.055082023 -0.02878802
000340 59 66 aa 3b e6 79 0b 3d 07 6e 75 3b 79 2f d7 3c
       0.005200189 0.0340518 0.0037449615 0.026267754
000350 4c ba 06 bd c6 38 0f 3c ee 55 2e 3c 3f 7b 28 bd
       -0.03289251 0.008741563 0.010640604 -0.04113316
000360 29 cb 39 3d 68 12 9d 3b a0 b9 15 3b e7 21 b4 3c
       0.045359764 0.004793454 0.0022846237 0.021988822
000370 a4 04 27 bc 55 b8 b9 3c da c0 de bc 77 65 e1 bc
       -0.0101939775 0.022670904 -0.027191568 -0.027514203
000380 70 e6 70 3d fe 17 a4 ba 74 52 c2 bb fe 5c 57 bd
       0.058813512 -0.0012519357 -0.0059302393 -0.05257892
000390 ac 80 5a 3c 8f bb 0b 3d 8a 91 5c 3d cd ab fe bb
       0.013336342 0.034114417 0.053849734 -0.007771945
0003a0 24 6b 27 bb 4f 4c 44 3d 13 4d 25 3d 5f 82 45 3d
       -0.0025546039 0.047924336 0.040356707 0.048220035
0003b0 76 1b 2e 3d 88 66 b2 bc 52 90 89 bd 96 d4 f4 bc
       0.042506658 -0.021777406 -0.0671698 -0.029886525
0003c0 85 35 1c 3d a2 4c 19 bd 52 c5 21 3d 00 e5 23 3d
       0.038136978 -0.0374266 0.03949482 0.040013313
0003d0 0a f4 0f bd dd 9b 16 3d 66 a1 11 3d bb 01 a8 3d
       -0.035144843 0.036769737 0.035554312 0.08203455
0003e0 4e fe 22 3d ea 95 12 bd 8d 82 66 bd 97 4c c1 3c
       0.039793305 -0.0357875 -0.056276847 0.023596091
0003f0 e6 d2 a2 3c dd 7d 3d bd 53 70 21 3c 8e 3d 36 bb
       0.019875955 -0.04626261 0.00985344 -0.0027807686

net.0.bias f4 [128]
000000 69 54 b6 be be f0 94 be 08 98 bf be 12 57 04 bf
       -0.35611275 -0.29089922 -0.37420678 -0.5169536
000010 e1 52 85 be 0d c7 1f be a8 1f 0f 3e c8 88 bd be
       -0.26039794 -0.15603276 0.1397692 -0.37018418
000020 a6 86 ba bd 37 f7 d0 be c2 66 d2 bd 0b b7 a3 be
       -0.091077134 -0.4081361 -0.10273506 -0.31975588
000030 41 a6 a0 be c1 33 4e be 19 7b 1f be 7e bf 8a 3d
       -0.31376842 -0.2013693 -0.15574302 0.067748055
000040 8d 3f f8 be d9 c3 98 3b de 67 9c be 05 71 d4 bd
       -0.48485985 0.0046620187 -0.30547994 -0.10373119
000050 3d 28 a3 be 48 cd dc be 07 06 11 be d3 87 99 be
       -0.31866637 -0.43125367 -0.14162455 -0.29986438
000060 9d fb 6f bc f9 02 1a bf c7 66 6a be a5 04 60 be
       -0.014647392 -0.60160786 -0.22890769 -0.21876772
000070 44 88 0b bf 89 47 d0 be 9b 66 3f 3e 66 89 b8 be
       -0.545048 -0.40679577 0.18691485 -0.36042327
000080 79 8e 34 be 39 78 6a be 83 59 45 be ec 5f a1 bc
       -0.17632474 -0.22897424 -0.19272427 -0.01969906
000090 8e c0 a2 be 21 47 56 be 19 60 06 be 4e f0 2e be
       -0.31787533 -0.20925571 -0.13122596 -0.17083856
0000a0 3f e7 dd be 3c b8 84 be a3 6f ae be e3 7f da be
       -0.4334049 -0.2592181 -0.34069547 -0.42675695
0000b0 ea 63 3f be f6 bd c5 bd fd 32 a7 bd 55 c5 be be
       -0.18690458 -0.09655373 -0.08164022 -0.37259927
0000c0 19 7e cd be 84 b6 bc be 27 b0 24 be 96 ad 25 be
       -0.40135267 -0.36857998 -0.16082822 -0.16179499
0000d0 28 cb 04 be 08 f6 de be 59 77 55 be 6f 08 cb be
       -0.12968123 -0.43547082 -0.20846309 -0.39654872
0000e0 4f 60 48 be 11 98 ca bd 13 36 9c be ae 59 e0 be
       -0.19567989 -0.098922856 -0.30510005 -0.4381842
0000f0 93 4b 43 be 29 49 85 be a9 5f c0 bd 6f 45 a3 be
       -0.19071798 -0.2603238 -0.09393246 -0.3188891
000100 ae 11 ae be 4e c1 56 be dd 89 a8 be b4 f0 84 be
       -0.33997864 -0.20972177 -0.3291768 -0.25964892
000110 87 68 a6 bd 36 19 61 be 38 45 86 be e1 11 8e be
       -0.08125406 -0.21982273 -0.26224685 -0.27748016
000120 9b 60 4e be f7 39 22 be fb a1 4e be f7 0b 99 be
       -0.2015404 -0.15842424 -0.20178978 -0.2989194
000130 e6 5b 3a be 9b d7 0c be 2a 77 2d bd a0 28 44 be
       -0.18199119 -0.13754122 -0.04234997 -0.19156122
000140 7f f2 0a be 2d de 45 bd 5a 17 9a be 79 a6 50 be
       -0.13569067 -0.048307586 -0.3009594 -0.20376004
000150 2a 44 14 be 77 f8 e6 bc d6 1e b2 be 50 c0 37 bd
       -0.14479128 -0.02819465 -0.3478915 -0.044861138
000160 aa 2b 31 be bc 02 ec bd 82 a9 38 be 46 32 81 be
       -0.17301813 -0.11523959 -0.18033412 -0.25233668
000170 62 88 7c be ff 3e 1b be ff c9 26 be 63 0c 8c be
       -0.24661401 -0.1516075 -0.16287993 -0.273532
000180 3c 8a 32 be fd 37 3e be 0e dd be bd 36 fe 42 be
       -0.17435545 -0.18576045 -0.093195066 -0.19042286
000190 b9 9f a6 3d db f2 85 be 4f e1 51 3a d8 ad ab be
       0.081359334 -0.26161847 0.0008006291 -0.3353107
0001a0 a4 a5 87 bc e5 eb c8 be 51 6d 75 3e c8 b2 22 be
       -0.016558476 -0.39242473 0.23967482 -0.15888512
0001b0 39 98 95 be 30 aa 30 be 42 6c a5 3d ab 67 54 be
       -0.292177 -0.17252421 0.08077289 -0.20742671
0001c0 d4 3f da be cf b4 68 bd dc f6 53 be d2 02 ea be
       -0.42626822 -0.056813058 -0.20699638 -0.45705277
0001d0 c9 d4 f2 be 57 1d bb be 79 6e e0 bb 33 79 0c bf
       -0.47427967 -0.36545822 -0.006849107 -0.54872435
0001e0 36 65 3a be 57 46 17 be 1a 95 8b bd 20 9c 87 be
       -0.18202671 -0.14772926 -0.06815548 -0.264863
0001f0 01 5c 32 be 81 8e 27 be f2 9d 99 be 6f 86 9e be
       -0.17417909 -0.16362955 -0.30003315 -0.3096194

net.2.weight f4 [256, 128]
000000 ec 05 68 bc 9f bb 0e 3d 25 a0 9a bd e4 fb 8b bd
       -0.014161568 0.0348469 -0.075500764 -0.06835154
000010 57 4c d8 3c 34 06 b6 3d 2a 36 c4 bd 0c 1d 85 3e
       0.02640359 0.08887902 -0.095806435 0.25998724
000020 fa 15 4b 3c d5 59 e5 3d 54 6e a5 3d 4f 47 89 3d
       0.012395376 0.11198775 0.08077684 0.06703054
000030 71 3e 3e bd 4f 80 f7 bc 60 98 12 bd 3d 6e 99 3d
       -0.046446268 -0.03021255 -0.035789847 0.074917294
000040 64 2e 22 be 75 ac 63 be 2c 16 d1 bd 16 3d 4a be
       -0.15838009 -0.22233756 -0.10209307 -0.19749865
000050 2a 34 87 3c 89 d0 a5 bd 25 e0 a9 3b 34 eb cb bd
       0.016504366 -0.080964155 0.005184191 -0.09956971
000060 05 f1 f3 3d f4 91 e5 3d d2 07 ef 3c e9 88 a0 3d
       0.11911205 0.11209479 0.029178534 0.078386135
000070 b6 de 99 bd f4 9b 43 3d 1d 54 8a bd 07 3c 87 3d
       -0.07513182 0.04775615 -0.067543246 0.06603246
000080 41 7e 86 3d 3f 7a 3f be 2b ff 8c 3d ca 67 86 3d
       0.0656705 -0.18698977 0.06884607 0.06562765
000090 c3 b5 2e bd 3e 00 73 be 40 ff 42 3d 11 cf 80 bd
       -0.04265381 -0.23730561 0.047606707 -0.06289495
0000a0 a8 da e3 bd e9 b7 bc bd 4d 07 00 bd 9e 9f 99 3d
       -0.1112569 -0.092147656 -0.031256963 0.07501148
0000b0 39 85 d5 3d 79 ca 12 bd 72 4b 9a bd 5f d9 b0 3c
       0.10425801 -0.035837624 -0.07533921 0.021588026
0000c0 54 29 08 bd 96 54 65 bd 1e cb de 3d 3a 74 ba 3d
       -0.03324254 -0.05598887 0.10878585 0.091042
0000d0 fc 95 60 3d c1 c1 9c bc be 6f 6c 3d f6 29 49 3d
       0.054830536 -0.019135358 0.057723753 0.049112283
0000e0 4f fc 59 3d 7d a7 a6 3d b1 33 0b be 34 54 cc bb
       0.053219136 0.081374146 -0.13593937 -0.0062356237
0000f0 cc 07 c7 3b ae af ea 3c 03 93 fd 3d 6b c1 ee 3c
       0.0060739275 0.028648224 0.12381556 0.029144963
000100 d1 05 ec 3d d4 ea a0 bd 52 7f e1 3c 06 cf 38 bd
       0.11524547 -0.0785729 0.027526531 -0.045119308
000110 fc 3c 56 bb 9b f9 26 3e 6c 84 bb 3d 2d 9a cc bd
       -0.0032690158 0.16306154 0.09156117 -0.09990344
000120 e4 af e5 3d b9 d2 52 3d c1 ab 63 bd 1d 85 fb 3d
       0.11215189 0.051470492 -0.05558372 0.12281249
000130 3a b1 e7 3c 15 6e be bd 58 97 04 3c a3 bf 84 3d
       0.02828275 -0.0929834 0.008092724 0.06481864
000140 b0 e6 21 bb 57 31 8a bd 59 24 99 bd 0f ee 47 3e
       -0.002470415 -0.06747692 -0.07477636 0.19524406
000150 48 5c 91 3d a5 c6 ce bd f8 f4 91 bc 66 b9 7d 3c
       0.070976794 -0.10096482 -0.017817006 0.015486097
000160 72 3f 6b be 15 13 f2 bd 39 dc e0 3d 20 bf 21 3d
       -0.22973421 -0.11820046 0.10979504 0.03948891
000170 3b c0 db bc 58 60 59 bc 9f a2 85 3c f7 00 b8 3d
       -0.026825061 -0.013267599 0.016312895 0.08984559
000180 98 0a dc 3d 3f b6 16 bd 92 44 96 bd 1d c8 fb bd
       0.10744208 -0.036794897 -0.073372975 -0.12294028
000190 d2 dd 86 bc 6e 22 07 3e 84 36 23 bc ff 9a 93 3d
       -0.016463194 0.13196728 -0.009961728 0.072072975
0001a0 45 ec ef bd 00 82 98 bd 69 cf c4 bc 83 af 13 bd
       -0.11714987 -0.074466705 -0.024024682 -0.036056053
0001b0 a7 d3 b0 3a 37 6b 36 3c f0 25 32 bd 8f e2 6a bc
       0.0013490812 0.01113396 -0.04349321 -0.014336242
0001c0 fc bc b2 bc 56 00 c9 bc fe 6e 81 3d dc 56 dc 3c
       -0.02181863 -0.024536293 0.06319998 0.026896887
0001d0 cf 18 3f bd 5a 9d 71 3d fc 9c b2 3b d7 f9 35 3a
       -0.04665452 0.058987953 0.005450843 0.0006941831
0001e0 59 38 da bc 46 2c 40 bd 2b a3 1f 3c 37 e9 07 3e
       -0.026638197 -0.046917222 0.009743492 0.13272558
0001f0 51 81 62 3d f2 af f8 bd 1c 20 a4 bd 67 69 ae bd
       0.055299107 -0.12142934 -0.08013937 -0.08516198
000200 02 ad 29 be d1 d4 80 3d 74 bb 6e bd b9 e2 e5 3d
       -0.16569903 0.062905915 -0.058284238 0.112248845
000210 55 a9 9b bd 81 72 97 3d ab d2 4f 3d 70 62 4d bd
       -0.07600657 0.07394887 0.050738018 -0.050142705
000220 c3 94 d6 3d 25 df 18 be e5 fe 51 bd c6 05 ab 3d
       0.10477593 -0.14928873 -0.051268477 0.083507106
000230 0e 11 b2 bd 3a 6f 75 bc 02 d7 66 3d 29 8f d4 be
       -0.08694659 -0.014980132 0.05635739 -0.41515473
000240 4b 20 9c b9 b4 68 81 3d c1 a7 23 3d fa 5f 4b be
       -0.000297787 0.06318799 0.039954904 -0.19860831
000250 ed 23 19 3d 91 47 11 3c 75 99 54 3d a8 93 59 bd
       0.037387777 0.00886716 0.05190416 -0.05311933
000260 49 57 ae bd bb cd e0 3c d5 c9 32 3d 82 af a8 bd
       -0.08512742 0.02744185 0.043649513 -0.082366005
000270 93 50 f7 3c 3c 87 5b 3d 11 3f 58 bf 3b 4f a2 3d
       0.030189788 0.053595766 -0.8447123 0.07925268
000280 1c c5 d8 bd bc ac 3d 3c f9 ad e8 bd 81 e4 5d bb
       -0.10584471 0.011576828 -0.11361308 -0.0033858123
000290 15 a1 d2 bd 5f b5 1e bd 48 b8 fe bc b0 6d ae 3d
       -0.1028463 -0.038747188 -0.031093732 0.08517015
0002a0 6c cb 0d 3e db 84 4b ba 4b 33 55 bd ea a9 e9 3d
       0.1384713 -0.00077636325 -0.05205087 0.11409362
0002b0 66 6f 9b bc 2a 47 89 3d 56 ee 1c 3d ed 1c a2 3d
       -0.018974017 0.067030266 0.038313232 0.079156734
0002c0 52 43 9b 3d 13 ec 26 ba 4f 28 a0 bd 08 2e e9 3c
       0.075812 -0.0006367575 -0.07820188 0.028464332
0002d0 4c b3 27 3d f5 ea 2e 3e ed fb 96 bc 2a 05 88 3c
       0.040942475 0.17081816 -0.018430674 0.016604025
0002e0 58 57 05 3e 11 96 d5 ba cf 3b 57 bc e7 fb b1 3c
       0.130216 -0.0016295334 -0.013136818 0.021726562
0002f0 26 52 c3 bc ea 3a dc bb fc 70 0b 3c 20 26 2e be
       -0.023842882 -0.0067208903 0.008510824 -0.17006731
000300 df 4b b4 3c cb 8e da bd e0 0c 47 3d 05 89 c1 3c
       0.022008834 -0.10671767 0.048596263 0.023624906
000310 22 55 b6 3d ec 4e 09 3e 2b 45 e4 bc 5e 6d cf bd
       0.089029565 0.13409013 -0.027865013 -0.10128282
000320 3f 05 0a bd 04 3a 35 bc 0d bd c3 3c cc f5 bc 3d
       -0.03369641 -0.011061195 0.023893857 0.092265695
000330 fd ea d6 bb 9c cd 7d be a6 d9 47 3b 4e f1 bf bc
       -0.0065587745 -0.24785465 0.0030494719 -0.023430493
000340 38 89 b9 3c 0b c6 3c bc 47 43 f4 3c a7 79 93 bb
       0.022648439 -0.0115218265 0.029817237 -0.004500586
000350 b6 1e d3 bc 68 e1 6e bc d1 cc 3e bc 57 7c 2f 3e
       -0.02577148 -0.014580108 -0.011645512 0.17137276
000360 d5 bd 36 3d a2 1b 29 3d 0d 1d 6b 3c f0 42 36 bd
       0.04461463 0.04128612 0.014350188 -0.04449743
000370 d4 2d d1 3d 52 a7 40 bd 63 9d c0 3c 01 38 fd bd
       0.10213819 -0.04703457 0.023512548 -0.123641975
000380 4d 99 9d bd 6f 80 cc bc be 64 f3 3d af 0e 7b 3d
       -0.076952554 -0.024963586 0.118844494 0.0612933
000390 3a c8 bc 3c d7 e8 c0 3b 5f d5 29 3e 39 2a 7a 3d
       0.023044694 0.0058871317 0.16585301 0.061075423
0003a0 35 24 99 3e 0e ac a0 3d ce fa 32 3c 5d 2c 0e 3c
       0.29910436 0.07845317 0.010924054 0.008677569
0003b0 a2 36 ea 3c 88 8f 33 bd 05 2f b7 3c 79 bf de 3d
       0.028590504 -0.043838054 0.022361288 0.10876364
0003c0 dd bc de bd f0 5b 8f 3d 13 98 1d be 83 b3 84 3d
       -0.108758666 0.069999576 -0.15390043 0.06479552
0003d0 32 04 d2 bd 6d fd 82 bc 21 63 ac bb af aa c5 3d
       -0.102547064 -0.015989983 -0.0052608405 0.09651696
0003e0 9d 6e 08 be 0e 3a a3 3d a5 7c 4e bc 8a 67 94 bd
       -0.13323446 0.079700574 -0.01260296 -0.07246311
0003f0 5f 00 52 3d a8 6f cd 3b bc 75 b3 bd f1 9c fd bc
       0.051269885 0.006269414 -0.087626904 -0.030958625

net.2.bias f4 [256]
000000 f8 d5 a2 bd 16 0c 95 3d ef 83 e8 bd 79 2e e8 bd
       -0.079509676 0.07277696 -0.11353289 -0.11336989
000010 84 f3 ab 3d b3 a2 a9 3d af 42 0c be 88 dd d0 bd
       0.08396056 0.082829855 -0.13697313 -0.10198504
000020 42 f3 1c bd 94 c2 61 be c3 10 0d be 3e b0 03 3d
       -0.038317926 -0.22046882 -0.13775925 0.0321505
000030 a0 6a 0c 3e 43 c6 93 bc 3d bc 8d 3e ee 13 60 be
       0.13712549 -0.018038874 0.27682677 -0.21882603
000040 7c 41 30 be 9b fb cd 3b 8f 18 ad bd 25 68 26 bd
       -0.1721248 0.006286097 -0.0845195 -0.040626664
000050 9f f3 64 bc a0 38 14 be 95 92 80 bd f3 ee 26 bd
       -0.013974099 -0.14474726 -0.06277958 -0.040755223
000060 52 9c 42 39 90 bf df bd a5 af 82 bd 60 a7 2c bc
       0.00018559516 -0.109252095 -0.06381158 -0.010537952
000070 b6 77 ad bd a0 bb ff bc 16 6d cc bd ca 8d 64 bd
       -0.08470099 -0.031217396 -0.09981744 -0.055799283
000080 11 03 d4 bc 70 2c cd 3d 1b 06 7a be f5 88 71 ba
       -0.025880368 0.100182414 -0.24416392 -0.00092138286
000090 1b 45 ea bc 92 96 54 bd b6 6e 83 bd 61 93 1c be
       -0.028597405 -0.051901408 -0.06417601 -0.15290596
0000a0 6e 17 97 be 7b a8 36 bd e0 57 20 be 98 02 d2 bd
       -0.29510063 -0.04459427 -0.15658522 -0.10254401
0000b0 b9 34 cc bd f3 8f c3 bd f3 d8 21 be 76 74 30 3e
       -0.099709935 -0.095489405 -0.15805416 0.17231926
0000c0 14 73 df 3d 40 bc c8 bd 9f fd b8 3d da 6b 96 3d
       0.10910621 -0.09801531 0.090327494 0.0734479
0000d0 98 c3 17 be 9d 95 6e 3d d3 d7 bd be b3 61 0d 3e
       -0.14820707 0.05824815 -0.37078723 0.138068
0000e0 4e 02 b2 bd 7f ce 2d be 49 25 87 3d 1e 95 90 be
       -0.08691846 -0.16973303 0.065989085 -0.28238767
0000f0 c4 44 64 3e 61 9c e7 3c 16 12 25 3d 0f 3d fd 3c
       0.22291857 0.02827281 0.04030045 0.030912904
000100 8a 4f 4d 3e 5e b8 ab 3d cb 5b 55 bd 1f e6 99 bd
       0.20049873 0.083847746 -0.052089494 -0.07514595
000110 83 fa 8a bd 85 a8 0f bd b4 cd 01 3e 0a bc 22 bd
       -0.067860626 -0.035072822 0.12676126 -0.03973011
000120 8b 06 fa bd e5 e0 f9 3c 7c b3 04 be a4 42 fc 3d
       -0.12208279 0.030502746 -0.12959093 0.12317398
000130 f7 89 d6 3d 66 44 b1 3c c8 69 d7 3d 2b 2b 43 bd
       0.104755335 0.02163906 0.10518223 -0.04764859
000140 9e 68 0c 3e 54 4d 18 be 58 9d 90 3c 46 44 0e be
       0.13711783 -0.14873248 0.017653152 -0.13893232
000150 76 c3 14 be 05 5f d0 bd 88 5a c3 3d 85 6a ea 3d
       -0.14527687 -0.101743735 0.09538752 0.11446098
000160 80 40 a3 bc 00 5b 3f be 6a fc d3 3b 08 03 cf bd
       -0.019928217 -0.18687057 0.006469299 -0.10108
000170 9a 80 0c be 1b 46 8a 3e b0 eb db bd 7e f0 a7 bc
       -0.13720933 0.2700661 -0.10738313 -0.020500418
000180 9f 93 55 bd 8e 1f 6e bd 80 e7 62 be 25 bf 58 be
       -0.052142736 -0.05813556 -0.22158623 -0.21166666
000190 a6 83 9d bc 79 1f 17 be a5 4d 3d be 0d 92 c3 3d
       -0.019227814 -0.147581 -0.1848665 0.09549341
0001a0 3d 6a 59 bc 4b 21 9a be 1e 37 db bc ba c8 09 3d
       -0.013269958 -0.30103526 -0.02675968 0.033638693
0001b0 ab 74 3f bd d6 ec 86 bd 57 82 10 3d f6 3b 1c be
       -0.046742123 -0.065881416 0.03528055 -0.15257248
0001c0 82 b4 84 bd 29 e7 02 be 2d ed 54 3d 10 66 77 bd
       -0.06479742 -0.12783493 0.051984 -0.06040007
0001d0 bd 92 93 be 15 8e b2 bd b4 ce 96 3b 89 d8 4c be
       -0.2882289 -0.08718506 0.0046022777 -0.20004477
0001e0 91 9a 85 3c 7b ec 23 bd 70 d3 e0 3d 87 49 aa bd
       0.016309055 -0.040020447 0.109778285 -0.083148055
0001f0 35 e1 3c be 18 ba 53 bd 41 2c 0d 3e 5e 43 3b be
       -0.18445285 -0.051691145 0.13786413 -0.18287417
000200 df 6c 6d bd 06 6f 09 be 4d f7 19 3c ba 64 28 3d
       -0.057965156 -0.13421258 0.00939734 0.041111685
000210 1a b2 a7 3c 58 1d ff bc ce 8b a4 bd 65 b4 f4 3d
       0.020470668 -0.031141922 -0.08034478 0.1194847
000220 0e 40 90 bd a9 51 c8 bd f5 61 84 3c 9e 6c b2 3d
       -0.070434675 -0.097812004 0.01615999 0.08712123
000230 28 26 5b be 8b a0 15 3c 45 c6 aa bd a8 24 f0 3d
       -0.21401274 0.009132515 -0.08338598 0.117257416
000240 5d f0 dc bd 2a 58 0e bc aa e7 59 bd 8f 5e c9 bd
       -0.10788033 -0.008688012 -0.053199448 -0.09832489
000250 36 6e 3e be a6 84 e1 bd 3a 98 8d 3d c6 c7 a7 3d
       -0.1859673 -0.11011629 0.069138005 0.08192401
000260 d6 e0 2c bd 1b 51 d0 bd b0 ba 0b bd 74 7e 78 3d
       -0.042206608 -0.1017172 -0.034113586 0.06066747
000270 d0 25 9a 3d 32 4c a0 3d 5d 9a 09 be a4 04 97 3d
       0.075267434 0.07827033 -0.13437791 0.07373932
000280 59 b9 29 bd b8 59 af bd 5c d5 cd bc 29 79 4b 3c
       -0.041436527 -0.08562034 -0.025126152 0.012419024
000290 d7 04 9c bd d1 1a a2 3c 8a 91 48 bd a1 e2 97 bc
       -0.076181106 0.019788178 -0.048966922 -0.018540682
0002a0 ce c8 99 3c 46 3d 99 bc a5 47 43 3d d9 aa af bd
       0.018772509 -0.018705975 0.047675747 -0.085775085
0002b0 53 50 0a be ce bf 43 bd 4b 79 c7 3d ac 2f 14 bb
       -0.13507204 -0.04779034 0.09739932 -0.0022611422
0002c0 63 b8 ba bc d5 30 2a 3e 3b 98 51 3d 2c b8 df 3d
       -0.022793 0.1662019 0.05117057 0.109238
0002d0 58 57 87 3a 7b e3 0f 3e 28 0d 8f 3d f5 25 07 3a
       0.0010325713 0.1405162 0.06984931 0.00051554973
0002e0 12 f4 a3 3d 7b a3 9d 3c 6d 5b 27 3d 2f 13 66 bd
       0.08005537 0.019242993 0.040858675 -0.05617064
0002f0 9e c3 b9 3d 71 9e 80 3c 80 34 0b 3e 52 cd 17 3e
       0.09070514 0.01570055 0.13594246 0.14824417
000300 fd 79 d5 3d 7f 12 86 bd 86 18 b7 bd af b3 ba 3c
       0.10423658 -0.065464966 -0.08940224 0.022790758
000310 4b 93 df bd aa f3 20 3e 69 f8 00 be 16 b7 45 bd
       -0.10916766 0.1571795 -0.12594761 -0.048270307
000320 b2 4e 6b bd 0b 39 13 be e0 0f 2d bd b5 22 8c 3d
       -0.057448097 -0.14377229 -0.042251468 0.06842557
000330 1f 25 75 be 1a 9f 13 3d c5 52 4b bd 0e 7d 85 bd
       -0.23939942 0.036040403 -0.049639482 -0.06517993
000340 fd 0e c9 3d 36 a8 df bd 79 36 e8 bd 23 bb dc 3d
       0.09817312 -0.109207556 -0.11338515 0.10777881
000350 85 8c 44 3c 3f 34 05 3e 81 6c 13 3c 9e 03 eb bd
       0.011996393 0.13008212 0.008998037 -0.11475299
000360 1c d9 b4 3d b4 ef b6 bb 25 7d fe 3d 34 4c a7 bc
       0.08830473 -0.005582774 0.12426213 -0.020422079
000370 cb 84 45 bd 5d 41 00 3e c3 3d 27 3d f4 55 b0 bd
       -0.048222344 0.12524934 0.040830385 -0.08610144
000380 50 bc 89 bc 92 2a ab 3c e5 c9 74 3d a5 00 ec 3d
       -0.016813427 0.020894323 0.059762854 0.115235604
000390 8c 91 09 be 2d e1 88 3c 77 07 01 be c6 0b d2 3d
       -0.13434428 0.016708935 -0.12600504 0.10256152
0003a0 00 55 94 3e 77 8e 08 be 24 88 de 3c ca 41 63 bc
       0.289711 -0.13335596 0.027164526 -0.013870666
0003b0 03 49 24 bd 24 3d 68 be 11 7b 77 bd df db ad bd
       -0.040108692 -0.22679573 -0.0604201 -0.08489203
0003c0 57 fe 73 bd cc 9a c9 3b ac 92 53 ba 4c 6e 04 be
       -0.05956873 0.0061524864 -0.0008070867 -0.129327
0003d0 49 24 84 3d f7 a2 10 be fa 88 a2 bc 2f 22 de bd
       0.06452233 -0.14124666 -0.019840706 -0.10846364
0003e0 a8 c6 88 3d be 23 0d 3e 00 83 19 bd b8 34 91 38
       0.06678516 0.13783166 -0.037478447 6.9239584e-05
0003f0 b6 86 ab 3d 9b 77 54 bd 4e f4 11 be 60 26 a5 bd
       0.083753034 -0.051871877 -0.14253351 -0.0806396

net.4.weight f4 [69, 256]
000000 d9 04 83 be 73 25 89 3e 7c a3 da 3d 8d b8 1c 3d
       -0.25589636 0.26786384 0.106757134 0.03826194
000010 9b 8a 2a be 74 28 de be 88 4b 96 3e 25 5a d4 3d
       -0.16654436 -0.43390238 0.293545 0.10368756
000020 99 e9 8a be f1 00 73 3e 30 be 8e bc 30 1a c0 be
       -0.27131346 0.23730828 -0.017424673 -0.3751998
000030 c6 e6 98 3e 80 a7 8e 3d 0f 88 a1 be bc d5 c0 be
       0.29863566 0.06965542 -0.31549117 -0.37663066
000040 5e 49 b0 bb da fa ba be 0e 76 9c 3d 73 40 bd bd
       -0.00537984 -0.3651951 0.07639705 -0.09240808
000050 31 f1 e8 3c bb a3 14 3e 58 3c 63 3e f6 5c 17 3d
       0.028435322 0.14515583 0.22190988 0.03695389
000060 6a 74 10 3f f3 3d 41 3d 53 26 5b 3d 45 2a f9 be
       0.56427634 0.04717822 0.053503346 -0.48665062
000070 55 f1 ae bb 98 e7 1c bd 75 f7 a9 3d ec c0 53 3e
       -0.0053388276 -0.038306803 0.08299152 0.20679063
000080 84 b3 82 3d 22 10 bb 3d 0c fb 8c 3d 27 43 b5 be
       0.06381896 0.091339365 0.06883821 -0.35402796
000090 f5 2d 8b 3c cf b7 60 be c2 2b 81 be 7e c3 12 3e
       0.016989687 -0.21945117 -0.25228697 0.14332387
0000a0 90 ab c6 3b 63 62 c2 be 33 05 cc bd 07 58 9c bd
       0.0060629323 -0.37965688 -0.09961929 -0.076339774
0000b0 11 7c 83 3d ad cc 10 3e 48 70 0a 3a 89 55 a2 3e
       0.06420148 0.14140578 0.00052810134 0.31705883
0000c0 18 d0 8f 3e d4 78 27 3e 9b 84 19 3e ed 71 05 3e
       0.2808845 0.16354686 0.14991991 0.1303174
0000d0 2f aa 91 3e af 2a 00 bf cd d5 d1 bd dd 21 08 3f
       0.28450152 -0.5006513 -0.102458574 0.5317667
0000e0 df 14 ab 3d 27 6a f4 bd e0 35 bc be c3 04 49 be
       0.0835359 -0.119343095 -0.36759853 -0.19630723
0000f0 34 f6 93 bc 5f c8 84 3d c0 d7 af 3e db 93 6c 3e
       -0.018061735 0.0648353 0.34344292 0.23103277
000100 f0 50 09 bf 47 ba 7d 3f ab ce 83 bd 1f a0 8e bc
       -0.53639126 0.9911236 -0.06435903 -0.017410336
000110 31 e9 81 3d 59 14 8b 3e 15 bb 05 bf e4 14 7c be
       0.06343306 0.27163962 -0.5223859 -0.24617344
000120 ea 77 b2 3d 32 b9 71 3e 7c 03 6e 3e 22 fa 17 3e
       0.08714278 0.23605803 0.23243517 0.14841512
000130 84 f2 9d be 19 67 08 bf a9 3e 01 3c 29 8d 95 be
       -0.30849087 -0.53282315 0.0078884745 -0.2920926
000140 ef f4 79 3e bf e6 0e bd 09 81 a0 bd 34 38 70 3e
       0.24409841 -0.034888025 -0.078371115 0.2345894
000150 37 e4 c8 bc db 10 63 be c3 b3 15 be 28 2a 18 3e
       -0.024522884 -0.22174399 -0.14619355 0.14859831
000160 d3 57 ba 3d a0 4f 28 bd 88 61 b3 3d aa cf 4e be
       0.090987824 -0.04109156 0.08758837 -0.20196405
000170 89 8f 25 be 26 7e f1 3d 87 5a d1 bd 59 80 03 3e
       -0.16168036 0.11791639 -0.10222345 0.1284193
000180 fa ac b7 3d 16 13 c2 3d 35 6a 3e 3d 88 ac bc bd
       0.089685395 0.094762966 0.046488006 -0.09212595
000190 2e ae 44 3e b8 73 05 3c 60 a9 05 bd 58 62 83 3e
       0.1920707 0.008145265 -0.03263223 0.25660968
0001a0 74 56 d5 bd dc d7 31 3d db 03 9f bd 1f 07 83 3e
       -0.1041688 0.04341875 -0.07764407 0.2559137
0001b0 a8 6a 53 3e 9c a3 f2 bd 4b 0c 04 be 4d cb ea bd
       0.20646155 -0.11847612 -0.12895314 -0.11464558
0001c0 b9 2d b7 3d 2f 5d 6e 3e e0 6c c7 be fe ca 47 3c
       0.08944268 0.23277734 -0.38950253 0.012194393
0001d0 8d e3 2e be 20 de 47 ba a0 4c 87 3d 5d 34 b1 3c
       -0.17078991 -0.0007624347 0.06606412 0.021631414
0001e0 ee a1 ba 3e db 2b 3f bd 61 5c db 3e cb 98 c2 bd
       0.36451668 -0.046672683 0.42843917 -0.09501799
0001f0 cc 50 09 be 96 6e b4 3c db c2 95 3e 83 e8 e1 bd
       -0.13409728 0.022025388 0.29250225 -0.11030676
000200 9c df f6 bd 9e 90 f7 3d e7 fb 44 bf c8 7a f1 3d
       -0.12054369 0.120881304 -0.7694687 0.11790997
000210 79 b1 e5 3e a7 4d 88 be 6d 12 5c 3d e9 07 a0 be
       0.44861963 -0.26621744 0.05372851 -0.31256035
000220 c7 09 30 3e 30 30 12 3e fa 55 11 be 27 58 b1 be
       0.1719123 0.14276195 -0.14192954 -0.34637567
000230 4d f0 71 be f1 69 04 bf c3 a0 95 3d ce 9e 35 bf
       -0.23626824 -0.51724154 0.073060535 -0.7094544
000240 43 47 35 3d 2c d6 a6 bd f0 23 34 bf 53 34 8f 3e
       0.044257414 -0.08146319 -0.70367336 0.27969608
000250 a7 fe 89 3e 5e 04 a1 bc c5 00 6a 3f 9e a2 a0 be
       0.26952097 -0.019655403 0.91407424 -0.31374067
000260 7d 7f a9 be 2b 3a 61 3e b5 97 0a 3e 68 e0 06 bf
       -0.33105078 0.21994846 0.13534434 -0.52686167
000270 c0 1a c1 be 49 2e 68 3e d5 2f 96 3e bf 96 3e bf
       -0.3771572 0.22673906 0.29333368 -0.7444877
000280 3e 24 cc bd e9 95 bf bd a4 23 0e 3e ac ef 02 3f
       -0.0996785 -0.09354765 0.13880783 0.5114696
000290 c4 28 60 3e 5b 53 08 3e 9f e2 0c 3e fd a0 93 3e
       0.21890551 0.13313048 0.13758324 0.28833762
0002a0 81 7f 84 be 13 b6 aa 3a 6d 3a cf 3e 1d 43 07 3d
       -0.25878528 0.0013024233 0.40474263 0.03302299
0002b0 7a 10 80 3d 08 8b b3 ba 88 e1 cb be a2 b5 b0 bd
       0.06253143 -0.0013698051 -0.39820504 -0.08628394
0002c0 3a e1 cf be ed a7 44 3f 5d 49 0b 3f d2 4e ae be
       -0.40601522 0.76818734 0.5440882 -0.3404451
0002d0 38 56 9f 3d 4d 34 19 3f ab f3 b8 3e cd 66 4c bf
       0.07780117 0.5984543 0.36123404 -0.7984436
0002e0 5c 25 d1 be fe d5 91 bc e0 34 44 3f 02 d5 c8 3c
       -0.40848815 -0.017802235 0.7664318 0.024515633
0002f0 83 1d ba be e9 46 a3 3e 52 3a 17 bf fb e8 e5 bd
       -0.3635064 0.31890038 -0.59073365 -0.11226078
000300 9b 51 65 3e 3e 0b 0f be 9b 15 1e 3c a4 2e 06 3e
       0.22394411 -0.13969132 0.009648706 0.1310373
000310 eb 18 29 be 5d 66 31 3f 4d d7 54 3e e7 90 ac be
       -0.16513412 0.6929682 0.20785256 -0.33704302
000320 7c ed 03 3e 0a 01 fb 3d 3f 20 36 bd 13 bf 74 be
       0.12883562 0.122560576 -0.044464346 -0.23901014
000330 87 4e 55 3e 75 05 c4 be 3a ec 64 bb c7 15 97 3c
       0.20830737 -0.38285413 -0.003493084 0.018443001
000340 ba 97 8a bd 5d 66 6e 3e 1c 64 7c 3d de f7 bd bd
       -0.06767221 0.23281236 0.06161891 -0.092757925
000350 a4 71 97 be 93 2c 80 be 62 b6 ae 3c 46 de 9b be
       -0.29578888 -0.25034007 0.021327201 -0.3044302
000360 b9 e1 f5 3e bd a4 9a bd 86 91 75 be 9a 45 17 be
       0.48023775 -0.075509526 -0.23981294 -0.14772645
000370 60 c3 d2 bd fb 1d e2 3d eb 20 82 3e 82 85 50 bd
       -0.10291171 0.110408746 0.2541574 -0.050908573
000380 3b e4 df 3d 64 b6 b2 bd f2 89 e9 3e 65 35 35 be
       0.109322034 -0.087261945 0.45613056 -0.1769615
000390 38 a8 7a 3e 29 9e 11 be e1 a7 6e 3c bb 95 c5 bd
       0.24478233 -0.1422049 0.014566393 -0.096476994
0003a0 c1 22 74 3f c9 61 2b 3d b4 33 89 3e 82 bd 96 3e
       0.9536553 0.041841302 0.2679726 0.29441458
0003b0 86 46 86 bd 29 80 09 3e dd 19 0b be da 6e 8a 3e
       -0.0655642 0.13427795 -0.13584085 0.27037698
0003c0 6e 10 68 be 41 1e 72 be 7e 76 6a be 6f a4 af bd
       -0.22662517 -0.23644353 -0.22896764 -0.08576285
0003d0 22 a6 c8 be da a4 bf bc 23 47 3e 3d 09 f5 82 3d
       -0.3918925 -0.023394037 0.04645456 0.06394393
0003e0 b3 7c 35 be 42 59 05 3f ab 24 02 be 14 6d 31 3e
       -0.1772335 0.5208932 -0.127093 0.17326766
0003f0 f1 49 6b 3f 52 2b 0c 3d 1e 97 8a bd 13 3b 97 bd
       0.919097 0.034221 -0.067671046 -0.073843144

net.4.bias f4 [69]
000000 d9 aa 93 3d 64 26 ef bd 12 d8 c4 bc 20 b4 66 bd
       0.07210321 -0.11677244 -0.024028812 -0.056324124
000010 32 40 34 3c ab de 8e bd f7 4e 08 be aa e6 62 bd
       0.0110016335 -0.06976064 -0.13311373 -0.05539576
000020 ef 9b ee bd fa 6a c1 bd bc 9d 46 bc 00 37 ac bd
       -0.11650836 -0.09444232 -0.012122568 -0.08408928
000030 89 eb a8 bd 5d c5 37 3d 7d 03 29 bd 55 79 80 bd
       -0.0824805 0.044865955 -0.041263092 -0.06273142
000040 f8 b0 0e be f6 56 0d be 67 74 cc bd 81 d3 0c bd
       -0.13934696 -0.13802704 -0.099831395 -0.034381393
000050 fc 6b 9e bd 4c d3 0d be 9c f5 9c bd 60 c5 b2 bd
       -0.0773544 -0.13850135 -0.07664034 -0.087290525
000060 76 a5 a6 bd 00 c6 5a bd 02 76 87 bd 7c 9a d6 bc
       -0.08137028 -0.053411484 -0.06614305 -0.02619671
000070 89 e1 8f bc 91 fc 91 bd b6 44 f0 bd f9 89 57 bc
       -0.017563598 -0.07128251 -0.117318556 -0.013155454
000080 dc fb 26 bd cc 15 f2 bd da d8 05 bd cf de 1a bd
       -0.040767536 -0.11820564 -0.03267751 -0.037810143
000090 18 8a 9b bd b8 99 c1 bd 7c 1e 63 bd ce 91 21 be
       -0.07594699 -0.09453148 -0.055448994 -0.15778276
0000a0 a8 ac 6c bd c7 a6 03 be a5 f4 30 bd 2f 58 54 3e
       -0.057781845 -0.1285659 -0.04320206 0.20736764
0000b0 79 41 ab bd bd c6 db bd b1 f3 a3 bd 95 01 02 be
       -0.08362097 -0.10731266 -0.08005465 -0.12695916
0000c0 c0 c3 d0 bd 3f d1 bb bd df c9 45 bd e5 00 85 bd
       -0.10193586 -0.0917077 -0.048288222 -0.06494311
0000d0 f9 22 0f bc 6b b9 c9 bc 89 6d 42 bd ed b5 89 bd
       -0.0087363655 -0.024624547 -0.047467742 -0.06724153
0000e0 8d c5 98 3b 13 f6 7a bd 49 4b 81 bb da d2 ca 3d
       0.0046622218 -0.06126983 -0.0039457423 0.09903498
0000f0 41 42 41 bd 0c 7d 35 bd 6b 7a 4e bd c7 4d 2d bd
       -0.047182325 -0.044308707 -0.050409716 -0.042310502
000100 b0 c1 a8 bd 36 77 b8 bd 10 16 bb bd 02 5e 22 bd
       -0.08240068 -0.09007113 -0.091350675 -0.039640434
000110 88 f1 e4 bc
       -0.027947202
