pythorch saved models/generator_cgan2.pth (torch, 806726 bytes, 14 tensors)

model.0.weight f4 [256, 117]
00000000: 1990 963c c31c d6bc fc7c 87bb a4ef 7ebd
00000010: 0979 123d 77e8 8c3d 5be8 8bbd 114f 4b3d
00000020: 91dd d83d ea76 a4bc c1e7 9d3d 7b06 773d
00000030: d84c 3ebc 0213 233d 3e8c ecbc 5062 25bd
00000040: ca8e 743c 93f5 2c3d aa6a 5cbd 618d 403c
00000050: 2a82 013e a63e 393d f706 ea3c 94fb 003e
00000060: 83b8 6cbd 4994 453d bf7f 89bd b197 52be
00000070: 139a 86ba de6f f73c 2c88 1bbb 851d a93d
00000080: c74d 67bb 991e c8bc 6e8c 16be 89b4 9c3c
00000090: 6db6 b5bc 326f 23bd fc2b bf3a e2f9 6dbc
000000a0: ec4d 8fbc b092 efbd 941d 1fbd 7bdf 07bd
000000b0: e5cc a3bc 85cc 873b 2221 64bc 252d 05be
000000c0: 9fd7 663c f54d e43c a3db e1bc 83cd e93c
000000d0: 5a6c 0fbd a6dd a0bd 65ae 503d 2ead 3abd
000000e0: 4d96 833d fa98 d6bd 41b7 ac3c c47a 7d3d
000000f0: c6d8 8f3d a5dd 8a3d 5453 ef3c e5ee 463d
00000100: fb77 28bd 086e 22bb a5c0 3e3d c873 903c
00000110: ad39 e3bc 39ea 783d e05b 96bb b6f0 ec3c
00000120: 2ad3 17be d9b1 2dbd b1cb 763b 1736 72bb
00000130: 3354 c43d d939 803b e204 c33c 0233 4cbd
00000140: 6b77 7abc f0d3 3fbd c5eb c2bd bc27 4dbc
00000150: f0e5 923c eb63 5c3d b3be 383d bad6 893d
00000160: 8a15 c2bd 50d6 dcbd a2bb c439 9abd 173e
00000170: 700c 333c 3d44 78bd 9c5a 75bc 1d73 213e
00000180: f3c5 07be 070a 01be a71b 8dbd 21bd acbd
00000190: 2e04 853e 1ce9 17bf fa3c 763e b1f1 5ebe
000001a0: 189b 4d3e 2b07 313d 8bca 5f3d 6954 783d
000001b0: cf33 ee3d 76e1 d73c ee6a 9e3c b162 133e
000001c0: e0a2 f63c 106d 8a3d a741 4abf 08d0 08bc
000001d0: 2953 973d f320 bcbd 5d4f 8a3d c0cb aabb
000001e0: 8293 aabc f22a 993c 8704 dd3b ddbc 80bc
000001f0: 5dba 973c 9aef 953d ff3a f139 c22e 07bd
00000200: e66b 1dbd cfd5 133d 3789 893d daf9 a13d
00000210: 99fb a13c 92b3 6a3c 83fb 353c fd98 bd3d
00000220: 5ca7 c6bc 72ac 9ebd 747c 683d 6735 80bc
00000230: 2536 1a3a c3dd febd 3f50 e03c d903 e43c
00000240: 4675 e53c 85d3 843d 9ce1 a73c f19b 13bd
00000250: 9ceb 06be 68d9 0ebd d5e2 d83d 14c9 fc3d
00000260: 8c14 6bbd 7cc5 083c a06e 56bb ca68 66bd
00000270: 9c36 b83c b781 dcbc a727 d6bd f264 383d
00000280: 9892 56bd 35a4 01bc 51ab 99bd bd6f c3bc
00000290: ee63 80bb 2601 80bb a728 25bd 4703 553a
000002a0: 2475 ffbc 0d0f 7bbc 66aa 6e3d fbef c2bc
000002b0: c4ab 7fbd 3651 30bb b18e ccbd 6ac5 5fbd
000002c0: 8f62 c53c 687a b23d c872 b23d 3152 7b3d
000002d0: 15da 3f3c 0f54 cd3c aca4 ae3c fcdd bb3d
000002e0: 2d3d 1e3c 1f84 67bd 347e 9ebb e9d2 59bd
000002f0: a38e 553c 63f7 35bd 0f40 b2bc dfb5 f7bc
00000300: afe4 24bc 1bee 3ebd 9d17 0ebd 97ae a13d
00000310: ff6d 083d 8f75 a9bd 66de aabc a4c8 93bd
00000320: 95f3 1f3d de54 c2bc ff6f e73d d0c6 9fbd
00000330: f701 c8bd 3fe8 92bc 14cc 99bd 84c6 a5bc
00000340: 32dc 07bc 2054 13bc db3b ff3d be36 81bd
00000350: 2100 263d 843c 083c 680a afbd d73a 5bbd
00000360: caf8 18bc 4245 353f 9913 d53e db1d bdbe
00000370: 5604 93bd 127f 8bbd 76f4 19be fe20 11be
00000380: 1d39 503e 0b9c 853e 5165 39be 47f3 86be
00000390: a126 2c3d f065 fcbe d32b 10be 6f00 053e
000003a0: c7a2 15be d226 17be f0b8 a03d ede4 ad3d
000003b0: 7790 b63c 4c00 16bd e8c2 873d 9835 f33c
000003c0: 8f2a 6dbd 69b3 efbc 3b69 ad3d 09b3 f4ba
000003d0: 7e27 3f3c 181e e83d 5476 14bd fd0e e4bd
000003e0: 016b 4abd 6028 21bd 5a31 d63d 8095 30bd
000003f0: dcfd 793d 027d 9c3c 45e0 9bbd 4cb3 01bd
0.018379258 -0.026136762 -0.0041347723 -0.062240258 0.03575996 0.06880277 -0.06831428 0.04963595
0.105891354 -0.020076234 0.07710219 0.060308915 -0.011615001 0.03981305 -0.028875466 -0.04037696
0.014926622 0.042226385 -0.05381266 0.011752457 0.1264731 0.04522576 0.028567774 0.1259597
-0.05779315 0.04823712 -0.06713819 -0.20565678 -0.0010269306 0.03020471 -0.0023732288 0.082575835
-0.0035294162 -0.024428653 -0.14702007 0.019129055 -0.022181714 -0.039900966 0.0014585252 -0.014524909
-0.01749321 -0.116979 -0.038846567 -0.033172112 -0.019995162 0.0041442537 -0.013923915 -0.13005503
0.014089494 0.027869204 -0.027570551 0.028540378 -0.03501544 -0.07854776 0.050947566 -0.045575313
0.06425152 -0.10478397 0.021083476 0.061884657 0.07023768 0.067805566 0.029214539 0.04856767
-0.041130047 -0.0024784822 0.04657044 0.017633334 -0.027737463 0.060770247 -0.004588589 0.028923374
-0.14826646 -0.042405937 0.003765803 -0.003695851 0.09586372 0.003913146 0.02380604 -0.049853332
-0.0152872605 -0.04683298 -0.09517626 -0.01252168 0.017931908 0.053806227 0.04510374 0.06730409
-0.094767645 -0.10783064 0.0003752383 0.14818421 0.010928258 -0.060611952 -0.014975216 0.15766568
-0.13259105 -0.12601481 -0.0689004 -0.08434511 0.2597975 -0.5934007 0.24046698 -0.21771885
0.20078695 0.043219727 0.05463652 0.060627375 0.116309755 0.026352625 0.019338097 0.14393117
0.030106962 0.06759083 -0.7900643 -0.00835038 0.073889084 -0.09185972 0.067534186 -0.005212277
-0.02082229 0.018697236 0.0067449245 -0.015715057 0.018521482 0.07321091 0.00046011058 -0.033003576
-0.038432978 0.036092576 0.06715625 0.079089835 0.019773291 0.014325039 0.011107328 0.09257696
-0.024249725 -0.07747735 0.056759313 -0.015650464 0.0005882702 -0.124446414 0.027382014 0.027833866
0.028010022 0.06485657 0.020493321 -0.03603739 -0.13175815 -0.034875304 0.1059014 0.1234304
-0.057392642 0.008347865 -0.0032719746 -0.05625228 0.022486977 -0.026917322 -0.10456782 0.045018144
-0.052385896 -0.007912685 -0.07503379 -0.023856992 -0.0039181625 -0.003906387 -0.040321972 0.00081257935
-0.031183787 -0.015323413 0.058267973 -0.023796072 -0.062419668 -0.0026903874 -0.09988154 -0.054631628
0.024094848 0.087147534 0.08713299 0.06135768 0.01170971 0.025064496 0.021318756 0.091731995
0.00965814 -0.056522485 -0.004836822 -0.053179655 0.0130344955 -0.04442538 -0.021759061 -0.03023809
-0.010064288 -0.046613794 -0.034690488 0.078946285 0.033308025 -0.08274376 -0.020858001 -0.072160035
0.039050657 -0.023722108 0.113006584 -0.07801592 -0.09766 -0.01793301 -0.07509628 -0.020236261
-0.008292245 -0.008992225 0.124625884 -0.06309269 0.040527467 0.008315209 -0.08546907 -0.05352291
-0.00933666 0.70808804 0.41616514 -0.3693684 -0.071785614 -0.06811346 -0.1503466 -0.14172742
0.20334287 0.26095614 -0.18105055 -0.2635748 0.042029027 -0.49296522 -0.14079218 0.12988447
-0.14612876 -0.14760903 0.07847774 0.0849093 0.022285683 -0.036621377 0.06628972 0.029688641
-0.057901915 -0.029260354 0.08467337 -0.0018669079 0.0116671305 0.11333865 -0.03624566 -0.11135671
-0.049418453 -0.039345145 0.10458632 -0.043111324 0.061033115 0.019102577 -0.076111354 -0.03166513

model.0.bias f4 [256]
00000000: ccc1 f6bc 9564 5b3d 43fc 0cbd ded5 b4bc
00000010: c243 b8bd face 0abd 4889 5cbd cf18 cfbc
00000020: fd60 493d 3d18 f6bc 071c 4a3d d965 9b3c
00000030: 4cb2 7d3d 9947 9a3d e65e 67bb 1327 253a
00000040: a5e8 553d c692 04bd daa0 803d db74 8bbd
00000050: 8832 38bb 61ab a23d 62f1 b53b 476b 9c3c
00000060: fcf6 b83d 5a18 b53c d8a1 253d 730c 73bd
00000070: f1c4 46bd 6ba8 f4bc 3fce 883d 3774 273d
00000080: 431c 253d 4dc7 68bd dd49 8abd d51b bcbc
00000090: baa5 71bd db1e 5cbd 5f7a ec3b 934a 203d
000000a0: 269b 62bd fc67 c4bd bc9a 173d 6a57 fa3d
000000b0: 7d0f c1bd 09c5 3fbd beff 8e3d 3e72 83bd
000000c0: 7c1f 593d 5d9b 0e3c ca7b 08bb 3cf0 7b3d
000000d0: 325f fe3c ae24 b23d dc1b b03c c61b 503d
000000e0: 8b36 8ebd b682 5e3d f462 5a3b a13b 84bc
000000f0: 0e42 ccbc 4672 afbd ec1a 813d 0ad0 4ebd
00000100: 10cb 83bd c375 10bc 66a6 19bd 40d9 08bd
00000110: 44eb e83b 58e9 d63d c852 bd3d 50c7 94bb
00000120: f7e5 933d bce1 b03d b681 c93b 3604 c63c
00000130: edae b63c eb87 2ebd 0588 44bd fc92 9ebc
00000140: 5bfa 9f3c 6686 00bd 2db5 673b 2773 a9bc
00000150: df30 98bd aa85 553c 45ac 063d b33e 76bd
00000160: c19c 163d 175b cf3d c0e5 cbbc fe75 00bd
00000170: 2e2e 313d a0a8 563d d083 bdbd a496 773d
00000180: 967b a3bc 21eb a23d afc5 483b 8dad 9f3c
00000190: 1b75 ac3d 6acd c83d 10a5 e5b9 2b12 b9bc
000001a0: 01ca 75bc 9e9c 4f3d 427b 3fbc cdc3 033d
000001b0: d608 14bd f60a a23d a03a 783d 0b56 c9bd
000001c0: a021 49bd 4ba3 903d 71eb 663d 4b1d eabb
000001d0: 04be 42bd 5407 1f3d d337 ecbc 0f63 a03d
000001e0: 1af6 2a3c c8b1 f6bb bd7f 843d ae25 c23d
000001f0: 5200 ad3a c342 403d c4df 2bbd a252 043e
00000200: 8c72 593d f9f7 c6bd 83e3 1d3d 75ab 1ebe
00000210: e635 b1bb 66ea f1bc 3827 843c 7a1a 85bd
00000220: 6b38 013d 965c aebd b41c ccbd 212e 30bd
00000230: 8f40 833d 1e8b 9f3d 3094 6dbd d82f 8a3d
00000240: a4f1 a7bd c755 ef3a 8f67 7a3d c3cb 003e
00000250: 9cb3 a33d 35f5 15bd 4585 873d 3002 dabc
00000260: 264a 4e3d dad5 243c 55b9 f43c 49e9 a0bd
00000270: 3925 1bbd 48af 4abd 7510 173d 5da5 093c
00000280: 8e14 92bc 35d1 223c 194c 2c3d ab08 103d
00000290: fa70 3cbd c47e 763c baaf 903c 3364 ab3d
000002a0: c577 d0ba 908f f6bb 8273 3bbc 718c ccbd
000002b0: 3384 6fbd 4476 80bd d274 94bd b215 1cbd
000002c0: a503 833d aff3 a9bd 2be3 533c 858f 04bc
000002d0: f39b b0bd 02b5 bfbd 69dd a03b ebf4 a9bd
000002e0: 1964 6bbd 2954 74bd 1c62 9d3d f5c5 cb3d
000002f0: 1abb 49bd 2ada 5fba 815a a23d 2d3d 9dbc
00000300: 0ff2 7c3d 3f72 41bd 8077 f73b 8447 d3bc
00000310: c628 39bd 947a abbd 8e7d ecbc 0a49 8e3a
00000320: 32d8 41bd afda 373d bac7 403d c688 233d
00000330: e5ab 053d 4a18 2bbc b028 50bd d299 803d
00000340: 56f0 33bc 803d 8a3d 1e11 bc3c c0d7 963c
00000350: 104e 0e3d dfc1 8abd 1a1a d43d faa7 15bc
00000360: 5923 12bd 6da9 b6bd 7d9e e43c 5bfa f73c
00000370: 2154 103d a8c4 9dbc ef9d c9bd e5fc 8d3d
00000380: e6d3 9fbd db77 ad3d a7ad 8a3d 6c37 3dbd
00000390: 3c39 85bd e048 bdbc bd8d 9a3d 8987 24bd
000003a0: 8d79 bbbc 2012 5bbd 7430 6fbd 5e4f 1abc
000003b0: aad8 ae3c f1f3 06bc a0be d3bb cf53 d13c
000003c0: c7af 723d 8fff 703d bfc5 aebc f4db ef3c
000003d0: 31a3 4d3d 3fb4 463d 5868 c5bc d684 afbd
000003e0: e960 4e3b 3524 773d 9f09 7d3d 6915 8abb
000003f0: d653 6bbd 001c 893d 3729 98bd 01d3 3b3d
-0.030121706 0.05356272 -0.034420263 -0.022074636 -0.08997299 -0.033888794 -0.05384186 -0.025280384
0.04916476 -0.030040855 0.049343135 0.018969463 0.061937615 0.075331874 -0.0035304367 0.0006300073
0.05222382 -0.032366537 0.0628068 -0.06809398 -0.002810629 0.07942844 0.0055524567 0.019094123
0.090314835 0.022106338 0.04043755 -0.059338044 -0.04852766 -0.029865464 0.06679963 0.040882315
0.040310156 -0.056830693 -0.067523696 -0.02296249 -0.05899594 -0.053740364 0.007216736 0.03913362
-0.055323742 -0.09590146 0.0370128 0.12223704 -0.09426782 -0.046818767 0.06982373 -0.06418274
0.05300854 0.008704034 -0.0020825737 0.061508402 0.031051252 0.08698402 0.02149766 0.050807737
-0.06943997 0.054323874 0.003332314 -0.016141715 -0.024933841 -0.08566718 0.06303963 -0.05049137
-0.064352155 -0.008817139 -0.037512206 -0.03341031 0.007108124 0.104937255 0.09244305 -0.0045403615
0.07221597 0.086368054 0.006149496 0.02417193 0.022300208 -0.04261009 -0.04798128 -0.019357197
0.019528558 -0.031378172 0.0035355792 -0.020684792 -0.074311964 0.013032356 0.032879133 -0.06011839
0.036770586 0.10124796 -0.024889827 -0.031362526 0.04325693 0.052406907 -0.09253657 0.060446396
-0.019956391 0.079550035 0.0030635407 0.019491935 0.084207736 0.098048046 -0.00043801265 -0.022591671
-0.015001775 0.05068647 -0.011687102 0.032169152 -0.03614124 0.07912247 0.060602784 -0.098308645
-0.049104333 0.07062396 0.05637688 -0.0071446053 -0.047544494 0.038825348 -0.028835213 0.07831394
0.010434652 -0.0075285174 0.06469677 0.09479843 0.0013198948 0.04693867 -0.041961446 0.12922147
0.053087756 -0.09715266 0.03854705 -0.15495093 -0.0054080365 -0.029530715 0.016131982 -0.06499191
0.031547945 -0.08513753 -0.09966412 -0.043012742 0.06408798 0.077902064 -0.05800265 0.06747407
-0.08200386 0.0018259817 0.061133917 0.12577729 0.07993242 -0.0366108 0.06617216 -0.026612371
0.050363682 0.010060752 0.02987353 -0.078569956 -0.037877295 -0.049483567 0.03688093 0.008401242
-0.017832067 0.009937574 0.04206476 0.035164516 -0.04600618 0.015044872 0.017661918 0.08368721
-0.0015904835 -0.007524438 -0.011441113 -0.099877246 -0.058475684 -0.062725574 -0.07248844 -0.038106628
0.063971795 -0.08298432 0.012932579 -0.008090858 -0.08623495 -0.093606964 0.0049092066 -0.082986675
-0.057468507 -0.059650574 0.076847285 0.09949867 -0.0492507 -0.0008539284 0.079274185 -0.01919421
0.061754283 -0.047228094 0.0075520873 -0.025790937 -0.0452049 -0.08372989 -0.028868463 0.0010855508
-0.04732532 0.044886287 0.047065474 0.03992536 0.032634635 -0.010442803 -0.050820053 0.06279339
-0.0109825935 0.067500114 0.02295738 0.018413424 0.034742415 -0.06775259 0.10356541 -0.009134287
-0.03567824 -0.08919034 0.027907604 0.030270746 0.03523648 -0.019258812 -0.098445766 0.069330014
-0.07804088 0.08470126 0.06771403 -0.046195433 -0.06505057 -0.023106039 0.07546566 -0.04016832
-0.022885108 -0.053484082 -0.058395818 -0.009418337 0.021343548 -0.008236871 -0.0064619333 0.025552658
0.059249666 0.05883747 -0.021334527 0.029279687 0.05020446 0.04851174 -0.024097607 -0.08570258
0.0031490868 0.060337264 0.061776754 -0.004213978 -0.057453 0.06694794 -0.07429736 0.045855526

model.1.weight f4 [256]
00000000: 7518 bc3e 82fe 443f 30a5 e93e d0cb 123f
00000010: 532b 2d3f 02e3 053f 826d 693e c4ca 1b3f
00000020: 822c a83e ea19 043f e473 313f 68e7 bd3e
00000030: 3e52 383f ffe6 c23e 50d3 af3e 8db6 2e3f
00000040: cedc 003f ab0b 863e 9474 3d3e 5978 d03e
00000050: 581a af3e 3f05 d13e d260 513f 4f95 9b3f
00000060: 9369 103f d4e0 373f 240a 003f 7dbc 093f
00000070: eca4 0a3f 6a60 cd3e e5c2 783e 08a2 343f
00000080: 7a62 dc3e 294b f93e 4ea2 d93e a8f2 733f
00000090: 5ac4 cf3e dea6 e33e 99d1 1b3f 0155 a03e
000000a0: b6ac 073f 67a2 ba3f d4f1 d83e bb78 a03f
000000b0: 475d f23e bc89 fe3e f7b7 e83e 5468 d23e
000000c0: 9b1c 163f 01f5 8c3e 6d76 093f e221 d43e
000000d0: dc9c 373f cadb f43e 11f3 1a3f 0b6e 173f
000000e0: b4af c73e 83fe f93e 013f e73e e488 993e
000000f0: c6d3 463f 0565 193f 83ee 373f e8c5 c73e
00000100: 298a b63e d0b5 b43e e118 b43e c18f c23e
00000110: c530 ec3e de12 963e 43e9 993f 07c0 173f
00000120: 449c a13e 6923 dd3e cc22 ff3e bbe7 aa3e
00000130: 722c bd3e 9832 043f 7807 bf3e 2c89 ae3f
00000140: b83c 0a3f 073d cf3e 60c2 ac3e 8424 863e
00000150: 14ca 623f 935c 0b3f 7da6 733f d62e 293f
00000160: e774 173f a983 193f 981a b63e a7f9 503f
00000170: 2c96 ec3e a173 e53e f9ff df3e bccf 963f
00000180: daf3 9b3e ddac c53e 9b84 333f f96e de3e
00000190: 5a3e d83e 531d 163f 25c9 8f3e b6ae f73e
000001a0: 64f5 213f f4e0 963e 2afd 263f 8134 ff3e
000001b0: 2f76 f43e 833d 083f 34a6 4b3e 8a53 ed3e
000001c0: 622c f83e ea00 083f 5b07 e53e 2c56 a23e
000001d0: 5c92 be3e 808a 963f e069 373f f84f 9e3e
000001e0: 55c4 af3e b99b da3e 79c3 083f fb59 563f
000001f0: 97f2 8c3f 6df5 083f d931 583f 40ca 7d3f
00000200: cad1 dd3e d9ad 2c3f b54e a73f bb02 5c3f
00000210: a87e 023f 463e 403f 3abb ac3e 6b9a d33e
00000220: cde5 993e c875 083f e4bb f93e 2492 bf3e
00000230: e5fb 063f 9cd6 da3e deaa ae3e ac19 413e
00000240: 8960 203f 29b6 ac3e 7903 d13e 2394 893f
00000250: 42fc e23e 358a 7e3e c2b3 123f 2fae 103f
00000260: 9bb1 073f 4f72 8f3f fb62 2c3f 6544 ab3e
00000270: 324a e03e 64bb c93e e8d7 823e 9180 193f
00000280: 4007 ec3e df37 dd3e 5b32 463f e610 d13e
00000290: d6cc bf3e d80d aa3e 9144 3e3f 9782 f43e
000002a0: 0608 533e 5ed8 3f3f b75c 093f 2edc 113f
000002b0: 78a5 1d3f 70cd 5f3f 9e65 d23e 5bbe e63e
000002c0: ff20 0f3f a968 093f c04a 0b3f 03be e23d
000002d0: d375 c43e 13d0 b03e b811 0a3f 9547 a43e
000002e0: 0ba9 ce3e 7a6f 0c3f 0f97 fa3e 6b2f 7e3f
000002f0: d05f f43e 9428 f73e 47aa fc3e 4163 063f
00000300: dda7 363e 8db8 173f 0d8b c33e ffde 853e
00000310: ce8b ef3e 2a03 943e 0da1 373f feda dd3e
00000320: 7925 3d3f 595d f23e 7419 273f d51c 7b3e
00000330: 8b31 2e3f df88 9f3e 1391 273f ffc9 963f
00000340: 09ca 053f 8e2c ed3e 5805 313f 4386 323f
00000350: 968a b03e 30a2 da3e 26d4 9b3f b1d1 be3f
00000360: 1d21 033f 0e92 c33e 1561 143f 5946 143f
00000370: 4df0 ce3e bb52 b53e b60a a53e 4bc7 403f
00000380: 9452 113f 4f44 a43e 0e0a 943e 89fc 243f
00000390: ffd0 c23e 41dd c53e 8b67 563e 5ec5 f53e
000003a0: faf5 6d3f bc35 cf3e ec33 8b3f a7bb f63e
000003b0: 75a4 573f 21c0 353f 39c7 d63e 78ab 1f3f
000003c0: 18f7 253f 84dd e73e 3350 133f edb4 1b3f
000003d0: 6e49 053f 236d b53e 92de f03e f089 cd3e
000003e0: 9719 a63e daf9 ff3e 8805 733f 72f0 843e
000003f0: 8fb9 e43e 4fad 463f 6bb0 603f 34c9 cb3e
0.3673741 0.7695085 0.4563384 0.57342243 0.6764423 0.5229951 0.2279568 0.6085627
0.32846457 0.5160204 0.6931746 0.3709061 0.7200049 0.3806686 0.34340906 0.682473
0.5033692 0.26180777 0.18501502 0.40716818 0.34199786 0.40824315 0.8178836 1.215494
0.56411093 0.71827435 0.50015473 0.53803235 0.541579 0.4011262 0.24293096 0.7055974
0.43043882 0.48690155 0.4250664 0.9529214 0.40579492 0.44463247 0.60866696 0.31314853
0.5299791 1.4580811 0.42372 1.2536844 0.4733679 0.49714458 0.45452854 0.4109522
0.586374 0.27530673 0.5369633 0.414321 0.71723723 0.47823936 0.6052714 0.5915229
0.39001238 0.4882699 0.45165256 0.29987252 0.7766689 0.5991977 0.71848315 0.39018178
0.35652283 0.35294962 0.3517523 0.380003 0.46130958 0.2931127 1.2024311 0.59277385
0.31564534 0.43191078 0.49831235 0.3337992 0.36947972 0.516397 0.37310386 1.3635612
0.539989 0.40476248 0.33742046 0.26199734 0.88589597 0.5443813 0.95175916 0.6608709
0.59162754 0.5996652 0.35567164 0.8163094 0.46208322 0.4481478 0.4374998 1.1782146
0.3045948 0.38608447 0.70124215 0.4344404 0.4223507 0.58638495 0.2808315 0.4837548
0.6326506 0.294685 0.6523005 0.49844745 0.47746417 0.5321886 0.1988762 0.46352798
0.4847136 0.53126395 0.44732174 0.3170637 0.37221038 1.1761017 0.7164593 0.30920386
0.34329477 0.42696932 0.5342327 0.8373105 1.1011533 0.5349949 0.8445106 0.99136734
0.4332412 0.6745277 1.3070894 0.85941666 0.5097451 0.7509502 0.33736593 0.4132875
0.30058137 0.5330472 0.48776162 0.37416184 0.5272811 0.4274186 0.34114736 0.1885745
0.626473 0.33732727 0.40822962 1.0748333 0.44333082 0.2485741 0.5730554 0.56515783
0.5300538 1.1206759 0.6733853 0.33450618 0.43806607 0.3940078 0.25555348 0.599618
0.4609928 0.4320669 0.77420586 0.40833205 0.37460965 0.33213687 0.74323374 0.47755882
0.2060853 0.74939525 0.53657097 0.5697659 0.6158061 0.8742285 0.41093153 0.45067105
0.55909723 0.53675324 0.54410934 0.11071398 0.38371143 0.34533748 0.53933287 0.32085863
0.40363345 0.548576 0.48943374 0.99291104 0.4772935 0.48273146 0.4934866 0.524952
0.17837472 0.5926598 0.38192025 0.26146695 0.4678635 0.28908664 0.7173012 0.4333114
0.73885304 0.47336844 0.65273213 0.24522717 0.68044347 0.31159112 0.6545574 1.1780394
0.52261406 0.46323055 0.6914878 0.6973612 0.34480733 0.42701864 1.2174118 1.4907743
0.512224 0.38197368 0.57960635 0.5791984 0.4041771 0.3541468 0.32234734 0.75304097
0.5676663 0.32083365 0.2891392 0.6444784 0.38050076 0.38645366 0.20937936 0.48002142
0.92953455 0.40470684 1.087522 0.48190042 0.84235317 0.7099629 0.4194887 0.62371016
0.6483016 0.4528619 0.5754425 0.60822946 0.5206517 0.35434827 0.47044808 0.401443
0.32441399 0.4999531 0.94930315 0.25964695 0.4467282 0.776082 0.8776919 0.39801943

model.1.bias f4 [256]
00000000: b847 70bf 0202 b2be 4297 44bf 839c 2ebf
00000010: 54a2 28bf 3656 84bf cec2 23bf 6b46 87bf
00000020: 97b1 21bf b604 86bf 8cec 70bf 8cae 41bf
00000030: d897 8cbf 7be6 6fbf e189 47bf 98b5 2ebe
00000040: ddb9 75bf 2c6c a73e 20dc 3fbf b154 14bf
00000050: 6d98 57bf 8031 70bf 588a 90be 67dd e73e
00000060: 5146 9bbf 4958 38bf fd5d 4dbf 2471 92bf
00000070: 3258 79bf e26b 11bf cc5b 893e 7cd5 91bf
00000080: 35d0 2dbf 3c3c 32bf f0e2 4abf 3c0e d8be
00000090: f34d 77be 1646 e7be b0a6 98bf a66f 0abf
000000a0: 88a3 8ebf 038f 8c3e 8ee5 c2be 4f1a 833e
000000b0: a43b 34bf 265e 17bf 0a79 61bf 3ff6 3bbf
000000c0: 5eef 8fbf aa80 00bf f079 4bbf 958d 783c
000000d0: 029a 44bf 57c0 8abf 8496 8cbe e329 8dbf
000000e0: d719 54bf 3804 0dbf 9c1d 20bf 1f6b 49bf
000000f0: 9e39 77bf 19ce 92bf 2944 9cbf 35f8 73bf
00000100: 0152 d1be 8e31 6dbf b7d1 36bf 233e 4ebf
00000110: 8bfd 24bf 5235 87be 9ccf d8be a602 36bf
00000120: ccb7 dcbe 065a 57bf 027f 90be b607 00bf
00000130: 0175 7ebf d2c4 85bf 048a 30bf d0c3 f7be
00000140: e243 74bf 416d 57bd 52f7 58bf 4020 83be
00000150: 94e7 39be 9e10 33bf c5b0 f03d d0c0 75bf
00000160: 8741 83bf fa7d 84bf eb1f 3ebf 7fbf 96be
00000170: 4121 26bf 074e 11bf c998 39bf 203f 49be
00000180: d4a1 8dbd df8b 2cbf 31fd 393e 1c27 82bf
00000190: d2a7 4abf b85a 33bf d059 b53a 48b5 93bf
000001a0: fdd9 27bf c53b 2fbf 6031 73be 53c7 bebe
000001b0: 86d6 61bf dcd2 63bf c0bd 23bf d14a c7be
000001c0: 3216 86bf 5204 39bf 73af 84bf 0398 3abf
000001d0: 22be 41bf 0e45 2fbf e950 98bf c5ae 21bf
000001e0: 54d9 3ebf 5e39 65bf d9ed 61bf 1f0b 42bf
000001f0: d65c 13bf 9196 62bf 5e70 18be 14df 823d
00000200: 1993 2fbe 111a 83bf c8c7 46be fb1a 57bf
00000210: 802b 04bd 76a6 69bf 1814 32bf d22a 2bbf
00000220: 39fa 48bf f5ef 8dbf 2f4b d9be 8e23 4cbd
00000230: 4d97 31bf b5e2 14bf 9218 50bf 32a4 1ebf
00000240: 75b7 69bf a071 50bf 5a31 45bf e3ac d43e
00000250: b6f0 0ebf 71b7 51be 041c 6ebf 17d8 45bf
00000260: 76ff 41bc 6a70 cf3e 57aa 8fbf a255 43bf
00000270: 9f95 2bbf 2294 a93e 4a1c 57bf 31d2 1fbf
00000280: 308b 78bf 20aa 6ebf 3c0c 57bf e8ce 41bf
00000290: 56b7 f6be 2917 10bf fff3 16bf 8bb5 50bf
000002a0: 9408 e4be 2d38 a93c 370c 10bf fe72 7dbf
000002b0: 034a 99bf e132 1fbf c549 62bf dd0f c7be
000002c0: 577d 72bf cd54 f3be dd4b 51bf 4d85 433d
000002d0: bb3b 3abf b1b9 9abe da2e 31bf abe5 29bf
000002e0: 86f1 80bf 12e4 97bf de62 4bbf bf2b 31bf
000002f0: a113 57bf 47f1 63bf f632 83bf 17f0 6cbf
00000300: 4467 d83d 2a7e 76bf c0a0 80be 7370 f4bb
00000310: c299 a83d fcf7 06bf 4bc0 3bbf 6182 c7be
00000320: 37dd 84bf 1de0 74bf 2b68 8ebf 5ed5 75bd
00000330: c599 19bf 2e49 39bf e949 4fbf 0605 c7be
00000340: c624 32bf 4e3a 21bf d68b 72bf 97f9 3bbf
00000350: 44ec 0bbf b287 61bf db90 bf3e d257 6fbc
00000360: b36b 8ebf 4263 fbbe 1786 92bf b1e2 abbf
00000370: fe83 70bf 6cbc 28bf 4d8b 5e3d 00e6 c43c
00000380: 32a5 67bf b704 53be 529d 50bf c278 13bf
00000390: 83a2 5dbf 982d 15bf f8d2 f3be cbcc 53bf
000003a0: e1a3 ecbe 02ac 89bf e893 b43d 31aa 09bf
000003b0: 3585 3cbf 3b7e 663e 06f0 2dbf a6ad 51bf
000003c0: 58cb cfbe 4998 3dbf 027d 70bf 239f 3ebe
000003d0: 833b 31bf 2515 39bf c605 94bf 4e40 3dbf
000003e0: 27da 17bf 2532 88bf e7e9 13bf c035 f2be
000003f0: 62f5 ccbe a2d5 5fbf 33d8 3fbe f635 5dbf
-0.93859434 -0.34767157 -0.767933 -0.6820757 -0.65872693 -1.033881 -0.63969123 -1.0568365
-0.63161606 -1.0470188 -0.9411094 -0.7565696 -1.0983839 -0.9371106 -0.7794476 -0.1706146
-0.9598673 0.32699716 -0.7494526 -0.5794173 -0.8421696 -0.9382553 -0.28230548 0.45286104
-1.2130834 -0.7200971 -0.8022154 -1.1440778 -0.974002 -0.5680524 0.26827848 -1.1393275
-0.67895824 -0.6962316 -0.7925253 -0.4219836 -0.24150829 -0.4517066 -1.1925869 -0.5407661
-1.1143656 0.2745286 -0.3806576 0.2560601 -0.70403504 -0.59128034 -0.88075316 -0.73422617
-1.1244924 -0.50196326 -0.79482937 0.015170475 -0.767975 -1.0839947 -0.27458584 -1.1028408
-0.8285193 -0.5508456 -0.6254518 -0.7867908 -0.9657229 -1.1469146 -1.2208301 -0.9530061
-0.40882877 -0.9265374 -0.7141375 -0.80563563 -0.64449376 -0.26407868 -0.42345893 -0.7109779
-0.43108976 -0.8412174 -0.282219 -0.50011766 -0.99397284 -1.045069 -0.68960595 -0.4839158
-0.9541608 -0.052594427 -0.8475238 -0.25610542 -0.18154746 -0.6994723 0.11752466 -0.95997334
-1.0254372 -1.0350945 -0.7426745 -0.29442975 -0.6489449 -0.56759685 -0.72498757 -0.19652987
-0.06915632 -0.67400926 0.18162991 -1.0168185 -0.79162323 -0.700603 0.001383597 -1.1539698
-0.65567 -0.68450576 -0.23749304 -0.37261447 -0.8821796 -0.8899362 -0.6396141 -0.38924268
-1.0475523 -0.7227222 -1.0366043 -0.728882 -0.75680745 -0.68464744 -1.1899692 -0.631573
-0.74550366 -0.8954066 -0.8825355 -0.7579822 -0.5756353 -0.88510996 -0.14886615 0.06390205
-0.17145957 -1.024233 -0.19412148 -0.84025544 -0.032268047 -0.91269624 -0.6956191 -0.66862214
-0.7850681 -1.1088854 -0.42440173 -0.049838595 -0.6937149 -0.5815843 -0.8128749 -0.6196929
-0.9129556 -0.8142338 -0.7702843 0.41538152 -0.55836046 -0.20480134 -0.930115 -0.7728285
-0.011840692 0.40515453 -1.1223859 -0.7630254 -0.6702518 0.3312083 -0.8402754 -0.624301
-0.97087383 -0.9322834 -0.84003043 -0.7570634 -0.4818675 -0.5628534 -0.5896606 -0.8152701
-0.44537795 0.02065667 -0.5626864 -0.9900359 -1.1975712 -0.6218701 -0.88393813 -0.3887929
-0.94722503 -0.47525635 -0.81756383 0.047734547 -0.7274739 -0.30219796 -0.69212115 -0.6636607
-1.0073707 -1.1866477 -0.79447734 -0.69207376 -0.84014326 -0.89040035 -1.0249927 -0.9255385
0.10566571 -0.9628626 -0.25122643 -0.007459694 0.08232452 -0.52722144 -0.7334029 -0.3896666
-1.038001 -0.9565447 -1.112554 -0.060017936 -0.6000026 -0.7237729 -0.8097215 -0.3887102
-0.6958736 -0.6297959 -0.9474462 -0.7342772 -0.5465739 -0.8809768 0.37415203 -0.01460834
-1.1126617 -0.49099165 -1.1447171 -1.3428556 -0.93951404 -0.6591251 0.054332066 0.024035454
-0.90486443 -0.20607267 -0.8149005 -0.57606137 -0.865761 -0.58272696 -0.47621894 -0.82734364
-0.4621878 -1.0755618 0.088172734 -0.53775316 -0.7364076 0.2250909 -0.6794437 -0.8190559
-0.40584826 -0.74060494 -0.93940747 -0.18615393 -0.6923143 -0.7229789 -1.1564262 -0.73926246
-0.5931725 -1.0640303 -0.5777878 -0.47306633 -0.40030962 -0.8743535 -0.18734817 -0.8641046

model.1.running_mean f4 [256]
00000000: 47fa d8bc 3886 3f3d 1d07 0fbd 5b2c 3ebd
00000010: e65b a8bd 9c71 35bd 07a4 54bd 28f0 0ebd
00000020: f142 7b3d 9d9f 1bbd 1c83 15bc b66a 1a3d
00000030: dccc cf3c 8ba3 b13d b318 c9ba adfc 72bc
00000040: ba79 693d bb30 8cbd 4d37 323d c8fc 4fbd
00000050: 98a1 053d d89b d43d 8bf4 963d c90b 96bd
00000060: 04f0 d03d f357 09bc f1c9 b63c 0727 c7bd
00000070: 1c8c 69bd e97c 02bd b23b c93c b226 883c
00000080: 159c 483d 8c3d cfbd f98e 6cbd 7289 a238
00000090: a9c6 28be 7fe7 cabd 4c84 dcbc 55e3 433d
000000a0: 0f94 82bd 915a d2bd 4a84 e43c e34f d43d
000000b0: 2414 0abe e55b 31bc ec3c 983d 252a cebd
000000c0: cd6e 943d c441 763b 4a43 46ba 603b 34bd
000000d0: 2fa3 21bd 1606 b53d 53d7 79bc e533 123d
000000e0: 939b 4fbd 4814 6c3c 669c 97bb f926 86bc
000000f0: bd40 8bbc ea6e 42be 49d5 383d e708 10bd
00000100: 637c 14be 9f85 a33c c958 f4bc 63d3 11bd
00000110: 051e 11bd 9586 7c3d fbc6 c33d 7819 863c
00000120: 63f8 13bc b922 a63d 3c4c 0ebd a837 2dbc
00000130: d8b6 b23c 4b88 cbbd 3d3a 34bd f21e 063b
00000140: 84f4 0a3d 2b4f 97bd 5f79 81bc dbd4 6abd
00000150: b8f5 89bd 4677 a0bd 3c7c 4abd dad5 08be
00000160: 4d62 8c3d 3fd9 b93d 9e14 0ebd ab18 9abd
00000170: e134 333d f204 15bc fb5a 33be 4a61 333c
00000180: 9ecd aabd e51f 453d 0dfa 71bc 5d93 133d
00000190: 4c32 193d 5811 6d3d 6d23 cebd 0c9c 74bd
000001a0: b814 eabc f91c 0f3d d5f2 2fbe d722 463c
000001b0: f967 5fbc 7fe5 003d 780f 453d 5612 2dbe
000001c0: f64f 4bbd 38fd 88bb b285 503d e06b ae3b
000001d0: 419c 19bd 45e9 583d 6de5 97bd 5b4c 143d
000001e0: 52b2 0b3d 0ef7 2abd 3972 e83c d4ac 483c
000001f0: 09c3 9bbb ca1a 7f3d 1b09 81bd ce91 e23d
00000200: 4a4a d3bc 0573 06be 345b 093d e5c0 03be
00000210: cae0 28be e71d 4bbd 1355 6ebd 15ba ecbd
00000220: 74db 5f3d 5993 d9bd 4b92 38be 1c7b 17be
00000230: 3723 653d 6c93 8f3d 2697 20bd 8832 3f3d
00000240: f294 02be 2de8 1fbc 92ad 883d 581c ed3d
00000250: 6acc 823c 65fd 63bd d54d 6a3d a117 81bd
00000260: 7e71 a43c a46c f0bb 3c6a 0dbd a362 98bd
00000270: e91a 81bd 1ab9 90bd 8762 443d 0d2e dbbb
00000280: 22d2 b4bc fb83 953c eeb7 03bd dcd1 843a
00000290: 1ad3 05be 0e1e 79bc d568 1bbd 68b1 cf3d
000002a0: 8bd5 f4bc 4e7a 58bb 1139 63bb a538 01be
000002b0: e907 28bd 0d1a 8cbd 5c05 89bd 767b d1bd
000002c0: 20ac 2cbb 60b5 b3bd 955b 003d 2d0f 47bd
000002d0: 2f2a b2bd 53b7 0dbe bd82 48bd 496a cfbd
000002e0: d36d 6abd 80ae 4ebd 69b5 9b3d 5f41 cb3d
000002f0: c3b8 f6bc 6991 48bd cd83 863d d3c5 ccbc
00000300: f2b9 0a3d eac5 73bd aa34 a3bd f42f b0bc
00000310: 42a8 9abd adf2 27be ceb6 cfbd 731e 73bd
00000320: e9dd c9bd 4471 b73c 161c 2c3d 236f 973a
00000330: b3b0 983c 8fe5 9fbc 764a 68bd 01a3 af3d
00000340: 87de 1abd b831 683c c21f 4d3d e9e1 27bd
00000350: 5e78 2ebc 9b95 a3bd 562c 8e3d 2be6 91bd
00000360: 5aad 3abd a39d 1abe 7370 c93c c342 4b3d
00000370: 7e08 4c3d e60c b8bd bf8e 92bd 475c 14bd
00000380: a8b3 d8bd e1e1 b2bc e851 883d b74e 46bd
00000390: d056 b9bd 70e2 9bbd 02a5 583d d052 87bd
000003a0: 34c3 a5bc 360b f2bd 05b3 c8bd d2b5 3239
000003b0: a1b3 243d 198a e1bd aa73 4db8 20d5 a03c
000003c0: 4196 843d 89a0 563d 8445 7ebd dfe2 593b
000003d0: 1011 b4bc 08fc 593d 0da5 37bd e8a4 e1bd
000003e0: 5f3e a6bc 53c3 9a3d 2b19 153d 315e b0bc
000003f0: c458 13be 3406 8c3d efd5 f9bd 5fa8 c13c
-0.026486529 0.04675886 -0.034918893 -0.04642902 -0.08220653 -0.0442978 -0.05191424 -0.034897
0.061343137 -0.037994016 -0.009125497 0.037699424 0.02536624 0.086737715 -0.0015342444 -0.01483075
0.057000853 -0.06845232 0.04350977 -0.05077818 0.03262481 0.10381287 0.073708616 -0.073264666
0.10202029 -0.008382785 0.02231309 -0.09724241 -0.057018384 -0.031857405 0.024564598 0.016620014
0.048976976 -0.10119161 -0.057753537 7.750363e-05 -0.16482033 -0.099074356 -0.026918553 0.047824223
-0.06375896 -0.102711804 0.027895112 0.103668 -0.13484246 -0.010825132 0.07433495 -0.10066632
0.07247696 0.003757582 -0.00075631274 -0.044001937 -0.039462265 0.088390514 -0.015249091 0.03569402
-0.050685477 0.014409132 -0.0046267984 -0.016376005 -0.016998643 -0.18987623 0.04512528 -0.03516474
-0.14500575 0.019961176 -0.029827492 -0.035601985 -0.03542902 0.061651785 0.09559437 0.016369566
-0.009031388 0.081120916 -0.03474067 -0.0105723515 0.021815702 -0.09938105 -0.044000853 0.0020465222
0.033924595 -0.07388147 -0.015804945 -0.0573319 -0.0673632 -0.078352496 -0.049434885 -0.13362828
0.06854687 0.090746395 -0.03468763 -0.07524236 0.0437516 -0.009095417 -0.17515175 0.0109484885
-0.083399996 0.04812612 -0.014769089 0.03602921 0.037401482 0.05787787 -0.10065351 -0.05971913
-0.028574333 0.03493974 -0.17182477 0.012093267 -0.013635629 0.031468865 0.048110455 -0.16901526
-0.049636804 -0.0041805767 0.05090875 0.0053229183 -0.03750253 0.05295684 -0.07416806 0.03620563
0.034105606 -0.041739516 0.028374778 0.012248237 -0.0047534746 0.062281407 -0.06300565 0.11062966
-0.02579226 -0.13129814 0.033534244 -0.12866552 -0.16492 -0.049589064 -0.0581866 -0.1155893
0.054652646 -0.106238075 -0.18024556 -0.14793056 0.055941787 0.0701054 -0.039206646 0.04667905
-0.1275213 -0.009759945 0.06673731 0.11577672 0.015966613 -0.055661578 0.057203133 -0.06303335
0.020073649 -0.0073371697 -0.03452514 -0.074406885 -0.06303961 -0.07066555 0.047945525 -0.0066888393
-0.022072855 0.01825141 -0.03215783 0.0010133344 -0.1306881 -0.0152049195 -0.037941772 0.101412594
-0.029886981 -0.0033031884 -0.0034671465 -0.12619264 -0.04102317 -0.06840906 -0.06690475 -0.102286264
-0.0026347712 -0.08774829 0.03133734 -0.048598457 -0.08699452 -0.13839464 -0.048952807 -0.10127694
-0.057233643 -0.050459385 0.076029606 0.09924578 -0.030117398 -0.0489668 0.06568108 -0.024996674
0.033868738 -0.059514917 -0.07969029 -0.02150724 -0.07551624 -0.16401167 -0.10142289 -0.05935521
-0.09856779 0.022392876 0.042018972 0.0011553507 0.018638944 -0.019518642 -0.056711636 0.085760124
-0.037809875 0.01417201 0.050079115 -0.04098693 -0.010648815 -0.07987519 0.0694205 -0.07123979
-0.045575477 -0.15099196 0.024589753 0.049624216 0.049812786 -0.08986835 -0.07156133 -0.036220815
-0.10581142 -0.021836223 0.066562474 -0.048414912 -0.09049761 -0.07611549 0.05289174 -0.06607592
-0.020234682 -0.118185446 -0.0979977 0.00017043136 0.04021037 -0.11012668 -4.898353e-05 0.019632876
0.06473971 0.052399192 -0.062078014 0.0033246798 -0.021980792 0.05321887 -0.04483514 -0.110177815
-0.020293413 0.075567864 0.036400955 -0.021529289 -0.1438933 0.06837121 -0.12199008 0.023639856

model.1.running_var f4 [256]
00000000: 91bd 003f 4fbf c43e beeb ec3e 9d1e f43e
00000010: a77e 033f 96da ee3e bac3 da3e a8a7 fa3e
00000020: 420b fc3e 6be6 113f a805 b23e 600b f63e
00000030: d2b2 043f 2565 f43e 8cd9 1f3f 1bf3 063f
00000040: b2ff 0c3f a33a 463e acda ff3e f37b 043f
00000050: a661 0a3f 8bfa 073f a3af 9e3e b0be 043e
00000060: 41f9 233f 0841 ee3e 1a16 e03e be3d e03e
00000070: 7c8c 173f fe84 0c3f ea0f 6b3e aa88 e63e
00000080: 72b6 0f3f bc0f fb3e 2014 283f 9de0 fb3e
00000090: 3301 d83e ce0b 2b3f d152 f13e 6b7a f53e
000000a0: cc85 093f 1a9e 163f 7779 bd3e fb55 093f
000000b0: bd92 d93e 650c 043f 226d 1f3f 6873 ac3e
000000c0: 47e4 ea3e 4c96 003f ed46 dc3e f6a2 4d3e
000000d0: fe75 bb3e ff23 143f f992 0a3f eab2 023f
000000e0: b084 013f c5f4 ce3e 8c05 d73e bf73 0d3f
000000f0: 04f1 fa3e 046c a93e dcf2 e33e 949a 0b3f
00000100: 8aee dd3e fc24 1e3f 0a82 ed3e 4d2e fe3e
00000110: 596d c03e 9d10 b63e c84e 093f b206 0a3f
00000120: 8d8a 9d3e ed6c 043f 77d0 fe3e 0f0e c13e
00000130: 81c8 123f 3f57 ea3e 8d3d e43e 1e83 063f
00000140: 0007 0b3f 7b6b c03e fff3 023f 15ab bf3e
00000150: 23fc dd3e 3661 e53e 5a4a 803e e2f3 fd3e
00000160: c6d4 123f 0370 e43e 36f5 ed3e 8e7d f23e
00000170: 4aab f03e 6623 ee3e 8995 893e cedc e03e
00000180: 7671 c43e 61cc e53e 3f1d e73e f662 063f
00000190: 046a e83e f630 0b3f 398c 933e 0dc7 be3e
000001a0: 79b3 e03e bffb 013f 1fec 6b3e d16c fd3e
000001b0: 90ee 0a3f ce1f 073f fb8b 163f 2b5c c53e
000001c0: 9d6b 0c3f 1553 003f 284c 193f 6478 063f
000001d0: 780d 083f e491 1b3f 9686 b23e abf5 003f
000001e0: ea78 1d3f b2d0 fa3e dfc7 183f bab3 8d3e
000001f0: 3c94 163f 9f60 183f c4ae e43e 5b9e 103e
00000200: 8008 243e 2337 fc3e d992 a83e 8fe7 1a3f
00000210: 11b7 593e 37b6 b13e f3e5 f83e df2c e43e
00000220: b873 ee3e a113 183f 3a93 af3e 986d 903e
00000230: 48d7 ca3e aa8e ee3e b4cd 083f 8e7a 043f
00000240: fdd0 e43e 43ef 0e3f e825 f23e 7614 003f
00000250: d874 d53e 8bbc e53e cec9 eb3e d94f 033f
00000260: 8106 9b3e 4014 053f 1ae3 d53e d723 0a3f
00000270: e423 f93e b274 5a3e 5573 0d3f cf89 e33e
00000280: 4b99 0a3f ca22 1b3f 9ae8 af3e 5951 013f
00000290: 02c0 a13e 3bd5 f33e 3adf 023f adac d53e
000002a0: fd71 d43e 1964 123f f80b 0e3f 6d6b db3e
000002b0: 12fe d43e 4639 e23e 4da3 003f f809 853e
000002c0: 1ba0 ea3e e6ad eb3e 4774 0f3f 795b 8c3e
000002d0: 0285 103f 4f0a e83e 351a 173f 84c3 ba3e
000002e0: 7c52 0b3f 06a0 f83e 0103 e13e d059 0d3e
000002f0: c227 113f 8cee cf3e 11e4 dc3e 3871 fc3e
00000300: 22fb dd3e f3f2 e73e 363a a23e 7b92 073f
00000310: 2ea8 b63e 0046 f33e 97ba de3e 4bc7 033f
00000320: af97 e53e 711a ad3e 24d7 d83e 0e7e 9b3e
00000330: 6893 fb3e e972 f93e 4ed1 093f 8b94 0a3f
00000340: ea0d c03e 272f ef3e 4d50 073f e6db c13e
00000350: 0edf 803e d3bb 093f fe69 ee3e f750 b83e
00000360: e206 fe3e 49e8 0c3f bc67 0f3f d5c9 fe3e
00000370: 28ea 1f3f 70c2 db3e bc9d 203f 353e 3f3e
00000380: 6e99 0b3f 4f13 cb3e 58b3 123f 0358 ff3e
00000390: 26e5 053f 2175 003f a5ea eb3e eb0c 033f
000003a0: 0533 0d3f 26d5 e83e eb73 b43e 6c18 dc3e
000003b0: e4ac 1f3f 72fa 3d3e c13c e13e 8285 f43e
000003c0: aeba 023f f2d6 033f 3991 ed3e fcf8 ef3e
000003d0: 6853 c23e a239 0b3f 6ba2 fb3e 2b43 043f
000003e0: be5e 0b3f 2c0a 203f ba62 ed3e 84d9 a93e
000003f0: 70bf 4e3e 1e7d e93e 10dc 003e 19a8 173f
0.50289255 0.38427207 0.46273607 0.47679606 0.5136513 0.46651143 0.42727453 0.48956037
0.4922734 0.56992215 0.3476994 0.48055553 0.5183536 0.47733417 0.62441325 0.527147
0.5507766 0.19358306 0.4997152 0.5175163 0.5405525 0.53116673 0.30993375 0.12963367
0.64052206 0.4653399 0.43766862 0.43797106 0.5919874 0.5489043 0.2295529 0.4502614
0.56137764 0.49035442 0.6565571 0.49194804 0.42188415 0.6681489 0.47133496 0.4794496
0.5371978 0.58834994 0.37006733 0.5364682 0.42494765 0.5158141 0.622759 0.33681798
0.45877287 0.50229335 0.43022862 0.20081696 0.36613458 0.57867426 0.5413051 0.5105425
0.5059309 0.4042112 0.4199642 0.5525474 0.49012005 0.33090222 0.44521224 0.5453274
0.43346053 0.61775184 0.46388274 0.496447 0.37583426 0.3555955 0.53635836 0.53916466
0.30769768 0.5172871 0.4976842 0.37706038 0.57337195 0.45769688 0.4457821 0.5254382
0.54307556 0.37582 0.5115356 0.37435213 0.43356428 0.4480073 0.25056726 0.4960013
0.57355917 0.44616708 0.46476144 0.47361416 0.47005683 0.46511382 0.268719 0.4391846
0.38367814 0.4488249 0.451395 0.5249475 0.45393384 0.54371583 0.2881792 0.3726124
0.43886927 0.5077476 0.23039292 0.49497083 0.5427027 0.52782905 0.58807343 0.3854688
0.54851705 0.50126773 0.5988183 0.5252745 0.5314555 0.60769486 0.34868306 0.5037486
0.61512625 0.48987347 0.5967998 0.27676183 0.5881994 0.5952243 0.44664586 0.14122908
0.16018867 0.49260816 0.32924536 0.6050958 0.2126124 0.3470933 0.48612937 0.44565484
0.4657266 0.5940495 0.34292012 0.28208613 0.39617372 0.4659322 0.5343888 0.51749504
0.44690695 0.55833834 0.47294545 0.5003122 0.41690707 0.4487041 0.46052402 0.5129371
0.302784 0.51984024 0.41774827 0.5396094 0.48660195 0.21333578 0.5525411 0.44441077
0.54140157 0.6059996 0.34357148 0.5051475 0.31591803 0.4762362 0.51121867 0.41733304
0.41493216 0.57183987 0.5548701 0.42855397 0.4160009 0.4418432 0.5024918 0.25984168
0.45825276 0.4603111 0.560368 0.27413538 0.56452954 0.45320365 0.59024364 0.36477292
0.54422736 0.48559588 0.43947604 0.13803792 0.5670129 0.40611684 0.4314275 0.4930513
0.43355662 0.45302543 0.31685036 0.52957886 0.35675186 0.47514343 0.43501732 0.5147597
0.44842288 0.33809236 0.4235164 0.3036961 0.491359 0.48720482 0.53835 0.5413291
0.37510616 0.46715662 0.52856904 0.37863082 0.25170177 0.5380222 0.4656524 0.3599927
0.49614626 0.5504194 0.5601766 0.4976336 0.6246667 0.42921782 0.62740684 0.18676074
0.5453099 0.3966317 0.57304907 0.49871835 0.5230278 0.50178725 0.46077457 0.51191586
0.55155975 0.4547512 0.35244688 0.42987382 0.62373185 0.18552569 0.43991664 0.47758108
0.510661 0.51499856 0.4639986 0.46869648 0.3795426 0.54384816 0.49147353 0.5166499
0.5444144 0.6251552 0.46364385 0.33173764 0.20190215 0.4560327 0.12583947 0.5924087

model.3.weight f4 [512, 256]
00000000: 5de2 a1bd ed34 1b3d ee8c 333d 8f33 a43c
00000010: b7a7 123e a5b7 90bd 57e6 123c b247 75bd
00000020: d78a 473e e25b 01be 100a 873c 67ba 72bd
00000030: 1b1d 76bd e91a 7abc c9aa f03b 75c9 cc3d
00000040: 9a04 86bd ee54 a3bc f50d 4dbd 97d6 423d
00000050: 74b5 a43c 698c 95bd 4311 4d3d 3084 983c
00000060: af0b 9b3d d064 81bc de4b 9a3d cb6f 0d3d
00000070: aae3 bebd 4748 e73c 7b61 773c b13b 2bbd
00000080: 70e3 033e e251 3b3e 1525 7abc fa55 20bd
00000090: 251b 42be f810 31bd d090 3cbe 6f4b bb3d
000000a0: 22b4 13be cb8a 513d 381a 11bd 957f 69be
000000b0: 9432 0fbd ba84 333d 4367 adbd 5f1d 163d
000000c0: 8640 36bd 2123 c03d 5ce0 4c3d 6dc6 a23d
000000d0: 00ae 813d 5de2 753c ab01 bcbc e9b7 a03c
000000e0: f03a 9c3d 80a8 373d e302 d73d 4013 07bd
000000f0: 6115 acbb 7f7b fa3d b662 bfbe 6f3d 40bd
00000100: f2d5 253d e3fb 583d 4251 7b3d c341 943d
00000110: c32b b43d 1704 11be fdc3 b0be 3df9 b83d
00000120: ebb4 d93c 403c af3c a317 7c3d c854 eab9
00000130: 06f3 3cbe 0854 c83b 4c02 4cbb 3524 54be
00000140: 9d25 13be 2d20 84bc 63b2 6d3a c458 c93c
00000150: 5c9c 66bd a778 0ebc 58bd 9f3d 44d9 e23c
00000160: 3f95 d8bd c36f 84be a59c 82bd 109f 56bc
00000170: 3662 febb c62b 86bd 28e2 2abd 44f8 9b3d
00000180: 9f9f b13d eedb cb3d 9121 0fbd b028 bf3c
00000190: 29be 4a3e 999d 4dbd 9eb1 bc3d a1c9 f1bd
000001a0: 773a 853c 34a5 e7bc 7f0f 243d 923f bb3c
000001b0: 18cf 75bd be8a 1abe 14e8 d7bc 0817 a4bc
000001c0: fdba 67be 335d 37bd 8b36 7ebd af6c ab3d
000001d0: d3a8 e43d c6e2 9c3c 2b7a e43d c9ce 8a3c
000001e0: 1922 09bd 64bd 15be c5b0 59bd cb59 8c3d
000001f0: 76dc 76bd 1b0c ad3c ea37 bc3d 2321 4d3b
00000200: 03d3 51bc 3a30 b4bd c88b 66bc f0aa 113e
00000210: 2518 68bd 26e7 4f3d 12a6 983c 7294 aa3d
00000220: 5253 653c e055 91be 5271 c4bc 4572 9f3d
00000230: 541c 923d c2c5 2b3c 3847 fc3b 6402 923d
00000240: c019 9e3c 754f 1bbe 2766 993c bd24 4ebe
00000250: 2809 ea3c 1ae5 a2bb 41c0 793d b4a7 90bd
00000260: cf4c d8bd e327 56be cbcc aebd 3222 e33d
00000270: 56c9 57bd e9a7 babc 8abe 85bc d4e8 ce3d
00000280: 7d3c b93d 3f6c d4bd 1b7b a93c fef7 243e
00000290: 6324 983e 720b 79bd 066b 20bb 9e24 ad3c
000002a0: 61e8 993d 534b bb3c e6df 103d 6c53 b3be
000002b0: 75c1 53be 2da6 83ba 90bd bebd d564 82bc
000002c0: d675 53be c86c 8b3e 3332 093d ed0f a9bc
000002d0: 772a b43d 1efb a43d dce9 d0bc aa0a 853d
000002e0: 437a a3bd 32fc 4bbe 8235 1a3d b8f4 b13b
000002f0: 2e9f 083d 3875 e5bb b96b 0fbd aeb7 63be
00000300: 0ccf 5f3d bc5b fa3d 8d8b 783d 99e1 9fbc
00000310: 71a9 b83d 6af4 bb3d 1877 6abd 8721 b73d
00000320: e52b 87bc ac3c f3bd adc3 cebd 40b0 4239
00000330: ffae 8a3c e4ef 833d ebf1 0f3d f870 b23c
00000340: a4ea c83d 3094 e8bc cf1f 383e d145 1dbd
00000350: baa8 813d 9b39 3dbd 75aa 44be 412e 78bc
00000360: 7c68 50be 020d 02bd 3a24 06bc 9fb6 c03d
00000370: 004e abbd 40b3 e63b bf9b 2abb a2be c7ba
00000380: b0fb a7bd 1598 17be 57f9 08bd e3f6 373e
00000390: 546a 013e 19c3 b03c a2e5 4e3d 2ad5 a3bd
000003a0: f87c 8939 9635 ddbd d5f8 8cbb 074d 0bbc
000003b0: f793 e83d f63a b1bc 9da5 e3bd f323 96bc
000003c0: 8ee1 133e bca4 183e f971 9d3b 143f bb3a
000003d0: d3d8 22bd 0277 093e 6073 91bd e16b 6a3c
000003e0: 84fb 583d f16a 41be 0dfb 00bd 31b7 c13d
000003f0: 17eb e13b ae00 63bd b0d6 a93b 10f9 1dbc
-0.079045035 0.03789227 0.043835573 0.020044116 0.1432179 -0.070662774 0.00896605 -0.059882827
0.19486557 -0.12632707 0.01648429 -0.0592598 -0.06008635 -0.015265205 0.007344578 0.099993624
-0.065438464 -0.019937959 -0.05006214 0.04756793 0.020106055 -0.07302172 0.05006529 0.01861772
0.07570588 -0.015795141 0.07534002 0.034530442 -0.09320767 0.028232707 0.015098925 -0.041804973
0.1287973 0.18292955 -0.01526763 -0.039144494 -0.18955667 -0.043229073 -0.18414617 0.09145247
-0.14424184 0.051157754 -0.035425395 -0.22802575 -0.034960344 0.04382775 -0.08466961 0.036649104
-0.044495128 0.093817 0.050018653 0.07948003 0.06332016 0.0150075825 -0.022950014 0.019618945
0.07628429 0.04483843 0.104985975 -0.032977343 -0.005251572 0.12230586 -0.37379998 -0.046933588
0.040487237 0.052974593 0.06135679 0.072391056 0.087974094 -0.14161716 -0.34524527 0.090319134
0.026575526 0.021391034 0.06154598 -0.00044695125 -0.18452081 0.006113533 -0.0031129299 -0.20716937
-0.14369817 -0.016128624 0.0009067414 0.02457846 -0.05630146 -0.008695758 0.07799786 0.027691491
-0.105753414 -0.25866517 -0.06377534 -0.013099447 -0.0077631725 -0.06551318 -0.041719586 0.07615712
0.086730234 0.09954058 -0.03494412 0.023334831 0.19799103 -0.050199125 0.09213565 -0.11806036
0.01626323 -0.028277017 0.04005384 0.022857461 -0.060011953 -0.15091988 -0.02635578 -0.020030513
-0.22629924 -0.044766616 -0.062063735 0.08370339 0.11165013 0.019151103 0.11156114 0.016944306
-0.033479784 -0.14623028 -0.053147096 0.06853064 -0.06026884 0.021123936 0.09190352 0.0031300269
-0.012806657 -0.08798261 -0.014071412 0.14225364 -0.05666365 0.05075755 0.018633876 0.08329095
0.013996916 -0.2838583 -0.023979817 0.07785467 0.071343094 0.010484161 0.0076989196 0.07129362
0.019299388 -0.15167029 0.018725468 -0.20131202 0.02856882 -0.0049711587 0.060974363 -0.07063237
-0.10561525 -0.20913653 -0.08535155 0.110905066 -0.052682243 -0.022785144 -0.016326208 0.10103002
0.0904474 -0.10372209 0.020688584 0.16110227 0.2971526 -0.06080193 -0.0024477853 0.021135624
0.07515026 0.022863066 0.035369776 -0.35024583 -0.20679267 -0.0010044031 -0.093135 -0.015917221
-0.2065042 0.2723143 0.03349514 -0.020637477 0.08797162 0.08055709 -0.025502138 0.06496175
-0.07982304 -0.19920424 0.037648685 0.005430784 0.03335493 -0.007002499 -0.03501484 -0.22238037
0.054640815 0.12224528 0.06067996 -0.019516753 0.090166934 0.09177478 -0.057242483 0.08941942
-0.016500423 -0.118768066 -0.10095916 0.0001856694 0.016929148 0.0644224 0.03514282 0.021782383
0.09810379 -0.028390974 0.17980884 -0.03839666 0.0633101 -0.046197515 -0.19205649 -0.015147747
-0.20352358 -0.031750686 -0.008187348 0.09409832 -0.08364487 0.0070404112 -0.0026032773 -0.0015239308
-0.082023025 -0.14804108 -0.033440914 0.17965274 0.12638217 0.021577405 0.050511964 -0.07999642
0.00026223785 -0.10801236 -0.004302124 -0.0085022515 0.11356347 -0.02163456 -0.111155726 -0.018327689
0.14441511 0.14906591 0.0048048464 0.0014285767 -0.03975756 0.13424304 -0.07102084 0.014307947
0.05297424 -0.18888451 -0.03148942 0.09458769 0.00689448 -0.05542057 0.0051830634 -0.009641901

model.3.bias f4 [512]
00000000: 1388 283d 0254 6abc 0792 fc3a e8e1 bf3c
00000010: 440e ab3c 967e 0f3d 99e3 553c 34f3 d23c
00000020: 78b8 f33d 4a79 533c 63e9 03bd 056d 27bd
00000030: 55b3 93bb 0089 133d 79bc 3f3d 31a5 b5bc
00000040: 21f4 8c3d 2db2 4f3d a4fb c53b 0234 41bc
00000050: 9a7f b9bc ebc7 56bd b9f7 1bbd 9731 c93d
00000060: e728 c03c 8756 8ebd 5c97 083d 30b3 3a3d
00000070: aa90 bdbc dd99 14bd dc6f 0d3c 196f 243d
00000080: 6537 673d 6e7b 2f3e 7ca8 043d 1a79 12bd
00000090: fd67 af3b 9e20 333c e2f0 213d aacd bd3c
000000a0: 4562 053d 6435 223d 93c4 783d e4fd 0bbd
000000b0: 456e 0d3b 0183 b5ba 3feb 293b 518d 37bc
000000c0: 0ab6 9b3d 8f6b 5d3d b777 843d 2c74 a63c
000000d0: 9e70 08bd 159c ff3c 2a47 96bc 0362 c13b
000000e0: 88dc 313d 58ec 33bc 15c6 893d f8c7 753b
000000f0: 264f d6ba 5acc 9a3d 74c7 1bbd 393e 9f3d
00000100: 66f5 0f3c 198c cb3d 30f6 3abc 611b abbb
00000110: 5b08 e5bb 5e4c 083b f75c 74bd 158f ac3d
00000120: 80fc 4cbd a9d2 d5bc beac b43c 8926 233d
00000130: c1d1 67bc 7aee 1f3d 74b2 553c dd35 ff3c
00000140: 4b39 0cbc d9cb a43d 09a2 d0bc aa5b 2ebb
00000150: 2004 633d d6d0 c13d 4e8a ab3d 3c6c 7fbd
00000160: d0e7 cc3d ab61 163d d4ad 613e dbf9 dcbc
00000170: 3594 9f3d 769a 453d f03a be3c e6bc a33c
00000180: 2899 413d 0ecb 7d3d 5cf2 6bbc d1f7 cebd
00000190: 30a7 8ebd d403 593c 02e7 003e fb9d 8b3c
000001a0: 5772 7e3d 6ff0 2e3d 6815 eebc 0375 a4bc
000001b0: 5d51 db3a 9b85 4b3d d9c2 40bd fa0d d9bc
000001c0: d849 d73d bc30 663d 3f9b 11bd 43ae 453d
000001d0: e8ab 7b3d dfb7 9a3d 813b 253b 4fd4 aebc
000001e0: a5c8 403c 135e 753d 630e 01bd bac0 e93b
000001f0: 8f11 943d 2642 67bd 0dd6 813c d600 973d
00000200: 4769 533b c528 a63d aac0 cfbd 763f 2fbd
00000210: 9cee 25bd 09ba 863c 579b 4b3c 7a07 08bc
00000220: 23c3 1d3d 315f 91bb 9f4f 463d 733f 3b3e
00000230: e0ef 41bd 8ad1 4e3d 3da5 0dbd f8bf 993d
00000240: 9dd6 e3bc 2fc8 d33c 809e 89bd 4e7f 243d
00000250: d5e8 903c 7d76 353d 32ec 113e 6d5a debc
00000260: 1ceb 813d b9be 833d 63fa 10bc ee89 24bb
00000270: 4991 fc3c 79ad 433c 9d02 8f3c 62e5 bbbb
00000280: c691 543d beaf 9e3d bf83 dcbc 91ba e2bb
00000290: 3c76 02bd 5e76 7e3c e8ed 6dbc eef5 33bb
000002a0: 3b93 413d 026e 1e3d 9e8a e13d 42b2 a5bc
000002b0: 78cb ec3c 4da6 053d 58f6 5e3c d7e0 71bd
000002c0: d7ca 203d 8eb4 f43b 2d6b 413a dbb8 8fbc
000002d0: b48a f23c 48ed 743d e3a3 203d 41c4 1abd
000002e0: 6848 a2bd a631 4f3d 897f d2ba 1465 d5bc
000002f0: 6aa2 263d 19bf b3bc 9bfd fc3c aab8 053c
00000300: 5d30 4ebd 0d7f 76bc de89 f53c 8ed8 b63c
00000310: 78c3 b93c 6114 263a 6ff3 493c fa48 aa3c
00000320: ec67 41bb 42ff 213b 0147 1cbd a671 67bc
00000330: f298 0e3c d158 4cbd 9213 d0ba 5049 14bd
00000340: bde7 bab7 4263 21bd f29e 99bc 8032 2bbd
00000350: 3478 0a3d 54e9 aabc 2ea4 ff3b 8e28 54bc
00000360: 34a6 923c 5ea2 11bd 9aa3 ed3c f67e 593d
00000370: 68c2 ef3c b6a6 2b3d 5076 f23c e37d 613a
00000380: 3cf9 afbc f752 2c3d ad08 32bd 070e 123c
00000390: 611c 903d 12de 293d 0e39 c7bc 90e3 cf3d
000003a0: 040d fe3a dc04 673c 1bd6 48bd df02 15bd
000003b0: f5b4 053d 1729 05bd d8bc 3c3d 8ec7 113d
000003c0: 7d4a a1bc cf7e c43c c671 913d 92c8 c23c
000003d0: e4a8 743b f9ce edbb 617a 8abc e318 bf3a
000003e0: 97f6 43bc dffb 103d 5b0c 3c3d 73f5 4e3d
000003f0: ccb0 333d eab3 e23c 1ef9 823d 3de7 ca3c
0.041145395 -0.014302256 0.0019269594 0.02342315 0.020880826 0.03503283 0.013054752 0.025750734
0.11900419 0.012907336 -0.032204997 -0.040875454 -0.004507462 0.036019325 0.0468106 -0.022173496
0.068825014 0.05070703 0.006041961 -0.011792185 -0.022643853 -0.05243675 -0.038078044 0.09823912
0.023457004 -0.069500975 0.033347473 0.045581043 -0.02314027 -0.036279548 0.008632626 0.040145013
0.056449313 0.17136928 0.03238724 -0.035760023 0.0053529725 0.0109330695 0.039536364 0.023169357
0.03256442 0.0396017 0.060734343 -0.034177676 0.0021580618 -0.0013848246 0.002592757 -0.011203126
0.076030806 0.054057654 0.06468146 0.020319067 -0.033310525 0.031202355 -0.01834448 0.0059015765
0.043423206 -0.010981642 0.06727234 0.0037503224 -0.0016350492 0.07558508 -0.03803201 0.0777554
0.008786535 0.09938831 -0.011411235 -0.0052217697 -0.0069895214 0.0020797472 -0.05965897 0.08425728
-0.05004549 -0.026101427 0.022055026 0.039831672 -0.01414913 0.03904579 0.013043035 0.031153614
-0.008558582 0.08046693 -0.02546789 -0.002660493 0.055423856 0.094636604 0.08375989 -0.06235908
0.10005152 0.036714237 0.22038966 -0.02697461 0.0779194 0.04824301 0.023221463 0.019987535
0.0472652 0.061961226 -0.014401045 -0.10105861 -0.06965482 0.013245542 0.12588122 0.017043104
0.06212076 0.042709764 -0.029062942 -0.020075327 0.0016732622 0.049687963 -0.04706082 -0.026495922
0.105121315 0.05619882 -0.035548445 0.048261892 0.06144324 0.07554602 0.002521247 -0.021341471
0.011766587 0.05990417 -0.03150786 0.0071335705 0.072299115 -0.05645957 0.015849138 0.07373206
0.0032258795 0.08113245 -0.1014417 -0.04278513 -0.04051076 0.01644613 0.012427173 -0.008302564
0.038516175 -0.0044363965 0.048415776 0.18285923 -0.047347903 0.0504928 -0.03458141 0.07507318
-0.027812297 0.02585229 -0.067196846 0.04016047 0.017689148 0.044302452 0.14250258 -0.027142728
0.06343672 0.06432862 -0.008848759 -0.0025106627 0.030830996 0.011943215 0.0174573 -0.0057341317
0.051896833 0.07748364 -0.02691829 -0.006919213 -0.03185104 0.015531151 -0.014522053 -0.0027459818
0.04725955 0.03867913 0.11012767 -0.020226602 0.028905615 0.0326293 0.013608538 -0.059052315
0.039255943 0.007467813 0.0007378336 -0.0175442 0.029607154 0.0597966 0.039218795 -0.03778482
-0.07923967 0.050584458 -0.0016059737 -0.026049174 0.040682234 -0.021941708 0.030882647 0.008161703
-0.05033909 -0.01504494 0.029972967 0.022320058 0.022676215 0.0006335434 0.0123261055 0.020786751
-0.0029511405 0.0024718796 -0.038153652 -0.014126217 0.008703457 -0.04988939 -0.0015874973 -0.03620273
-2.228084e-05 -0.0394013 -0.018752549 -0.041796207 0.03380604 -0.020863213 0.007801554 -0.012949122
0.017901517 -0.035555236 0.029008675 0.053099595 0.029267505 0.041907035 0.029597431 0.00086018274
-0.021481149 0.04207131 -0.043465305 0.008914477 0.07036663 0.04147155 -0.024319198 0.10150826
0.0019382541 0.01410028 -0.049032312 -0.03637969 0.032643277 -0.03250989 0.046078533 0.0355907
-0.01968884 0.023986248 0.07101779 0.02377728 0.0037332112 -0.007257339 -0.016904058 0.001457956
-0.011960647 0.035396453 0.04591022 0.050527047 0.04386978 0.02767368 0.063951716 0.024768466
