pythorch saved models/generator_cgan_ssl.pth (torch, 806850 bytes, 14 tensors)

model.0.weight f4 [256, 117]
0	0xbda38ca9	-0.07985813
1	0x3d6cb8eb	0.05779354
2	0x3dbf272e	0.09333645
3	0xbd1b6650	-0.03793937
4	0x3d5c20a2	0.05374206
5	0x3bee0662	0.0072639445
6	0xbdaed765	-0.08537177
7	0xbd6ec865	-0.05829658
8	0xbd1305d8	-0.035894245
9	0xbd2fecbf	-0.042950388
10	0x38549b7e	5.0689552e-05
11	0xbd733c65	-0.05938377
12	0x3d957fb1	0.07299746
13	0x3abb0e2b	0.001427119
14	0x3c77faab	0.0151354475
15	0x3d40e72e	0.04709547
16	0xbc9d3924	-0.019192286
17	0x3de3fdae	0.1113237
18	0x3cc903fe	0.024538036
19	0xbc82fa63	-0.015988534
20	0x3d9ade3b	0.07561918
21	0xbdbbc4f4	-0.09168425
22	0xbd543edc	-0.05181776
23	0xbda7a391	-0.08185495
24	0xbd91653e	-0.070993885
25	0x3d164847	0.036690023
26	0x3d19e80d	0.037574816
27	0xbccde50e	-0.025133636
28	0x3d8ca91b	0.06868192
29	0x3d8a563a	0.06754728
30	0x3d8b246a	0.06794055
31	0x3d2a8552	0.04163105
32	0x3e1ff2aa	0.15619913
33	0xbdcf814c	-0.10132083
34	0xbdceec69	-0.101036854
35	0x3d64551a	0.05574522
36	0xbdc719f1	-0.09721745
37	0x3d02a15e	0.031892173
38	0xbe034f22	-0.12823156
39	0x3a5840ac	0.0008249383
40	0x3df75847	0.120773844
41	0xbac79662	-0.0015227313
42	0xbc566397	-0.0130852675
43	0xbd35ff9d	-0.044433225
44	0xbd1e2f4e	-0.038619332
45	0xbcf938b6	-0.03042255
46	0xbcf6db98	-0.030134007
47	0xbdab32d6	-0.083593056
48	0x3d916daa	0.07100995
49	0xbd4452ee	-0.04793065
50	0xbdaee593	-0.085398816
51	0x3d88588a	0.066575125
52	0x3d01cadb	0.0316876
53	0x3cdcc251	0.026948126
54	0xbc1bc619	-0.009507679
55	0xbdd54282	-0.10413076
56	0xbbe155eb	-0.0068766973
57	0xbdde14c8	-0.108438075
58	0xbd512495	-0.051060278
59	0x3c4d3fe1	0.012527437
60	0xbcc52eb8	-0.024070129
61	0x3d1a581b	0.03768168
62	0x3d1ac7d0	0.037788212
63	0x3d8584df	0.06519484
64	0xbbda8983	-0.0066692247
65	0x3c815d64	0.015791602
66	0xbd42a3e7	-0.04751959
67	0x3ca2cf70	0.019874305
68	0x3cf4369a	0.029811192
69	0xbd9682fe	-0.073492035
70	0xbd795680	-0.06087351
71	0x3d8aaa1c	0.06770727
72	0xbc385976	-0.011251798
73	0x3d06b264	0.03288497
74	0x3dea6168	0.1144436
75	0xbdfb13ed	-0.1225966
76	0x3c37bcaf	0.011214419
77	0xbde56c0b	-0.11202248
78	0xbc52f899	-0.012876653
79	0x3d700486	0.058598064
80	0xbc6eab3f	-0.014567195
81	0xbd3a8732	-0.04553909
82	0xbc6a1271	-0.014286623
83	0x3da4d5a4	0.08048561
84	0x3da3c9fc	0.0799751
85	0xbd345df5	-0.044034917
86	0xbcd15b5a	-0.025556255
87	0x3d1f01ad	0.038819958
88	0xbd0adb09	-0.033900294
89	0x3d8e31b9	0.069430776
90	0xbd44479e	-0.047919862
91	0xbca4f929	-0.02013834
92	0x3d7c613f	0.06161618
93	0x3d377099	0.044785116
94	0xbba85426	-0.0051369844
95	0xbd7c8ac5	-0.06165578
96	0x3a69d217	0.00089195505
97	0x3d5deb20	0.05417931
98	0x3c877eee	0.016540017
99	0x3dc15400	0.0943985
100	0xbe1cd06c	-0.15313882
101	0xbecb28f5	-0.39679685
102	0xbef4359a	-0.47697145
103	0xbeb48bd4	-0.3526293
104	0x3ca72be0	0.020406663
105	0xbdbe4c24	-0.092918664
106	0x3e31f2c5	0.17377765
107	0xbcbfc627	-0.023409916
108	0x3e8c6d8b	0.27427325
109	0x3dd30cb6	0.10305159
110	0x3b68e499	0.0035536645
111	0xbebdad0c	-0.37046087
112	0xbd912735	-0.07087556
113	0x3d7035de	0.05864512
114	0x3c93bf4f	0.018035559
115	0xbe62d62a	-0.2215201
116	0x3f397b2c	0.7245357
117	0xbd9bf475	-0.07614986
118	0x3cfda05e	0.030960258
119	0x3d6caf88	0.057784587
120	0xbceb74c6	-0.028742205
121	0x3d4fef91	0.050765578
122	0x3ca81ae2	0.020520631
123	0xbd568142	-0.052369364
124	0xbd08f5fe	-0.03343772
125	0x3bb712d1	0.00558696
126	0x3c37c019	0.011215233
127	0xbb9fa1f1	-0.0048716
128	0xbcd81d7a	-0.026381243
129	0x3d74888b	0.05970053
130	0x3d0bd179	0.034135316
131	0xbcbfa873	-0.023395753
132	0x3a0cef80	0.00053762645
133	0x3ce6fbb3	0.028196191
134	0xbbe10662	-0.006867216
135	0x3d57e00a	0.052703895
136	0xbd882f2f	-0.066496246
137	0x3db1b8b0	0.086778045
138	0xbd8f2a6a	-0.06990512
139	0xbd386377	-0.045016732
140	0xbcbd75ca	-0.023127455
141	0xbb42a501	-0.00297004
142	0x3aabcf97	0.0013108131
143	0xbd1e2779	-0.038611863
144	0xbc39edaf	-0.011348172
145	0x3d9a3d14	0.07531181
146	0xbc6dea4c	-0.014521193
147	0x3c741ea3	0.0148998825
148	0x3d277b16	0.04088887
149	0x3ce257eb	0.027629813
150	0xbd3e6a7b	-0.046488266
151	0xbcdb9430	-0.02680406
152	0x3d394210	0.045229018
153	0x3cde39f6	0.027127247
154	0x3c104026	0.008804357
155	0xbcf98398	-0.030458257
156	0xbbb44b94	-0.0055021737
157	0x3da7c5a7	0.08191996
158	0xbd70f51e	-0.058827512
159	0x3d3e6eb0	0.04649228
160	0xbd54d00e	-0.05195623
161	0xbdacc452	-0.08435883
162	0xbbb1bbfd	-0.0054240213
163	0xbb00cb58	-0.0019652452
164	0xbd5bc159	-0.053651188
165	0xbba24779	-0.004952368
166	0x3d465145	0.04841735
167	0x3b9c8bac	0.0047773924
168	0x3c48c749	0.0122545445
169	0xbd5db2d0	-0.054125607
170	0xbc13f181	-0.009029747
171	0xbda1f528	-0.07908088
172	0x3c07ab1c	0.008280542
173	0xbc7d8389	-0.015473255
174	0xbcd7cc83	-0.026342636
175	0xbd45ba56	-0.048273407
176	0xbc92ed0e	-0.017935302
177	0xbd361d90	-0.044461787
178	0x3c430234	0.011902381
179	0x3cdb5830	0.02677545
180	0x3d31c191	0.04339749
181	0xbb14743e	-0.0022652294
182	0xbc333a62	-0.0109392125
183	0x3cd41cb6	0.025892597
184	0x3d2fc527	0.04291263
185	0x3c321899	0.010870122
186	0xbd912808	-0.070877135
187	0xbcefaf6d	-0.029258454
188	0x3d3a75ac	0.045522377
189	0xbd358130	-0.044312656
190	0xbcabaa3a	-0.020955194
191	0x3d035d23	0.032071244
192	0xbd6de492	-0.05807931
193	0x3cb895a5	0.022532294
194	0xbcbc51eb	-0.02298828
195	0xbc3fbce8	-0.011702754
196	0x3d094955	0.0335172
197	0x3d836e49	0.064175196
198	0x3c97db53	0.0185372
199	0xbbfe2451	-0.007755794
200	0x3d219e08	0.03945735
201	0x3d94e2a5	0.072697915
202	0x3c5a65bb	0.0133299185
203	0x3cc61152	0.02417818
204	0x3d3e732d	0.04649656
205	0xbd0663d2	-0.03281004
206	0x3d14c943	0.03632475
207	0xbd4c15bd	-0.04982542
208	0xbe0172b2	-0.12641409
209	0x3cf38a2c	0.029728971
210	0x3d477554	0.048695877
211	0x3ca03c39	0.019559966
212	0xbd42f11e	-0.04759323
213	0x3d941c86	0.07232003
214	0x3d4a8e8a	0.049452342
215	0x3d4f98e2	0.05068291
216	0x3dbb78c3	0.09153893
217	0x3dbb14d1	0.0913483
218	0x3e83f4f7	0.2577283
219	0x3e014f1a	0.12627831
220	0xbe385d6a	-0.18004385
221	0xbf130c3d	-0.5744055
222	0xbf5d93c5	-0.86553603
223	0x3ea8e292	0.3298536
224	0x3c6b02ab	0.014343898
225	0x3eb06588	0.34452462
226	0x3ec885c4	0.39164555
227	0x3e8119a0	0.25214863
228	0xbedf74d2	-0.43643814
229	0x3e67e4b2	0.22645834
230	0xbf0b610e	-0.5444497
231	0xbf7d3b29	-0.98918396
232	0x3e116d98	0.14201963
233	0xbf13245f	-0.5747737
234	0xbd492852	-0.049110718
235	0x3c8fe183	0.017563587
236	0xbdc951cc	-0.09830055
237	0x3cc93f40	0.024566293
238	0xbbed688d	-0.0072451294
239	0x3d8b5695	0.068036236
240	0xbbd39c98	-0.0064578764
241	0xbd180843	-0.037117254
242	0xbe180856	-0.1484693
243	0xbda432f7	-0.08017533
244	0xbcd835b1	-0.02639279
245	0xb991f0a4	-0.00027835846
246	0x3c711e38	0.014716677
247	0xbd2169de	-0.039407603
248	0xbd3854f4	-0.045002893
249	0xbda0ec29	-0.07857544
250	0xbd4d6f55	-0.050155003
251	0xbdb931e7	-0.09042721
252	0xbd6ef80e	-0.058342032
253	0xbd5d79ff	-0.054071423
254	0xbd637e29	-0.055540238
255	0xbd82ed9f	-0.06392979

model.0.bias f4 [256]
0	0x3b5f14a4	0.0034039402
1	0xbbf91731	-0.0076016416
2	0xbd5d654e	-0.05405169
3	0x3d7829a6	0.060586594
4	0xbdd56f39	-0.10421605
5	0xbd1587f5	-0.03650661
6	0xbdba4cdc	-0.09096691
7	0xbd93a68e	-0.07209502
8	0xbd501b41	-0.05080724
9	0x3da3f271	0.080052264
10	0xbc99ce02	-0.01877499
11	0x3b3ffa47	0.0029293464
12	0x3da9f37f	0.08298396
13	0x3d1eda03	0.03878213
14	0x3d0400a1	0.032227162
15	0x3dc0e20b	0.09418114
16	0xbc274c4b	-0.010211061
17	0x3d1aaa45	0.037760038
18	0xbc649f3f	-0.013953983
19	0xbc5dcc0d	-0.013537419
20	0x3d0ab0ca	0.033860005
21	0x3d1e0633	0.03858013
22	0xbd2daa55	-0.04239877
23	0xbde5d08f	-0.1122142
24	0xbd0c722a	-0.034288563
25	0x3dc9601e	0.09832786
26	0x3d39813e	0.04528927
27	0xbd58653d	-0.052830923
28	0xbd285903	-0.041100513
29	0x3dbaefd8	0.09127778
30	0xbd974d8f	-0.0738784
31	0xbcde2063	-0.027115053
32	0x3d8367a8	0.06416255
33	0x3aa76840	0.0012772158
34	0xbd2d98a7	-0.04238191
35	0xbc7764ce	-0.015099717
36	0xbd4d927e	-0.050188534
37	0xbd210782	-0.0393138
38	0x3c6fe703	0.01464248
39	0xbc393624	-0.011304412
40	0x3d0281df	0.031862136
41	0xbc8fee4b	-0.017569682
42	0xbd2ccd93	-0.04218824
43	0xbd8cfe37	-0.06884425
44	0xbd384026	-0.04498305
45	0xbd8b2632	-0.067943946
46	0xbd8ade04	-0.06780627
47	0xbd0611e8	-0.03273192
48	0x3c957dff	0.018248556
49	0xbd7f68ae	-0.06235569
50	0x3d75ce4e	0.0600112
51	0xbd3d1c3d	-0.04616951
52	0xbd02a043	-0.03189112
53	0xbac2a3f0	-0.0014849883
54	0x3d6ec448	0.058292657
55	0xbd5d8db2	-0.05409021
56	0x3d1e5f7c	0.03866528
57	0x3cb4a8b3	0.022053098
58	0x3da908e1	0.08253647
59	0x3cfb4dcc	0.030676745
60	0x3d36c8b2	0.04462499
61	0xbdb21fb2	-0.08697452
62	0xbd5c767b	-0.05382393
63	0xbd0c12b3	-0.03419752
64	0x3d1f9b80	0.038966656
65	0xb7bf83d2	-2.2830358e-05
66	0x3a94feca	0.0011367437
67	0x3d7c3349	0.061572347
68	0xbd5a1e63	-0.053251635
69	0xbc5eb518	-0.013592981
70	0xbd5c8155	-0.053834278
71	0xbdc26f96	-0.094939396
72	0x3cb26348	0.021775857
73	0x3ce6d057	0.028175516
74	0x3da85741	0.08219767
75	0xba93a557	-0.0011264485
76	0x3dc4f078	0.09616178
77	0xbda3142a	-0.0796283
78	0xbdb7af88	-0.08969027
79	0x3b6fd153	0.0036593273
80	0x3d82426a	0.06360324
81	0x3d690e0a	0.056898154
82	0x3d8b5e94	0.06805149
83	0xbd01d928	-0.031701237
84	0xbd733a41	-0.059381727
85	0xbca186bf	-0.019717572
86	0x3da360a1	0.07977415
87	0x3d9b329f	0.075780146
88	0x3da23bfd	0.07921598
89	0xbb94b409	-0.0045380634
90	0xbd954a54	-0.072895676
91	0xbd88b0b0	-0.066743255
92	0x3d808adb	0.062764846
93	0xbc668325	-0.014069353
94	0xbdba1f69	-0.09088022
95	0x3bc3a1d5	0.0059702196
96	0xbcf2f0db	-0.029655864
97	0xbdb26786	-0.08711152
98	0x3d3fbeac	0.0468127
99	0x3ce93188	0.028466001
100	0xbc0e9b11	-0.008703963
101	0xbdb2b634	-0.08726159
102	0x3d55dedd	0.052214492
103	0xbd834a18	-0.06410617
104	0x3da6f600	0.081523895
105	0xbd997fdc	-0.0749509
106	0xbcd8f179	-0.02648233
107	0xbd384efd	-0.044997204
108	0xbd177e5d	-0.036985744
109	0x3c8f8f3b	0.017524352
110	0xbc2a5682	-0.010396602
111	0x3c92ef09	0.017936246
112	0x3c9d9220	0.019234717
113	0x3d0d84e5	0.034550566
114	0x3d863ee1	0.06554962
115	0x3b623ff4	0.0034522982
116	0xbd83a709	-0.06428344
117	0x3b118e94	0.0022210227
118	0x3dabb90a	0.08384903
119	0x3d922e14	0.07137695
120	0xbda9f474	-0.08298579
121	0x3d98cf78	0.074614465
122	0x3c9b3fbc	0.01895129
123	0xbdadf97f	-0.08494853
124	0x3cac517f	0.021034954
125	0x3db007ae	0.08595215
126	0xbd3ca9e8	-0.046060473
127	0x3dabb729	0.083845444
128	0xbc74ab42	-0.014933409
129	0xbd582401	-0.05276871
130	0x3ae0f555	0.0017162958
131	0xbd81dd71	-0.06341065
132	0x3d65b20e	0.05607801
133	0xbd1b41bd	-0.03790449
134	0x3c9a11f5	0.01880739
135	0x3d99966d	0.074993946
136	0x3d127512	0.03575618
137	0xbd35eafe	-0.04441356
138	0x3c7d87bc	0.015474256
139	0xbcefaed9	-0.029258179
140	0x3da62899	0.08113212
141	0x3d49062c	0.04907815
142	0x3d3d969f	0.04628622
143	0x3cafc4b6	0.021456104
144	0xbd09a8db	-0.0336083
145	0x3dac7c49	0.08422143
146	0xbd0ae69f	-0.033911344
147	0x3d453de1	0.048154715
148	0x3c92c8c5	0.017918
149	0xbc9fb270	-0.019494265
150	0x3cc3f0de	0.023918565
151	0x3d6f3de6	0.05840864
152	0xbdaba556	-0.08381145
153	0x3bdc1767	0.006716657
154	0xbb3ca8a2	-0.0028787036
155	0x3d66060d	0.056158114
156	0xbccbe0d7	-0.024887485
157	0xbb9a95b5	-0.0047175535
158	0x3d373862	0.044731505
159	0xbc44e5cd	-0.012017679
160	0xbc07ec3e	-0.008296071
161	0x3d0883e1	0.033328895
162	0xbda62f7f	-0.08114528
163	0x3db4ede6	0.08834438
164	0x3cfb6210	0.030686408
165	0xbd8f6a8c	-0.07002744
166	0xbd9c6381	-0.07636166
167	0x3ddc9289	0.10770137
168	0x3d87ff93	0.06640544
169	0x3d28b2eb	0.041186254
170	0xbd27935b	-0.040912014
171	0x3c8db805	0.017299661
172	0xbdace00f	-0.08441173
173	0xbc839fa7	-0.01606734
174	0xbda15447	-0.07877403
175	0xbc54279d	-0.012948898
176	0xbcefdcfe	-0.029280182
177	0xbd8b5a77	-0.06804364
178	0xbcfbea15	-0.030751267
179	0xbc58bcbc	-0.0132285915
180	0x3d4f06a5	0.050543446
181	0x3d1b519a	0.03791962
182	0xbc8f785e	-0.01751345
183	0x3bea4a0c	0.0071499404
184	0x3b628298	0.0034562703
185	0xbd9d1ce2	-0.076715246
186	0x3d0186b9	0.031622622
187	0x3c44687c	0.011987802
188	0xbd09b55c	-0.033620223
189	0x3cb8185f	0.022472559
190	0x3c331b08	0.010931738
191	0xbd490dd9	-0.04908547
192	0xbca9e2d8	-0.02073805
193	0x3d85ce76	0.0653352
194	0x3ca094e9	0.019602256
195	0xbc95b1f6	-0.018273335
196	0x3d5ac739	0.05341265
197	0x3d473ed9	0.04864392
198	0x3d7acb2e	0.061228923
199	0xbd814170	-0.06311309
200	0xbd9e3227	-0.077244096
201	0xbcb61ee7	-0.022231532
202	0xbd8af1e7	-0.067844205
203	0xbdbbd0d7	-0.091706924
204	0xbcbf4370	-0.023347586
205	0x3cc4f2bd	0.024041528
206	0x3def18e6	0.11674671
207	0xbc88bf2b	-0.016692718
208	0x3e04431a	0.12916222
209	0xbd5c2089	-0.053741965
210	0xbcd332ba	-0.025781024
211	0x3d27e649	0.0409911
212	0x3d958f7e	0.073027596
213	0xbabdff4b	-0.0014495639
214	0xbd6596c3	-0.05605198
215	0x3d1f499d	0.038888562
216	0x3d794075	0.060852487
217	0xbd035788	-0.0320659
218	0x3d0dce64	0.034620658
219	0xbda1a6e8	-0.07893163
220	0xbd7074d4	-0.058705166
221	0x3d55d66a	0.052206434
222	0xbd74aa93	-0.059732985
223	0xbd6b141b	-0.05739222
224	0xbd1612a7	-0.036638882
225	0x3d8bc77f	0.0682516
226	0xbd3393d0	-0.043842137
227	0xbd7f2c7f	-0.062298294
228	0xbe041746	-0.12899503
229	0xbbd0342c	-0.0063538756
230	0xbe08e1ca	-0.13367382
231	0xbd496af7	-0.049174275
232	0x3d0f40c8	0.03497389
233	0xbc9e5f15	-0.019332448
234	0xbd0c3e37	-0.03423902
235	0x3da7fdaf	0.08202683
236	0x3dacfa77	0.0844621
237	0x3d9e299c	0.0772278
238	0xbd7ef7ed	-0.06224816
239	0xbda47f87	-0.080321364
240	0x3cd115ce	0.025523093
241	0x3cc256c3	0.023723012
242	0x3d5bcba2	0.053660996
243	0x3de15a1b	0.110035144
244	0xbcdac3df	-0.026704727
245	0xbdc0282b	-0.093826614
246	0x3d37f63c	0.04491256
247	0x3c09cbb2	0.008410381
248	0x3d8577c3	0.06516983
249	0x3d59a2f4	0.05313392
250	0xbcad8824	-0.021183081
251	0x3cbbfd33	0.022947883
252	0x3bf32257	0.007419865
253	0x3d952fda	0.072845176
254	0xbb1d17a1	-0.0023970383
255	0xbc124445	-0.00892741

model.1.weight f4 [256]
0	0x3f241a87	0.6410298
1	0x3ed2514d	0.41077653
2	0x3eb7e352	0.3591562
3	0x3ebbba46	0.36665553
4	0x3f31ba49	0.69424874
5	0x3ef8d44e	0.48599476
6	0x3e84e50d	0.25956002
7	0x3f03e84c	0.5152633
8	0x3ececf8b	0.40392718
9	0x3f444e9a	0.76682436
10	0x3edbd2d5	0.4293429
11	0x3f35b60b	0.709809
12	0x3f113a2a	0.56729376
13	0x3f198150	0.5996294
14	0x3eaefcf5	0.34177366
15	0x3efe66ad	0.4968771
16	0x3ea3f33c	0.3202151
17	0x3f512301	0.81694037
18	0x3f3e571b	0.7435166
19	0x3ee5e871	0.449039
20	0x3ef54aee	0.4790873
21	0x3f14e087	0.581551
22	0x3f5e6d8e	0.8688592
23	0x3f1b55af	0.6067762
24	0x3ec97b09	0.3935168
25	0x3e25b28e	0.16181394
26	0x3f908d21	1.1293069
27	0x3f2d77c8	0.67760897
28	0x3ef33159	0.47498587
29	0x3f1b8a46	0.60757864
30	0x3f342a73	0.7037727
31	0x3ee9f429	0.45694092
32	0x3f8558f7	1.0417775
33	0x3f20dfc3	0.62841433
34	0x3ead325a	0.33827478
35	0x3f239664	0.6390135
36	0x3f09cca7	0.538279
37	0x3f1103da	0.566465
38	0x3efcf573	0.49406013
39	0x3f595ff4	0.8491204
40	0x3f1f3956	0.6219686
41	0x3f5abda1	0.854456
42	0x3ef8e988	0.4861567
43	0x3f2a4792	0.6651546
44	0x3f1799d7	0.59219116
45	0x3f0b0916	0.5431074
46	0x3f2718fb	0.6527249
47	0x3f44a0e7	0.7680802
48	0x3f7cdeef	0.9877767
49	0x3f004469	0.50104386
50	0x3ea6bc15	0.3256537
51	0x3ede9041	0.43469432
52	0x3ec010bc	0.37512767
53	0x3edf89b6	0.43659753
54	0x3f377c10	0.7167368
55	0x3ee52bb1	0.44759896
56	0x3f64db0b	0.89396733
57	0x3ecd26ef	0.40068766
58	0x3e8a2e6f	0.2698855
59	0x3f047c7f	0.51752466
60	0x3ec48f93	0.38390788
61	0x3f17c54d	0.5928543
62	0x3efc9fbe	0.49340624
63	0x3f0e2902	0.5553132
64	0x3f0f52b5	0.55985576
65	0x3ec37330	0.3817382
66	0x3f2f8036	0.6855501
67	0x3f23e5cf	0.64022535
68	0x3f0afa41	0.5428811
69	0x3eeaceab	0.458608
70	0x3ec77930	0.38959646
71	0x3f0817c2	0.5316125
72	0x3eb24380	0.34817123
73	0x3f44171f	0.7659778
74	0x3ef4010f	0.47657058
75	0x3f03b93d	0.51454526
76	0x3f2c2b46	0.6725353
77	0x3e7ea7f7	0.24868761
78	0x3e8d76eb	0.2762979
79	0x3eef5d96	0.46751088
80	0x3f07ee42	0.5309793
81	0x3e8e866c	0.2783693
82	0x3f060e0a	0.5236517
83	0x3ee181f7	0.44044468
84	0x3f1f6d5a	0.6227623
85	0x3e855514	0.26041472
86	0x3ed6bb73	0.41939887
87	0x3f897811	1.0739766
88	0x3f814814	1.0100121
89	0x3f038b59	0.513845
90	0x3f3a7407	0.72833294
91	0x3ee85781	0.4537926
92	0x3ef06511	0.46952108
93	0x3eb355c6	0.35026377
94	0x3f236854	0.6383107
95	0x3f586ce1	0.84541136
96	0x3edb7535	0.4286286
97	0x3ec82a8f	0.3909497
98	0x3f422e27	0.7585167
99	0x3f41f077	0.75757545
100	0x3f81941f	1.0123328
101	0x3f2e2d34	0.68037724
102	0x3f04c5cc	0.51864314
103	0x3eff4466	0.4985687
104	0x3efabb78	0.48971152
105	0x3f01630b	0.5054175
106	0x3f2246d9	0.63389355
107	0x3ee1c113	0.44092616
108	0x3f2249eb	0.6339404
109	0x3f107ce3	0.5644056
110	0x3f088f4a	0.5334364
111	0x3f85e572	1.0460646
112	0x3ec1c62a	0.378465
113	0x3ece2db4	0.40269244
114	0x3ef0ed05	0.47055832
115	0x3f116d21	0.5680714
116	0x3ef7f77b	0.48431
117	0x3f1c8ddb	0.61153954
118	0x3eb3dbab	0.3512853
119	0x3ed76216	0.4206702
120	0x3ebd9bcc	0.37032926
121	0x3f17997e	0.59218585
122	0x3f31e172	0.6948463
123	0x3eb0f45e	0.34561437
124	0x3f03ff94	0.51561856
125	0x3ec67806	0.38763446
126	0x3f1805a8	0.5938363
127	0x3f8ed597	1.1158932
128	0x3ebf8536	0.3740632
129	0x3ebeb4ca	0.37247306
130	0x3ed3efaf	0.41393802
131	0x3f1b128e	0.6057519
132	0x3f1124e7	0.56696934
133	0x3f2afe18	0.66793966
134	0x3ea38ba4	0.31942475
135	0x3f8d9e65	1.1063963
136	0x3f0ca664	0.5494139
137	0x3e2ad4c4	0.16682726
138	0x3ee5c01b	0.44873127
139	0x3ec7d3d6	0.39028805
140	0x3f2828c9	0.65687233
141	0x3f1f680f	0.62268156
142	0x3f1900d1	0.5976687
143	0x3f054ad5	0.5206731
144	0x3f2f64dd	0.6851328
145	0x3f8115b2	1.0084746
146	0x3ecf5d66	0.40500945
147	0x3f31deb6	0.69480455
148	0x3f378d10	0.7169962
149	0x3f5fc9c7	0.8741726
150	0x3f14e222	0.5815755
151	0x3ea5ff9b	0.32421574
152	0x3ee7a3fa	0.45242292
153	0x3ead6bbb	0.33871254
154	0x3f2db2bc	0.6785085
155	0x3eb7895a	0.35846978
156	0x3f0f6cfa	0.5602566
157	0x3ee0954d	0.43863907
158	0x3f5ae1d5	0.8550084
159	0x3edf46e1	0.43608764
160	0x3f23646f	0.63825125
161	0x3f389d27	0.72114795
162	0x3f63467a	0.88779414
163	0x3e4cf7c5	0.20016392
164	0x3f10ffe0	0.56640434
165	0x3f3ea307	0.7446751
166	0x3f1c6a0d	0.6109932
167	0x3f854efa	1.0414727
168	0x3f73c339	0.9521976
169	0x3ea1d864	0.31610405
170	0x3fab2f52	1.3373816
171	0x3ed2889e	0.41119856
172	0x3f174dc1	0.5910302
173	0x3f1c6cd6	0.6110357
174	0x3f27fb54	0.6561787
175	0x3f02d533	0.51106566
176	0x3eb6dda1	0.35715964
177	0x3e2b6fac	0.16741818
178	0x3f07c60e	0.5303658
179	0x3f5add75	0.85494167
180	0x3f0cb278	0.5495982
181	0x3ef7c997	0.48395988
182	0x3f1b4a66	0.606604
183	0x3f463048	0.7741742
184	0x3f08912c	0.53346515
185	0x3f72f071	0.94898134
186	0x3f0a56de	0.540388
187	0x3f1e0656	0.6172842
188	0x3eb08798	0.3447845
189	0x3ec7da5c	0.39033782
190	0x3eba1d8e	0.36350673
191	0x3f009ad1	0.5023623
192	0x3f1b5936	0.60683
193	0x3f3aae78	0.7292247
194	0x3f58a553	0.84627265
195	0x3f0768a1	0.52894026
196	0x3ef690e0	0.48157406
197	0x3f384ad2	0.71989167
198	0x3eaa6420	0.33279514
199	0x3e980b88	0.29696298
200	0x3f160197	0.58596176
201	0x3ee63333	0.44960937
202	0x3ece4b72	0.40291935
203	0x3f3fe97a	0.7496563
204	0x3f3e97a5	0.7445014
205	0x3f14e28a	0.5815817
206	0x3f69c714	0.91319394
207	0x3f076556	0.52889
208	0x3f8d958e	1.1061265
209	0x3ee15b40	0.4401493
210	0x3f1b5904	0.606827
211	0x3eb619cb	0.35566553
212	0x3ef85e05	0.4850923
213	0x3f2c6f12	0.6735698
214	0x3f0d19a1	0.5511723
215	0x3ee3e070	0.4450717
216	0x3efa348b	0.48868212
217	0x3f42112b	0.75807446
218	0x3f16c262	0.58890355
219	0x3f3e57cc	0.7435272
220	0x3eeb52b1	0.45961526
221	0x3f7b41fb	0.98147553
222	0x3f00c1e0	0.5029583
223	0x3edb570e	0.42839855
224	0x3f57b9f8	0.8426814
225	0x3f077de1	0.5292645
226	0x3f295735	0.6614869
227	0x3ecdd200	0.4019928
228	0x3f6269c1	0.8844262
229	0x3eb84544	0.35990345
230	0x3f46a066	0.775885
231	0x3efcb7b7	0.49358913
232	0x3f31e30f	0.6948709
233	0x3ec6a17c	0.38795078
234	0x3eb2a3a0	0.3489046
235	0x3f027d0b	0.5097205
236	0x3f147890	0.57996464
237	0x3e90ff2d	0.28319684
238	0x3f135e17	0.57565445
239	0x3ee1c70f	0.44097182
240	0x3ebc9fc3	0.3684064
241	0x3edc9eae	0.43089813
242	0x3f67b195	0.90505344
243	0x3f263cf1	0.6493674
244	0x3f3180ce	0.69337165
245	0x3ecbf467	0.39834902
246	0x3eba3605	0.3636934
247	0x3f22e4e0	0.63630486
248	0x3ee56f17	0.44811317
249	0x3eabe539	0.3357332
250	0x3e09b5b4	0.1344822
251	0x3f11e92f	0.56996435
252	0x3ed2fea1	0.4120989
253	0x3f274786	0.6534351
254	0x3ef9bd8e	0.4877743
255	0x3f1aafd7	0.6042456

model.1.bias f4 [256]
0	0xbf369241	-0.71316916
1	0xbea7f4a0	-0.32803822
2	0xbf53c0a9	-0.8271585
3	0xbeeca3cb	-0.46218714
4	0xbf5102d9	-0.8164497
5	0xbf5bae06	-0.85812414
6	0x3c438414	0.011933345
7	0xbe8872c8	-0.2665007
8	0xbf6f75ff	-0.9353942
9	0xbe462c6c	-0.19352883
10	0xbf624b73	-0.88396376
11	0xbf4a3a92	-0.7899562
12	0xbf9bf8a5	-1.2185255
13	0xbf999dbb	-1.200126
14	0xbeb28bed	-0.3487238
15	0xbf1dbfcf	-0.616208
16	0xbef13b54	-0.47115576
17	0xbf6024ad	-0.8755596
18	0x3dc33db4	0.09533253
19	0xbf5ccd58	-0.8625083
20	0xbf3f4fa7	-0.74730915
21	0x3cb9061d	0.022585923
22	0xbefd0ce9	-0.49423912
23	0xbea5afcc	-0.32360685
24	0xbf55df34	-0.83543706
25	0xbd4d396c	-0.05010359
26	0xbf8cdbe2	-1.1004603
27	0xbf410643	-0.7540018
28	0xbedea9d7	-0.43488953
29	0xbf82adf6	-1.0209339
30	0xbf44ca36	-0.7687105
31	0xbf52d480	-0.823555
32	0xbf6df9cc	-0.92959285
33	0xbf5a145a	-0.85187304
34	0xbf0cd51c	-0.5501268
35	0xbf38f968	-0.72255564
36	0xbe8512ed	-0.25991002
37	0xbf4cff78	-0.80077314
38	0xbf059209	-0.52175957
39	0x3ee1a23f	0.44069096
40	0xbf813b24	-1.0096173
41	0xbf069a66	-0.52579343
42	0xbf546944	-0.8297312
43	0xbf80cc14	-1.006228
44	0xbef55ca3	-0.4792224
45	0xbf08a923	-0.5338308
46	0xbe63f535	-0.22261508
47	0xbf3beab2	-0.7340499
48	0x3eed5ac9	0.46358326
49	0xbfa76c56	-1.3079937
50	0xbf3fd4e2	-0.7493421
51	0x3e9083df	0.2822561
52	0xbe82098d	-0.25397912
53	0xbf060e92	-0.5236598
54	0xbf69c499	-0.9131561
55	0xbf339584	-0.7015002
56	0x3e00233b	0.1251344
57	0x3e871c17	0.26388618
58	0xbf01f74f	-0.5076799
59	0xbf4125d2	-0.75448334
60	0xbf78f832	-0.97253716
61	0xbf6f0aa7	-0.9337563
62	0xbf5b62ab	-0.8569743
63	0xbfa00273	-1.2500747
64	0xbeede3af	-0.4646277
65	0x3d10e1fe	0.035371773
66	0xbe3a4b74	-0.18192846
67	0xbf1f2f12	-0.621812
68	0xbf86bfd3	-1.052729
69	0xbf7c9e73	-0.98679274
70	0xbf0a2359	-0.53960186
71	0xbf3d9054	-0.7404835
72	0xbdea8f47	-0.11453109
73	0xbf57de03	-0.8432314
74	0xbf8bfc64	-1.0936399
75	0xbf561ad6	-0.836347
76	0xbf68db4d	-0.90959626
77	0x3dc156eb	0.094404064
78	0xbdbeab03	-0.09309962
79	0xbe9e0768	-0.30865026
80	0xbf823423	-1.0172161
81	0xbf559170	-0.83425045
82	0xbf82795d	-1.0193287
83	0xbd452ecf	-0.048140343
84	0xbf224958	-0.63393164
85	0xbf2ce0c7	-0.67530483
86	0xbf5d2d38	-0.86397123
87	0xbf41ea79	-0.757484
88	0x3ea4869e	0.32133955
89	0xbf719c21	-0.9437886
90	0xbf50cee1	-0.8156567
91	0xbea0cecb	-0.3140777
92	0xbed10dad	-0.40830746
93	0xbf11de80	-0.56980133
94	0x3dd0ca48	0.10194832
95	0xbf5e4b59	-0.8683372
96	0xbf932748	-1.1496363
97	0xbed5c1f6	-0.41749543
98	0xbf49c9df	-0.78823656
99	0xbeb91ba1	-0.36153892
100	0xbf4aa3f0	-0.791564
101	0xbf68c27f	-0.9092178
102	0xbf26b860	-0.65125084
103	0xbf8fd9f1	-1.1238385
104	0xbf4fa6c8	-0.81113863
105	0xbf6118b1	-0.879283
106	0xbf51b4c4	-0.8191645
107	0xbea011c8	-0.31263566
108	0xbf6f5f82	-0.9350511
109	0x3f0a297d	0.53969556
110	0xbf3cfc43	-0.7382242
111	0xbedbb86a	-0.42914134
112	0xbee4eedc	-0.44713485
113	0xbf2b0a11	-0.66812235
114	0xbf880d78	-1.062911
115	0xbf5b5297	-0.856729
116	0xbf7600ab	-0.9609477
117	0xbf3ca44b	-0.7368819
118	0xbf40e409	-0.75347954
119	0xbdf365e8	-0.118846714
120	0xbf7fdbb8	-0.9994464
121	0xbf49f6a4	-0.7889197
122	0xbf8b7cbe	-1.0897443
123	0xbf470978	-0.77748823
124	0xbf94104a	-1.1567471
125	0xbf52acf9	-0.82295185
126	0xbed60a01	-0.41804507
127	0xbeee62ce	-0.46559757
128	0xbdb80887	-0.089860015
129	0xbf01db19	-0.5072494
130	0xbf7e83fa	-0.9942013
131	0xbf92575f	-1.1432914
132	0xbf2f3e2c	-0.6845424
133	0xbf7eaa01	-0.99478155
134	0xbefec007	-0.4975588
135	0xbf12a0f6	-0.57276857
136	0xbe7b1ece	-0.2452347
137	0xbf279c54	-0.6547291
138	0xbf44450e	-0.7666787
139	0xbf1a61b3	-0.6030533
140	0xbf3e946f	-0.7444524
141	0xbf24477e	-0.6417159
142	0xbf7866ee	-0.9703206
143	0xbf50f922	-0.81630147
144	0xbf569c21	-0.83831984
145	0xbe92b7de	-0.28655905
146	0xbf5ca714	-0.8619244
147	0xbf841a7a	-1.032058
148	0xbf0f3c6f	-0.5595159
149	0x3e4f2b89	0.20231451
150	0xbf41a19b	-0.75637215
151	0xbf6e7dab	-0.93160504
152	0xbf3ba3fe	-0.7329711
153	0xbf01081a	-0.50402987
154	0xbf19276f	-0.59825796
155	0xbeb7a953	-0.35871372
156	0xbeb2f185	-0.3494989
157	0xbe9fdcb3	-0.31223068
158	0xbf77844a	-0.9668623
159	0xbf643a6c	-0.89151645
160	0x3e82e478	0.25564933
161	0xbf602a00	-0.87564087
162	0xbf682cc4	-0.90693307
163	0xbf08a241	-0.5337258
164	0xbf5c9a2a	-0.86172736
165	0xbecfa57f	-0.4055595
166	0xbebe8fb5	-0.37219015
167	0x3f2c10e6	0.67213285
168	0xbf2fe1c6	-0.6870388
169	0xbf88f77c	-1.0700526
170	0xbd9539e5	-0.07286433
171	0xbf55f462	-0.83576024
172	0xbf6634e0	-0.8992443
173	0xbf892d01	-1.0716859
174	0x3dcebbad	0.1009439
175	0xbf76768a	-0.96274626
176	0xbf160e35	-0.5861543
177	0x3d0bf5e0	0.03417003
178	0xbf1ff615	-0.62484866
179	0xbde54c39	-0.11196179
180	0xbf96ef2d	-1.1791741
181	0xbe27793a	-0.16354838
182	0xbed6b8bf	-0.41937825
183	0xbf7d594e	-0.98964393
184	0xbe791bf7	-0.24327074
185	0xbf52b9e5	-0.823149
186	0xbf079b89	-0.529717
187	0xbf1472fe	-0.57987964
188	0xbf35aa7f	-0.7096328
189	0xbf7bbe24	-0.98337007
190	0xbf34120b	-0.7034003
191	0xbf1a3520	-0.6023731
192	0xbf837e3a	-1.0272896
193	0xbf6995c5	-0.91244155
194	0xbf73e243	-0.95267123
195	0xbf370a6c	-0.7150028
196	0xbf618ba0	-0.88103676
197	0x3d74469f	0.059637662
198	0x3d789217	0.060686197
199	0xbf399f8b	-0.7250907
200	0xbf89d939	-1.0769416
201	0xbf32c16d	-0.69826394
202	0xbf6f4651	-0.9346667
203	0xbf5ab1d9	-0.85427624
204	0xbf6a8f74	-0.9162514
205	0xbef5875f	-0.47954842
206	0x3dfb6b5f	0.12276339
207	0xbf45ca8d	-0.7726219
208	0xbf4169ce	-0.7555207
209	0xbf84de33	-1.038031
210	0xbf807730	-1.0036373
211	0xbf33be8c	-0.70212626
212	0xbf89ea6a	-1.0774662
213	0xbf36b780	-0.7137375
214	0xbf907287	-1.1284951
215	0xbf0c825b	-0.54886407
216	0xbf4741b0	-0.77834606
217	0xbd1052e4	-0.0352353
218	0xbf8022ab	-1.001058
219	0x3da15e43	0.07879307
220	0xbef3b7c1	-0.4760113
221	0x3e8cfa59	0.2753475
222	0xbf53bdfc	-0.8271177
223	0xbf2c6d5e	-0.6735438
224	0xbf6b2ca8	-0.91865015
225	0xbf3edcb3	-0.7455551
226	0xbc27fb0d	-0.010252726
227	0xbea4b1d1	-0.32166913
228	0xbe161c20	-0.14659166
229	0xbd79d522	-0.060994275
230	0xbf427d9c	-0.75972915
231	0xbf17851b	-0.5918748
232	0xbf332f57	-0.6999411
233	0xbf3d620c	-0.7397773
234	0xbf3aa781	-0.7291184
235	0xbecbe926	-0.39826316
236	0xbf5b2712	-0.8560649
237	0xbebfd139	-0.37464312
238	0xbf25271f	-0.6451282
239	0xbf641eaa	-0.8910929
240	0xbf7e5525	-0.9934867
241	0xbf8f95a6	-1.1217544
242	0xbf09871a	-0.53721774
243	0x3f08dd66	0.5346283
244	0xbf27fed2	-0.656232
245	0xbf802f4b	-1.0014433
246	0xbf2ad329	-0.66728455
247	0xbf850453	-1.0391945
248	0xbf8f2106	-1.1181953
249	0xbf834290	-1.0254688
250	0xbf08d410	-0.5344858
251	0xbf0ca499	-0.54938656
252	0xbf2fd9b6	-0.68691576
253	0xbf03316b	-0.5124728
254	0x3eb0f553	0.34562168
255	0xbdeab98d	-0.11461172

model.1.running_mean f4 [256]
0	0xbcee6ed0	-0.029105574
1	0xbdf16662	-0.11787106
2	0xbdbabf79	-0.09118552
3	0x3d100be3	0.035167586
4	0xbdbbf2fb	-0.09177204
5	0xbdc59663	-0.096478246
6	0xbe084eb0	-0.13311267
7	0xbe213ea8	-0.15746558
8	0xbd9464fa	-0.07245822
9	0x3d6bdcb5	0.05758353
10	0xbd9a57fb	-0.07536312
11	0xbd451b66	-0.048121832
12	0x3d07d6d7	0.03316387
13	0x3ca02ba2	0.019552056
14	0xbc54bc17	-0.012984297
15	0x3d23cb9a	0.03998909
16	0xbde51a09	-0.111866064
17	0x3cff5a22	0.031170908
18	0xbdbcd7f0	-0.09220874
19	0xbd0abd9a	-0.033872224
20	0x3c312cfc	0.010813948
21	0xbcdfc4e0	-0.027315557
22	0xbb2891b6	-0.0025721616
23	0xbe45ae90	-0.19304872
24	0xbdc9a8b5	-0.098466314
25	0x3ca7a3d3	0.02046386
26	0x3d44d250	0.048052132
27	0xbda9b914	-0.08287254
28	0xbdd4293d	-0.10359428
29	0x3d054f65	0.03254642
30	0xbd983f7f	-0.07433986
31	0xbd0c0861	-0.03418768
32	0x3ccd0104	0.025024898
33	0xbd914695	-0.070935406
34	0xbdc605cc	-0.096690744
35	0xbd4b18f0	-0.04958433
36	0xbe400171	-0.1875055
37	0xbdbf9830	-0.09355199
38	0xbd408307	-0.046999957
39	0xbd0d1901	-0.034447674
40	0xbd663301	-0.056200985
41	0xbd62635c	-0.055270538
42	0xbdfcc4e3	-0.12342241
43	0xbe0641f8	-0.13111103
44	0xbc86f52d	-0.01647433
45	0xbe0674bd	-0.1313047
46	0xbdd67d46	-0.10473113
47	0xbde588bc	-0.11207721
48	0x3c52d8d6	0.0128690805
49	0xbda61ab0	-0.08110559
50	0x3c92dfda	0.017929006
51	0xbdb03c01	-0.08605195
52	0xbdd7054d	-0.10499058
53	0x3cddfdd1	0.027098568
54	0x3c8fd635	0.017558197
55	0xbdbaa1d5	-0.09112898
56	0x3d60d144	0.05488707
57	0x3b9114b7	0.004427518
58	0x3d32fc77	0.0436978
59	0xbca992ea	-0.020699937
60	0x3d66fc42	0.056392916
61	0xbe07f747	-0.13277923
62	0xbd8d0887	-0.06886392
63	0xbd115184	-0.03547813
64	0xbb8fe606	-0.0043914346
65	0xbd2ecdfc	-0.04267691
66	0xbcdbeed2	-0.026847277
67	0xbd83c1a7	-0.06433421
68	0xbd9d7ec9	-0.07690198
69	0xbd1525c8	-0.036412984
70	0xbe18ad0f	-0.14909767
71	0xbde12bd2	-0.10994686
72	0xbcf9b44c	-0.03048148
73	0xbdcea4a8	-0.100899994
74	0x3d72889e	0.05921232
75	0xbd82f9a8	-0.063952744
76	0x3d4d94b4	0.050190642
77	0xbe172817	-0.14761387
78	0xbe196ab8	-0.14982116
79	0xbd383325	-0.04497065
80	0x3d1e732e	0.038684063
81	0x3d1dd3cf	0.038532075
82	0x3d778827	0.06043258
83	0xbd0e82e8	-0.03479281
84	0xbdb325e0	-0.087474585
85	0xbd80e459	-0.06293554
86	0x3c3b4dea	0.01143215
87	0x3d18424f	0.03717261
88	0xbc3aa854	-0.011392672
89	0xbd898252	-0.0671431
90	0xbdc3667b	-0.09541031
91	0xbe0d11f7	-0.13776384
92	0x3bbfa45d	0.005848451
93	0xbd2f32a8	-0.04277292
94	0xbdcfed8a	-0.10152729
95	0xbd9d53cd	-0.07681999
96	0xbd37b4bf	-0.044850107
97	0xbe1e0ee4	-0.15435368
98	0x3c96d2c2	0.018411044
99	0xbd1041bd	-0.035218943
100	0xbcccf496	-0.025018971
101	0xbda52541	-0.08063746
102	0xba93a519	-0.0011264413
103	0xbd439769	-0.047751818
104	0x3d0eef61	0.03489626
105	0xbde752d0	-0.11295092
106	0xbd0f5286	-0.03499081
107	0xbde7d9be	-0.11320828
108	0xbddc62e8	-0.10761052
109	0x3ce625f3	0.028094267
110	0xbdaa60b4	-0.08319226
111	0x3d929f27	0.07159262
112	0xbde1f2e0	-0.11032653
113	0xbc5237f6	-0.012830725
114	0x3c8d306c	0.017235003
115	0xbd198686	-0.037481807
116	0xbd8f0562	-0.069834486
117	0xbd825810	-0.06364453
118	0x3d8dca41	0.069233425
119	0xbc0b0ace	-0.008486463
120	0xbdf20a9c	-0.1181843
121	0xbc0c0a46	-0.008547371
122	0xbd3c4d92	-0.045972414
123	0xbe046803	-0.12930302
124	0x3c23907d	0.009983179
125	0x3c472be7	0.012156463
126	0xbd2d873b	-0.042365294
127	0x3e109439	0.14119042
128	0xbd11ae7b	-0.03556679
129	0xbd56c101	-0.052430157
130	0xbd438d74	-0.047742322
131	0xbdd6664f	-0.104687326
132	0xbcf38207	-0.029725088
133	0xbd8b1cf6	-0.06792633
134	0xbcbcba28	-0.023037985
135	0x3db47245	0.08810858
136	0x3c91c3da	0.017793585
137	0xbd5ee306	-0.054415725
138	0xbd0acd15	-0.033886988
139	0xbdea0ac9	-0.11427838
140	0x3d0baeab	0.034102123
141	0xbc717655	-0.014737685
142	0x3c924f8c	0.017860197
143	0x3a8ec1ac	0.0010891459
144	0xbd668ab2	-0.056284614
145	0x3dbba553	0.091623925
146	0xbdea88c7	-0.114518695
147	0x3c5b1b80	0.013373256
148	0xbd2c9a26	-0.042139195
149	0xbe0e2a1f	-0.13883255
150	0xbd915ff6	-0.07098381
151	0x3da1d10e	0.07901202
152	0xbe13b0f6	-0.14422974
153	0xbd99f86e	-0.07518087
154	0xbd9f4a80	-0.077778816
155	0xbcb3d4ce	-0.02195206
156	0xbdd4a99e	-0.103839144
157	0xbc4aacd9	-0.012370312
158	0x3d233cf7	0.039853062
159	0xbd54106c	-0.051773474
160	0xbd52a9da	-0.051431514
161	0x3cfccd09	0.030859487
162	0xbe06b58f	-0.13155197
163	0x3d976ee0	0.073941946
164	0x3cd4c0b2	0.02597079
165	0xbe1cff88	-0.15331852
166	0xbdabc690	-0.08387482
167	0x3dd66f5b	0.10470458
168	0x3a2c2897	0.00065673277
169	0x3c86f13d	0.016472453
170	0xbdedba1b	-0.116077624
171	0xbc5c628f	-0.013451233
172	0xbd66c3b8	-0.056338996
173	0xbd90b1e2	-0.070651785
174	0xbe5262d0	-0.20545506
175	0xbd07b963	-0.033135783
176	0xbd995c20	-0.074882746
177	0xbdeb65ce	-0.11494027
178	0xbe167695	-0.14693673
179	0xbdcf5518	-0.10123652
180	0x3cc54a1f	0.024083195
181	0xbd11ebcc	-0.035625264
182	0xbda5ae15	-0.08089844
183	0xbd02442b	-0.03180329
184	0xbbca5426	-0.006174582
185	0xbde5012c	-0.11181864
186	0xbc836987	-0.01604153
187	0x398648a0	0.00025612582
188	0xbd6319f3	-0.05544467
189	0xbcca15f1	-0.024668666
190	0xbbb9cd58	-0.005670231
191	0xbda9f756	-0.08299129
192	0xbdc11237	-0.09427302
193	0x3be272ec	0.0069106724
194	0xbd67fcb0	-0.056637466
195	0xbdb5b16c	-0.08871731
196	0xbc588744	-0.013215844
197	0x3bfb4701	0.0076683764
198	0x3dd430e8	0.103608906
199	0xbd9d6af4	-0.07686415
200	0xbe09862b	-0.13430087
201	0xbd87f3aa	-0.06638272
202	0xbded6645	-0.11591772
203	0xbda54ecd	-0.08071671
204	0xbdaf2245	-0.08551458
205	0xbca28921	-0.019840779
206	0xbc0eda12	-0.008718984
207	0xbd44c982	-0.048043735
208	0x3df4b605	0.1194878
209	0xbd9bd46c	-0.07608876
210	0xbdc03ae9	-0.09386236
211	0x3cf469c8	0.029835597
212	0x3da05d92	0.07830347
213	0xbd750c5d	-0.059826244
214	0xbda55fd7	-0.080749206
215	0xbc9d2e6f	-0.01918718
216	0xbc75d1c6	-0.015003627
217	0xbd84e1ca	-0.06488378
218	0xbc8cdd63	-0.01719541
219	0xbe6e541e	-0.23274276
220	0xbe1b88b2	-0.15188864
221	0xbca662bf	-0.020310758
222	0xbd9c1f17	-0.076231174
223	0xbd946bd2	-0.072471276
224	0xbd638753	-0.055548977
225	0xbd48d7e3	-0.04903401
226	0xbdbc68f2	-0.09199704
227	0xbdba4d65	-0.09096793
228	0xbe67cc5c	-0.2263655
229	0xbd9c6368	-0.07636148
230	0xbe0345ab	-0.12819545
231	0xbdcddcaa	-0.10051854
232	0x3b786839	0.0037903918
233	0xbd4d2fcf	-0.050094422
234	0xbdd025a9	-0.10163433
235	0x3d4aa517	0.04947385
236	0x3d01913c	0.031632647
237	0xbb3d67ba	-0.0028900937
238	0xbd902a4a	-0.07039316
239	0xbdd83413	-0.10556807
240	0xbcb1d86d	-0.021709645
241	0x3cd021fd	0.025406832
242	0x3dd5d5af	0.104411475
243	0x3d5bceb6	0.05366393
244	0xbdc0fb47	-0.09422927
245	0xbe148593	-0.1450408
246	0x3c4dd198	0.012562178
247	0xbd612dcf	-0.054975327
248	0x3cba4827	0.022739483
249	0x3d296cc3	0.04136349
250	0xbd4b193d	-0.049584616
251	0xbd1d4f93	-0.038405966
252	0xbd1ab013	-0.037765574
253	0x3ca78ca6	0.020452809
254	0xbc8f83eb	-0.017518958
255	0xbd092d27	-0.033490326

model.1.running_var f4 [256]
0	0x3ef3041e	0.4746408
1	0x3ec6043b	0.38675103
2	0x3ef16bb6	0.4715249
3	0x3ecce8be	0.40021318
4	0x3efd9117	0.49524757
5	0x3ebac294	0.36476576
6	0x3eb137bc	0.34612834
7	0x3e99934e	0.29995197
8	0x3ef74578	0.48295188
9	0x3e1825cd	0.1485817
10	0x3f0135fb	0.5047299
11	0x3ee1e6a0	0.44121265
12	0x3eeb7596	0.45988148
13	0x3f060b24	0.5236075
14	0x3eeeb595	0.4662291
15	0x3edccd9c	0.43125618
16	0x3e7b531b	0.24543421
17	0x3f0276c1	0.50962454
18	0x3e39c052	0.1813977
19	0x3ed1b254	0.40956366
20	0x3eb05f91	0.3444791
21	0x3e99b37f	0.30019757
22	0x3ef4c446	0.47805995
23	0x3e2881ec	0.16455811
24	0x3ee13b3e	0.4399051
25	0x3eded613	0.435227
26	0x3ef7aaed	0.48372594
27	0x3eb0260e	0.34404033
28	0x3ed0873f	0.40728185
29	0x3edf6b23	0.43636426
30	0x3edfdf16	0.4372489
31	0x3ef59c41	0.47970775
32	0x3ef4bd6d	0.4780077
33	0x3ec1c38a	0.37844497
34	0x3ed712c7	0.42006513
35	0x3ee409fe	0.44538873
36	0x3eb32fe0	0.34997463
37	0x3eea45e0	0.45756435
38	0x3ed02154	0.40650427
39	0x3eb35201	0.35023502
40	0x3ed5abf8	0.41732764
41	0x3efbc19c	0.4917115
42	0x3eb93f96	0.36181325
43	0x3ecd9e64	0.40159905
44	0x3f0c423e	0.5478858
45	0x3ee69a2b	0.45039496
46	0x3ec44595	0.38334337
47	0x3ed64997	0.4185302
48	0x3ef03125	0.46912494
49	0x3f14d670	0.58139706
50	0x3efa9ee7	0.48949358
51	0x3ebf38a1	0.37347892
52	0x3e90e56e	0.2830004
53	0x3edaee0c	0.4275974
54	0x3f034ba3	0.5128729
55	0x3ee989b0	0.4561286
56	0x3ee12ce4	0.4397956
57	0x3e9b9a76	0.30391282
58	0x3ef3a280	0.47584915
59	0x3edf4ee4	0.43614876
60	0x3f081143	0.5315134
61	0x3f01e800	0.5074463
62	0x3ef82c0a	0.484711
63	0x3efc5f88	0.49291635
64	0x3ed9bbba	0.42526037
65	0x3f015477	0.5051951
66	0x3f042dbb	0.5163228
67	0x3eca23bd	0.3948039
68	0x3f0de04e	0.55420387
69	0x3eeaf5c8	0.4589064
70	0x3eac5cc9	0.3366454
71	0x3f06abce	0.52605903
72	0x3ef47314	0.47744048
73	0x3ec5b124	0.3861171
74	0x3f1549b0	0.58315563
75	0x3ea61d60	0.32444286
76	0x3e8640b9	0.26221254
77	0x3ea24ce2	0.31699282
78	0x3e99e76d	0.30059376
79	0x3ed850a7	0.42249033
80	0x3f09b42d	0.5379055
81	0x3ef6555a	0.48111993
82	0x3f126d38	0.57197905
83	0x3f070fb0	0.5275831
84	0x3ed1beb7	0.40965816
85	0x3ede0486	0.43362826
86	0x3edc9471	0.43082002
87	0x3ee4a14c	0.4465431
88	0x3e1aeb6c	0.15128869
89	0x3f002db1	0.5006972
90	0x3ed5208e	0.416264
91	0x3eb80586	0.35941714
92	0x3e9521f5	0.2912747
93	0x3f070d68	0.5275483
94	0x3edcfd90	0.43162203
95	0x3f08b2d1	0.5339785
96	0x3ef8b86a	0.48578197
97	0x3eea2bc0	0.45736504
98	0x3f125c7f	0.5717239
99	0x3ec0a0a7	0.37622568
100	0x3eed7911	0.4638143
101	0x3f120d61	0.57051665
102	0x3eb370c8	0.35046983
103	0x3f074f5f	0.52855486
104	0x3ed75a2c	0.42060983
105	0x3ed78cc0	0.4209957
106	0x3f052302	0.5200654
107	0x3ee1b272	0.44081455
108	0x3edcbdfe	0.43113703
109	0x3ebdeee4	0.37096322
110	0x3ec9d82a	0.39422733
111	0x3f0cf560	0.5506191
112	0x3edc70e3	0.43054876
113	0x3ea9e7c8	0.33184648
114	0x3ef21022	0.47277933
115	0x3ed6bf8e	0.4194302
116	0x3f00200c	0.500489
117	0x3ed351b2	0.41273266
118	0x3f0bdee1	0.5463696
119	0x3ea3218f	0.3186154
120	0x3ef165fd	0.47148123
121	0x3ebefa8f	0.37300536
122	0x3eefc03c	0.4682635
123	0x3f0220c4	0.50831246
124	0x3f1572ec	0.5837848
125	0x3f082d6d	0.53194314
126	0x3ec3fec6	0.38280314
127	0x3efdb2c9	0.49550465
128	0x3ef6ba86	0.4818918
129	0x3efbe4e4	0.49198067
130	0x3f0aa914	0.5416424
131	0x3f1dad6b	0.6159274
132	0x3ec60214	0.3867346
133	0x3ee44fa9	0.44592026
134	0x3ed5ed6a	0.41782695
135	0x3f029488	0.5100789
136	0x3f19750d	0.5994423
137	0x3f0bcf61	0.5461331
138	0x3f0ae257	0.5425162
139	0x3ea9c5ae	0.3315863
140	0x3ed2c7f2	0.4116817
141	0x3edf6c22	0.43637186
142	0x3f1235f3	0.5711357
143	0x3ef1a2ff	0.4719467
144	0x3ec4dba6	0.38448828
145	0x3f0766ca	0.5289122
146	0x3ee01299	0.4376419
147	0x3ee1c3d8	0.4409473
148	0x3ee52364	0.44753563
149	0x3e567d91	0.20946337
150	0x3ed9ef81	0.4256554
151	0x3f0a676e	0.5406407
152	0x3ecb1526	0.39664572
153	0x3ed82bf4	0.42221034
154	0x3ee08ffb	0.43859848
155	0x3ec17e94	0.37791884
156	0x3ed936fc	0.42424762
157	0x3f001c65	0.50043327
158	0x3da9ccdc	0.08291027
159	0x3eaf5a73	0.34248695
160	0x3e8d10df	0.27551934
161	0x3f1490b0	0.58033276
162	0x3ef2f3f5	0.4745175
163	0x3efe3f78	0.49657798
164	0x3f16998c	0.58828044
165	0x3e8097af	0.25115725
166	0x3eca43b4	0.39504778
167	0x3f02b9dd	0.51064855
168	0x3ed1487b	0.4087561
169	0x3f0cae68	0.5495362
170	0x3e99e2aa	0.30055743
171	0x3f026867	0.50940555
172	0x3f07fcb2	0.5311996
173	0x3ee6beac	0.45067346
174	0x3e942ada	0.28938943
175	0x3f0c96ea	0.54917777
176	0x3ebcf50c	0.36905706
177	0x3ee576c8	0.44817185
178	0x3e9c2ead	0.3050436
179	0x3e5307c7	0.20608436
180	0x3efe8394	0.4970976
181	0x3ead7ddd	0.3388509
182	0x3efda93e	0.49543184
183	0x3ee77ef2	0.4521404
184	0x3f157dc6	0.5839504
185	0x3efbd72c	0.491876
186	0x3ee46416	0.4460761
187	0x3f041c04	0.5160525
188	0x3ed496e0	0.41521358
189	0x3ed708e4	0.4199897
190	0x3f07db82	0.5306932
191	0x3ee6e980	0.4510002
192	0x3ead8bef	0.33895823
193	0x3efea475	0.49734846
194	0x3f0c2501	0.54743963
195	0x3edd9c5c	0.43283355
196	0x3ef847ef	0.4849238
197	0x3eedb2ec	0.4642557
198	0x3f0a13f2	0.53936684
199	0x3f1dbd0b	0.6161658
200	0x3ee8e6a1	0.45488456
201	0x3f0273a1	0.50957686
202	0x3eddffaa	0.4335912
203	0x3f0afbe1	0.54290587
204	0x3eba7db8	0.3642404
205	0x3ed1f8b2	0.41010052
206	0x3e54b062	0.2077041
207	0x3ed63814	0.4183966
208	0x3f005bf1	0.5014029
209	0x3f12ea17	0.5738844
210	0x3ed64a98	0.41853786
211	0x3ecd3b27	0.40084192
212	0x3f058375	0.5215371
213	0x3ed5d43f	0.41763493
214	0x3f24e319	0.64409024
215	0x3ed8a013	0.42309627
216	0x3ec47d4f	0.38376853
217	0x3dfcd7db	0.12345859
218	0x3ef0dd12	0.47043663
219	0x3e9fefa6	0.31237525
220	0x3ef668fd	0.48126975
221	0x3eacd568	0.33756566
222	0x3f1c0660	0.6094723
223	0x3ee934b5	0.45548025
224	0x3f00f6ca	0.5037657
225	0x3edd4ebc	0.43224132
226	0x3efa9e28	0.4894879
227	0x3f08742d	0.5330227
228	0x3deb29a0	0.11482549
229	0x3ea5c6bc	0.32378185
230	0x3f0f547a	0.55988276
231	0x3eeec7e1	0.4663687
232	0x3ee5e109	0.4489825
233	0x3f01082f	0.5040311
234	0x3ee0f85a	0.43939477
235	0x3e900368	0.281276
236	0x3edeac01	0.43490604
237	0x3eabd16d	0.33558217
238	0x3edd1014	0.4317633
239	0x3edcaee9	0.43102196
240	0x3f02d1e5	0.51101524
241	0x3ef36bb2	0.47543103
242	0x3f0cf3e1	0.5505963
243	0x3ed225de	0.41044515
244	0x3ead6b5d	0.33870974
245	0x3f198f9d	0.5998476
246	0x3ee2ccc2	0.44296843
247	0x3ef9f160	0.48816967
248	0x3f064431	0.524478
249	0x3f08ab0f	0.53386015
250	0x3effe713	0.49980983
251	0x3eed4401	0.46340945
252	0x3ed5a950	0.41730738
253	0x3f028e7e	0.50998676
254	0x3eb8fc37	0.36129925
255	0x3e07fa02	0.13278964

model.3.weight f4 [512, 256]
0	0xbb80691e	-0.003918781
1	0xbd0f9d8a	-0.03506235
2	0x3d4b570b	0.049643558
3	0x3cac6d69	0.021048265
4	0x3cb27315	0.021783391
5	0x3ce11bad	0.027479017
6	0xbcd6ee94	-0.02623681
7	0x3b8f8295	0.0043795803
8	0xbccad512	-0.024759803
9	0xbc7fd9fd	-0.015615937
10	0xbb979ff2	-0.0046272213
11	0x3c737908	0.014860399
12	0x3d2119f2	0.039331384
13	0xbd6ca0a4	-0.057770386
14	0xbda0073f	-0.07813882
15	0x3cf75fcb	0.030197045
16	0x3c69ceea	0.014270524
17	0xbd952e55	-0.07284228
18	0x3bbf3033	0.005834603
19	0xbd9e4119	-0.0772726
20	0xbd25074d	-0.040290166
21	0xbd3df057	-0.046371784
22	0xbc5450d7	-0.012958727
23	0x3d63571e	0.055503003
24	0xba1af3c5	-0.0005910958
25	0x3d7b4c97	0.06135234
26	0x3e9b36a7	0.30315134
27	0xbcd57e99	-0.026061343
28	0x3cfc2dd2	0.030783568
29	0x3c4955f5	0.01228856
30	0xbe11cbb2	-0.1423786
31	0xbc9598c2	-0.018261317
32	0x3e478660	0.19484854
33	0xbc12852f	-0.008942886
34	0x3d424e57	0.047437992
35	0x3c9ed2e1	0.019387664
36	0x3d113552	0.03545124
37	0x3b48aa1e	0.0030618976
38	0xbd0f8122	-0.03503526
39	0xbeb04bad	-0.34432736
40	0xbb5d5e24	-0.0033778036
41	0x3de82d3f	0.11336755
42	0xbd455ec3	-0.048186075
43	0x3ca11510	0.019663364
44	0x3d1574cb	0.036488336
45	0x39268dd7	0.00015883833
46	0xbd9822bf	-0.07428502
47	0x3a3e28af	0.0007253987
48	0xbe338735	-0.17532046
49	0x3c134ff8	0.008991234
50	0x3b706384	0.003668041
51	0x3c950971	0.018192979
52	0xbe87d0e3	-0.26526555
53	0xbd2fa922	-0.042885907
54	0x3df8f520	0.12156129
55	0x3d2b5139	0.041825507
56	0xbccc8bb1	-0.024968954
57	0x3d075f69	0.033049975
58	0xbd9dbfbd	-0.07702587
59	0x3cdfdf3a	0.027328122
60	0xbcac5cba	-0.02104031
61	0xbcc4f397	-0.024041934
62	0xbd9ae120	-0.075624704
63	0xbdaa05a8	-0.0830186
64	0x3d2542ae	0.040346794
65	0xbdf62696	-0.120190784
66	0xbd3f3d1f	-0.04668915
67	0x3c4d9fc0	0.012550294
68	0x3c8e12aa	0.017342884
69	0xbd73c375	-0.059512574
70	0x3ce567cb	0.028003594
71	0xbc909ec6	-0.017653834
72	0xbcca9814	-0.02473072
73	0xbbf82964	-0.0075732935
74	0xbd566d20	-0.052350163
75	0xbcd64e31	-0.026160331
76	0x3d2369d7	0.03989586
77	0xbdb46f18	-0.08810252
78	0xbc8a41ab	-0.016877016
79	0xbd9c6b86	-0.07637696
80	0x3da59bd2	0.08086361
81	0xbb9ffdb9	-0.004882541
82	0x3d1a80be	0.037720434
83	0xbcda86eb	-0.026675662
84	0xbcae135c	-0.021249466
85	0xbd794e0a	-0.06086544
86	0xbcfad78f	-0.030620364
87	0x3cf62d96	0.030051034
88	0xbceab353	-0.028649962
89	0xbc31276c	-0.010812622
90	0xbc19cd14	-0.009387273
91	0x3c3d6f2a	0.011562148
92	0xbd2752b9	-0.040850375
93	0x3a388a12	0.0007039617
94	0x3cc14752	0.023593578
95	0xbe43411e	-0.19067809
96	0xbd1c7686	-0.03819897
97	0x3c26ba39	0.010176235
98	0xbe38a8f0	-0.18033195
99	0x3d7d0c36	0.061779223
100	0xbd6df8bd	-0.058098543
101	0x3d3675b8	0.04454586
102	0x3d201c4c	0.039089486
103	0x3bef8644	0.007309707
104	0x3cb7ee5b	0.022452524
105	0xbc175862	-0.009237381
106	0x3cb08b1a	0.021550704
107	0x3be29332	0.0069145197
108	0xbcc7b1dc	-0.024376802
109	0xbd6a46b9	-0.057196353
110	0xbd28679a	-0.041114427
111	0x39b95139	0.00035346465
112	0xbca134cb	-0.019678494
113	0x3cbdd4c5	0.023172745
114	0xbd7130cb	-0.058884423
115	0x3d1fd40a	0.039020576
116	0xbbe1b177	-0.0068876105
117	0xbd04d45b	-0.03242908
118	0x3cf15a04	0.029461868
119	0xbdc25688	-0.09489161
120	0xbd7748a6	-0.060372017
121	0x3cac482f	0.021030514
122	0x3d874b47	0.06606155
123	0x3d930230	0.071781516
124	0x3c63f474	0.013913263
125	0xba546257	-0.0008101812
126	0xbd9aeb97	-0.075644664
127	0x3cbca7ae	0.023029175
128	0xbc6f8cf5	-0.014621009
129	0x3c250c71	0.010073767
130	0xbcbd2153	-0.02308718
131	0xbb071c98	-0.0020616408
132	0xbcdceef8	-0.026969418
133	0xbca68e49	-0.020331519
134	0xbc5d8286	-0.013519889
135	0xbd61f8f6	-0.05516907
136	0xbc854964	-0.016270347
137	0x3ba4b439	0.005026367
138	0xbc87a4f2	-0.016558144
139	0x3cb2a7b9	0.021808492
140	0x3c2d6c7d	0.010584948
141	0x3cab1e77	0.02088855
142	0xb6ea20e0	-6.9775706e-06
143	0x3b646887	0.0034852342
144	0x3cb26960	0.021778762
145	0xbb791675	-0.003800777
146	0xbd9103af	-0.07080781
147	0xbd05e3fd	-0.03268813
148	0x3d21ef02	0.039534576
149	0xbd7e2172	-0.062043615
150	0x3c41b53e	0.011822997
151	0x3cd02f2b	0.025413116
152	0x3c75cbaa	0.015002171
153	0xbc7df13c	-0.015499409
154	0x3cf9ccd3	0.030493176
155	0xbc2ee7fc	-0.010675427
156	0x3c5e9928	0.01358632
157	0xbcdfc692	-0.027316365
158	0xbca00cdb	-0.01953738
159	0xbb7014de	-0.0036633532
160	0xbe0fb1e0	-0.14032698
161	0xbdabdf78	-0.08392233
162	0x3d80d092	0.06289782
163	0x3a948cb8	0.0011333441
164	0xbdb18cfd	-0.086694695
165	0xbc2f0ce9	-0.01068423
166	0xbe501385	-0.20319946
167	0xbef54613	-0.47905025
168	0xbcb53d38	-0.022123918
169	0xbdf63d9c	-0.1202347
170	0x3d434be0	0.047679782
171	0xbcb5162c	-0.022105299
172	0xbd004a99	-0.031321142
173	0xbbc9ff0d	-0.0061644376
174	0x3cb6e7a9	0.022327261
175	0x3b42359f	0.0029634011
176	0x3cf5c235	0.029999832
177	0xb98b33c0	-0.00026550703
178	0x3d565f37	0.052336898
179	0xbc2af8b4	-0.010435272
180	0x3c48410c	0.01222254
181	0x3c2bd44b	0.010487626
182	0x3da1b8d9	0.07896585
183	0xbcfa0238	-0.030518636
184	0x3c982bf6	0.01857565
185	0xbcc83c6c	-0.024442874
186	0x3c1d3168	0.009594299
187	0x3d035f1e	0.032073133
188	0x3d90431e	0.070440516
189	0xbc8119bc	-0.015759341
190	0x3cadb184	0.02120281
191	0x3c9cffe6	0.01916499
192	0xbd80beb4	-0.06286374
193	0xbdf3148a	-0.11869152
194	0xbe935b75	-0.28780714
195	0xbd0b5cb8	-0.03402397
196	0xbd3c268b	-0.045935195
197	0xbe157fd4	-0.14599544
198	0xbc289204	-0.010288719
199	0x3ce7448c	0.028230928
200	0xbb1dc76f	-0.002407517
201	0x3ca217b8	0.0197867
202	0xbc7ef97e	-0.015562413
203	0xbde1fc3f	-0.1103444
204	0xbcffcb85	-0.031224975
205	0x3d4677ed	0.048454214
206	0x3c98cf37	0.018653495
207	0xbce01f13	-0.027358567
208	0xbb0404cd	-0.0020144463
209	0x3b37a714	0.002802317
210	0x3d20e82a	0.03928391
211	0xbd39b6e5	-0.045340437
212	0x3c36b437	0.011151365
213	0xbcf0a46b	-0.029375276
214	0x3d00b529	0.031422768
215	0xbadc4c03	-0.0016807321
216	0x3ca8a787	0.020587696
217	0xbc008f67	-0.00784669
218	0x3da09762	0.07841374
219	0xbd1c09d5	-0.038095314
220	0x3d2cf134	0.042222217
221	0x3c8052fd	0.015664572
222	0x3d8c0ecb	0.06838759
223	0x3ca6b34f	0.020349173
224	0xbe2c63d1	-0.16834952
225	0xbd4d8c60	-0.0501827
226	0x3c1075e5	0.008817171
227	0x3c79f6c8	0.015256591
228	0xbd63c49a	-0.055607416
229	0xbd5771cf	-0.05259877
230	0x3cdd7dd8	0.027037546
231	0x3d5506ac	0.052008316
232	0xbe175073	-0.14776783
233	0x3cc82362	0.024430934
234	0x3cbd3ad1	0.023099335
235	0x3bf85a73	0.0075791418
236	0x38807d6d	6.126878e-05
237	0xbb69cc37	-0.00356747
238	0x3d51e721	0.051245812
239	0xbd6fa684	-0.05850841
240	0xbc7071f1	-0.014675603
241	0xbdac682e	-0.08418308
242	0xbd02ce0e	-0.03193479
243	0xbf51691c	-0.8180101
244	0x3bca1660	0.006167218
245	0xbbd1e655	-0.0064056315
246	0x3c32ca48	0.010912485
247	0xbe042bbf	-0.12907313
248	0xbc87e118	-0.016586825
249	0x3d748583	0.05969764
250	0x3c91523a	0.017739404
251	0x3d4efdb7	0.05053493
252	0xbda0a339	-0.07843632
253	0x3e008dcf	0.12554096
254	0xbe84aa43	-0.2591115
255	0xbd1624a8	-0.036656052
