pythorch saved models/generator_cgan.pth (torch, 275250 bytes, 14 tensors)

model.0.weight f4 [128, 117]
00000000: 4c26 2dbd 8e40 7c3d f15e 1b3c 3fbe 80bd
00000010: b0c0 bf3a e68a 943d 0d39 573a f2b6 323c
00000020: d08a 483d b8d9 3bbc 512d 543d 95eb 37bc
00000030: 0868 013c 5e5b 21bd 1f06 47bd ef11 80bd
00000040: 43ce 4ebd 4fc0 56be 9889 a43b 112d e5bc
00000050: 4ece 103d 80b4 323c 7055 e03c 1b5b 4f3c
00000060: 4c53 f1bb ed85 58bd a09d fabc 3f76 603c
00000070: ed93 313d 1d76 613d 428c 8fbd 3a26 0b3d
00000080: a80b 553d 9160 433c ed5f 4bbd 3313 033d
00000090: 99b9 d4bc 955f 0dbd 4c4d 4bbd 857c a4bd
000000a0: 8a9e b03d a24f 5e3b 7998 593d 43b8 06bd
000000b0: e9c2 bf3c b6a7 2abd 85b6 573d ce06 083d
000000c0: 3429 6abd 5976 1c3e 9e3e cebd d5d4 403d
000000d0: 1280 84bd 6da2 88bd af1e 43bd f464 5b3c
000000e0: 432e 9a3c 7aa4 d13c f930 9eba c87d 3ebd
000000f0: a8f7 9b3d c910 1d3d 65ce 383d a255 2c3d
00000100: 3f49 79bd 2d37 9f3d ba7d cf3c ea80 29bd
00000110: aba8 2cbd 97ab 343d f826 f6bc 858d e63d
00000120: 3eb1 01bd b838 113d 5864 d73c fa4f c13d
00000130: 77b8 6cbc a2ef 08bd 5f1a a9bc 63b9 99bd
00000140: 2525 803c 0fc2 84bd 29fc 1e3d 12e8 63bd
00000150: 5366 9d3b 7531 833c b256 143c 4aeb 81bb
00000160: 6aec 9d3c d082 23bd 358c bbbd 31d2 e93c
00000170: b85b 67bd 36d6 7cbd ae05 503d 8a26 1e3d
00000180: 7cb7 343d 6e01 59bd 1aab 3d3d d0aa c23c
00000190: 7416 8bbe cf9c 503e 9d29 fcbd 7338 c03d
000001a0: fda1 2cbe 3236 1abe 4bfe 0dbf f7ee a23d
000001b0: 68c0 32be f6ba b23d 31ec 0e3e 8992 aa3d
000001c0: 4b79 4c3d 015e 793b 9892 423c 1590 5d3e
000001d0: 835b 4a3d e52f db3d 4e46 9cbd 4a76 933d
000001e0: cbd5 a93d 9a15 86bb 5a7e fcbc 6a67 aebd
000001f0: d72b 7d3d 74ed dcbd 227a 393d b4ea 0a3b
00000200: 1a7e df3c e316 f8bb c58e 1abd 27f9 88bb
00000210: f95c 583c d9c5 873d 4862 e93d e104 2abc
00000220: 1113 903c 8f17 36bc d6d3 bf3c 09d5 bfbc
00000230: ec3a 643c 2938 a13b b590 8c3a a7a4 96bd
00000240: 7cd7 003d de07 dabd 2692 a83d a159 c3bb
00000250: b9c7 03bd 1519 bebc 5978 0fbd aeaf 093e
00000260: b546 0a3d 0b32 cb3c ba50 bd3d 9222 883c
00000270: 6e7f 613d c0d1 81bd 8a96 2bbc a493 88bd
00000280: 7399 443d 5795 3d3c be0a f33c 0b2b 083d
00000290: 7669 663d 317c 933d 186e 4abd cbcd b43d
000002a0: 4a8b 5dbd 6ded 1d3d 6a4b 113e 91eb 3d3d
000002b0: a57d a33c d71a 12bd 57c4 173d 4802 6c3d
000002c0: 55a4 603d 3e94 93bc 4c9b 62bd c7f0 f63c
000002d0: 6aed 20bd a5a7 6f3d 0475 d1bd ab89 f33c
000002e0: 2182 243d 3bb6 a53c 95b2 afbd ece5 be3a
000002f0: 7506 c5bd 6605 853d 1334 19bc 83c8 8abd
00000300: bc31 4ebd 53d1 bdba 9998 043d 7100 24bb
00000310: efae 893c e786 fd3c acb3 b33d 12ac 84bc
00000320: 7da0 3fba 8cad 4c3d bfbe 413b 9e3c e5b9
00000330: abab 863d becf 40bd 9085 50bc 839c 48bd
00000340: c648 763c f55c ae3d 867a e4bc ddb0 1fbd
00000350: 171d 1e3d 0bb9 333b 69cb 173e ea80 d5bc
00000360: dec5 dfbd 26cf 4dbe ffa7 933d cffa dd3c
00000370: 7853 103e 3e0f 303e 1eeb a33c 326c f43e
00000380: eb42 00bd 8a88 213e 6dd0 38be fcf2 34be
00000390: 83df 1ebd 41fd f3bd 8707 38be e893 5abd
000003a0: 8077 b0be 792a 96bd 1f49 823d 1f5d da3d
000003b0: f540 9fbc e01a fcba e46c 5abb 1cbe f93c
000003c0: 2616 bf3c 926c fbbc 45a8 0f3d cd31 903a
000003d0: cab8 f0bb f33a 66bd abb0 a6bb 49d1 bc3b
000003e0: 7675 0c3c 6a2c 04bd de80 bbbd 2f2f 0ebd
000003f0: 1a48 6b3d 6076 1fbd 808b 80bc b243 b3bc
-0.04227285 0.061585 0.009483085 -0.062862866 0.0014629569 0.07253055 0.00082101003 0.010907875
0.048960507 -0.011465482 0.05180103 -0.011225601 0.007898338 -0.039393775 -0.048589822 -0.062534206
-0.050489675 -0.20971797 0.0050212853 -0.02797559 0.035352997 0.010907292 0.02738449 0.012655999
-0.007364666 -0.052862097 -0.03059274 0.013700067 0.043353964 0.055044282 -0.07009174 0.033972003
0.05201307 0.011924879 -0.04965203 0.03200073 -0.025967406 -0.034514982 -0.049634263 -0.08031563
0.08623989 0.0033921977 0.053123925 -0.03289057 0.02340837 -0.041663848 0.0526643 0.033209614
-0.0571682 0.15279521 -0.10070537 0.047077972 -0.0646974 -0.06671605 -0.047636684 0.013390768
0.018820887 0.025591124 -0.0012069038 -0.046506673 0.07615596 0.038346086 0.04511871 0.042073853
-0.06086087 0.07774196 0.025328506 -0.041382708 -0.04215304 0.044108953 -0.030047879 0.112574615
-0.031663172 0.03545448 0.026292965 0.094390824 -0.014448277 -0.033431657 -0.020642458 -0.07506063
0.015642712 -0.06482326 0.038814697 -0.05564124 0.0048034578 0.016014794 0.009053873 -0.003964816
0.01927777 -0.039919674 -0.09157602 0.02854261 -0.056483954 -0.061727725 0.050786667 0.038610972
0.044120297 -0.05297988 0.046305753 0.02376309 -0.27165568 0.20372318 -0.123126246 0.09385767
-0.16858669 -0.15059736 -0.55466145 0.07955735 -0.1745621 0.08727066 0.13957287 0.083287306
0.04992036 0.0038050415 0.011875771 0.21636994 0.04940368 0.107024945 -0.07630597 0.07200296
0.08292731 -0.0040919306 -0.030821968 -0.085158184 0.061809387 -0.10787478 0.04528249 0.0021197023
0.02728181 -0.0075710877 -0.037733812 -0.004180092 0.01320576 0.06629533 0.11395699 -0.01037714
0.017587217 -0.011114015 0.023416441 -0.023417013 0.013930064 0.004920025 0.0010724278 -0.07355624
0.031455502 -0.10646032 0.082310006 -0.0059616123 -0.032172892 -0.02320532 -0.03502688 0.13445923
0.033758838 0.024804136 0.09243913 0.016618047 0.055053167 -0.06338835 -0.010472903 -0.06668785
0.047997903 0.01157125 0.029668208 0.033244174 0.05625292 0.07201422 -0.0494214 0.088283144
-0.054087915 0.038556505 0.14188924 0.04636723 0.019957373 -0.035670128 0.03705248 0.057619363
0.05484422 -0.018015023 -0.055323884 0.030144108 -0.039288916 0.058509488 -0.10227397 0.029728731
0.040163163 0.020228496 -0.08578984 0.0014564372 -0.09620372 0.0649517 -0.009350794 -0.06776526
-0.0503404 -0.0014481939 0.03237209 -0.0025024677 0.016807048 0.030948116 0.08774504 -0.01619533
-0.00073099864 0.049970195 0.0029563156 -0.00043723447 0.06575712 -0.04707312 -0.012727156 -0.048977386
0.015031999 0.08513824 -0.027890455 -0.03898703 0.03860196 0.0027423527 0.14823689 -0.026062448
-0.10926412 -0.20098552 0.07209777 0.027097134 0.14094341 0.17193314 0.020009574 0.47738796
-0.031313818 0.15774742 -0.18048258 -0.17670816 -0.038787376 -0.11913539 -0.17971621 -0.05336371
-0.3446617 -0.0733232 0.06361603 0.10662293 -0.019440154 -0.0019234084 -0.0033329064 0.030486159
0.02332599 -0.030691419 0.035072584 0.001100117 -0.0073462473 -0.056208562 -0.0050869784 0.0057622534
0.008572927 -0.03226892 -0.09155439 -0.034712967 0.05744181 -0.03893125 -0.015691519 -0.021882866

model.0.bias f4 [128]
00000000: b030 b43d 946c 923d 4e8a 57bd 0203 18bd
00000010: 0e2c 21bd 50d3 963d 5644 dd3c 6227 2dbd
00000020: c1ae 52bd c440 bbbd 016e b2bd f8de a13d
00000030: d976 b3bd b891 9dbd ee86 a23d 1e9f 803d
00000040: 4a9a af3d 810f 8ebc 1ecf 8f3d dfd1 24bd
00000050: 1479 393d 74b3 92bd 11e9 89bd 1c1d 523d
00000060: 3054 8abd 4f21 a23d 9be4 663d d048 c6bd
00000070: 0c4e a73d 36d6 243d 7bc4 6c3d f226 eebc
00000080: 7655 1abd e373 1f3d a6ed 3cbd 4f26 60bd
00000090: 3cc9 14bd d1d7 38bd a266 433d 1e16 77bd
000000a0: 24cc 9bbd 82b3 22bd 9c23 373d 9b94 adbc
000000b0: 364a 14bd 175c fb3d ee02 453c 3398 90bd
000000c0: 5ac1 8d3a 00bb b6bc 7ea5 a33b 798a 4cba
000000d0: be9c 85bd d2d9 fabb 2362 223d 18d4 a83c
000000e0: dece 3dbd 490c 913d b6fb 643d be89 5e3d
000000f0: 2dd4 9ebd 31dc 233d 6b25 62bd 59e8 953b
00000100: a0c6 6b3d 9656 c63c bda6 a1bd 968c da3c
00000110: 01a4 903d e3ad 353d 5257 63bd a8e7 b7bd
00000120: bb67 04bd ae33 56bc 9ef6 b63d d91a 843d
00000130: a7ec 1fbc 558b fdbc 4af6 9cbd fd56 84bc
00000140: 836d 8dbd 92b3 e8bb c7cb 703d 7cf4 3c3d
00000150: 97a3 443d 4868 afbc 92b1 64bd a240 00bd
00000160: 483d babd 711d 303d 4f37 b9bd a5e1 bebb
00000170: 1488 843d f15f dbbc c181 093c ef71 233d
00000180: 6e25 6c3d d4e7 2f3d 10e0 223d bc3d aebd
00000190: b1d5 103c e16e 583b e969 753d 670d db3d
000001a0: ed2f 70bc c7f7 ce3c ac0d 04bd a840 7bbd
000001b0: cf69 a43c 7f6c 963c f990 e7bc a2f7 afb9
000001c0: d453 5f3d 46bb a7bc f468 bc3d a347 1ebc
000001d0: 5dd8 90bd b377 3b3d 5061 0d3c 44be 46bc
000001e0: 93f8 24bd eb6d 7fbd 5231 88bb 2558 b53d
000001f0: e361 b23d 7459 31bd 9b0b b6bd 78a5 fb3c
0.08798349 0.07149616 -0.052622132 -0.037112243 -0.039348654 0.073645234 0.027010124 -0.042273887
-0.05143619 -0.091432124 -0.08712388 0.07903856 -0.08762903 -0.07693809 0.07935892 0.06280349
0.0857435 -0.017341377 0.07021926 -0.04023921 0.045281485 -0.07163134 -0.06733907 0.051297292
-0.06754339 0.07916509 0.05637036 -0.09681857 0.08169183 0.04024335 0.057804566 -0.029071305
-0.03767916 0.038928878 -0.046125077 -0.054724034 -0.036324725 -0.045127694 0.0477053 -0.060323827
-0.07607296 -0.039721973 0.044711694 -0.021189025 -0.036203586 0.12273424 0.012024624 -0.0706028
0.001081507 -0.022305965 0.0049940934 -0.00078026165 -0.06524037 -0.0076553607 0.03964437 0.020608947
-0.046339862 0.07082421 0.055904113 0.05433058 -0.07755313 0.040004913 -0.055211466 0.004574817
0.05756247 0.02421121 -0.07893131 0.026678365 0.07062531 0.044355284 -0.055503197 -0.08979732
-0.032325488 -0.013073845 0.08933757 0.06450433 -0.009761012 -0.030950228 -0.076641634 -0.01615476
-0.06905653 -0.0071014846 0.058788087 0.046131596 0.048007574 -0.02141203 -0.055833407 -0.03131164
-0.0909372 0.042996828 -0.090437524 -0.005825239 0.06471267 -0.026779147 0.008392752 0.039903577
0.057652883 0.042945698 0.039764464 -0.08507869 0.0088400105 0.0033025073 0.059915457 0.10695916
-0.014659864 0.025264634 -0.0322396 -0.061340958 0.020069985 0.018362282 -0.02826737 -0.00033563102
0.054523304 -0.020475041 0.09199706 -0.009660634 -0.07072518 0.04576845 0.008629158 -0.012130324
-0.04027612 -0.062360685 -0.00415627 0.08854703 0.08710077 -0.0432982 -0.08888932 0.03071855

model.1.weight f4 [128]
00000000: 9b6b 8d3f 538e 3b3f 9f2a 6e3f 890b 8f3f
00000010: ca0a 2d3f 2fc1 333f 74f2 6b3f dd27 8c3f
00000020: 12d0 413f b00b 453f ee6a 683f 940d 813f
00000030: e4d8 5f3f 9c5f b43f 2623 203f 4a8c 7a3f
00000040: 7de8 7e3f 3b87 633f 2e12 253f 4f70 013f
00000050: 4de3 1e3f 423b 6d3f 5164 2f3f 4155 183f
00000060: 229d 673f c984 f33e 1dff 443f 8f12 823f
00000070: 4571 a63f 868a 1f3f 8539 763f 676e 7e3f
00000080: 46fc 2d3f a342 7d3f f008 4d3f be11 503f
00000090: f915 793f 58b3 7e3f e1e2 5e3f 5c09 743f
000000a0: e0a6 5d3f 8d8b 003f 204c 4f3f 399b 413f
000000b0: 62af 193f 0d50 a63f 6498 513f d170 633f
000000c0: 4f28 813f c1df 503f 80a7 b43f bad8 713f
000000d0: fe02 1c3f 9d22 483f 8c72 823f 0caa 553f
000000e0: c253 5b3f 0763 813f 0375 3e3f ab9a 5f3f
000000f0: 0c80 2c3f d19f 293f 7794 383f 2dea 123f
00000100: 2fcc 5e3f 8b2b 143f 0628 463f 3378 4a3f
00000110: d2fe 383f cb1d 8f3f 3ffb 843f 3769 9a3f
00000120: 5204 633f c55d 3b3f 906b 213f 94fc 363f
00000130: adc8 253f 4f51 6a3f 8bf6 423f 804e 5b3f
00000140: 55c5 173f 09f7 693f 53a6 093f dc64 7c3f
00000150: f232 483f 5309 4b3f 388d 513f 0303 863f
00000160: 5331 833f 1624 a53f faf2 2c3f aa7a 323f
00000170: fcc5 483f 1217 553f 85ae 9e3f 45c9 163f
00000180: 0e03 173f ee27 663f ce9a 3b3f 0849 563f
00000190: 2c33 ff3e 37e4 433f 6273 3d3f 5683 9b3f
000001a0: c119 5b3f 556f 3a3f 532d 803f 1c82 253f
000001b0: 7769 303f 2916 473f fab3 753f 197f 3b3f
000001c0: 8783 8e3f 8874 363f f951 673f 6c36 553f
000001d0: fddb 803f f401 3a3f b3cd 3f3f 7443 403f
000001e0: 7a0d 5c3f 7b06 de3e 4073 6c3f 8d85 753f
000001f0: 10b5 273f 10d4 4d3f 5d71 103f f4c8 2b3f
1.1048464 0.73264045 0.93033785 1.1175395 0.6759459 0.7021665 0.9216683 1.0949665
0.75708115 0.7697096 0.9078816 1.0082269 0.87440324 1.4091678 0.6255363 0.97870314
0.995735 0.8887822 0.64480865 0.50561994 0.62065583 0.92668545 0.68512446 0.5950509
0.9047414 0.47562245 0.7695177 1.0161914 1.3003317 0.62320745 0.9618152 0.9938721
0.67963064 0.98929805 0.8009176 0.8127707 0.9729915 0.99492407 0.8706494 0.9532678
0.86582756 0.5021294 0.8097553 0.75627476 0.6003324 1.299318 0.81873155 0.8884402
1.0090426 0.8159142 1.4113617 0.94471323 0.60942066 0.78177816 1.0191207 0.83462596
0.8567468 1.0108346 0.74397296 0.8734538 0.67382884 0.66259485 0.7210154 0.57388574
0.8703031 0.5787894 0.7740482 0.7908966 0.72263825 1.1180967 1.0389174 1.2063359
0.8867847 0.73189956 0.6305475 0.71479154 0.6475933 0.9153032 0.76157445 0.85666656
0.5928548 0.9139257 0.53769416 0.985914 0.78202736 0.793111 0.8185611 1.0469669
1.0249428 1.2901638 0.6755825 0.6971842 0.784271 0.8323833 1.2397009 0.5890086
0.58989036 0.8990468 0.7328309 0.83705187 0.4984373 0.76520103 0.74004185 1.2149456
0.8558617 0.7282613 1.0013832 0.64651656 0.68910927 0.7776819 0.9597775 0.7324081
1.1133889 0.7127156 0.90359455 0.83286166 1.0067135 0.7265923 0.7492325 0.75102925
0.85958064 0.4336432 0.9236336 0.9590691 0.65510654 0.80401707 0.5642298 0.67103505

model.1.bias f4 [128]
00000000: d7db a2bd 282b 13bf 8d3d 67bd 6b60 153f
00000010: c2d3 b7be f98c 1dbf aae4 21bf 8dcb b53d
00000020: 515b f3bc 9df4 4dbe 067c c4be e43c db3e
00000030: 1b7b 4ebf 3571 1abf c937 f2be 9572 92be
00000040: 3d12 cebe d16d 553e 63c3 043e 552c 04bf
00000050: d8cd 00bf 1fba cb3d 27ee c6be 8e61 cbbe
00000060: 5ad4 b2be b971 c6be e90a cdbe dca7 9dbd
00000070: cd75 eebe c17f 9dbe 9e21 34bf fcc3 913c
00000080: 6364 0ebf 5406 0bbf b8de 3bbe 144e 25bf
00000090: f0ed e23c 7d2f 123f 85bb 1ebe 6aa6 09bf
000000a0: 190e 06be b2cc b4be 0e64 cfbe a75b 4cbe
000000b0: 76ab babe b65b 0a3f 019c 41bd c65d 69bf
000000c0: 5d8d e9be 1254 3cbf ad27 1d3e a059 edbe
000000d0: 5c7f 6dbe 5f80 63bf 9ed0 dabe 4d0f 6bbf
000000e0: c333 4ebe 109e 0bbf d9e9 e6bc aff7 fabd
000000f0: 2702 d4be 5067 21bf e237 97be 585a d3be
00000100: 9145 793e 0602 36be 4815 3fbe 5dfe f53d
00000110: 4cbb 463e 9ccd 033f 5ac4 a73e 6d4c 2abf
00000120: c1be 4cbf cf33 a4be 66cf 3c3b e61d 2abe
00000130: a3c8 a8be a18b 1cbf 4a0e 02bf 560b 92be
00000140: 9337 0abf 0201 c5bb becf c5be 339a 1bbf
00000150: 1e68 2bbf 8550 e9be 615a 02bf decf 07bf
00000160: 2e15 b33e 641d 773e 1c71 d1be a169 46be
00000170: 01db 81be f5f0 29bf 12d9 393f 1b65 2abf
00000180: 6445 abbe 0867 333e 8b31 b2be 26b4 24bf
00000190: 15ae 4dbe 2d18 d4be 80ce 33bf 6895 f43e
000001a0: 8099 17bf 7c6c 66be c015 4a3e 0567 77be
000001b0: 0c8c bfbe 5532 a7be 888f 29bf 23d0 07be
000001c0: b209 32bf 84ee c2be 7fbb 07bf 5f4b 36bf
000001d0: 4a31 f6bd f0a5 4abf f9cd fdbe c7fe 45bf
000001e0: 614c 433d 4197 b6be 7d61 7ebe ac9d ba3e
000001f0: 29ff a3bd 6192 2fbf c94a a1be 4f0f 55bd
-0.079520874 -0.57487726 -0.056455184 0.5835025 -0.35903746 -0.6154323 -0.6323954 0.08876715
-0.029706629 -0.20112844 -0.38375872 0.42819893 -0.80656594 -0.6032899 -0.47308186 -0.28603044
-0.4024829 0.20842673 0.12965159 -0.51630145 -0.5031409 0.09947609 -0.3885357 -0.39722866
-0.34927636 -0.38758639 -0.40047386 -0.07698032 -0.4657425 -0.3076153 -0.70363796 0.017793648
-0.5562193 -0.5430653 -0.18346679 -0.6457226 0.027701348 0.5710371 -0.1550122 -0.5376955
-0.13091315 -0.3531242 -0.40506023 -0.19956838 -0.3645894 0.5404619 -0.047267918 -0.9115871
-0.45615664 -0.7356578 0.15347166 -0.4635744 -0.23193115 -0.88867754 -0.42737287 -0.9182022
-0.20136933 -0.5453806 -0.02818768 -0.12254273 -0.41407892 -0.6304827 -0.29534823 -0.41279864
0.24342944 -0.1777421 -0.18660462 0.120114066 0.19407386 0.5148561 0.32766992 -0.66522866
-0.7997857 -0.32070777 0.0028810143 -0.16612968 -0.32965574 -0.61150557 -0.50803053 -0.28524274
-0.5399105 -0.006012083 -0.38635057 -0.60782164 -0.66955745 -0.45569244 -0.5091916 -0.53051555
0.34977096 0.24132305 -0.40906608 -0.19376232 -0.253624 -0.66383296 0.7259685 -0.66560525
-0.33451378 0.17519772 -0.34803423 -0.64337385 -0.20085938 -0.41424695 -0.7023697 0.47770238
-0.592186 -0.22502321 0.1973486 -0.24160393 -0.37411535 -0.32655588 -0.66234636 -0.13262992
-0.69546044 -0.38072598 -0.5302047 -0.7120876 -0.1202112 -0.7915945 -0.49571207 -0.77341884
0.047680262 -0.35662273 -0.24841876 0.3644842 -0.08007652 -0.6858273 -0.3150237 -0.052016553

model.1.running_mean f4 [128]
00000000: 5e30 8c3d 7828 583d 38fa c0bd 933f 92bd
00000010: 8dfc 8bbd 41d5 9c3d 98e8 353d d146 86bd
00000020: b214 d6bd 9396 06be 2c7f a1bd ab03 793d
00000030: 515e e6bd 9182 a6bd 8b17 373d 5938 963c
00000040: 352c 983d 2315 42bd fe53 633d 6acc 09bd
00000050: 0606 363d 770b d5bd 3e30 8dbd e781 623d
00000060: 018e 48bd b1d9 bc3d dfa4 83bc d913 c4bd
00000070: 375d ba3d ad0e 423d 8d21 6f3d 04aa 6d3b
00000080: f49f e5bc ee5b 693d 4e60 8abd 846c a7bd
00000090: 2e62 38bd 4dda 47bd 7c10 7f3d eaa1 41bd
000000a0: ce7c e2bd a353 01bd 06ef e33c 997d 74bd
000000b0: d3ec 9bbd 0935 c73d cd3a a8bb 6a92 7ebd
000000c0: 64da 3fbd 4443 bcbc d968 0fbb 7803 11bc
000000d0: 48ab f6bd 1623 523a 4718 f23c 276a 3bbc
000000e0: 26c8 41bd 6c71 863d 37cc 0e3d eeff 0f3d
000000f0: 7afb e2bd 7fae f63c 0fad 86bd af17 b4bc
00000100: b90c 8e3d 7242 933b 7b78 9cbd 0730 22bb
00000110: 13f3 203d 3877 e53c 1e98 d1bd 6cc3 07be
00000120: 7b1d e0bc 5b3f aabc e676 ad3d 82e1 193d
00000130: be60 22bd 7e97 8cbd 172e bdbd 1c60 40bd
00000140: e9cb b2bd 4c9d 7fbd 2f41 443d 6767 013d
00000150: dfd6 1b3d a303 38bd 1f5a c4bd e36a 63bd
00000160: b452 0dbe 6c57 0d3d 4abd efbd 5b5d efbc
00000170: 8c26 423d 03f1 5ebd bd49 053d 8913 483d
00000180: 4a22 3e3d 6df4 2c3d bf90 103d e7c3 f4bd
00000190: b867 683b ea9c 8fbc 7473 543d 9fe4 943d
000001a0: 84b0 963c d041 ce3b daed 6fbd e627 8ebd
000001b0: 19c7 853c da7c fc3c fcb8 cbbc 7367 473c
000001c0: 85cc 053d 111f 52bd 10c0 983d b2f5 06bb
000001d0: 3d7c c2bd c283 113d 3994 30bc 0c6a bcbc
000001e0: fd7e 88bd 66f9 c0bd 446e dcba 42b7 973d
000001f0: 3423 903d 740f 00bd ec67 85bd 2147 e13c
0.06845163 0.05277297 -0.094227254 -0.07141032 -0.068352796 0.076578625 0.04441127 -0.06556476
-0.10453166 -0.13143377 -0.07885584 0.060794514 -0.11248458 -0.08130372 0.044700187 0.018337416
0.07430307 -0.04738344 0.055500023 -0.03364221 0.04443934 -0.10402577 -0.06893967 0.055299666
-0.04896355 0.09221209 -0.016069828 -0.09574098 0.090998106 0.047377277 0.058381606 0.0036264667
-0.028030373 0.056972437 -0.0675665 -0.081749946 -0.045015506 -0.048792172 0.06227158 -0.047273554
-0.11058961 -0.031573903 0.027823936 -0.05969009 -0.0761353 0.097269125 -0.0051339627 -0.06215135
-0.046839133 -0.022981293 -0.0021882562 -0.008850925 -0.12044388 0.00080160925 0.029552592 -0.011438883
-0.047310017 0.06564602 0.034862723 0.035156183 -0.110831216 0.030112503 -0.06575977 -0.02198395
0.069360204 0.004494005 -0.07640167 -0.0024747865 0.039294314 0.02801095 -0.10234092 -0.13258141
-0.027357807 -0.020782163 0.08469944 0.037568577 -0.03964304 -0.06864832 -0.092373066 -0.046966657
-0.08730299 -0.06240587 0.047913726 0.031592753 0.038046714 -0.044925343 -0.09587502 -0.055521857
-0.1380108 0.0345072 -0.11706026 -0.02921932 0.047400042 -0.054429065 0.032541025 0.048846755
0.04641942 0.04222529 0.03529429 -0.11951428 0.0035462212 -0.017530877 0.051867917 0.072701685
0.018394716 0.0062944666 -0.058576442 -0.06941204 0.016330289 0.030821253 -0.02486848 0.01217066
0.03266575 -0.05129916 0.07458508 -0.0020593223 -0.09496353 0.035526045 -0.010777527 -0.022999786
-0.06664846 -0.09422569 -0.001681753 0.074080005 0.070379645 -0.031264737 -0.06513962 0.027499737

model.1.running_var f4 [128]
00000000: 2b59 a33e 42a5 b53e ee8d 6b3e 2ec4 523e
00000010: e3a4 813e 4664 cd3e cf04 9f3e d731 683e
00000020: 44c8 673e 6a1a 4b3e 5c06 803e bae6 833e
00000030: ce88 933e 8576 c53e eb52 873e 6b6d 2b3e
00000040: 65dd 703e ec26 913e f5e9 273e 8e41 ac3e
00000050: 2bc1 a53e 36bb 453e cf09 913e a071 a33e
00000060: cb96 be3e fc2f af3e 8fff 873e e89e 9a3e
00000070: dc53 983e 2106 ac3e 880a 8c3e a985 b13e
00000080: 967a 883e 0298 9a3e ebc4 063e cc39 9d3e
00000090: 813e 963e 840d 883e 0c61 9e3e 7270 823e
000000a0: 0f5a 893e 9d28 ae3e df60 9e3e 1d9c 9f3e
000000b0: 58ef 693e 644f b33e 12ab 2d3e f106 9d3e
000000c0: d38e 983e 3585 c43e fb87 693e e515 983e
000000d0: 7ddb 4b3e c70b a33e 7f82 8f3e f57a 9d3e
000000e0: 73fb 4e3e 7d8e 933e c1ba 6b3e db90 823e
000000f0: c79e 993e 589b a43e 1e4a b93e 6de4 603e
00000100: aa03 f53d b68f 8b3e edc8 4d3e 046d 223e
00000110: a313 243e b291 643e fbe7 f63d 8cd6 853e
00000120: 93c7 8a3e b517 a73e c067 a93e e2d0 4b3e
00000130: ff02 a43e 4fb7 973e c239 8b3e 53d1 423e
00000140: 1166 973e 4237 573e c132 513e fbcd 973e
00000150: 0ea0 cc3e 07d5 963e f035 a13e a6a6 193e
00000160: ea33 e43d b9d7 c93e 9b1d 843e 3df4 193e
00000170: e9fd 7d3e 1140 973e f913 a33e fdc0 9b3e
00000180: 2cfa 1c3e be17 d13d d251 8b3e 6d7f 8f3e
00000190: f407 9d3e a03e 833e 5ba8 a63e c30f ef3d
000001a0: 22fd a13e 55db 483e 02df 793e f593 623e
000001b0: 3f98 b53e 0ba9 843e 8b4f 9a3e 231d a23e
000001c0: 0085 833e 4f4f bc3e 5c35 823e dfb7 b13e
000001d0: 5acc 3a3e b20e ae3e e0e8 c43e bda4 a03e
000001e0: 6036 a33e c299 b03e 33c2 2f3e 9646 9c3e
000001f0: a5cc 213e 434c a93e 3a85 a53e f36f 883e
0.31903967 0.35477644 0.2300336 0.20582649 0.2532111 0.40115565 0.31058356 0.22675262
0.22634989 0.19834295 0.25004852 0.25761968 0.2881531 0.38566986 0.2643045 0.16740958
0.23521955 0.28350008 0.16397841 0.33643764 0.32373938 0.19309697 0.28327796 0.31922626
0.3722442 0.34216297 0.26562163 0.3019936 0.2975148 0.33598426 0.27351785 0.34672287
0.26656026 0.30194098 0.13161056 0.30708158 0.29344562 0.26572812 0.30933416 0.25476414
0.26826522 0.3401536 0.30933282 0.31173792 0.22845209 0.35021508 0.1695979 0.30669358
0.29796466 0.3838288 0.22805779 0.29704204 0.19907947 0.31844923 0.28029248 0.3075787
0.20213108 0.28819647 0.2302046 0.2550114 0.3000395 0.32149768 0.3618936 0.21962138
0.119635895 0.2725808 0.20096178 0.15861899 0.16023116 0.22321203 0.120559655 0.2614025
0.27105388 0.32635275 0.33086967 0.19903901 0.32033536 0.2963204 0.27192503 0.19025163
0.29570058 0.21017173 0.20429517 0.29649338 0.39965862 0.29459402 0.31486464 0.15004978
0.11142714 0.39422396 0.25803837 0.15034576 0.2480389 0.29541066 0.31851175 0.30420676
0.15329808 0.102096066 0.2721086 0.28026906 0.3067013 0.25633717 0.3255032 0.11672928
0.31638438 0.19614919 0.24401477 0.22126754 0.35467717 0.2591022 0.3013881 0.31662855
0.25687408 0.36779258 0.25431335 0.34710595 0.18242016 0.33995587 0.3845892 0.31375685
0.31877422 0.34492308 0.17163925 0.30522603 0.15800722 0.33065996 0.32328206 0.2664791

model.3.weight f4 [256, 128]
00000000: 559f 3f3c de73 16be 761f ffbc 1fd6 89bd
00000010: 90a0 913c b614 93bd 0adf 48bd 374a 443c
00000020: e85f 853d 89f0 0c3b 5c1e 0abd d98c f4bb
00000030: f0de 883c 1cf6 68bd c4de b4bc 2e8d c9bc
00000040: 2585 8abd be70 11bc 2f6a 14bd 8ca6 f8bb
00000050: f3e4 25bd 7306 63bc bf1d e43c fa1c f2bb
00000060: 43bb 63bd 5f4a 09bd b916 febc 3d8a 30be
00000070: d222 553e a612 d53c 41c9 91bd cdbd 88bd
00000080: ccf8 3fbc e445 55ba d985 abbd 8741 583d
00000090: e549 a4ba 17a9 fdbc 50a9 a4bd 5e9f 063d
000000a0: b0b8 f73d 309d 443c bf21 e53d fb0d 10bd
000000b0: 49a0 4c3b 0413 f1bc d9b4 02bd 4f0e ec3d
000000c0: b40f 803d 36ed c1bd eccb fabb 596c 4fbd
000000d0: ca42 143d 4123 dbbd 0581 c03d 739a c0b7
000000e0: 77db 07bd 05a9 2a3e 56b9 99bd 707c a5bc
000000f0: 7d61 c33d ad54 623d fc2e 9d3c eba4 3bbc
00000100: 49ff 973d 1bb0 88bc 02f2 88bb f205 ac3a
00000110: c2fb 503d f7e7 623d f72b b0bd e924 a4be
00000120: 25da 8b3c 0045 583c 69e5 c2bc 6d27 2b3d
00000130: bb3f 553d e78e e4bd 9ec7 15bd e65d 46bd
00000140: e1ed 81bd 213e 013e cb6f 8f3c 391d 033e
00000150: 50c0 98bc 0d6c 90bd 5dd2 cabc 15d2 093d
00000160: 64c3 8a3b 66f7 573c 8876 683c 82e1 65bd
00000170: e662 16bb dae9 82bd 8da5 01bd 4c0c 7abd
00000180: dfa7 a43c 2a41 b03c 0970 3cbc 2b9b 083d
00000190: 028e 083d 9519 5f3d 16d4 e4bc a59c 843d
000001a0: b47b 81bc ff30 61bc e992 16ba 77d5 90bd
000001b0: 3f24 b63b dcc6 fabb 8959 6abd 6283 f73b
000001c0: 1145 4a3e b7e1 623c 672a a03d 351d e23c
000001d0: d708 18bd 95db 983d 3b09 173c 1e29 05bd
000001e0: 2677 36bd 7c9e d63c 5cd3 d1bd bc38 59bd
000001f0: 0ea5 c13c 08db 95bc 3140 38bc 6d62 1cbc
00000200: 9a93 33bd 9d9b 3f3d f23f 293d ebcf 1a3e
00000210: 4cdc 15bd 7765 c03d 6abf 40be d24e 043e
00000220: 55d0 a0bd b850 03bd 1146 1cbd ecb9 78bd
00000230: f942 5e3d ad51 9dbc b301 35bd a5b1 11bd
00000240: c33a c9bd 13b9 803d b79b e6bc e156 593d
00000250: 721d 01bc 71ed ccbd da79 c6bd 65ac 53bd
00000260: 40fb 27be 4f9e 3e3d 5100 adbb 8dce a2bd
00000270: 580c 02be a354 81bc 5f41 99bd 7322 0b3d
00000280: 7c4e 67bd e058 02bd 9a84 11bd 244d b33c
00000290: 7cef c63c 1221 a7bd 0b84 35be f08e 35be
000002a0: 2f6f 163c 9c2c b33c 9fd2 90bd bfa2 52bb
000002b0: 2a7c 60bd 61c5 0f3d 9cb0 403d f25f 4f3d
000002c0: 6232 4a3d aea3 b03a 9ba9 97bc e39e 4dbe
000002d0: 71be b1bd 21cd 0abd 91f8 9bbd f276 7e3d
000002e0: f1e9 f53c cd56 1bbd ccac 203e 47b0 f7bd
000002f0: 7b75 07be 82f0 47bc 597c 51bd b785 35bb
00000300: ccd3 e13d 6924 f5bc 55d1 ffbd e94e 7d3c
00000310: 8292 c03c 6954 e2bd cc35 dbbd f4da 34bd
00000320: b271 083d 2399 14be 2a31 a53d 3461 66bd
00000330: 5864 353c 7b6d e3bd f505 99bc d80c 60be
00000340: 7f11 143d c9ec 843d 7f9d 293d 85ae 34be
00000350: 0c4f 35bd 4d70 f4bd 0698 a23c d2b4 fabd
00000360: 3eba 17bc b340 b9bd 4e9f e8bc 0be5 9139
00000370: fa65 85bd fde1 88bd 20c4 a53d 4975 f23d
00000380: 2826 68ba 275d c2bd b4a9 e3bc 5b31 10bd
00000390: df03 4f3d 6c01 9f3c 6562 983c f749 e4bd
000003a0: 6461 03be c03d aabd 3786 4f3c 2a36 3d3c
000003b0: 3d73 d33b 6951 82bc b378 303d 0019 083d
000003c0: 517d d6bd 6619 bbbc 1a1f d8bd e12f 45be
000003d0: 1c2f e4bd 50be 0a3c c5be 95bd f439 3a3b
000003e0: a23d 1f3c 4454 cf3b 2c15 19be bbe5 98b5
000003f0: a160 123d 1cda 883c 4327 86bd af38 82bc
0.011695703 -0.14692637 -0.031142931 -0.067302935 0.017776757 -0.07181685 -0.04904083 0.011980585
0.06512433 0.0021505675 -0.03372036 -0.0074630794 0.016707867 -0.056875333 -0.02207888 -0.024603453
-0.067636766 -0.0088769775 -0.036234077 -0.0075882133 -0.040501546 -0.013856518 0.027846215 -0.007388708
-0.05559851 -0.03351819 -0.031016694 -0.17240234 0.20814064 0.026009869 -0.07118464 -0.066768266
-0.011717033 -0.00081357197 -0.08375139 0.052796867 -0.0012534229 -0.030964417 -0.08040106 0.03286683
0.12095773 0.012000367 0.11188077 -0.035169583 0.0031223467 -0.029428013 -0.03191075 0.11526167
0.06252995 -0.094690725 -0.007653704 -0.050640438 0.036196508 -0.107000835 0.093996085 -2.2960105e-05
-0.033168282 0.16666038 -0.07506053 -0.020200938 0.09540079 0.055256534 0.019187443 -0.011452894
0.07421739 -0.016685536 -0.00417924 0.001312433 0.051021345 0.055397 -0.08602136 -0.3205941
0.017071793 0.013200045 -0.023791032 0.041785646 0.05206273 -0.11160069 -0.036567323 -0.048429392
-0.063442 0.12621357 0.017509362 0.12804116 -0.01864639 -0.07051859 -0.024758512 0.033647615
0.004234718 0.013181543 0.014188416 -0.056123264 -0.0022947132 -0.0639226 -0.031652022 -0.061046883
0.020099578 0.021515448 -0.011501321 0.033351105 0.033338554 0.054467756 -0.027933162 0.0647519
-0.015806057 -0.013744592 -0.0005743937 -0.07071965 0.00555852 -0.0076531004 -0.057214294 0.007553504
0.19752909 0.01384776 0.078205876 0.027601818 -0.037117805 0.07463757 0.009218509 -0.032509916
-0.044547223 0.026198618 -0.10245392 -0.05303262 0.023638275 -0.018292919 -0.011245773 -0.009544951
-0.043841936 0.046779264 0.04132075 0.15118377 -0.036587045 0.09394353 -0.18823019 0.12920693
-0.07852236 -0.0320594 -0.038152758 -0.060724184 0.05426309 -0.019203985 -0.044191074 -0.035569806
-0.09825661 0.062853 -0.028150422 0.05306137 -0.0078805555 -0.10006226 -0.0969121 -0.05167808
-0.16404438 0.046537694 -0.0052795787 -0.07949553 -0.12700021 -0.015787428 -0.07483172 0.0339684
-0.056471333 -0.03182304 -0.03552685 0.02188737 0.024284117 -0.081606045 -0.17726152 -0.17730308
0.009181782 0.021871857 -0.07071423 -0.0032140461 -0.054805912 0.035100345 0.047043428 0.05062861
0.049364455 0.0013476515 -0.018513491 -0.20080142 -0.08678902 -0.033887032 -0.0761577 0.062125154
0.030018779 -0.037924577 0.15690917 -0.12094169 -0.13228409 -0.012203338 -0.051143978 -0.0027698108
0.11026725 -0.029924588 -0.12491099 0.015460708 0.02350736 -0.11051256 -0.1070362 -0.044154122
0.033311553 -0.14511542 0.08066018 -0.056245044 0.011071287 -0.11104866 -0.018679598 -0.218799
0.036149498 0.06490476 0.041409966 -0.17644699 -0.044264838 -0.11935482 0.019847881 -0.1224152
-0.009260712 -0.090455435 -0.028396275 0.00027827205 -0.06513591 -0.06683729 0.080940485 0.118387766
-0.00088557834 -0.09490424 -0.027790882 -0.03520332 0.0505408 0.019409858 0.018601606 -0.1114692
-0.1283012 -0.08312559 0.012666277 0.011548558 0.0064529465 -0.01590796 0.043083858 0.033226967
-0.10473121 -0.02283926 -0.10552807 -0.19256546 -0.11141798 0.008468226 -0.07311777 0.002841589
0.009719284 0.006327184 -0.14949483 -1.1391743e-06 0.035736684 0.016705565 -0.06550457 -0.01589617

model.3.bias f4 [256]
00000000: 21fc 79bc 456b 203d f17e 17bb def4 52bd
00000010: 9279 483d 71d3 713d 9443 163c 215c 7f3c
00000020: df08 a5bd 5365 cfbd df33 8fbb bbff 8abd
00000030: bf7e 9f3d 546e bcbc 3a63 283d f67f 04bc
00000040: c83e 88bd d0b1 94bd 4db1 7ebd c983 a43c
00000050: 99d0 b63d 0171 74bc d0c2 35bc 958e 6ebd
00000060: 1fab 86bd 2bab 30bb 17de c83c ac72 70bd
00000070: de4a 883c fbbe a5bb 84b5 3e3d 1bba cc3d
00000080: f82f a2bd 8835 2d3d 7d5f 58bc 511e e0bc
00000090: 34a4 fdbc 82ed 1bbd 1ac2 3d3d 101a 17bc
000000a0: bda1 d13c 7a99 9abb 0d5f 393d f8b7 b63d
000000b0: 564d b33d 5099 643d e52c 833d 08f3 80bd
000000c0: 63ae 72bd 21e7 9e3c abe9 003e 9a4e 3b3b
000000d0: a595 ac3d ca11 323d 511a 60bd 9478 05bd
000000e0: 5b88 7abd dcbd 903d 4d7a 3e3d 33c3 153d
000000f0: 5a4d 173d 918e 263d 6f3a a23d dbc5 6f3d
00000100: c7b7 abbc 32d3 833c 8e57 f6bb f224 f2bb
00000110: 1142 6d3d fa77 793d 0a2c 24bd 66b4 3ebd
00000120: 7bb9 623d 997e c6bc 5891 29bd dd86 f6bc
00000130: 1148 77bc 7630 ecbc a88b 83bd 5387 0f3d
00000140: 77bd 90bb 69c0 ae3c 60ec 2c3c 03bb 5abd
00000150: 8d9a c6bc 733f 52bc 8eb2 50bd 4fdc 75bd
00000160: 5c7d 533b 4398 923d 957e 963d 1231 d9bc
00000170: 37f1 023d d3fd 5d3d 973f 09bd e971 2a3b
00000180: 57ce 6d3d 8d66 cabc 418f a53d 98b8 04bd
00000190: 0708 a0bd 17ff d4bc 4514 153c 1975 153d
000001a0: 3a48 b03d c60c 27bd 0025 1b3d 9428 673d
000001b0: c7dd 833c fec4 41bc 9840 9e3c 34f7 c53c
000001c0: 53de 98bd dff9 2f3b 1f7b 0fbd cfc7 ae3d
000001d0: 3f11 b2bc f8ee 373b 2790 9a3d 4d70 843d
000001e0: 3732 c43a 2a06 e73a 0560 5fbd 29db 6abd
000001f0: 6402 953d d4d7 b7bb 2c68 9b3c ed9b 453b
00000200: 63bd 1cbd 6415 87bd 734a 6a3c 559b 903d
00000210: e8e6 69bd e386 473d 259c af3d 1fa8 4d3c
00000220: 5e6b 783d ff93 573c b5dc 44bd 4794 8dbd
00000230: dcb0 cc3d 613e c13c 76f0 533d 5ed1 bc3d
00000240: 18dc 8a3d e055 b23d 5b4d 44bd ffbd 25bd
00000250: 6c64 89bd 9751 69bc 563e 573d e818 1fbb
00000260: 11cb 70bd 3812 a53c 25e1 8b3d 601d 003d
00000270: 1598 9a3d d598 4a3d 7608 983b 3c9d 5ebd
00000280: eaa9 98bd 35f2 503d acd4 6bbc 6a52 843d
00000290: d24c 203d 2804 7c3c fcaf 9bbd a9c0 75bc
000002a0: 1911 b43d 26bb 26bc fb95 7c3d f4e0 76bd
000002b0: d6f5 7d3d 59f1 b43c 55e1 89bc d17a 65bd
000002c0: 4419 4bbd 54cb 853d 5659 a0bc 1183 73bd
000002d0: bb04 30bd 0244 d2bb c4ae 963c d67e ccbc
000002e0: d695 8abc 7654 7a3d 8ba6 033d 2065 4dbd
000002f0: 1acf 333d 977e 3bbd e40a 9bbc 62d3 2c3d
00000300: d615 5a3d 35f9 77bd 651d 933d 14f2 463a
00000310: e426 8cbd d143 753d df4f e1bb 0062 ad3d
00000320: a6f0 df3c 0ef5 86bc e7b1 9d3d ec4d a33d
00000330: dec7 97bd 9385 993d 8c79 9a3d 99b3 e53b
00000340: 0895 a73c d499 7abc 3b7c 533d 893f 9fbd
00000350: 09e9 96bd b2cf 44bd 4dcb 94bb a1b6 c43c
00000360: 9eb4 813d aabb 0f3d 65ad 4f3d fd72 2bbd
00000370: 64ba adbd 8936 523d 73d5 1abd 5d1a 4abd
00000380: 237e 4f3d 0851 763b a560 6d3d 5ef9 933d
00000390: 51ca 833d af75 a73d 0011 a73c 0d69 953c
000003a0: 5398 35bd bcb3 783d c325 efbc ae5a 5ebd
000003b0: 7b38 71bc 255b 8d3d 5cca 80bd 976c d63d
000003c0: a3ae 71bd 9675 2dbd be07 423c 2c68 70bd
000003d0: 7b2c c7bb 93a3 88bd 2c36 a2bd 6086 47bd
000003e0: 5981 0bba 0e91 b53d c049 b33d 2534 933d
000003f0: 383d af3d 89b3 89bd c98a 2d3c 2d8a c23c
-0.015257866 0.0391648 -0.0023116434 -0.051503055 0.048944063 0.059039537 0.009171385 0.01558593
-0.08058333 -0.10126748 -0.004370197 -0.06787058 0.07787847 -0.023001827 0.041110255 -0.008087149
-0.066525996 -0.072604775 -0.062180806 0.020082371 0.089265056 -0.01491952 -0.01109381 -0.058241446
-0.065756075 -0.0026957493 0.024519963 -0.05870311 0.016637262 -0.005058167 0.046559826 0.09996434
-0.079193056 0.04228738 -0.01320636 -0.027358206 -0.030962087 -0.038068302 0.046327688 -0.009222522
0.025589818 -0.004718003 0.045256663 0.08921808 0.08754985 0.055810273 0.06405047 -0.062963545
-0.05924834 0.01939732 0.12589137 0.0028580786 0.0842698 0.043473996 -0.054712597 -0.032585695
-0.061165195 0.07067463 0.046503354 0.03656311 0.036939003 0.040663306 0.079213016 0.0585383
-0.020961655 0.016091917 -0.0075177616 -0.007389658 0.057924334 0.060905434 -0.04008106 -0.04655876
0.05535267 -0.024230288 -0.041398376 -0.030093605 -0.015092866 -0.028831702 -0.06423122 0.035041165
-0.004417117 0.021331983 0.010554403 -0.053401005 -0.024243617 -0.01283251 -0.050951533 -0.060024556
0.0032270765 0.07157948 0.07348362 -0.026512656 0.03196832 0.054197144 -0.03350791 0.0026007837
0.05805811 -0.024707103 0.08083964 -0.032402605 -0.07814031 -0.026000543 0.009099071 0.036488626
0.08607526 -0.040783666 0.037877083 0.056435183 0.016096963 -0.011826752 0.01931791 0.024165727
-0.0746428 0.0026851816 -0.035029527 0.08534204 -0.02173674 0.002806602 0.07547026 0.06466732
0.0014968578 0.0017625738 -0.05453493 -0.057337914 0.072758466 -0.0056104455 0.018970571 0.0030152753
-0.03826655 -0.06595877 0.014299977 0.07060877 -0.057104975 0.048712622 0.08574704 0.01255229
0.06064927 0.013157844 -0.048062045 -0.06913047 0.09994671 0.023589315 0.051742993 0.09219621
0.06780261 0.087077856 -0.047925334 -0.040464398 -0.06708607 -0.014240644 0.052549683 -0.002427632
-0.05878741 0.020150289 0.06830052 0.031278014 0.075485386 0.04946216 0.0046396805 -0.05434917
-0.074542835 0.051012237 -0.014393967 0.06461032 0.03913576 0.01538185 -0.07601926 -0.014999547
0.087923236 -0.010176456 0.06166647 -0.060273126 0.062002026 0.02208774 -0.01683108 -0.05602533
-0.049584642 0.065329224 -0.019573849 -0.059451167 -0.04297326 -0.0064167986 0.018393882 -0.024962824
-0.01691715 0.061115704 0.03214125 -0.05014527 0.04389868 -0.045775022 -0.018926091 0.042193778
0.05324348 -0.060540397 0.07183341 0.0007589173 -0.06843355 0.059879128 -0.0068759765 0.08465958
0.02733643 -0.016474273 0.07699948 0.07973847 -0.074111685 0.074961804 0.075427145 0.007009935
0.020456806 -0.015295465 0.051632147 -0.0777579 -0.07368667 -0.048049636 -0.004540837 0.024012865
0.06333278 0.03509108 0.05070247 -0.04185771 -0.08482817 0.05132154 -0.037801217 -0.04934155
0.050657403 0.003758492 0.057953496 0.072252974 0.06435073 0.08176743 0.020393848 0.018238569
-0.04433472 0.060718283 -0.02919281 -0.054285698 -0.014722939 0.0690215 -0.06288597 0.104699306
-0.059004437 -0.042348467 0.011842666 -0.058693096 -0.0060783005 -0.06671824 -0.07920489 -0.048712134
-0.00053217035 0.088655576 0.08754301 0.0718768 0.085565984 -0.06723697 0.010592171 0.023747528

model.4.weight f4 [256]
00000000: b219 043f ff5c 3b3f d716 0a3f c18a 383f
00000010: e53f 213f 90d9 0b3f ba85 0b3f 2696 323f
00000020: 1ddf ee3e 4031 4b3f fafa 1c3f b915 483f
00000030: ef05 ea3e 77aa 1f3f be20 1f3f 9b4c 143f
00000040: 7cc2 223f 262c 373f 4c9a 723f c66d 273f
00000050: b8ba 413f 71ef 023f ff20 033f c2c0 073f
00000060: 81a9 173f 6ec5 343f 5f5a 063f 1933 183f
00000070: 4f4f 063f e7eb 343f 9571 1b3f 051e 253f
00000080: a406 113f 1880 303f 07cb 253f 5b34 3b3f
00000090: e2dd 353f cf67 003f 72bb 203f c08b 213f
000000a0: f20d 2d3f 2a39 143f a6bf 2d3f 2e38 ff3e
000000b0: 11b5 0f3f 5ebb 173f 599e 243f bbda 2a3f
000000c0: 6333 2c3f bbbe 4b3f fd6b 533f 156b 2e3f
000000d0: ea07 0d3f 779d 123f 8dd5 073f d15b 1a3f
000000e0: f39b 103f 63eb 0e3f 9f07 2f3f 7c8c 383f
000000f0: 3153 2f3f dbd6 113f 7413 253f b228 133f
00000100: 513c 0f3f c86b 123f f8c9 2a3f f378 233f
00000110: f473 153f ab27 253f c464 2e3f 1c55 023f
00000120: 0c63 013f f3ee 363f 99b1 2b3f ea26 153f
00000130: db4c 323f 2fcf 113f c514 273f f858 043f
00000140: 316b 143f 8420 2a3f 0029 203f 6862 2d3f
00000150: 21a6 4b3f 1c67 223f 4389 2d3f 1a50 393f
00000160: aad7 1d3f 5c35 1c3f 8813 133f 096f 223f
00000170: 8f91 283f f6b5 0a3f ce06 333f ff8e 313f
00000180: 8ee6 083f 6338 023f 7b9f 313f cbf4 113f
00000190: 6d31 183f 7d0c 0e3f 15db 063f 168c 023f
000001a0: 2e7d 0c3f 6513 0b3f b638 2d3f 9094 063f
000001b0: a10f 163f 748c 053f 0946 2b3f dec5 123f
000001c0: cdce 313f acb7 3d3f 0dd8 093f d6bb 243f
000001d0: 8073 233f 5f7a 073f 4288 0e3f fb7b 0a3f
000001e0: 512e 3e3f 14ed f03e 22e0 323f 2678 343f
000001f0: 3bb0 0e3f 4fc8 013f e294 393f 897f 3c3f
00000200: 0d1b f53e 18f0 183f a484 0a3f 6253 143f
00000210: 9489 213f b9b9 263f 8263 293f 612e 083f
00000220: 2782 253f 2598 0d3f 6759 193f 5342 163f
00000230: c46f 0f3f 3829 263f ea38 133f c7d9 203f
00000240: d778 083f cea1 2b3f 003b 193f 9442 1c3f
00000250: 6c52 0e3f e63e 313f 8d33 043f ef9b 243f
00000260: 17d3 4a3f 2478 383f 2e6c 173f c627 0e3f
00000270: a99f 173f 9414 1d3f 10b3 4e3f 6880 0b3f
00000280: 7133 2a3f 723b 273f 3c56 2c3f 482f 273f
00000290: 1076 153f 46ba 1b3f 8d46 0a3f 78fc 4a3f
000002a0: 7f9b 133f c34e 1d3f 1471 0a3f cac8 253f
000002b0: fce8 5a3f 7c37 293f 2473 213f 2280 203f
000002c0: 9a6e 533f 07f1 1c3f 3427 f93e 6af9 fb3e
000002d0: da72 093f 71f2 243f 230b 083f bcc2 183f
000002e0: 1a26 ff3e cc07 1a3f c0e4 193f 09a8 0b3f
000002f0: 3110 e63e dc43 113f 0f06 273f fd84 193f
00000300: 1f1a 0b3f 0f75 323f b607 253f 43ac 0d3f
00000310: 42c0 133f a6f9 183f 6541 363f 4446 3a3f
00000320: 83f5 0b3f 1532 043f a67a 053f 58c0 293f
00000330: 03e8 103f f07d 043f e332 173f 80d3 483f
00000340: 3746 653f 227b 263f ecd5 3e3f 7e54 513f
00000350: d368 243f 2ad4 153f aa26 183f d162 133f
00000360: 743c 1e3f 7643 2a3f b30b 193f edbe 083f
00000370: 86fd 613f 576a 153f 2c24 103f ee9e 0b3f
00000380: 8f08 0e3f 4195 353f bf83 053f 0b19 413f
00000390: 6dc4 243f a2fd 453f d786 fb3e 5e53 073f
000003a0: 1e4c 103f a184 0a3f 64d2 333f 1ea9 073f
000003b0: 03b4 2e3f 71ea 3a3f f4e3 1c3f 01ab 203f
000003c0: e5d9 283f cf66 153f a7c7 1e3f d8ba 233f
000003d0: 69e7 383f a11a 483f 54e2 303f fbe3 f13e
000003e0: aabb 233f 2410 193f 134c 1c3f 2dea 1c3f
000003f0: c399 1a3f 45ae 3e3f 6832 1a3f aa48 1c3f
0.5160171 0.73188776 0.539411 0.7208672 0.6298812 0.5462885 0.54500926 0.6976036
0.46654597 0.79372025 0.6132046 0.78158146 0.45707652 0.62369484 0.62159336 0.5792939
0.6357801 0.7155174 0.9476669 0.65401876 0.75675535 0.5114661 0.51222223 0.530285
0.5924302 0.70613754 0.52481645 0.5945297 0.52464765 0.7067246 0.6072019 0.6449893
0.5665076 0.68945456 0.6476292 0.73126763 0.7104169 0.501584 0.6278602 0.63103867
0.67599404 0.57899725 0.6787056 0.4984755 0.5613566 0.59270275 0.6430412 0.66740006
0.6726591 0.79587907 0.8258665 0.68132144 0.550902 0.5727152 0.5306023 0.6029635
0.5648796 0.5582792 0.68371004 0.7208936 0.68486315 0.5696847 0.6448281 0.5748397
0.5595141 0.5719571 0.6671443 0.6385643 0.58380055 0.64513654 0.68122506 0.50911117
0.5054176 0.7145836 0.6706787 0.58262503 0.6964852 0.5695676 0.65266067 0.51698256
0.5797606 0.66455865 0.6256256 0.6772828 0.7955037 0.6343858 0.6778757 0.7238785
0.616572 0.6101892 0.5745168 0.63450676 0.65847105 0.541839 0.6993226 0.6935882
0.534768 0.5086729 0.6938397 0.5701415 0.5945042 0.55487806 0.5267804 0.50995004
0.5487851 0.5432647 0.6766466 0.5257044 0.586176 0.5216744 0.6690374 0.5733317
0.6945618 0.74108386 0.5384529 0.64349115 0.63848114 0.529211 0.5567666 0.5409543
0.74289423 0.47055876 0.6987325 0.7049583 0.55737656 0.5069627 0.724928 0.73632103
0.478722 0.59741354 0.54108644 0.5793973 0.6310055 0.6512714 0.6616746 0.5319577
0.6465172 0.5531028 0.5990204 0.5869495 0.56029916 0.64906645 0.5750872 0.628323
0.53309387 0.6704377 0.5985565 0.6103909 0.55594516 0.692366 0.5164116 0.64300436
0.7922835 0.7205832 0.59149444 0.5552944 0.59228 0.61359525 0.8074198 0.5449281
0.66484743 0.6532508 0.67319083 0.6530652 0.58383274 0.60831106 0.540139 0.79291487
0.57659143 0.61448306 0.54078794 0.64759505 0.85511756 0.6610029 0.63066316 0.62695515
0.8259064 0.6130528 0.48662722 0.49213725 0.53690875 0.64432436 0.53141993 0.5967214
0.49833757 0.6016815 0.6011467 0.54553276 0.44934228 0.5674417 0.6524362 0.5996855
0.5433673 0.6970987 0.6446489 0.55340976 0.5771524 0.59755933 0.71193534 0.72763467
0.54671496 0.5163892 0.5214027 0.6630912 0.5660402 0.51754665 0.5906202 0.78447723
0.89560264 0.65031636 0.7454517 0.8176955 0.6422245 0.5852686 0.59433997 0.57572657
0.61810994 0.6650919 0.59783477 0.5341633 0.8827747 0.58365387 0.56305194 0.5453938
0.5548181 0.7093087 0.52154154 0.7542884 0.6436222 0.7734014 0.49126312 0.52861583
0.56366146 0.54108626 0.70242906 0.5299243 0.68243426 0.7301398 0.6128533 0.6276093
0.6595748 0.5836 0.62023395 0.63956976 0.72228104 0.7816563 0.6909535 0.47244248
0.6395823 0.59790254 0.6105358 0.61294824 0.6039087 0.74484664 0.60233164 0.61048377

model.4.bias f4 [256]
00000000: ba26 33bf 12d7 0abe 8cd0 4ebf 82af a7be
00000010: 1402 e5be 3a98 6abf b92e 43bf 3450 70be
00000020: e35b 31bf ca43 0fbf bdfa fabe fa1b 9bbe
00000030: a42d 18bf 2082 7cbe cea8 21bf 7407 05bf
00000040: c041 0dbf ca89 0dbf 392f a0be 661d ccbe
00000050: 3953 12be 93ea 20bf 8b87 0dbf 9433 13bf
00000060: 87f4 3abf 65a7 1abf c789 17bf cafb 6abf
00000070: f0a0 0cbf cdb4 d9be 9219 6abf e121 38be
00000080: fc09 d6be 3fc1 4abe f8d2 c3be f4dc 00bf
00000090: 3e1e 1cbf 757d 3ebf d26d 20bf 10fd 38bf
000000a0: 0c96 c7be b48a 0dbf 2220 72be 75ff f2be
000000b0: 847d 2cbf a208 69bf 8a97 05bf a312 9dbe
000000c0: d25e e5be 15d2 e0be 5fe2 dfbe 42b6 69bf
000000d0: 836f 19bf 0869 0bbf 6da1 24bf f1a3 f7be
000000e0: 4dac 49bf 0aaf 03bf a50f 45be c32b 64be
000000f0: c827 41bf 4b55 12bf b821 06bf 5f27 04bf
00000100: f8b8 07bf 2597 01bf d6ef 36bf bb2b 1cbf
00000110: 04d8 03bf 4b0f 35bf 6bb1 05bf db53 2bbf
00000120: b09d 14bf 65bf 1dbf b1cf 88be 07dd 02bf
00000130: 49d6 fdbe f16c 2fbf 5bfe 37bf fed7 16bf
00000140: 56b6 12bf c60c 96be 71e6 b6be 1298 c8be
00000150: dd65 5bbd 598a a9be a72d c6be 7922 c0be
00000160: 2a3b 01bf 8034 5ebf 86ca 1abf 9122 3bbf
00000170: 5706 f1be 6bbc 06bf 0f51 14bf 39b1 9ebe
00000180: 39c5 2cbf f910 1ebf 0b61 5cbe 8e54 15bf
00000190: 0dca 24bf 79f6 ecbe 4d4b 34bf a014 0cbf
000001a0: f06f 08bf 96f0 13bf ae9c b5be 40d2 03bf
000001b0: 9c6a 41bf 6e46 03bf 289d 22bf 1416 edbe
000001c0: 3c55 03bf 94d2 6bbf b374 d4be 0029 abbe
000001d0: f5c7 ebbe d0d7 41bf 4f3b edbe 7b83 16bf
000001e0: 049a 55bf 7acc 3ebf 02bb f6be 4f59 12bf
000001f0: c9fa 15bf 2fae 08bf 03b9 83be ed03 10bf
00000200: da90 38bf ddf2 0abf 8046 0dbf c8ef ebbe
00000210: 869f edbe 5c4e 12bf 3cb2 4fbf ec15 0cbf
00000220: dd3b 33be be04 2bbf 8d37 02bf dc73 14bf
00000230: fb86 d2be 6d4e debe 5ed9 06bf 2893 c3be
00000240: 2619 16bf c3d2 0abf 7ff2 21bf e787 efbe
00000250: 4524 e1be 07cc 17be 8645 0cbf 8f67 e5be
00000260: f020 70be 7edb 14bf abf5 e7be 2d9e 32bf
00000270: a29c 06bf a2ff 9fbe a9a5 13bf e07a 09bf
00000280: b582 1abf 392a 6cbf 9213 f0be 0388 e3be
00000290: 1ed1 f2be 583e 09bf 950c 20bf 2c5c 8ebe
000002a0: 1ad5 d4be d3e9 f8be 22df 21bf 7e39 b2be
000002b0: 5d03 1bbf a49d 28bf 4cf4 08bf d844 dabe
000002c0: f7be 11be b123 0cbf fc45 1cbf 789b 01bf
000002d0: 60a2 febe e691 21bf fe0b 1abf 6066 46bf
000002e0: ff69 4ebf 024c 6fbf 5f7b 2ebf 05e9 09bf
000002f0: ce15 1fbf 2e8d 53bf d224 7ebe 98b7 a1be
00000300: 03a8 dfbe fc1e 38be 77f9 04bf 71ad 5dbf
00000310: f44e 0dbf ca38 19bf ae8d f5be 5856 7abf
00000320: 4f72 0cbf 8d9f 0ebf 95aa f5be b76a 13bf
00000330: 78ea 0fbf 11ba 1abf c958 11bf 7398 2abf
00000340: bf4b 82be cf6e 46bf da96 26bf 035f 7cbf
00000350: 67e0 e6be 7a41 1fbf b5cd f4be 86cb f2be
00000360: 54b0 42bf 6e9d 23bf b860 6ebf e845 febe
00000370: 62ff 88be 07e6 15bf c64b f8be 41ee 20bf
00000380: cd2f 1fbf e881 28bf 216b 01bf 475d 16bf
00000390: 1c3a 0bbf 8c6f 92be cbe0 3dbf 8b6c 19bf
000003a0: 4a54 03bf 48ee 0cbf 4a2f 30bf 676c e6be
000003b0: d954 f4be 4707 0dbf 155c d9be 3a3d fbbe
000003c0: 5dcd 1bbf 62f5 06bf 0f8a e4be 0a1d adbe
000003d0: d560 09be fa2b 9dbd 7e17 f9be f5e2 0abf
000003e0: 7441 64bf 0520 35bf 306b 0bbf 8aeb a9be
000003f0: ed26 20bf 3714 9dbe 3035 0ebf ae5f 19bf
-0.6998097 -0.13558605 -0.8078697 -0.3275109 -0.44728148 -0.9163853 -0.7624317 -0.23468095
-0.69280833 -0.5596281 -0.49019423 -0.30294782 -0.5944464 -0.24659014 -0.631482 -0.519645
-0.5517845 -0.55288374 -0.31286028 -0.3986618 -0.1428956 -0.6285793 -0.5528495 -0.57500577
-0.7302937 -0.60411674 -0.59194607 -0.9179045 -0.5493307 -0.42520753 -0.9144527 -0.17981674
-0.41804492 -0.1980028 -0.38246894 -0.5033715 -0.60983646 -0.7441018 -0.6266757 -0.7226114
-0.38981664 -0.5528977 -0.2364507 -0.47460523 -0.6737902 -0.910288 -0.52184355 -0.3067828
-0.44798905 -0.4391028 -0.43727395 -0.9129373 -0.5993578 -0.5445714 -0.64308816 -0.48367265
-0.78778535 -0.51438963 -0.19244249 -0.22282319 -0.75451326 -0.57161397 -0.523952 -0.51622576
-0.53016615 -0.50621253 -0.7145971 -0.6100423 -0.5150149 -0.7072646 -0.52223843 -0.6692483
-0.5805311 -0.6162017 -0.26720956 -0.5111851 -0.4957755 -0.68525606 -0.7187249 -0.5892333
-0.5730947 -0.2930662 -0.35722688 -0.3917852 -0.05356394 -0.33113363 -0.38706705 -0.375263
-0.504809 -0.8679886 -0.60465276 -0.7309962 -0.4707515 -0.52631253 -0.57936186 -0.30994585
-0.6748844 -0.6174465 -0.21521394 -0.58332145 -0.64370805 -0.46281794 -0.704274 -0.5471897
-0.53295803 -0.5778898 -0.354711 -0.5149269 -0.755533 -0.5127934 -0.6352105 -0.46305907
-0.5130193 -0.9211819 -0.41495284 -0.33429718 -0.46050993 -0.7571993 -0.4633431 -0.58794373
-0.83438134 -0.74530756 -0.4818955 -0.57167524 -0.5858579 -0.53390783 -0.2572709 -0.5625599
-0.72096026 -0.5427683 -0.551857 -0.46081376 -0.4641077 -0.57150817 -0.8113134 -0.5472095
-0.17503305 -0.6680411 -0.50866014 -0.5798929 -0.41118607 -0.4341921 -0.52675426 -0.3819821
-0.58632123 -0.54227847 -0.63260645 -0.46783373 -0.43972984 -0.14823924 -0.54793584 -0.4480557
-0.23450065 -0.5814742 -0.45304617 -0.6977261 -0.5258275 -0.3124972 -0.5767465 -0.5370312
-0.60355693 -0.92251927 -0.4688993 -0.44439706 -0.4742517 -0.53610754 -0.625192 -0.27804697
-0.41568834 -0.48615894 -0.632311 -0.34809488 -0.60552007 -0.6586554 -0.5349777 -0.4263065
-0.14233004 -0.5474196 -0.6104429 -0.5062785 -0.49733257 -0.6311325 -0.6017455 -0.7749996
-0.8063049 -0.93475354 -0.68157 -0.53871185 -0.62142646 -0.826373 -0.24818733 -0.31585383
-0.4368287 -0.1798057 -0.51943153 -0.86592776 -0.551986 -0.5985228 -0.47959656 -0.97788
-0.5486192 -0.55712205 -0.47981706 -0.5758471 -0.56217146 -0.60440165 -0.567761 -0.6663887
-0.25448415 -0.7751283 -0.6507393 -0.98582476 -0.4509308 -0.62209284 -0.47813192 -0.474209
-0.76050305 -0.63912094 -0.9311633 -0.4966271 -0.26757342 -0.5855412 -0.4849531 -0.62863547
-0.62182313 -0.6582322 -0.5055409 -0.5873608 -0.5438554 -0.2860073 -0.7417113 -0.5993125
-0.5130049 -0.5505109 -0.6882216 -0.4500458 -0.47720984 -0.5508923 -0.42453066 -0.4907015
-0.60860234 -0.52718174 -0.4463658 -0.33811218 -0.13415845 -0.076744035 -0.48650736 -0.5425256
-0.89162374 -0.7075198 -0.5446043 -0.33187515 -0.62559396 -0.30679485 -0.5554991 -0.5991162
