pythorch saved models/LSTM_model.pt (torch, 947177 bytes, 10 tensors)

lstm.weight_ih_l0 f4 [512, 69]
000000 58 3f 58 be 55 29 65 bc af 2f 14 bc 23 1e bf bd
       -0.21117914 -0.013986905 -0.009044572 -0.0933192
000010 cd b4 29 be c9 6d e9 bb 42 b4 d6 3d 90 81 c5 bd
       -0.16572876 -0.007123683 0.104836 -0.09643853
000020 5a 22 47 3d ff 04 82 3e 3a 04 07 3e 90 b5 2a bc
       0.048616745 0.25394437 0.13185206 -0.010419264
000030 5d d4 1c bd 63 f2 56 3c c3 e8 c5 3c dc c8 a7 3e
       -0.038288463 0.013119313 0.024158841 0.3277043
000040 e8 69 b6 3d 76 37 cd 3d 0c f7 74 3d a5 25 d3 3b
       0.08906919 0.10020344 0.059805915 0.0064436966
000050 ef 25 1e bd ae b7 8f 3d bc 2f 16 3e 17 f5 26 3d
       -0.038610395 0.07017456 0.14666647 0.04076108
000060 0d 6e 89 bc 02 f0 40 be 8f 44 9b bd 7a 65 d7 bd
       -0.01677611 -0.18841556 -0.07581436 -0.10517402
000070 95 37 39 be 80 dc cb bc 3c a5 20 be a7 b4 c2 bd
       -0.18087609 -0.024885416 -0.15688032 -0.09507113
000080 00 02 f5 bc 2c 74 8b 3e 24 38 d6 3c 27 aa fd bd
       -0.02990818 0.2723707 0.026149817 -0.123859696
000090 cf 5e 5d 3c 48 2b 32 bd b4 18 f5 3c 6c 52 84 3e
       0.013511374 -0.043498307 0.029919006 0.25844133
0000a0 c8 e9 0c 3d cc 08 d4 bd ab dd 95 be e2 b6 c5 3d
       0.03440264 -0.1035324 -0.29270682 0.09654023
0000b0 29 3e 3b be bd 8e 1a be 9d c0 81 be c6 e0 f7 3d
       -0.18285431 -0.15093513 -0.25342265 0.12103419
0000c0 18 f8 68 3d 13 b0 bc 3c 91 04 b9 bd e3 f7 69 bd
       0.056877226 0.023033177 -0.09034074 -0.05712117
0000d0 1a 3d 09 bb fc 7d f9 bc ef d1 d6 bd 7a 2e b8 37
       -0.002094096 -0.030455582 -0.104892604 2.1956152e-05
0000e0 3e 47 67 bd 6c 94 c1 be c0 80 c3 3e f9 cb 2f bf
       -0.056464426 -0.3780855 0.38184166 -0.6867061
0000f0 4b be 41 bb 61 dc b0 3e ab 2c 2f 3d 73 a1 0c bc
       -0.0029562886 0.34543136 0.042767208 -0.008583414
000100 e1 f2 f0 bd f8 49 8f bd a9 ea 06 be 92 c6 13 be
       -0.117650755 -0.0699653 -0.13175453 -0.14431217
000110 eb be 63 3f 39 40 70 bb e7 99 fc 3d 36 30 4c be
       0.8896319 -0.0036659373 0.12334042 -0.19940266
000120 58 72 25 bd 29 18 bb be 48 c2 f6 bc 9b 18 bd bd
       -0.04039225 -0.3654187 -0.030121937 -0.09233209
000130 d6 e4 5d 3c e9 e7 d0 be 6a 95 08 3e ae f4 db bd
       0.013543328 -0.40801933 0.13338247 -0.10740028
000140 53 73 4b bd f4 86 c3 3c 07 7d b8 3d a7 02 1d 3e
       -0.04967053 0.023868062 0.09008222 0.15333043
000150 19 ca 8d be 8a c4 e4 be 4d 5b 01 3c 33 16 9b 3d
       -0.2769325 -0.44681197 0.007895303 0.075725935
000160 20 26 f5 be 9f 48 90 3d e5 93 0a bf 09 81 b0 3d
       -0.4788065 0.070451014 -0.5413192 0.086183615
000170 cc 7a 93 3d 55 b5 2b bf e3 0f 8b 3c e3 fb 7b bc
       0.07201156 -0.67073566 0.016975349 -0.015379879
000180 27 17 31 3e 0f 3b 50 bd 25 e5 81 bf bb 54 fb bb
       0.17293988 -0.050837573 -1.0148054 -0.007670013
000190 41 bf ba bd c1 9e 0c be 5f ba 78 be 05 14 15 3d
       -0.0911851 -0.13732435 -0.24289845 0.036396045
0001a0 fa 07 83 3d 04 13 67 be ee 58 e2 bc 2b b9 b8 bd
       0.06398006 -0.22565848 -0.027630296 -0.09019693
0001b0 ca 36 92 bd e7 7f 3d be 96 63 9b bd 1e 73 28 bf
       -0.071393564 -0.18505822 -0.07587354 -0.65800655
0001c0 81 8c d1 3e 66 b6 fa be 68 52 07 3f 8e 4b 3d bf
       0.40927508 -0.48967284 0.52860117 -0.7394341
0001d0 df a7 22 be 0c a5 c8 bd 64 6e e5 be 45 0a dc bc
       -0.1588435 -0.09797105 -0.44810784 -0.026860366
0001e0 6c f4 29 be e3 61 6b be 8f 83 cc be 02 aa 21 be
       -0.16597146 -0.2298656 -0.3994412 -0.15787509
0001f0 f6 4b 64 bd 5c 18 80 be a8 ce 7d 3e 67 7c 69 be
       -0.055736504 -0.25018585 0.24785864 -0.22801362
000200 09 de 07 3e 9f 78 8c 3c 5c 8a f8 3d 68 65 77 bc
       0.13268293 0.01714736 0.12135765 -0.015099861
000210 68 18 0d bd 93 fd f2 3d ee ff 91 3c a3 90 63 bc
       -0.034447104 0.11864772 0.017822232 -0.013889465
000220 5c a3 59 3e df 27 b1 3f b9 18 1b be d6 e9 01 3e
       0.21253723 1.3840293 -0.1514615 0.12686858
000230 db d6 34 bd 0d 74 44 bd 13 b9 84 bd d8 46 af 3d
       -0.044150215 -0.047962237 -0.064806126 0.08558434
000240 2b 13 bc bd 9d c4 97 3c b9 7b a6 3d e8 06 e2 bb
       -0.091833435 0.01852637 0.08129067 -0.006897796
000250 f1 ac 00 bd 8f a9 78 be 9e e5 2a 3d fc 28 a9 bc
       -0.03141493 -0.24283431 0.041722886 -0.020649426
000260 13 80 09 be 3b 76 72 bd 0b 64 e3 be 75 f6 77 be
       -0.13427763 -0.059194785 -0.44412264 -0.2421511
000270 58 bd fe 3d 87 80 67 be 6a 65 e9 3c 32 91 f8 be
       0.12438458 -0.22607623 0.02849074 -0.48548275
000280 44 be 68 be f5 be b5 3c 74 b5 87 be 2c db 1c bd
       -0.2272883 0.022185782 -0.26505625 -0.038294956
000290 bf 40 b7 be 63 67 04 be 8a 10 ba bc 66 06 a6 be
       -0.35791585 -0.12930064 -0.022712965 -0.32426757
0002a0 6c 5a 01 bd 40 24 b0 3c 94 a3 b7 3d b4 0c 35 bd
       -0.031580374 0.02150166 0.08966747 -0.044201568
0002b0 45 fc 98 3d 1b 63 96 3d b5 a8 ab bc 61 89 99 3d
       0.074699916 0.073431216 -0.02095447 0.07496906
0002c0 6a c5 a5 3d 5e b1 b8 bd c4 71 12 bc 28 4a 98 bd
       0.08094294 -0.09018205 -0.008938257 -0.07436019
0002d0 c1 1a 2a bf 93 6a aa 3e 48 8f 4d be 23 c6 7f 3e
       -0.66447073 0.33284435 -0.20074189 0.24977927
0002e0 63 c6 46 bf 81 ba 99 3d 1e 58 21 3d b2 a6 08 3e
       -0.77646464 0.07506276 0.039390676 0.13344839
0002f0 f8 d6 ad 3d 80 90 90 bd 4b bb b7 bd b6 44 00 be
       0.08488268 -0.07058811 -0.0897127 -0.12526211
000300 ad 24 bf 3a 51 0c 32 3e 6f b6 80 be e1 5c 57 3e
       0.0014583074 0.17387511 -0.25139186 0.21031524
000310 f7 ef a4 be 4e c9 8d 3d dd 0b 3e bd 73 e9 d7 3e
       -0.3221433 0.069231614 -0.046398032 0.42170295
000320 ae 15 03 3e 94 8e 3f be 3c e8 65 3d 37 84 58 be
       0.12801239 -0.18706733 0.05612968 -0.21144186
000330 88 7a e6 ba 25 1c a6 3d 3a 84 c6 bf ca 1d c4 be
       -0.0017584125 0.08110837 -1.5509102 -0.38303977
000340 b7 63 73 3e 72 9b ac 3e b8 e1 8a 3e 84 48 84 3e
       0.23768507 0.33712345 0.27125335 0.25836575
000350 83 89 37 3e ca 8f 3f bd 72 5f 11 be 25 7e 28 3d
       0.1792355 -0.046767987 -0.14196566 0.041135926
000360 68 1a 31 3d f5 9c a4 3e 72 9a eb 3c 57 6b f7 bd
       0.043238074 0.32151 0.028760169 -0.1208102
000370 e6 18 b6 3d 65 69 08 be 8d f6 41 bc a9 8b 0a 3e
       0.08891468 -0.13321455 -0.011838567 0.13529839
000380 9a ce e1 3d df 08 2d 3e 89 f9 05 3d c6 cf 00 3e
       0.11025734 0.16897915 0.03270868 0.1257926
000390 48 46 b7 3a f7 a0 51 3c 2c 95 85 3e a5 b7 99 3d
       0.0013982737 0.012794725 0.26090372 0.075057305
0003a0 b0 f2 06 3e a8 7d b2 bd 7f 60 69 bd d6 d6 d3 3d
       0.13178515 -0.08715373 -0.05697679 0.10343711
0003b0 8d 89 b6 bc 3c 17 45 3e e0 b7 c9 3e b9 0e 9e 3e
       -0.022282386 0.19247144 0.39398098 0.30870607
0003c0 67 49 98 bd af f7 f2 3e 89 77 3f be 20 02 cd 3d
       -0.074358754 0.47454593 -0.18697943 0.10010171
0003d0 6e 5a 83 3d 19 e8 87 3d c4 69 f1 3d 6d 68 98 3d
       0.064137325 0.06636066 0.11787751 0.07441793
0003e0 a3 15 1e 3e 96 c7 52 be 9e 6a 96 bd a5 41 b6 bd
       0.15437941 -0.20583948 -0.07344554 -0.088992395
0003f0 a0 25 eb bd 7d 33 2e be 97 ca 1c 3e 22 e2 04 3d
       -0.11481786 -0.17011829 0.15311657 0.03244222

lstm.weight_hh_l0 f4 [512, 128]
000000 fc 68 93 bc ad 4a 0b bd f3 cd af 3d 19 88 e7 bc
       -0.017994396 -0.034006763 0.085842036 -0.028263139
000010 8f 59 a0 bc fa b9 a5 3d 0a c1 22 3d db 9c 89 3b
       -0.019573955 0.08092113 0.039734878 0.004199607
000020 42 bc 91 bc 8b 04 26 3d 50 5b 53 bd 96 94 da bc
       -0.017789964 0.040531676 -0.051600754 -0.02668218
000030 57 41 22 bd 69 95 0f bd 2e cf b1 bc 0c 65 09 3d
       -0.039613094 -0.035054598 -0.021705236 0.03354363
000040 f6 56 ac 3d 32 2e f2 3c 1a 2c a1 3c 9e fc bd 3c
       0.08415024 0.029563043 0.01967435 0.023191746
000050 e5 08 72 bd d9 64 66 bd fb 77 8b bd 34 bd 92 bc
       -0.059090514 -0.05624852 -0.06809994 -0.017912485
000060 d8 bc 06 bd 22 e0 7a 3d ea 3c 9a bd 4e dc 87 bc
       -0.03289494 0.061248906 -0.0753115 -0.016584542
000070 57 25 60 3d c8 32 58 bd 1e 3d 57 3b d4 69 9b bd
       0.05472311 -0.052782804 0.0032842825 -0.075885445
000080 cd 8a 18 3d f1 1e 8e 3c 86 43 62 bd c6 f1 a1 bd
       0.037241746 0.017348738 -0.055240177 -0.07907443
000090 03 15 cf bc 00 af 76 3b 01 d2 2c 3d ee 71 66 3d
       -0.025278574 0.003764093 0.042192463 0.056260996
0000a0 58 80 83 bd b6 e2 a2 bd 85 ef b3 bd d9 ce 9c bc
       -0.06420964 -0.07953398 -0.08785919 -0.019141601
0000b0 31 d0 b2 3d ad 12 e7 3c 52 23 9a 3c e7 26 e5 bb
       0.087311156 0.028207147 0.01881567 -0.006993163
0000c0 28 8b 44 3c 95 ff 77 3a 98 23 be 3c 64 34 a2 bd
       0.011996068 0.0009460387 0.023210332 -0.07920149
0000d0 df 97 5b 3c d4 05 90 bd 4d 09 03 bd d7 8f ad bd
       0.013402908 -0.070323616 -0.03199129 -0.08474701
0000e0 8b 56 74 bd c3 20 7a b9 20 ed ac 3c 12 06 0c bb
       -0.059652846 -0.00023854063 0.021109164 -0.0021365923
0000f0 aa 57 8c bd b2 1f 95 bd 5d 91 dd bb f2 0d 3d bd
       -0.06852658 -0.07281436 -0.0067617134 -0.046155877
000100 e5 0b 83 bd c4 ed df 3b 0e cb a3 bd 61 bd 96 3d
       -0.06398753 0.006833764 -0.07997714 0.0736034
000110 bd ef 40 bd 82 ed 81 3c a3 b7 88 bd 97 92 ca bc
       -0.047103632 0.015860323 -0.06675651 -0.024728103
000120 93 8f 9f 3d c8 c9 63 bd 6e 00 b7 bc 10 78 8b bd
       0.077910565 -0.055612355 -0.022339072 -0.068100095
000130 43 0b 1d bc e6 a4 1c 3d 4c b2 0c bd 8c 61 a7 bd
       -0.0095852045 0.038243197 -0.034349725 -0.081729025
000140 8f 89 6f bd d2 aa 9d bd c3 b0 36 bd 51 58 a1 3c
       -0.058480795 -0.07698597 -0.044602167 0.019695433
000150 01 82 01 3d fb 6a 81 bc 09 a5 9c bd da 88 8a bd
       0.031618122 -0.015798083 -0.076486655 -0.067643836
000160 70 52 54 bd 5d d7 8c 3d e2 6c 37 3c 52 48 9c bd
       -0.05183643 0.06877015 0.011195393 -0.076309815
000170 7d 91 72 3d e1 5e e4 3b d4 6c 26 3d a7 8a ed bb
       0.05922078 0.0069693183 0.04063113 -0.0072491947
000180 41 28 54 3d 26 01 df 3b 08 e1 a4 bd 20 7f a8 bc
       0.0517962 0.006805557 -0.08050734 -0.02056843
000190 8b 61 03 bd 06 90 f1 bb 6b d2 44 3d 80 50 3f bd
       -0.032075446 -0.0073719053 0.048052233 -0.04670763
0001a0 58 1b 85 bc 96 6b 8c bd 94 63 03 bd a6 51 8d 3d
       -0.01624839 -0.06856458 -0.032077387 0.06900339
0001b0 2f dd c7 3b 21 c4 7d 3d d0 be c1 3c 7d 00 aa 3d
       0.006099365 0.06195462 0.023650557 0.083008744
0001c0 42 0a 8e 39 9d c1 ad bc bb cb 98 b9 8c 03 96 bd
       0.00027091993 -0.021210486 -0.0002914349 -0.07324895
0001d0 3c aa ac bd 7e 12 9c 3c 2b b6 9d bd 93 f3 b3 3d
       -0.08430907 0.019051787 -0.077007614 0.087866925
0001e0 a5 40 1c bd b8 bf 30 bc 7d a9 6d bd b4 6b 74 bc
       -0.038147587 -0.010787897 -0.058022965 -0.014918257
0001f0 02 fb f3 bc 56 b6 54 bd 59 ff 4b bd 1a c8 95 bd
       -0.029782776 -0.0519317 -0.049804065 -0.07313557
000200 14 3e ea bc f8 e8 99 bd d8 33 af bd 3b 9c 30 bb
       -0.028594054 -0.075151384 -0.0855481 -0.002694859
000210 e6 39 5c bd b2 0e 94 3d 83 03 d7 3c 5a 71 9e 3d
       -0.053766154 0.072293654 0.026246792 0.07736464
000220 ac 3e ef 3c 07 8f 2e 3d 44 4f 1f 3c 81 9a 3f 3d
       0.029204689 0.04261687 0.009723488 0.046778206
000230 7e 07 df 3c 41 06 a9 bd 2d 3b a4 bc c1 83 4e bd
       0.027225252 -0.08253146 -0.020047748 -0.05041862
000240 85 19 3e bc be 28 38 bd ea ff 18 bd a5 cf db bc
       -0.011602764 -0.04496073 -0.037353434 -0.026832411
000250 1a d3 98 bd ec ac 97 3d 48 38 f8 bc 0b 79 e4 3c
       -0.074621394 0.07406029 -0.030300274 0.027889749
000260 8f c0 8e bd f4 fa 01 3d da 40 2f bd ec 0f 39 bd
       -0.069703214 0.03173347 -0.042786457 -0.0451812
000270 7d c4 82 bc dc 76 42 bd 71 37 b5 3c e9 72 92 3d
       -0.015962834 -0.047476634 0.022121163 0.071508236
000280 17 0f 6c 3d 28 4f 86 bc 80 3e 09 bc 14 49 17 3c
       0.05763158 -0.016395167 -0.008376718 0.009233732
000290 65 0b 86 bd 7f 94 8b bd 0b aa 0c bd 02 10 8d bc
       -0.06545142 -0.06815433 -0.034341853 -0.017219547
0002a0 26 7e 75 3c 3f 50 bf bb d0 b1 79 3d 2b c3 f7 3c
       0.014983689 -0.0058384235 0.06096059 0.03024443
0002b0 e1 4b 9b 3d 53 d4 9e bd f0 2b 59 3d 14 9e 25 3d
       0.07582832 -0.077553414 0.053020418 0.04043396
0002c0 9f 9f 67 bd ef 3a 4e 3d 4c 87 6a 3d 1b 77 28 3c
       -0.05654871 0.050349172 0.057257935 0.010282303
0002d0 5d 5d a9 3d 89 a1 9e 3d e9 87 fe bc 55 4a c2 bc
       0.08269761 0.07745654 -0.031070666 -0.023717085
0002e0 52 21 33 bd fd 92 2f bd 6a a1 f9 bc 3e a4 64 3d
       -0.04373295 -0.04286479 -0.030472476 0.055820696
0002f0 1f 5b 9e bd e9 e3 a8 3d e0 0e 2e bd ff 7c aa 3c
       -0.07732224 0.082465954 -0.042494655 0.020811556
000300 9a 3d dc bc 01 30 98 3d e4 5c 73 3d 55 40 af bb
       -0.026884843 0.07431031 0.05941476 -0.005348245
000310 4f c1 8b bd a4 94 7e 3d 59 a9 f5 3c c8 18 cc 3c
       -0.0682398 0.062153473 0.029987978 0.02491416
000320 a9 1e 02 bd 58 10 41 3d c1 26 53 bd 53 59 89 3b
       -0.03176752 0.047134727 -0.05155063 0.0041915565
000330 f6 b7 eb bb 2e c4 9b 3d c6 18 78 bc 14 72 37 3d
       -0.0071935607 0.07605778 -0.015142625 0.044786528
000340 a5 db 88 bd 66 a0 38 bd dd 59 89 3d b4 ae fc bc
       -0.06682519 -0.045074843 0.06706593 -0.030845024
000350 fe 28 a5 3d e4 80 e8 3b 24 fa 1b bb f9 ce 50 3d
       0.08064459 0.007095443 -0.0023800218 0.050978635
000360 1f b6 84 3d 3a 4e 50 3d 7d 68 d8 bb bd 42 5c bd
       0.06480049 0.050855853 -0.006604253 -0.053774584
000370 40 8c 00 bd f2 a7 fb bc 08 0d 0e 3d 8b e4 ae 3d
       -0.031383753 -0.030719731 0.034680396 0.08539685
000380 08 4b a3 bd 9e e0 74 3d 87 16 05 bb 04 b5 60 bd
       -0.079732955 0.059784524 -0.0020307617 -0.05486013
000390 02 17 8d bd 59 87 ac 3c 61 13 31 3c 93 03 90 3d
       -0.06889154 0.021060633 0.010807843 0.07031932
0003a0 ca 77 a4 3b 9d 3b 03 bc e5 dc 0f 3d fe 3e 06 3d
       0.005019163 -0.008009818 0.03512277 0.032774918
0003b0 6a 0b 04 bd 93 07 4d bd e5 e5 44 bd f2 8c 5b bd
       -0.032237448 -0.05005605 -0.048070807 -0.053601213
0003c0 4b 1f eb bc 48 77 ce 3c c5 33 73 bd df bc 96 3d
       -0.028701445 0.025203362 -0.059375543 0.07360243
0003d0 24 ae 84 bd 70 91 64 bc c1 a3 2c 3d dc 0e 44 3d
       -0.06478527 -0.013950691 0.042148355 0.047865734
0003e0 2e 10 b1 3d 2c 1d 1b 3c c9 17 bc 3c 81 ea 4c 3d
       0.08645664 0.009467404 0.02296056 0.050028328
0003f0 58 0f a7 3d 03 da 2a bd 47 02 8d bd d8 42 1c bd
       0.081572235 -0.04171182 -0.068852 -0.038149685

lstm.bias_ih_l0 f4 [512]
000000 da 25 7d 3e d9 cc 41 3f 2f b1 40 3f 29 c3 e6 3d
       0.2472147 0.757032 0.7527036 0.112676926
000010 43 96 48 3e 38 7b 37 3e 31 24 8d 3e 42 48 b7 3e
       0.1958857 0.17918098 0.27566674 0.35797316
000020 fb 68 13 3f 9a 1a 81 3e 16 53 30 3e 06 dd 2d 3c
       0.5758206 0.25215608 0.17219195 0.010611778
000030 bb 79 5f 3e 4b 59 4b 3f 38 85 75 3e 98 17 86 3d
       0.2182378 0.79433125 0.239766 0.06547469
000040 ee 34 b5 3f 75 2f d6 3f b2 05 12 3f 2a 93 bb 3f
       1.4156778 1.6733233 0.5703994 1.4654286
000050 da 8d 34 be 23 0b 5d 3f 08 04 4b be 72 df e3 3d
       -0.17632237 0.8634512 -0.19825757 0.11126603
000060 ca 01 71 3f 09 84 c2 3e 99 86 de 3f 69 83 7d 3e
       0.94143355 0.3799136 1.7384826 0.2475716
000070 b6 ae 2e 3f a0 d6 14 3e 40 ac 03 3e 8c da a7 3f
       0.6823534 0.14534998 0.12858677 1.311357
000080 fd fb 1a 3e b6 14 42 bd fe 2f d2 3f cc 50 f4 3e
       0.15135188 -0.047383033 1.6420896 0.47717893
000090 2a 21 4f 3e a7 1a 6b bc 95 4e 46 3e 28 14 17 3f
       0.20227495 -0.014349616 0.19365914 0.5901513
0000a0 76 07 c1 3d 13 1e 3a 3d 8a 55 c4 3f 2b 09 a2 3c
       0.09425251 0.045438837 1.5338604 0.019779762
0000b0 89 09 79 3f 0d c0 80 3f d8 cf 21 3c 6e e8 a2 3f
       0.97280174 1.0058609 0.009876214 1.2727182
0000c0 38 d8 a2 bd 4e dd e0 3e 93 80 85 3e 33 78 4a 3f
       -0.07951397 0.43918842 0.26074657 0.7908966
0000d0 3f 8c 9b 3e a5 37 7f 3e 9e af b0 3e 5c bc 42 3e
       0.30380437 0.2492357 0.34508985 0.19017166
0000e0 7f 95 1a 3e e7 2e 89 3f 8f ce 21 3f 39 9c b0 3f
       0.1509609 1.0717438 0.6320581 1.3797675
0000f0 9b f4 05 3f d9 de b2 3f 7c 74 e2 3e 19 14 8d 3f
       0.52326363 1.3974258 0.44229496 1.1021758
000100 dc ed 07 3f 12 86 87 3e 26 fc 85 3e 76 38 35 3e
       0.5309732 0.26469475 0.26168936 0.1769732
000110 4b 18 c6 3f 3c c8 c5 3e 93 ef 00 3e 53 e0 5f bd
       1.5476164 0.3862933 0.1259139 -0.05465729
000120 b7 90 d4 3f 95 b2 db b8 68 ca 3b 3f 79 84 4a 3f
       1.6606663 -0.00010475997 0.7335572 0.7910839
000130 26 20 a3 3e 2c 17 3e 3f 48 c9 52 3e 3e 6f ca bd
       0.31860465 0.7425411 0.20584595 -0.09884499
000140 2c 9c ce 3e 33 1d 8e 3f 3e 64 52 3f e8 7d 63 3f
       0.40353525 1.1102661 0.8218421 0.8886399
000150 ea 8f 85 3d 5d 51 60 3f 79 5b 9a 3e c7 5e 17 3f
       0.0652159 0.8762415 0.30147913 0.59128994
000160 a3 93 c7 3d 74 3b a9 3f 33 b1 01 3f b0 23 55 bd
       0.09744956 1.3221269 0.5066101 -0.052035987
000170 34 e9 cc 3e 9b 50 b0 bd 6d c4 a5 3e 8c 48 9e 3f
       0.4002167 -0.08609124 0.32376423 1.236589
000180 e8 74 21 3e 11 43 ca 3e a7 dc c2 3e 31 e3 4d 3f
       0.15767252 0.39504293 0.3805897 0.8042479
000190 5d 9e 2e be 30 90 98 3e 72 7a 5f 3f 0c 7f b0 3f
       -0.17052598 0.29797506 0.8729621 1.3788772
0001a0 bb bf 95 3f 26 c1 c9 3d b6 da ad 3f 11 03 97 3f
       1.1699136 0.09851293 1.358237 1.1797811
0001b0 76 da bb be c7 9f 4e 3e 5d 13 28 3c 29 79 0e be
       -0.3669011 0.20178138 0.010258523 -0.13913406
0001c0 ae dd a9 3f 87 a5 fa 3e ea c6 a5 3f b7 e3 82 be
       1.3270776 0.48954412 1.2951329 -0.25564358
0001d0 45 d8 e4 3e bf e8 79 3d 89 11 24 3f c4 f7 39 3e
       0.4469625 0.06101298 0.64089257 0.18160921
0001e0 3f 68 c6 3f 3d 18 80 3f fe ee 57 3f 6a 58 a8 3f
       1.5500563 1.0007397 0.8434905 1.3151982
0001f0 0c b7 93 bc 09 8b 22 3f 37 8e 19 bd 3b 51 a6 3f
       -0.01803162 0.634934 -0.037489142 1.299354
000200 ac 20 91 bc ad 51 b8 bc 93 6f 97 bd e6 fb 95 ba
       -0.017715774 -0.022499884 -0.07394328 -0.001144287
000210 3f 8a 68 3d b0 53 f3 3c 8a 90 78 bb 2b bc 9d bd
       0.056772467 0.029702991 -0.003792795 -0.07701906
000220 b7 29 05 bd 28 70 9d bd 59 a3 cd 3c 39 93 b7 bc
       -0.032510486 -0.07687408 0.025102304 -0.022409068
000230 04 ce 5e bc 06 5f 38 bb 1b f8 37 3d 5b b3 a5 3c
       -0.013598923 -0.002813281 0.044914346 0.020227125
000240 c0 9f ff bc 0a 08 25 bb f9 74 2a b9 e0 62 92 3d
       -0.031204104 -0.0025181794 -0.00016256039 0.07147765
000250 c3 6d 30 3d 07 9c a6 bd e8 af 98 3d 65 a8 2e bd
       0.043073427 -0.081352286 0.074554265 -0.042641062
000260 ae b1 89 3d d6 d8 33 bd d1 8e b0 3c ed 1e a1 3d
       0.06723343 -0.043907963 0.021552475 0.07867227
000270 49 36 84 3c 2e 22 92 3d bd 89 81 3c 39 e9 8e bd
       0.016139166 0.071354255 0.015812749 -0.069780774
000280 2a 6f 9d 3d 3c 80 1b bd 04 2e 89 3c 9c 51 9b bc
       0.076872185 -0.03796409 0.016745575 -0.018959813
000290 3d e5 56 3d 7f ac 71 3d f1 02 85 bd e2 02 cc 3c
       0.052464712 0.059002396 -0.06494702 0.024903718
0002a0 dc ba 68 bd d4 44 83 bc 6f 99 bf 3b 51 9c a4 3d
       -0.056818828 -0.01602403 0.005847148 0.080376275
0002b0 ca d1 e3 3c 20 47 9c bd e2 1a e5 bc 05 c7 9c bd
       0.027809996 -0.076307535 -0.02796692 -0.076551475
0002c0 4e 3b ac bd 3b cf f3 bc 05 f3 14 3d 71 af 8f 3d
       -0.08409749 -0.029761901 0.036364574 0.07015885
0002d0 ed 77 9c 3d 9a b0 a8 3b f2 ac 91 bd 01 fc 35 3d
       0.076400615 0.0051480057 -0.07113065 0.044429783
0002e0 e1 92 07 3c f6 5c 09 3d c3 a0 73 3c 7b d8 98 bc
       0.008274765 0.03353592 0.014869872 -0.018657913
0002f0 09 65 96 3d 28 68 f6 bc 86 94 9a 3c 81 61 9e 3d
       0.0734349 -0.030078962 0.01886965 0.07733441
000300 78 fe 44 3d 02 54 08 3c 56 f6 0b 3d c4 6f ae bd
       0.048094243 0.00832081 0.03417047 -0.08517411
000310 ea 74 8d bd b9 85 15 3d 10 75 0a bd c0 64 16 bd
       -0.06907065 0.03650448 -0.033803046 -0.036717176
000320 17 86 1b bd 05 58 d1 3c 0f 80 bc 3c d8 31 aa bc
       -0.037969675 0.025554666 0.023010282 -0.02077572
000330 a1 c1 85 bd bf 37 f1 3c 28 12 8a bd 56 c6 bf 3c
       -0.065310724 0.029445527 -0.06741744 0.023410004
000340 8a b4 da bb ec ec 25 3c 49 33 46 3d e1 da 10 3d
       -0.006674354 0.010127287 0.048388753 0.03536499
000350 8c 6e 8a 3d b4 02 b8 bc dd 9c 16 3d d7 bb 95 bd
       0.067593664 -0.022462226 0.03677069 -0.07311218
000360 88 69 f9 bb 83 d6 58 3d 51 e7 43 bd d8 4a 04 3d
       -0.0076114573 0.05293895 -0.047828022 0.03229794
000370 af e3 16 3d 82 45 3d 3d bd 48 8d 3d bb 0f a9 bd
       0.03683823 0.046208866 0.06898639 -0.082549535
000380 87 7b 45 3c 5a 2c fc 3c db d1 57 bd 72 91 c5 bc
       0.012053377 0.030782867 -0.05269037 -0.024117205
000390 9c 08 3b bd b1 9f b6 3b 8d 74 8c 3d 99 54 9c 3d
       -0.045662507 0.005573236 0.06858168 0.07633323
0003a0 59 ca c9 bc eb c7 49 3c b6 04 86 bc a3 71 0a 3d
       -0.02463262 0.012315731 -0.016359668 0.03379978
0003b0 4e b7 99 3d 28 45 15 3d c3 2d 89 bd 25 40 07 bd
       0.07505666 0.036442906 -0.066981815 -0.033020157
0003c0 b9 b5 93 bd 73 69 13 3c 12 f3 56 3d 96 da ae bd
       -0.07212395 0.008997309 0.052477904 -0.08537786
0003d0 b5 65 a7 bd 6a c0 0a 3d 58 f9 91 bd a0 2b 71 3d
       -0.08173696 0.033874907 -0.07127637 0.058879495
0003e0 6f d4 c3 bc 10 1b ae ba 11 15 ac bd 29 a9 57 bd
       -0.023905007 -0.0013283212 -0.084024556 -0.052651558
0003f0 d2 7f 46 bd 7f a6 29 3b df 82 a8 bd 17 fc 2b bd
       -0.048461743 0.0025886593 -0.08228087 -0.04198846

lstm.bias_hh_l0 f4 [512]
000000 3e 49 42 3e d0 35 3b 3f 86 8c 35 3f 43 09 81 3e
       0.18973252 0.73128986 0.70917547 0.2520238
000010 91 e0 39 3e e9 7b 74 3e be 0e cd 3e 34 e7 be 3e
       0.18152072 0.23875393 0.4005031 0.3728577
000020 91 30 15 3f 11 a1 46 3e f4 7f d1 3d ad 66 8f 3b
       0.5827723 0.1939738 0.10229483 0.0043762536
000030 4d 6e c4 3e d1 a1 55 3f 72 5c ac 3e e2 de 1f 3e
       0.38365403 0.8345004 0.3366428 0.15612367
000040 65 42 bb 3f 5b c2 cd 3f 10 ff 0d 3f 00 d6 ac 3f
       1.4629637 1.6074938 0.5546732 1.3502808
000050 39 15 2e be 50 14 5e 3f 9c fe ba bd aa 56 2e 3d
       -0.17000283 0.86749744 -0.09130594 0.042563118
000060 09 8a 7c 3f d8 22 df 3e dd 01 cf 3f c9 6f 28 3e
       0.98648125 0.4358127 1.6172444 0.16448893
000070 81 fd 3a 3f d1 ab 1b 3e 46 2c c8 3d 6d 0c 9a 3f
       0.73043066 0.15202262 0.097740695 1.2035042
000080 d9 76 37 3d a5 fd 37 3c 14 f4 d5 3f 56 98 e3 3e
       0.044791076 0.011229907 1.6715112 0.4445216
000090 b7 90 a9 3e 17 b5 16 3d 34 b2 a5 3e d8 be ea 3e
       0.3311822 0.036793794 0.3236252 0.45848727
0000a0 78 4f b5 3d cc c3 36 3d e5 21 c5 3f 65 39 74 3d
       0.08853048 0.04462032 1.5400969 0.05962505
0000b0 ca 6d 80 3f d6 60 5d 3f 8f 76 8c bd 64 b5 b6 3f
       1.0033505 0.86475885 -0.06858551 1.4274106
0000c0 d2 fd 0d be 78 c2 00 3f 07 c1 6e 3e 22 72 59 3f
       -0.13866356 0.50296736 0.23315822 0.8493978
0000d0 36 5f aa 3e e5 37 3e 3e 76 4c 68 3e 87 da 46 3e
       0.33275765 0.1857601 0.22685418 0.19419299
0000e0 5c 77 22 3d 1a 0e 9b 3f 0a 00 3d 3f b7 89 bc 3f
       0.03966461 1.2113678 0.73828185 1.4729527
0000f0 8c 18 15 3f 84 5e aa 3f 4c 0c b1 3e e7 b0 87 3f
       0.5824058 1.3310094 0.34579694 1.0600861
000100 8d f6 cc 3e 55 2d 9c 3e 7b 15 8e 3e b2 7a 73 3e
       0.40031853 0.30503336 0.27750763 0.23777273
000110 bf 0d c8 3f de fd b5 3e cd b4 af 3d 52 56 46 bd
       1.5629195 0.35545248 0.08579407 -0.048422165
000120 6e 0c d6 3f 3f 81 2c bb a9 59 3d 3f 1d fd 44 3f
       1.6722543 -0.0026322154 0.73964936 0.7694872
000130 df 06 93 3e 80 7c 28 3f ff 64 ff 3d d2 47 db bc
       0.2871618 0.6581497 0.12470435 -0.026767645
000140 6e 7f 0c 3f 2e 44 9d 3f 65 86 4e 3f b6 6c 69 3f
       0.5488194 1.2286432 0.8067382 0.91181505
000150 7f 91 0b 3e d8 2e 5c 3f 72 c6 71 3e b0 90 15 3f
       0.13629721 0.8600898 0.23610857 0.584239
000160 ca 8e c3 3d 47 6b 9d 3f fc d2 ff 3e 23 16 1e be
       0.09548719 1.2298363 0.49965656 -0.15438132
000170 07 99 a3 3e 8f bb 01 3d 60 16 c0 3e 15 30 96 3f
       0.31952688 0.03167301 0.3751707 1.1733423
000180 0c 67 4c 3e cd d5 ea 3e 50 32 fe 3e 37 2c 50 3f
       0.19961184 0.45866242 0.4964776 0.81317466
000190 c6 93 58 be f4 08 96 3e 5c 03 55 3f 0d 2d ba 3f
       -0.21150121 0.29303706 0.8320825 1.4544998
0001a0 09 ae 9d 3f 4f 5c 6f 3e 97 f2 98 3f 3d 44 9f 3f
       1.2318736 0.23375057 1.1949033 1.24427
0001b0 57 9c 74 be 51 c5 76 3e 87 43 38 bc b2 d5 16 be
       -0.23887764 0.24098708 -0.0112465685 -0.14729956
0001c0 79 2a a0 3f 90 90 ae 3e e7 af a0 3f 43 be 67 be
       1.2512962 0.34094667 1.2553681 -0.22631173
0001d0 91 4f ae 3e be 34 a0 3d f8 6b 28 3f f4 50 7f 3e
       0.3404508 0.0782256 0.6578975 0.24933225
0001e0 d3 3a b9 3f 03 85 82 3f 60 76 63 3f e4 f8 b9 3f
       1.4471077 1.0196842 0.888525 1.452908
0001f0 98 d7 55 bd c2 2f 0a 3f 0f 6d 96 bd b9 81 a6 3f
       -0.05220756 0.5397912 -0.0734502 1.3008338
000200 a6 51 8d bd 8b 6a 9c bd 04 8c 64 3d 4c 63 aa 3b
       -0.06900339 -0.07637509 0.05579759 0.0051998254
000210 d6 9c 69 bd b5 df 2f 3d 7b ca 5a bd 01 97 8d bd
       -0.057034336 0.042937953 -0.053415757 -0.06913567
000220 27 92 06 3c ba 3d b3 3c 32 ce bc 3b 1b 28 63 bd
       0.008213556 0.02188002 0.005761885 -0.05545817
000230 6d fc 88 bd ac 8f 1c 3d 40 a6 11 3d ab 7e f7 bc
       -0.066887714 0.038222954 0.03555894 -0.030211767
000240 a2 40 b0 bd 28 a8 16 3d 3c d7 ab 3b 59 83 6b bd
       -0.08606078 0.03678146 0.005244164 -0.05749831
000250 53 3f 0a bd 7e 21 ed 3c 7f 23 97 3d 89 b7 55 bd
       -0.033751797 0.028946634 0.07379817 -0.052176986
000260 ae 85 9e 3d e1 b3 72 3b 56 6a 45 3b f9 38 a4 3d
       0.07740341 0.0037033486 0.0030123196 0.08018679
000270 71 0a 11 bd ff 1f 76 bd ed 9d a9 3c d0 54 de 3c
       -0.03541035 -0.060089108 0.020705188 0.027140051
000280 2e f8 86 3d 09 06 a8 bd 9a 03 09 bd ab d8 8c 3d
       0.06590305 -0.08204276 -0.0334507 0.06877264
000290 77 e3 64 bd 7c cc 5d 3d 57 19 8f bd 9a 0a a0 3d
       -0.05588099 0.05415009 -0.06987255 0.07814522
0002a0 ce ee 69 3d 2b b5 47 3d cc f6 29 bc 89 45 25 3d
       0.057112508 0.04875676 -0.010373782 0.040349517
0002b0 89 85 02 3c 66 f2 3a bc 9d 91 71 3b f3 6c b2 3d
       0.007966408 -0.011410331 0.0036860474 0.08712187
0002c0 c9 08 2a 3a 10 0e ab 3c de f5 9c bd 41 dd 9a 3d
       0.00064862944 0.020880729 -0.07664083 0.07561732
0002d0 a4 bd 82 bd ca 4c 9b bd 19 ca 5d bd 6c 6a 54 bd
       -0.06383827 -0.07583006 -0.054147813 -0.051859304
0002e0 78 7f 19 3c 4a a6 fb 3b 30 68 28 bd 01 c1 94 bd
       0.00936877 0.0076797353 -0.041114986 -0.07263375
0002f0 ba 34 15 3d b0 f2 7d 3c 6b 4c 12 3d c7 da cb 3b
       0.036427237 0.015499756 0.03571741 0.0062211487
000300 34 91 fc 3c 59 be 86 3b 54 5e 82 3d c8 79 9b 3d
       0.030830957 0.0041120467 0.06365648 0.07591587
000310 fe f9 a9 3d 42 bb 6a 3c ab 69 5f 3c f8 07 87 3d
       0.08299635 0.014326872 0.013636033 0.06593317
000320 db dc 66 3d ef a1 a7 bc d0 4b ec 3c 1e 0f 47 bd
       0.056362968 -0.020462958 0.028844744 -0.0485984
000330 20 f8 2d 3d ac bf a4 bd 6d 82 5d ba f2 8e 59 bd
       0.04247296 -0.08044371 -0.0008449916 -0.05311484
000340 b6 cd dd bc a7 6d 01 3d 62 37 6c 3d e9 34 2b bd
       -0.02707563 0.031598713 0.057670005 -0.041798506
000350 be 56 76 bc 97 df 15 bd af 7e a4 3d 54 8d ba 3c
       -0.015035329 -0.036590185 0.080319755 0.022772469
000360 7c 4b a3 3d 4c 85 fb 3c 07 6c 80 bd 46 22 13 3d
       0.07973382 0.03070321 -0.062706046 0.035921358
000370 31 3b 87 bd 17 ad 34 bd b2 cf 27 3c b3 e0 f5 3c
       -0.06603087 -0.044110384 0.0102423895 0.030014371
000380 f3 07 23 bd 8d 36 30 3d 7f 64 03 3d 95 c8 95 bd
       -0.039802503 0.043020774 0.032078262 -0.073136486
000390 21 c5 97 bc 0c 76 d6 3c 19 94 a8 bc 39 aa 6e 3c
       -0.018526616 0.026179336 -0.020578431 0.014566951
0003a0 13 c7 54 bd cb c3 98 3d 6e 9e 87 3d 68 26 78 3d
       -0.051947664 0.074592195 0.06622015 0.060583502
0003b0 b6 22 3a 3d 87 94 74 3d d2 8d ca 3b 3f 9a 9a 3c
       0.04544326 0.05971196 0.006181457 0.018872378
0003c0 d1 44 9f bd 31 32 2f 3d 61 e2 6d bd ba 99 7d bc
       -0.077767976 0.042772476 -0.05807722 -0.015478546
0003d0 ab e8 75 bd 88 5e d2 bc 0e 8f 16 3d 6c a4 3e bc
       -0.060036343 -0.025679842 0.03675752 -0.011635881
0003e0 43 e7 4b 3d a1 a7 48 3d 1f f0 67 bd 66 87 03 3d
       0.049781095 0.04898799 -0.05662548 0.032111548
0003f0 04 f6 97 3d f4 7b 59 bc c7 13 33 3d 7b ee 55 3d
       0.07419971 -0.013274182 0.043720033 0.052229386

lstm.weight_ih_l1 f4 [512, 128]
000000 48 ea 71 3b 6a 75 60 bf 09 8f 6b 3d e0 27 4d 3d
       0.0036913324 -0.8767916 0.057509456 0.050086856
000010 15 d8 be bc 69 14 82 3e 2e 27 bb 3d 86 2c ff 3d
       -0.023296395 0.25406197 0.09138332 0.12459664
000020 b7 e4 6a be c3 cb 1c be 1a f1 a4 bd 71 27 61 3d
       -0.2293881 -0.15312104 -0.08053799 0.054969255
000030 50 5f 17 be 03 d5 74 3f cc 11 12 be bd 3b 84 be
       -0.14782453 0.9563753 -0.14264601 -0.25826827
000040 18 e5 e5 3c 26 55 13 3d 02 3d 05 3f 49 28 d0 bd
       0.028063342 0.035969876 0.52046216 -0.10163934
000050 65 d9 8a be 56 cf 0f be 67 cc 05 3e 1f 70 7e be
       -0.27118984 -0.14043936 0.13066255 -0.24847458
000060 d5 45 0a be 64 c5 3a 3e bd ea 9a bd a8 66 16 3e
       -0.13503201 0.18239361 -0.07564304 0.14687598
000070 49 72 50 3f b8 19 1f 3e 82 53 23 bd 69 18 da 3c
       0.81424385 0.15537155 -0.03987456 0.026622968
000080 bb 80 85 3e 71 34 02 bc ec 1a 17 3d 68 ba d0 be
       0.26074776 -0.007947073 0.03689091 -0.40767217
000090 17 fa c6 3e 7c d6 83 be 41 d8 f1 3e c1 fe ba be
       0.38862678 -0.25749576 0.472353 -0.36522487
0000a0 b7 6a ed bc 3b 90 a2 bc 03 88 f8 3d 28 29 00 3e
       -0.02898155 -0.019844165 0.12135317 0.125157
0000b0 71 79 15 3e f8 6b 26 be de 30 91 be 8f 08 5c 3e
       0.14597107 -0.16252124 -0.28357595 0.2148764
0000c0 e0 21 e0 be 55 93 cc 3d 0e 30 10 3e 2b e4 ff be
       -0.43775845 0.09989039 0.14080831 -0.49978766
0000d0 a8 0c 26 3e 83 f0 e3 3d 5f 27 62 bf 6e fc 1f 3d
       0.16215765 0.11129858 -0.88341326 0.039059095
0000e0 fb ce 14 bf 16 76 02 be f9 d8 35 bd 61 b3 08 3e
       -0.5812833 -0.12740359 -0.044396374 0.13349678
0000f0 bc 9a c4 be bc 2d 18 3e 84 53 56 3e 12 40 1a be
       -0.38399303 0.14861196 0.20930296 -0.15063503
000100 a8 da 4b 3f be a2 c7 be f6 a2 d0 bd 3a 82 35 be
       0.7963052 -0.3899135 -0.10187332 -0.17725459
000110 a4 e1 fa 3c c0 b1 ab be f2 94 50 3e d0 62 52 be
       0.030625172 -0.3353405 0.20369318 -0.20545506
000120 6b 99 21 bd 00 e8 28 3e cf 07 71 3e 9a cf 76 3e
       -0.03945295 0.16494751 0.23538135 0.24102631
000130 8e a1 12 3e 13 f4 cb 3d ea 94 50 be 3c 70 28 3f
       0.1431944 0.09958663 -0.20369306 0.65796256
000140 6d 1b ab be 59 d9 0d bd 72 21 bb be 9f 21 31 be
       -0.33419362 -0.034631107 -0.36548954 -0.17297982
000150 11 5d 23 3d cd 51 cb bd 43 29 37 be f6 7a 5f bf
       0.039883677 -0.09927712 -0.17886834 -0.87297
000160 55 ca 02 3e 57 b5 01 3e cc 95 01 bf 10 5d ad be
       0.12772496 0.12666832 -0.50619197 -0.33860064
000170 4c 98 3d 3d d9 3d bf bc f8 67 2b 3e 92 04 55 3d
       0.04628782 -0.023344921 0.1673888 0.05200631
000180 6f 11 8c be cf ae 8f be bd 33 13 3e cc 47 35 3d
       -0.2735705 -0.28063056 0.14375205 0.044257924
000190 1e 3f 30 3e d5 de 3e 3d 2d 5b 8c 3e c9 79 8b be
       0.17211577 0.046599228 0.27413312 -0.27241352
0001a0 24 8c bb bd 10 2c a7 3c 9e 26 ee 3c bb cc e3 3d
       -0.09157589 0.020406753 0.029071148 0.111230336
0001b0 97 1b 3a be 5c 62 d1 bd ae a6 a3 3e 91 4d 5b be
       -0.18174587 -0.10223839 0.31963104 -0.21416308
0001c0 65 7d 9c bd 84 26 7c 3e de c9 a0 bb 03 62 25 be
       -0.076411046 0.24624068 -0.004906877 -0.1615067
0001d0 ed 26 44 be 08 db 90 3d a5 df a0 be 1d 74 13 3e
       -0.19155474 0.07073027 -0.31420627 0.14399762
0001e0 fe 98 a2 bb f3 90 ac 3d 28 c3 da bd fe b6 31 3e
       -0.0049620857 0.08426084 -0.10681754 0.17354962
0001f0 a3 ce b4 3e b3 ba 5a 3f 9b b4 f7 3e 10 0c c8 3d
       0.353139 0.8544113 0.4837998 0.09767926
000200 81 f1 cd 3b ff 12 21 3d b2 26 22 3f ee f4 bc 3e
       0.006284893 0.039324757 0.63340294 0.36905617
000210 0e de 94 3d 37 0f 38 3f dc 38 64 be 08 94 84 3c
       0.07268916 0.71898216 -0.22287315 0.016183868
000220 7d 7d 7b bd da 49 e3 3d c4 77 ad be a8 06 38 bd
       -0.06139897 0.110980704 -0.33880436 -0.044928223
000230 2f 99 f4 be d5 68 4e be 13 86 1b 3d a8 d7 23 be
       -0.4777312 -0.20157178 0.03796966 -0.16000235
000240 d7 49 64 3e 87 1f 48 be 8d df a3 be 12 13 b2 bc
       0.22293793 -0.19543277 -0.32006493 -0.021737609
000250 af 56 bf 3e fe 16 a7 3d d2 c8 ad 3d f5 c7 2c bf
       0.37370822 0.08158682 0.08485569 -0.6749261
000260 b6 94 3b 3e a3 fe 59 3d c4 f9 96 be f7 72 2c 3e
       0.18318447 0.053221356 -0.2948743 0.1684073
000270 ca 49 24 3e 5d 27 d9 3f d0 6e 9a be 26 59 0b 3e
       0.16043773 1.6965138 -0.30162668 0.13608226
000280 e2 2b 4a bd 73 e8 bd be 26 1a d0 3d c4 4e e8 be
       -0.049358256 -0.37091407 0.101612374 -0.45372593
000290 bf d0 66 3e 93 5c bb 3d 04 21 a9 3d 27 4c 93 be
       0.22540568 0.091485165 0.0825825 -0.28769037
0002a0 20 cb 11 3f 4e 88 72 be 40 5e cb 3d fc b2 7e 3e
       0.5695057 -0.23684809 0.09930086 0.24872965
0002b0 81 0b 5c 3e ff 1a 1d 3e 36 93 cf bc 50 8f 98 3c
       0.21488763 0.1534233 -0.02533875 0.018623024
0002c0 9e ac c8 3e e4 55 0e 3f 3b 91 36 3e 2d f0 48 3d
       0.39194196 0.5559981 0.17828839 0.049057174
0002d0 24 37 04 3e fe a7 fc 3d 0c 79 ff 3b bf 3d 77 3f
       0.1291166 0.123367295 0.0077964123 0.9657859
0002e0 7a 9f 1f bf 4c d5 97 bd 28 37 1c 3e 7c 22 94 3e
       -0.62352717 -0.0741373 0.15255415 0.2893256
0002f0 af 74 a6 bf d2 0a de bd dd 30 c9 3e 82 47 25 be
       -1.3004359 -0.108419076 0.39295092 -0.1614056
000300 33 0b 8c bc 18 ea 23 bf d4 66 d3 3e 1f a9 f4 be
       -0.017095184 -0.64029074 0.4128939 -0.4778528
000310 31 09 77 be ed 31 c4 bd e8 88 15 3f 40 4b 84 3e
       -0.241246 -0.09579835 0.5841203 0.2583866
000320 f8 1a ca bd 2f 1d 93 be 65 55 c0 3f 07 a2 67 bd
       -0.09868425 -0.28733203 1.502606 -0.056551006
000330 ff 9d 29 3e ae 11 b9 3d 2b 17 09 3e f0 c2 85 3e
       0.16564177 0.09036575 0.13387744 0.26125288
000340 5c 28 53 be ad be 83 3e f2 da bf be 94 ac 57 bf
       -0.20620865 0.25731412 -0.3747173 -0.8424771
000350 1b 1c fd be 82 b9 5d be 71 7f ad 3d 21 df a8 bf
       -0.49435505 -0.21652797 0.08471573 -1.3193094
000360 e2 e5 8e 3e 3b f4 f7 bd a0 26 ce be d7 e7 12 3e
       0.27909762 -0.1210713 -0.40263844 0.14346252
000370 62 30 bd bf 52 64 b9 3e 2f 63 5b 3d 79 5e 5e bc
       -1.478039 0.3620935 0.053561386 -0.013572329
000380 68 b4 43 3e 14 5c 69 be 4b 39 49 3f 18 fc 7f be
       0.19111788 -0.22789031 0.7860305 -0.2499851
000390 4d 77 49 3d d5 5b ce bd 1e 0b b0 3c e1 6e 50 be
       0.04918604 -0.10076109 0.021489676 -0.20354797
0003a0 7b cc d3 bc 2c 34 a2 3e e9 3c 90 bd 6b 13 5c bd
       -0.02585434 0.3168043 -0.07042868 -0.053729456
0003b0 10 00 cb 3d e9 f5 b1 be 28 92 71 3e 5e 16 c5 bd
       0.09912121 -0.34757927 0.2359091 -0.09623407
0003c0 ec 78 27 be 30 98 b4 3d d4 72 44 3e 1e a6 5b 3e
       -0.16354722 0.0881809 0.19184428 0.21450087
0003d0 d4 ed a9 3c b2 70 68 bf 5f 3f 99 be 58 90 0b 3c
       0.020743288 -0.9079696 -0.2993116 0.008518301
0003e0 d9 6b 86 bd d1 96 60 bc 7b a9 52 bf 81 57 a4 bc
       -0.06563539 -0.013707832 -0.82289857 -0.020061256
0003f0 54 1c 36 bd e6 00 88 be 64 88 8c be 69 cc ec bd
       -0.04446061 -0.26563185 -0.27447808 -0.11562426

lstm.weight_hh_l1 f4 [512, 128]
000000 33 27 9f 3d 3d 17 e5 bc 48 fc 84 3d 9f 70 49 3d
       0.077711485 -0.027965182 0.06493431 0.04917967
000010 54 fb 36 3d dd c2 15 bd b0 09 5b 3d e1 45 64 3d
       0.04467328 -0.03656279 0.053476036 0.055730704
000020 b9 a7 8a bd fd dd 84 3d 36 01 fd 3c 90 c7 60 3d
       -0.06770272 0.064876534 0.030884366 0.054877818
000030 83 a7 4d bd f5 57 8b 3d b2 3c b1 3d 37 59 68 3d
       -0.05020858 0.06803886 0.08654155 0.056725707
000040 de 12 81 bd b6 ce 3f bd 9f d5 bc 3c 5f 66 b3 bd
       -0.06302427 -0.046827994 0.023051081 -0.0875976
000050 eb aa 83 3d 60 ba 40 3c 26 ec 1c 3b ab 00 1f 3d
       0.064290844 0.011763185 0.0023944466 0.038818996
000060 42 a5 a4 bd 5f 72 51 3d f1 b2 ca 3b b6 93 83 bd
       -0.08039333 0.051134463 0.0061858823 -0.06424658
000070 3b 3b 5d 3c 56 11 d4 bc 81 96 ac 3b de 75 84 3d
       0.013502891 -0.025887173 0.005266965 0.06467794
000080 b0 36 4f 3d d7 63 5a 3c bc 58 8b bd 89 cb 5b bc
       0.050589263 0.013329468 -0.06804034 -0.013415226
000090 24 d6 53 3c c0 12 e5 3c ab a6 39 bd b8 90 90 3d
       0.012929473 0.027963042 -0.045324963 0.07058853
0000a0 dc 64 40 3d b0 bb 4b 3d d6 a2 02 3c ff a0 d7 bb
       0.046971187 0.04973954 0.007973393 -0.0065804715
0000b0 1b 2b 49 3d 73 85 ef 3c 9d 6f ac bc 76 73 a2 bd
       0.049113374 0.029238438 -0.021049315 -0.07932179
0000c0 84 da 6a bd 73 02 95 3d 6a fd a1 3d 7a 1c 6f bd
       -0.0573373 0.07275858 0.07909663 -0.058376767
0000d0 f2 ec 7f 3d ee 43 af bd 0e d0 8f bd a5 a5 12 bd
       0.062481828 -0.085578784 -0.07022105 -0.035802502
0000e0 bb 44 64 bd 82 4a 1c bd ab b3 77 bd 8d e1 b8 bc
       -0.05572961 -0.038156994 -0.06047408 -0.022568488
0000f0 e5 07 80 3d 73 59 89 bd 71 66 5b 3d 39 0e 02 bd
       0.06251506 -0.06706514 0.053564493 -0.031751845
000100 c2 5f 61 3c 47 48 ad bd 82 c5 fc 3c ed b6 ab bd
       0.013755741 -0.084610514 0.030855898 -0.083845
000110 62 9f 60 3c 49 3a 73 3d c7 9f 34 3d c4 0b ad bd
       0.013709875 0.059381757 0.044097688 -0.0844951
000120 8b 47 56 bd 18 a5 8e bd ac de 31 3d 77 61 32 3d
       -0.052314322 -0.06965083 0.043425247 0.04354998
000130 b7 6d 26 3d 15 cc 75 bd 38 c3 fa 3b 0c ea 64 bc
       0.040631976 -0.06000908 0.0076526664 -0.013971817
000140 ba 25 7f 3d 05 63 69 3d 47 d8 06 3d 4f a2 92 bc
       0.06229184 0.056979198 0.032921102 -0.01789966
000150 80 f1 a5 3d 31 2b aa 3d 5a af 35 bd d6 51 63 bd
       0.08102703 0.08309019 -0.04435668 -0.055497967
000160 0a e4 6e bd 80 ce 54 3d 25 f7 22 bd 1c 99 c2 bc
       -0.058322944 0.051954746 -0.039786477 -0.023754649
000170 a0 1d 2e 3c b7 1f 5e 3d 7f d4 91 3b 9e 24 85 bd
       0.01062718 0.054229464 0.0044503803 -0.06501125
000180 be 60 35 3c cc 51 84 3c 4c 34 9c bd 47 ed 99 bd
       0.011070428 0.016152285 -0.07627162 -0.0751596
000190 23 d0 f3 3c 6f 5f 7d 3b 34 ee 98 bd f8 5a 38 bd
       0.029762333 0.003866162 -0.07467309 -0.04500863
0001a0 50 f6 12 bd 3c 6a dc 3c 24 64 86 3d b0 82 5e bd
       -0.035879433 0.026906125 0.06562069 -0.054323852
0001b0 f5 38 e1 bc 8f 28 9e bd 1c 8a ac bd ab 54 c7 3c
       -0.02749298 -0.0772258 -0.0842478 0.024332365
0001c0 99 7d 89 bd 19 2f 97 bd 95 51 a0 3c 2f 54 47 bc
       -0.06713409 -0.0738203 0.019570151 -0.012166067
0001d0 0d f1 23 3d c0 72 46 3c 19 34 e0 bc e8 2b 9e 3d
       0.040024806 0.0121123195 -0.027368592 0.07723218
0001e0 37 e3 24 bd d5 01 1c bd 2e 1c 81 bc f4 88 03 3b
       -0.04025575 -0.038087685 -0.015760507 0.0020070644
0001f0 0b 9d 6a bd 35 7e 61 3d eb 5e 63 3d 00 02 89 bc
       -0.057278674 0.055052 0.055510443 -0.016724586
000200 c0 28 85 3d 7a ec b2 bd de a4 84 3d 8c 1c 09 3d
       0.06501913 -0.087365106 0.064767584 0.03347449
000210 4a 6d 05 bd 9d 23 0a bd 12 33 5a bd 80 d6 b0 3c
       -0.03257493 -0.03372537 -0.05327136 0.021586657
000220 e2 e6 91 3c da 15 a0 3c 6f d3 40 bc 3e 48 27 3c
       0.017810289 0.01954167 -0.01176916 0.010210095
000230 de 3b f7 bc 25 04 86 bd 8f 29 90 bc 40 e8 6c bd
       -0.030179914 -0.06543759 -0.017597942 -0.05783868
000240 dd fd 3b bc 6f 20 a8 bd fb 3f b2 3d 7a 8a e0 3a
       -0.0114741 -0.08209311 0.087036096 0.0017131113
000250 93 37 7a 3d 46 0a 83 3c 23 67 b2 3d 05 c4 b0 bd
       0.061088156 0.01599611 0.08711078 -0.08631138
000260 1e 9e 2a bd 35 b2 5c bd 00 43 8e 3d 37 23 a9 bd
       -0.0416547 -0.05388089 0.06946373 -0.0825867
000270 36 bc 89 3c 93 8d 70 bd 2d 38 45 3d dc ea 96 bd
       0.016813379 -0.058728766 0.048149277 -0.073690146
000280 a6 7f 75 b8 1b 48 8a bd c8 d8 c0 3b 81 76 81 3d
       -5.8531434e-05 -0.06752034 0.0058852173 0.06321431
000290 8e ab b0 bd 7c 04 ae bd f5 a0 8f bd 74 cf c5 3c
       -0.086264715 -0.08496949 -0.07013122 0.024146773
0002a0 53 29 bd 3c 90 9a 2c 3d c8 d1 8a 3d 50 9e 7d bd
       0.023090994 0.04213959 0.06778294 -0.061918557
0002b0 f5 f7 91 bd 02 7f 25 3c d6 d6 d9 3c d5 8d 26 3d
       -0.07127372 0.010101082 0.0265917 0.040662605
0002c0 92 7a 94 3d 17 76 7c bd 04 09 35 3c 0a 28 57 bd
       0.07249941 -0.061636057 0.011049513 -0.05252842
0002d0 fa 20 1c bd 44 ac e8 bc 8e fd c3 3b 70 10 b1 bc
       -0.038117386 -0.028402455 0.005981154 -0.021614283
0002e0 22 e2 17 bd 30 8b 48 bd b4 f3 ba 3c 1d 46 a4 ba
       -0.03708089 -0.048960865 0.022821285 -0.0012533102
0002f0 ba 6c 35 3d 3c ea 38 3c 42 31 82 bc 8d a4 99 bc
       0.044293143 0.011286315 -0.015892629 -0.018755222
000300 77 c5 9f 3d 49 9c 99 3c 29 b6 ad 3d eb 80 9d bd
       0.07801335 0.01875128 0.0848201 -0.07690605
000310 81 9b e6 bc fa 52 02 3d 93 ac 90 3b a9 34 56 bc
       -0.028150322 0.031817414 0.0044151037 -0.013074079
000320 e2 67 83 3d a5 30 82 bd ee 82 6d 3d 63 8a 1b bd
       0.064162984 -0.063569345 0.057986192 -0.037973773
000330 86 09 8d bd fb ca 77 3d ad 08 83 3d c7 0c 23 bd
       -0.06886582 0.06049631 0.06398139 -0.039807107
000340 29 ef 08 3d 9d ac 99 bd 3a 27 b4 3c 44 da 3b bd
       0.033431206 -0.075036265 0.021991361 -0.04586245
000350 75 99 d8 bc cf 37 94 bd 7d b1 4d bd 57 cf ad 3d
       -0.026440362 -0.07237207 -0.050218094 0.084868126
000360 29 2c 33 bc c0 78 95 bd aa 6d 75 bd bb 88 9a 3d
       -0.010935822 -0.07298422 -0.059919037 0.075456105
000370 83 61 48 3d 23 78 a5 3c 13 e7 1d 3d a9 1a 80 bc
       0.04892112 0.020198887 0.038550448 -0.015637713
000380 fe 8f 92 3d 70 80 ab 3d d3 20 35 3d 8f 7b e5 3c
       0.071563706 0.08374107 0.044220757 0.028013019
000390 86 63 16 3d 31 f9 c1 3b c5 97 0e bd 55 dd ff 3c
       0.036716007 0.0059195985 -0.034812707 0.031233469
0003a0 e5 16 3d bc 0c 57 01 3d 28 c8 f8 bc 33 76 7a bd
       -0.011541103 0.031577155 -0.03036888 -0.06114788
0003b0 25 08 04 bd a8 24 ba 3c 2c 85 ad 3d f3 74 89 3d
       -0.03223433 0.022722557 0.08472666 0.067117594
0003c0 d2 9a 01 3d e0 0d 70 bd 7c 66 9f bd b1 2a 39 bd
       0.03164179 -0.058606982 -0.07783219 -0.04520673
0003d0 98 a1 a0 3c a4 a2 91 3d 3e 47 0d 3d 65 c6 77 bc
       0.019608304 0.07111099 0.03449177 -0.015122985
0003e0 9d 4b fd bc bc 73 61 3c db 26 9e bc ba 1b 5e bd
       -0.030919844 0.013760503 -0.019305637 -0.05422566
0003f0 46 45 09 3d e1 85 60 bb 53 23 a6 3d ce aa 3c 3d
       0.03351333 -0.0034259486 0.08112206 0.04606133

lstm.bias_ih_l1 f4 [512]
000000 63 d0 58 bd ab f7 c3 bd a5 11 b6 3e 78 19 c5 3e
       -0.052933108 -0.09568723 0.35560337 0.38495994
000010 eb 81 cc 3e f6 3d c7 3e 5b ae 21 3f 76 c3 81 be
       0.3994287 0.3891446 0.6315667 -0.25344437
000020 fe d4 a9 ba 81 fe 46 be ee d2 f8 3c e8 96 0d 3f
       -0.0012957153 -0.19433023 0.030374017 0.5530839
000030 54 63 24 be 0d f8 b8 be fe 16 dc be 37 78 48 be
       -0.16053516 -0.36126748 -0.42986292 -0.19577108
000040 ff f1 0e bf 8e 94 63 bb 30 5a dd 3d b7 3e 99 3e
       -0.55838007 -0.0034725997 0.108082175 0.2993066
000050 8d 4e 1f 3d d7 97 31 bf 2f 6a 0b 3e d3 7f 0d 3b
       0.03889327 -0.69372314 0.13614725 0.0021591082
000060 fc b2 68 be ce 7a 96 be fa 14 92 3e 43 e4 67 be
       -0.22724527 -0.29390568 0.2853163 -0.22645669
000070 c8 0d 41 be 70 d6 82 3e bb 90 ae bd 96 a3 4d 3e
       -0.18852913 0.25554228 -0.08523699 0.20081934
000080 4a 6f 11 bf d6 39 04 3f f7 7c 0f 3f 36 64 c5 3e
       -0.5681044 0.5165075 0.56050056 0.38553017
000090 c3 ca b6 3d bb 11 c1 3e 9c b2 c9 be a2 f3 67 3d
       0.089253925 0.3770884 -0.3939408 0.05662883
0000a0 a7 d9 b8 bd 0f 56 43 3e 1c 08 60 3e 7c ca 0f be
       -0.09025889 0.19075797 0.21878093 -0.14042085
0000b0 7d 09 4a 3e 16 ec 28 bf 5e 4b f8 3e b5 18 d1 bc
       0.19730182 -0.6598524 0.48495 -0.025524477
0000c0 b1 d8 c0 be 5e 1e ed 3e 78 65 96 3e d9 94 22 be
       -0.37665322 0.4631223 0.2937429 -0.15877093
0000d0 8c bc 79 3d 08 7b df 3e 98 ea a7 be c5 62 19 3f
       0.060970828 0.43648553 -0.32796168 0.59916335
0000e0 72 5b b8 3e 14 e9 6a 3e d8 c8 55 3e bd 75 b7 bc
       0.36007267 0.22940475 0.20877397 -0.02239501
0000f0 58 5e df bd b8 41 b9 3e 8b 75 23 3e fe 95 0a 3f
       -0.109066665 0.36182952 0.15962808 0.5413512
000100 65 7e c6 3e 7d fc 39 3d d6 af 95 3e 27 d3 94 3e
       0.38768306 0.045406807 0.29235715 0.29067346
000110 a0 44 15 be b9 83 33 3e a5 01 9e 3e bf 28 1e bf
       -0.1457696 0.17530717 0.3086063 -0.61780924
000120 10 62 27 3f cc f6 8f 3e fd e4 97 be 8d f5 02 bd
       0.65384007 0.2811798 -0.29666892 -0.031972457
000130 68 5a ae 3e d2 03 01 be 03 5d cb 3e c8 b3 d7 3e
       0.3405335 -0.12599114 0.397194 0.4212935
000140 ee 02 e8 be 16 9e be 3e 2a 95 30 bd 3e 5f 29 3d
       -0.45314735 0.37229985 -0.043111004 0.041350596
000150 5c cc b2 be ed b3 9d be 63 1a 90 bd bc bb e2 bc
       -0.3492154 -0.30801335 -0.07036283 -0.02767741
000160 05 ed 9a 3c 32 43 b8 bc 44 c8 47 be c8 81 3f 3e
       0.018911848 -0.022492979 -0.19509989 0.18701851
000170 82 02 2c 3e ec 9b f6 3e d1 ee b3 3e d2 c6 76 3e
       0.16797832 0.48165834 0.3514314 0.24099281
000180 01 a5 b1 be a5 72 9a 3e a6 86 fb 3e 39 dd bd bc
       -0.346962 0.30165592 0.49126166 -0.023176776
000190 b8 ea bb 3c 6a a7 d4 be 4d 25 9b be c5 b2 4a 3e
       0.022939071 -0.41533977 -0.30301896 0.19794758
0001a0 a1 a2 86 3e eb 7f 89 3e d9 8e 81 be 8b 9b 88 3e
       0.2629595 0.26855406 -0.25304297 0.2668117
0001b0 43 28 00 3f dd 2f 01 3f 6e 6d b3 3e 17 b8 c4 3e
       0.50061435 0.5046366 0.35044426 0.384217
0001c0 91 a8 10 bd 79 b3 8a 3e 17 c4 a9 3e 26 41 0c 3e
       -0.035317007 0.27090052 0.33157417 0.13696727
0001d0 51 5d c6 3e db e1 61 be 43 1f 61 bc dc c5 52 be
       0.3874307 -0.22058813 -0.0137403635 -0.2058329
0001e0 c6 e3 b8 be 7d 8a e4 3e 08 8c 38 3f 61 c7 52 3e
       -0.36111277 0.44636908 0.7208867 0.2058387
0001f0 0d dd f0 be f9 2f 7d 3e 4a 23 1a 3f 8d f6 38 3e
       -0.47043648 0.24725331 0.60210097 0.18062802
000200 bb a6 8a bd 20 ff 7e 3c 0e 58 3e bc 5d 2a 6f bd
       -0.067700826 0.015563756 -0.011617674 -0.05839001
000210 b6 5f 2b 3d 9d ac 00 bd ea 29 77 bd 95 29 4f 3d
       0.041839324 -0.031414617 -0.060342707 0.050576765
000220 f6 4a 55 3c 66 9c 40 bd 6c 9c 16 bd 15 97 19 3d
       0.01301836 -0.047024153 -0.03677027 0.0374976
000230 86 a1 b4 bd 2e 5b 64 3d 27 2e 9b bd d9 40 97 3d
       -0.08819871 0.05575102 -0.07577162 0.073854156
000240 eb ef 61 3a 7f 14 20 3d 95 91 94 bd 8d 26 91 bb
       0.00086188194 0.039082047 -0.0725433 -0.0044296444
000250 7a cf ac bd d8 f0 d9 3b e7 12 c0 3c c8 f7 68 3d
       -0.084380105 0.0066510253 0.023446513 0.056876928
000260 d0 53 6a bd 77 b1 96 bd 84 5d 80 bd 87 6b 5a 3b
       -0.057208836 -0.073580675 -0.06267837 0.0033328251
000270 f1 aa 46 3d 1a 97 04 bd 3e a5 4a 3d 53 9c 33 ba
       0.048502866 -0.032370664 0.049473993 -0.0006851602
000280 f6 84 78 3d 5c 28 88 bd 78 ce b6 bc 58 79 bc bc
       0.060673676 -0.06648323 -0.022315249 -0.02300708
000290 3f d6 97 bd 87 0a b1 3d a4 20 86 bc 11 c5 a3 ba
       -0.07413911 0.08644586 -0.016372986 -0.0012494643
0002a0 7f 6a 86 bd 41 20 08 bd 4a d4 9b bc fb 86 d0 bc
       -0.06563281 -0.033233885 -0.019022126 -0.025454989
0002b0 53 a7 4d bc 4a 8c 9f bd f1 e9 9a bd ec b3 b0 3d
       -0.0125521 -0.0779043 -0.07564152 0.086280674
0002c0 8e 2f 92 3d c0 06 61 3b 3c 95 a2 bc 0a b7 a0 bd
       0.071379766 0.0034336299 -0.019846551 -0.07847412
0002d0 f7 79 22 bc 85 49 7e 3d 25 72 ae 3c ac 51 4a 3d
       -0.009916774 0.062081832 0.021294663 0.049394295
0002e0 73 e3 8c 3d ba ae 75 bd 0d aa a9 3d b0 62 6b bd
       0.0687932 -0.059981085 0.08284388 -0.057467163
0002f0 3c c9 fd 3c 75 27 3d bd d5 38 18 3b 6e 89 09 3d
       0.030979745 -0.046180207 0.0023227234 0.03357833
000300 6d b7 a8 3d ed 89 23 bd e0 ca d2 3c 50 99 50 3d
       0.08238111 -0.03992646 0.025731504 0.05092746
000310 d2 a3 47 bd 04 52 7a bd 51 ba 88 bd d0 a5 d3 bc
       -0.048740216 -0.061113372 -0.06676162 -0.025835901
000320 39 90 51 bd 12 17 a8 bd 06 ae 31 bd 64 e6 3c bd
       -0.051162932 -0.08207525 -0.043378852 -0.046118155
000330 1d 20 96 3c 25 ba 03 bd 32 74 20 bd cd 0f a8 bd
       0.01832586 -0.032159943 -0.039173312 -0.08206139
000340 14 ca 93 3c 04 a0 13 bd 33 ff a8 bd d9 97 77 3d
       0.018040694 -0.036041275 -0.082518004 0.060447548
000350 96 cf 23 3d 62 ec 24 bd 10 de 7b bd 9f 19 4a bd
       0.03999289 -0.040264495 -0.061491072 -0.04934084
000360 17 3e 7d 3d 18 88 86 3d 16 49 13 3d d6 a5 d3 3c
       0.06182679 0.065689266 0.035958372 0.025835913
000370 03 b3 b0 3c d8 41 a8 3d be 82 8a 3d b7 e6 a4 bb
       0.021569734 0.08215684 0.06763218 -0.005032386
000380 aa 14 ab 3d 49 f7 46 bc 66 43 bd 3b 1b 57 40 3d
       0.08353551 -0.012143918 0.005775857 0.04695807
000390 b0 4f 4d bd 0e 71 f7 bc 0c 55 73 bd 69 d0 50 3d
       -0.050124824 -0.030205276 -0.05940728 0.050980005
0003a0 a9 81 a2 bd eb 68 69 3d d9 e1 b6 bc 40 fc 7a bd
       -0.07934887 0.056984823 -0.02232449 -0.06127572
0003b0 77 0a 30 bd 56 7b aa 3a 80 b4 e5 bb f4 3b 6d bd
       -0.04297873 0.0013006728 -0.0070100427 -0.057918504
0003c0 45 fb a1 bd 41 4d 7c bd ae 69 5d 3a ed 81 60 bd
       -0.07909254 -0.061597113 0.00084462285 -0.054811407
0003d0 45 cc ab 3d 30 fc 1b bd 7e 94 87 3d 7e 16 20 3c
       0.08388571 -0.0380823 0.066201195 0.009770988
0003e0 1a 87 ce bc d4 f6 b0 bd 02 f3 a4 3d 91 9a 3e 3c
       -0.025210906 -0.08640829 0.080541626 0.011633531
0003f0 30 87 82 3d 0c 34 12 bc 29 e5 88 3d 80 04 8b bd
       0.06373441 -0.008923542 0.06684334 -0.06787968
