pythorch saved models/LSTM_AE_classifier.pt (torch, 936993 bytes, 10 tensors)

lstm.weight_ih_l0 f4 [512, 64]
000000 6b 2e 42 bf b3 d9 d7 bd 5b 50 5a be ad 3b 86 3e
       -0.7585208 -0.1053957 -0.21319716 0.26217404
000010 b2 5b 25 3f 12 ae a0 be 52 48 04 be 4e 8b 12 be
       0.6459304 -0.31382805 -0.12918213 -0.14310953
000020 7c 46 05 3f a7 d1 d3 be 0d df a7 3d c7 76 a9 be
       0.52060676 -0.4137089 0.081968404 -0.33098432
000030 52 44 29 be 6a ba 86 3e 4d 7a 02 be 08 3f 14 3e
       -0.16529968 0.26314098 -0.12741967 0.1447717
000040 00 29 9f be 75 96 06 be be 56 0b be 49 3e 9f 3d
       -0.31085968 -0.13143332 -0.13607308 0.07775552
000050 b4 f0 27 bd 27 ce 2c 3e 6b 31 00 be 5e 26 77 3e
       -0.041001037 0.16875516 -0.12518851 0.2413573
000060 e5 d9 05 bf cc 88 81 3e 32 e7 ba 3d ec 50 9a 3d
       -0.52285606 0.2529968 0.09126128 0.07534966
000070 20 1d 64 3d 3c 24 8f 3c a1 0e 2a bd 4e 0c 32 be
       0.05569184 0.017473333 -0.041517857 -0.17387506
000080 80 cb 5a bd 48 53 8f be f6 fd fc 3e 65 45 f1 bd
       -0.05341673 -0.27993226 0.49412507 -0.11780814
000090 2f be 15 3d ca 62 b7 bd 5b fa a8 3e ec de c4 3e
       0.036558326 -0.089543894 0.33003506 0.38451326
0000a0 88 6b 31 be a0 0f 80 bf 15 ee 63 3e 7d 62 b0 be
       -0.17326176 -1.0004768 0.2225879 -0.3445014
0000b0 df 66 a3 3e b4 d1 cf bd e2 75 e3 be 5a d7 5a 3e
       0.31914422 -0.101474196 -0.44425875 0.21371213
0000c0 f3 65 9f be c8 50 b8 3e ac 01 bc 3d 43 2e 1f 3e
       -0.3113247 0.3599913 0.091800064 0.15544991
0000d0 de 3e 03 3e bc de 66 bd d5 c1 9a bb c0 2d 14 bc
       0.1281695 -0.05636476 -0.0047228136 -0.009044111
0000e0 25 5e ef bd 0c 96 44 3e 1e da ff 3e 61 ae 8e bb
       -0.116878785 0.19197863 0.49971098 -0.0043542837
0000f0 14 d9 d0 bd 5e c2 65 be 76 75 3f 3e 4e 8b 88 bd
       -0.10197654 -0.22437426 0.18697152 -0.06667195
000100 11 90 00 bd 08 7c 28 3f 2d 2e e7 3e 00 bc b7 3e
       -0.031387392 0.65814257 0.45152417 0.3588562
000110 d1 4f 55 be 17 9d 94 be 0d 15 93 3e 0e 77 12 bd
       -0.20831229 -0.290261 0.28726998 -0.03575807
000120 27 1f 0e bf b3 8b 67 3d 06 69 22 be f2 55 5c bc
       -0.55516285 0.056529712 -0.15860376 -0.013448225
000130 c0 9e 76 be 3e 1c 03 bf 77 ea 24 3e ff 72 9e 3e
       -0.24083996 -0.5121497 0.16105066 0.3094711
000140 33 f8 23 3d 36 8e d9 bd 0b c7 4c 3e c3 95 ea bd
       0.040031623 -0.10622828 0.19997804 -0.11454346
000150 e9 04 f5 3d 51 0b b2 3d 93 9a 4a 3e 17 5a 10 3e
       0.11963827 0.08693565 0.19785528 0.14096867
000160 ce ad be be ad 87 fc bd 1c 04 ca 3d b9 f1 a7 3d
       -0.37241977 -0.123305656 0.09864065 0.08200402
000170 63 b0 cd bd 6f 00 6d bd 6c 3d bb 3d 1d 72 16 be
       -0.10043409 -0.05786174 0.09142575 -0.14691968
000180 30 f8 89 be db 79 07 3e 6b 99 12 3f 92 41 8e bd
       -0.26947165 0.13230078 0.5726535 -0.069461
000190 84 0e 23 3c dd d6 b0 3e ea 11 d6 3d c7 f5 ca bc
       0.009952191 0.34538928 0.104526356 -0.024775399
0001a0 99 68 9a 3e 9c 69 78 bd 9c 79 44 be a8 44 0f 3f
       0.30157927 -0.060647592 -0.19187015 0.55964136
0001b0 02 e4 fb bc cf 2f 90 bd 28 29 4b 3d b6 9f 0d bf
       -0.030748371 -0.07040369 0.049599797 -0.55321825
0001c0 d1 46 4f be 80 2e 96 be ce 8a 50 be 15 50 38 be
       -0.20241858 -0.29332352 -0.2036545 -0.17999299
0001d0 a4 de 0c be ac f0 b2 3e 3c 02 36 be 1e f1 86 3c
       -0.13756806 0.34949243 -0.1777429 0.016472396
0001e0 e6 ed 34 bd e3 31 b2 bd 36 d5 2f 3e 44 ba cc bd
       -0.04417219 -0.087009214 0.17171177 -0.09996465
0001f0 16 57 a3 be cb 44 b4 3e b2 c9 e0 3e ff 29 17 be
       -0.3190238 0.35208735 0.4390388 -0.14762114
000200 85 ba 6a 3e 69 26 31 be b1 71 a6 3e 77 d4 2e 3b
       0.22922714 -0.17299809 0.32508615 0.0026676932
000210 4e 96 a9 3e cb e7 17 3e 58 f9 1c be b2 8b e3 3c
       0.33122486 0.14834516 -0.15329492 0.027776573
000220 d7 f3 06 3e 7d 05 52 3e a4 7d 89 bd 98 cc a5 be
       0.13178955 0.20509906 -0.06713417 -0.32382655
000230 a3 a0 4e bc 4f 01 e5 bd 0e 26 9b 3e 08 e6 23 3d
       -0.012611541 -0.1118189 0.3030247 0.040014297
000240 2d b9 8d 3e 50 5e 04 be 4d 24 e5 be ef a1 82 be
       0.2768034 -0.12926602 -0.44754258 -0.2551417
000250 c1 b8 cf bd de b8 6b bd bb 33 09 3e 40 c1 46 bc
       -0.10142661 -0.05754935 0.1339864 -0.012131035
000260 a6 71 0c 3f f6 b5 b5 be 62 ad d2 be 86 0a 21 be
       0.54860914 -0.35490388 -0.41147906 -0.1572667
000270 bf cc 59 be 86 30 0d 3f 89 67 09 3d 3e ce 05 bd
       -0.2126951 0.55152166 0.033546004 -0.03266739
000280 f0 7c b2 3d 42 09 14 3e a3 5d 9d 3e bc 66 e9 3c
       0.08715236 0.14456657 0.30735502 0.02849137
000290 2d 05 e9 3d ab 0e 2b 3d 00 d5 90 bd ce 16 08 be
       0.1137794 0.041762035 -0.070718765 -0.1328995
0002a0 d7 a4 4d 3e 0d 6d be 3e f9 dc 10 3e 4b 87 90 3c
       0.20082413 0.37192574 0.14146794 0.017642638
0002b0 c0 ab 3d 3e c4 11 04 3d ed f4 0b be 20 8a 2f 3d
       0.18522549 0.032243505 -0.1366765 0.042856336
0002c0 56 03 b7 3b 2e 1f 82 be 78 0f 17 bd 89 25 2e bd
       0.0055851145 -0.25414413 -0.036879987 -0.042516265
0002d0 7f d6 8e be 64 b5 13 3e c6 c5 ce 3e f9 c6 00 bd
       -0.27898023 0.14424664 0.40385264 -0.031439755
0002e0 c8 08 10 bd af 04 00 bf 63 ec 48 3e 5a 3e df 3d
       -0.035164624 -0.50007147 0.19621424 0.109005645
0002f0 1f 7c a9 bd 0d d9 18 bd f6 93 6f be 54 74 70 bd
       -0.08275627 -0.03731637 -0.23396286 -0.05870469
000300 f0 6d e0 3d 8f ad d4 3c 63 1a bf 3e 99 6f df 3e
       0.10958469 0.025961665 0.3732482 0.4363983
000310 7d df 38 3e a1 38 23 be fd 7f 9d 3e f1 72 32 3d
       0.18054004 -0.15939571 0.3076171 0.043566648
000320 e3 ee 84 3e 83 3f 52 3e 65 62 37 3e b0 68 8f be
       0.25963506 0.2053204 0.17908628 -0.28009558
000330 c7 8b d0 bd 35 4a 48 be 33 a9 bf 3b 15 e1 f3 3d
       -0.101829104 -0.19559558 0.0058490275 0.11908165
000340 29 b8 11 3e 3b 8b bd bd 66 5f 8b bc b9 5f 64 3d
       0.14230408 -0.09255072 -0.017013263 0.05575535
000350 77 73 6f 3c 38 4b 8f 3c ff 3a 67 3e 5d f5 3a 3c
       0.014614931 0.017491922 0.22581099 0.011411038
000360 94 8e b4 3e c0 ec e7 be 5d 8e 09 be 1b d8 9d bc
       0.35265028 -0.45297813 -0.13433214 -0.019268086
000370 02 59 08 be bd eb f7 bd e2 86 8c 3d dd b8 52 3d
       -0.13315204 -0.121055104 0.06861664 0.05144583
000380 2c 0b b5 bd 6f 77 63 bd 1e 75 ce 3e 52 fe ed bc
       -0.088400215 -0.055533823 0.40323728 -0.029051933
000390 25 5a 2f be 44 28 ab 3e 4e 65 92 3d db a3 b1 bd
       -0.17124231 0.33429158 0.071482286 -0.08673831
0003a0 32 1c 62 3d 71 ec 29 be d9 79 f1 ba 15 6e 1c 3e
       0.05520267 -0.16594101 -0.0018423154 0.15276368
0003b0 27 43 9f ba 47 41 11 be d2 12 da 3d 65 90 9e b9
       -0.001215075 -0.14185058 0.10648121 -0.0003024369
0003c0 03 72 46 bd 0f 87 4d be 6c 41 d6 bd 16 58 fd 3d
       -0.048448574 -0.20071052 -0.10461697 0.12370317
0003d0 57 26 45 be 1d 11 3a bd fe 83 ab 3e 0a a0 6c 3e
       -0.19252907 -0.045426477 0.3349914 0.23107925
0003e0 70 83 95 bd 19 a8 48 be f7 2b 12 3d 87 40 5d bd
       -0.0730046 -0.19595374 0.03568646 -0.054016616
0003f0 1c b1 15 be 80 7d f9 bd 0d 38 2b be b0 74 df be
       -0.14618343 -0.1218214 -0.167206 -0.43643713

lstm.weight_hh_l0 f4 [512, 128]
000000 d0 90 e1 ba 8b 97 93 bb 7b 34 e3 bc 24 d7 3f bd
       -0.0017209295 -0.0045041493 -0.027734986 -0.046836033
000010 00 a5 b9 3b 9d 72 a8 bd f2 a8 90 bd 47 92 8c bd
       0.0056654215 -0.08224986 -0.07063474 -0.06863838
000020 f6 5a ff bc 3b 32 3f 3d 39 81 9b bd 73 24 5f bd
       -0.031171303 0.046678763 -0.07593007 -0.05447812
000030 27 b9 91 3d ea bf ac 3d d8 62 34 bc 30 30 27 3d
       0.07115393 0.08435042 -0.011009894 0.04081744
000040 13 2b 0e 3d 85 fa 8e 3c 17 02 65 bc dc ce 9c 3d
       0.034709048 0.017453441 -0.013977549 0.07656643
000050 6f 03 8a 3d b9 58 b0 bd ca b4 0f bd c1 b2 b3 3d
       0.06738936 -0.086106725 -0.035084523 0.08774329
000060 b0 e0 58 3d fe ff 07 3c 20 6b 8f 3c 46 ac de 3c
       0.052948654 0.008300779 0.017507136 0.027181756
000070 b8 ef 89 3d bd 9e a1 bd 5d 8b a9 3b 42 37 84 3d
       0.06735176 -0.07891605 0.005174084 0.06455852
000080 56 91 a9 bd 06 b3 6d 3d 76 11 6d bd 64 93 1d 3d
       -0.08279674 0.05803206 -0.05787798 0.03847064
000090 12 f1 4c 3c 63 66 00 3c e9 10 bc bc 0e f0 93 bd
       0.0125086475 0.007836911 -0.022957282 -0.07223521
0000a0 a2 d4 8c 3d 1e ed a5 3d d1 2a aa 3c 7c 5b 45 ba
       0.06876494 0.08101867 0.02077237 -0.0007528586
0000b0 a7 db b8 3b 40 9d 68 bd 05 25 a2 3d b6 cb 1a bd
       0.005641419 -0.05679059 0.07917217 -0.03779193
0000c0 ae 28 57 bd 9f 85 1c 3d 05 fb 6c bd 57 59 19 bd
       -0.05252903 0.03821337 -0.05785658 -0.037438717
0000d0 ed 19 47 3d 8c 2c 44 3d 8e 53 f7 3c f7 9e 55 bd
       0.04860871 0.047894046 0.03019121 -0.052153554
0000e0 d0 f1 9a bd e2 8a c5 bc ce 0e 9b 3d db f1 e7 bc
       -0.07565653 -0.024114076 0.07571183 -0.028313568
0000f0 40 86 22 3c cf 88 3c bc 01 3a 90 3d 77 ae af 3c
       0.009919703 -0.011507227 0.07042313 0.021445496
000100 4c 0e 5d bd f5 a5 ea bc e1 3e aa bd bf b7 87 3d
       -0.053968713 -0.028643588 -0.083127744 0.06626844
000110 c7 6f 70 3d 31 bb 4b bd 32 60 99 bd a2 2c e4 bc
       0.05870035 -0.049739067 -0.07489051 -0.027853314
000120 42 3a 39 3d 5d 80 15 bd 5d 3e b0 ba ab e5 91 bc
       0.045221575 -0.03649937 -0.001344632 -0.01780971
000130 91 0b af bc 07 bd 20 bd f2 ed ac 3d 7d 4c 85 bc
       -0.02136782 -0.03924277 0.08443822 -0.016271824
000140 80 b7 f3 3c 6d 86 87 bd 4a 29 fa 3c 8a c9 d4 bc
       0.029750586 -0.066174366 0.030537266 -0.025975008
000150 7e 77 9b bd 9a c5 ae 3d 2e 75 83 bd 1a 8c a1 3d
       -0.07591151 0.08533783 -0.064188346 0.078880504
000160 5f e5 43 3d 79 7b 9d bc 03 cb 7b bd b9 e0 77 3d
       0.047826167 -0.019223915 -0.061472904 0.060517047
000170 10 c5 80 bd fc 63 47 3d 2b 57 21 3b 62 92 a6 3c
       -0.06287587 0.048679337 0.0024618607 0.020333473
000180 6b 96 a0 bd c5 47 6e 3d fd 94 9f 3d d1 b2 ad 3d
       -0.0784119 0.058173914 0.07792089 0.08481372
000190 ec 99 c7 bc c8 2a 92 3d 3d 99 a4 bd 31 a1 8c bc
       -0.024365388 0.07137066 -0.080370404 -0.017166706
0001a0 b3 87 17 bb 23 62 7e 3d 51 56 47 3d 4a 29 a9 3d
       -0.0023121655 0.06210531 0.048666302 0.082598284
0001b0 af 68 1c 3d 24 68 ab 3d 7f 69 d6 bc b4 15 45 3d
       0.03818577 0.083694726 -0.026173351 0.0481164
0001c0 c8 bd 52 3d 6e 5c 5b 3c 01 33 9d 3d 33 e4 d2 3c
       0.05145052 0.013388736 0.07675744 0.02574358
0001d0 28 78 89 3d 5c 70 cb 3c 14 7e 3d 3d 28 28 8c bd
       0.06712371 0.02483385 0.046262816 -0.06843597
0001e0 e2 53 52 bb 0d ea 74 bd 6d 2f c9 bc ba b8 f9 bb
       -0.0032093455 -0.05979352 -0.024558747 -0.007620898
0001f0 10 99 8f bd 0d 61 7a bd 59 77 aa bd 1f 75 49 3d
       -0.07011616 -0.06112771 -0.08323545 0.04918396
000200 9a 49 ad bd 5d 34 8d 3d bd 2f 5d bc a8 60 fc 3c
       -0.08461304 0.06894753 -0.013500151 0.030807808
000210 4e 63 92 bd c0 8c 08 3d 59 64 a1 bd 42 a5 38 3d
       -0.07147847 0.033337355 -0.07880468 0.045079477
000220 16 f6 52 bd c0 ca 03 bd d9 13 45 3c e2 d7 1d bc
       -0.051504217 -0.03217578 0.012028658 -0.00963399
000230 9b 7f 8e bd c8 c6 38 3d e1 b6 b0 bd b7 f0 95 bd
       -0.069579326 0.045111448 -0.086286314 -0.07321303
000240 9d 0e 1a 3d 6d fc 8a bd 91 cc 19 3d d6 8b 47 3d
       0.037611593 -0.06786428 0.037548605 0.048717342
000250 31 ee 86 3d de b6 ac bd b6 ba 78 bd 5e c6 2a 3d
       0.065884 -0.08433317 -0.060724936 0.041693084
000260 27 62 89 3d 3b 97 df 3c 44 b1 9a bd 8d e7 fd bb
       0.06708174 0.027293792 -0.07553342 -0.0077485503
000270 36 4b 4b bd f2 da 16 3d 10 c3 8b 3d 85 52 09 bb
       -0.049632274 0.036829896 0.068243146 -0.0020953726
000280 02 c8 92 3b d0 ac e5 3c 8f 00 8f bd d8 f9 99 bb
       0.004479409 0.028036505 -0.069825284 -0.004698973
000290 de e9 ed bc b4 ae a0 bd 06 51 9d bd 7c 2e 54 3c
       -0.02904218 -0.07845822 -0.076814696 0.012950536
0002a0 7f be 5b bc 23 cc 2e bd bd 64 9c 3c c3 e4 54 3d
       -0.013412117 -0.04267515 0.019091005 0.051975977
0002b0 44 8a b1 3d 0d bd bb bc 3c 0c 9a 3d 13 06 42 3d
       0.0866895 -0.022917295 0.07521865 0.047369074
0002c0 e1 a2 74 bd d1 4e 94 bd 0b 8d 27 3d 91 c9 3e 3d
       -0.059725646 -0.072415955 0.040905993 0.046578947
0002d0 08 02 ec bc b5 bf 5c bd f0 2e a9 3d 57 9d 55 bd
       -0.028809562 -0.053893764 0.08260906 -0.052152004
0002e0 be d1 b0 bd 8d 72 9f bd 33 2b 0f bd d1 5f 7c 3b
       -0.08633755 -0.07785521 -0.034953307 0.003850926
0002f0 ac 7d a7 3c 9e 7c 76 bb 42 eb 2c 3d 63 bf 02 3d
       0.020445667 -0.0037610899 0.042216547 0.0319208
000300 f6 c1 47 b7 de 1d 97 3d 4f b8 b2 bd 8a d4 07 3d
       -1.1906484e-05 0.073787436 -0.0872656 0.033161677
000310 8c a7 ab 3c f5 0d 19 3d 84 aa 36 bd 20 32 ff bb
       0.020953916 0.037366826 -0.04459621 -0.007787958
000320 b1 75 b1 bd f1 05 a9 bd 47 59 5e bd 4e f4 af bd
       -0.08665026 -0.08253086 -0.05428436 -0.08591519
000330 79 58 a2 3d 0b cc f4 39 a8 67 20 bd 81 75 82 bd
       0.07927031 0.0004669133 -0.039161354 -0.06370068
000340 1a f5 a4 bd 0f db 09 bd f1 41 0e 3c f4 3b b3 bd
       -0.08054562 -0.033656176 0.008682714 -0.087516695
000350 96 06 a9 3d 9a 0c 98 3d c3 5d 2c bd 0e 72 bb bc
       0.08253209 0.074242786 -0.042081606 -0.022881534
000360 c5 93 1f bc ee c0 26 3d ae e4 53 3c 75 bf 5b 3d
       -0.009739821 0.040711336 0.012932939 0.053649385
000370 be d8 2a 3d 58 0f 98 bd ee 50 b0 bd d7 02 b7 3c
       0.041710608 -0.074248016 -0.08609186 0.022340221
000380 b6 cd b2 3d f9 8e 19 3d e0 05 64 3c 8c d6 b4 bb
       0.087306425 0.037489865 0.013917416 -0.00551874
000390 1b 7e ae bd b9 63 72 bd a0 e5 ae 3c 36 21 1a 3d
       -0.085201465 -0.059177134 0.021349728 0.03762933
0003a0 39 69 92 bd 0d f2 2f 3d e6 62 b2 3d 4e 58 8b bd
       -0.07148976 0.042955447 0.0871027 -0.06803952
0003b0 58 f4 f9 bc b7 f3 49 bd 60 19 9a bd 42 ea 73 bc
       -0.03051202 -0.04930469 -0.07524371 -0.014887394
0003c0 0e 1f 42 bd f2 e9 94 3d 0d 9b 53 bc bd e2 f4 bc
       -0.047392897 0.07271184 -0.012915385 -0.029893273
0003d0 9a 69 93 3c df cb 47 3d 5b ae 99 bd 74 cd 29 3d
       0.01799469 0.04877841 -0.07503959 0.0414557
0003e0 72 d0 8a bd e3 d6 08 bd 27 d5 6f 3c 22 eb 5b 3c
       -0.06778039 -0.033408057 0.014638222 0.013422759
0003f0 ff ae 2b bd b5 f9 87 bd c6 66 87 bc ea 11 0c bc
       -0.041914936 -0.06639425 -0.016528498 -0.008549193

lstm.bias_ih_l0 f4 [512]
000000 4f 40 7c 3b 0c 2a 45 be a9 90 c6 bd d1 14 79 be
       0.003849048 -0.19254321 -0.096955605 -0.24324347
000010 d6 15 2d 3f 3d 26 a7 bd 5a 61 a2 3d 52 8c f1 bd
       0.67611444 -0.0816159 0.079287246 -0.11794342
000020 b9 b0 88 3d 1b 65 9a be 87 c1 85 be a7 3f 8c 3e
       0.06674332 -0.30155262 -0.26124212 0.27392313
000030 0c 8e 83 be bf 0a 18 3e 12 51 7f be ae a8 01 be
       -0.2569431 0.1484785 -0.2493327 -0.12662002
000040 21 5e b3 3e 3e 8d bf 3d d5 ac 97 3d 55 ad 51 be
       0.35032752 0.09353112 0.07406012 -0.20476277
000050 b1 dd c6 be bc 23 5f be e4 63 bb 3d a8 81 63 3e
       -0.38841012 -0.21790975 0.09149912 0.22217429
000060 00 c8 d0 bc db 62 82 be 96 d1 1c bf 99 63 21 3f
       -0.025485992 -0.25466046 -0.612573 0.630426
000070 50 31 03 bf 67 91 ca 3c a8 3c 22 3e b6 45 9a 3e
       -0.5124712 0.024727536 0.15843451 0.3013131
000080 2b 1e 73 be 00 ce 4a be d8 3b 06 3e 79 8d 98 be
       -0.23741977 -0.19805145 0.13108766 -0.29795435
000090 cc 2e 32 3f c9 1f 19 3f 57 00 c4 bd 24 ba d2 3e
       0.69602656 0.59814125 -0.09570377 0.4115764
0000a0 18 e7 e0 3d ee a6 c7 bd cd e2 ec 3d 13 51 9b bd
       0.10981578 -0.09748636 0.11566696 -0.07583823
0000b0 b1 3d f5 bd ac 70 64 be bc 16 a8 bb 88 72 86 3e
       -0.11974657 -0.22308606 -0.0051296633 0.26259255
0000c0 b0 7a fe 3e 09 e2 74 bd 82 56 71 be 6e a1 85 3e
       0.49702978 -0.059785876 -0.23568156 0.26099724
0000d0 39 ea 0e 3d ac 13 d8 3c e0 3c 99 3d 10 93 0d 3e
       0.03489134 0.026376568 0.07482314 0.13825631
0000e0 c1 b3 d0 3e 01 ea 7d 3d ae 66 4c be 83 75 87 be
       0.4076214 0.06199074 -0.19961044 -0.26456842
0000f0 80 0c 18 bd 8b 97 55 bd 15 1f c5 3e aa 2d 09 be
       -0.037121296 -0.052146476 0.38500276 -0.13396326
000100 24 e2 64 3d b6 e5 c1 3e 53 21 1d be ba b0 d5 3e
       0.055879727 0.37870568 -0.15344743 0.41736394
000110 3a 7b 47 be 83 eb 96 bd 52 5a 2a be af ec c1 be
       -0.19480601 -0.07369139 -0.16636017 -0.37875888
000120 e5 4b a6 be 0d 4b eb 3c ce 54 83 3e 1f 06 79 be
       -0.32479778 0.02872231 0.25650638 -0.24318741
000130 ab c3 af 3e 25 7b fa bd 2a fc 0c bf ae b4 36 3e
       0.3432897 -0.12230519 -0.5507227 0.17842361
000140 56 68 b0 3e e4 5f a2 bd a1 cc e8 bd b9 db 75 3c
       0.34454602 -0.07928446 -0.11367155 0.015005999
000150 c7 49 c1 3e 93 37 9f 3d 3e 47 8a be a8 2d 26 3f
       0.377516 0.07774272 -0.27007478 0.64913416
000160 81 84 99 3e 23 74 d3 bd 11 06 8a 3e 67 cc 8d be
       0.29983905 -0.10324886 0.26957753 -0.2769501
000170 d1 63 db 3c 09 b6 bf 3c 5d 65 74 be 0b e1 94 be
       0.026780995 0.02340223 -0.23866792 -0.29077944
000180 6b 21 3d 3d 36 67 44 be e6 70 3b be 4e f1 2e 3d
       0.046174448 -0.19179997 -0.18304786 0.042710595
000190 58 61 72 be c6 b4 e3 bc 3a 70 85 3e 76 ee fd 3d
       -0.23669946 -0.02779616 0.26062185 0.123989984
0001a0 b0 39 82 be 02 16 84 3e 53 91 7a be 24 d2 44 be
       -0.25434637 0.2579804 -0.244695 -0.19220787
0001b0 09 32 57 3e 08 e1 75 be 04 0b f2 3e 21 27 6d 3d
       0.2101518 -0.24011624 0.4727403 0.057898644
0001c0 20 e4 0c 3f 15 23 87 3e 0c 41 52 3d ab 71 f5 be
       0.5503559 0.26393953 0.051331565 -0.47938284
0001d0 c9 3e 25 bd 37 28 a5 3d 84 c5 02 bf 68 21 a9 bd
       -0.04034308 0.08064311 -0.51082635 -0.08258325
0001e0 e0 77 23 3f da a5 fd 3e be 69 33 3e be cd d7 be
       0.6385479 0.49540597 0.17520806 -0.42149156
0001f0 01 a0 d8 bd d0 5b d4 3c 1f aa 86 be f3 91 bb bb
       -0.10577393 0.025922686 -0.26301667 -0.0057241856
000200 36 8e 1b 3d bc 10 ff bc ca 58 30 bc dc 31 01 bd
       0.03797742 -0.03113591 -0.010763356 -0.03154169
000210 7e a6 7c 3d fa 8d 85 3d 4d d8 2c bd 5b 3b 94 bd
       0.061682217 0.065212205 -0.042198468 -0.07237884
000220 d0 a5 92 bd 57 6d 71 3d dc 4e a6 bd 12 4d 7f bd
       -0.071605325 0.058942165 -0.0812051 -0.06232936
000230 2a 2b 18 bd 22 19 05 bd 7e 67 4c bb 61 7b e5 3c
       -0.03715054 -0.03249467 -0.0031189616 0.028012933
000240 6a 3a 67 bd ef 0e 99 3d 0b 23 a9 bc a1 fe a2 bd
       -0.056452192 0.074735515 -0.020646593 -0.07958723
000250 3a a3 a4 bd 68 b3 5b 3c 2f ca 90 bd d4 73 18 bd
       -0.080389455 0.013409473 -0.070698135 -0.037219837
000260 df 7f 27 bd 42 41 60 3d 1e 8b 58 bd 21 c1 9f 3d
       -0.04089343 0.054749735 -0.052867047 0.07800508
000270 29 ec c8 bc c8 26 d2 3c ab 2c 4c bd 19 5f 08 3c
       -0.024526672 0.025653258 -0.049847286 0.008323454
000280 3c 3b 87 bd 2b 64 a8 bc 2c 93 92 bd 87 7d 9b bd
       -0.06603095 -0.020555576 -0.07156977 -0.07592302
000290 89 cb 07 3d 5c e8 a7 bd a7 b1 1d bd 5e 68 11 3d
       0.03315309 -0.08198616 -0.0384995 0.035499923
0002a0 05 5c a8 3d 38 f5 92 3c f1 93 86 bc 96 ec 19 3d
       0.08220676 0.017939195 -0.016427966 0.03757914
0002b0 7d 62 97 bb 7b 57 96 3d c4 ea fb bc bb f7 db bc
       -0.004619895 0.07340904 -0.030751593 -0.026851526
0002c0 c5 65 d4 3b 52 9a b0 3d b8 c9 64 bd 06 70 aa 3d
       0.0064818584 0.08623184 -0.055856436 0.08322148
0002d0 2c 37 0e bd dc 93 b1 bd 22 65 f1 3c 7b fe 9a bd
       -0.034720585 -0.0867078 0.02946717 -0.075680695
0002e0 5d 6f 08 3d b0 ce 4e bd 6d c1 9e bd b0 f8 66 3d
       0.03330933 -0.05049008 -0.07751737 0.05638951
0002f0 4f 0d 01 bc 56 fc a2 3b 28 dc 84 3d a1 d9 b1 bd
       -0.007876708 0.0049739284 0.06487304 -0.086840875
000300 c1 5a 3d bd 08 00 ee bb a2 c3 29 3d 41 b6 6e bd
       -0.046229128 -0.0072631873 0.041446336 -0.05827928
000310 03 5d c5 bc 5d 73 94 3d e8 2b 99 bd 24 e7 9b 3b
       -0.024092203 0.07248566 -0.074790776 0.0047577787
000320 1a 62 8d bd b3 da 8f 3d 53 10 95 bd bc b5 81 3c
       -0.06903477 0.070241354 -0.07278504 0.015833728
000330 c6 e1 1a bc 72 77 44 3b 73 1e a0 3b e3 6c 5c 3d
       -0.009453243 0.0029978422 0.0048864423 0.05381478
000340 3f d4 d2 bc d9 c6 64 bd 90 27 dd bb 96 64 28 bd
       -0.025735972 -0.0558537 -0.006749101 -0.04111155
000350 fb 06 29 3d 0f 33 8d bd c6 ce 74 bd a9 f7 81 bd
       0.041266423 -0.06894504 -0.059767507 -0.063460656
000360 b8 48 2b bd de dc 05 bb a5 9d 73 3d bc cf a5 bd
       -0.041817397 -0.0020425837 0.059476513 -0.08096263
000370 2c f3 84 3d 50 cd 94 3d 6e 57 88 3c 91 b4 b4 bd
       0.06491694 0.07265723 0.016643252 -0.08823503
000380 9b f9 a5 bb 31 c7 51 bd e0 70 45 bd 05 e7 e0 bc
       -0.0050651557 -0.051215354 -0.04820335 -0.027453909
000390 fe ac 3a 3d f7 8d 50 bd 34 8c 84 3d 59 f4 48 3d
       0.045575134 -0.05091664 0.06472054 0.049061153
0003a0 fe 07 9a bd 2d ef cf 3c 97 cf 31 bd 2a 32 23 bc
       -0.07521056 0.025382603 -0.043410864 -0.0099606905
0003b0 8e 35 56 3d a7 74 78 3c ab d6 80 3d 69 77 1e bd
       0.052297167 0.015164531 0.06290945 -0.038688097
0003c0 94 6e 0e bc a6 79 a3 3c 87 ca 2b bd 28 a4 7d bc
       -0.008693356 0.019955467 -0.041941192 -0.015481032
0003d0 92 f4 df bc 77 11 82 bd 24 ab 68 bb 8b 29 28 3b
       -0.0273383 -0.063509874 -0.0035502398 0.0025659527
0003e0 1e 33 51 bc de 5f 26 3a 67 af 0c 3d 38 30 87 bd
       -0.012768535 0.0006346683 0.034346964 -0.06600994
0003f0 28 d2 39 bd d6 b0 8d 3d 5f 22 85 3c 0d 03 74 bd
       -0.045366436 0.069184944 0.016251741 -0.059573222

lstm.bias_hh_l0 f4 [512]
000000 70 25 45 3d c7 d1 90 be 82 dc b6 bd 4c 16 51 be
       0.048131406 -0.28285047 -0.08928777 -0.20418662
000010 87 af 1f 3f 18 74 d2 bd 4b 9b 99 3d 8d 8d b1 bd
       0.6237721 -0.102760494 0.07500323 -0.08669577
000020 81 82 ef 3c 82 65 26 be 16 66 7b be 88 85 b3 3e
       0.029237034 -0.1624966 -0.24550661 0.35062814
000030 0d 27 88 be f1 b0 3c 3c db 7e 5a be 33 7e c5 bd
       -0.26592293 0.0115167955 -0.21337454 -0.09643211
000040 cf 26 d9 3e b3 28 37 3d 8a 78 14 3e 31 0f 23 be
       0.4241242 0.04471655 0.14499107 -0.15923764
000050 13 a3 ad be c4 d6 ff bd ec 98 28 3d 88 57 5a 3e
       -0.33913478 -0.12492135 0.041161463 0.21322453
000060 32 39 e5 bd 72 1b 4b be c8 f8 29 bf b0 40 04 3f
       -0.1119255 -0.19834688 -0.66395235 0.51661205
000070 a1 90 e9 be 35 30 cb bd 00 68 26 3e fd 15 59 3e
       -0.45618156 -0.09921304 0.1625061 0.21199794
000080 85 6d 20 be f3 f6 a0 bd 70 d2 87 3d 83 99 99 be
       -0.15666778 -0.07859602 0.06631935 -0.29999933
000090 e4 05 1f 3f 63 d2 19 3f f3 04 95 bd c1 34 c7 3e
       0.62118363 0.6008665 -0.072763346 0.38907436
0000a0 2d ab c3 3d 26 92 99 bd 06 40 4c 3e 42 24 f0 3c
       0.095541336 -0.07498579 0.19946298 0.029314164
0000b0 0e bc 01 be bd 68 90 be 39 3c 56 bc cb e1 97 3e
       -0.12669393 -0.2820491 -0.013075882 0.29664454
0000c0 e1 d9 02 3f f4 04 a4 bd d0 5c 77 be 70 a4 89 3e
       0.51113707 -0.08008757 -0.24156499 0.26883268
0000d0 d8 be cc bd 78 b6 0e 3d 3b 7d 38 bd 38 88 31 3e
       -0.09997338 0.034841985 -0.045041304 0.1733712
0000e0 93 20 e4 3e 43 2c 28 3e 0e 9f 38 be d1 6f 5e be
       0.44556102 0.16423135 -0.18029425 -0.21722342
0000f0 81 b4 58 3c 7c c4 b7 bd c3 23 0c 3f 94 df 61 be
       0.013226629 -0.08973023 0.5474207 -0.22057945
000100 79 98 a0 3d 07 dc db 3e 77 a4 58 be 12 2b d5 3e
       0.07841582 0.42941305 -0.21156488 0.41634423
000110 59 ac 37 be 3a a4 28 be cd 63 af bd 7c 6a 95 be
       -0.17936839 -0.16468897 -0.08563957 -0.29182804
000120 b3 34 92 be 74 be 8e 3d cb 17 89 3e 63 c9 b4 bd
       -0.2855583 0.0696992 0.26775965 -0.08827474
000130 86 a8 c6 3e 55 5c 8a bc 4f 5c 04 bf b6 33 21 3e
       0.38800448 -0.01688973 -0.5170335 0.15742382
000140 8f 21 d8 3e 64 9e 1c 3d 82 40 a0 bd 33 79 82 3c
       0.42213103 0.03823699 -0.07824804 0.015926933
000150 3f 8f cb 3e 19 20 03 3e f5 69 a1 be 61 1b 35 3f
       0.39757726 0.12805213 -0.3152615 0.707449
000160 4e 4f 8c 3e db 85 1f bd bc 8d 07 3e 5a ad c6 be
       0.27404255 -0.038946014 0.13237661 -0.38804132
000170 fc f6 b0 ba 84 4b 60 3d b2 8d b5 be 5f f4 5e be
       -0.0013501341 0.054759517 -0.35459667 -0.21772908
000180 2e 05 d2 3d 1a 1b 90 be a1 7e 31 be fc cd 81 bc
       0.10254894 -0.28145677 -0.17333461 -0.015845291
000190 ec 8b 34 be 05 0d e1 3d 12 39 31 3e 8a 0f b9 3d
       -0.17631501 0.109888114 0.17306927 0.09036167
0001a0 cc a8 b7 bd bb da f6 3d 1e 72 38 be 23 a6 9a be
       -0.08967742 0.12053438 -0.18012282 -0.30204877
0001b0 53 d0 1f 3e e7 51 79 be 8f 81 12 3f 33 d1 1f 3e
       0.15606813 -0.2434765 0.5722894 0.15607147
0001c0 67 11 d5 3e 29 46 48 3e df af 38 bc 8a 87 f7 be
       0.4161484 0.19558014 -0.0112724 -0.48345596
0001d0 73 2a 06 be c7 47 94 3d 6c 92 e2 be 71 7c 65 be
       -0.1310213 0.07240253 -0.44252336 -0.22410752
0001e0 55 4b 24 3f 49 f0 0c 3f f1 0f 3e 3e e9 e5 f0 be
       0.6417745 0.55054146 0.18560769 -0.47050408
0001f0 02 a7 2d be d8 23 ce bd 3a a5 a3 be 83 7a bc 3c
       -0.1695824 -0.100654304 -0.31961995 0.023007637
000200 82 6d 51 3d cf da 2e 3d d8 bc e7 3b ff ca a6 3a
       0.051129825 0.04268914 0.0070720725 0.0012725292
000210 fe 6f b8 3a 93 e7 ad bd e1 e3 9b bd 01 42 95 3d
       0.0014071462 -0.08491435 -0.07611824 0.0728798
000220 5b 5b 3c 3d 2c bd ad 3c e5 6a d0 3c 9f 19 31 bd
       0.04598556 0.021208368 0.025441596 -0.043237325
000230 85 6c 74 bd f5 97 8c bd a1 4e a7 bd ed b6 b4 bd
       -0.059673805 -0.06864921 -0.08169294 -0.08823953
000240 90 67 08 bd 4c 5d 3d bb 8d 57 41 bd 95 55 9e 3d
       -0.03330189 -0.002889472 -0.047202636 0.07731167
000250 09 c1 cf 3b 91 42 b4 bd 86 42 a1 bd a5 b8 8c 3d
       0.0063401503 -0.08801759 -0.078740165 0.06871156
000260 7f 1a 17 bd bb d2 6b bd a9 37 1c 3d 7d b3 a0 bd
       -0.036890503 -0.057574015 0.03813902 -0.07846735
000270 1c 32 45 3d 4e 19 c5 bc 23 12 96 3d bc 39 3e 3a
       0.04814349 -0.024059918 0.07327678 0.0007256528
000280 c6 d4 82 bc f9 dd 2f 3d 74 56 aa bd 3e 08 9d bd
       -0.015970599 0.0429363 -0.08317271 -0.07667588
000290 41 18 95 3c 9b a2 d4 3c b4 e0 b1 3b 63 07 a4 bd
       0.018200042 0.025956443 0.005428398 -0.080092214
0002a0 ed 74 cc bb 25 c2 0b bc c6 60 89 bc 20 24 f9 bc
       -0.0062395246 -0.008530174 -0.016769778 -0.030412734
0002b0 c3 6b 0e 3d 45 1e a5 bc 16 cb 85 bd 23 47 a6 3d
       0.03477074 -0.020156035 -0.06532876 0.08119037
0002c0 14 60 b4 bd b5 e2 bf bc 0e 7d 8e 3d 60 e4 50 bd
       -0.08807388 -0.023423532 0.06957446 -0.050999045
0002d0 c6 3b 76 bd ab 17 90 bd f9 2e a1 3c 8c 58 08 bd
       -0.0601156 -0.07035764 0.019675719 -0.03328757
0002e0 1e 16 59 3d f0 31 83 3d ab f8 72 3d 9a 86 ae bd
       0.05299961 0.06406009 0.05931918 -0.08521767
0002f0 e3 f2 0e bd 42 8e 10 3c 44 60 f2 3a 88 ad 9e bd
       -0.034899604 0.008822979 0.0018491824 -0.07747942
000300 7c 0e 8d 3d 3d af 01 bd 0a e9 82 3d 4f f0 af bd
       0.06887528 -0.03166126 0.06392105 -0.08590757
000310 ac e2 df bc 4b 1a af bd 5d f5 4f ba 8e be 76 3d
       -0.027329765 -0.08549937 -0.00079329853 0.06024032
000320 63 46 a4 bd fa 7b d4 3c c2 03 98 3d 04 bc 63 3d
       -0.08021238 0.025938023 0.07422592 0.055599228
000330 99 3f 2c bd dd 28 60 bd 39 62 0d bd 7c 69 ac 3d
       -0.04205284 -0.05472647 -0.0345175 0.08418557
000340 fc 3d ab 3d 57 e0 1a 3d c1 2a e0 3c c2 4a 73 bc
       0.08361432 0.037811603 0.027364137 -0.014849367
000350 32 de 88 bd 34 d7 8f bb bd 7f 75 bd 7b d9 4c 3d
       -0.066830054 -0.004389668 -0.059936274 0.050012093
000360 d8 e1 cc 3c da 8c 58 3d d1 a6 0a bd f5 3d 84 3d
       0.025010034 0.0528687 -0.033850495 0.0645713
000370 c7 06 36 bc 95 60 4d bd 15 a4 94 3d a7 d6 fc bc
       -0.011110014 -0.050140936 0.07257859 -0.030864073
000380 bc 54 7c 3d 04 6a 90 bc f3 e6 d8 3c 24 02 53 3c
       0.061604246 -0.017628677 0.026477313 0.012878928
000390 4b 41 98 bd 3f 9e 5d bd 16 3d 89 3d 3f bb a5 3d
       -0.07434329 -0.054105993 0.06701104 0.08092355
0003a0 04 d2 60 3d 6f 58 e7 3a fc a3 87 3d 56 4e 02 bd
       0.054887787 0.0017650257 0.066230744 -0.03181299
0003b0 5e 35 1f bd d6 c2 e2 bc d2 4a a8 3c e2 4a 60 3d
       -0.038869254 -0.027680796 0.02054349 0.054758914
0003c0 d1 eb 6c 3d 20 70 90 3d f7 16 3c bb 79 64 9d bd
       0.05784208 0.07052636 -0.0028700212 -0.07685179
0003d0 92 72 1c bd 3d cd 7c bc 7b a1 1f bd 94 34 af bd
       -0.0381952 -0.015429792 -0.03897236 -0.0855495
0003e0 08 65 b0 bc 23 98 be 3c a8 cc 7e 3b 33 cb b4 bd
       -0.02153255 0.023265904 0.003887931 -0.0882782
0003f0 e8 99 13 3d 00 9c 79 bd d6 46 04 3d 26 20 89 bd
       0.03603545 -0.06093979 0.032294117 -0.06695585

lstm.weight_ih_l1 f4 [512, 128]
000000 2a 3e df be ef 0c 64 3c 00 d3 e3 3e 90 82 49 bd
       -0.43602115 0.013919099 0.44496918 -0.04919678
000010 b4 dd e2 bc b3 52 93 bc 4e 39 aa 3b 3b 0c 00 bf
       -0.027693607 -0.01798377 0.0051948195 -0.5001866
000020 07 b6 36 39 d3 9e bd bd 99 ce 05 bc 6c 74 aa 3e
       0.00017424683 -0.09258809 -0.0081669325 0.33291948
000030 93 e7 7c 3d 82 cd 15 3e 23 8f dc bd a9 c2 12 be
       0.061744284 0.14629176 -0.10769489 -0.1433207
000040 e7 a6 b3 3d 32 1e 51 bd b3 dd 53 bc 50 c4 51 be
       0.087720685 -0.051054187 -0.012931275 -0.20485044
000050 23 a2 1d be b5 1d 86 3e 6c 00 35 3e 2d 7c 9d 3d
       -0.15393881 0.2619454 0.17675942 0.076897
000060 56 f0 17 be 16 8a 1d be 79 75 05 bf 8e fc cc 3b
       -0.14837775 -0.15384707 -0.52132374 0.006255693
000070 52 ba 0d bf 24 17 a6 3e 18 c8 5f 3f 7b cd 02 3e
       -0.5536243 0.3243953 0.87414694 0.12773697
000080 bd 33 2e bc b8 8f 0f 3f aa 27 5c 3c 68 db 6f 3d
       -0.010632453 0.5607867 0.013437191 0.05855885
000090 92 7d 60 3c 0d 35 2e 3e ce 75 c6 3e e9 59 f9 be
       0.013701813 0.17012425 0.38761753 -0.48701409
0000a0 e0 4a 88 be 19 06 9c be c8 f8 37 bf cc aa 23 be
       -0.26619625 -0.30473402 -0.71863985 -0.15983123
0000b0 aa 3b 3b bf b1 3a 54 bf 4e 79 d3 3d 8c 77 c7 be
       -0.73137915 -0.82902056 0.103258714 -0.38958395
0000c0 bc 89 f3 bd 94 3a 88 3e 62 33 03 3f 50 1b 6b bb
       -0.11891505 0.26607192 0.5125028 -0.0035874434
0000d0 f3 02 7f 3e 24 df cd 3b 77 c7 db 3e 3c fb 0a 3e
       0.24903469 0.006282704 0.42925617 0.13572401
0000e0 fc 64 58 be 3b 72 43 be 94 8f 08 3f cc 8a 7d be
       -0.21132272 -0.19086544 0.5334408 -0.24759978
0000f0 2c 44 83 3e 54 43 3b be 88 9d 77 3e df a9 b4 3c
       0.2563795 -0.18287402 0.24181187 0.022053657
000100 d1 02 ec 3d 2c 55 23 bd ef bd 75 bd 58 de 49 3d
       0.11523975 -0.039876148 -0.059995588 0.04928431
000110 ef 3d 01 be 05 66 e6 3c 3a 80 1d bd f3 76 00 bf
       -0.12621282 0.028124819 -0.038452365 -0.501815
000120 84 8c 19 3e 31 e0 49 bc 03 57 7f be 24 7e 7f be
       0.14995009 -0.012321518 -0.24935536 -0.24950463
000130 58 a2 35 3e 4f ea 18 3f b9 de 84 3d cd 4e 6f 3e
       0.1773771 0.59732527 0.064877935 0.23369904
000140 cf 4b dc 3d e4 dd a4 3d 77 76 98 3e de f7 96 3e
       0.10756647 0.08050135 0.29777882 0.29485983
000150 1e e1 60 be b5 ac 1e be 3b e3 b0 3d 91 e2 0d 3e
       -0.21960875 -0.1549557 0.08637091 0.1385596
000160 90 62 34 be 34 84 b7 3c 66 7c 81 be 4a e7 1b 3e
       -0.17615724 0.022401907 -0.2529022 0.15224949
000170 c5 64 3e bd c9 3a 81 be 7d 1d 78 bd c3 da 6f be
       -0.04648282 -0.25240162 -0.060574997 -0.23423295
000180 26 1c 36 be 48 eb 6c bd 88 bd e3 be ea ee c8 bd
       -0.17784175 -0.05784157 -0.44480538 -0.09811194
000190 2b 14 79 3d ff 2b a4 3d a1 4e dc be 38 cb 9a bd
       0.06081025 0.08016204 -0.4302874 -0.07558292
0001a0 6e 13 89 3e 03 51 39 3e 31 8c ea 3e d0 93 8d be
       0.26772636 0.1809731 0.45810083 -0.27651834
0001b0 75 b8 76 be ed 6f 54 3e ae 72 0d 3d 04 52 e7 3c
       -0.24093802 0.20745821 0.034533195 0.02823735
0001c0 67 db 01 3d 29 14 df 3d 7e a5 07 bf 6f 10 2e 3f
       0.03170338 0.10892517 -0.52986896 0.67993826
0001d0 96 a0 33 bc 10 06 75 bb be be 30 bd 22 89 79 3e
       -0.01096358 -0.0037387647 -0.043150656 0.24368718
0001e0 61 82 30 3d 67 86 eb 3c 8d bf 8f 3d 00 9a b0 3c
       0.04309309 0.028750611 0.07018957 0.021557808
0001f0 e5 ba 76 bd f5 cd 57 3e 9f d6 26 be 85 ed ca be
       -0.06023683 0.2107466 -0.16292809 -0.39634338
000200 74 36 a6 bd 46 fe c5 be 0c 25 e3 bc 06 d9 51 be
       -0.08115855 -0.38670558 -0.027727626 -0.20492944
000210 0d aa 7a be 06 34 1b 3e 5d 83 29 3e 42 19 84 be
       -0.24478932 0.15156564 0.16554017 -0.2580052
000220 b0 4b 58 3d ab e8 8d bc 98 3f ff 3e 9f 89 04 3f
       0.052806556 -0.017322859 0.49853206 0.51772493
000230 ea 69 3e 3d 99 ed ea bb c6 56 93 3e 9e 8e e7 be
       0.046487726 -0.007169437 0.2877714 -0.45225996
000240 6c d3 1c be 0c a8 0a be 6f 6e a0 be 8e 05 4e 3d
       -0.15315026 -0.13540667 -0.31334254 0.050298266
000250 93 4f 25 3e 91 bd 83 bc 76 c1 ed bc 27 7a d8 bd
       0.16143636 -0.016081603 -0.029022913 -0.10570174
000260 64 0b 04 3e 7f b0 a4 bc 88 ae 60 bb cd b6 01 3d
       0.1289497 -0.020103691 -0.0034283716 0.031668473
000270 be fc 02 3d dd 22 94 bd cd 59 d2 3e 5c ba a6 3e
       0.031979315 -0.07233212 0.41084138 0.32564056
000280 0f 35 ba be 53 9e d9 bd ec 69 04 be f6 f7 8c be
       -0.36368605 -0.10625901 -0.12931031 -0.2753293
000290 0e d3 8c 3d f5 37 45 3e e7 be 96 be 44 15 b1 3e
       0.06876193 0.19259627 -0.29442522 0.34586537
0002a0 90 aa a6 3e 39 cc 94 be b3 bc 54 bd 99 6b c9 bd
       0.32552004 -0.2906206 -0.05193777 -0.09834976
0002b0 73 0b a1 bb a5 b6 72 bd aa 91 de bd 2f 65 60 3d
       -0.004914695 -0.059256215 -0.10867627 0.054783996
0002c0 14 7a 3e 3c 9a e9 01 3f 45 4a 21 bd 35 8d 3b 3f
       0.011625785 0.5074707 -0.03937747 0.7326234
0002d0 81 0c 84 3d 53 98 d2 3b c3 4f f8 3d d2 26 03 3e
       0.064476974 0.00642685 0.12124588 0.12807778
0002e0 e9 7e b0 bd c2 96 1d 3e 62 92 8e be 16 e6 21 3d
       -0.08617956 0.15389541 -0.27846056 0.039526068
0002f0 5f c2 70 3c da e2 0b 3d 21 ea 84 3e 04 4e 39 be
       0.014694779 0.03415189 0.25959876 -0.18096167
000300 42 d9 9c 3c 12 5f 05 bf 84 a4 c2 bd 4f 4c 21 bd
       0.019146565 -0.5209819 -0.09504035 -0.039379414
000310 ef 12 ea 3d 95 d8 5c bf fb f9 7c 3f f6 2e 95 3d
       0.114293925 -0.8626798 0.9881894 0.07284348
000320 7f e6 e4 3d 49 b8 af 3d 42 d1 57 bd 49 84 b8 be
       0.11176776 0.085800715 -0.0526898 -0.36038426
000330 8d 50 47 3e cb a4 8b 3e 1a c4 f2 3d 42 89 92 bd
       0.19464321 0.27274165 0.1185381 -0.07155086
000340 d2 a4 92 3c 14 35 bd be b2 09 00 bd a2 d1 13 be
       0.017900858 -0.36954558 -0.031259246 -0.14435437
000350 8b 7e 6d 3d 1f 60 04 be e8 0c 6d be 75 97 da 3d
       0.05798201 -0.12927292 -0.23149455 0.106734194
000360 bd 2f 81 3d b0 aa 19 bf ed 41 7d bd c6 80 a9 3f
       0.063079335 -0.60026073 -0.06183045 1.3242424
000370 6a cf d8 bd ee 7b a6 3d 32 33 6c bb 63 b6 c4 3e
       -0.10586436 0.081291065 -0.0036041257 0.384204
000380 69 bc 03 bd 98 94 9d 3d 36 1f e4 3b 01 36 85 3d
       -0.032162104 0.07694358 0.0069617284 0.06504441
000390 59 e3 05 3f 87 7a 1c be 35 1c 72 be 45 50 8f 3c
       0.5230003 -0.15281115 -0.23643573 0.01749433
0003a0 0d 4f 0e 3c 2e 2c 48 bd 3a 93 6c 3d 15 31 52 3d
       0.008685839 -0.048870258 0.057757594 0.05131634
0003b0 ab af 4e bc 57 f9 13 3e 64 ec c3 be 9b 91 6f bf
       -0.012615125 0.14450584 -0.3826629 -0.9358155
0003c0 3f 17 42 3d 71 25 d5 3d eb 80 c1 3c 88 ac e8 bd
       0.04738545 0.10407532 0.023621043 -0.11361033
0003d0 32 f6 a5 3d 1c 16 8b bf d6 de 14 be ee f9 09 bf
       0.08103599 -1.0866122 -0.1453813 -0.5389699
0003e0 7d 44 37 be 26 31 46 3f c6 82 09 3d 17 76 20 3d
       -0.1789722 0.77418745 0.03357198 0.03917512
0003f0 b4 d4 00 3e 4c 98 0e be 05 1f 00 3d 0b c3 ed bd
       0.1258114 -0.13925284 0.031279583 -0.11609467

lstm.weight_hh_l1 f4 [512, 128]
000000 c9 2a 5a bd 87 e3 21 bd e4 f2 72 3d c0 6a a2 bd
       -0.05326346 -0.039523628 0.05931367 -0.07930517
000010 09 80 b0 bd 6b 8e ad 3d 10 57 a8 3c 91 10 8a 3d
       -0.08618171 0.0847443 0.020549327 0.06741441
000020 54 60 8d 3d e8 a1 28 3d 2e 7a 9b bd 9c 8f 1e 3d
       0.06903139 0.04117003 -0.07591663 0.038711175
000030 b7 da 0b bc 8d 73 38 bd 46 a8 1b bd 76 f2 1e bd
       -0.008536032 -0.045032073 -0.038002275 -0.038805448
000040 5d 7e 17 bd 65 d8 b0 bd 2d 5d 86 3d 7b 28 9c 3c
       -0.036985744 -0.08635024 0.065607406 0.019062271
000050 8e f8 38 3d aa f8 32 bd 89 e0 05 bc 8c 7c 40 bc
       0.045158915 -0.043694176 -0.008171209 -0.011748444
000060 a2 cf 9c 3d 57 be 5e bd e8 15 62 bd 47 0c 91 3c
       0.0765679 -0.05438074 -0.055196673 0.01770605
000070 b2 64 a1 bd e0 6f 9e 3d 5e 33 95 3c b2 dd 7d bc
       -0.07880534 0.07736182 0.01821297 -0.015494751
000080 38 cb 1f 3d dc 93 42 3d df d5 30 bd 32 c1 1e 3d
       0.039012164 0.04750429 -0.043172713 0.038758464
000090 2b 6f 94 3c e5 95 5b bd 36 63 b6 bc 1f 99 8d 3c
       0.018119415 -0.053609747 -0.022264104 0.017284928
0000a0 b8 72 78 bd 0e 48 05 bd 60 f1 9d bd 30 5a 8d 3c
       -0.06065628 -0.03253942 -0.07712054 0.017254919
0000b0 77 9e 3a 3d fe bc 21 3b 2e 12 58 bc 8c b7 5d bc
       0.04556128 0.0024679299 -0.013187928 -0.0135325305
0000c0 77 db 9b bd f7 12 0a bd b5 33 8b 3a 7e dd 61 bd
       -0.07610219 -0.033709493 0.0010620268 -0.055142872
0000d0 b4 1a 85 3c 37 f2 bc 3c 1e 0f 2c 3d 5d 9b 5d 3d
       0.016248085 0.023064716 0.042006604 0.054103244
0000e0 e5 6b 01 3d a4 f5 72 3d af c3 93 3d 53 10 1f 3d
       0.031597037 0.059316292 0.07215058 0.038833927
0000f0 01 c8 b3 bd 01 e9 dd 3c 03 44 83 bb 28 50 2f bd
       -0.08778382 0.027088644 -0.0040059104 -0.042801052
000100 52 da 7a bd 0d 68 e8 bb 06 1a 7e 3c 2a e8 93 bd
       -0.061243363 -0.007092482 0.015509134 -0.07222016
000110 aa fb 91 3d e4 99 14 bd d4 3b 82 bd 76 32 6b bd
       0.07128079 -0.036279574 -0.063590676 -0.05742117
000120 ac 71 b0 3d b9 8c 0b bd e8 a2 14 bd 9d 17 ae 3c
       0.08615431 -0.03406975 -0.036288172 0.021251494
000130 6a 52 71 bd fd 95 6d 3d 5b 32 ad bc 8d 7f 0c bd
       -0.058916487 0.058004368 -0.021142175 -0.03430133
000140 9c cf 44 bc 1c 23 3e ba 55 15 55 bd 79 41 8f 3b
       -0.012012389 -0.00072531565 -0.052022297 0.0043718186
000150 24 2f 81 3c 91 2b 28 bd 49 96 b1 3d c0 fd 70 bd
       0.015769549 -0.041057173 0.08671243 -0.058835745
000160 61 a3 b6 bc dc 34 9e 3d df d1 71 bc b2 0e b9 3c
       -0.022294702 0.07724926 -0.01475951 0.022590015
000170 3d c6 e6 3c 68 58 68 3b bc f3 ad 3d a7 47 50 3d
       0.0281707 0.0035453085 0.08493754 0.050849583
000180 5c 89 ae 3d d2 03 87 3c 77 47 89 3d 2a 9e 8c bd
       0.08522293 0.016481314 0.06703084 -0.06866105
000190 6f 47 b6 bc c7 06 08 bd 79 6a 29 3d 85 fe 45 bd
       -0.022250859 -0.03320959 0.041361306 -0.048338432
0001a0 e7 dd 41 bd 5a 88 3b 3c b8 67 3c bd d7 81 80 3d
       -0.047330763 0.011446083 -0.04599735 0.06274765
0001b0 60 1f 03 bc 0c 83 2a bd 55 6d f9 3c 57 53 8c bd
       -0.008003086 -0.041628882 0.030447641 -0.06851833
0001c0 59 89 84 bd fe 8a 84 bd 6f e2 73 3d 1b 24 18 bd
       -0.064715095 -0.06471823 0.059542116 -0.037143808
0001d0 9a 21 9a bd 95 06 14 bd 73 8e 8a bd 4d 99 80 bd
       -0.0752594 -0.03613909 -0.06765451 -0.0627924
0001e0 0d e1 7c bd 32 16 f2 3b 3a 75 95 3d 6b ee 99 3d
       -0.061738063 0.0073879 0.0729775 0.07516178
0001f0 57 40 88 bd 89 bd 5b 3d 44 51 8b bd b5 9d 35 bd
       -0.06652897 0.05364755 -0.068026096 -0.044339854
000200 12 df e7 bc 7a 91 e5 bc 1d 4d b2 bd b6 27 6f bd
       -0.02830461 -0.02802347 -0.087061144 -0.05838748
000210 15 59 2d 3d e5 8a aa bb 0b 9d 18 3d 20 94 85 3d
       0.042321283 -0.005204546 0.037259143 0.06522393
000220 3c 43 7c 3d 81 7e 74 bd fa ec 75 bd 4d 9c 99 3d
       0.061587557 -0.059690956 -0.06004045 0.07500515
000230 88 55 47 bd 67 c7 68 bd fb 3e 6f 3d 9b 7d e2 3b
       -0.048665553 -0.05683079 0.058409672 0.006911946
000240 d2 81 94 3d c7 b5 84 bd 13 ec 9d 3d b2 33 cc 3a
       0.07251324 -0.06479984 0.07711043 0.0015579371
000250 68 84 9e bd 63 75 93 3d 1a e4 83 bd c3 5f 21 bd
       -0.07740098 0.07200124 -0.06439991 -0.039397966
000260 f4 74 04 3b 46 c7 a6 3d 01 bf 7b 3d 90 4e 80 3d
       0.002021131 0.08143477 0.061461452 0.062649846
000270 29 dc 92 bc b2 81 92 3c 7a 77 29 3d c4 af 89 3d
       -0.017927246 0.01788411 0.041373707 0.06722978
000280 cb 4e 3a bd ca 6e 66 3d d1 51 43 bb 2d e5 6a 3d
       -0.0454853 0.056258 -0.0029803405 0.057347465
000290 3e cd 1b 3c 7b f8 7d 3c d7 13 16 bd c7 7d bd 3c
       0.009509383 0.015501137 -0.036640014 0.023131264
0002a0 81 19 30 3d 2a ca d7 3c 31 30 83 3d f9 34 0a 3b
       0.042993072 0.026341517 0.06405676 0.0021088703
0002b0 f5 a8 87 3d d0 f8 b1 bc 54 fc 3d 3d 67 52 bd bc
       0.06624023 -0.021725088 0.046383217 -0.023110582
0002c0 f7 43 0c bd 48 32 a4 3d 9e d0 a0 3d c5 6e 3e 3c
       -0.034244504 0.08017403 0.078522906 0.011623089
0002d0 7c 22 ae 3c 7c 92 6f 3d 9a d7 aa bd dd af 5c bd
       0.021256678 0.058489308 -0.08341904 -0.053878654
0002e0 d9 3c b2 bc 7f 79 2b 3c 0b 15 60 3d bf 58 5a 3d
       -0.02175753 0.010465979 0.05470757 0.05330729
0002f0 cf 97 76 bd 80 04 96 3d fc a8 b2 3d 64 4c 8b 3c
       -0.06020337 0.07325077 0.087236375 0.0170042
000300 01 c2 69 3c 19 ca 7b 3d 9f 29 9a 3d 10 39 ac 3d
       0.014267446 0.061472032 0.0752747 0.08409321
000310 24 16 46 bd 73 1d 5e 3d 6e 20 50 bd 28 58 80 3c
       -0.04836096 0.054227304 -0.050812177 0.015667036
000320 a0 c7 5f bc 70 c1 8b bc ae ec 57 bd f8 e7 88 3c
       -0.013658434 -0.017060012 -0.05271595 0.016712174
000330 61 67 98 bd 85 52 5d 3c 1a 21 67 bb e7 5d 61 3d
       -0.07441593 0.013508444 -0.0035267533 0.055021193
000340 19 3f a6 3c 40 c3 50 bd ca b2 f4 bc d4 7b 25 3d
       0.02029376 -0.050967455 -0.02987041 0.040401295
000350 b8 11 9e bd 90 49 39 3c ed 41 7f bd fc 60 a1 3d
       -0.07718223 0.011309043 -0.06231873 0.078798264
000360 7e f6 63 bc 19 19 03 3c 7d e3 9f 3d 60 55 69 3c
       -0.013913749 0.008001589 0.07807062 0.014241546
000370 e2 a7 f2 bc 52 c5 8b bd fa 26 80 bd 7e d6 8c bc
       -0.029621068 -0.06824745 -0.06257434 -0.017192122
000380 a4 48 3c bd 00 4a 98 bd da d2 a8 3c 1b e3 97 3d
       -0.045967713 -0.074359894 0.020608354 0.07416364
000390 98 6c 1e bc 65 d9 34 bd ce 21 97 3d a0 db 63 bd
       -0.009669445 -0.044152636 0.073794946 -0.055629373
0003a0 f5 30 15 3b be cf 1a bc 11 46 88 bd ea 77 a2 3d
       0.0022764776 -0.009448944 -0.06653989 0.07933028
0003b0 fb 7c 0b bd 42 94 2b bd a1 9a 21 3d 83 f9 aa 3c
       -0.034054738 -0.041889437 0.039454106 0.02087093
0003c0 22 b9 21 3d 50 41 23 3d 0c f4 40 3d 37 00 71 bd
       0.039483197 0.03985721 0.04710774 -0.058838096
0003d0 65 b0 8c bd e1 eb 6d 3c 6b 7a b1 3c 44 89 96 3d
       -0.06869582 0.01452157 0.021664819 0.073504
0003e0 4f a0 8f bd 27 b5 a5 3d e3 f2 8c 3d 93 33 f8 3c
       -0.07012998 0.08091193 0.068822645 0.03029803
0003f0 a9 b0 a5 bd ab 72 0a bc 50 fe c6 3c cb 61 fe bb
       -0.08090336 -0.008450191 0.024291188 -0.0077631227

lstm.bias_ih_l1 f4 [512]
000000 a9 c1 8e 3d ea 09 60 3e 05 aa b7 3e d7 16 1c 3e
       0.069705315 0.21878782 0.35871902 0.15243088
000010 18 a6 32 be ae 28 2d 3b cc 72 36 3e 77 18 fb 3d
       -0.17446172 0.0026421952 0.17817229 0.12260526
000020 23 ae 87 3d 68 06 e0 3c f3 65 79 3e 8e 1d ea 3d
       0.06625011 0.027346805 0.24355297 0.11431418
000030 30 b4 bf 3e 5e b2 3a 3e f3 7e ed 3c 5d b2 d0 3e
       0.3744216 0.18232104 0.028991198 0.4076108
000040 59 6a 5a 3d 6f 8b be 3e 0c f9 ca 3c b2 dc 2f 3e
       0.053324077 0.37215754 0.024776958 0.17174032
000050 df a5 04 3d 8d e2 6f 3e 72 98 02 be 78 31 92 3e
       0.03238475 0.23426266 -0.12753466 0.28553367
000060 b4 e8 db 3e 99 4d 41 bd ea 20 bb 3d 97 2c 48 3e
       0.42950976 -0.047193144 0.09137137 0.1954826
000070 25 64 f0 bd fa 5d 12 3f 28 c4 74 3e 94 4b 89 3d
       -0.11737851 0.57174647 0.23902953 0.067038685
000080 9a f9 e4 3d a7 bd 58 3e 4d 6c 98 3e f1 f8 1e 3d
       0.1118042 0.21166097 0.29770127 0.038811628
000090 01 d6 00 bd 38 ef 6a 3d 8b 3c a0 3e ed 48 db 3e
       -0.03145409 0.057357043 0.3129619 0.42829075
0000a0 b6 76 17 3d f5 31 aa 3e ab 20 23 3e 72 dd aa 3e
       0.036978446 0.3324124 0.1593043 0.33372074
0000b0 09 5f 88 3e 6e 31 b3 3d 92 bb b2 3d d7 8e d5 3e
       0.26635006 0.08749662 0.087271824 0.4171054
0000c0 22 37 92 3d 9d cd 93 3e 4e 46 06 3e 3a c3 64 bd
       0.07139422 0.28867808 0.13112757 -0.055850245
0000d0 b9 fb b8 3d 1b 53 92 3e 68 56 9e 3e 97 08 16 3e
       0.09032387 0.2857903 0.30925298 0.14651714
0000e0 94 00 b2 3e 66 55 b3 3d 32 1f 91 3d 27 92 86 3e
       0.34766066 0.08756523 0.07086028 0.2628338
0000f0 97 73 10 3e 35 58 1a 3e 17 42 05 3f 08 c5 af 3e
       0.14106594 0.15072711 0.5205397 0.3433001
000100 72 f0 b9 3d f9 0c 94 3e 00 03 d1 3e af 9d 5e 3c
       0.090790644 0.28916147 0.408226 0.013587399
000110 48 39 57 3e 39 a6 d4 bd 4c cc 86 3e ca 8e d9 3d
       0.21017945 -0.10383267 0.2632774 0.10622938
000120 00 9c 3d 3e 18 bf a2 3d 18 cb 39 3e 34 65 1c 3e
       0.1851654 0.079466045 0.1814388 0.15272981
000130 e7 d0 37 3e 20 26 5b 3d 3a 28 91 bc 6e ab 1e bd
       0.17950784 0.053503156 -0.017719377 -0.038737707
000140 54 69 b8 3d 62 ac a4 3e 11 5f cc 3d 6f a3 7e 3c
       0.09004465 0.32162768 0.0997907 0.015541895
000150 75 f0 54 3e 0b 1d 83 3e b0 97 a4 3e 11 5d d9 3e
       0.20794852 0.25608096 0.32146978 0.42453817
000160 91 ac 26 3f e5 98 6d 3e 4c b7 3a 3e 71 ad bd 3c
       0.65107065 0.23202856 0.18233985 0.023153992
000170 16 d8 70 3e bb 2c c6 bc 4a b4 aa 3e 69 e2 a2 3e
       0.2351993 -0.024191251 0.33340675 0.31813362
000180 49 99 c5 3e 1d 70 8d 3d 72 53 7d 3e fa 33 92 3c
       0.3859351 0.069061495 0.24738863 0.01784705
000190 9f 57 8a 3e f7 d1 85 bd 5a 11 69 3e 81 bc 90 3e
       0.27019975 -0.06534188 0.22760525 0.28268817
0001a0 55 20 82 3e b3 34 de 3d 82 40 3c 3e 9c ca 3b 3e
       0.25415292 0.10849895 0.18383983 0.18339008
0001b0 e8 e5 3b 3e 71 4f 40 3e 69 15 ba bd 5a ee 91 3d
       0.18349421 0.18780304 -0.09086115 0.0712554
0001c0 0f ca fe 3e 1a 68 d3 3d 14 0d 6a 3e eb 22 a2 3e
       0.49763533 0.1032259 0.22856551 0.31667265
0001d0 2e 31 18 be 77 10 71 3e 48 0e 37 3e d1 d9 c1 3e
       -0.1486251 0.23541437 0.17876542 0.37861493
0001e0 c0 0d 17 3e 5f fc 81 3d 56 9f 22 3e ee e3 f4 bd
       0.14751339 0.06346964 0.15881094 -0.11957537
0001f0 f4 6b 4e 3e f6 f0 b7 3e cb d0 9e 3e 5c e3 12 3f
       0.20158368 0.35926026 0.3101867 0.5737817
000200 27 50 a3 3c 10 5d 24 3d fb 11 9d 3b f0 28 19 bc
       0.01993568 0.040127814 0.004793403 -0.009348139
000210 d8 37 30 3d ca 46 35 3d 96 04 70 bd ba f3 16 3d
       0.043022007 0.044256963 -0.058598123 0.03685353
000220 bc 21 19 3d 84 35 a9 3c 94 a5 45 3d 68 a8 a0 bd
       0.037385687 0.020655401 0.04825361 -0.07844621
000230 23 1a 66 3d 96 04 13 bd 91 5d 38 bc 26 98 5f bd
       0.05617727 -0.035893045 -0.011252777 -0.05458846
000240 b9 4d 01 3d 7e 79 3d bd b4 ec a0 3c 37 73 8b bc
       0.031568263 -0.046258442 0.019644119 -0.017022712
000250 1d dc 86 3c b3 04 aa 3d cf 63 a4 3d bb 70 ab 3d
       0.01646238 0.083016776 0.080268495 0.08371111
000260 71 0d 27 bd 8b ea 36 bd a2 40 a1 bd 40 d1 ab 3d
       -0.040784303 -0.04465727 -0.07873656 0.08389521
000270 5b 6d 07 3c 76 2a 7a 3d 26 05 5f 3d 19 16 b5 bc
       0.0082658185 0.06107565 0.05444827 -0.022105264
000280 b6 6d b9 3c f9 85 a9 3c 79 c6 87 bd f7 62 95 3c
       0.022635322 0.020693766 -0.066296525 0.018235667
000290 68 7f a1 3d 2a 1c e5 bc e9 98 8b bc 3c aa 0d 3d
       0.07885629 -0.027967531 -0.017040687 0.034586176
0002a0 bf 99 3a bd 12 12 0e bd db fe 8e bd 0c bf 10 bd
       -0.04555678 -0.034685202 -0.069822036 -0.035338446
0002b0 db 27 9d 3c ee 8c 4f bc 48 b7 85 3c 61 72 cd bc
       0.019184044 -0.012667878 0.016322747 -0.025078954
0002c0 52 86 ad bd 35 71 04 bd 5d 0a a7 bd 4e a1 86 3d
       -0.08472885 -0.032334525 -0.081562735 0.06573735
0002d0 1c 19 ff 3b e4 98 00 bd a4 e2 52 bd 1e 8e 11 bd
       0.0077849757 -0.031395808 -0.051485673 -0.035535924
0002e0 f0 6e b4 3d 3c f0 27 3d dc 54 82 bd 98 e1 8b bd
       0.08810222 0.04100059 -0.06363842 -0.06830138
0002f0 bb 87 b1 bd d2 b6 f2 3c 7d 8a 14 3d fd f4 14 3d
       -0.08668467 0.029628191 0.036264885 0.03636645
000300 f0 eb 85 3d 9c c9 49 bd 26 75 b4 3d 6d 0c e2 3c
       0.06539142 -0.049264535 0.08811407 0.027593816
000310 4d 8d c8 bc a6 a8 0c 3d 7f b2 10 3d 57 e9 49 bd
       -0.02448144 0.034340523 0.035326477 -0.049294796
000320 89 2a 03 3d 34 35 6b 3d 9b 4f dd bb 88 a6 92 3c
       0.032022987 0.057423785 -0.0067538745 0.017901674
000330 d0 09 a2 bd 7e 93 c3 bc ca 11 c1 3c 8b 47 3f 3c
       -0.07912028 -0.02387404 0.023568053 0.011674772
000340 32 7e 8f bc 7d a9 af bd fc 44 4f bc 8d 41 48 bd
       -0.01751623 -0.08577249 -0.0126507245 -0.04889064
000350 b1 02 73 3d cf 42 1a 3d 4e 6c a7 bd 04 d0 90 bd
       0.05932874 0.03766137 -0.08174954 -0.07070926
000360 33 e6 47 3d f4 f7 91 3d f2 be 34 3c 28 d9 12 3d
       0.04880352 0.071273714 0.011031853 0.035851628
000370 12 3e 8f 3c f8 c0 29 3d 74 7c 97 3d a3 2c a8 3d
       0.017485652 0.041443795 0.073967844 0.08211639
000380 84 61 41 bc b4 bb 50 bb bb fd a0 3d ce 6a dd 3c
       -0.011803035 -0.003185016 0.07860895 0.027028468
000390 7f 75 79 bd 98 80 1c 3d cd b6 87 3d 36 85 1e 3c
       -0.06090307 0.038208574 0.06626663 0.009675315
0003a0 ff 63 d5 3c 55 c3 9c 3d 0c 5a 97 bc f3 78 37 3c
       0.026048658 0.07654444 -0.018475555 0.01119827
0003b0 b4 4c 8e bd 99 8e 3c 3d f0 90 69 bd 69 36 0e bd
       -0.06948224 0.04603443 -0.05702299 -0.03471986
0003c0 f7 83 0b 3d 40 e8 4c bd ec ae a8 3b 0c 0c 23 bd
       0.0340614 -0.05002618 0.0051478054 -0.03980641
0003d0 14 78 54 bd ba 61 ac 3d 87 bd 15 bd 6e 52 62 bc
       -0.051872328 0.08417077 -0.0365577 -0.013813598
0003e0 75 a1 86 3d 45 40 39 bd 6c 0b 9b 3d 53 56 f6 bc
       0.06573764 -0.045227308 0.07570538 -0.03007046
0003f0 a4 2b 84 3d aa 88 f5 3b da 19 72 bd e4 c0 a0 bd
       0.06453636 0.0074930983 -0.059106685 -0.07849291
